checkpoints/checkpoint_step_4500.pth (torch, 200878 bytes, 10 tensors)

model.0.weight f4 [256, 21]
000000 9d 99 00 3e 72 40 ee 3c 73 74 27 3e a2 1a 73 be
       0.12558599 0.029083464 0.16353016 -0.23740628
000010 43 7c 9b be 46 9e 37 be c6 81 f9 be d5 a2 b4 3b
       -0.30368242 -0.1793147 -0.48731822 0.005512575
000020 54 d5 62 3c b3 79 39 3e 11 eb 38 be d9 cf 67 bd
       0.013844807 0.18112831 -0.1805842 -0.056594703
000030 84 96 8d 3e fb 45 58 bf 19 15 4d be 67 52 46 be
       0.27653897 -0.8448178 -0.2002758 -0.19367371
000040 2c 14 00 bd 33 44 ab 3d d5 9b e1 3d 6f 40 c9 be
       -0.031269237 0.08362617 0.11016051 -0.3930697
000050 66 08 a7 3e d8 95 dc 3c 09 1f 92 3c 18 79 32 be
       0.32623595 0.02692692 0.017837064 -0.17429006
000060 4c 51 a2 bd b8 1b 93 bf 17 08 9a bd 22 d5 a3 3d
       -0.079256624 -1.1492834 -0.07521074 0.07999636
000070 59 80 b2 bd c7 d2 09 be 77 f4 9a be c9 98 d6 bc
       -0.087158866 -0.13459311 -0.30264637 -0.0261959
000080 e1 09 89 bd b6 4e ab be d0 d3 af be b3 65 00 be
       -0.066913374 -0.3345849 -0.34341288 -0.12538795
000090 e4 b5 c2 bc b1 fe 4b bd 3e 6c 1e 3e 7b 30 ae bd
       -0.023768373 -0.04980344 0.15470979 -0.08505341
0000a0 98 ca 0a 3e 5e 3a 92 bd 5e 38 61 bd 6a 0c 86 be
       0.13553846 -0.07140039 -0.054985397 -0.26181346
0000b0 eb f3 7d 3e 3f c2 db bc ad 15 03 3e 51 ff af 3d
       0.24800079 -0.026826022 0.12801237 0.085936196
0000c0 3d bb f8 be 47 c6 db 3d dc e5 1b 3e fe 11 30 be
       -0.4858035 0.10731178 0.15224403 -0.17194363
0000d0 31 4d 05 3d 7b 45 01 bf 15 32 ea bd 14 eb 72 be
       0.03254432 -0.50496644 -0.11435334 -0.23722488
0000e0 6e 27 5d be 6d 14 b7 3d 30 d3 a5 be d1 c9 42 bd
       -0.21597072 0.08939443 -0.32387686 -0.04755575
0000f0 e6 68 b5 bd 0c a1 3d be f6 bf d5 bd c8 8b 8e 3d
       -0.088578984 -0.18518466 -0.10437004 0.06960255
000100 47 8e 54 bf 0f a4 92 3d b5 2c 06 bf 55 86 ea bf
       -0.830296 0.07160198 -0.5241197 -1.8322245
000110 ec 0f 8b 3d dd 28 27 be fc 75 aa 3d 80 2b ba bd
       0.06790146 -0.16324182 0.08323285 -0.09090328
000120 e9 fc 88 3e 31 d4 03 be 5d 8e 8a 3e 01 18 45 3c
       0.26755455 -0.12873913 0.2706174 0.012029649
000130 17 b9 15 be 78 7a b8 bd d5 0b 92 3e 2c 8a 24 be
       -0.14621387 -0.09007734 0.28524652 -0.16068333
000140 1d 9a 4a 3e 26 7b b3 bd bf 3e 2a 3e a4 14 20 bf
       0.19785352 -0.08763723 0.16625498 -0.62531495
000150 3f 71 0e 3e 43 7c ef bd ee 09 00 be 12 dc 48 3d
       0.13910387 -0.11693623 -0.12503788 0.049038
000160 64 d3 cb 3d 60 f4 b6 be e5 8a 48 3e f2 91 0d 3e
       0.09952429 -0.35733318 0.19584234 0.13825205
000170 13 5a a1 3d 53 aa 63 3d 23 d0 23 be 5a a9 b5 3c
       0.078785084 0.055582356 -0.15997367 0.02217548
000180 c5 c9 5f 3d 4a fd 19 be 2e 5b be be 1e 9b aa 3d
       0.05463578 -0.15038028 -0.3717894 0.083303675
000190 7f 2f 83 3e c7 80 0a bf 57 30 56 be cc fa b3 3d
       0.25622174 -0.5410275 -0.20916878 0.0878807
0001a0 2d 08 13 3d 3f 95 0b be d5 23 b9 3d 18 95 24 be
       0.03589647 -0.13631152 0.090400375 -0.160725
0001b0 d2 88 fb 3d b9 a0 29 bd 95 40 d7 3d af c3 32 be
       0.12281956 -0.041413043 0.10510365 -0.1745746
0001c0 5e 86 40 3c b2 09 74 be b7 e5 ad bd 70 a0 bb 3d
       0.011750786 -0.23831823 -0.0849108 0.091614604
0001d0 0e cd 86 3e e7 3d 44 bb 05 80 cc 3e b4 c7 7a bd
       0.2632832 -0.0029944123 0.3994142 -0.061225608
0001e0 57 d4 c4 3e 0c c2 21 3e 5a 12 aa 3e 4c aa 0a be
       0.38443252 0.1579668 0.33217126 -0.13541526
0001f0 a9 e9 66 3e c9 6f ef 3d d4 ec 24 bf 94 0d 80 bd
       0.22550072 0.11691243 -0.6442387 -0.0625259
000200 48 80 94 3e e0 e4 bb be 01 71 4a bf b6 9b 00 be
       0.2900412 -0.36698055 -0.7907868 -0.12559399
000210 a2 a0 8e be e5 ee a9 be 7a 38 c4 be a5 ce 65 bd
       -0.27856928 -0.33190075 -0.38324338 -0.056105275
000220 8d 5f 8e be 15 48 90 be d6 3c 9a bd 07 c2 4f be
       -0.27807274 -0.28179994 -0.07531135 -0.2028886
000230 f8 89 23 3e 97 68 28 3e 3b 94 e0 3d 1e ba cb 3d
       0.159706 0.16446148 0.10965773 0.099476084
000240 c8 91 56 be 20 9b c6 bd 1e 5d ce bd 44 02 31 be
       -0.20954049 -0.096975565 -0.100763544 -0.1728602
000250 7c 9f f0 bd 56 6f 39 3e 37 e9 09 be c6 c0 3a 3e
       -0.11749169 0.18108878 -0.1346787 0.182376
000260 eb fc 76 bd 52 a6 af be 51 c7 9a bd ce 16 a2 c0
       -0.060299795 -0.3430658 -0.07557548 -5.065284
000270 38 1b 06 bd e0 26 9f bd df 00 0e bd 14 77 be bd
       -0.0327408 -0.07771087 -0.0346688 -0.09300056
000280 a3 54 aa bd 0b ec 00 3d 95 37 28 bc 9c ca 53 bd
       -0.083169244 0.031475108 -0.010267158 -0.051706895
000290 49 de 47 be 82 21 48 bd 16 0c 7c be 3f e3 56 be
       -0.19518389 -0.04886008 -0.24613985 -0.20985125
0002a0 a1 7b a7 bc 5d 4b 03 be f9 43 9a 3d 5c 3a 5f be
       -0.020444693 -0.12821718 0.07532496 -0.21799606
0002b0 82 0c 83 3d 6e 78 45 3b 3b 8a b3 be 1b c6 d5 bd
       0.0639887 0.0030131596 -0.350664 -0.10438176
0002c0 e5 e9 3c 3e 66 c8 97 be 4b 0c a2 be b8 24 b7 be
       0.18448599 -0.2964508 -0.31650004 -0.35770202
0002d0 48 97 95 bc de c0 9e bd 09 66 2e be 41 d6 98 be
       -0.018260613 -0.0775163 -0.17031111 -0.29850963
0002e0 a9 c3 28 3c 2b 06 8e bd af a4 83 be 14 eb 85 bd
       0.010300555 -0.0693477 -0.2571158 -0.06538978
0002f0 3d 0b ec 3c 94 5a 32 3e c3 dc 53 be ed 80 a7 be
       0.028813953 0.17417365 -0.20689683 -0.3271555
000300 27 a9 8f bd 08 46 5d 3e 6c 42 71 be c3 6a 8e be
       -0.07014685 0.21608746 -0.23560494 -0.27815828
000310 ff 41 a5 bd 5d f0 05 3d 87 75 04 3d dd 1a 3e be
       -0.080692284 0.03269993 0.032338645 -0.18564935
000320 a7 14 05 bf 05 8a c8 bd d9 08 b0 be f1 de a6 3d
       -0.5198464 -0.0979195 -0.3438175 0.081479914
000330 fb e7 f9 bd 72 1c 33 be 66 48 06 bf 8d b8 e1 3d
       -0.1220245 -0.1749132 -0.5245422 0.110215284
000340 55 c2 5a be 1e 39 aa bd ff 46 84 be 08 28 3a 3e
       -0.21363194 -0.083116755 -0.25835416 0.18179333
000350 9d 2c ee bd ab 3f 99 3b 80 c5 4d be e1 ff fb 3d
       -0.11629603 0.0046767793 -0.20094872 0.123046644
000360 48 ad d9 bd 69 30 fb 3d 34 cc 0b be bb b6 c8 3d
       -0.10628754 0.12265093 -0.13652116 0.09800478
000370 d3 52 15 3e 98 ea 5b be c2 f1 e8 bd d0 93 1d 3f
       0.14582376 -0.21476209 -0.11374237 0.6155367
000380 9f 7b 64 3e aa 30 f9 be 99 f3 a8 3e c9 5c a9 be
       0.22312783 -0.4866994 0.3299835 -0.33078602
000390 dc 7e 79 bd fb 1c 5e 3e 0b 8a d4 3c e7 3c 0c be
       -0.060912 0.21690743 0.02594473 -0.13695107
0003a0 7a 71 6f 3d 30 34 0c be 75 d1 f1 bd 43 3c a5 3e
       0.05845783 -0.13691783 -0.11807529 0.3227254
0003b0 56 75 ab 3c 50 99 a4 3d 83 e9 98 bd c8 06 dd be
       0.020929974 0.080370545 -0.07466414 -0.43169236
0003c0 11 8d 51 be cb b4 2f be e8 91 81 be da 1c a3 bc
       -0.20463969 -0.17158811 -0.2530663 -0.019911218
0003d0 e8 ff c4 bd ea 2b 65 bd 76 74 a8 3e 6c 03 74 be
       -0.09619123 -0.055950083 0.32901353 -0.2382943
0003e0 fe 13 99 be 0d d8 2d bd 7c 60 e2 bd 6b 22 6d bd
       -0.29898065 -0.04244237 -0.11053559 -0.05789415
0003f0 6a 04 dc bd 2f 77 0f 3e 95 07 8c be 81 9d 28 be
       -0.107430294 0.14010309 -0.27349535 -0.16466333

model.0.bias f4 [256]
000000 2c 38 1d 3e 89 25 00 3c 1a 46 69 be 70 29 ec 3d
       0.15353459 0.007821449 -0.22780648 0.11531341
000010 69 13 c1 3e 99 e5 38 3e 6c 27 dc 3d 76 53 b8 3d
       0.3771012 0.18056335 0.107497066 0.09000294
000020 61 23 40 3e 8a ca 36 3e 24 c3 7a be 6c 48 8f bc
       0.18763496 0.178507 -0.24488503 -0.017490588
000030 6c a9 fc 3c 78 96 dd be d5 fe d7 3e 49 6f cd 3e
       0.030842505 -0.4327886 0.4218661 0.40123966
000040 d3 f8 fb bd 89 4d e8 bd 0e 53 b2 3e 03 d6 54 be
       -0.12303319 -0.11342914 0.3482899 -0.20784764
000050 80 40 aa bd 9b 70 d4 be 77 4e ee bd 94 93 2c be
       -0.08313084 -0.4149216 -0.1163606 -0.16853172
000060 b6 02 03 bf 52 14 b1 bd 20 00 59 be 8f b4 15 3e
       -0.5117601 -0.08646454 -0.21191454 0.14619659
000070 72 56 a0 bd 30 9c 3f bc 15 05 97 3e b3 79 cc 3e
       -0.07828988 -0.011694953 0.29496065 0.399366
000080 21 b0 13 be c0 a7 29 be c4 93 a0 be bc 03 bc 3d
       -0.14422657 -0.16567898 -0.31362736 0.091804
000090 77 b1 c9 bd 2e f1 a8 be 96 dc 00 3d b4 c6 c4 3d
       -0.09848302 -0.32996505 0.031460367 0.09608212
0000a0 08 3f 6b bd 0e ee 47 3e 9d d1 c7 bc 83 4f ae bd
       -0.05743316 0.19524404 -0.024391944 -0.085112594
0000b0 09 0e 85 3e ed d8 43 be 8c c1 e8 bd 42 4a 15 bd
       0.2598727 -0.1912572 -0.11365041 -0.03644777
0000c0 22 a7 55 3e e9 98 fb bd 42 93 3f bd bb 48 70 3d
       0.20864537 -0.12285025 -0.046771295 0.05866311
0000d0 39 aa c5 be ea 27 90 be a7 7a 34 3e da 6a 96 be
       -0.38606432 -0.28155452 0.17624913 -0.29378396
0000e0 ec aa aa be d9 c6 12 3d cc 4c b3 be 63 03 4d bd
       -0.33333528 0.035834167 -0.3501953 -0.050052058
0000f0 34 94 81 3d 08 c8 f1 bd cb e6 96 3e ba 47 00 be
       0.06327096 -0.11805731 0.29472956 -0.12527362
000100 6f d5 90 bd 07 4e 14 be d2 1f 7b bd 68 d3 a5 3e
       -0.07071959 -0.1448289 -0.061309643 0.32387853
000110 b1 87 9d be f0 88 4b 3e a9 3f 1a bd d6 e4 85 3e
       -0.30767587 0.19876456 -0.037658367 0.2615115
000120 8d 1b 45 bd 46 e3 ed 3d 19 29 53 be 6d 4a be be
       -0.048121978 0.116156146 -0.20621146 -0.37166157
000130 6e 29 0b be 9a 1d f6 bd f7 a3 3e be f1 f3 c9 3e
       -0.13590023 -0.12017365 -0.18617235 0.39443925
000140 a8 64 08 3d c7 aa 9d 3e 3b bd fc be c1 95 21 be
       0.03329912 0.30794355 -0.4936312 -0.15779783
000150 f0 99 89 3d 87 8f 59 be 81 35 a3 3e e9 ad a6 3e
       0.067188144 -0.21246158 0.31876758 0.32554558
000160 14 36 95 bd 65 c2 84 3d c8 3e 65 3e 9d f9 32 be
       -0.07285705 0.0648239 0.2238723 -0.17478032
000170 21 a7 5d be 41 74 12 be 81 3c 17 be 85 6b 85 be
       -0.21645786 -0.1430216 -0.14769174 -0.26058593
000180 84 18 96 be b0 79 f9 bd 6f 63 b8 be 79 57 c7 3e
       -0.2931558 -0.12181413 -0.36013362 0.38933924
000190 09 77 d1 3e b3 64 25 be e1 77 2b bd fc a1 96 3e
       0.4091113 -0.16151695 -0.041862372 0.2942046
0001a0 d2 2a f1 3d 52 6b 2b 3e 03 d1 b1 bc 19 7f da 3d
       0.117757455 0.16740158 -0.02170611 0.10668773
0001b0 95 50 0d bc 1d 7e 08 be 19 64 e5 3c 64 05 99 bd
       -0.008625169 -0.13329358 0.028001832 -0.07471731
0001c0 ea 01 95 bd 9e b0 ad bd 7c 00 90 bd 20 be b6 bd
       -0.07275756 -0.08480953 -0.070313424 -0.08922982
0001d0 9b 67 09 3e 0a 5a 88 3e 71 06 20 bd ab 68 1c 3e
       0.13418429 0.26631194 -0.039068643 0.15274303
0001e0 19 e7 a9 be 35 83 66 3d 04 91 0c be ee 79 a8 3d
       -0.33184126 0.056277473 -0.13727194 0.08226381
0001f0 36 9a d8 bd 51 7e e6 be 52 9b bf 3e 49 e1 4a 3e
       -0.105762884 -0.45018247 0.37423187 0.19812502
000200 bc 35 9e be db 90 5f be 07 26 de bd 10 b1 5b 3e
       -0.3090037 -0.21832602 -0.10847097 0.21454263
000210 69 a1 29 3c 96 37 3f be d1 23 b7 3e 2c 7c bd 3d
       0.010353425 -0.18673548 0.35769513 0.092521995
000220 dd 93 fa bd c3 f3 65 be a8 e8 42 3d 38 65 c3 3e
       -0.12235234 -0.22456269 0.04758516 0.3816316
000230 8b 4f f6 bd 25 64 39 3e 9d dc 78 3e 3d c3 c9 bc
       -0.1202689 0.18104608 0.24302907 -0.02462923
000240 75 5e 94 3e 3e f1 a6 3e da f6 a9 3d 0e 5c a6 3d
       0.28978315 0.32605928 0.08299036 0.08123027
000250 43 d3 4d bf c8 a1 0e be 5d 44 45 3e 73 65 22 be
       -0.80400485 -0.13928902 0.1926436 -0.15859012
000260 e6 0e b0 3e 1d b2 e4 be 8c e5 64 be 8b 39 75 3d
       0.34386367 -0.4466714 -0.2235319 0.05986933
000270 bc d4 77 bc 8c 53 5e 3e 1c 67 c4 3e f1 ef c7 3e
       -0.015126403 0.21711558 0.38359916 0.39050248
000280 e7 2b 4a be 6e 3e 3e bd db 0a f0 3e 76 05 b2 3d
       -0.1974331 -0.046446256 0.46883282 0.08692448
000290 8f d5 11 be 66 70 bd 3e c6 90 12 be a4 fc 00 be
       -0.14241622 0.36999816 -0.14313039 -0.12596375
0002a0 26 5f fc bc fa 2f 88 3e a0 77 0a be 81 d4 8e bd
       -0.030807089 0.26599103 -0.13522196 -0.06974126
0002b0 22 f3 66 3e 3d 24 6a be 92 82 78 3e e5 55 a7 3d
       0.22553685 -0.22865386 0.24268559 0.0817068
0002c0 66 4e 9a be 44 94 fc 3e 52 f9 7f bd 04 2c 57 be
       -0.30137938 0.49331868 -0.06249363 -0.21012884
0002d0 8e 7c b1 be 97 b3 8b 3e bf 7f d8 3d 6a c3 48 3d
       -0.3466534 0.27285454 0.10571241 0.049014486
0002e0 d4 1c 1b be 0a 5d e8 bb 5a 40 92 be 3e 21 c0 be
       -0.15147716 -0.0070911692 -0.2856472 -0.37525362
0002f0 e2 a7 ed 3d 17 f6 0c 3e 2a 23 6c be a1 26 5e 3e
       0.11604287 0.13765751 -0.23060289 0.21694423
000300 b7 4e db 3e 50 21 a8 3d 66 0e 28 be 9d 95 a9 be
       0.42833492 0.08209479 -0.16411743 -0.33121958
000310 72 82 a8 3e a0 e4 71 3c bb 21 47 3e 25 97 00 be
       0.32912022 0.014763981 0.19446461 -0.12557657
000320 5b 95 a5 be 90 a7 e3 3c 31 3c ef bb 18 bf 4f 3d
       -0.32340512 0.027789861 -0.0073008765 0.05071935
000330 f4 f5 bc 3c d2 0e 2f 3b 9e 42 3f be d7 bd d2 bd
       0.023066498 0.0026711714 -0.18677756 -0.10290115
000340 40 f6 c7 bd 42 6f 80 be 51 b9 20 3d ae a2 ce 3d
       -0.09763765 -0.25084883 0.03923923 0.100896224
000350 77 6a d0 3d 43 a5 50 3e 2f ef fa bd 9f b4 38 be
       0.101765566 0.20375542 -0.12252652 -0.18037651
000360 20 e4 6d 3e b7 26 71 3e 79 3b b0 bd 43 2a 1c 3f
       0.23231554 0.23549925 -0.086050935 0.61001986
000370 e3 82 48 bd b1 0e 29 be ce 67 88 bc 39 2d fe bd
       -0.04895295 -0.1650951 -0.01665106 -0.12410969
000380 11 6e 81 be fc 2b 44 be fa 52 27 3e db 97 78 be
       -0.25279287 -0.19157404 0.16340247 -0.24276678
000390 28 50 74 3d b7 0e 1e 3e 0e 28 fa 3d 31 fa af bd
       0.059646755 0.15435301 0.12214671 -0.08592642
0003a0 f2 d1 f1 3c de 62 bb 3d f7 68 1a 3f 18 ca 93 bd
       0.029519055 0.09149717 0.60316414 -0.07216281
0003b0 f3 f6 30 3e bf 4d 4f be 97 9f c7 3e fc c2 dd 3e
       0.17281704 -0.20244502 0.38988945 0.43312824
0003c0 21 9d 21 be a6 cd 3f 3d f1 06 19 bd 99 9b 7e bd
       -0.15782596 0.04682698 -0.037360135 -0.06216011
0003d0 7f 9f 33 be 92 f5 65 be e3 d3 9d 3e 94 fe c0 3e
       -0.17541312 -0.22456959 0.3082572 0.37694228
0003e0 17 50 c0 be 2f dc 43 be 3d 63 99 3d c8 0d 57 3d
       -0.37561104 -0.19126962 0.07489631 0.052503377
0003f0 dc 1f ca bd 18 17 c1 be e9 d1 d2 3d 93 d6 3d 3e
       -0.09869358 -0.37712932 0.102939434 0.18538885

model.2.weight f4 [128, 256]
000000 a9 87 c3 bd 99 ca 65 3d f7 d8 d5 3b cb 4c 45 3d
       -0.095473595 0.056101415 0.0065261084 0.04816894
000010 68 34 86 3c 6e 05 91 bd 49 79 a0 bd b1 2e 8b 3d
       0.016382411 -0.07081114 -0.07835633 0.06796015
000020 2b bd 33 bd da d5 d4 bc 5f 4d d8 3e 06 fe b1 bd
       -0.043881577 -0.025980879 0.4224653 -0.08691029
000030 52 81 8b 3e 55 2a 70 3c 28 e0 29 3c ad 71 bd bc
       0.272471 0.01465853 0.010368384 -0.023125494
000040 f7 e4 40 3c 0a 07 f0 bb ff 02 90 be 58 92 39 3e
       0.0117733395 -0.007325058 -0.28127286 0.18122232
000050 22 33 92 bd 82 bc c4 3d e2 38 0e bd 50 e9 ef 3d
       -0.07138659 0.096062675 -0.034722216 0.11714423
000060 f7 41 30 3e 68 89 cd 3d a7 e0 7b bd 04 10 e4 3d
       0.17212664 0.10035974 -0.061493542 0.11135867
000070 38 14 d6 bb a4 62 25 3d 8d f3 e6 3d 9b a7 31 bd
       -0.006533172 0.040377274 0.112769224 -0.04337273
000080 bf 7f dc bd 1c 93 bb bc 23 96 b6 3d 01 61 a6 bb
       -0.10766553 -0.022897296 0.08915355 -0.0050774817
000090 40 ba 8b 3b 56 cb b0 3d e0 66 3e bd 18 3f 59 3e
       0.004264146 0.08632533 -0.046484828 0.21215475
0000a0 49 e2 c5 3d 33 b3 48 be 75 2c d9 be 8d 6b f1 3d
       0.09662301 -0.19599609 -0.4241673 0.11788092
0000b0 20 b9 ac bd eb 0e a9 bc 5e ff 1c bd 2a 57 2c bd
       -0.08433747 -0.020636996 -0.038329475 -0.042075314
0000c0 39 3b a7 3d 59 1b 9c 3d 32 d9 a2 3d ed ca 45 3d
       0.08165593 0.07622404 0.07951583 0.04828923
0000d0 ca 98 68 3e 03 09 5b bd 9b fc 96 3e fa a3 04 be
       0.22714534 -0.05347539 0.29489598 -0.12953177
0000e0 88 40 c6 3d 38 9e 1a 3d 62 bd ae bc d2 f7 f2 bd
       0.09680277 0.037748545 -0.02133054 -0.11863674
0000f0 c0 24 02 bc 7a f0 bb 3c 95 82 9e 3e 17 e7 2e 3c
       -0.007943332 0.022941817 0.30959 0.010675213
000100 35 77 69 3d 1e 74 c8 bd 55 17 89 bc 10 f4 27 be
       0.05699845 -0.097877726 -0.016734758 -0.16401696
000110 64 7b f9 bd 23 28 8d 3d f0 b8 16 be 9d 8d 42 3e
       -0.12181738 0.06892421 -0.14718986 0.18999334
000120 c2 5f c0 bc 3f 47 29 3e aa d4 54 3e 18 e6 76 3d
       -0.02348316 0.16531084 0.2078425 0.06027803
000130 58 ee 81 3e 3d b8 f9 3d fc 9f 4d 3e 07 e3 f4 3d
       0.25377154 0.12193344 0.2008056 0.119573645
000140 2b 3d 2c 3d 1c 8a a4 3e 77 f6 83 3e 3e 82 93 3d
       0.04205052 0.3213662 0.25773975 0.07202576
000150 27 10 8b bc 07 40 6d bd b5 34 3b 3d 6f af fd 3d
       -0.016975475 -0.05792239 0.045704562 0.12386977
000160 f1 cf f3 3d e0 de a0 bb bd a6 8a 3d 46 74 51 bd
       0.11904896 -0.0049093813 0.06770084 -0.051136278
000170 3e 34 ba 3d 61 6a bb bc 15 45 b3 3e fb f4 d0 bc
       0.09091996 -0.022877874 0.35013643 -0.02550744
000180 10 97 3f 3d 98 a9 e3 bd 1e f3 16 3e ab 55 89 3e
       0.046774924 -0.11116332 0.1474118 0.26823172
000190 0d 97 94 3e 7b 2a af 3c d3 ca c0 bd a8 a7 1c 3e
       0.29021493 0.021382561 -0.09413686 0.15298331
0001a0 e6 bc 2b bc e1 00 a9 3d fb 11 dd 3d cc 0b 5c 3d
       -0.010482049 0.08252121 0.10794445 0.053722188
0001b0 39 a1 97 3d 54 73 18 bd e4 ff 53 3c 4d a2 14 3d
       0.07403798 -0.03721936 0.012939427 0.036287595
0001c0 b7 52 85 3c 24 7e 1c bd 57 ba 72 be 06 c9 a2 bc
       0.016274793 -0.038206235 -0.23703896 -0.019871246
0001d0 24 63 5a bd eb f2 35 3e cb 15 22 3e b8 8e 85 3c
       -0.053317204 0.17768447 0.15828626 0.016303405
0001e0 2b ee b5 3d a6 57 85 bd 3d af f7 bd 22 1a 0a 3e
       0.088833176 -0.06510858 -0.12093971 0.13486531
0001f0 da 43 bd 3d 88 5f 9a bd df 69 aa 3e 12 c9 db 3d
       0.09241457 -0.075377524 0.33283898 0.107317105
000200 85 95 e8 3d c1 d8 80 3c 5f e2 b3 3d 51 aa 5a 3e
       0.113566436 0.015728356 0.08783411 0.21354033
000210 e2 c3 b2 3d 7f 1f 1d 3d 41 4c d2 3d 68 b5 04 3e
       0.08728768 0.038360115 0.102684505 0.12959826
000220 f6 ab 9a 3d 6d 9e 83 bd 25 2b 0d 3e 77 17 22 3f
       0.0755233 -0.06426702 0.1378599 0.63317055
000230 f0 15 ca bd 91 f5 59 be d4 68 fa 3c 69 4a 04 3e
       -0.098674655 -0.21285082 0.030567564 0.1291901
000240 d5 29 12 3d a7 0f 20 3d e6 0a 24 3d 6e 16 02 3e
       0.035684425 0.039077427 0.040049456 0.12703869
000250 5d 82 26 3e b2 29 5b bc c6 88 71 3e 3d 5b cc bc
       0.16260667 -0.01337664 0.23587331 -0.02494585
000260 33 05 72 3e 56 ce 20 3d 0e dd 47 3d 07 c8 81 3d
       0.23634796 0.039259277 0.0487948 0.0633698
000270 7c f1 d0 bc 3b e9 62 3e b5 f6 04 bf 21 9a 81 3d
       -0.025505774 0.22159283 -0.51938945 0.06328226
000280 a1 1c b9 3b c7 47 cd 3d 9e b6 83 3d 09 a2 c4 bd
       0.005649165 0.10023456 0.06431316 -0.09601218
000290 af 41 3e bc b3 4a c5 3d 58 51 48 3e a5 ba d6 3d
       -0.01161234 0.09633388 0.1956228 0.10484818
0002a0 31 35 1e 3c 5b be c1 3c 3c f8 c1 3e 1b 13 1c bd
       0.0096562365 0.023650339 0.378847 -0.038104158
0002b0 39 53 21 3d a0 83 0e 3d 9f 35 51 3e da bc e0 bc
       0.039386008 0.034793496 0.20430611 -0.027433801
0002c0 d7 6a 29 3a 84 48 2b 3e a8 db 07 bd 37 f4 8b be
       0.0006462759 0.16726881 -0.033168465 -0.2733476
0002d0 9f 47 82 3d 93 c4 4a 3e 4c e4 6d be 7a 5e 30 bd
       0.06361317 0.1980155 -0.2323162 -0.04305885
0002e0 03 6c 91 bc a2 0b 57 bd 69 4f 71 bd 57 ef 01 3d
       -0.0177517 -0.05250133 -0.058913622 0.031722393
0002f0 f6 b3 54 3e 02 01 68 bc 59 c1 8c bd 2f df 35 be
       0.20771775 -0.0141603965 -0.06872816 -0.17760919
000300 7d c6 6c be d7 22 33 3e 92 9d 85 bd 64 a0 0b 3d
       -0.23122592 0.17493759 -0.06524195 0.034088507
000310 6e 11 59 3d c5 e1 4d be e3 5e d0 3d f1 b1 90 bd
       0.052995138 -0.20105655 0.10174348 -0.0706519
000320 fe 93 85 3e 55 82 ff 3d 95 94 9a 3e 8d 2c 75 be
       0.26089472 0.12476031 0.30191484 -0.23942776
000330 ee f9 36 bb 99 99 dd 3d d9 7a 6e be d9 19 8f bd
       -0.0027919966 0.10820312 -0.2328905 -0.06987352
000340 71 7f a5 bd 39 c7 b3 3d e6 bc a8 3e 38 a5 35 bb
       -0.08080948 0.08778233 0.32956618 -0.0027716886
000350 6c d6 b1 bc 7d 4e 37 3d a1 71 ec 3c 43 7c f2 bd
       -0.02170869 0.044752587 0.028862776 -0.11840107
000360 db 51 d7 bd 99 74 5c 3d 1a 83 19 3d ae 30 73 bf
       -0.105136596 0.053822134 0.037478544 -0.94996154
000370 2e 34 f2 bd 3a 12 ed 3d ba 0e 41 3d ca b8 1a be
       -0.11826359 0.11575742 0.047133185 -0.15109554
000380 13 87 2a 3e c1 a5 53 bd 9a 81 69 3d 57 2e a0 bc
       0.16653089 -0.051671747 0.057008363 -0.019553347
000390 d1 f0 fb bc bf 07 8f 3d 11 5d a9 3e 3b 32 bf 3d
       -0.030754479 0.06983899 0.33078817 0.093357526
0003a0 40 c7 38 3c fd 3a ca bc 97 70 59 3e 10 d8 ec 3c
       0.011277974 -0.02468633 0.21234356 0.02891162
0003b0 57 0e 16 be ce 90 91 bd 47 bf 8b 3e 47 60 18 bf
       -0.14653908 -0.071076974 0.2729437 -0.5952191
0003c0 61 e6 27 3c 67 43 09 3e 2d 71 48 3d 42 19 be bd
       0.010247798 0.13404618 0.048936058 -0.09282161
0003d0 29 f9 44 3e 33 12 0e be 5d 8c 31 be c1 e2 12 3b
       0.19235672 -0.1387413 -0.173387 0.0022412988
0003e0 9c c7 3b 3e ee 0c b7 3b 58 0d cb 3d da ee a1 bc
       0.18337864 0.005586258 0.099146545 -0.019767214
0003f0 67 c6 9c 3b 6f 27 e8 bc 08 4f be bc 1e 68 7f bd
       0.0047843936 -0.028339116 -0.023231044 -0.062355153

model.2.bias f4 [128]
000000 88 e8 bb 3e 86 0e ed 3d 1e 8d b7 3d 0b 96 73 3d
       0.36700845 0.11575036 0.08962463 0.059469264
000010 55 ed b0 bd 98 95 14 3e 7a 0a 2f 3d 92 0e 1b 3d
       -0.086390175 0.1451019 0.0427346 0.037855692
000020 6b 00 9f 3d 7f 80 62 bd 08 09 7e bd 0a dd 88 be
       0.077637516 -0.055298325 -0.06202033 -0.2673114
000030 82 d6 a2 3d c1 46 b5 3a 73 40 4d be 7a e0 70 bc
       0.0795107 0.001383029 -0.20044117 -0.014701957
000040 10 fb 14 bc c8 db a8 3d b8 62 b3 bd ed 68 33 bd
       -0.009093061 0.08245045 -0.087590635 -0.043801237
000050 54 14 d9 3c 84 40 22 3e ef fd a7 3b de bf 48 3e
       0.026498951 0.15844923 0.005126707 0.19604442
000060 c9 81 95 3d 8d 5d 4d 3e ae e9 2b 3d d6 6b 3d bd
       0.07300145 0.20055218 0.0419709 -0.04624542
000070 ce 00 ff 3d 9a 8c cd bc 1f 24 76 3e 84 cd 84 bd
       0.12451325 -0.025091458 0.24037217 -0.064845115
000080 e3 ff c2 3e 66 ea ac bc ff e3 b2 bb ff 90 88 bd
       0.3808585 -0.021107864 -0.005459308 -0.06668281
000090 a3 79 86 3b bf 16 41 3d 69 d1 6f bc f6 7d 59 bd
       0.0041038557 0.047140833 -0.01463733 -0.05309864
0000a0 c6 e4 08 3e 45 b5 32 bc 4f e6 8a 3d e3 14 6a bd
       0.1336852 -0.010907476 0.06782209 -0.057148825
0000b0 fd b3 a9 bd cd 82 db bc 55 f6 2d 3c da b9 3c 3e
       -0.08286283 -0.02679577 0.010617812 0.18430272
0000c0 57 7b 2f 3c 4f 64 a6 3e 19 16 48 3c 0e 40 b5 bc
       0.010710559 0.32498404 0.0122123 -0.02212527
0000d0 d3 af aa bc 98 44 96 bc 22 a3 81 3c c6 30 5a 3c
       -0.020835793 -0.018343255 0.015824858 0.013317293
0000e0 5d 47 2b bd f7 4b 20 3e 97 c3 6c 3e 28 30 03 bd
       -0.041816104 0.15653978 0.23121487 -0.032028347
0000f0 ef 68 65 bd 60 27 51 3e c0 f5 91 be ee 6a 65 3d
       -0.056008276 0.20425177 -0.28507805 0.05601018
000100 72 83 ff 3d 00 af d9 3d 48 19 b0 3e c2 6c ca bd
       0.12476243 0.10629082 0.34394288 -0.09884025
000110 f8 e1 a0 3d d0 46 3d 3e 29 1f c7 3c 5a 89 cf 3d
       0.078556 0.18484044 0.02430685 0.101336196
000120 27 a2 9b bd bb ca 03 3d 1c 9e cd 3e 19 7d 02 be
       -0.075992875 0.03217576 0.4015969 -0.12743033
000130 d6 71 d3 bc dd c6 b5 bd 14 22 13 3e 3c 85 f0 bc
       -0.025811117 -0.08875821 0.14368469 -0.029360406
000140 77 ca 70 3b 98 c9 2b 3e e0 57 89 bc 9c 47 01 3e
       0.0036741772 0.1677612 -0.016765535 0.12624973
000150 44 d5 90 bd 6c 4a 3c 3e b1 47 20 3e 42 16 b9 bd
       -0.07071927 0.18387765 0.15652348 -0.090374485
000160 26 04 7f 3e 4b 42 a5 3d b8 60 33 3e 33 ed da bc
       0.24903926 0.08069285 0.17517364 -0.026724434
000170 ad 2f 6b 3d 01 9d d9 bb 28 8e cd bc 4c d7 0b 3e
       0.057418514 -0.006641031 -0.0250922 0.13656348
000180 91 aa 6f 3e 42 b4 44 3c 7e 1a 80 bd 0c 9b e3 3c
       0.2340491 0.012005867 -0.06255053 0.027783893
000190 7a 1c 16 3e cc 1c 2e 3e dc 7e b8 3d 32 c3 37 3e
       0.146593 0.17003173 0.090085715 0.17945555
0001a0 ab fd d1 bd 3e d2 0b bf 74 8a 58 bd 20 1a cd 3c
       -0.102534615 -0.5461768 -0.052866414 0.025036871
0001b0 8d e0 aa 3d d3 2d f4 3e e3 da 40 3e 65 1f 5d bd
       0.08343611 0.4769121 0.18833499 -0.05398502
0001c0 df 58 17 3e 9f f9 cb 37 ef 95 79 3e aa 30 07 3d
       0.14779995 2.4315725e-05 0.24373601 0.033005394
0001d0 f7 72 0f be cf 02 f1 3d 0d 67 cd 3e e4 09 c2 3d
       -0.140087 0.11768114 0.40117684 0.09474543
0001e0 b0 5e 46 3e 13 0c e0 3e 93 42 12 bd 5e 07 91 bd
       0.19372058 0.43759212 -0.03570802 -0.07081483
0001f0 68 84 3d bd dc 45 d0 bc 12 24 53 3d 93 c1 18 bc
       -0.04626885 -0.025423937 0.05154807 -0.009323495

model.4.weight f4 [64, 128]
000000 83 5c c7 3d 38 20 c1 bc bc 22 87 3e 1d 40 0b be
       0.09734442 -0.023574933 0.26393688 -0.13598676
000010 b3 fd fc bd 6a 9c 6b bc 09 5d 83 3d e0 78 4e 3c
       -0.12353077 -0.014380554 0.064142294 0.012602061
000020 39 b1 b9 be 44 d1 08 3d 77 e9 a5 bc c6 1a 1f be
       -0.36268023 0.033402696 -0.020252926 -0.15537557
000030 29 29 19 be 44 4f 46 bd e3 6a 9b be 0b 1a be 3d
       -0.14957108 -0.048415437 -0.30354986 0.09282311
000040 94 67 aa 3c 3c 3e 11 3d 6b 9d 0b bd 22 87 46 bd
       0.020801343 0.035459742 -0.034085672 -0.048468716
000050 d0 9f 04 3c 47 31 02 bf ac dd d1 3d fa 0c 2f 3e
       0.008094743 -0.5085644 0.10247359 0.17094794
000060 f9 fe 65 3e e9 84 c2 3d d6 f4 51 3e c1 d5 09 bd
       0.22460546 0.09498007 0.20503554 -0.033651117
000070 aa 48 b1 3d 82 95 56 3d 91 e0 a9 3d 89 47 4e 3d
       0.08656438 0.052388676 0.08294786 0.05036119
000080 10 73 64 3e 41 46 e6 bc 05 3b a8 3e 56 ae 28 3d
       0.22309518 -0.028109672 0.32857528 0.041181885
000090 88 08 72 bc e6 90 32 3e a2 b6 b7 3b c5 48 0b 3d
       -0.014772542 0.17438087 0.0056064883 0.034004945
0000a0 92 e5 2a 3e 7d 7f c5 bd c5 37 0d be 21 3f 99 bc
       0.16689137 -0.09643457 -0.13790806 -0.01870686
0000b0 df 59 02 3c 3c db 7b bd 85 90 27 bc 7b 82 5f bc
       0.007955997 -0.061488375 -0.010227327 -0.013641949
0000c0 6a e5 cf be 32 82 72 bf d7 98 26 bd 0c c1 ea b9
       -0.40604717 -0.9472991 -0.040673103 -0.0004477579
0000d0 12 b1 a1 3c 3e cf 7f 3d c2 38 e3 3d 75 31 3a 3b
       0.019737754 0.0624535 0.1109481 0.0028410826
0000e0 05 7c c4 bc 31 69 db bc be b4 56 be 87 04 9d bc
       -0.023984918 -0.026783558 -0.20967385 -0.019167198
0000f0 3e 32 85 3d 57 e2 cc 3c da b9 01 3f fa 5c 7e 3e
       0.065037236 0.025010271 0.5067421 0.24840155
000100 ee 2f 7b 3c 6a 67 e7 3d e9 db dc 3c ea 11 e4 bc
       0.015331252 0.112990215 0.02696033 -0.027840573
000110 a3 71 53 bc 24 ac 38 be 10 cc b7 bd c1 d9 04 3f
       -0.012905511 -0.18034416 -0.08974469 0.51894766
000120 05 82 11 3d 28 01 1f 3f 93 7f 2c be a9 a2 33 bc
       0.035524387 0.6211114 -0.1684554 -0.010964074
000130 57 a1 87 bd 65 14 a1 3c f7 4a d1 3e bc 15 f6 3d
       -0.0662257 0.019663045 0.40877506 0.12015864
000140 54 c5 76 3c cf 3a ad bd bd ec 66 3d 92 e6 a0 3e
       0.015061695 -0.084584825 0.056378115 0.3142591
000150 b8 ee b4 3d 3a 90 c7 bd a2 c0 bb be 5f 29 96 3d
       0.088345945 -0.09744306 -0.36670405 0.0733211
000160 8b a1 d1 3e c7 16 de 3c 46 cb f1 be e4 68 1d bd
       0.4094356 0.02711047 -0.47225398 -0.03843011
000170 d9 2d 3d bd e8 f3 b1 3d d8 ec 81 3f 3e 19 00 be
       -0.0461863 0.086890996 1.0150404 -0.12509629
000180 cf 3b 6e be 64 8e 95 3d 2b fd 82 be c4 52 25 bd
       -0.23265003 0.073025495 -0.25583777 -0.040362135
000190 51 4a 0f bb 68 25 c8 3d d1 e4 40 3d f3 ae 2f 3e
       -0.0021864364 0.0977276 0.047093216 0.17156582
0001a0 64 18 22 bd 99 63 3d bf 48 c0 26 bd f6 c8 17 bd
       -0.039574042 -0.739801 -0.040710717 -0.037056886
0001b0 57 80 6e 3d 23 6d 55 bd 00 08 9b 3e f8 69 b8 3c
       0.058227863 -0.052106034 0.3027954 0.022511467
0001c0 ef b6 77 3e 32 1c 1f 3e 17 a5 a8 3e b2 84 2b be
       0.24190877 0.155381 0.32938454 -0.16749838
0001d0 c7 5a 25 bc 22 74 c1 3d f7 f6 17 3e 87 52 2b 3e
       -0.010092444 0.09445979 0.14840303 0.167307
0001e0 70 fa 92 3d 98 86 71 3d 7d ba 00 3d ea 9b 2f bd
       0.071766734 0.05896625 0.03142785 -0.0428733
0001f0 a0 ce 54 bd 94 99 f7 bc c9 0d 20 be 41 80 79 bd
       -0.051954865 -0.030224599 -0.15630259 -0.060913328
000200 92 1a 6b 3c 52 46 64 3d f1 6a 40 3c 1d 1b 7b bc
       0.014349597 0.055731125 0.011744247 -0.0153262885
000210 e1 39 9a bc 9c 10 ca 3d e8 a8 e1 bb ed 59 00 3c
       -0.018826427 0.09866449 -0.0068865903 0.00783394
000220 66 2e 61 3d c8 29 06 bd 8f 4b 87 bd 43 ec 77 3d
       0.05497589 -0.03275469 -0.066062085 0.06052805
000230 23 f4 33 3d 34 25 aa 3c c4 57 c2 bd c6 35 41 3d
       0.043934 0.020769693 -0.09489396 0.047170423
000240 09 57 a3 bc bb 28 b5 bd 7a db 7b bd 1a 6b 8d 3d
       -0.019938963 -0.08845659 -0.061488606 0.069051936
000250 44 66 a8 bd f0 c9 ab bd bf 3c 88 3d 43 35 67 3d
       -0.082226306 -0.08388126 0.066522114 0.05644728
000260 6e 95 9a 3c a9 5a 6f bd a3 7f c5 bd 60 91 da bb
       0.018870082 -0.05843607 -0.096434854 -0.006670162
000270 79 47 e1 bb da 06 41 bd 1c 80 34 bd 5e 85 3a 3d
       -0.0068749753 -0.047125675 -0.044067487 0.045537345
000280 6a 98 8d bd 4e 02 4d bd 05 0f 00 bd a6 e6 b2 bd
       -0.06913836 -0.050051026 -0.031264324 -0.08735399
000290 fb 76 7b 3d f4 7f 1f bc b0 54 9d 3c fb b9 0e 3d
       0.061392765 -0.009735096 0.019205421 0.034845334
0002a0 a0 56 9a 3c 10 af 12 3d a9 e8 a6 bc 15 d3 9c 3d
       0.018840134 0.035811484 -0.020374613 0.07657448
0002b0 40 07 09 bc 64 c0 9c bd c1 b9 03 3d 8a 46 86 3d
       -0.008363545 -0.07653883 0.03215957 0.06556423
0002c0 2e ec 01 bd 10 5b 90 bc ea 00 54 3c f9 1d 9a 3d
       -0.03171938 -0.017621547 0.012939671 0.07525248
0002d0 80 05 a8 bd 7e cc 23 bd be ec 57 bd ae 17 93 bd
       -0.08204174 -0.03998994 -0.05271601 -0.07182251
0002e0 1f dd 7a bd 78 71 3c bc 35 6d b5 bd 12 4b 9f bd
       -0.061246034 -0.011501662 -0.0885872 -0.077779904
0002f0 34 b6 59 bd d5 ce 9d 3d 40 f5 3d 3d 77 64 ac bc
       -0.053152278 0.07705466 0.046376467 -0.021044
000300 a2 8d b2 bb 1a 2c 8a bd e7 53 1a bd 20 37 90 3c
       -0.005449013 -0.06746693 -0.03767767 0.01760441
000310 91 1c 2e bd 1d c7 c6 bd 9c 3e 99 bc b9 1d 9f bd
       -0.04250771 -0.097059466 -0.018706612 -0.07769341
000320 e0 a2 27 bb 24 2a e9 3c dc 40 70 bc aa 23 d7 3a
       -0.0025579259 0.028462477 -0.014663901 0.0016413827
000330 42 0a 83 bd 36 4a 5d 3d 4c 72 3b bd 13 61 80 3c
       -0.06398441 0.05402585 -0.0457633 0.015671289
000340 06 23 18 3d b1 5e ed 3c 35 a1 25 3d 86 a7 6e 3c
       0.037142776 0.028975816 0.040436942 0.014566308
000350 e0 4f 3a bd f2 c0 66 3d 15 87 ab bd 83 a8 80 3d
       -0.04548633 0.05633635 -0.08375374 0.06282141
000360 4e 21 98 bc f3 a6 92 bd 56 f8 13 bd 68 fd f1 bc
       -0.018570568 -0.07160749 -0.036125503 -0.029539779
000370 3a 60 54 bd ee ca 39 3d 38 ae 13 bd ef b7 61 3d
       -0.05184958 0.045359544 -0.03605482 0.055107053
000380 30 d7 86 bd 0e 95 40 3d 31 ef ad bd ea 4d 97 3c
       -0.065840125 0.04701715 -0.08492888 0.01846977
000390 ac e1 ba bd 7c 8a 88 bd b8 ea a8 bd 3c ef 71 3b
       -0.09125075 -0.06667039 -0.08247894 0.0036916276
0003a0 ad 76 87 3d 30 d1 ba bc 22 47 71 3d 45 86 65 3d
       0.066144325 -0.022804826 0.05890573 0.056036253
0003b0 66 d0 b8 bd c0 22 1e bd 51 1a cd bd 91 8c bc bc
       -0.09024124 -0.03860736 -0.10014785 -0.023016246
0003c0 67 00 a1 bd b7 38 06 3c 60 61 a1 3c 7c 1a 3e bd
       -0.07861405 0.008192233 0.019699752 -0.046411976
0003d0 b0 cc 66 bc 80 50 ca bd 98 66 90 3b 5e a5 f0 bc
       -0.014086887 -0.098786354 0.0044067614 -0.029375728
0003e0 dc 0f 74 3d a8 48 55 bd d7 54 48 bd 18 2c 2f bd
       0.059585437 -0.052071244 -0.048909035 -0.04276666
0003f0 f6 ec 35 3d 54 d1 c8 bc 01 b8 80 3b 2e 6f 5b 3d
       0.044415437 -0.024513878 0.003928185 0.053572826

model.4.bias f4 [64]
000000 90 3d b9 3d aa a6 c4 bb 6e c6 9f 3d 2a 55 a8 3d
       0.09044945 -0.006001313 0.07801519 0.08219369
000010 ac 2e cd 3e 73 91 9d 3e 65 47 5d 3e 54 c4 8a bc
       0.4007467 0.3077503 0.21609266 -0.01693932
000020 c3 93 a6 3e 75 fc 96 3b f4 90 3b 3e 5e b4 31 be
       0.32534608 0.004607732 0.18317014 -0.17353961
000030 7d f0 d2 3e 25 76 b1 bd 39 f4 4c 3e 5c c6 d1 bc
       0.41199103 -0.086651124 0.20015039 -0.02560728
000040 9c d8 aa 3b 31 10 de 3e d3 34 dc bd 60 19 af 3d
       0.00521381 0.43371728 -0.10752263 0.08549762
000050 be e7 77 3e b1 2a 33 be 3f b8 65 3e 1d 18 6d 3b
       0.24209496 -0.17496754 0.22433566 0.0036177703
000060 3a 99 1b bd 5f aa 17 3e d6 9e 8d bb cd 98 25 3f
       -0.037987925 0.14811085 -0.0043219132 0.6468628
000070 1b a8 17 be ec a4 f8 3d ae 4d 42 bd 88 98 78 3e
       -0.14810221 0.12140831 -0.047437362 0.24276936
000080 29 8e 53 3e 77 00 fe bd 80 49 ae bd b7 7b 97 3d
       0.20659699 -0.124024324 -0.08510113 0.073966436
000090 2c 08 3b 3c 13 a4 fa 3c 72 22 96 bb ff f0 49 3e
       0.011415523 0.030595815 -0.004581743 0.19720839
0000a0 b8 11 7d 3e 05 58 86 3e 7e e4 b8 bd 12 bc 54 3e
       0.2471379 0.2623903 -0.090279564 0.20774868
0000b0 50 d1 bd bd 7a 44 fb 3e 65 a3 f9 bd 17 1a fa 3d
       -0.09268439 0.4907568 -0.12189368 0.122120075
0000c0 32 4e 86 3d fc 3f c2 bd 9e f9 01 3d 6c e5 ad 3e
       0.06557883 -0.0948486 0.031732194 0.33964097
0000d0 34 bc 16 3e 54 53 48 3e 1f 19 74 3e 3f 85 99 3c
       0.14720231 0.19563037 0.23837708 0.018740295
0000e0 5d 58 67 bc a4 55 8f bd d1 4e b3 bd aa 41 05 3e
       -0.014120189 -0.069987565 -0.087552674 0.1301333
0000f0 7e 70 02 bd cf 0d 02 be 4b 48 20 bd cb 92 e7 3b
       -0.031845562 -0.1270058 -0.039131444 0.0070670596

model.6.weight f4 [32, 64]
000000 eb 6f 8b 3d c8 a2 5d bd 18 9d 5a bb 8b cc ea bd
       0.06808456 -0.05411032 -0.0033357795 -0.11464795
000010 2e 43 32 be b3 e1 34 3d 90 68 3b 3d fb c2 c3 3d
       -0.1740844 0.044160556 0.045754015 0.09558674
000020 c4 8b c3 3c 59 59 f9 bb 24 d9 ca bc c5 fc 49 bd
       0.023870356 -0.007609528 -0.024761744 -0.049313325
000030 3a cf 9d bd e4 7c a3 bd 58 a6 58 bd e2 ca b9 bd
       -0.07705541 -0.07982805 -0.052893013 -0.090719
000040 4f da 91 bd 33 0c 2b be 80 a0 2d bb ad 9d 90 3d
       -0.07121717 -0.16703872 -0.002649337 0.07061324
000050 b8 70 16 be 73 7e 1e 3e bf 26 73 3d 93 8f 66 3d
       -0.14691436 0.15477924 0.059363123 0.056289267
000060 ad 9e 85 bd 01 ec 20 be 37 0d ed bc d3 e9 9a 3c
       -0.06524406 -0.15715028 -0.028936965 0.018910324
000070 de f2 7b 3d 00 ce 1a be 59 57 fa bd 2f b7 d4 3d
       0.061510913 -0.15117645 -0.122236915 0.10386502
000080 cc 85 e2 3d 08 e0 2e 3d 1f c5 61 3d d7 5f e9 bd
       0.11060676 0.04269412 0.05511963 -0.11395233
000090 cd e2 2b bc 4d 67 69 bd e4 93 17 be 77 eb 2a be
       -0.010491085 -0.05698328 -0.1480251 -0.16691385
0000a0 4c 0c 1a 3d 83 07 f9 bb e0 c4 eb 3b 2b e5 20 be
       0.037609383 -0.0075997724 0.0071951 -0.1571242
0000b0 28 18 8f 3c 78 0d d7 bd 9b d1 ca bd bd 0a 24 bd
       0.017467573 -0.10500616 -0.0990326 -0.040049303
0000c0 12 5e dd bd d9 3d c2 bd ba db 2f 3d ea e3 a8 bd
       -0.10808958 -0.09484453 0.042934157 -0.08246596
0000d0 17 22 55 be 12 be 3f bd 72 90 07 be 9b 67 78 3c
       -0.20813785 -0.046812125 -0.13238695 0.01516142
0000e0 d6 59 72 bd cc 05 f8 bd 46 12 61 bd 3e d1 45 3d
       -0.059167705 -0.12110481 -0.054949068 0.048295252
0000f0 bd a8 0c bd 24 cf 9d bd f4 cf c5 3d 47 a0 be 3d
       -0.03434061 -0.077055246 0.096588045 0.09307914
000100 28 69 1f be aa a7 e1 bd 42 42 90 be 3a 5d 17 3e
       -0.15567458 -0.110183075 -0.2817555 0.14781657
000110 49 24 cf 3e 57 4c 6d be 0a 70 60 be 30 11 d0 3d
       0.4045737 -0.23173653 -0.2191774 0.10159528
000120 db 70 b1 be 25 7f f9 bd 2d fd da bd 80 95 0a be
       -0.34656414 -0.12182454 -0.10692821 -0.13533592
000130 ee 1a 02 3f a7 cc 81 3d 18 3f a3 bd 83 5a 42 3e
       0.5082234 0.063378625 -0.079710186 0.1897984
000140 80 9a 5e bc 46 f2 50 3e e6 f9 f3 3d 8b 5d 85 bc
       -0.01358664 0.2040492 0.11912899 -0.016279956
000150 49 90 32 bd 0c 9c 51 3d 90 e2 3b 3d b3 4d a9 3c
       -0.043594632 0.05117421 0.045870364 0.020666933
000160 e8 58 73 3e 9f 35 a4 3e 87 00 a8 bc 7f 2b a3 3e
       0.23764384 0.3207216 -0.020508064 0.31869122
000170 e9 51 9e bd 8e a8 9e 3c 6a f1 2e be 78 33 f2 3c
       -0.07730467 0.019367483 -0.1708428 0.029565558
000180 14 74 5d 3e 2f 1a b0 bd e0 30 09 bd cb 7a 0e 3d
       0.21626312 -0.08598744 -0.033493876 0.034785073
000190 da a4 0c 3e 2f 57 86 3d fc 93 61 be b3 55 d0 bd
       0.13734761 0.06559598 -0.22029108 -0.10172596
0001a0 89 0a 47 bd 88 54 89 3e f8 34 5e 3d 90 49 60 3e
       -0.04859403 0.26822305 0.054249734 0.21903062
0001b0 f4 9a 18 be c7 07 77 3e f5 af 0e 3d 9c 0b f9 3d
       -0.1490286 0.2412406 0.034835774 0.121604174
0001c0 56 71 86 be 38 d7 70 3b 6b bc ae 3d 12 65 34 3e
       -0.26258343 0.0036749374 0.085320316 0.1761668
0001d0 7c 31 4e 3e ad 13 31 3e 04 f8 c6 3d f5 29 62 3e
       0.20136064 0.17292662 0.09715274 0.22086318
0001e0 41 e8 a0 3e 8c 56 b8 3d 20 41 86 3d ab a9 3d 3e
       0.31427196 0.090008825 0.0655539 0.18521754
0001f0 a2 6d b2 bc dc 55 0a 3c 21 6c 06 be 0d 06 85 3d
       -0.021780793 0.008443322 -0.13127185 0.06495295
000200 75 cd 6d ba e6 88 e2 bc 5a 37 47 be 5f ba 15 3d
       -0.0009071448 -0.027653169 -0.19454709 0.03655469
000210 ee 4d aa bc 89 57 2d 3e 6a 08 2d 3e a9 be d9 bb
       -0.020789113 0.16927923 0.16897741 -0.006645043
000220 25 a8 78 3e e5 f0 30 3d 87 b9 a0 bd 86 4a e1 bd
       0.24282892 0.043198485 -0.078478865 -0.11000542
000230 6f 13 37 3e 6f 20 d7 3d 0a f5 2d be 71 ed 0c 3e
       0.17878507 0.10504233 -0.16988006 0.13762452
000240 f8 39 f5 3d 05 23 ba 3d af 38 95 3d 0f c6 f0 3d
       0.11973947 0.09088711 0.07286202 0.11756527
000250 b3 10 f9 3d fd 83 84 3e be ef 17 be 8a f6 b5 bd
       0.12161388 0.2588195 -0.14837548 -0.08884914
000260 2f 11 98 3d e7 fe c1 bc 3d 88 e9 3d d5 e9 84 be
       0.074251525 -0.023681117 0.114029385 -0.2595965
000270 a5 58 94 3d da ad c7 3d 92 05 17 bc a2 52 01 3e
       0.0724347 0.097499564 -0.009217637 0.12629178
000280 29 b6 40 3e dc 56 81 3d 61 76 be 3c de 1f 03 be
       0.18819489 0.06315395 0.023249807 -0.12805125
000290 97 91 c6 bc 47 85 c0 3c fc 75 04 be 1f 5b 53 bd
       -0.024239345 0.023501052 -0.12935632 -0.05160057
0002a0 c4 35 01 be b0 bd 24 3c 12 65 02 3d 90 ca 44 be
       -0.12618166 0.010054991 0.03183467 -0.19217896
0002b0 78 51 d9 ba 3c aa df bc 71 71 a3 bc 7f 3d 8b 3d
       -0.0016580066 -0.027302854 -0.019951554 0.06798839
0002c0 5d f1 0b 3e 77 bd c1 bd 4b 56 82 3c 95 a7 fc bd
       0.13666292 -0.09459966 0.015910288 -0.12336651
0002d0 42 a7 d2 3d 15 85 fa bd 0e a1 48 bd 63 1e 4d 3d
       0.10285808 -0.12232415 -0.04898172 0.050077807
0002e0 e1 7d 41 be ec 57 0b 3d 91 db bd bc e1 a1 a7 be
       -0.18895675 0.034019396 -0.023175986 -0.3274069
0002f0 dc 74 83 3d e0 f7 84 bd 6f 40 54 3d 69 ee bd bc
       0.064187735 -0.06492591 0.05181926 -0.023184972
000300 7d 7f 31 3e 91 69 8d bc ea a2 ee bd 8c 99 d4 ba
       0.17333789 -0.017262252 -0.11652167 -0.0016220077
000310 b7 c0 b0 3e c0 47 09 bf ba cf ba be 48 30 a5 3c
       0.3452203 -0.53625107 -0.36486608 0.020164624
000320 a8 b1 c5 bc 53 89 e4 3d 7b fb 8b bf 51 68 b1 3c
       -0.024132565 0.11159005 -1.0936121 0.021656187
000330 aa 2f 36 3d c3 b7 3c 3d 73 a2 97 3d 0f ba 98 bd
       0.04447905 0.046073686 0.074040316 -0.07457363
000340 75 40 bd 3d 6b 9d bf bd 56 94 03 bd 0a e6 52 be
       0.0924081 -0.09356197 -0.032123886 -0.20595565
000350 84 50 9e be 76 e6 d2 3e 30 19 3c 3c f1 3d 32 bd
       -0.30920804 0.41191453 0.011480615 -0.043516103
000360 95 40 ac 3c 9f 60 ec 3d 1e c6 11 3e e6 d0 4a bd
       0.021026889 0.115418665 0.14235732 -0.049515627
000370 13 5d 36 be f4 85 a9 3c ef d4 36 be a0 84 1d be
       -0.17808942 0.020693757 -0.17854665 -0.15382624
000380 9e 76 d1 3e 9a 44 97 3c 7f 8e d5 bd e1 83 1f be
       0.4091081 0.018465329 -0.104275696 -0.15577652
000390 8a 9c d8 bd 2c 0f 80 bd b4 bf 2c be 7d 7f 8a be
       -0.105767325 -0.06252894 -0.16870004 -0.2705039
0003a0 81 ca 94 3d b0 9e 8d be f6 d6 6d 3c fb 89 f1 3c
       0.07265187 -0.2766013 0.014516583 0.02948474
0003b0 6f 39 9f bd 80 91 2b bf bb 70 d4 bd ea ce 90 3d
       -0.077746265 -0.6701889 -0.10373064 0.07070716
0003c0 9e 7d 99 bd 74 fe 68 3c 7b b0 3d 3d 84 d8 fc bc
       -0.07494663 0.014220823 0.046310883 -0.030864961
0003d0 23 99 7f be cf 3a 14 be a5 10 2e be d5 54 70 be
       -0.24960761 -0.14475559 -0.16998537 -0.23469861
0003e0 54 3b 12 be f1 55 7c bd ef 7b 04 3e 1f b9 2d bf
       -0.14280444 -0.061605398 0.12937902 -0.678606
0003f0 ae 5d f8 3d db 9b 30 3d d0 d7 0f 3d 48 9d f6 bd
       0.12127243 0.043117385 0.035117924 -0.12041718

model.6.bias f4 [32]
000000 68 7e 30 3d b3 8f 12 3f c4 40 64 bd 16 ba 3c 3d
       0.0430893 0.5725052 -0.055725828 0.046075903
000010 82 0c 81 3d 5f e6 f4 3e ea 14 1a 3e 72 75 49 3d
       0.06301214 0.4783201 0.1504704 0.04918427
000020 a2 aa 4b 3e 76 aa 30 3e f9 ee 21 3f 50 ba 47 3d
       0.1988931 0.17252526 0.6325527 0.048761666
000030 8a 55 a3 bd 00 a8 13 3e 74 b0 b5 bc bc 5d 1b 3e
       -0.079753 0.14419556 -0.022178866 0.15172476
000040 f0 f1 d7 3e 6d b9 4f 3e ea 48 04 3e 39 28 94 3e
       0.4217677 0.20285578 0.1291844 0.28936937
000050 b3 65 3d 3e b8 5f 54 3e 31 55 33 be 28 63 3a 3d
       0.18495826 0.20739639 -0.17512967 0.04550472
000060 90 f4 9c 3d 63 42 3a 3e 28 6e 61 3d e9 c9 09 3f
       0.07663834 0.18189387 0.055036694 0.53823715
000070 f4 04 8d 3e a1 c8 6d 3e 71 71 64 3d ae 56 89 3e
       0.2754284 0.23221065 0.05577225 0.26823944

model.8.weight f4 [10, 32]
000000 79 69 d6 3d 37 c0 73 3e fe 3e 9a be 28 cf 63 be
       0.10469336 0.23803793 -0.30126184 -0.22246993
000010 c1 1d 3a bd 74 69 83 3e d6 66 be 3c 08 99 48 3c
       -0.04543853 0.25666392 0.023242395 0.012243517
000020 3d 2d 1f be 68 4b c3 bd 5e c7 a0 3e e5 de 01 be
       -0.15544601 -0.09535867 0.31402105 -0.12682684
000030 31 ed a3 3c 3e 23 9d bd a7 58 30 3e c5 49 6b 3e
       0.020010563 -0.076727375 0.17221318 0.2297736
000040 07 20 b5 3e 9b 62 c4 be 56 97 fd 3b b1 9f 52 bd
       0.35375997 -0.3835648 0.007738988 -0.051421825
000050 8a 19 d8 bd 08 52 a4 3e 72 80 aa 3d b5 fe 1a 3e
       -0.10551746 0.32093835 0.0832528 0.15136226
000060 d0 3d 94 bd 11 34 72 be ed e3 ff 3d 2e 2c 9d 3d
       -0.07238352 -0.23652674 0.12494645 0.07674442
000070 25 be 13 3e 12 0a 66 3e 9c ae 38 bc 22 c8 55 be
       0.14428003 0.22464779 -0.011272099 -0.20877126
000080 1e 93 76 bd f7 d0 a3 3e ff 39 40 be 16 9e 01 bd
       -0.060198896 0.31995365 -0.18772124 -0.031644903
000090 f7 d1 32 3d 71 28 a2 3e bc 0a 02 bd 70 0e aa bb
       0.04365727 0.3167148 -0.03174852 -0.0051897094
0000a0 54 76 69 be eb ac 60 be 59 1c 2a 3e 0c 14 0c be
       -0.22799045 -0.21940963 0.16612376 -0.13679522
0000b0 44 00 8f 3d ee 21 c4 3d 0d 9d 02 be 66 bd 67 3e
       0.069824725 0.09576784 -0.12755223 0.22630844
0000c0 93 4a 87 3e 9a f7 99 be 86 48 da 3d 17 9e 1f 3e
       0.26424083 -0.30071718 0.10658364 0.1558765
0000d0 7b a8 14 be 37 62 84 3d 8d d9 6d bd f4 da 59 3e
       -0.14517395 0.064640455 -0.0580688 0.2127493
0000e0 e2 fe 31 be 4f e3 8a be d6 a0 9b 3d 5a 41 8c 3e
       -0.17382386 -0.27126548 0.075990364 0.2739361
0000f0 9b 58 0b 3e 8d 23 44 3e b7 63 eb bd ea c5 44 be
       0.13608019 0.19154187 -0.114936285 -0.19216123
000100 1c 63 05 3e 5c 03 c1 3e d0 d1 27 be c3 1a 2d 3d
       0.13026088 0.37697875 -0.16388631 0.04226185
000110 3b d9 84 3c 47 55 58 3e b6 4b 8c 3d da ec 14 3d
       0.016216865 0.2112628 0.06850378 0.03635869
000120 45 cc 3a be 7d 3e f7 3d 3f 5b 55 3e 4e dd e9 3c
       -0.18241985 0.120724656 0.20835589 0.02854791
000130 d3 c3 06 3e c6 0e 2c bc 98 61 22 3e 78 1a 76 3e
       0.13160639 -0.010501569 0.15857542 0.24033535
000140 cc 33 1a 3e 7b 5f 98 be bc 12 c7 bd 5f 56 3a 3e
       0.15058821 -0.29760346 -0.0972037 0.1819701
000150 2c 75 be be 99 20 bb 3d d1 3c 9f 3d 40 3a 7e 3e
       -0.3719877 0.09137077 0.07775272 0.24826908
000160 18 93 77 be 84 6f 67 be 77 a0 d8 bd 3b 04 35 3e
       -0.24177206 -0.22601134 -0.10577481 0.17677395
000170 01 4a 6b 3d 90 87 25 3e cd 0e d8 3d 89 bb 0f be
       0.057443622 0.16164994 0.10549698 -0.14036383
000180 9a 66 29 3c 96 77 ac 3e 9c e5 55 be f1 63 25 be
       0.0103394035 0.33684987 -0.2088837 -0.16151406
000190 7c 57 38 3d 81 e7 4d 3e 44 af 3e 3e b9 9c 39 3d
       0.045005307 0.20107843 0.18621546 0.045315478
0001a0 96 e1 79 be d7 b7 5f 3d bd 70 91 3e 71 dd 26 be
       -0.2440246 0.054618683 0.28406325 -0.1629541
0001b0 aa 7f 6c 3d c2 af 0c bd f1 b9 04 3e 54 b9 39 3e
       0.057738937 -0.034347303 0.12961556 0.18137103
0001c0 06 97 63 3e 6a dd 73 be c6 8d 9a bd be 87 4f 3e
       0.2222558 -0.23814932 -0.075465724 0.20266625
0001d0 01 e9 59 bd bd 67 30 3e 91 44 fa bd fc b2 b4 3e
       -0.053200725 0.17227073 -0.12220109 0.35292804
0001e0 e6 82 80 be 61 c9 a8 be dd fc 16 be d8 f2 62 3e
       -0.25099868 -0.3296614 -0.14744897 0.2216295
0001f0 86 46 9f 3c 27 9e 5e 3e 94 ff c3 3b 30 5b 16 be
       0.019442808 0.21740018 0.005981395 -0.14683223
000200 e4 e9 15 be 48 6d 5d 3e 09 5c 5d be 55 6d d9 3d
       -0.14640003 0.21623719 -0.2161714 0.106165566
000210 b0 63 0d 3e fc da 67 3e a2 76 5d bd 62 7d 91 3c
       0.13807559 0.2264213 -0.054068215 0.017759982
000220 7a 01 76 be cb 4d 6b 3d 8d f3 a3 3e c0 5b 4a bd
       -0.24024001 0.057447236 0.32021752 -0.049403906
000230 37 c8 cd 3d 51 cb ae 3c cf 79 21 3e de f0 6e bb
       0.100479536 0.021337183 0.15769123 -0.0036459486
000240 6c d9 be 3e 0f 47 a1 be 2a 38 0b 3e 25 bf 4d 3e
       0.37275255 -0.31499526 0.13595644 0.20092447
000250 47 0a 76 be fb 29 3b 3e 82 fb 07 be 1c 00 9d 3e
       -0.24027358 0.18277733 -0.13279536 0.30664146
000260 da 3d 3b be 59 ea 41 be 0a 37 a4 bc fa 03 32 3e
       -0.18285313 -0.18937053 -0.020045776 0.1738433
000270 1e 7c c2 bd 60 3e 7b 3e bd 69 e0 3d a8 07 5c be
       -0.0949633 0.24535513 0.10957668 -0.21487296
000280 3f e0 a1 3d 2d 23 bf 3e ac f2 9f be 1a 77 12 bc
       0.079041 0.37331524 -0.3123983 -0.008939529
000290 05 06 05 be a5 c3 33 3e f1 92 38 3e 19 50 93 bd
       -0.12990578 0.17555101 0.18024804 -0.07193012
0002a0 4a 6c 65 be 9d 6f 19 3e 97 83 68 3e 5c b8 d1 bd
       -0.2240459 0.14983983 0.22706448 -0.10240242
0002b0 ba 63 87 3d a8 fe 3d bd 46 b1 dd 3d d5 2b 98 bd
       0.06610818 -0.046385437 0.10824828 -0.07430235
0002c0 60 39 b2 3e 84 85 6a be 73 61 a6 3d f8 b9 08 be
       0.348094 -0.22902495 0.08124056 -0.13352191
0002d0 8c c5 2e be e5 6c 48 3e 88 72 92 3c 2a d5 01 3e
       -0.17067546 0.1957279 0.017876878 0.12678972
0002e0 f9 a7 65 be f9 21 65 be 54 bc d5 3a 16 3d 49 3e
       -0.22427358 -0.22376241 0.0016306737 0.19652209
0002f0 6a a2 76 3d e3 8d 5f 3e 1f 91 38 3e 90 21 80 be
       0.060213484 0.21831469 0.1802411 -0.25025606
000300 63 f1 af bd fb 71 bd 3e 7e 79 c3 bd 6e a4 50 3d
       -0.08590963 0.37001023 -0.09544657 0.050938062
000310 87 20 0f 3d 10 15 40 3e 01 ec 19 3e 42 6a 11 bc
       0.03494313 0.18758035 0.15031435 -0.0088754315
000320 16 34 37 be 0f 8a 96 3d 0f b6 91 3e fe eb 08 3c
       -0.17890963 0.07350551 0.28459212 0.008357046
000330 21 24 a3 bd f6 08 7f bd dc 20 c5 3d d5 02 0a 3e
       -0.079658754 -0.062264405 0.09625408 0.13477643
000340 8f 52 99 3e f2 bb ad be 24 ff 44 3e fd 1b c4 3d
       0.299458 -0.33932453 0.19237953 0.09575651
000350 78 b5 09 be cb 05 14 3e a0 dc 66 bd de 03 2b 3e
       -0.13448131 0.14455335 -0.05636275 0.16700694
000360 45 3d b9 be 18 0a 4a be d3 24 20 3d 72 9d 43 3e
       -0.36179557 -0.19730413 0.03909762 0.1910303
000370 bd 13 3b 3e 01 29 6f 3e 8d 3f a5 bb c4 d4 48 be
       0.18269248 0.23355485 -0.0050429762 -0.19612414
000380 36 1f af bd 97 fd b0 3e 9a fb 1b be 63 01 b0 3d
       -0.08550875 0.34568474 -0.15232697 0.085940145
000390 bf ed 32 3e fa e5 26 3e 2e 78 6c bc f4 3f 23 3c
       0.17473505 0.16298667 -0.01443295 0.009963978
0003a0 1e f3 0c be f9 47 85 bd 52 ce 94 3e ed 40 03 be
       -0.13764617 -0.06507868 0.2906366 -0.12817736
0003b0 5c 3c 87 bd bf b4 c5 3b fd 0a be 3d 2c 83 13 be
       -0.066033095 0.0060335095 0.092794396 -0.14405507
0003c0 88 44 99 3e ba da 24 be 79 ec 94 3d 6e 8d 0f be
       0.29935098 -0.16099063 0.07271666 -0.14018795
0003d0 78 e2 23 be e6 92 63 3e ee 85 84 3d 08 61 4b 3d
       -0.1600436 0.22224006 0.064708576 0.049653083
0003e0 69 bd 5b be bb 25 b5 be 69 dd af 3d fe 6d 10 3e
       -0.21458973 -0.3538035 0.085871525 0.14104459
0003f0 91 17 81 3c b8 58 2e 3e 11 d6 1b be 4e c6 c8 be
       0.015758308 0.17026031 -0.15218379 -0.39213794

model.8.bias f4 [10]
000000 b2 2f e5 bd 82 76 4b be 81 38 1e bd f1 10 56 be
       -0.11190738 -0.19869426 -0.038628105 -0.209049
000010 ed a7 fd bd 73 ba 82 3d 05 4c 93 3d d6 85 d0 3d
       -0.12385545 0.063832186 0.07192234 0.10181777
000020 67 4e ab 3d 26 24 04 3e
       0.083645634 0.12904415
