checkpoints/checkpoint_step_2500.pth (torch, 200878 bytes, 10 tensors)

model.0.weight f4 [256, 21]
0.048103195 0.0063419486 0.115554966 -0.26466736 -0.31736618 -0.2082903 -0.52332205 0.036509182
0.08746971 -0.0577064 -0.27551365 0.10360867 0.17136331 -0.57447624 -0.1844468 -0.27140206
0.01621662 0.10419813 0.14114176 -0.49200577 0.2742044 0.058650766 0.04959469 -0.14274988
-0.047504485 -1.1492834 -0.043458607 0.1117458 -0.087158866 -0.10284374 -0.30264637 0.005561721
-0.066913374 -0.30284345 -0.31165734 -0.09365143 0.007989247 -0.01806463 0.18646748 -0.05330745
0.16729616 -0.03971631 -0.054985397 -0.26181346 0.24800079 -0.026826022 0.12801237 0.085936196
-0.4858035 0.10731178 0.15224403 -0.17194363 0.03254432 -0.50496644 -0.11435334 -0.23722488
-0.21597072 0.08939443 -0.32387686 -0.04755575 -0.088578984 -0.18518466 -0.10437004 0.033852577
-0.30249342 -0.063193955 -0.1485184 -2.182343 -0.0473759 -0.21746585 0.08739833 -0.018105054
0.0515168 -0.06645005 0.17842503 0.016082568 -0.074200176 -0.021934135 0.16002272 0.0023607737
0.17748448 -0.06988397 0.08611247 -0.7181918 0.12339045 -0.01191077 0.08837632 -0.16550972
0.026051406 -0.14225915 0.27943358 0.04878792 0.07035442 -0.09957653 -0.08069855 -0.108245574
0.14635552 -0.13216661 -0.17132924 0.074722394 0.14423637 -0.38629097 -0.09056133 0.04629111
-0.011808265 -0.3029921 0.04972965 -0.27775413 0.063963234 -0.150854 0.052514523 -0.32644656
-0.025519814 -0.35066348 -0.18865371 -0.009443893 0.18429545 -0.123035885 0.32407928 -0.17636254
0.3197075 0.028715625 0.22654559 -0.28890255 0.18470569 0.05196616 -0.6442387 -0.0625259
0.2900412 -0.36698055 -0.7907868 -0.12559399 -0.27856928 -0.33190075 -0.38324338 -0.056105275
-0.27807274 -0.28179994 -0.07531135 -0.2028886 0.159706 0.16446148 0.10965773 0.099476084
-0.20954049 -0.096975565 -0.100763544 -0.14239901 -0.1285914 0.20048612 -0.1346787 0.20318536
-0.04178924 -0.36164463 -0.058704108 -5.065284 -0.023641674 -0.038411133 -0.00787115 -0.059534788
-0.06389731 0.039491855 0.05601083 -0.045084666 -0.15968655 -0.058937725 -0.20332836 -0.21115793
-0.020444693 -0.12821718 0.07532496 -0.21799606 0.0639887 0.0030131596 -0.350664 -0.10438176
0.18448599 -0.2964508 -0.31650004 -0.35770202 -0.018260613 -0.0775163 -0.17031111 -0.29850963
0.010300555 -0.0693477 -0.2571158 -0.06538978 0.028813953 0.17417365 -0.20689683 -0.3271555
-0.07014685 0.21608746 -0.23560494 -0.27815828 -0.08069228 0.03269994 0.032338645 -0.18564935
-0.5198464 -0.0979195 -0.3438175 0.081479914 -0.1220245 -0.1749132 -0.5245422 0.110215284
-0.21363194 -0.083116755 0.05388237 -0.021149466 0.008127501 0.0144076785 -0.022702668 0.022114458
0.19586019 -0.01615302 0.011371309 -0.09798557 0.05259747 -0.053906597 0.034023184 0.49520218
0.08879681 -0.252571 0.21659546 0.01660785 0.03758012 0.3352397 -0.115446344 -0.13695107
0.05845783 -0.13691783 -0.11807529 0.3227254 0.020929974 0.080370545 -0.07466414 -0.43169236
-0.20463969 -0.17158811 -0.2530663 -0.019911218 -0.09619123 -0.055950083 0.32901353 -0.2382943
-0.29898065 -0.04244237 -0.11053559 -0.05789415 0.14494628 0.15694164 -0.16575716 -0.092172086
00000000: db07 453d 1fd0 cf3b 15a8 ec3d 7b82 87be
00000010: d27d a2be 0d4a 55be 6ff8 05bf a78a 153d
00000020: 5223 b33d 8c5d 6cbd 2010 8dbe c830 d43d
00000030: dd79 2f3e e010 13bf 9fdf 3cbe 36f5 8abe
00000040: b8d8 843c d465 d53d 7787 103e 2ee8 fbbe
00000050: 8564 8c3e c93b 703d cd23 4b3d 062d 12be
00000060: 1094 42bd b81b 93bf a701 32bd fbda e43d
00000070: 5980 b2bd bd9f d2bd 77f4 9abe 193f b63b
00000080: e109 89bd 4c0e 9bbe 8d91 9fbe 52cc bfbd
00000090: 55e5 023c 46fc 93bc 55f1 3e3e ea58 5abd
000000a0: af4f 2b3e 92ad 22bd 5e38 61bd 6a0c 86be
000000b0: ebf3 7d3e 3fc2 dbbc ad15 033e 51ff af3d
000000c0: 3dbb f8be 47c6 db3d dce5 1b3e fe11 30be
000000d0: 314d 053d 7b45 01bf 1532 eabd 14eb 72be
000000e0: 6e27 5dbe 6d14 b73d 30d3 a5be d1c9 42bd
000000f0: e668 b5bd 0ca1 3dbe f6bf d5bd 00a9 0a3d
00000100: 6be0 9abe d56b 81bd 3515 18be 82ab 0bc0
00000110: 3b0d 42bd 5eaf 5ebe e5fd b23d 0d51 94bc
00000120: 4803 533d f716 88bd 0db5 363e 97bf 833c
00000130: 43f6 97bd 37af b3bc ffdc 233e 36b7 1a3b
00000140: 7ebe 353e 541f 8fbd bc5b b03d 6bdb 37bf
00000150: 22b4 fc3d 6425 43bc a5fe b43d 617b 29be
00000160: c269 d53c 62ac 11be eb11 8f3e d8d5 473d
00000170: fa15 903d c8ee cbbd 4845 a5bd dbaf ddbd
00000180: 39de 153e af56 07be ef70 2fbe 0e08 993d
00000190: b3b2 133e eec7 c5be 3878 b9bd bf9b 3d3d
000001a0: 7477 41bc c821 9bbe 51b1 4b3d ca35 8ebe
000001b0: 28ff 823d 7979 1abe 7819 573d 0124 a7be
000001c0: ee0e d1bc 2a8a b3be 702e 41be 8fba 1abc
000001d0: f2b7 3c3e 3dfa fbbd b8ed a53e 6298 34be
000001e0: b4b0 a33e 083d eb3c 91fb 673e 09eb 93be
000001f0: 7d23 3d3e 78da 543d d4ec 24bf 940d 80bd
00000200: 4880 943e e0e4 bbbe 0171 4abf b69b 00be
00000210: a2a0 8ebe e5ee a9be 7a38 c4be a5ce 65bd
00000220: 8d5f 8ebe 1548 90be d63c 9abd 07c2 4fbe
00000230: f889 233e 9768 283e 3b94 e03d 1eba cb3d
00000240: c891 56be 209b c6bd 1e5d cebd 0cd1 11be
00000250: 77ad 03be 3c4c 4d3e 37e9 09be d30f 503e
00000260: 322b 2bbd 7c29 b9be b873 70bd ce16 a2c0
00000270: 2fac c1bc fe54 1dbd fff5 00bc c0da 73bd
00000280: 98dc 82bd 36c2 213d 9d6b 653d b3aa 38bd
00000290: df84 23be af68 71bd 4f35 50be c939 58be
000002a0: a17b a7bc 5d4b 03be f943 9a3d 5c3a 5fbe
000002b0: 820c 833d 6e78 453b 3b8a b3be 1bc6 d5bd
000002c0: e5e9 3c3e 66c8 97be 4b0c a2be b824 b7be
000002d0: 4897 95bc dec0 9ebd 0966 2ebe 41d6 98be
000002e0: a9c3 283c 2b06 8ebd afa4 83be 14eb 85bd
000002f0: 3d0b ec3c 945a 323e c3dc 53be ed80 a7be
00000300: 27a9 8fbd 0846 5d3e 6c42 71be c36a 8ebe
00000310: fe41 a5bd 5ff0 053d 8775 043d dd1a 3ebe
00000320: a714 05bf 058a c8bd d908 b0be f1de a63d
00000330: fbe7 f9bd 721c 33be 6648 06bf 8db8 e13d
00000340: 55c2 5abe 1e39 aabd c3b3 5c3d a541 adbc
00000350: 3629 053c 2f0e 6c3c f2fa b9bc 6129 b53c
00000360: 938f 483e 5753 84bc ba4e 3a3c a9ac c8bd
00000370: 7270 573d 2acd 5cbd e55b 0b3d 248b fd3e
00000380: 1adb b53d fc50 81be 33cb 5d3e 300d 883c
00000390: 9ded 193d 8aa4 ab3e 226f ecbd e73c 0cbe
000003a0: 7a71 6f3d 3034 0cbe 75d1 f1bd 433c a53e
000003b0: 5675 ab3c 5099 a43d 83e9 98bd c806 ddbe
000003c0: 118d 51be cbb4 2fbe e891 81be da1c a3bc
000003d0: e8ff c4bd ea2b 65bd 7674 a83e 6c03 74be
000003e0: fe13 99be 0dd8 2dbd 7c60 e2bd 6b22 6dbd
000003f0: cc6c 143e 4fb5 203e 3fbc 29be b8c4 bcbd

model.0.bias f4 [256]
0.1193969 0.039579082 -0.22780648 0.22243243 0.436913 -0.012278627 0.107497066 0.10939143
0.18763496 0.178507 -0.27733317 -0.017490588 0.17159288 -0.37793434 0.14537638 0.18794592
-0.08736086 -0.11342914 0.19372457 -0.3210326 -0.051374648 -0.3831574 0.003158587 -0.16853172
-0.38224036 -0.08646454 -0.21191454 0.21276699 -0.19379722 -0.011694953 0.35882124 0.27619147
-0.24856506 -0.16567898 -0.2891766 0.091804 -0.09848302 -0.26478535 0.031460367 0.09608212
-0.05743316 0.046672773 0.026636412 0.11973617 0.11644942 -0.1912572 -0.11365041 -0.03644777
0.26471788 -0.091197856 0.009474087 0.05866311 -0.31152454 -0.28155452 0.26571077 -0.23286173
-0.30576923 0.035834167 -0.30183655 -0.050052058 0.06327096 -0.11805731 0.39320284 -0.12527362
-0.07071959 -0.2248096 -0.061309643 0.28444758 -0.27592298 0.31662896 -0.15102626 0.34130827
-0.006355576 0.20763536 -0.28038567 -0.3537734 -0.24755159 -0.12017365 -0.18617235 0.46267223
0.03329912 0.40219328 -0.4936312 -0.15779783 0.067188144 -0.1176345 0.3591961 0.42946476
-0.015467357 0.096578866 0.30639437 -0.17478032 -0.11292174 -0.13328174 -0.09952326 -0.26824364
-0.2931558 -0.12181413 -0.36013362 0.46378908 0.41537195 -0.16151695 -0.1391857 0.26980245
0.26020682 0.16740158 0.009379763 0.13833188 -0.008625169 -0.13329358 0.028001832 -0.07471731
-0.182437 -0.08480953 -0.054674484 -0.08922982 0.16018419 0.3103416 -0.039068643 0.15274303
-0.3866918 0.081686616 -0.13727194 0.11785912 -0.105762884 -0.45018247 0.36544657 0.28946173
-0.3090037 -0.3222139 -0.09205525 0.33858946 0.010353425 -0.2804648 0.40744415 0.26503077
-0.097595386 -0.19281995 0.16942681 0.15925957 -0.1202689 -0.034504265 0.24302907 -0.15074454
0.13025089 0.34246325 0.14788884 0.105905056 -0.6305928 -0.13928902 0.08991224 -0.15695707
0.38218987 -0.37546268 -0.2235319 0.15200898 -0.015126403 0.22120751 0.042793855 0.4220048
-0.1974331 -0.0129441805 0.25909552 0.08692448 -0.24610439 0.11389152 -0.10420864 -0.12596375
-0.030807089 0.35116258 -0.21833177 -0.06974126 0.25422254 -0.26769942 0.33891523 0.08807658
-0.30137938 0.2506201 -0.06249363 -0.21012884 -0.3466534 0.36878464 0.03463389 0.049014486
-0.08053692 -0.0070911692 -0.2538883 -0.37525362 0.0063605416 0.13765751 -0.23060289 0.35625392
0.29881367 -0.0712533 -0.16411743 -0.26985636 0.36087692 -0.1385739 0.3365267 0.02124208
-0.32340512 -0.10817878 0.04947462 0.047464184 0.023066498 0.04681922 -0.08529405 -0.20847785
-0.0051442785 -0.21909429 0.03978953 0.100896224 0.101765566 0.20375542 -0.12252652 -0.14866354
0.26459622 0.23928899 -0.07811792 0.26312214 -0.04895295 -0.13334772 0.023189181 -0.21732777
-0.25279287 -0.292816 0.16340247 -0.21100624 0.059646755 0.1798153 0.1754765 -0.08592642
0.029519055 0.16059487 0.3337712 -0.042799495 0.04271238 -0.17165239 0.4194787 0.23799713
-0.26767114 0.07857523 -0.037360135 -0.06216011 -0.121606804 -0.31727603 0.25757712 0.08739357
-0.2976026 -0.22071856 0.15972686 0.07042982 -0.20029712 -0.37712932 0.117880374 0.18538885
00000000: 5d86 f43d ad1d 223d 1a46 69be 54c5 633e
00000010: 10b3 df3e 4b2c 49bc 6c27 dc3d 9d08 e03d
00000020: 6123 403e 8aca 363e 9dfe 8dbe 6c48 8fbc
00000030: 0bb6 2f3e 9c80 c1be 8cdd 143e e574 403e
00000040: 40ea b2bd 894d e8bd bc5f 463e 635e a4be
00000050: 396e 52bd 352d c4be 4c00 4f3b 9493 2cbe
00000060: 02b5 c3be 5214 b1bd 2000 59be 97df 593e
00000070: c772 46be 309c 3fbc 6bb7 b73e f868 8d3e
00000080: d787 7ebe c0a7 29be f50e 94be bc03 bc3d
00000090: 77b1 c9bd f291 87be 96dc 003d b4c6 c43d
000000a0: 083f 6bbd f32b 3f3d 9b34 da3c 3d38 f53d
000000b0: 097d ee3d edd8 43be 8cc1 e8bd 424a 15bd
000000c0: 1a89 873e f1c5 babd 3339 1b3c bb48 703d
000000d0: 2580 9fbe ea27 90be 3e0b 883e 4e73 6ebe
000000e0: c98d 9cbe d9c6 123d 528a 9abe 6303 4dbd
000000f0: 3494 813d 08c8 f1bd e251 c93e ba47 00be
00000100: 6fd5 90bd 7d34 66be d21f 7bbd 1da3 913e
00000110: c745 8dbe 311d a23e a1a6 1abe f5bf ae3e
00000120: 7042 d0bb 5d9e 543e b68e 8fbe c921 b5be
00000130: 2a7e 7dbe 9a1d f6bd f7a3 3ebe 60e3 ec3e
00000140: a864 083d 47ec cd3e 3bbd fcbe c195 21be
00000150: f099 893d 5bea f0bd 8de8 b73e cee2 db3e
00000160: cc6a 7dbc 24cb c53d b9df 9c3e 9df9 32be
00000170: 8343 e7bd 027b 08be dad2 cbbd 3b57 89be
00000180: 8418 96be b079 f9bd 6f63 b8be c375 ed3e
00000190: a2ab d43e b364 25be b286 0ebe 8c23 8a3e
000001a0: d439 853e 526b 2b3e 94ad 193c dfa6 0d3e
000001b0: 9550 0dbc 1d7e 08be 1964 e53c 6405 99bd
000001c0: c4d0 3abe 9eb0 adbd 5af2 5fbd 20be b6bd
000001d0: 5307 243e 18e5 9e3e 7106 20bd ab68 1c3e
000001e0: 78fc c5be 504b a73d 0491 0cbe 1f60 f13d
000001f0: 369a d8bd 517e e6be d01b bb3e 5434 943e
00000200: bc35 9ebe 38f9 a4be 7787 bcbd 995b ad3e
00000210: 69a1 293c 1599 8fbe 859c d03e 1db2 873e
00000220: 17e0 c7bd 9872 45be 397e 2d3e f114 233e
00000230: 8b4f f6bd 5854 0dbd 9ddc 783e c75c 1abe
00000240: 7d60 053e 5857 af3e 2c70 173e c0e4 d83d
00000250: 886e 21bf c8a1 0ebe e923 b83d 5bb9 20be
00000260: 64ae c33e a53c c0be 8ce5 64be 3ea8 1b3e
00000270: bcd4 77bc 3984 623e 9c48 2f3d 0311 d83e
00000280: e72b 4abe d413 54bc 2ba8 843e 7605 b23d
00000290: ca02 7cbe f53f e93d 576b d5bd a4fc 00be
000002a0: 265f fcbc 95cb b33e 5d92 5fbe 81d4 8ebd
000002b0: 7529 823e e60f 89be 4c86 ad3e 7e61 b43d
000002c0: 664e 9abe 4751 803e 52f9 7fbd 042c 57be
000002d0: 8e7c b1be 57d1 bc3e 44dc 0d3d 6ac3 483d
000002e0: 8af0 a4bd 0a5d e8bb a6fd 81be 3e21 c0be
000002f0: 176c d03b 17f6 0c3e 2a23 6cbe ea66 b63e
00000300: 1bfe 983e 40ed 91bd 660e 28be 9d2a 8abe
00000310: dcc4 b83e 51e6 0dbe 3a4d ac3e df03 ae3c
00000320: 5b95 a5be d68c ddbd e6a5 4a3d ce69 423d
00000330: f4f5 bc3c 83c5 3f3d a6ae aebd 387b 55be
00000340: 5691 a8bb 415a 60be 59fa 223d aea2 ce3d
00000350: 776a d03d 43a5 503e 2fef fabd 413b 18be
00000360: 2879 873e 2c08 753e 4afc 9fbd f2b7 863e
00000370: e382 48bd 4e8c 08be 3df7 bd3c 2c8b 5ebe
00000380: 116e 81be fbeb 95be fa52 273e 0512 58be
00000390: 2850 743d 8121 383e 1db0 333e 31fa afbd
000003a0: f2d1 f13c fb72 243e 0fe4 aa3e 864e 2fbd
000003b0: 2df3 2e3d a5c5 2fbe eac5 d63e 85b5 733e
000003c0: 310c 89be 0dec a03d f106 19bd 999b 7ebd
000003d0: fd0c f9bd 0172 a2be 26e1 833e 66fb b23d
000003e0: 5e5f 98be 0c04 62be 708f 233e 823d 903d
000003f0: b01a 4dbe 1817 c1be 446b f13d 93d6 3d3e

model.2.weight f4 [128, 256]
0.09085887 0.025556946 0.0065261084 0.0042877393 0.06342747 -0.07311005 -0.07835633 0.04954389
-0.043881577 -0.025980879 0.35629243 -0.08691029 0.3041634 0.08621639 0.16127275 0.027562361
0.01115511 -0.007325058 -0.15009902 0.15787451 -0.103023276 0.06441574 -0.011957023 0.11714423
0.19248724 0.10035974 -0.061493542 0.13775632 -0.001059047 0.040377274 0.16277823 -0.08915568
-0.121030055 -0.022897296 0.0933012 -0.0050774817 0.004264146 0.07772836 -0.046484828 0.21215475
0.09662301 -0.16943285 -0.0152795985 0.09274891 -0.08222795 -0.020636996 -0.038329475 -0.042075314
0.17328857 0.044737518 0.06863643 0.04828923 0.04474017 -0.05347539 0.2098362 -0.121045575
0.085175894 0.037748545 -0.061141152 -0.11863674 -0.007943332 0.022941817 0.20107375 0.010675213
0.05699845 -0.04883453 -0.016734758 0.1877341 -0.09015365 0.15060954 -0.1379661 0.2701295
-0.055808514 0.2083094 0.23652174 -0.0283662 0.2412424 0.12193344 0.2008056 0.14984585
0.04205052 0.24459825 0.25773975 0.07202576 -0.016975475 -0.13758369 0.06822468 0.1264323
0.1931763 -0.0361653 0.11600898 -0.051136278 0.11812446 0.0037971074 0.27102414 0.0008274355
0.046774924 -0.11116332 0.1474118 0.23855478 0.28081906 0.021382561 -0.11757061 0.17220941
0.20252018 0.08252121 0.077566415 0.08434205 0.07403798 -0.03721936 0.012939427 0.036287595
0.00753964 -0.038206235 -0.20677757 -0.019871246 -0.06812694 0.20232427 0.15828626 0.016303405
0.043154277 0.07287509 -0.12093971 0.18880035 0.09241457 -0.075377524 0.20614652 0.09179398
0.113566436 0.0009242862 0.09524984 0.26233163 0.08728768 0.01567799 0.1439327 0.24766316
0.08991924 -0.032541625 0.15565515 0.49657217 -0.098674655 -0.07885464 0.030567564 0.038541816
-0.06001557 0.045911957 0.05364527 0.15781738 -0.044423252 -0.01337664 0.20162337 -0.08598511
0.22711302 0.021521516 0.0487948 0.14456192 -0.025505774 0.12853454 0.050535038 0.09807359
0.005649165 0.060764015 0.058869664 -0.09601218 -0.019231258 0.11003396 0.14076391 0.10484818
0.0096562365 0.13726538 0.26047564 -0.038104158 0.050875884 -0.006375626 0.22415099 0.055299055
0.0006462759 0.06712006 -0.033168465 -0.2733476 0.06361317 0.25178808 -0.17255117 -0.04305885
-0.055322405 -0.05250133 -0.08017656 0.031722393 0.08635126 -0.0141603965 -0.06872816 0.038111422
-0.23517664 0.18831633 -0.06524195 0.012454471 0.08395991 -0.18140946 0.14735408 -0.12904915
0.26089472 0.10287756 0.14576964 -0.52482015 -0.0027919966 0.08028014 0.109069504 -0.07222616
0.0013085431 0.056224607 0.3014195 -0.0027716886 -0.02170869 0.044752587 0.028862776 -0.14069499
-0.10436333 0.086250775 0.03856167 -0.18880084 -0.11826359 0.08417339 0.037203435 -0.15852061
0.16653089 -0.05000582 0.057008363 -0.050921895 -0.030754479 0.10323174 0.16487084 0.093357526
0.011277974 -0.058581915 0.028186753 0.034670163 -0.13893922 -0.045879204 0.25934982 -0.4610003
0.007583266 0.10407389 0.048936058 -0.09282161 0.16613497 -0.14176017 0.0024780731 0.113757186
0.25052577 0.077505425 0.13203833 -0.016127756 0.014281557 -0.028339116 0.016820561 -0.062355153
00000000: 3714 ba3d cd5c d13c f7d8 d53b 2a80 8c3b
00000010: 43e6 813d b9ba 95bd 4979 a0bd 89ee 4a3d
00000020: 2bbd 33bd dad5 d4bc f66b b63e 06fe b1bd
00000030: 4ebb 9b3e 3892 b03d af24 253e 76ca e13c
00000040: ecc3 363c 0a07 f0bb 8fb3 19be dba9 213e
00000050: defd d2bd 66ec 833d 64e7 43bc 50e9 ef3d
00000060: 601b 453e 6889 cd3d a7e0 7bbd fe0f 0d3e
00000070: b8cf 8aba a462 253d 56af 263e 4197 b6bd
00000080: 9bde f7bd 1c93 bbbc b314 bf3d 0161 a6bb
00000090: 40ba 8b3b 0c30 9f3d e066 3ebd 183f 593e
000000a0: 49e2 c53d ce7f 2dbe 4857 7abc 24f3 bd3d
000000b0: 2167 a8bd eb0e a9bc 5eff 1cbd 2a57 2cbd
000000c0: 8f72 313e b03e 373d 4291 8c3d edca 453d
000000d0: 7841 373d 0309 5bbd 4ddf 563e bee6 f7bd
000000e0: b370 ae3d 389e 1a3d 256f 7abd d2f7 f2bd
000000f0: c024 02bc 7af0 bb3c 47e6 4d3e 17e7 2e3c
00000100: 3577 693d b706 48bd 5517 89bc 5e3d 403e
00000110: 7aa2 b8bd 6339 1a3e fc46 0dbe 6a4e 8a3e
00000120: 7897 64bd 0f4f 553e c132 723e 3c60 e8bc
00000130: 3f08 773e 3db8 f93d fc9f 4d3e 3171 193e
00000140: 2b3d 2c3d f777 7a3e 77f6 833e 3e82 933d
00000150: 2710 8bbc bde2 0cbe 62b9 8b3d 7877 013e
00000160: 02d0 453e 1122 14bd 1e96 ed3d 4674 51bd
00000170: 3deb f13d e4d8 783b adc3 8a3e 42e8 583a
00000180: 1097 3f3d 98a9 e3bd 1ef3 163e b447 743e
00000190: 84c7 8f3e 7b2a af3c dcc8 f0bd aa57 303e
000001a0: 7361 4f3e e100 a93d 24db 9e3d 86bb ac3d
000001b0: 39a1 973d 5473 18bd e4ff 533c 4da2 143d
000001c0: 160f f73b 247e 1cbd 80bd 53be 06c9 a2bc
000001d0: 2386 8bbd 182e 4f3e cb15 223e b88e 853c
000001e0: 8ac2 303d 893f 953d 3daf f7bd e154 413e
000001f0: da43 bd3d 885f 9abd 1318 533e 7bfe bb3d
00000200: 8595 e83d cc4b 723a 5912 c33d 5550 863e
00000210: e2c3 b23d 216f 803c 1863 133e 699b 7d3e
00000220: 9427 b83d 5e4a 05bd 1064 1f3e b53e fe3e
00000230: f015 cabd 8b7e a1bd d468 fa3c 06de 1d3d
00000240: e3d2 75bd 2d0e 3c3d 25bb 5b3d e19a 213e
00000250: 28f5 35bd b229 5bbc 5b76 4e3e f618 b0bd
00000260: 5190 683e e44d b03c 0edd 473d 0a08 143e
00000270: 7cf1 d0bc 8f9e 033e d4fd 4e3d ceda c83d
00000280: a11c b93b b0e3 783d 5121 713d 09a2 c4bd
00000290: df8a 9dbc 7c59 e13d 6a24 103e a5ba d63d
000002a0: 3135 1e3c 4c8f 0c3e 105d 853e 1b13 1cbd
000002b0: 3b63 503d a1ea d0bb d687 653e 4381 623d
000002c0: d76a 293a 3e76 893d a8db 07bd 37f4 8bbe
000002d0: 9f47 823d 5eea 803e 41b1 30be 7a5e 30bd
000002e0: bf99 62bd a20b 57bd 9c33 a4bd 57ef 013d
000002f0: eed8 b03d 0201 68bc 59c1 8cbd b91a 1c3d
00000300: 25d2 70be ffd5 403e 929d 85bd d60d 4c3c
00000310: 2cf3 ab3d 67c3 39be fde3 163e 7625 04be
00000320: fe93 853e 78b1 d23d a344 153e 9d5a 06bf
00000330: eef9 36bb ea69 a43d d55f df3d 4feb 93bd
00000340: 6c83 ab3a c64b 663d a853 9a3e 38a5 35bb
00000350: 6cd6 b1bc 7d4e 373d a171 ec3c 5912 10be
00000360: 71bc d5bd 3fa4 b03d d7f2 1d3d 0255 41be
00000370: 2e34 f2bd 1963 ac3d a162 183d 3a53 22be
00000380: 1387 2a3e e7d2 4cbd 9a81 693d 7a93 50bd
00000390: d1f0 fbbc 2a6b d33d e7d3 283e 3b32 bf3d
000003a0: 40c7 383c 97f3 6fbd e8e7 e63c 4d02 0e3d
000003b0: 1546 0ebe d5eb 3bbd 80c9 843e 3b08 ecbe
000003c0: 0c7d f83b b124 d53d 2d71 483d 4219 bebd
000003d0: 491f 2a3e 9429 11be 2b67 223b 87f9 e83d
000003e0: ea44 803e 2abb 9e3d 0e35 073e 5b1e 84bc
000003f0: 31fd 693c 6f27 e8bc 46cb 893c 1e68 7fbd

model.2.bias f4 [128]
0.347692 -0.00663827 -0.021283118 -0.054374434 -0.086390175 0.17093742 -0.0728533 0.037095223
-0.04523349 -0.025709702 -0.06202033 -0.24917237 -0.034758188 0.001383029 -0.06598035 -0.014701957
-0.009093061 0.22967482 -0.087590635 -0.043801237 0.026498951 0.30569923 0.005126707 0.3202518
0.14524347 0.26962 -0.093787745 -0.04624542 -0.0025165302 -0.025091458 0.11777122 -0.064845115
0.33186516 -0.021107864 0.019323166 -0.06668281 0.0041038557 0.047140833 -0.01463733 -0.05309864
0.24727912 -0.010907476 0.06782209 -0.057148825 -0.08286283 -0.16523446 0.010617812 0.251953
-0.13128066 0.35015544 0.0122123 -0.02212527 -0.020835793 -0.018343255 -0.09994154 0.035802864
-0.041816104 0.15653978 0.25985283 -0.032028347 -0.056008276 0.33991525 -0.28507805 0.18211854
0.041431315 -0.008641478 0.31559205 -0.09884025 0.19824572 0.28020716 -0.10399743 0.15612423
-0.075992875 0.13029501 0.3553039 0.02619591 -0.025811117 -0.08875821 0.19335167 -0.029360406
0.0036741772 0.042905867 -0.016765535 0.18669091 -0.07071927 0.06508692 0.20256218 -0.058750078
0.25506562 0.12038369 0.34553587 -0.026724434 -0.05925851 -0.006641031 0.00841138 -0.035228994
0.2870157 0.012005867 0.06533869 0.027783893 -0.01599219 0.21261156 0.17319703 0.22373614
-0.098522775 -0.25185958 -0.052866414 -0.09387303 0.18398628 0.39718226 0.06623687 -0.05398502
0.02802265 0.031784266 0.33021268 0.0950815 -0.140087 0.15361574 0.36675435 0.09474543
0.22173418 0.36465752 -0.03570802 -0.07081483 -0.04626885 -0.025423937 0.09663961 -0.009323495
00000000: b004 b23e d885 d9bb ef59 aebc bab7 5ebd
00000010: 55ed b0bd 380a 2f3e 1c34 95bd 29f1 173d
00000020: c146 39bd 279d d2bc 0809 7ebd 0b27 7fbe
00000030: 9a5e 0ebd c146 b53a b520 87bd 7ae0 70bc
00000040: 10fb 14bc e02f 6b3e b862 b3bd ed68 33bd
00000050: 5414 d93c 9c84 9c3e effd a73b 0bf8 a33e
00000060: b4ba 143e a20b 8a3e ca13 c0bd d66b 3dbd
00000070: 5fec 24bb 9a8c cdbc 0a32 f13d 84cd 84bd
00000080: 3bea a93e 66ea acbc 9e4b 9e3c ff90 88bd
00000090: a379 863b bf16 413d 69d1 6fbc f67d 59bd
000000a0: bd36 7d3e 45b5 32bc 4fe6 8a3d e314 6abd
000000b0: fdb3 a9bd 3933 29be 55f6 2d3c fcff 803e
000000c0: 706e 06be 9347 b33e 1916 483c 0e40 b5bc
000000d0: d3af aabc 9844 96bc 26ae ccbd 06a6 123d
000000e0: 5d47 2bbd f74b 203e 6e0b 853e 2830 03bd
000000f0: ef68 65bd 5f09 ae3e c0f5 91be 487d 3a3e
00000100: e2b3 293d fc94 0dbc 4895 a13e c26c cabd
00000110: ed00 4b3e 5077 8f3e 9bfc d4bd 08df 1f3e
00000120: 27a2 9bbd 0e6c 053e 65ea b53e ce98 d63c
00000130: d671 d3bc ddc6 b5bd fbfd 453e 3c85 f0bc
00000140: 77ca 703b 10be 2f3d e057 89bc e72b 3f3e
00000150: 44d5 90bd 4b4c 853d 766c 4f3e eca3 70bd
00000160: f697 823e b98b f63d 14ea b03e 33ed dabc
00000170: 0db9 72bd 019d d9bb e3cf 093c 474c 10bd
00000180: b9f3 923e 42b4 443c 4bd0 853d 0c9b e33c
00000190: 0e02 83bc d8b6 593e 905a 313e 161b 653e
000001a0: 4fc6 c9bd bdf3 80be 748a 58bd 8140 c0bd
000001b0: e666 3c3e 795b cb3e 32a7 873d 651f 5dbd
000001c0: c28f e53c 3830 023d a311 a93e 17ba c23d
000001d0: f772 0fbe 724d 1d3e 3ac7 bb3e e409 c23d
000001e0: 490e 633e 64b4 ba3e 9342 12bd 5e07 91bd
000001f0: 6884 3dbd dc45 d0bc fdea c53d 93c1 18bc

model.4.weight f4 [64, 128]
0.061672296 0.03195731 0.092592925 -0.09891572 -0.12353077 -0.032497846 0.05094823 0.042178135
-0.14173743 -0.014572988 -0.020252926 -0.32929653 -0.0704399 -0.048415437 -0.18534532 0.09282311
0.020801343 0.11916037 -0.034085672 -0.048468716 0.008094743 -0.4029714 0.10247359 0.13233516
0.26187405 -0.50380975 0.13917875 -0.033651117 0.053252988 0.052388676 -0.06983996 0.05036119
-0.010490622 -0.028109672 0.23783138 0.041181885 -0.014772542 0.17438087 0.0056064883 0.034004945
0.18080683 -0.09643457 -0.13790806 -0.01870686 0.007955997 -0.096150145 -0.010227327 -0.13605537
-0.23970604 -0.3860343 -0.040673103 -0.0004477579 0.019737754 0.0624535 0.07055434 -0.032532897
-0.023984918 -0.026783558 -0.067333736 -0.019167198 0.065037236 0.063382685 0.5067421 0.24922287
-0.13502058 0.072311066 0.12528391 -0.027840573 -0.1286277 0.2921328 -0.05979279 0.5546719
0.035524387 -0.20451401 -0.010446779 0.039663687 -0.0662257 0.019663045 0.40875846 0.12015864
0.015061695 -0.07947587 0.056378115 0.5313566 0.088345945 -0.041418344 0.02059707 0.08189418
0.27583516 0.02711047 -0.2675774 -0.03843011 0.032185335 0.086890996 0.2824374 -0.11636014
-0.32705045 0.073025495 -0.05287712 -0.040362135 -0.01111024 0.1014534 0.075552404 0.1713803
-0.03943318 -0.34513772 -0.040710717 -0.1009773 0.06871242 0.059384897 0.11999613 0.022511467
0.15110788 0.155381 0.22217348 -0.16165699 -0.010092444 -0.09201195 -0.10964737 0.167307
0.071766734 0.29954815 0.03142785 -0.0428733 -0.051954865 -0.030224599 -0.1561127 -0.060913328
0.014349597 0.055731125 0.011744247 -0.0153262885 -0.018826427 0.09866449 -0.0068865903 0.00783394
0.05497589 -0.03275469 -0.066062085 0.06052805 0.043934 0.020769693 -0.09489396 0.047170423
-0.019938963 -0.08845659 -0.061488606 0.069051936 -0.082226306 -0.08388126 0.066522114 0.05644728
0.018870082 -0.05843607 -0.096434854 -0.006670162 -0.0068749753 -0.047125675 -0.044067487 0.045537345
-0.06913836 -0.050051026 -0.031264324 -0.08735399 0.061392765 -0.009735096 0.019205421 0.034845334
0.018840134 0.035811484 -0.020374613 0.07657448 -0.008363545 -0.07653883 0.03215957 0.06556423
-0.03171938 -0.017621547 0.012939671 0.07525248 -0.08204174 -0.03998994 -0.05271601 -0.07182251
-0.061246034 -0.011501662 -0.0885872 -0.077779904 -0.053152278 0.07705466 0.046376467 -0.021044
-0.005449013 -0.06746693 -0.03767767 0.01760441 -0.04250771 -0.097059466 -0.018706612 -0.07769341
-0.0025579259 0.028462477 -0.014663901 0.0016413827 -0.06398441 0.05402585 -0.0457633 0.015671289
0.037142776 0.028975816 0.040436942 0.014566308 -0.04548633 0.05633635 -0.08375374 0.06282141
-0.018570568 -0.07160749 -0.036125503 -0.029539779 -0.05184958 0.045359544 -0.03605482 0.055107053
-0.065840125 0.04701715 -0.08492888 0.01846977 -0.09125075 -0.06667039 -0.08247894 0.0036916276
0.066144325 -0.022804826 0.05890573 0.056036253 -0.09024124 -0.03860736 -0.10014785 -0.023016246
-0.07861405 0.008192233 0.019699752 -0.046411976 -0.014086887 -0.098786354 0.0044067614 -0.029375728
0.059585437 -0.052071244 -0.048909035 -0.04276666 0.044415437 -0.024513878 0.003928185 0.053572826
00000000: 179c 7c3d abe5 023d 5ca1 bd3d 5394 cabd
00000010: b3fd fcbd 761c 05bd 17af 503d fbc2 2c3d
00000020: 9e23 11be 8bc3 6ebc 77e9 a5bc 8e99 a8be
00000030: cb42 90bd 444f 46bd 2acb 3dbe 0b1a be3d
00000040: 9467 aa3c 5a0a f43d 6b9d 0bbd 2287 46bd
00000050: d09f 043c 4452 cebe acdd d13d de82 073e
00000060: 5b14 863e adf9 00bf e084 0e3e c1d5 09bd
00000070: ce1f 5a3d 8295 563d 4108 8fbd 8947 4e3d
00000080: dce0 2bbc 4146 e6bc 128a 733e 56ae 283d
00000090: 8808 72bc e690 323e a2b6 b73b c548 0b3d
000000a0: 6d25 393e 7d7f c5bd c537 0dbe 213f 99bc
000000b0: df59 023c 5eea c4bd 8590 27bc 1952 0bbe
000000c0: 8075 75be 4aa6 c5be d798 26bd 0cc1 eab9
000000d0: 12b1 a13c 3ecf 7f3d cb7e 903d 3741 05bd
000000e0: 057c c4bc 3169 dbbc 45e6 89bd 8704 9dbc
000000f0: 3e32 853d c8ce 813d dab9 013f 4834 7f3e
00000100: d642 0abe d317 943d 6d4a 003e ea11 e4bc
00000110: fbb6 03be 6e92 953e 49e9 74bd fafe 0d3f
00000120: 0582 113d 1f6c 51be f828 2bbc 6476 223d
00000130: 57a1 87bd 6514 a13c ca48 d13e bc15 f63d
00000140: 54c5 763c 3fc4 a2bd bdec 663d fc06 083f
00000150: b8ee b43d 48a6 29bd 30bb a83c 23b8 a73d
00000160: 443a 8d3e c716 de3c e8ff 88be e468 1dbd
00000170: c5d4 033d e8f3 b13d a39b 903e 3a4e eebd
00000180: 2873 a7be 648e 953d ae95 58bd c452 25bd
00000190: b907 36bc cdc6 cf3d 38bb 9a3d 517e 2f3e
000001a0: b084 21bd e4b5 b0be 48c0 26bd 30cd cebd
000001b0: 19b9 8c3d 943d 733d 88c0 f53d f869 b83c
000001c0: 06bc 1a3e 321c 1f3e 7281 633e 6989 25be
000001d0: c75a 25bc c370 bcbd cd8e e0bd 8752 2b3e
000001e0: 70fa 923d 605e 993e 7dba 003d ea9b 2fbd
000001f0: a0ce 54bd 9499 f7bc 02dc 1fbe 4180 79bd
00000200: 921a 6b3c 5246 643d f16a 403c 1d1b 7bbc
00000210: e139 9abc 9c10 ca3d e8a8 e1bb ed59 003c
00000220: 662e 613d c829 06bd 8f4b 87bd 43ec 773d
00000230: 23f4 333d 3425 aa3c c457 c2bd c635 413d
00000240: 0957 a3bc bb28 b5bd 7adb 7bbd 1a6b 8d3d
00000250: 4466 a8bd f0c9 abbd bf3c 883d 4335 673d
00000260: 6e95 9a3c a95a 6fbd a37f c5bd 6091 dabb
00000270: 7947 e1bb da06 41bd 1c80 34bd 5e85 3a3d
00000280: 6a98 8dbd 4e02 4dbd 050f 00bd a6e6 b2bd
00000290: fb76 7b3d f47f 1fbc b054 9d3c fbb9 0e3d
000002a0: a056 9a3c 10af 123d a9e8 a6bc 15d3 9c3d
000002b0: 4007 09bc 64c0 9cbd c1b9 033d 8a46 863d
000002c0: 2eec 01bd 105b 90bc ea00 543c f91d 9a3d
000002d0: 8005 a8bd 7ecc 23bd beec 57bd ae17 93bd
000002e0: 1fdd 7abd 7871 3cbc 356d b5bd 124b 9fbd
000002f0: 34b6 59bd d5ce 9d3d 40f5 3d3d 7764 acbc
00000300: a28d b2bb 1a2c 8abd e753 1abd 2037 903c
00000310: 911c 2ebd 1dc7 c6bd 9c3e 99bc b91d 9fbd
00000320: e0a2 27bb 242a e93c dc40 70bc aa23 d73a
00000330: 420a 83bd 364a 5d3d 4c72 3bbd 1361 803c
00000340: 0623 183d b15e ed3c 35a1 253d 86a7 6e3c
00000350: e04f 3abd f2c0 663d 1587 abbd 83a8 803d
00000360: 4e21 98bc f3a6 92bd 56f8 13bd 68fd f1bc
00000370: 3a60 54bd eeca 393d 38ae 13bd efb7 613d
00000380: 30d7 86bd 0e95 403d 31ef adbd ea4d 973c
00000390: ace1 babd 7c8a 88bd b8ea a8bd 3cef 713b
000003a0: ad76 873d 30d1 babc 2247 713d 4586 653d
000003b0: 66d0 b8bd c022 1ebd 511a cdbd 918c bcbc
000003c0: 6700 a1bd b738 063c 6061 a13c 7c1a 3ebd
000003d0: b0cc 66bc 8050 cabd 9866 903b 5ea5 f0bc
000003e0: dc0f 743d a848 55bd d754 48bd 182c 2fbd
000003f0: f6ec 353d 54d1 c8bc 01b8 803b 2e6f 5b3d

model.4.bias f4 [64]
0.27730685 -0.006001313 0.12820122 0.08219369 0.46654806 0.15813802 0.09074128 -0.01693932
0.19236064 0.004607732 0.24057476 -0.06980558 0.46173626 -0.086651124 0.23183186 -0.02560728
0.00521381 0.49318126 -0.10752263 0.010679858 0.11194133 -0.1829454 0.2611532 0.0036177703
0.017988548 0.07085481 0.011618358 0.56817 -0.11634863 -7.921381e-05 -0.019341724 0.017238194
0.28168297 -0.124024324 -0.06456645 0.12233802 0.011415523 0.030595815 -0.09402949 0.082977094
0.107013375 0.39744458 -0.090279564 0.24358855 -0.09268439 0.37099475 -0.12189368 -0.0005105504
-0.056183904 -0.0948486 0.031732194 0.44575617 0.04258545 0.19563109 0.25358793 0.047303323
0.10399668 -0.069987565 -0.087552674 0.18666351 -0.031845562 -0.1270058 -0.039131444 0.0070670596
00000000: 2afb 8d3e aaa6 c4bb 2e47 033e 2a55 a83d
00000010: 63df ee3e efee 213e 90d6 b93d 54c4 8abc
00000020: 30fa 443e 75fc 963b 3b59 763e 3af6 8ebd
00000030: b268 ec3e 2576 b1bd 5565 6d3e 5cc6 d1bc
00000040: 9cd8 aa3b 4182 fc3e d334 dcbd 92fa 2e3c
00000050: 7f41 e53d 0a56 3bbe dfb5 853e 1d18 6d3b
00000060: b85c 933c 541c 913d ed5a 3e3c 9773 113f
00000070: 3148 eebd 971f a6b8 8972 9ebc 1d37 8d3c
00000080: c038 903e 7700 febd 6a3b 84bd 5b8c fa3d
00000090: 2c08 3b3c 13a4 fa3c 8992 c0bd e5ef a93d
000000a0: d429 db3d db7d cb3e 7ee4 b8bd 476f 793e
000000b0: 50d1 bdbd 06f3 bd3e 65a3 f9bd 75d6 05ba
000000c0: 1821 66bd fc3f c2bd 9ef9 013d 273a e43e
000000d0: 156e 2e3d 8453 483e 47d6 813e 21c1 413d
000000e0: 36fc d43d a455 8fbd d14e b3bd b824 3f3e
000000f0: 7e70 02bd cf0d 02be 4b48 20bd cb92 e73b

model.6.weight f4 [32, 64]
0.033368234 -0.05411032 0.015015636 -0.11464795 -0.15671606 0.061210763 0.06141105 0.09558674
0.0373113 -0.007609528 -0.00022115538 -0.04929571 -0.07721011 -0.07982805 -0.052893013 -0.090719
-0.07121717 -0.14970903 -0.002649337 0.07061324 -0.11968547 0.06485106 0.076592416 0.056289267
-0.12178227 -0.14118981 -0.028936965 0.042873777 0.061510913 -0.088463046 -0.122236915 0.06481857
0.079070546 0.04269412 0.05511963 -0.11395233 -0.010491085 -0.05698328 -0.12810461 -0.111930676
0.04999138 -0.046261266 0.0071951 -0.1571242 0.017467573 -0.03198335 -0.0990326 0.0059446343
-0.09315789 -0.09484453 0.042934157 -0.08246596 -0.13781488 -0.046812125 -0.13238695 0.025311252
-0.08037601 -0.12110481 -0.054949068 0.048295252 -0.03434061 -0.077055246 0.096588045 0.09307914
0.04096839 -0.110183075 -0.20395479 0.14781657 0.3489776 -0.09110603 -0.040174086 0.10159528
-0.15356274 -0.12182454 0.12320722 -0.10526106 0.42346904 0.063378625 -0.111421384 0.1897984
-0.01358664 0.26408443 0.11912899 0.10069868 0.056171484 -0.058812015 -0.06547164 0.020666933
0.40571684 0.3023082 -0.019643057 0.40063265 -0.045701403 0.015177697 -0.1708428 0.007109911
0.185509 -0.08598744 -0.04082717 0.0791891 0.13734761 0.06559598 -0.007995781 -0.014070715
0.09332355 0.3915379 0.054249734 0.25618201 -0.1490286 0.20234837 0.034835774 0.18439303
-0.08812115 0.0036749374 0.085320316 0.26652142 -0.03456225 0.17292662 0.28668782 0.053963646
0.40442717 0.090008825 0.0655539 0.1847262 -0.021780793 0.008443322 -0.13127185 0.06495295
-0.045870196 -0.027653169 -0.07157204 0.03655469 0.07518531 0.18616234 0.19714677 -0.006645043
0.25680315 0.043198485 -0.070031844 -0.14892653 0.15274976 0.10504233 -0.16988006 0.13762452
0.11973947 -0.07268002 0.07286202 0.12169577 0.1507167 0.21172108 -0.15923487 -0.08884914
0.14531037 -0.0035377287 0.12697579 -0.15392256 0.0724347 0.12915279 -0.0014935356 0.067716144
0.14936876 0.06315395 0.031976745 -0.07590194 -0.024239345 0.023501052 -0.08971094 0.10682456
0.04496067 0.11206078 0.03183467 -0.19126546 -0.0016580066 0.0053513222 -0.019951554 0.10191145
0.16599652 -0.09459966 0.015910288 0.0017203572 0.13881625 -0.12232415 0.0019008011 -0.058728773
-0.10231375 0.034019396 -0.023175986 -0.32448688 0.064187735 -0.06492591 0.05181926 -0.023184972
0.11622162 -0.017262252 -0.0013712085 -0.0016220077 0.31393588 -0.21693772 -0.25194877 0.020164624
-0.0019888815 0.11159005 -0.9434558 -0.09202901 0.08330628 0.046073686 0.074040316 -0.07457363
0.0924081 -0.022367995 -0.032123886 -0.20595565 -0.08395344 0.027652787 0.13817228 -0.043516103
0.05189341 -0.040993214 0.13932295 0.049307775 -0.17808942 0.06410148 -0.17854665 -0.15382624
0.41666374 0.018465329 -0.104275696 -0.17420153 -0.105767325 -0.06252894 -0.09841797 0.003429326
0.15214369 -0.19731075 0.014516583 0.052691054 -0.077746265 -0.5317489 -0.10373064 0.13130854
-0.007822528 0.014220823 0.046310883 -0.0119703235 -0.29832658 -0.14475559 -0.1330526 -0.040730108
-0.033475447 -0.061605398 0.12937902 -0.70657307 0.12127243 0.043117385 0.035117924 -0.12041718
00000000: 21ad 083d c8a2 5dbd 2404 763c 8bcc eabd
00000010: 2d7a 20be 23b8 7a3d 278a 7b3d fbc2 c33d
00000020: bcd3 183d 5959 f9bb f2e5 67b9 4cea 49bd
00000030: 5620 9ebd e47c a3bd 58a6 58bd e2ca b9bd
00000040: 4fda 91bd 534d 19be 80a0 2dbb ad9d 903d
00000050: a81d f5bd a2d0 843d 7cdc 9c3d 938f 663d
00000060: fc68 f9bd 1094 10be 370d edbc 6a9c 2f3d
00000070: def2 7b3d 1d2c b5bd 5957 fabd 99bf 843d
00000080: bdef a13d 08e0 2e3d 1fc5 613d d75f e9bd
00000090: cde2 2bbc 4d67 69bd db2d 03be e93b e5bd
000000a0: c3c3 4c3d 747c 3dbd e0c4 eb3b 2be5 20be
000000b0: 2818 8f3c f900 03bd 9bd1 cabd 35cb c23b
000000c0: 90c9 bebd d93d c2bd badb 2f3d eae3 a8bd
000000d0: 581f 0dbe 12be 3fbd 7290 07be 8b59 cf3c
000000e0: 2d9c a4bd cc05 f8bd 4612 61bd 3ed1 453d
000000f0: bda8 0cbd 24cf 9dbd f4cf c53d 47a0 be3d
00000100: 78ce 273d aaa7 e1bd 86d9 50be 3a5d 173e
00000110: 31ad b23e cc95 babd 958d 24bd 3011 d03d
00000120: 8d3f 1dbe 257f f9bd 1154 fc3d 1c93 d7bd
00000130: efd0 d83e a7cc 813d e530 e4bd 835a 423e
00000140: 809a 5ebc 1336 873e e6f9 f33d 1c3b ce3d
00000150: 1214 663d dee4 70bd ff15 86bd b34d a93c
00000160: 1eba cf3e 24c8 9a3e 7aea a0bc b91f cd3e
00000170: 6531 3bbd e0ab 783c 6af1 2ebe 42fa e83b
00000180: 12f6 3d3e 2f1a b0bd 643a 27bd e52d a23d
00000190: daa4 0c3e 2f57 863d bc00 03bc db88 66bc
000001a0: 6b20 bf3d a877 c83e f834 5e3d 4a2a 833e
000001b0: f49a 18be 6934 4f3e f5af 0e3d 87d1 3c3e
000001c0: dd78 b4bd 38d7 703b 6bbc ae3d 7f75 883e
000001d0: 2591 0dbd ad13 313e bfc8 923e fc08 5d3d
000001e0: 1411 cf3e 8c56 b83d 2041 863d dd28 3d3e
000001f0: a26d b2bc dc55 0a3c 216c 06be 0d06 853d
00000200: 63e2 3bbd e688 e2bc 5d94 92bd 5fba 153d
00000210: c1fa 993d 57a1 3e3e d8e0 493e a9be d9bb
00000220: b47b 833e e5f0 303d db6c 8fbd 3280 18be
00000230: 6f6a 1c3e 6f20 d73d 0af5 2dbe 71ed 0c3e
00000240: f839 f53d 43d9 94bd af38 953d a23b f93d
00000250: 7b55 1a3e 69cd 583e 770e 23be 8af6 b5bd
00000260: 3ecc 143e 3dd9 67bb f105 023e e09d 1dbe
00000270: a558 943d a140 043e bdc2 c3ba c3ae 8a3d
00000280: 20f4 183e dc56 813d 0cfa 023d 7a72 9bbd
00000290: 9791 c6bc 4785 c03c 5fba b7bd d6c6 da3d
000002a0: ae28 383d 1f80 e53d 1265 023d 18db 43be
000002b0: 7851 d9ba 255a af3b 7171 a3bc f3b6 d03d
000002c0: fefa 293e 77bd c1bd 4b56 823c 9c7d e13a
000002d0: d925 0e3e 1585 fabd 4d24 f93a 958d 70bd
000002e0: df89 d1bd ec57 0b3d 91db bdbc 2523 a6be
000002f0: dc74 833d e0f7 84bd 6f40 543d 69ee bdbc
00000300: 9a05 ee3d 9169 8dbc 1fba b3ba 8c99 d4ba
00000310: 34bc a03e ec24 5ebe 6eff 80be 4830 a53c
00000320: e557 02bb 5389 e43d 5286 71bf b579 bcbd
00000330: 7c9c aa3d c3b7 3c3d 73a2 973d 0fba 98bd
00000340: 7540 bd3d 163d b7bc 5694 03bd 0ae6 52be
00000350: c8ef abbd 1988 e23c 097d 0d3e f13d 32bd
00000360: 2f8e 543d 80e8 27bd adaa 0e3e f3f6 493d
00000370: 135d 36be a347 833d efd4 36be a084 1dbe
00000380: f354 d53e 9a44 973c 7f8e d5bd e361 32be
00000390: 8a9c d8bd 2c0f 80bd 5c8f c9bd 8bbe 603b
000003a0: 8ecb 1b3e d40b 4abe f6d6 6d3c 93d2 573d
000003b0: 6f39 9fbd b220 08bf bb70 d4bd bf75 063e
000003c0: 0f2a 00bc 74fe 683c 7bb0 3d3d 2d1f 44bc
000003d0: 43be 98be cf3a 14be f13e 08be 9dd4 26bd
000003e0: 8d1d 09bd f155 7cbd ef7b 043e f9e1 34bf
000003f0: ae5d f83d db9b 303d d0d7 0f3d 489d f6bd

model.6.bias f4 [32]
0.059338383 0.5965159 -0.16751505 0.13181347 0.1861033 0.47570682 0.33381262 0.001124017
0.08837404 0.29668134 0.66501796 -0.0491895 -0.079753 -0.13711435 0.009581633 0.27479076
0.40563345 0.052564085 0.23501314 0.2815813 0.0577098 0.33134124 -0.14337184 -0.10299128
-0.078056596 0.044446856 0.11436394 0.5405512 0.3897506 0.30952123 0.05577225 0.16322401
00000000: ce0c 733d 44b5 183f 1189 2bbe 1cfa 063e
00000010: dd91 3e3e d88f f33e 7de9 aa3e c153 933a
00000020: 73fd b43d 9ee6 973e 9e3e 2a3f ee7a 49bd
00000030: 8a55 a3bd b467 0cbe 48fc 1c3c 60b1 8c3e
00000040: 30af cf3e 704d 573d 49a7 703e 6d2b 903e
00000050: 1c61 6c3d 8fa5 a93e 11d0 12be 18ed d2bd
00000060: 23dc 9fbd e80d 363d a437 ea3d 9061 0a3f
00000070: 648d c73e 9179 9e3e 7171 643d 3224 273e

model.8.weight f4 [10, 32]
0.040064253 0.1262036 -0.2789925 0.10879088 0.15406558 0.32391298 0.033513404 -0.11855241
-0.13568276 0.032506075 0.29677248 -0.18732284 0.020010563 -0.0396437 0.17221318 0.20446464
0.23016702 -0.33871686 -0.042225752 0.016779648 -0.08650579 0.35506797 0.0832528 -0.075312115
-0.047339935 -0.18554915 -0.042457696 0.29239082 0.06554873 0.118107244 -0.011272099 -0.16665007
0.017945176 0.27473822 -0.1214685 0.18351823 0.04446724 0.2829375 0.11494052 -0.04862642
-0.161305 0.004393174 0.10587855 -0.18162234 0.069824725 0.046378158 -0.12755223 0.1822882
0.19315504 -0.2752494 0.0900046 0.097650476 -0.13143311 0.070678994 -0.0580688 -0.049276203
-0.13823661 -0.2520879 0.12104927 0.4057244 0.03599817 0.26836962 -0.114936285 -0.18268602
0.15348311 0.39619523 -0.11841994 0.16316637 0.15652283 0.35979873 0.02829264 -0.0024528678
-0.1287856 0.12370163 0.17716286 -0.04009489 0.13160639 0.044287354 0.15857542 0.20144446
0.10043608 -0.26123852 -0.008774367 0.12421224 -0.3651213 0.14886542 0.109328434 0.065915346
-0.2186854 -0.19563174 0.11001358 0.076393984 -0.024763566 0.11619127 0.10549698 -0.11611767
0.052577153 0.33954456 -0.17244619 -0.28178453 0.17005374 0.14518082 0.011872312 -0.03971208
-0.20412032 0.13653798 0.32338038 -0.22685102 0.057738937 0.015354222 0.12961556 0.17477016
0.1074237 -0.19516513 -0.026345393 0.1623022 -0.031080231 0.079200484 -0.12220109 -0.02800791
-0.21877874 -0.2945087 0.026494635 0.18686554 0.030234834 0.28497666 0.005981395 -0.13404793
-0.12765162 0.033712156 -0.21482314 0.15253834 0.06721227 0.33266786 0.04495032 -0.043815985
-0.23203261 -0.00016137038 0.37057295 -0.011972331 0.100479536 0.017839989 0.15769123 0.07040931
0.28437465 -0.26957896 0.11423213 0.2767039 -0.20716536 0.21613094 -0.13279536 0.0048564523
-0.14219092 -0.15208772 0.06904347 0.15346709 0.0376947 0.30976507 0.10957668 -0.20805313
0.09176725 0.30234036 -0.27505067 -0.034133673 0.0072641927 0.2994012 0.23235945 -0.2083713
-0.1724797 0.14938907 0.20985311 -0.1793546 0.06610818 -0.030668296 0.10824828 0.16202359
0.2590192 -0.18264592 0.11717661 0.117035836 -0.14836995 0.048354518 0.017876878 -0.015145093
-0.18882385 -0.17892565 0.06838664 0.17814009 0.26349384 0.12663049 0.1802411 -0.2197065
-0.06837464 0.2602613 -0.07641326 0.09486151 0.09085203 0.24739115 0.1234933 -0.10827054
-0.16107379 0.1250795 0.23625131 -0.005606898 -0.079658754 0.01779804 0.09625408 0.022652857
0.2141775 -0.31106898 0.1880042 0.0047446997 -0.12096376 0.198886 -0.05636275 0.13734947
-0.33321092 -0.16817483 0.0042775036 0.18567929 0.15781154 0.27158967 -0.0050429762 -0.16461302
-0.085682824 0.3832302 -0.13756423 0.022102794 0.115653135 0.07425362 -0.12493313 0.015088419
-0.12647502 0.080697566 0.20673718 -0.18068288 -0.066033095 0.024084441 0.12452164 0.14318006
0.31461987 -0.11720687 0.15938517 0.10456364 -0.11260278 0.24567263 0.064708576 -0.08211913
-0.18329506 -0.3057769 0.07814954 0.14893852 0.18777676 0.15238328 -0.15218379 -0.352878
00000000: 6a1a 243d 843b 013e 1bd8 8ebe c1cd de3d
00000010: 5ec3 1d3e ecd7 a53e 5a45 093d 9bcb f2bd
00000020: 6cf0 0abe 1725 053d 90f2 973e 8fd1 3fbe
00000030: 31ed a33c 6f61 22bd a758 303e 2e5f 513e
00000040: e7b0 6b3e 4c6c adbe e9f4 2cbd 7975 893c
00000050: f329 b1bd 78cb b53e 7280 aa3d 3d3d 9abd
00000060: 85e7 41bd 9900 3ebe 1fe8 2dbd 40b4 953e
00000070: 6a3e 863d 36e2 f13d 9cae 38bc 51a6 2abe
00000080: c301 933c 7daa 8c3e 7ac4 f8bd 34ec 3b3e
00000090: 4823 363d 2fdd 903e ef65 eb3d 7f2c 47bd
000000a0: 232d 25be 9df4 8f3b dad6 d83d 35fb 39be
000000b0: 4400 8f3d 06f7 3d3d 0d9d 02be c2a9 3a3e
000000c0: 6fca 453e 7ded 8cbe 5554 b83d f9fc c73d
000000d0: 6796 06be 26c0 903d 8dd9 6dbd d8d5 49bd
000000e0: e68d 0dbe aa11 81be aee8 f73d 1cbb cf3e
000000f0: d172 133d be67 893e b763 ebbd 0b12 3bbe
00000100: ad2a 1d3e 1ada ca3e 2786 f2bd 1615 273e
00000110: 8547 203e 8a37 b83e f7c5 e73c 4bc0 20bb
00000120: 5fe0 03be 4857 fd3d 2e6a 353e 8a3a 24bd
00000130: d3c3 063e a866 353d 9861 223e 7547 4e3e
00000140: 6eb1 cd3d 0ec1 85be 5dc2 0fbc fd62 fe3d
00000150: 2ef1 babe 2d70 183e 96e7 df3d a0fe 863d
00000160: 11ef 5fbe b053 48be cd4e e13d 7374 9c3d
00000170: f6dc cabc b0f5 ed3d cd0e d83d 1acf edbd
00000180: 245b 573d c9d8 ad3e bc95 30be 1046 90be
00000190: 9122 2e3e 48aa 143e 1684 423c 22a9 22bd
000001a0: eb04 51be 9dd0 0b3e 1d92 a53e a24b 68be
000001b0: aa7f 6c3d 4690 7b3c f1b9 043e f3f6 323e
000001c0: f500 dc3d 5ed9 47be 4bd2 d7bc 8c32 263e
000001d0: f89b febc dd33 a23d 9144 fabd d870 e5bc
000001e0: 8907 60be d8c9 96be 470b d93c ae59 3f3e
000001f0: 0baf f73c 76e8 913e 94ff c33b dc43 09be
00000200: 1bb7 02be c215 0a3d 99fa 5bbe 0333 1c3e
00000210: 96a6 893d 7153 aa3e d41d 383d 6478 33bd
00000220: f599 6dbe 8835 29b9 bdbb bd3e 9927 44bc
00000230: 37c8 cd3d 2b25 923c cf79 213e c232 903d
00000240: 8e99 913e 4106 8abe 89f2 e93d 22ac 8d3e
00000250: 2823 54be 6e51 5d3e 82fb 07be e022 9f3b
00000260: 7f9a 11be e2bc 1bbe aa66 8d3d 7a26 1d3e
00000270: c265 1a3d 8799 9e3e bd69 e03d e10b 55be
00000280: 78f0 bb3d 5bcc 9a3e 71d3 8cbe c0cf 0bbd
00000290: 7708 ee3b 1d4b 993e a3ef 6d3e 495f 55be
000002a0: 859e 30be 73f9 183e bce3 563e bba8 37be
000002b0: ba63 873d 143c fbbc 46b1 dd3d 83e9 253e
000002c0: 2a9e 843e 8807 3bbe 4afa ef3d 7cb0 ef3d
000002d0: 4bee 17be 630f 463d 8872 923c 2023 78bc
000002e0: 0a5b 41be 4938 37be 4b0e 8c3d 5b6a 363e
000002f0: aae8 863e 6cab 013e 1f91 383e befa 60be
00000300: 0108 8cbd f840 853e 8e7e 9cbd c046 c23d
00000310: a110 ba3d 1b54 7d3e 0eea fc3d f2bc ddbd
00000320: 87f0 24be d714 003e ddeb 713e 12ba b7bb
00000330: 2124 a3bd 32cd 913c dc20 c53d 7c92 b93c
00000340: 5951 5b3e 6f44 9fbe 2c84 403e 6d79 9b3b
00000350: d9bb f7bd c6a8 4b3e a0dc 66bd 57a5 0c3e
00000360: 9f9a aabe 0636 2cbe 4d2a 8c3b b622 3e3e
00000370: 5999 213e cd0d 8b3e 8d3f a5bb 5190 28be
00000380: 7a7a afbd c036 c43e a3dd 0cbe eb10 b53c
00000390: 8ddb ec3d 4812 983d f1dc ffbd 6b35 773c
000003a0: ab82 01be c444 a53d e9b2 533e ef04 39be
000003b0: 5c3c 87bd bc4c c53c 3405 ff3d cb9d 123e
000003c0: db15 a13e 280a f0bd de35 233e 7625 d63d
000003d0: 499c e6bd 9b91 7b3e ee85 843d 132e a8bd
000003e0: b3b1 3bbe ca8e 9cbe de0c a03d 5783 183e
000003f0: 8d48 403e 5d0a 1c3e 11d6 1bbe 6dac b4be

model.8.bias f4 [10]
-0.07924874 0.054011803 0.13001904 -0.008338177 0.03748476 0.15912262 0.23024498 0.15624407
0.24622558 0.10014466
00000000: 2a4d a2bd 7b3b 5d3d b623 053e d99c 08bc
00000010: 9f89 193d 0af1 223e 57c5 6b3e 72fe 1f3e
00000020: 8f22 7c3e a518 cd3d
