checkpoints/checkpoint_step_3800.pth (torch, 200878 bytes, 10 tensors)

model.0.weight f4 [256, 21]
0.12764624 0.019573135 0.084869444 -0.14932154 -0.33333638 -0.15314385 -0.38709155 0.004415315
0.04621338 0.11727467 -0.20127942 -0.04094849 0.26605567 -0.8681071 -0.20151804 -0.24288255
-0.03324236 0.081818976 0.11968171 -0.4349616 0.32644454 0.02692692 0.017837064 -0.17429006
-0.079256624 -1.1492834 -0.07521074 0.07999636 -0.087158866 -0.13459311 -0.30264637 -0.0261959
-0.066913374 -0.3345849 -0.34341288 -0.12538795 -0.023768373 -0.04980344 0.15470979 -0.08505341
0.13553846 -0.07140039 -0.054985397 -0.26181346 0.24800079 -0.026826022 0.12801237 0.085936196
-0.4858035 0.10731178 0.15224403 -0.17194363 0.03254432 -0.50496644 -0.11435334 -0.23722488
-0.21597072 0.08939443 -0.32387686 -0.04755575 -0.088578984 -0.18518466 -0.10437004 0.09084097
-0.68835175 0.033060532 -0.41205046 -2.1123087 0.024919001 -0.23231995 0.07095878 0.0038261064
0.0047104945 -0.06396784 0.16517684 -0.015192141 -0.11691088 -0.08060624 0.24662744 -0.08692613
0.15059564 -0.1180316 0.16761446 -0.69298345 0.1812239 -0.110592216 0.015895614 -0.077176385
0.0714723 -0.24732435 0.19663584 0.18226188 0.064773545 0.02047064 -0.16264631 0.016937014
0.13419387 -0.19396143 -0.27015057 0.08142892 0.19690654 -0.44556722 -0.16425617 0.09821737
-0.0251024 -0.16388579 0.07403501 -0.2043047 0.114503376 -0.06617039 0.093873024 -0.21428995
0.004863232 -0.2772173 -0.10352763 0.047503553 0.26340428 -0.03145627 0.38715783 -0.096433006
0.36744314 0.11890622 0.3114635 -0.17859255 0.21574228 0.11751719 -0.6442387 -0.0625259
0.2900412 -0.36698055 -0.7907868 -0.12559399 -0.27856928 -0.33190075 -0.38324338 -0.056105275
-0.27807274 -0.28179994 -0.07531135 -0.2028886 0.159706 0.16446148 0.10965773 0.099476084
-0.20954049 -0.096975565 -0.100763544 -0.14239901 -0.1285914 0.20048612 -0.1346787 0.20318536
-0.04178924 -0.36164463 -0.058704108 -5.065284 -0.023641674 -0.038411133 -0.00787115 -0.059534788
-0.06389731 0.039491855 0.05601083 -0.045084666 -0.15968655 -0.058937725 -0.20332836 -0.21115793
-0.020444693 -0.12821718 0.07532496 -0.21799606 0.0639887 0.0030131596 -0.350664 -0.10438176
0.18448599 -0.2964508 -0.31650004 -0.35770202 -0.018260613 -0.0775163 -0.17031111 -0.29850963
0.010300555 -0.0693477 -0.2571158 -0.06538978 0.028813953 0.17417365 -0.20689683 -0.3271555
-0.07014685 0.21608746 -0.23560494 -0.27815828 -0.080692284 0.03269993 0.032338645 -0.18564935
-0.5198464 -0.0979195 -0.3438175 0.081479914 -0.1220245 -0.1749132 -0.5245422 0.110215284
-0.21363194 -0.083116755 -0.12665813 0.1535958 -0.15713327 0.07445161 -0.12537381 0.19211838
-0.021506174 0.066763066 -0.10691482 0.014554229 0.17739932 -0.25202486 -0.08926174 0.54701257
0.13335057 -0.40864357 0.30399576 -0.23747051 -0.08947281 0.2435176 -0.060830362 -0.13695107
0.05845783 -0.13691783 -0.11807529 0.3227254 0.020929974 0.080370545 -0.07466414 -0.43169236
-0.20463969 -0.17158811 -0.2530663 -0.019911218 -0.09619123 -0.055950083 0.32901353 -0.2382943
-0.29898065 -0.04244237 -0.11053559 -0.05789415 -0.034442812 0.16915524 -0.1486552 -0.26125538
00000000: b2b5 023e d757 a03c 08d0 ad3d bfe7 18be
00000010: 11ab aabe bed1 1cbe dd30 c6be 59ae 903b
00000020: 3e4a 3d3d b42d f03d 311c 4ebe 9bb9 27bd
00000030: 7338 883e 443c 5ebf bf5a 4ebe 34b6 78be
00000040: 2429 08bd b590 a73d af1b f53d 49b3 debe
00000050: bd23 a73e d895 dc3c 091f 923c 1879 32be
00000060: 4c51 a2bd b81b 93bf 1708 9abd 22d5 a33d
00000070: 5980 b2bd c7d2 09be 77f4 9abe c998 d6bc
00000080: e109 89bd b64e abbe d0d3 afbe b365 00be
00000090: e4b5 c2bc b1fe 4bbd 3e6c 1e3e 7b30 aebd
000000a0: 98ca 0a3e 5e3a 92bd 5e38 61bd 6a0c 86be
000000b0: ebf3 7d3e 3fc2 dbbc ad15 033e 51ff af3d
000000c0: 3dbb f8be 47c6 db3d dce5 1b3e fe11 30be
000000d0: 314d 053d 7b45 01bf 1532 eabd 14eb 72be
000000e0: 6e27 5dbe 6d14 b73d 30d3 a5be d1c9 42bd
000000f0: e668 b5bd 0ca1 3dbe f6bf d5bd d50a ba3d
00000100: d237 30bf 7b6a 073d 47f8 d2be 1130 07c0
00000110: ef22 cc3c 48e5 6dbe d652 913d 6abf 7a3b
00000120: 7e5a 9a3b 9201 83bd 1e24 293e 75e8 78bc
00000130: f96e efbd e214 a5bd e78b 7c3e 5406 b2bd
00000140: be35 1a3e 8dba f1bd 20a3 2b3e 5d67 31bf
00000150: c292 393e 2c7e e2bd 8537 823c a70e 9ebd
00000160: 1260 923d 9842 7dbe e85a 493e dca2 3a3e
00000170: fea7 843d 0bb2 a73c c18c 26be 7ebf 8a3c
00000180: 1e6a 093e d39d 46be 2d51 8abe 35c4 a63d
00000190: dea1 493e 6321 e4be c532 28be 3026 c93d
000001a0: 8ca3 cdbc add1 27be ab9f 973d 4035 51be
000001b0: bf80 ea3d 5784 87bd 8040 c03d d36e 5bbe
000001c0: bf5b 9f3b 6def 8dbe 4b06 d4bd 1693 423d
000001d0: eddc 863e 4ad8 00bd 8d39 c63e ab7e c5bd
000001e0: 8221 bc3e 1b85 f33d 2578 9f3e f7e0 36be
000001f0: 8beb 5c3e daac f03d d4ec 24bf 940d 80bd
00000200: 4880 943e e0e4 bbbe 0171 4abf b69b 00be
00000210: a2a0 8ebe e5ee a9be 7a38 c4be a5ce 65bd
00000220: 8d5f 8ebe 1548 90be d63c 9abd 07c2 4fbe
00000230: f889 233e 9768 283e 3b94 e03d 1eba cb3d
00000240: c891 56be 209b c6bd 1e5d cebd 0cd1 11be
00000250: 77ad 03be 3c4c 4d3e 37e9 09be d30f 503e
00000260: 322b 2bbd 7c29 b9be b873 70bd ce16 a2c0
00000270: 2fac c1bc fe54 1dbd fff5 00bc c0da 73bd
00000280: 98dc 82bd 36c2 213d 9d6b 653d b3aa 38bd
00000290: df84 23be af68 71bd 4f35 50be c939 58be
000002a0: a17b a7bc 5d4b 03be f943 9a3d 5c3a 5fbe
000002b0: 820c 833d 6e78 453b 3b8a b3be 1bc6 d5bd
000002c0: e5e9 3c3e 66c8 97be 4b0c a2be b824 b7be
000002d0: 4897 95bc dec0 9ebd 0966 2ebe 41d6 98be
000002e0: a9c3 283c 2b06 8ebd afa4 83be 14eb 85bd
000002f0: 3d0b ec3c 945a 323e c3dc 53be ed80 a7be
00000300: 27a9 8fbd 0846 5d3e 6c42 71be c36a 8ebe
00000310: ff41 a5bd 5df0 053d 8775 043d dd1a 3ebe
00000320: a714 05bf 058a c8bd d908 b0be f1de a63d
00000330: fbe7 f9bd 721c 33be 6648 06bf 8db8 e13d
00000340: 55c2 5abe 1e39 aabd abb2 01be 3848 1d3e
00000350: 8be7 20be 167a 983d fe61 00be aeba 443e
00000360: b72d b0bc 13bb 883d 28f6 dabd dc74 6e3c
00000370: 2ba8 353e 6709 81be dcce b6bd 0409 0c3f
00000380: 0d8d 083e bb39 d1be 55a5 9b3e 782b 73be
00000390: 853d b7bd ae5c 793e 4229 79bd e73c 0cbe
000003a0: 7a71 6f3d 3034 0cbe 75d1 f1bd 433c a53e
000003b0: 5675 ab3c 5099 a43d 83e9 98bd c806 ddbe
000003c0: 118d 51be cbb4 2fbe e891 81be da1c a3bc
000003d0: e8ff c4bd ea2b 65bd 7674 a83e 6c03 74be
000003e0: fe13 99be 0dd8 2dbd 7c60 e2bd 6b22 6dbd
000003f0: e813 0dbd 0837 2d3e 1239 18be 44c3 85be

model.0.bias f4 [256]
0.124259494 0.007821449 -0.22780648 0.18236265 0.42742014 0.12728794 0.107497066 0.10939143
0.18763496 0.178507 -0.22441664 -0.017490588 0.06189035 -0.40131748 0.31334808 0.3382519
-0.09127195 -0.11342914 0.28818405 -0.24278702 -0.08313084 -0.4149216 -0.118642986 -0.16853172
-0.488839 -0.08646454 -0.21191454 0.14619659 -0.11934387 -0.011694953 0.27211 0.36995903
-0.18248414 -0.16567898 -0.31362736 0.091804 -0.09848302 -0.32996505 0.031460367 0.09608212
-0.05743316 0.15197565 0.020078516 -0.0030630059 0.21929924 -0.1912572 -0.11365041 -0.03644777
0.23904952 -0.12285025 -0.046771295 0.05866311 -0.3559534 -0.28155452 0.20385844 -0.24692322
-0.33333528 0.035834167 -0.34437275 -0.050052058 0.06327096 -0.11805731 0.32825372 -0.12527362
-0.07071959 -0.16732961 -0.061309643 0.29175127 -0.30767587 0.23049513 -0.07749542 0.30650547
-0.048121978 0.116156146 -0.1988086 -0.36146742 -0.17407851 -0.12017365 -0.18617235 0.43424085
0.03329912 0.33855978 -0.4936312 -0.15779783 0.067188144 -0.21246158 0.3378554 0.34585202
-0.046652038 0.0648239 0.23606387 -0.17478032 -0.16297504 -0.1430216 -0.10942583 -0.26824364
-0.2931558 -0.12181413 -0.36013362 0.4231291 0.40659305 -0.16151695 -0.079827175 0.304007
0.11334711 0.16740158 -0.02170611 0.13833188 -0.008625169 -0.13329358 0.028001832 -0.07471731
-0.11420477 -0.08480953 -0.070313424 -0.08922982 0.13418429 0.31203958 -0.039068643 0.15274303
-0.35117638 0.050248146 -0.13727194 0.08226381 -0.105762884 -0.45018247 0.3580466 0.19812502
-0.3090037 -0.25504634 -0.079222485 0.22786336 0.010353425 -0.22126965 0.40298977 0.16910356
-0.12235234 -0.22456269 0.09873604 0.33864427 -0.1202689 0.086253494 0.24302907 -0.049694207
0.25403574 0.32605928 0.08299036 0.122456856 -0.7386192 -0.13928902 0.17110363 -0.15695707
0.31050426 -0.3751934 -0.2235319 0.0915941 -0.015126403 0.2095306 0.2540029 0.41241604
-0.1974331 0.0020692535 0.42589286 0.08692448 -0.17860246 0.3237131 -0.14313039 -0.12596375
-0.030807089 0.301873 -0.17419603 -0.06974126 0.22553685 -0.22779644 0.24268559 0.1157962
-0.30137938 0.44014022 -0.06249363 -0.21012884 -0.3466534 0.28892034 0.0891748 0.049014486
-0.15147716 -0.0070911692 -0.2856472 -0.37525362 0.09023184 0.13765751 -0.23060289 0.20811461
0.3926907 0.038687013 -0.16411743 -0.29946864 0.32912022 -0.041329887 0.23837532 -0.07958194
-0.32340512 -0.0033394156 0.018016549 0.0991923 0.023066498 0.032171518 -0.20506771 -0.13828817
-0.09763765 -0.21909429 0.051637664 0.100896224 0.101765566 0.20375542 -0.12252652 -0.18037651
0.2567304 0.25716525 -0.086050935 0.42913207 -0.04895295 -0.1650951 -0.01665106 -0.15900108
-0.25279287 -0.22894304 0.16340247 -0.24276678 0.059646755 0.15435301 0.14799264 -0.08592642
0.029519055 0.123831965 0.5314607 -0.04040239 0.13026509 -0.20244502 0.41765165 0.36430243
-0.19476357 0.07857523 -0.037360135 -0.06216011 -0.17541312 -0.2600962 0.26842877 0.28588912
-0.37561104 -0.17167802 0.07489631 0.052503377 -0.13850866 -0.37712932 0.102939434 0.18538885
00000000: c37b fe3d 8925 003c 1a46 69be 46bd 3a3e
00000010: d0d6 da3e c557 023e 6c27 dc3d 9d08 e03d
00000020: 6123 403e 8aca 363e 7acd 65be 6c48 8fbc
00000030: bc80 7d3d 7c79 cdbe 296f a03e 5a2f ad3e
00000040: caec babd 894d e8bd dc8c 933e 299d 78be
00000050: 8040 aabd 9b70 d4be 18fb f2bd 9493 2cbe
00000060: 1b49 fabe 5214 b1bd 2000 59be 8fb4 153e
00000070: 8f6a f4bd 309c 3fbc 0052 8b3e 456b bd3e
00000080: 1fdd 3abe c0a7 29be c493 a0be bc03 bc3d
00000090: 77b1 c9bd 2ef1 a8be 96dc 003d b4c6 c43d
000000a0: 083f 6bbd 819f 1b3e b37b a43c b6bc 48bb
000000b0: fb8f 603e edd8 43be 8cc1 e8bd 424a 15bd
000000c0: 66c9 743e e998 fbbd 4293 3fbd bb48 703d
000000d0: 863f b6be ea27 90be 44c0 503e 71d9 7cbe
000000e0: ecaa aabe d9c6 123d a051 b0be 6303 4dbd
000000f0: 3494 813d 08c8 f1bd df10 a83e ba47 00be
00000100: 6fd5 90bd 7458 2bbe d21f 7bbd 6c60 953e
00000110: b187 9dbe ea06 6c3e ebb5 9ebd 49ee 9c3e
00000120: 8d1b 45bd 46e3 ed3d 7b94 4bbe 4212 b9be
00000130: a341 32be 9a1d f6bd f7a3 3ebe d154 de3e
00000140: a864 083d b557 ad3e 3bbd fcbe c195 21be
00000150: f099 893d 878f 59be 62fb ac3e 8413 b13e
00000160: 3516 3fbd 65c2 843d baba 713e 9df9 32be
00000170: eee2 26be 4174 12be a61a e0bd 3b57 89be
00000180: 8418 96be b079 f9bd 6f63 b8be 61a4 d83e
00000190: f72c d03e b364 25be 6e7c a3bd cea6 9b3e
000001a0: 8822 e83d 526b 2b3e 03d1 b1bc dfa6 0d3e
000001b0: 9550 0dbc 1d7e 08be 1964 e53c 6405 99bd
000001c0: 31e4 e9bd 9eb0 adbd 7c00 90bd 20be b6bd
000001d0: 9b67 093e a7c3 9f3e 7106 20bd ab68 1c3e
000001e0: 64cd b3be 00d1 4d3d 0491 0cbe ee79 a83d
000001f0: 369a d8bd 517e e6be e251 b73e 49e1 4a3e
00000200: bc35 9ebe 6f95 82be 663f a2bd 0355 693e
00000210: 69a1 293c 8394 62be ad54 ce3e 7c29 2d3e
00000220: dd93 fabd c3f3 65be 1f36 ca3d c862 ad3e
00000230: 8b4f f6bd aca5 b03d 9ddc 783e 278c 4bbd
00000240: f910 823e 3ef1 a63e daf6 a93d a9ca fa3d
00000250: 2616 3dbf c8a1 0ebe ca35 2f3e 5bb9 20be
00000260: 6afa 9e3e 5919 c0be 8ce5 64be b095 bb3d
00000270: bcd4 77bc 318f 563e ab0c 823e 3228 d33e
00000280: e72b 4abe 509c 073b a10e da3e 7605 b23d
00000290: 90e3 36be b9bd a53e c690 12be a4fc 00be
000002a0: 265f fcbc 198f 9a3e 7260 32be 81d4 8ebd
000002b0: 22f3 663e 7843 69be 9282 783e 8f26 ed3d
000002c0: 664e 9abe 0f5a e13e 52f9 7fbd 042c 57be
000002d0: 8e7c b1be 5eed 933e 47a1 b63d 6ac3 483d
000002e0: d41c 1bbe 0a5d e8bb 5a40 92be 3e21 c0be
000002f0: 79cb b83d 17f6 0c3e 2a23 6cbe ff1b 553e
00000300: c10e c93e 4676 1e3d 660e 28be f453 99be
00000310: 7282 a83e 8749 29bd a918 743e dbfb a2bd
00000320: 5b95 a5be 19da 5abb 7197 933c 5525 cb3d
00000330: f4f5 bc3c 48c6 033d 45fd 51be 6a9b 0dbe
00000340: 40f6 c7bd 415a 60be 0482 533d aea2 ce3d
00000350: 776a d03d 43a5 503e 2fef fabd 9fb4 38be
00000360: 2b72 833e 2aab 833e 793b b0bd 33b7 db3e
00000370: e382 48bd b10e 29be ce67 88bc 2ed1 22be
00000380: 116e 81be 0b70 6abe fa52 273e db97 78be
00000390: 2850 743d b70e 1e3e 628b 173e 31fa afbd
000003a0: f2d1 f13c 9d9b fd3d cf0d 083f fa7c 25bd
000003b0: 3664 053e bf4d 4fbe 70d6 d53e d985 ba3e
000003c0: 1a70 47be 0dec a03d f106 19bd 999b 7ebd
000003d0: 7f9f 33be 542b 85be 7f6f 893e 0f60 923e
000003e0: 1750 c0be 5dcc 2fbe 3d63 993d c80d 573d
000003f0: 37d5 0dbe 1817 c1be e9d1 d23d 93d6 3d3e

model.2.weight f4 [128, 256]
0.07450018 0.056101415 0.0065261084 0.108671986 0.1035417 -0.07940398 -0.07835633 0.04954389
-0.043881577 -0.025980879 0.40310487 -0.08691029 0.31783712 0.124723546 0.14548945 0.0142571125
0.043005694 -0.007325058 -0.23154028 0.17798923 -0.07138659 0.096062675 -0.036872473 0.11714423
0.115536995 0.10035974 -0.061493542 0.11135867 0.0138233015 0.040377274 0.19635911 -0.08603927
-0.10966161 -0.022897296 0.08915355 -0.0050774817 0.004264146 0.08632533 -0.046484828 0.21215475
0.09662301 -0.17878035 -0.17660409 0.13381067 -0.092105865 -0.020636996 -0.038329475 -0.042075314
0.23474015 0.07622404 0.07951583 0.04828923 0.1455671 -0.05347539 0.291289 -0.07238246
0.09680277 0.037748545 -0.0014038335 -0.11863674 -0.007943332 0.022941817 0.21404973 0.010675213
0.05699845 -0.0931854 -0.016734758 0.036006875 -0.12181738 0.10058 -0.13527292 0.25177845
-0.02348316 0.16531084 0.31415543 0.058865387 0.24820228 0.12193344 0.2008056 0.20495366
0.04205052 0.31149992 0.25773975 0.07202576 -0.016975475 -0.05792239 0.074888796 0.16511443
0.12996909 -0.0049093813 0.044965282 -0.051136278 0.13428833 -0.022877874 0.33639577 0.0008274355
0.046774924 -0.11116332 0.1474118 0.30130374 0.29682937 0.021382561 -0.09666789 0.19499555
0.05188721 0.08252121 0.10794445 0.08434205 0.07403798 -0.03721936 0.012939427 0.036287595
0.018760797 -0.038206235 -0.23703896 -0.019871246 -0.053317204 0.19833681 0.15828626 0.016303405
0.060839947 0.058870398 -0.12093971 0.13486531 0.09241457 -0.075377524 0.2878264 0.107317105
0.113566436 0.017719066 0.05674685 0.3028183 0.08728768 0.032650832 0.16061161 0.18289351
0.0755233 -0.06426702 0.20430559 0.59758437 -0.098674655 -0.23255959 0.030567564 0.08871229
-0.041141335 0.039077427 0.040049456 0.19434252 0.026423108 -0.01337664 0.1807547 -0.08598511
0.2871185 0.05264558 0.0487948 0.09500568 -0.025505774 0.115389414 -0.26667002 0.12100743
0.005649165 0.081244715 0.05989531 -0.09601218 -0.005247992 0.10386136 0.1956228 0.10484818
0.0096562365 0.13688605 0.1667947 -0.038104158 0.039386008 0.008732746 0.20430611 0.025933579
0.0006462759 0.12693748 -0.033168465 -0.2733476 0.06361317 0.2807264 -0.19607037 -0.04305885
-0.0177517 -0.05250133 -0.058913622 0.031722393 0.113512866 -0.0141603965 -0.06872816 -0.033762198
-0.1867759 0.16580234 -0.06524195 0.034088507 0.052995138 -0.17022914 0.22058052 -0.12440703
0.26089472 0.09821414 0.24482585 -0.34138304 -0.0027919966 0.11027068 -0.17415558 -0.04704392
-0.08080948 0.056224607 0.28793162 -0.0027716886 -0.02170869 0.044752587 0.028862776 -0.11840107
-0.14754215 0.04623088 0.037478544 -0.44804758 -0.11826359 0.11575742 0.047133185 -0.14314786
0.16653089 -0.054719698 0.057008363 -0.019553347 -0.030754479 0.06983899 0.3127745 0.093357526
0.011277974 -0.03666111 0.12818864 0.060665075 -0.15065898 -0.071076974 0.30394083 -0.45775113
0.022479696 0.10407389 0.048936058 -0.09282161 0.19235672 -0.12680647 -0.031298786 -0.029281799
0.18337864 0.054193225 0.099146545 -0.019767214 -0.0062653297 -0.028339116 -0.023231044 -0.062355153
00000000: 8d93 983d 99ca 653d f7d8 d53b 6b8f de3d
00000010: ac0d d43d 8e9e a2bd 4979 a0bd 89ee 4a3d
00000020: 2bbd 33bd dad5 d4bc c363 ce3e 06fe b1bd
00000030: 8cbb a23e 0f6f ff3d 30fb 143e aa96 693c
00000040: bd26 303d 0a07 f0bb e518 6dbe cf42 363e
00000050: 2233 92bd 82bc c43d 9707 17bd 50e9 ef3d
00000060: a99e ec3d 6889 cd3d a7e0 7bbd 0410 e43d
00000070: 217b 623c a462 253d 5d12 493e 5b35 b0bd
00000080: 4496 e0bd 1c93 bbbc 2396 b63d 0161 a6bb
00000090: 40ba 8b3b 56cb b03d e066 3ebd 183f 593e
000000a0: 49e2 c53d 3212 37be b4d7 34be aa05 093e
000000b0: 00a2 bcbd eb0e a9bc 5eff 1cbd 2a57 2cbd
000000c0: b95f 703e 591b 9c3d 32d9 a23d edca 453d
000000d0: 8b0f 153e 0309 5bbd d523 953e 413d 94bd
000000e0: 8840 c63d 389e 1a3d d600 b8ba d2f7 f2bd
000000f0: c024 02bc 7af0 bb3c da2f 5b3e 17e7 2e3c
00000100: 3577 693d fdd7 bebd 5517 89bc f27b 133d
00000110: 647b f9bd e3fc cd3d fc84 0abe 1be9 803e
00000120: c25f c0bc 3f47 293e fbd8 a03e d51c 713d
00000130: bd28 7e3e 3db8 f93d fc9f 4d3e 5fdf 513e
00000140: 2b3d 2c3d eb7c 9f3e 77f6 833e 3e82 933d
00000150: 2710 8bbc 0740 6dbd 4c5f 993d c213 293e
00000160: 9e16 053e e0de a0bb 842d 383d 4674 51bd
00000170: e182 093e 616a bbbc 113c ac3e 42e8 583a
00000180: 1097 3f3d 98a9 e3bd 1ef3 163e 7c44 9a3e
00000190: 05fa 973e 7b2a af3c d1f9 c5bd eaac 473e
000001a0: af87 543d e100 a93d fb11 dd3d 86bb ac3d
000001b0: 39a1 973d 5473 18bd e4ff 533c 4da2 143d
000001c0: 3eb0 993c 247e 1cbd 57ba 72be 06c9 a2bc
000001d0: 2463 5abd ce18 4b3e cb15 223e b88e 853c
000001e0: 4f33 793d 1622 713d 3daf f7bd 221a 0a3e
000001f0: da43 bd3d 885f 9abd fb5d 933e 12c9 db3d
00000200: 8595 e83d 9327 913c 636f 683d 000b 9b3e
00000210: e2c3 b23d e1bc 053d 5f77 243e 7048 3b3e
00000220: f6ab 9a3d 6d9e 83bd 7c35 513e 4afb 183f
00000230: f015 cabd 1a24 6ebe d468 fa3c caae b53d
00000240: d183 28bd a70f 203d e60a 243d ba01 473e
00000250: 4675 d83c b229 5bbc c317 393e f618 b0bd
00000260: 3201 933e e4a2 573d 0edd 473d 5792 c23d
00000270: 7cf1 d0bc 4951 ec3d f988 88be bed2 f73d
00000280: a11c b93b a163 a63d c954 753d 09a2 c4bd
00000290: 59f7 abbb 44b5 d43d 5851 483e a5ba d63d
000002a0: 3135 1e3c db2b 0c3e 3bcc 2a3e 1b13 1cbd
000002b0: 3953 213d cb13 0f3c 9f35 513e a872 d43c
000002c0: d76a 293a e6fb 013e a8db 07bd 37f4 8bbe
000002d0: 9f47 823d 5fbb 8f3e acc6 48be 7a5e 30bd
000002e0: 036c 91bc a20b 57bd 694f 71bd 57ef 013d
000002f0: 6f79 e83d 0201 68bc 59c1 8cbd 3b4a 0abd
00000300: 2e42 3fbe 17c8 293e 929d 85bd 64a0 0b3d
00000310: 6e11 593d 8c50 2ebe dcdf 613e 1dc9 febd
00000320: fe93 853e 7f24 c93d a1b3 7a3e c2c9 aebe
00000330: eef9 36bb 98d5 e13d d755 32be 20b1 40bd
00000340: 717f a5bd c64b 663d c66b 933e 38a5 35bb
00000350: 6cd6 b1bc 7d4e 373d a171 ec3c 437c f2bd
00000360: 4a15 17be 975c 3d3d 1a83 193d 7e66 e5be
00000370: 2e34 f2bd 3a12 ed3d ba0e 413d 5a95 12be
00000380: 1387 2a3e c321 60bd 9a81 693d 572e a0bc
00000390: d1f0 fbbc bf07 8f3d fb23 a03e 3b32 bf3d
000003a0: 40c7 383c f629 16bd e243 033e f17b 783d
000003b0: 5946 1abe ce90 91bd 229e 9b3e 5b5e eabe
000003c0: 5727 b83c b124 d53d 2d71 483d 4219 bebd
000003d0: 29f9 443e 8ed9 01be 2833 00bd 62e0 efbc
000003e0: 9cc7 3b3e b7f9 5d3d 580d cb3d daee a1bc
000003f0: 654d cdbb 6f27 e8bc 084f bebc 1e68 7fbd

model.2.bias f4 [128]
0.3836042 0.06783211 0.04611453 0.012682432 -0.086390175 0.1784356 -0.00055770203 0.037095223
0.03341561 -0.055298325 -0.06202033 -0.28674805 0.03423401 0.001383029 -0.16867743 -0.014701957
-0.009093061 0.16774683 -0.087590635 -0.043801237 0.026498951 0.2191749 0.005126707 0.24444903
0.07300145 0.2707148 -0.0036955702 -0.04624542 0.07706872 -0.025091458 0.18478343 -0.064845115
0.36896434 -0.021107864 -0.010148879 -0.06668281 0.0041038557 0.047140833 -0.01463733 -0.05309864
0.17770442 -0.010907476 0.06782209 -0.057148825 -0.08286283 -0.076479435 0.010617812 0.2379858
-0.037348647 0.35105512 0.0122123 -0.02212527 -0.020835793 -0.018343255 -0.02515012 0.035802864
-0.041816104 0.15653978 0.23900528 -0.032028347 -0.056008276 0.20425177 -0.28507805 0.05601018
0.1501338 0.059993707 0.32851407 -0.09884025 0.07034559 0.2697123 -0.023577238 0.101336196
-0.075992875 0.1025397 0.36841896 -0.10476913 -0.025811117 -0.08875821 0.14368469 -0.029360406
0.0036741772 0.11430921 -0.016765535 0.13862166 -0.07071927 0.13048151 0.18400592 -0.090374485
0.2747969 0.08069285 0.20415282 -0.026724434 0.0101781655 -0.006641031 0.02670953 0.072209366
0.2268301 0.012005867 -0.06255053 0.027783893 0.088360034 0.17003173 0.090085715 0.17945555
-0.102534615 -0.45362067 -0.052866414 -0.024437485 0.14317806 0.43746716 0.14283326 -0.05398502
0.097387336 2.4315725e-05 0.27780077 0.033005394 -0.140087 0.12805223 0.37876445 0.09474543
0.19372058 0.4026905 -0.03570802 -0.07081483 -0.04626885 -0.025423937 0.05154807 -0.009323495
00000000: c567 c43e 90eb 8a3d 97e2 3c3d fac9 4f3c
00000010: 55ed b0bd d2b7 363e c032 12ba 29f1 173d
00000020: cfde 083d 7f80 62bd 0809 7ebd a4d0 92be
00000030: f638 0c3d c146 b53a c7b9 2cbe 7ae0 70bc
00000040: 10fb 14bc d3c5 2b3e b862 b3bd ed68 33bd
00000050: 5414 d93c 636f 603e effd a73b d950 7a3e
00000060: c981 953d 219b 8a3e 6131 72bb d66b 3dbd
00000070: 34d6 9d3d 9a8c cdbc de37 3d3e 84cd 84bd
00000080: e5e8 bc3e 66ea acbc 7c47 26bc ff90 88bd
00000090: a379 863b bf16 413d 69d1 6fbc f67d 59bd
000000a0: 26f8 353e 45b5 32bc 4fe6 8a3d e314 6abd
000000b0: fdb3 a9bd 40a1 9cbd 55f6 2d3c 8db2 733e
000000c0: e5fa 18bd 7fbd b33e 1916 483c 0e40 b5bc
000000d0: d3af aabc 9844 96bc a007 cebc 06a6 123d
000000e0: 5d47 2bbd f74b 203e cdbd 743e 2830 03bd
000000f0: ef68 65bd 6027 513e c0f5 91be ee6a 653d
00000100: adbc 193e f6bb 753d ff32 a83e c26c cabd
00000110: 5911 903d bb17 8a3e 0d25 c1bc 5a89 cf3d
00000120: 27a2 9bbd 5600 d23d 69a1 bc3e 3391 d6bd
00000130: d671 d3bc ddc6 b5bd 1422 133e 3c85 f0bc
00000140: 77ca 703b f21a ea3d e057 89bc d6f2 0d3e
00000150: 44d5 90bd f29c 053e 0c6c 3c3e 4216 b9bd
00000160: 2eb2 8c3e 4b42 a53d 700d 513e 33ed dabc
00000170: 52c2 263c 019d d9bb f2cd da3c 81e2 933d
00000180: 2646 683e 42b4 443c 7e1a 80bd 0c9b e33c
00000190: 1bf6 b43d cc1c 2e3e dc7e b83d 32c3 373e
000001a0: abfd d1bd f840 e8be 748a 58bd 1f31 c8bc
000001b0: 459d 123e b2fb df3e e242 123e 651f 5dbd
000001c0: 0373 c73d 9ff9 cb37 e73b 8e3e aa30 073d
000001d0: f772 0fbe 2020 033e 6aed c13e e409 c23d
000001e0: b05e 463e 732d ce3e 9342 12bd 5e07 91bd
000001f0: 6884 3dbd dc45 d0bc 1224 533d 93c1 18bc

model.4.weight f4 [64, 128]
0.2764013 0.030446488 0.22068042 -0.110775486 -0.12353077 -0.07684985 0.077328175 0.042178135
-0.3128606 0.033402696 -0.020252926 -0.4541825 -0.13791813 -0.048415437 -0.30354986 0.09282311
0.020801343 -0.092480324 -0.034085672 -0.048468716 0.008094743 -0.56535697 0.10247359 0.17094794
0.22460546 -0.22357541 0.20556962 -0.033651117 0.09282187 0.052388676 0.058603015 0.05036119
0.08055338 -0.028109672 0.2997585 0.041181885 -0.014772542 0.17438087 0.0056064883 0.034004945
0.16689137 -0.09643457 -0.13790806 -0.01870686 0.007955997 -0.030734364 -0.010227327 0.032446682
-0.37670228 -1.2616788 -0.040673103 -0.0004477579 0.019737754 0.0624535 0.08431653 -0.032532897
-0.023984918 -0.026783558 -0.20021288 -0.019167198 0.065037236 0.025010271 0.5067421 0.24840155
0.05524561 0.11044652 0.14538282 -0.027840573 -0.12094432 0.008153655 -0.06994389 0.51894766
0.035524387 0.4317058 -0.23839125 0.008273134 -0.0662257 0.019663045 0.40877506 0.12015864
0.015061695 -0.07764391 0.056378115 0.71594447 0.088345945 0.09582698 -0.31038526 0.0733211
0.22728604 0.02711047 -0.36000228 -0.03843011 -0.033496387 0.086890996 0.5796064 -0.09549813
-0.29437733 0.073025495 -0.25583777 -0.040362135 0.013586607 0.0977276 0.047093216 0.17156582
-0.039574042 -0.78240347 -0.040710717 0.024554383 0.0055812118 -0.030204954 0.29196304 0.022511467
0.24543573 0.155381 0.39167672 -0.16749838 -0.010092444 0.002192381 0.25176126 0.167307
0.071766734 0.52716094 0.03142785 -0.0428733 -0.051954865 -0.030224599 -0.15630259 -0.060913328
0.014349597 0.055731125 0.011744247 -0.0153262885 -0.018826427 0.09866449 -0.0068865903 0.00783394
0.05497589 -0.03275469 -0.066062085 0.06052805 0.043934 0.020769693 -0.09489396 0.047170423
-0.019938963 -0.08845659 -0.061488606 0.069051936 -0.082226306 -0.08388126 0.066522114 0.05644728
0.018870082 -0.05843607 -0.096434854 -0.006670162 -0.0068749753 -0.047125675 -0.044067487 0.045537345
-0.06913836 -0.050051026 -0.031264324 -0.08735399 0.061392765 -0.009735096 0.019205421 0.034845334
0.018840134 0.035811484 -0.020374613 0.07657448 -0.008363545 -0.07653883 0.03215957 0.06556423
-0.03171938 -0.017621547 0.012939671 0.07525248 -0.08204174 -0.03998994 -0.05271601 -0.07182251
-0.061246034 -0.011501662 -0.0885872 -0.077779904 -0.053152278 0.07705466 0.046376467 -0.021044
-0.005449013 -0.06746693 -0.03767767 0.01760441 -0.04250771 -0.097059466 -0.018706612 -0.07769341
-0.0025579259 0.028462477 -0.014663901 0.0016413827 -0.06398441 0.05402585 -0.0457633 0.015671289
0.037142776 0.028975816 0.040436942 0.014566308 -0.04548633 0.05633635 -0.08375374 0.06282141
-0.018570568 -0.07160749 -0.036125503 -0.029539779 -0.05184958 0.045359544 -0.03605482 0.055107053
-0.065840125 0.04701715 -0.08492888 0.01846977 -0.09125075 -0.06667039 -0.08247894 0.0036916276
0.066144325 -0.022804826 0.05890573 0.056036253 -0.09024124 -0.03860736 -0.10014785 -0.023016246
-0.07861405 0.008192233 0.019699752 -0.046411976 -0.014086887 -0.098786354 0.0044067614 -0.029375728
0.059585437 -0.052071244 -0.048909035 -0.04276666 0.044415437 -0.024513878 0.003928185 0.053572826
00000000: 7984 8d3e ea6a f93c 0cfa 613e 42de e2bd
00000010: b3fd fcbd 7463 9dbd 3c5e 9e3d fbc2 2c3d
00000020: 442f a0be 44d1 083d 77e9 a5bc 9c8a e8be
00000030: 693a 0dbe 444f 46bd e36a 9bbe 0b1a be3d
00000040: 9467 aa3c 5366 bdbd 6b9d 0bbd 2287 46bd
00000050: d09f 043c 3cbb 10bf acdd d13d fa0c 2f3e
00000060: f9fe 653e f4f0 64be d880 523e c1d5 09bd
00000070: 6519 be3d 8295 563d b709 703d 8947 4e3d
00000080: 2cf9 a43d 4146 e6bc f279 993e 56ae 283d
00000090: 8808 72bc e690 323e a2b6 b73b c548 0b3d
000000a0: 92e5 2a3e 7d7f c5bd c537 0dbe 213f 99bc
000000b0: df59 023c a2c6 fbbc 8590 27bc d0e6 043d
000000c0: 1fdf c0be b17e a1bf d798 26bd 0cc1 eab9
000000d0: 12b1 a13c 3ecf 7f3d 25ae ac3d 3741 05bd
000000e0: 057c c4bc 3169 dbbc 9b04 4dbe 8704 9dbc
000000f0: 3e32 853d 57e2 cc3c dab9 013f fa5c 7e3e
00000100: 3949 623d c931 e23d 3cdf 143e ea11 e4bc
00000110: a8b1 f7bd e896 053c be3e 8fbd c1d9 043f
00000120: 0582 113d 8b08 dd3e d61c 74be 0a8c 073c
00000130: 57a1 87bd 6514 a13c f74a d13e bc15 f63d
00000140: 54c5 763c c503 9fbd bdec 663d 2348 373f
00000150: b8ee b43d f040 c43d d1ea 9ebe 5f29 963d
00000160: acbd 683e c716 de3c 3852 b8be e468 1dbd
00000170: 8233 09bd e8f3 b13d 1661 143f 8694 c3bd
00000180: a0b8 96be 648e 953d 2bfd 82be c452 25bd
00000190: 5c9a 5e3c 6825 c83d d1e4 403d f3ae 2f3e
000001a0: 6418 22bd 984b 48bf 48c0 26bd 4626 c93c
000001b0: 99e2 b63b 6170 f7bc 2e7c 953e f869 b83c
000001c0: 8153 7b3e 321c 1f3e da89 c83e b284 2bbe
000001d0: c75a 25bc 0dae 0f3b dae6 803e 8752 2b3e
000001e0: 70fa 923d 05f4 063f 7dba 003d ea9b 2fbd
000001f0: a0ce 54bd 9499 f7bc c90d 20be 4180 79bd
00000200: 921a 6b3c 5246 643d f16a 403c 1d1b 7bbc
00000210: e139 9abc 9c10 ca3d e8a8 e1bb ed59 003c
00000220: 662e 613d c829 06bd 8f4b 87bd 43ec 773d
00000230: 23f4 333d 3425 aa3c c457 c2bd c635 413d
00000240: 0957 a3bc bb28 b5bd 7adb 7bbd 1a6b 8d3d
00000250: 4466 a8bd f0c9 abbd bf3c 883d 4335 673d
00000260: 6e95 9a3c a95a 6fbd a37f c5bd 6091 dabb
00000270: 7947 e1bb da06 41bd 1c80 34bd 5e85 3a3d
00000280: 6a98 8dbd 4e02 4dbd 050f 00bd a6e6 b2bd
00000290: fb76 7b3d f47f 1fbc b054 9d3c fbb9 0e3d
000002a0: a056 9a3c 10af 123d a9e8 a6bc 15d3 9c3d
000002b0: 4007 09bc 64c0 9cbd c1b9 033d 8a46 863d
000002c0: 2eec 01bd 105b 90bc ea00 543c f91d 9a3d
000002d0: 8005 a8bd 7ecc 23bd beec 57bd ae17 93bd
000002e0: 1fdd 7abd 7871 3cbc 356d b5bd 124b 9fbd
000002f0: 34b6 59bd d5ce 9d3d 40f5 3d3d 7764 acbc
00000300: a28d b2bb 1a2c 8abd e753 1abd 2037 903c
00000310: 911c 2ebd 1dc7 c6bd 9c3e 99bc b91d 9fbd
00000320: e0a2 27bb 242a e93c dc40 70bc aa23 d73a
00000330: 420a 83bd 364a 5d3d 4c72 3bbd 1361 803c
00000340: 0623 183d b15e ed3c 35a1 253d 86a7 6e3c
00000350: e04f 3abd f2c0 663d 1587 abbd 83a8 803d
00000360: 4e21 98bc f3a6 92bd 56f8 13bd 68fd f1bc
00000370: 3a60 54bd eeca 393d 38ae 13bd efb7 613d
00000380: 30d7 86bd 0e95 403d 31ef adbd ea4d 973c
00000390: ace1 babd 7c8a 88bd b8ea a8bd 3cef 713b
000003a0: ad76 873d 30d1 babc 2247 713d 4586 653d
000003b0: 66d0 b8bd c022 1ebd 511a cdbd 918c bcbc
000003c0: 6700 a1bd b738 063c 6061 a13c 7c1a 3ebd
000003d0: b0cc 66bc 8050 cabd 9866 903b 5ea5 f0bc
000003e0: dc0f 743d a848 55bd d754 48bd 182c 2fbd
000003f0: f6ec 353d 54d1 c8bc 01b8 803b 2e6f 5b3d

model.4.bias f4 [64]
0.2181363 -0.006001313 0.15189387 0.08219369 0.42916805 0.24949314 0.16189192 -0.01693932
0.26698428 0.004607732 0.24756324 -0.17353961 0.43907264 -0.086651124 0.23183186 -0.02560728
0.00521381 0.47064993 -0.10752263 -0.0019491042 0.18776695 -0.1302454 0.27879712 0.0036177703
-0.058685817 0.12351802 -0.0043219132 0.5683163 -0.14810221 0.07125973 -0.047437362 0.20997699
0.20659699 -0.124024324 -0.06456645 0.073966436 0.011415523 0.030595815 0.036078878 0.17164032
0.21715184 0.3198357 -0.090279564 0.20774868 -0.09268439 0.4518269 -0.12189368 0.06704439
0.011562209 -0.0948486 0.031732194 0.39083913 0.10939693 0.19563037 0.16284898 0.033541735
0.059778474 -0.069987565 -0.087552674 0.21537279 -0.031845562 -0.1270058 -0.039131444 0.0070670596
00000000: 1f5f 5f3e aaa6 c4bb 118a 1b3e 2a55 a83d
00000010: eabb db3e 217b 7f3e ffc6 253e 54c4 8abc
00000020: 2ab2 883e 75fc 963b 3881 7d3e 5eb4 31be
00000030: 21ce e03e 2576 b1bd 5565 6d3e 5cc6 d1bc
00000040: 9cd8 aa3b 07f9 f03e d334 dcbd 1679 ffba
00000050: fb45 403e 0d5f 05be 7fbe 8e3e 1d18 6d3b
00000060: 8a60 70bd 04f7 fc3d d69e 8dbb 2d7d 113f
00000070: 1ba8 17be 9ff0 913d ae4d 42bd 3504 573e
00000080: 298e 533e 7700 febd 6a3b 84bd b77b 973d
00000090: 2c08 3b3c 13a4 fa3c 72c7 133d 7bc2 2f3e
000000a0: 0d5d 5e3e 81c1 a33e 7ee4 b8bd 12bc 543e
000000b0: 50d1 bdbd db55 e73e 65a3 f9bd 924e 893d
000000c0: 6b6f 3d3c fc3f c2bd 9ef9 013d 111c c83e
000000d0: 7f0b e03d 5453 483e e2c1 263e 0f63 093d
000000e0: 46da 743d a455 8fbd d14e b3bd af8a 5c3e
000000f0: 7e70 02bd cf0d 02be 4b48 20bd cb92 e73b

model.6.weight f4 [32, 64]
0.06808456 -0.05411032 -0.0033357795 -0.11464795 -0.1740844 0.044160556 0.045754015 0.09558674
0.023870356 -0.007609528 -0.024761744 -0.049313325 -0.07705541 -0.07982805 -0.052893013 -0.090719
-0.07121717 -0.16703872 -0.002649337 0.07061324 -0.14691436 0.15477924 0.059363123 0.056289267
-0.06524406 -0.15715028 -0.028936965 0.018910324 0.061510913 -0.15117645 -0.122236915 0.10386502
0.11060676 0.04269412 0.05511963 -0.11395233 -0.010491085 -0.05698328 -0.1480251 -0.16691385
0.037609383 -0.0075997724 0.0071951 -0.1571242 0.017467573 -0.10500616 -0.0990326 -0.040049303
-0.10808958 -0.09484453 0.042934157 -0.08246596 -0.20813785 -0.046812125 -0.13238695 0.01516142
-0.059167705 -0.12110481 -0.054949068 0.048295252 -0.03434061 -0.077055246 0.096588045 0.09307914
-0.060682654 -0.110183075 -0.28298244 0.14781657 0.34958526 -0.18906203 -0.16132426 0.10159528
-0.2545768 -0.12182454 -0.046021767 -0.13533592 0.5039322 0.063378625 -0.111421384 0.1897984
-0.01358664 0.22837585 0.11912899 0.09604301 -0.013460641 -0.01899985 -0.06948502 0.020666933
0.28749606 0.32539988 -0.020508064 0.37806574 -0.07730467 -0.111724064 -0.1708428 -0.0074708904
0.21626312 -0.08598744 -0.04082717 0.034785073 0.13734761 0.06559598 -0.07778159 -0.31506774
-0.03035616 0.34959206 0.054249734 0.21903062 -0.1490286 0.09885503 0.034835774 0.067419
-0.21347791 0.0036749374 0.085320316 0.25037837 0.033984687 0.17292662 0.23779441 0.107796244
0.23607905 0.090008825 0.0655539 0.16152884 -0.021780793 0.008443322 -0.13127185 0.06495295
0.026403712 -0.027653169 -0.21676145 0.03655469 -0.021833116 0.17288972 0.17540932 -0.006645043
0.2460797 0.043198485 -0.077817075 -0.11000542 0.20063952 0.10504233 -0.16988006 0.13762452
0.11973947 -0.016515208 0.07286202 0.122626826 0.13097383 0.2369441 -0.22749853 -0.08884914
0.13399391 -0.0028474533 0.114029385 -0.13997307 0.0724347 0.10542496 -0.009217637 0.12259489
0.18819489 0.06315395 0.031976745 -0.12805125 -0.024239345 0.023501052 -0.11590292 0.01423057
-0.051144794 0.013006882 0.03183467 -0.19217896 -0.0016580066 -0.0097086355 -0.019951554 0.07817073
0.14283684 -0.09459966 0.015910288 -0.12336651 0.12016969 -0.12232415 -0.04898172 0.058455527
-0.35914817 0.034019396 -0.023175986 -0.344259 0.064187735 -0.06492591 0.05181926 -0.023184972
0.15720722 -0.017262252 -0.12563878 -0.0016220077 0.33847448 -0.53625107 -0.23889086 0.020164624
-0.024132565 0.11159005 -1.0277748 0.021656187 0.06431802 0.046073686 0.074040316 -0.07457363
0.0924081 -0.039198738 -0.032123886 -0.20595565 -0.27599594 0.42082408 0.09647101 -0.043516103
0.021026889 0.15370573 0.14235732 0.0028597305 -0.17808942 0.020693757 -0.17854665 -0.15382624
0.4091081 0.018465329 -0.104275696 -0.15577652 -0.105767325 -0.06252894 -0.19161257 -0.24179736
0.121887006 -0.3128006 0.014516583 0.02948474 -0.077746265 -0.6408969 -0.10373064 0.07070716
0.057240006 0.014220823 0.046310883 -0.10247039 -0.24960761 -0.14475559 -0.19991802 -0.20475341
-0.14145193 -0.061605398 0.12937902 -0.72619694 0.12127243 0.043117385 0.035117924 -0.12041718
00000000: eb6f 8b3d c8a2 5dbd 189d 5abb 8bcc eabd
00000010: 2e43 32be b3e1 343d 9068 3b3d fbc2 c33d
00000020: c48b c33c 5959 f9bb 24d9 cabc c5fc 49bd
00000030: 3acf 9dbd e47c a3bd 58a6 58bd e2ca b9bd
00000040: 4fda 91bd 330c 2bbe 80a0 2dbb ad9d 903d
00000050: b870 16be 737e 1e3e bf26 733d 938f 663d
00000060: ad9e 85bd 01ec 20be 370d edbc d3e9 9a3c
00000070: def2 7b3d 00ce 1abe 5957 fabd 2fb7 d43d
00000080: cc85 e23d 08e0 2e3d 1fc5 613d d75f e9bd
00000090: cde2 2bbc 4d67 69bd e493 17be 77eb 2abe
000000a0: 4c0c 1a3d 8307 f9bb e0c4 eb3b 2be5 20be
000000b0: 2818 8f3c 780d d7bd 9bd1 cabd bd0a 24bd
000000c0: 125e ddbd d93d c2bd badb 2f3d eae3 a8bd
000000d0: 1722 55be 12be 3fbd 7290 07be 9b67 783c
000000e0: d659 72bd cc05 f8bd 4612 61bd 3ed1 453d
000000f0: bda8 0cbd 24cf 9dbd f4cf c53d 47a0 be3d
00000100: 608e 78bd aaa7 e1bd 13e3 90be 3a5d 173e
00000110: d7fc b23e 7a99 41be 3032 25be 3011 d03d
00000120: e457 82be 257f f9bd 5281 3cbd 8095 0abe
00000130: b301 013f a7cc 813d e530 e4bd 835a 423e
00000140: 809a 5ebc 5cdb 693e e6f9 f33d 33b2 c43d
00000150: 058a 5cbc 93a5 9bbc 2a4e 8ebd b34d a93c
00000160: af32 933e d09a a63e 8700 a8bc d591 c13e
00000170: e951 9ebd 96cf e4bd 6af1 2ebe 5fce f4bb
00000180: 1474 5d3e 2f1a b0bd 643a 27bd cb7a 0e3d
00000190: daa4 0c3e 2f57 863d f44b 9fbd 8f50 a1be
000001a0: 7bad f8bc bbfd b23e f834 5e3d 9049 603e
000001b0: f49a 18be 8274 ca3d f5af 0e3d f912 8a3d
000001c0: f499 5abe 38d7 703b 6bbc ae3d 9831 803e
000001d0: 8733 0b3d ad13 313e 6180 733e 47c4 dc3d
000001e0: b5be 713e 8c56 b83d 2041 863d d167 253e
000001f0: a26d b2bc dc55 0a3c 216c 06be 0d06 853d
00000200: 994c d83c e688 e2bc b7f6 5dbe 5fba 153d
00000210: 5ddb b2bc 010a 313e 809e 333e a9be d9bb
00000220: 51fc 7b3e e5f0 303d 8f5e 9fbd 864a e1bd
00000230: 7274 4d3e 6f20 d73d 0af5 2dbe 71ed 0c3e
00000240: f839 f53d e74a 87bc af38 953d c623 fb3d
00000250: 011e 063e 79a1 723e 60f5 68be 8af6 b5bd
00000260: b335 093e 579c 3abb 3d88 e93d 1a55 0fbe
00000270: a558 943d 0be9 d73d 9205 17bc 0813 fb3d
00000280: 29b6 403e dc56 813d 0cfa 023d de1f 03be
00000290: 9791 c6bc 4785 c03c 835e edbd 5627 693c
000002a0: 347d 51bd d11a 553c 1265 023d 90ca 44be
000002b0: 7851 d9ba f810 1fbc 7171 a3bc fa17 a03d
000002c0: d243 123e 77bd c1bd 4b56 823c 95a7 fcbd
000002d0: 871b f63d 1585 fabd 0ea1 48bd 106f 6f3d
000002e0: 45e2 b7be ec57 0b3d 91db bdbc b742 b0be
000002f0: dc74 833d e0f7 84bd 6f40 543d 69ee bdbc
00000300: eefa 203e 9169 8dbc 74a7 00be 8c99 d4ba
00000310: 874c ad3e c047 09bf ce9f 74be 4830 a53c
00000320: a8b1 c5bc 5389 e43d 208e 83bf 5168 b13c
00000330: 2bb9 833d c3b7 3c3d 73a2 973d 0fba 98bd
00000340: 7540 bd3d db8e 20bd 5694 03bd 0ae6 52be
00000350: 574f 8dbe 4176 d73e 9892 c53d f13d 32bd
00000360: 9540 ac3c 0965 1d3e 1ec6 113e 516a 3b3b
00000370: 135d 36be f485 a93c efd4 36be a084 1dbe
00000380: 9e76 d13e 9a44 973c 7f8e d5bd e183 1fbe
00000390: 8a9c d8bd 2c0f 80bd 1636 44be ba99 77be
000003a0: e59f f93d 6627 a0be f6d6 6d3c fb89 f13c
000003b0: 6f39 9fbd d211 24bf bb70 d4bd eace 903d
000003c0: 7f74 6a3d 74fe 683c 7bb0 3d3d ffdb d1bd
000003d0: 2399 7fbe cf3a 14be 4fb7 4cbe e1aa 51be
000003e0: c6d8 10be f155 7cbd ef7b 043e 0be8 39bf
000003f0: ae5d f83d db9b 303d d0d7 0f3d 489d f6bd

model.6.bias f4 [32]
0.0430893 0.5962427 -0.09631211 0.11211522 0.06301214 0.50029165 0.1822069 0.04271747
0.148606 0.17592423 0.63678914 -0.0037605024 -0.079753 -0.099809505 0.009581633 0.25743958
0.37897992 0.1364874 0.1291844 0.2613845 0.1253053 0.22333948 -0.17512967 -0.038060997
0.0027110989 0.11548988 0.07877507 0.50951076 0.324272 0.2994791 0.05577225 0.22387
00000000: 687e 303d 5da3 183f 493f c5bd aa9c e53d
00000010: 820c 813d 1d13 003f 7294 3a3e 84f8 2e3d
00000020: 2c2c 183e 7b25 343e 9d04 233f c372 76bb
00000030: 8a55 a3bd ed68 ccbd 48fc 1c3c 1fcf 833e
00000040: a809 c23e 5ac3 0b3e ea48 043e 30d4 853e
00000050: 0850 003e 1bb3 643e 3155 33be d9e5 1bbd
00000060: b1ac 313b f585 ec3d d354 a13d 4c6f 023f
00000070: fb06 a63e 5355 993e 7171 643d 2d3e 653e

model.8.weight f4 [10, 32]
0.10469336 0.20381565 -0.29129517 -0.110784024 -0.04543853 0.25581157 0.023242395 -0.008453762
-0.14794661 0.013662361 0.33231443 -0.14081797 0.020010563 -0.04412241 0.17221318 0.23832992
0.28351662 -0.3660977 0.007738988 -0.008445294 -0.09458868 0.25389028 0.0832528 0.2814108
-0.06588612 -0.21729079 0.12494645 0.17732155 0.14804098 0.15095723 -0.011272099 -0.19395345
-0.060198896 0.30195418 -0.15379748 -0.021604877 0.04365727 0.35319534 -0.03174852 -0.00239537
-0.19270603 -0.1368065 0.13843076 -0.15431234 0.069824725 0.10274792 -0.12755223 0.2587944
0.23768407 -0.29847065 0.10658364 0.19079705 -0.13933563 0.03838414 -0.0580688 0.22826181
-0.15503877 -0.2713386 0.076242074 0.33355546 0.14598678 0.23840976 -0.114936285 -0.19824965
0.13026088 0.4204207 -0.14666209 0.10662751 0.016216865 0.3206872 0.06850378 0.0095302835
-0.16433881 -0.058664847 0.20121011 0.014496312 0.13160639 0.054255836 0.15857542 0.35578954
0.17766395 -0.28612038 -0.0972037 0.17457655 -0.3629028 0.16970783 0.07775272 0.19622296
-0.24072273 -0.21283355 -0.105774924 0.07854059 0.08091664 0.17760335 0.10549698 -0.1344759
0.0103394035 0.32812122 -0.19303048 -0.29230362 0.045005307 0.25454843 0.18621546 0.023962213
-0.22922309 0.16112635 0.2804293 -0.19587752 0.057738937 0.036608484 0.12961556 0.16310583
0.1516862 -0.22155547 -0.075465724 0.1292125 -0.04542933 0.16592313 -0.12220109 -0.15727398
-0.24447608 -0.3154482 -0.14744897 0.19018698 0.036595967 0.27361855 0.005981395 -0.14383264
-0.14640003 0.16575204 -0.22027516 0.13639715 0.13807559 0.24304576 -0.054068215 0.05311975
-0.24052878 0.06461751 0.2699516 -0.09916677 0.100479536 -0.034568507 0.15769123 -0.013993829
0.36532012 -0.29419333 0.13595644 0.13731705 -0.2338725 0.22241119 -0.13279536 -0.15944616
-0.15974337 -0.17639829 -0.024274671 0.20274392 -0.098112695 0.31814638 0.10957668 -0.20573752
0.079041 0.34568286 -0.2998583 -0.0322395 -0.12990578 0.1542576 0.18024804 -0.068692416
-0.21060705 0.18877895 0.20974754 -0.14694104 0.06610818 -0.024308825 0.10824828 -0.072873905
0.34628218 -0.21542995 0.08124056 -0.068983346 -0.15989967 0.15841065 0.017876878 0.02829311
-0.21288799 -0.2074356 0.0036976647 0.17904393 0.06515279 0.20490992 0.1802411 -0.23969695
-0.08590963 0.34515193 -0.0949309 -0.0011501935 0.03494313 0.16625832 0.15031435 0.008744613
-0.17618886 0.11504615 0.26612505 0.008485789 -0.079658754 -0.025760515 0.09625408 0.12347423
0.25476506 -0.3298983 0.19237953 0.01038836 -0.12626159 0.10295263 -0.05636275 0.017929178
-0.35268238 -0.18593109 0.05323238 0.16199958 0.17730455 0.23787257 -0.0050429762 -0.18275239
-0.08550875 0.3925807 -0.14779331 0.070180975 0.17473505 0.067822136 -0.04616111 0.036450874
-0.1310794 -0.027646394 0.2759566 -0.1915838 -0.066033095 0.018246844 0.12452164 -0.07336277
0.30873838 -0.14521351 0.07271666 0.029881062 -0.14936142 0.1792649 0.064708576 0.04187177
-0.20105664 -0.3377881 0.088336 0.22141305 -0.019825479 0.1646488 -0.15218379 -0.37847248
00000000: 7969 d63d 0db5 503e a424 95be bce2 e2bd
00000010: c11d 3abd bcf9 823e d666 be3c a681 0abc
00000020: 517f 17be 18d8 5f3c 1e25 aa3e 9632 10be
00000030: 31ed a33c b3b9 34bd a758 303e c20c 743e
00000040: 1729 913e 2871 bbbe 5697 fd3b 215e 0abc
00000050: b6b7 c1bd e8fd 813e 7280 aa3d 1415 903e
00000060: 4def 86bd 7a81 5ebe ede3 ff3d c893 353e
00000070: 0e98 173e 8894 1a3e 9cae 38bc bc9b 46be
00000080: 1e93 76bd bd99 9a3e 167d 1dbe b6fc b0bc
00000090: f7d1 323d 05d6 b43e bc0a 02bd a4fb 1cbb
000000a0: bb54 45be 0117 0cbe cbc0 0d3e 0e04 1ebe
000000b0: 4400 8f3d 806d d23d 0d9d 02be b380 843e
000000c0: 7463 733e 25d1 98be 8648 da3d 4d60 433e
000000d0: 00ae 0ebe b038 1d3d 8dd9 6dbd 77bd 693e
000000e0: 7cc2 1ebe e5ec 8abe ce24 9c3d c8c7 aa3e
000000f0: 8f7d 153e b021 743e b763 ebbd f501 4bbe
00000100: 1c63 053e 6241 d73e 962e 16be 865f da3d
00000110: 3bd9 843c 1d31 a43e b64b 8c3d e824 1c3c
00000120: 6f48 28be 8d4a 70bd 060a 4e3e f081 6d3c
00000130: d3c3 063e 5e3b 5e3d 9861 223e 0c2a b63e
00000140: 8aed 353e 5f7e 92be bc12 c7bd 32c4 323e
00000150: 65ce b9be e4c7 2d3e d13c 9f3d acee 483e
00000160: 0580 76be 0af1 59be 86a0 d8bd e4d9 a03d
00000170: a0b7 a53d a7dd 353e cd0e d83d 0db4 09be
00000180: 9a66 293c 81ff a73e c8a9 45be d2a8 95be
00000190: 7c57 383d 2c54 823e 44af 3e3e 674c c43c
000001a0: 75b9 6abe 4efe 243e 6e94 8f3e 1e94 48be
000001b0: aa7f 6c3d c7f2 153d f1b9 043e 3705 273e
000001c0: a153 1b3e 70df 62be c68d 9abd 4850 043e
000001d0: 1b14 3abd c1e7 293e 9144 fabd 6e0c 21be
000001e0: f057 7abe 6d82 a1be ddfc 16be 60c0 423e
000001f0: a7e5 153d bb17 8c3e 94ff c33b dd48 13be
00000200: e4e9 15be e7ba 293e d08f 61be b2ab 0b3e
00000210: b063 0d3e fde0 783e a276 5dbd 1894 593d
00000220: 2d4d 76be 2f56 843d 1937 8a3e f317 cbbd
00000230: 37c8 cd3d b597 0dbd cf79 213e 5f46 65bc
00000240: 3d0b bb3e 82a0 96be 2a38 0b3e d79c 0c3e
00000250: 467c 6fbe c2bf 633e 82fb 07be db45 23be
00000260: c493 23be c1a1 34be addb c6bc 1a9c 4f3e
00000270: 4fef c8bd 15e4 a23e bd69 e03d dbac 52be
00000280: 3fe0 a13d 58fd b03e 0787 99be 910d 04bd
00000290: 0506 05be b4f5 1d3e f192 383e 9cae 8cbd
000002a0: 60a9 57be 454f 413e 0fc8 563e b677 16be
000002b0: ba63 873d 4d23 c7bc 46b1 dd3d ea3e 95bd
000002c0: e64b b13e ab99 5cbe 7361 a63d 2447 8dbd
000002d0: bdbc 23be 6736 223e 8872 923c f4c6 e73c
000002e0: 4fff 59be ff69 54be 8554 723b 4b57 373e
000002f0: d36e 853d e8d3 513e 1f91 383e 1e73 75be
00000300: 63f1 afbd c1b7 b03e 226b c2bd 17c2 96ba
00000310: 8720 0f3d 9f3f 2a3e 01ec 193e 9145 0f3c
00000320: da6a 34be 519d eb3d 8b41 883e fb07 0b3c
00000330: 2124 a3bd b707 d3bc dc20 c53d 0fe0 fc3d
00000340: 9170 823e 6ee8 a8be 24ff 443e f133 2a3c
00000350: b84a 01be d4d8 d23d a0dc 66bd 36e0 923c
00000360: c992 b4be b864 3ebe 320a 5a3d 38e3 253e
00000370: 538f 353e de94 733e 8d3f a5bb 7123 3bbe
00000380: 361f afbd 5600 c93e 2157 17be 0bbb 8f3d
00000390: bfed 323e 55e6 8a3d 6f13 3dbd 834d 153d
000003a0: ae39 06be b17a e2bc 2f4a 8d3e 8b2e 44be
000003b0: 5c3c 87bd 687a 953c 3405 ff3d 383f 96bd
000003c0: f512 9e3e dab2 14be 79ec 943d 21c9 f43c
000003d0: 33f2 18be 3891 373e ee85 843d bc81 2b3d
000003e0: cbe1 4dbe 90f2 acbe 81e9 b43d 1aba 623e
000003f0: 0b69 a2bc b299 283e 11d6 1bbe 25c7 c1be

model.8.bias f4 [10]
-0.12637374 -0.063435465 0.0478379 -0.082246564 -0.09432793 0.062705904 0.14279386 0.15464775
0.1944995 0.1127902
00000000: 1e68 01be 74ea 81bd adf1 433d e370 a8bd
00000010: 002f c1bd f46b 803d 8e38 123e fb5b 1e3e
00000020: e02a 473e 8cfe e63d
