checkpoints/checkpoint_step_7500.pth (torch, 200878 bytes, 10 tensors)

model.0.weight f4 [256, 21]
0.122111514 -0.022653311 -0.05924934 -0.3090236 -0.2672195 -0.19899008 -0.52407557 -0.12854806
0.07217636 -0.16258672 -0.2240052 -0.17907827 0.07266335 -0.55020875 -0.06315778 -0.3349981
-0.07028421 -0.038843628 0.10373628 -0.35424235 0.59780794 0.02692692 0.017837064 -0.17429006
-0.079256624 -1.1492834 -0.07521074 0.07999636 -0.087158866 -0.13459311 -0.30264637 -0.0261959
-0.066913374 -0.3345849 -0.34341288 -0.12538795 -0.023768373 -0.04980344 0.15470979 -0.08505341
0.13553846 -0.07140039 -0.054985397 -0.26181346 0.24800079 -0.026826022 0.12801237 0.085936196
-0.4858035 0.10731178 0.15224403 -0.17194363 0.03254432 -0.50496644 -0.11435334 -0.23722488
-0.21597072 0.08939443 -0.32387686 -0.04755575 -0.088578984 -0.18518466 -0.10437004 -0.20139271
-0.74266684 0.13803892 -1.366538 -1.9504933 0.07066273 -0.09454273 0.04696238 -0.30532238
0.2773739 -0.019768136 0.15026005 -0.008094591 -0.25823888 0.0051055993 0.05785581 -0.022255981
0.023775171 0.15026712 0.08597636 -0.70426106 -0.0809867 0.005889491 -0.28802404 -0.013028178
0.19885592 -0.17424135 -0.029825853 0.1599478 0.17854829 -0.1391713 -0.32278043 0.09562073
-0.0719034 -0.038948078 -0.21205015 0.08560007 0.33610848 -0.91068995 -0.26775163 -0.059445776
0.15697101 -0.066471115 0.12956785 -0.09470891 0.16413455 0.015915204 0.11666015 -0.08828146
0.047953133 -0.1918103 -0.03538625 0.16908766 0.26207367 0.0659493 0.41652954 -0.0035062805
0.37840623 0.23844923 0.33423832 -0.059898548 0.22903454 0.055402834 -0.6442387 -0.0625259
0.2900412 -0.36698055 -0.7907868 -0.12559399 -0.27856928 -0.33190075 -0.38324338 -0.056105275
-0.27807274 -0.28179994 -0.07531135 -0.2028886 0.159706 0.16446148 0.10965773 0.099476084
-0.20954049 -0.096975565 -0.100763544 -0.1728602 -0.11749169 0.18108878 -0.1346787 0.182376
-0.060299795 -0.3430658 -0.07557548 -5.065284 -0.0327408 -0.07771087 -0.0346688 -0.09300056
-0.083169244 0.031475108 -0.010267158 -0.051706895 -0.19518389 -0.04886008 -0.24613985 -0.20985125
-0.020444693 -0.12821718 0.07532496 -0.21799606 0.0639887 0.0030131596 -0.350664 -0.10438176
0.18448599 -0.2964508 -0.31650004 -0.35770202 -0.018260613 -0.0775163 -0.17031111 -0.29850963
0.010300555 -0.0693477 -0.2571158 -0.06538978 0.028813953 0.17417365 -0.20689683 -0.3271555
-0.07014685 0.21608746 -0.23560494 -0.27815828 -0.080692284 0.03269993 0.032338645 -0.18564935
-0.5198464 -0.0979195 -0.3438175 0.081479914 -0.1220245 -0.1749132 -0.5245422 0.110215284
-0.21363194 -0.083116755 -0.4859497 0.21411234 -0.25438946 0.15881352 -0.44432744 -0.12665102
-0.09421685 0.15524976 -0.41950256 0.12923272 0.009314812 -0.10288099 0.14158843 0.47134376
0.2608604 -0.7420993 -0.0015043963 -0.14158893 0.020183291 0.31862134 -0.088815 -0.13695107
0.05845783 -0.13691783 -0.11807529 0.3227254 0.020929974 0.080370545 -0.07466414 -0.43169236
-0.20463969 -0.17158811 -0.2530663 -0.019911218 -0.09619123 -0.055950083 0.32901353 -0.2382943
-0.29898065 -0.04244237 -0.11053559 -0.05789415 -0.14410506 0.09014768 -0.3423179 -0.17577362
00000000: 9a15 fa3d 7093 b9bc 70af 72bd 5738 9ebe
00000010: ffd0 88be 0ec4 4bbe d129 06bf 1aa2 03be
00000020: 33d1 933d 227d 26be 9f61 65be 4b60 37be
00000030: 86d0 943d 7bda 0cbf de58 81bd df84 abbe
00000040: 2bf1 8fbd 7f1a 1fbd b073 d43d 415f b5be
00000050: f109 193f d895 dc3c 091f 923c 1879 32be
00000060: 4c51 a2bd b81b 93bf 1708 9abd 22d5 a33d
00000070: 5980 b2bd c7d2 09be 77f4 9abe c998 d6bc
00000080: e109 89bd b64e abbe d0d3 afbe b365 00be
00000090: e4b5 c2bc b1fe 4bbd 3e6c 1e3e 7b30 aebd
000000a0: 98ca 0a3e 5e3a 92bd 5e38 61bd 6a0c 86be
000000b0: ebf3 7d3e 3fc2 dbbc ad15 033e 51ff af3d
000000c0: 3dbb f8be 47c6 db3d dce5 1b3e fe11 30be
000000d0: 314d 053d 7b45 01bf 1532 eabd 14eb 72be
000000e0: 6e27 5dbe 6d14 b73d 30d3 a5be d1c9 42bd
000000f0: e668 b5bd 0ca1 3dbe f6bf d5bd e439 4ebe
00000100: 6a1f 3ebf 135a 0d3e b8ea aebf c4a9 f9bf
00000110: 9fb7 903d 9e9f c1bd a05b 403d 3753 9cbe
00000120: f403 8e3e c9f0 a1bc c5dd 193e 2d9f 04bc
00000130: e337 84be df4c a73b 37fa 6c3d 2d52 b6bc
00000140: 26c4 c23c a0df 193e 6014 b03d 744a 34bf
00000150: 5bdc a5bd a2fc c03b e377 93be 2474 55bc
00000160: e3a0 4b3e 536c 32be 5955 f4bc 5bc9 233e
00000170: 5dd5 363e ec82 0ebe 7a43 a5be cdd4 c33d
00000180: 1742 93bd 0588 1fbd ad23 59be 174f af3d
00000190: 6916 ac3e fa22 69bf be16 89be 6a7d 73bd
000001a0: 02bd 203e 0222 88bd 6fad 043e bff6 c1bd
000001b0: e312 283e 9a60 823c 84eb ee3d e9cc b4bd
000001c0: 816a 443d eb69 44be 2cf1 10bd 5125 2d3e
000001d0: 852e 863e 6d10 873d 5c43 d53e a0c9 65bb
000001e0: 76be c13e 092c 743e 4921 ab3e 2e58 75bd
000001f0: 0888 6a3e 15ee 623d d4ec 24bf 940d 80bd
00000200: 4880 943e e0e4 bbbe 0171 4abf b69b 00be
00000210: a2a0 8ebe e5ee a9be 7a38 c4be a5ce 65bd
00000220: 8d5f 8ebe 1548 90be d63c 9abd 07c2 4fbe
00000230: f889 233e 9768 283e 3b94 e03d 1eba cb3d
00000240: c891 56be 209b c6bd 1e5d cebd 4402 31be
00000250: 7c9f f0bd 566f 393e 37e9 09be c6c0 3a3e
00000260: ebfc 76bd 52a6 afbe 51c7 9abd ce16 a2c0
00000270: 381b 06bd e026 9fbd df00 0ebd 1477 bebd
00000280: a354 aabd 0bec 003d 9537 28bc 9cca 53bd
00000290: 49de 47be 8221 48bd 160c 7cbe 3fe3 56be
000002a0: a17b a7bc 5d4b 03be f943 9a3d 5c3a 5fbe
000002b0: 820c 833d 6e78 453b 3b8a b3be 1bc6 d5bd
000002c0: e5e9 3c3e 66c8 97be 4b0c a2be b824 b7be
000002d0: 4897 95bc dec0 9ebd 0966 2ebe 41d6 98be
000002e0: a9c3 283c 2b06 8ebd afa4 83be 14eb 85bd
000002f0: 3d0b ec3c 945a 323e c3dc 53be ed80 a7be
00000300: 27a9 8fbd 0846 5d3e 6c42 71be c36a 8ebe
00000310: ff41 a5bd 5df0 053d 8775 043d dd1a 3ebe
00000320: a714 05bf 058a c8bd d908 b0be f1de a63d
00000330: fbe7 f9bd 721c 33be 6648 06bf 8db8 e13d
00000340: 55c2 5abe 1e39 aabd 66ce f8be 4440 5b3e
00000350: 563f 82be 03a0 223e e37e e3be ceb0 01be
00000360: c4f4 c0bd cbf9 1e3e 0ac9 d6be 9555 043e
00000370: 279d 183c 45b3 d2bd 8ffc 103e f853 f13e
00000380: 7f8f 853e 38fa 3dbf 2a2f c5ba b0fc 10be
00000390: 6e57 a53c 5622 a33e a4e4 b5bd e73c 0cbe
000003a0: 7a71 6f3d 3034 0cbe 75d1 f1bd 433c a53e
000003b0: 5675 ab3c 5099 a43d 83e9 98bd c806 ddbe
000003c0: 118d 51be cbb4 2fbe e891 81be da1c a3bc
000003d0: e8ff c4bd ea2b 65bd 7674 a83e 6c03 74be
000003e0: fe13 99be 0dd8 2dbd 7c60 e2bd 6b22 6dbd
000003f0: 4790 13be 599f b83d 4b44 afbe 00fe 33be

model.0.bias f4 [256]
0.15787716 0.007821449 -0.22780648 -0.15946335 0.39793774 0.3174849 0.107497066 0.09000294
0.18763496 0.178507 -0.43500027 -0.017490588 -0.023689881 -0.51562464 0.6564829 0.53469515
-0.12303319 -0.1181391 0.6239216 -0.102788545 -0.08313084 -0.4149216 -0.14127861 -0.16853172
-0.57834584 -0.11815394 -0.21191454 0.14619659 0.05081466 -0.011694953 0.22198142 0.60512954
-0.037474718 -0.16567898 -0.31362736 0.091804 -0.09848302 -0.3597708 0.031460367 0.09608212
-0.05743316 0.33047053 -0.22389816 -0.21474631 0.39248538 -0.1912572 -0.14540505 -0.06588707
0.101441436 -0.12285025 -0.046771295 0.05866311 -0.35738668 -0.28155452 0.07474362 -0.48501226
-0.33333528 0.0040730573 -0.3819482 -0.050052058 0.06327096 -0.11805731 0.33751112 -0.12527362
-0.07071959 -0.013304236 -0.061309643 0.30204538 -0.30767587 0.16701579 0.09216817 0.25627172
-0.079877764 0.08459425 -0.20139183 -0.37166157 -0.01284143 -0.13123614 -0.18617235 0.3334231
0.03329912 0.19573015 -0.4936312 -0.15779783 0.067188144 -0.21246158 0.35808882 0.21380727
-0.12909283 0.0648239 0.22533382 -0.17478032 -0.21645786 -0.1430216 -0.17603058 -0.28171733
-0.2931558 -0.12181413 -0.36013362 0.26827422 0.41895762 -0.16151695 0.0709145 0.20624058
0.039914984 0.16740158 -0.02170611 0.10668773 -0.008625169 -0.13329358 -0.0031966034 -0.07471731
0.015807029 -0.08480953 -0.09834383 -0.08922982 0.13418429 0.06718961 -0.039068643 0.15274303
-0.48693165 -0.037058033 -0.13727194 0.08226381 -0.105762884 -0.45018247 0.35219797 0.19812502
-0.3090037 -0.10289026 -0.10847097 0.16865014 0.010353425 -0.07589943 0.30758506 0.060770255
-0.12235234 -0.22456269 -0.00025797542 0.5593791 -0.1202689 0.58277375 0.24302907 0.025629222
0.40744564 0.32605928 0.05125564 0.07321544 -0.6969705 -0.13928902 0.31136653 -0.18609183
0.29312968 -0.57790244 -0.2235319 0.05986933 -0.015126403 0.280655 0.51224977 0.2823519
-0.1974331 -0.046446256 0.6017132 0.055162296 -0.022251239 0.5058712 -0.14313039 -0.12596375
-0.030807089 0.2597632 0.06074634 -0.06974126 0.19760361 -0.3766947 0.24268559 0.07949832
-0.33313942 0.6257093 -0.06249363 -0.21012884 -0.3466534 0.24727766 0.22273749 0.049014486
-0.15147716 -0.0070911692 -0.2856472 -0.37525362 0.18069988 0.13765751 -0.23060289 0.100280695
0.5875951 0.19031426 -0.16411743 -0.33121958 0.32912022 0.091084935 0.093600415 -0.14660317
-0.32340512 0.113826744 -0.08790358 0.03287184 0.023066498 -0.011113066 -0.24963595 0.0064447294
-0.09763765 -0.25084883 -0.01494303 0.100896224 0.101765566 0.20375542 -0.12252652 -0.18037651
0.13161676 0.19179614 -0.086050935 0.9730291 -0.04895295 -0.1650951 -0.01665106 -0.010569635
-0.25279287 -0.065174244 0.16340247 -0.24276678 0.059646755 0.15435301 0.12214671 -0.08592642
0.029519055 -0.039940458 0.7723452 -0.07216281 0.28973535 -0.20244502 0.2765558 0.7200057
-0.032483444 0.04682698 -0.037360135 -0.06216011 -0.20716712 -0.10990774 0.18253636 0.53418905
-0.37561104 -0.16344953 0.07489631 0.052503377 0.1621666 -0.37712932 0.07117633 0.18538885
00000000: 8daa 213e 8925 003c 1a46 69be 5c4a 23be
00000010: 7fbe cb3e 618d a23e 6c27 dc3d 7653 b83d
00000020: 6123 403e 8aca 363e 5bb8 debe 6c48 8fbc
00000030: 4811 c2bc faff 03bf 430f 283f c8e1 083f
00000040: d3f8 fbbd eaf2 f1bd 53b9 1f3f cd82 d2bd
00000050: 8040 aabd 9b70 d4be 57ab 10be 9493 2cbe
00000060: 790e 14bf b1fa f1bd 2000 59be 8fb4 153e
00000070: 0823 503d 309c 3fbc 194f 633e c5e9 1a3f
00000080: 177f 19bd c0a7 29be c493 a0be bc03 bc3d
00000090: 77b1 c9bd e133 b8be 96dc 003d b4c6 c43d
000000a0: 083f 6bbd 6f33 a93e 8f45 65be 75e6 5bbe
000000b0: d8f3 c83e edd8 43be 10e5 14be cdef 86bd
000000c0: 87c0 cf3d e998 fbbd 4293 3fbd bb48 703d
000000d0: 63fb b6be ea27 90be 2f13 993d 8753 f8be
000000e0: ecaa aabe 4877 853b b78e c3be 6303 4dbd
000000f0: 3494 813d 08c8 f1bd 42ce ac3e ba47 00be
00000100: 6fd5 90bd 03fa 59bc d21f 7bbd b1a5 9a3e
00000110: b187 9dbe 3006 2b3e aac2 bc3d 0c36 833e
00000120: f496 a3bd c03f ad3d a939 4ebe 6d4a bebe
00000130: dc64 52bc c462 06be f7a3 3ebe 6fb6 aa3e
00000140: a864 083d 7c6d 483e 3bbd fcbe c195 21be
00000150: f099 893d 878f 59be 6b57 b73e 4bf0 5a3e
00000160: e930 04be 65c2 843d e9bd 663e 9df9 32be
00000170: 21a7 5dbe 4174 12be 5c41 34be 413d 90be
00000180: 8418 96be b079 f9bd 6f63 b8be 3d5b 893e
00000190: 9d81 d63e b364 25be 9f3b 913d bb30 533e
000001a0: e57d 233d 526b 2b3e 03d1 b1bc 197f da3d
000001b0: 9550 0dbc 1d7e 08be 1b7e 51bb 6405 99bd
000001c0: be7d 813c 9eb0 adbd 7d68 c9bd 20be b6bd
000001d0: 9b67 093e b59a 893d 7106 20bd ab68 1c3e
000001e0: 1b4f f9be 2aca 17bd 0491 0cbe ee79 a83d
000001f0: 369a d8bd 517e e6be 4b53 b43e 49e1 4a3e
00000200: bc35 9ebe 21b8 d2bd 0726 debd 9fb2 2c3e
00000210: 69a1 293c 2971 9bbd ca7b 9d3e 3bea 783d
00000220: dd93 fabd c3f3 65be e040 87b9 7833 0f3f
00000230: 8b4f f6bd a930 153f 9ddc 783e 60f4 d13c
00000240: b79c d03e 3ef1 a63e 6ff1 513d faf1 953d
00000250: a96c 32bf c8a1 0ebe 6f6b 9f3e db8e 3ebe
00000260: 1815 963e 6af1 13bf 8ce5 64be 8b39 753d
00000270: bcd4 77bc 03b2 8f3e cd22 033f 6e90 903e
00000280: e72b 4abe 6e3e 3ebd e009 1a3f dcf1 613d
00000290: 3b48 b6bc c680 013f c690 12be a4fc 00be
000002a0: 265f fcbc afff 843e 27d1 783d 81d4 8ebd
000002b0: 9a58 4a3e 21de c0be 9282 783e 04d0 a23d
000002c0: 4091 aabe 7c2e 203f 52f9 7fbd 042c 57be
000002d0: 8e7c b1be 5b36 7d3e 4c15 643e 6ac3 483d
000002e0: d41c 1bbe 0a5d e8bb 5a40 92be 3e21 c0be
000002f0: 6409 393e 17f6 0c3e 2a23 6cbe f75f cd3d
00000300: a26c 163f bee1 423e 660e 28be 9d95 a9be
00000310: 7282 a83e bd8a ba3d 93b1 bf3d 241f 16be
00000320: 5b95 a5be ff1d e93d cb06 b4bd 9fa4 063d
00000330: f4f5 bc3c 9413 36bc 91a0 7fbe 4f2e d33b
00000340: 40f6 c7bd 426f 80be 9cd3 74bc aea2 ce3d
00000350: 776a d03d 43a5 503e 2fef fabd 9fb4 38be
00000360: 8bc6 063e 3566 443e 793b b0bd 6f18 793f
00000370: e382 48bd b10e 29be ce67 88bc 432c 2dbc
00000380: 116e 81be 137a 85bd fa52 273e db97 78be
00000390: 2850 743d b70e 1e3e 0e28 fa3d 31fa afbd
000003a0: f2d1 f13c 9b98 23bd 6ab8 453f 18ca 93bd
000003b0: 3158 943e bf4d 4fbe b998 8d3e 4b52 383f
000003c0: 5c0d 05bd a6cd 3f3d f106 19bd 999b 7ebd
000003d0: 9e23 54be 4f17 e1bd d0ea 3a3e 9dc0 083f
000003e0: 1750 c0be 505f 27be 3d63 993d c80d 573d
000003f0: 000f 263e 1817 c1be e5c4 913d 93d6 3d3e

model.2.weight f4 [128, 256]
-0.18715182 0.056101415 0.0065261084 -0.30816725 -0.20228782 -0.21536653 -0.07835633 0.06796015
-0.043881577 -0.025980879 -0.3145196 -0.08691029 0.2532943 0.2633564 -0.1444311 -0.24303225
0.0117733395 -0.007325058 -0.46410057 0.036785197 -0.07138659 0.096062675 -0.0072762305 0.11714423
0.22038494 0.13177077 -0.061493542 0.11135867 -0.06643735 0.040377274 0.13706288 0.15039995
-0.2501822 -0.022897296 0.08915355 -0.0050774817 0.004264146 -0.010461285 -0.046484828 0.21215475
0.09662301 -0.32712615 -0.5118 -0.112431265 -0.18558782 -0.020636996 -0.06627411 -0.018679988
-0.04606505 0.07622404 0.07951583 0.04828923 0.18848126 -0.05347539 0.26783374 0.23665975
0.09680277 0.069272496 0.010301152 -0.11863674 -0.007943332 0.022941817 0.1919246 0.010675213
0.05699845 -0.56255215 -0.016734758 0.0056994506 -0.12181738 0.06892421 -0.26765382 -0.117431924
-0.02348316 0.16531084 -0.030508464 0.06027803 0.15771282 0.08113296 0.2008056 0.032058407
0.04205052 0.33309543 0.25773975 0.07202576 -0.016975475 -0.05792239 -0.13595906 -0.3906782
0.024975909 -0.0049093813 0.0367963 -0.051136278 0.09091996 -0.022877874 0.56757367 -0.05113841
0.046774924 -0.11116332 0.1474118 0.21783973 0.42322728 0.021382561 -0.25780937 0.14316879
-0.33176053 0.08252121 0.10794445 0.053722188 0.07403798 -0.03721936 -0.012080064 0.036287595
-0.14686161 -0.038206235 -0.23703896 -0.019871246 -0.053317204 0.106012955 0.15828626 0.016303405
0.25507113 -0.06642945 -0.12093971 0.13486531 0.09241457 -0.075377524 0.0842434 0.107317105
0.113566436 -0.11694786 0.08783411 0.21723187 0.08728768 -0.076476 0.060448274 0.09896505
0.0755233 -0.06426702 0.083313525 0.540204 -0.098674655 -0.123540126 0.030567564 -0.08294602
0.17066202 0.039077427 0.040049456 0.34676227 0.37336674 -0.01337664 0.36602297 -0.02494585
0.34575668 -0.12660614 0.0487948 0.0633698 -0.025505774 -0.7793052 -0.45900404 0.1396399
0.005649165 0.10023456 0.006038662 -0.07962562 -0.1707211 -0.011208101 0.1956228 0.10484818
0.0096562365 0.026936134 0.37622115 -0.038104158 0.039386008 0.2868159 0.20430611 0.10147403
0.0006462759 0.19030371 -0.033168465 -0.2733476 0.06361317 0.5584325 -0.27780536 -0.04305885
-0.0177517 -0.05250133 -0.058913622 0.031722393 0.13864315 -0.0141603965 -0.06872816 -0.49526143
-0.43242306 0.06909967 -0.06524195 0.034088507 0.052995138 -0.45063624 0.62155324 -0.17043126
0.26089472 0.12812415 0.3410833 -0.19057241 -0.0027919966 0.19273715 -0.9864357 -0.17992263
-0.08080948 0.08778233 0.2648849 -0.0027716886 -0.02170869 0.044752587 0.028862776 -0.11840107
-0.15216765 -0.1309312 0.037478544 -1.8264725 -0.11826359 0.11575742 0.047133185 -0.29064357
0.16653089 -0.18202479 0.057008363 -0.019553347 -0.030754479 0.06983899 0.33078817 0.093357526
0.011277974 -0.021705437 0.34999323 0.02891162 -0.2572271 -0.071076974 0.2741105 -0.9852339
-0.09276271 0.13404618 0.048936058 -0.09282161 0.22392048 -0.28429326 -0.08276811 0.015489576
0.18337864 0.0770423 0.099146545 -0.019767214 -0.14585121 -0.028339116 -0.023231044 -0.062355153
00000000: baa4 3fbe 99ca 653d f7d8 d53b 19c8 9dbe
00000010: 8a24 4fbe 0b89 5cbe 4979 a0bd b12e 8b3d
00000020: 2bbd 33bd dad5 d4bc b708 a1be 06fe b1bd
00000030: caaf 813e a6d6 863e bfe5 13be 72dd 78be
00000040: f7e4 403c 0a07 f0bb 979e edbe 13ac 163d
00000050: 2233 92bd 82bc c43d 726d eebb 50e9 ef3d
00000060: 97ac 613e ebee 063e a7e0 7bbd 0410 e43d
00000070: 4e10 88bd a462 253d 365a 0c3e 7202 1a3e
00000080: e217 80be 1c93 bbbc 2396 b63d 0161 a6bb
00000090: 40ba 8b3b cf65 2bbc e066 3ebd 183f 593e
000000a0: 49e2 c53d 147d a7be 5305 03bf 5d42 e6bd
000000b0: bc0a 3ebe eb0e a9bc b8ba 87bd c606 99bc
000000c0: b5ae 3cbd 591b 9c3d 32d9 a23d edca 453d
000000d0: 3b01 413e 0309 5bbd 8121 893e ef56 723e
000000e0: 8840 c63d bdde 8d3d 2ac6 283c d2f7 f2bd
000000f0: c024 02bc 7af0 bb3c e287 443e 17e7 2e3c
00000100: 3577 693d 6b03 10bf 5517 89bc 75c2 ba3b
00000110: 647b f9bd 2328 8d3d ec09 89be 2680 f0bd
00000120: c25f c0bc 3f47 293e e3ec f9bc 18e6 763d
00000130: 787f 213e 0a29 a63d fc9f 4d3e ad4f 033d
00000140: 2b3d 2c3d 7c8b aa3e 77f6 833e 3e82 933d
00000150: 2710 8bbc 0740 6dbd da38 0bbe f906 c8be
00000160: 479a cc3c e0de a0bb b8b7 163d 4674 51bd
00000170: 3e34 ba3d 616a bbbc 824c 113f 8276 51bd
00000180: 1097 3f3d 98a9 e3bd 1ef3 163e 6111 5f3e
00000190: 3fb1 d83e 7b2a af3c 97ff 83be d79a 123e
000001a0: 84dc a9be e100 a93d fb11 dd3d cc0b 5c3d
000001b0: 39a1 973d 5473 18bd 76eb 45bc 4da2 143d
000001c0: e462 16be 247e 1cbd 57ba 72be 06c9 a2bc
000001d0: 2463 5abd 521d d93d cb15 223e b88e 853c
000001e0: af98 823e 2a0c 88bd 3daf f7bd 221a 0a3e
000001f0: da43 bd3d 885f 9abd ce87 ac3d 12c9 db3d
00000200: 8595 e83d 5c82 efbd 5fe2 b33d 0872 5e3e
00000210: e2c3 b23d 739f 9cbd 9c98 773d 30ae ca3d
00000220: f6ab 9a3d 6d9e 83bd 48a0 aa3d cf4a 0a3f
00000230: f015 cabd 9b02 fdbd d468 fa3c 9adf a9bd
00000240: 06c2 2e3e a70f 203d e60a 243d d38a b13e
00000250: ed29 bf3e b229 5bbc 5d67 bb3e 3d5b ccbc
00000260: 0507 b13e 0aa5 01be 0edd 473d 07c8 813d
00000270: 7cf1 d0bc 8c80 47bf 9402 ebbe c3fd 0e3e
00000280: a11c b93b c747 cd3d f8df c53b c212 a3bd
00000290: 83d1 2ebe 2fa2 37bc 5851 483e a5ba d63d
000002a0: 3135 1e3c 2ba9 dc3c 0fa0 c03e 1b13 1cbd
000002b0: 3953 213d 89d9 923e 9f35 513e 9ed1 cf3d
000002c0: d76a 293a fade 423e a8db 07bd 37f4 8bbe
000002d0: 9f47 823d 6ff5 0e3f 813c 8ebe 7a5e 30bd
000002e0: 036c 91bc a20b 57bd 694f 71bd 57ef 013d
000002f0: 78f8 0d3e 0201 68bc 59c1 8cbd e892 fdbe
00000300: 8e66 ddbe 2184 8d3d 929d 85bd 64a0 0b3d
00000310: 6e11 593d cbb9 e6be 1d1e 1f3f 8885 2ebe
00000320: fe93 853e fa32 033e 78a2 ae3e 6a25 43be
00000330: eef9 36bb e35c 453e 0d87 7cbf a33d 38be
00000340: 717f a5bd 39c7 b33d fe9e 873e 38a5 35bb
00000350: 6cd6 b1bc 7d4e 373d a171 ec3c 437c f2bd
00000360: d6d1 1bbe d412 06be 1a83 193d dac9 e9bf
00000370: 2e34 f2bd 3a12 ed3d ba0e 413d 3ccf 94be
00000380: 1387 2a3e b564 3abe 9a81 693d 572e a0bc
00000390: d1f0 fbbc bf07 8f3d 115d a93e 3b32 bf3d
000003a0: 40c7 383c 9acf b1bc 5032 b33e 10d8 ec3c
000003b0: 45b3 83be ce90 91bd 3658 8c3e 4a38 7cbf
000003c0: 60fa bdbd 6743 093e 2d71 483d 4219 bebd
000003d0: 694b 653e e38e 91be 5482 a9bd fec7 7d3c
000003e0: 9cc7 3b3e 5ac8 9d3d 580d cb3d daee a1bc
000003f0: 055a 15be 6f27 e8bc 084f bebc 1e68 7fbd

model.2.bias f4 [128]
0.30299294 0.26139742 0.24556702 0.22279026 -0.086390175 -0.08453757 0.19304003 0.037855692
0.23150054 -0.055298325 -0.06202033 -0.1581939 0.2343513 0.001383029 -0.20044117 -0.014701957
-0.009093061 0.08245045 -0.087590635 -0.043801237 0.026498951 0.15844923 0.005126707 0.19604442
0.07300145 0.21651946 0.19709331 -0.04624542 0.28804988 -0.025091458 0.40180752 -0.064845115
0.5145923 -0.021107864 -0.020045787 -0.06668281 0.0041038557 0.047140833 -0.01463733 -0.05309864
0.1336852 -0.010907476 0.06782209 -0.057148825 -0.08286283 0.024555229 0.010617812 0.15342098
0.15889254 0.18827295 0.0122123 -0.02212527 -0.045821827 -0.018343255 0.16523293 0.013317293
-0.041816104 0.15653978 0.5802148 -0.032028347 -0.056008276 0.20425177 -0.28507805 0.05601018
0.16900516 0.2714264 0.41555429 -0.09884025 0.17416745 -0.03787482 0.18527357 0.101336196
-0.075992875 -0.102802075 0.6125298 -0.2190425 -0.025811117 -0.08875821 0.14368469 -0.029360406
0.0036741772 0.32279024 -0.016765535 0.056634896 -0.07071927 0.31495073 0.049424987 -0.090374485
0.17555009 0.08069285 0.14308667 -0.058410883 0.22071527 -0.006641031 0.01920628 0.29687166
0.2340491 0.012005867 -0.06255053 0.027783893 0.30793798 0.17003173 0.090085715 0.17945555
-0.102534615 -0.77624875 -0.052866414 0.15535529 0.08343611 0.51626945 0.34196496 -0.05398502
0.3100739 2.4315725e-05 0.24373601 0.033005394 -0.140087 0.08907339 0.5757688 0.09474543
0.19372058 0.5072359 -0.03570802 -0.07081483 -0.04626885 -0.025423937 0.05154807 -0.009323495
00000000: e421 9b3e e2d5 853e ec75 7b3e 2123 643e
00000010: 55ed b0bd 0922 adbd 49ac 453e 920e 1b3d
00000020: 7a0e 6d3e 7f80 62bd 0809 7ebd 95fd 21be
00000030: caf9 6f3e c146 b53a 7340 4dbe 7ae0 70bc
00000040: 10fb 14bc c8db a83d b862 b3bd ed68 33bd
00000050: 5414 d93c 8440 223e effd a73b debf 483e
00000060: c981 953d 47b7 5d3e d4d2 493e d66b 3dbd
00000070: 467b 933e 9a8c cdbc b7b9 cd3e 84cd 84bd
00000080: 52bc 033f 66ea acbc 1037 a4bc ff90 88bd
00000090: a379 863b bf16 413d 69d1 6fbc f67d 59bd
000000a0: c6e4 083e 45b5 32bc 4fe6 8a3d e314 6abd
000000b0: fdb3 a9bd 0c28 c93c 55f6 2d3c 641a 1d3e
000000c0: bab4 223e a0ca 403e 1916 483c 0e40 b5bc
000000d0: abaf 3bbd 9844 96bc d232 293e c630 5a3c
000000e0: 5d47 2bbd f74b 203e f588 143f 2830 03bd
000000f0: ef68 65bd 6027 513e c0f5 91be ee6a 653d
00000100: b00f 2d3e 67f8 8a3e 88c3 d43e c26c cabd
00000110: f458 323e a122 1bbd 5bb8 3d3e 5a89 cf3d
00000120: 27a2 9bbd e589 d2bd c1ce 1c3f ad4c 60be
00000130: d671 d3bc ddc6 b5bd 1422 133e 3c85 f0bc
00000140: 77ca 703b c344 a53e e057 89bc fef9 673d
00000150: 44d5 90bd 3941 a13e db71 4a3d 4216 b9bd
00000160: 67c3 333e 4b42 a53d 5085 123e 4040 6fbd
00000170: 2f03 623e 019d d9bb 7d56 9d3c 90ff 973e
00000180: 91aa 6f3e 42b4 443c 7e1a 80bd 0c9b e33c
00000190: 0caa 9d3e cc1c 2e3e dc7e b83d 32c3 373e
000001a0: abfd d1bd 3db8 46bf 748a 58bd 7515 1f3e
000001b0: 8de0 aa3d 3c2a 043f 0816 af3e 651f 5dbd
000001c0: 02c2 9e3e 9ff9 cb37 ef95 793e aa30 073d
000001d0: f772 0fbe 1c6c b63d 9665 133f e409 c23d
000001e0: b05e 463e 36da 013f 9342 12bd 5e07 91bd
000001f0: 6884 3dbd dc45 d0bc 1224 533d 93c1 18bc

model.4.weight f4 [64, 128]
-0.02318227 -0.08165733 0.30525783 -0.18621118 -0.12353077 -0.67123455 0.03492301 0.012602061
-0.50531715 0.033402696 -0.020252926 -0.33811337 -0.20900835 -0.048415437 -0.30354986 0.09282311
0.020801343 0.035459742 -0.034085672 -0.048468716 0.008094743 -0.5085644 0.10247359 0.17094794
0.22460546 0.3958822 0.20200387 -0.033651117 0.05687478 0.052388676 0.13230163 0.05036119
0.10567122 -0.028109672 0.32857528 0.041181885 -0.014772542 0.17438087 0.0056064883 0.034004945
0.16689137 -0.09643457 -0.13790806 -0.01870686 0.007955997 -0.62055427 -0.010227327 -0.4151613
-0.38680926 -1.0408993 -0.040673103 -0.0004477579 0.053818014 0.0624535 0.12296709 0.0028410826
-0.023984918 -0.026783558 -0.9663413 -0.019167198 0.065037236 0.025010271 0.5067421 0.24840155
0.06821186 0.08027006 0.016048905 -0.027840573 -0.23466408 -0.027597366 -0.14011104 0.51894766
0.035524387 1.2525071 0.058838207 -0.06272458 -0.0662257 0.019663045 0.40877506 0.12015864
0.015061695 -0.13975225 0.056378115 0.2681588 0.088345945 -0.25619513 -0.25665706 0.0733211
0.025453025 0.02711047 -0.6436561 -0.03843011 -0.10356976 0.086890996 1.3089305 -0.15677169
-0.23265003 0.073025495 -0.25583777 -0.040362135 -0.015090137 0.0977276 0.047093216 0.17156582
-0.039574042 -0.5288369 -0.040710717 0.05217063 0.058227863 -0.30779865 0.39281937 0.022511467
0.24531311 0.155381 0.32938454 -0.16749838 -0.010092444 -0.022899006 0.26663074 0.167307
0.071766734 0.027980618 0.03142785 -0.0428733 -0.051954865 -0.030224599 -0.15630259 -0.060913328
0.014349597 0.055731125 0.011744247 -0.0153262885 -0.018826427 0.09866449 -0.0068865903 0.00783394
0.05497589 -0.03275469 -0.066062085 0.06052805 0.043934 0.020769693 -0.09489396 0.047170423
-0.019938963 -0.08845659 -0.061488606 0.069051936 -0.082226306 -0.08388126 0.066522114 0.05644728
0.018870082 -0.05843607 -0.096434854 -0.006670162 -0.0068749753 -0.047125675 -0.044067487 0.045537345
-0.06913836 -0.050051026 -0.031264324 -0.08735399 0.061392765 -0.009735096 0.019205421 0.034845334
0.018840134 0.035811484 -0.020374613 0.07657448 -0.008363545 -0.07653883 0.03215957 0.06556423
-0.03171938 -0.017621547 0.012939671 0.07525248 -0.08204174 -0.03998994 -0.05271601 -0.07182251
-0.061246034 -0.011501662 -0.0885872 -0.077779904 -0.053152278 0.07705466 0.046376467 -0.021044
-0.005449013 -0.06746693 -0.03767767 0.01760441 -0.04250771 -0.097059466 -0.018706612 -0.07769341
-0.0025579259 0.028462477 -0.014663901 0.0016413827 -0.06398441 0.05402585 -0.0457633 0.015671289
0.037142776 0.028975816 0.040436942 0.014566308 -0.04548633 0.05633635 -0.08375374 0.06282141
-0.018570568 -0.07160749 -0.036125503 -0.029539779 -0.05184958 0.045359544 -0.03605482 0.055107053
-0.065840125 0.04701715 -0.08492888 0.01846977 -0.09125075 -0.06667039 -0.08247894 0.0036916276
0.066144325 -0.022804826 0.05890573 0.056036253 -0.09024124 -0.03860736 -0.10014785 -0.023016246
-0.07861405 0.008192233 0.019699752 -0.046411976 -0.014086887 -0.098786354 0.0044067614 -0.029375728
0.059585437 -0.052071244 -0.048909035 -0.04276666 0.044415437 -0.024513878 0.003928185 0.053572826
00000000: bee8 bdbc f53b a7bd c14a 9c3e 25ae 3ebe
00000010: b3fd fcbd 07d6 2bbf 6e0b 0f3d e078 4e3c
00000020: 775c 01bf 44d1 083d 77e9 a5bc 321d adbe
00000030: 4906 56be 444f 46bd e36a 9bbe 0b1a be3d
00000040: 9467 aa3c 3c3e 113d 6b9d 0bbd 2287 46bd
00000050: d09f 043c 4731 02bf acdd d13d fa0c 2f3e
00000060: f9fe 653e 12b1 ca3e 1ada 4e3e c1d5 09bd
00000070: 88f5 683d 8295 563d 147a 073e 8947 4e3d
00000080: 276a d83d 4146 e6bc 053b a83e 56ae 283d
00000090: 8808 72bc e690 323e a2b6 b73b c548 0b3d
000000a0: 92e5 2a3e 7d7f c5bd c537 0dbe 213f 99bc
000000b0: df59 023c a5dc 1ebf 8590 27bc 0690 d4be
000000c0: dd0b c6be 303c 85bf d798 26bd 0cc1 eab9
000000d0: 4770 5c3d 3ecf 7f3d 2bd6 fb3d 7531 3a3b
000000e0: 057c c4bc 3169 dbbc 2562 77bf 8704 9dbc
000000f0: 3e32 853d 57e2 cc3c dab9 013f fa5c 7e3e
00000100: a9b2 8b3d a164 a43d fe78 833c ea11 e4bc
00000110: c84b 70be df13 e2bc 4579 0fbe c1d9 043f
00000120: 0582 113d 2752 a03f 5500 713d bf75 80bd
00000130: 57a1 87bd 6514 a13c f74a d13e bc15 f63d
00000140: 54c5 763c 371b 0fbe bdec 663d 1c4c 893e
00000150: b8ee b43d 022c 83be 8e68 83be 5f29 963d
00000160: dd82 d03c c716 de3c a5c6 24bf e468 1dbd
00000170: 621c d4bd e8f3 b13d 098b a73f c288 20be
00000180: cf3b 6ebe 648e 953d 2bfd 82be c452 25bd
00000190: 9f3c 77bc 6825 c83d d1e4 403d f3ae 2f3e
000001a0: 6418 22bd db61 07bf 48c0 26bd dfb0 553d
000001b0: 5780 6e3d c997 9dbe 9f1f c93e f869 b83c
000001c0: 5c33 7b3e 321c 1f3e 17a5 a83e b284 2bbe
000001d0: c75a 25bc b296 bbbc d383 883e 8752 2b3e
000001e0: 70fa 923d 9c37 e53c 7dba 003d ea9b 2fbd
000001f0: a0ce 54bd 9499 f7bc c90d 20be 4180 79bd
00000200: 921a 6b3c 5246 643d f16a 403c 1d1b 7bbc
00000210: e139 9abc 9c10 ca3d e8a8 e1bb ed59 003c
00000220: 662e 613d c829 06bd 8f4b 87bd 43ec 773d
00000230: 23f4 333d 3425 aa3c c457 c2bd c635 413d
00000240: 0957 a3bc bb28 b5bd 7adb 7bbd 1a6b 8d3d
00000250: 4466 a8bd f0c9 abbd bf3c 883d 4335 673d
00000260: 6e95 9a3c a95a 6fbd a37f c5bd 6091 dabb
00000270: 7947 e1bb da06 41bd 1c80 34bd 5e85 3a3d
00000280: 6a98 8dbd 4e02 4dbd 050f 00bd a6e6 b2bd
00000290: fb76 7b3d f47f 1fbc b054 9d3c fbb9 0e3d
000002a0: a056 9a3c 10af 123d a9e8 a6bc 15d3 9c3d
000002b0: 4007 09bc 64c0 9cbd c1b9 033d 8a46 863d
000002c0: 2eec 01bd 105b 90bc ea00 543c f91d 9a3d
000002d0: 8005 a8bd 7ecc 23bd beec 57bd ae17 93bd
000002e0: 1fdd 7abd 7871 3cbc 356d b5bd 124b 9fbd
000002f0: 34b6 59bd d5ce 9d3d 40f5 3d3d 7764 acbc
00000300: a28d b2bb 1a2c 8abd e753 1abd 2037 903c
00000310: 911c 2ebd 1dc7 c6bd 9c3e 99bc b91d 9fbd
00000320: e0a2 27bb 242a e93c dc40 70bc aa23 d73a
00000330: 420a 83bd 364a 5d3d 4c72 3bbd 1361 803c
00000340: 0623 183d b15e ed3c 35a1 253d 86a7 6e3c
00000350: e04f 3abd f2c0 663d 1587 abbd 83a8 803d
00000360: 4e21 98bc f3a6 92bd 56f8 13bd 68fd f1bc
00000370: 3a60 54bd eeca 393d 38ae 13bd efb7 613d
00000380: 30d7 86bd 0e95 403d 31ef adbd ea4d 973c
00000390: ace1 babd 7c8a 88bd b8ea a8bd 3cef 713b
000003a0: ad76 873d 30d1 babc 2247 713d 4586 653d
000003b0: 66d0 b8bd c022 1ebd 511a cdbd 918c bcbc
000003c0: 6700 a1bd b738 063c 6061 a13c 7c1a 3ebd
000003d0: b0cc 66bc 8050 cabd 9866 903b 5ea5 f0bc
000003e0: dc0f 743d a848 55bd d754 48bd 182c 2fbd
000003f0: f6ec 353d 54d1 c8bc 01b8 803b 2e6f 5b3d

model.4.bias f4 [64]
-0.0038909123 -0.006001313 0.07801519 0.08219369 0.39324638 0.50532794 0.40845248 -0.01693932
0.5286247 0.004607732 0.5332925 -0.17353961 0.3857401 -0.086651124 0.20015039 -0.02560728
0.00521381 0.6220092 -0.10752263 0.0048645665 0.42890888 -0.35566074 0.31041902 0.0036177703
-0.06201743 -0.08279983 -0.0043219132 0.63912237 -0.14810221 0.2920489 -0.047437362 -0.093431905
0.20659699 -0.124024324 -0.08510113 0.073966436 0.011415523 0.030595815 -0.11753656 0.007653179
0.03671731 0.23684344 -0.090279564 0.20774868 -0.09268439 0.62014365 -0.12189368 0.30002978
0.25621897 -0.0948486 0.031732194 0.33964097 0.3086244 0.19563037 0.23157188 -0.0034781315
-0.04206359 -0.069987565 -0.087552674 0.1301333 -0.031845562 -0.1270058 -0.039131444 0.0070670596
00000000: adfe 7ebb aaa6 c4bb 6ec6 9f3d 2a55 a83d
00000010: 9757 c93e 2c5d 013f af20 d13e 54c4 8abc
00000020: f353 073f 75fc 963b db85 083f 5eb4 31be
00000030: ba7f c53e 2576 b1bd 39f4 4c3e 5cc6 d1bc
00000040: 9cd8 aa3b ff3b 1f3f d334 dcbd f166 9f3b
00000050: f299 db3e 2a19 b6be 3eef 9e3e 1d18 6d3b
00000060: fd05 7ebd f592 a9bd d69e 8dbb 869d 233f
00000070: 1ba8 17be 6f87 953e ae4d 42bd 3a59 bfbd
00000080: 298e 533e 7700 febd 8049 aebd b77b 973d
00000090: 2c08 3b3c 13a4 fa3c 02b7 f0bd 85c7 fa3b
000000a0: e464 163d 1687 723e 7ee4 b8bd 12bc 543e
000000b0: 50d1 bdbd bcc1 1e3f 65a3 f9bd 819d 993e
000000c0: 222f 833e fc3f c2bd 9ef9 013d 6ce5 ad3e
000000d0: 0404 9e3e 5453 483e 2e21 6d3e 5df1 63bb
000000e0: df4a 2cbd a455 8fbd d14e b3bd aa41 053e
000000f0: 7e70 02bd cf0d 02be 4b48 20bd cb92 e73b

model.6.weight f4 [32, 64]
0.06808456 -0.05411032 -0.0033357795 -0.11464795 -0.1740844 0.044160556 0.045754015 0.09558674
0.023870356 -0.007609528 -0.024761744 -0.049313325 -0.07705541 -0.07982805 -0.052893013 -0.090719
-0.07121717 -0.16703872 -0.002649337 0.07061324 -0.14691436 0.15477924 0.059363123 0.056289267
-0.06524406 -0.15715028 -0.028936965 0.018910324 0.061510913 -0.15117645 -0.122236915 0.10386502
0.11060676 0.04269412 0.05511963 -0.11395233 -0.010491085 -0.05698328 -0.1480251 -0.16691385
0.037609383 -0.0075997724 0.0071951 -0.1571242 0.017467573 -0.10500616 -0.0990326 -0.040049303
-0.10808958 -0.09484453 0.042934157 -0.08246596 -0.20813785 -0.046812125 -0.13238695 0.01516142
-0.059167705 -0.12110481 -0.054949068 0.048295252 -0.03434061 -0.077055246 0.096588045 0.09307914
-0.07231809 -0.110183075 -0.2817555 0.14781657 0.40178126 -0.30118534 -0.31673717 0.10159528
-0.41792867 -0.12182454 -0.0811984 -0.13533592 0.5005861 0.063378625 -0.079710186 0.1897984
-0.01358664 0.16948739 0.11912899 0.075518966 -0.04883369 0.05117421 0.030869836 0.020666933
0.27244523 0.35086653 -0.020508064 0.3061547 -0.07730467 -0.20766895 -0.1708428 0.061222255
0.21626312 -0.08598744 -0.033493876 0.034785073 0.13734761 0.06559598 -0.22029108 -0.14502867
-0.08167292 0.27627563 0.054249734 0.21903062 -0.1490286 0.12525493 0.034835774 -0.0018650256
-0.33140534 0.0036749374 0.085320316 0.1761668 0.07583088 0.17292662 0.09690419 0.2446432
0.34045598 0.090008825 0.0655539 0.18521754 -0.021780793 0.008443322 -0.13127185 0.06495295
-0.082363866 -0.027653169 -0.19454709 0.03655469 -0.016432775 0.15109125 0.14950953 -0.006645043
0.2256592 0.043198485 -0.13958827 -0.11000542 0.18655041 0.10504233 -0.16988006 0.13762452
0.11973947 -0.02577602 0.07286202 0.0945384 0.09218525 0.19358878 0.009744808 -0.08884914
0.048091393 -0.013108826 0.114029385 -0.09123455 0.0724347 0.06578045 -0.009217637 0.11183319
0.18819489 0.06315395 0.023249807 -0.12805125 -0.024239345 0.023501052 -0.06562022 -0.11378576
0.00915185 0.010054991 0.03183467 -0.19217896 -0.0016580066 -0.15053271 -0.019951554 0.026360042
0.114672996 -0.09459966 0.015910288 -0.12336651 0.011640261 -0.12232415 -0.04898172 0.024864772
-0.16588758 0.034019396 -0.023175986 -0.3274069 0.064187735 -0.06492591 0.05181926 -0.023184972
0.17333789 -0.017262252 -0.11652167 -0.0016220077 0.3452203 -0.53625107 -0.36486608 0.020164624
-0.024132565 0.11159005 -1.0936121 0.021656187 0.04447905 0.046073686 0.074040316 -0.07457363
0.0924081 -0.09356197 -0.032123886 -0.20595565 -0.30920804 0.41191453 0.011480615 -0.043516103
0.021026889 0.115418665 0.14235732 -0.049515627 -0.17808942 0.020693757 -0.17854665 -0.15382624
0.4091081 0.018465329 -0.104275696 -0.15577652 -0.105767325 -0.06252894 -0.16870004 -0.2705039
0.07265187 -0.2766013 0.014516583 0.02948474 -0.077746265 -0.6701889 -0.10373064 0.07070716
-0.07494663 0.014220823 0.046310883 -0.030864961 -0.24960761 -0.14475559 -0.16998537 -0.23469861
-0.14280444 -0.061605398 0.12937902 -0.678606 0.12127243 0.043117385 0.035117924 -0.12041718
00000000: eb6f 8b3d c8a2 5dbd 189d 5abb 8bcc eabd
00000010: 2e43 32be b3e1 343d 9068 3b3d fbc2 c33d
00000020: c48b c33c 5959 f9bb 24d9 cabc c5fc 49bd
00000030: 3acf 9dbd e47c a3bd 58a6 58bd e2ca b9bd
00000040: 4fda 91bd 330c 2bbe 80a0 2dbb ad9d 903d
00000050: b870 16be 737e 1e3e bf26 733d 938f 663d
00000060: ad9e 85bd 01ec 20be 370d edbc d3e9 9a3c
00000070: def2 7b3d 00ce 1abe 5957 fabd 2fb7 d43d
00000080: cc85 e23d 08e0 2e3d 1fc5 613d d75f e9bd
00000090: cde2 2bbc 4d67 69bd e493 17be 77eb 2abe
000000a0: 4c0c 1a3d 8307 f9bb e0c4 eb3b 2be5 20be
000000b0: 2818 8f3c 780d d7bd 9bd1 cabd bd0a 24bd
000000c0: 125e ddbd d93d c2bd badb 2f3d eae3 a8bd
000000d0: 1722 55be 12be 3fbd 7290 07be 9b67 783c
000000e0: d659 72bd cc05 f8bd 4612 61bd 3ed1 453d
000000f0: bda8 0cbd 24cf 9dbd f4cf c53d 47a0 be3d
00000100: 821b 94bd aaa7 e1bd 4242 90be 3a5d 173e
00000110: 46b6 cd3e f734 9abe 602b a2be 3011 d03d
00000120: bffa d5be 257f f9bd 594b a6bd 8095 0abe
00000130: 6926 003f a7cc 813d 183f a3bd 835a 423e
00000140: 809a 5ebc 1a8e 2d3e e6f9 f33d b0a9 9a3d
00000150: d605 48bd 0c9c 513d bde2 fc3c b34d a93c
00000160: f17d 8b3e c7a4 b33e 8700 a8bc 4fc0 9c3e
00000170: e951 9ebd 2ba7 54be 6af1 2ebe 30c4 7a3d
00000180: 1474 5d3e 2f1a b0bd e030 09bd cb7a 0e3d
00000190: daa4 0c3e 2f57 863d fc93 61be 6582 14be
000001a0: 2244 a7bd 0074 8d3e f834 5e3d 9049 603e
000001b0: f49a 18be d442 003e f5af 0e3d e073 f4ba
000001c0: f6ad a9be 38d7 703b 6bbc ae3d 1265 343e
000001d0: 384d 9b3d ad13 313e b475 c63d bf83 7a3e
000001e0: 3f50 ae3e 8c56 b83d 2041 863d aba9 3d3e
000001f0: a26d b2bc dc55 0a3c 216c 06be 0d06 853d
00000200: 63ae a8bd e688 e2bc 5a37 47be 5fba 153d
00000210: 079e 86bc aab7 1a3e 0719 193e a9be d9bb
00000220: 3513 673e e5f0 303d 3af0 0ebe 864a e1bd
00000230: 1207 3f3e 6f20 d73d 0af5 2dbe 71ed 0c3e
00000240: f839 f53d 3b28 d3bc af38 953d 599d c13d
00000250: 9fcb bc3d 233c 463e b0a8 1f3c 8af6 b5bd
00000260: 7bfb 443d 67c6 56bc 3d88 e93d 2ed9 babd
00000270: a558 943d e7b7 863d 9205 17bc cd08 e53d
00000280: 29b6 403e dc56 813d 6176 be3c de1f 03be
00000290: 9791 c6bc 4785 c03c e563 86bd 8208 e9bd
000002a0: a4f1 153c b0bd 243c 1265 023d 90ca 44be
000002b0: 7851 d9ba 3f25 1abe 7171 a3bc 04f1 d73c
000002c0: add9 ea3d 77bd c1bd 4b56 823c 95a7 fcbd
000002d0: cbb6 3e3c 1585 fabd 0ea1 48bd 35b1 cb3c
000002e0: 6fde 29be ec57 0b3d 91db bdbc e1a1 a7be
000002f0: dc74 833d e0f7 84bd 6f40 543d 69ee bdbc
00000300: 7d7f 313e 9169 8dbc eaa2 eebd 8c99 d4ba
00000310: b7c0 b03e c047 09bf bacf babe 4830 a53c
00000320: a8b1 c5bc 5389 e43d 7bfb 8bbf 5168 b13c
00000330: aa2f 363d c3b7 3c3d 73a2 973d 0fba 98bd
00000340: 7540 bd3d 6b9d bfbd 5694 03bd 0ae6 52be
00000350: 8450 9ebe 76e6 d23e 3019 3c3c f13d 32bd
00000360: 9540 ac3c 9f60 ec3d 1ec6 113e e6d0 4abd
00000370: 135d 36be f485 a93c efd4 36be a084 1dbe
00000380: 9e76 d13e 9a44 973c 7f8e d5bd e183 1fbe
00000390: 8a9c d8bd 2c0f 80bd b4bf 2cbe 7d7f 8abe
000003a0: 81ca 943d b09e 8dbe f6d6 6d3c fb89 f13c
000003b0: 6f39 9fbd 8091 2bbf bb70 d4bd eace 903d
000003c0: 9e7d 99bd 74fe 683c 7bb0 3d3d 84d8 fcbc
000003d0: 2399 7fbe cf3a 14be a510 2ebe d554 70be
000003e0: 543b 12be f155 7cbd ef7b 043e 1fb9 2dbf
000003f0: ae5d f83d db9b 303d d0d7 0f3d 489d f6bd

model.6.bias f4 [32]
0.0430893 0.54953706 0.14306462 0.046075903 0.06301214 0.7234511 0.1504704 0.44116166
0.39836398 0.17252526 0.5636187 0.4071955 -0.079753 0.8375069 -0.022178866 0.15172476
0.392472 0.44341522 0.1291844 0.33234435 0.40501004 0.2208175 -0.17512967 0.31782076
0.31332317 0.3944552 0.055036694 0.5536457 0.2754284 0.2039511 0.05577225 0.43857053
00000000: 687e 303d 76ae 0c3f 887f 123e 16ba 3c3d
00000010: 820c 813d 1734 393f ea14 1a3e f1df e13e
00000020: 5df6 cb3e 76aa 303e 5149 103f ee7b d03e
00000030: 8a55 a3bd da66 563f 74b0 b5bc bc5d 1b3e
00000040: 17f2 c83e 5207 e33e ea48 043e 0a29 aa3e
00000050: 7a5d cf3e fc1d 623e 3155 33be 67b9 a23e
00000060: e56b a03e 08f6 c93e 286e 613d b9bb 0d3f
00000070: f404 8d3e 8fd8 503e 7171 643d 518c e03e

model.8.weight f4 [10, 32]
0.10469336 0.25886196 -0.33340648 -0.22246993 -0.04543853 0.1822784 0.023242395 0.034409862
-0.19573334 -0.09535867 0.25907668 0.020827116 0.020010563 0.06793556 0.17221318 0.2297736
0.32915124 -0.42667642 0.007738988 0.00045066644 -0.13571185 0.26722464 0.0832528 0.016662527
-0.106878646 -0.27844176 0.12494645 0.12016254 0.14428003 0.22311598 -0.011272099 -0.23766375
-0.060198896 0.32285258 -0.20427679 -0.031644903 0.04365727 0.19339481 -0.03174852 -0.012417958
-0.26964062 -0.21940963 0.1769266 0.01640026 0.069824725 0.062420465 -0.12755223 0.22630844
0.29463667 -0.33497787 0.10658364 0.20444964 -0.1822892 0.088697255 -0.0580688 0.020776916
-0.22487073 -0.3145503 0.075990364 0.119067386 0.13608019 0.19154187 -0.114936285 -0.2302967
0.13026088 0.50307834 -0.18393776 0.04226185 0.016216865 0.18100898 0.06850378 0.0092764925
-0.21669218 0.120724656 0.30916542 0.05468808 0.13160639 0.03377466 0.15857542 0.24033535
0.26695564 -0.345824 -0.0972037 0.27874252 -0.3748338 0.16051953 0.07775272 0.07408088
-0.27578348 -0.26372612 -0.10577481 0.053410444 0.057443622 0.18954538 0.10549698 -0.18396305
0.0103394035 0.33968666 -0.22215086 -0.16151406 0.045005307 0.12914963 0.18621546 0.06262207
-0.24554738 0.054618683 0.2888088 0.016954899 0.057738937 0.13314891 0.12961556 0.18137103
0.23057841 -0.28439993 -0.075465724 0.14937884 -0.09897569 0.19000715 -0.12220109 0.03778127
-0.28143618 -0.37701797 -0.14744897 0.08614732 0.019442808 0.19079028 0.005981395 -0.19353758
-0.14640003 0.21920717 -0.21838273 0.106165566 0.13807559 0.11503895 -0.054068215 0.064191334
-0.25571877 0.057447236 0.31283855 -0.058244538 0.100479536 -0.06430785 0.15769123 -0.0036459486
0.40594196 -0.37426692 0.13595644 0.14591837 -0.24188189 0.21756223 -0.13279536 0.13774176
-0.22226048 -0.24254295 -0.020045776 0.08352868 -0.0949633 0.21413891 0.10957668 -0.26398268
0.079041 0.35584715 -0.3568928 -0.008939529 -0.12990578 0.10860085 0.18024804 -0.038590226
-0.25571784 0.14983983 0.19854282 -0.016634334 0.06610818 0.003939926 0.10824828 -0.07430235
0.355637 -0.27893046 0.08124056 -0.23689441 -0.20595793 0.22188202 0.017876878 0.00054844114
-0.27012682 -0.27563336 0.0016306737 0.1103701 0.060213484 0.21921097 0.1802411 -0.26284608
-0.08590963 0.30177802 -0.12867732 0.050938062 0.03494313 0.03187688 0.15031435 -0.0017034422
-0.2330514 0.07350551 0.2450125 0.025740845 -0.079658754 -0.048957713 0.09625408 0.13477643
0.2606774 -0.38076612 0.19237953 0.037604716 -0.15425399 0.11593156 -0.05636275 -0.070293926
-0.38973537 -0.22796515 0.03909762 0.10061342 0.18269248 0.23355485 -0.0050429762 -0.22999325
-0.08550875 0.3427787 -0.187234 0.085940145 0.17473505 -0.119247176 -0.01443295 -0.0064795613
-0.17245063 -0.06507868 0.31229582 -0.0013328986 -0.066033095 0.026911482 0.092794396 -0.14405507
0.30865404 -0.21041651 0.07271666 -0.15848581 -0.19804941 0.1714766 0.064708576 -0.0055757556
-0.25666696 -0.39994118 0.085871525 0.050728533 0.015758308 0.17059387 -0.15218379 -0.41180527
00000000: 7969 d63d 8e89 843e 41b4 aabe 28cf 63be
00000010: c11d 3abd 30a7 3a3e d666 be3c 5bf1 0c3d
00000020: 526e 48be 684b c3bd b3a5 843e a19d aa3c
00000030: 31ed a33c cd21 8b3d a758 303e c549 6b3e
00000040: 8386 a83e 5575 dabe 5697 fd3b 6d47 ec39
00000050: 0cf8 0abe abd1 883e 7280 aa3d da7f 883c
00000060: 31e3 dabd eb8f 8ebe ede3 ff3d c717 f63d
00000070: 25be 133e 8478 643e 9cae 38bc 205e 73be
00000080: 1e93 76bd ef4c a53e ef2d 51be 169e 01bd
00000090: f7d1 323d 4a09 463e bc0a 02bd b174 4bbc
000000a0: 560e 8abe ebac 60be 3f2c 353e d759 863c
000000b0: 4400 8f3d 9aac 7f3d 0d9d 02be 66bd 673e
000000c0: 9eda 963e 3882 abbe 8648 da3d 3f5b 513e
000000d0: 05aa 3abe e8a6 b53d 8dd9 6dbd 5a34 aa3c
000000e0: 8344 66be bd0c a1be d6a0 9b3d 9ad9 f33d
000000f0: 9b58 0b3e 8d23 443e b763 ebbd e6d2 6bbe
00000100: 1c63 053e bec9 003f 2e5a 3cbe c31a 2d3d
00000110: 3bd9 843c 6b5a 393e b64b 8c3d 6efc 173c
00000120: 8ee4 5dbe 7d3e f73d ee4a 9e3e 9c00 603d
00000130: d3c3 063e 4c57 0a3d 9861 223e 781a 763e
00000140: 69ae 883e d80f b1be bc12 c7bd 57b7 8e3e
00000150: 37ea bfbe 3b5f 243e d13c 9f3d b7b7 973d
00000160: 7e33 8dbe 1c07 87be 77a0 d8bd e9c4 5a3d
00000170: 014a 6b3d 2f18 423e cd0e d83d cf60 3cbe
00000180: 9a66 293c 69eb ad3e 847b 63be f163 25be
00000190: 7c57 383d cd3f 043e 44af 3e3e 0040 803d
000001a0: c670 7bbe d7b7 5f3d bfde 933e 00e5 8a3c
000001b0: aa7f 6c3d 3058 083e f1b9 043e 54b9 393e
000001c0: bf1c 6c3e de9c 91be c68d 9abd c4f6 183e
000001d0: c4b3 cabd 3c91 423e 9144 fabd 88c0 1a3d
000001e0: 6718 90be 8008 c1be ddfc 16be 026e b03d
000001f0: 8646 9f3c 875e 433e 94ff c33b b72e 46be
00000200: e4e9 15be d877 603e b99f 5fbe 556d d93d
00000210: b063 0d3e 8b99 eb3d a276 5dbd bf76 833d
00000220: 92ed 82be cb4d 6b3d 602c a03e d391 6ebd
00000230: 37c8 cd3d d6b3 83bd cf79 213e def0 6ebb
00000240: a0d7 cf3e ea9f bfbe 2a38 0b3e a06b 153e
00000250: e3af 77be a2c8 5e3e 82fb 07be 2d0c 0d3e
00000260: 4098 63be 2e5d 78be 0a37 a4bc 1611 ab3d
00000270: 1e7c c2bd 3b47 5b3e bd69 e03d bd28 87be
00000280: 3fe0 a13d 9931 b63e a7ba b6be 1a77 12bc
00000290: 0506 05be 1f6a de3d f192 383e c910 1ebd
000002a0: 73ed 82be 9d6f 193e cf4e 4b3e ba44 88bc
000002b0: ba63 873d 7f1a 813b 46b1 dd3d d52b 98bd
000002c0: 0e16 b63e f9cf 8ebe 7361 a63d 7394 72be
000002d0: a3e6 52be 0a35 633e 8872 923c 43c5 0f3a
000002e0: 104e 8abe d11f 8dbe 54bc d53a b809 e23d
000002f0: 6aa2 763d d778 603e 1f91 383e c393 86be
00000300: 63f1 afbd a682 9a3e fdc3 03be 6ea4 503d
00000310: 8720 0f3d 5591 023d 01ec 193e 0946 dfba
00000320: 07a5 6ebe 0f8a 963d 8fe4 7a3e 77de d23c
00000330: 2124 a3bd e287 48bd dc20 c53d d502 0a3e
00000340: 8277 853e c7f3 c2be 24ff 443e 6707 1a3d
00000350: c2f4 1dbe 876d ed3d a0dc 66bd 43f6 8fbd
00000360: 658b c7be b26f 69be d324 203d 690e ce3d
00000370: bd13 3b3e 0129 6f3e 8d3f a5bb 5a83 6bbe
00000380: 361f afbd b180 af3e 45ba 3fbe 6301 b03d
00000390: bfed 323e dd37 f4bd 2e78 6cbc 8052 d4bb
000003a0: e696 30be f947 85bd 3de5 9f3e a8b4 aeba
000003b0: 5c3c 87bd 7875 dc3c fd0a be3d 2c83 13be
000003c0: e707 9e3e 6d77 57be 79ec 943d 1b4a 22be
000003d0: 77cd 4abe 9097 2f3e ee85 843d d4b4 b6bb
000003e0: da69 83be 17c5 ccbe 69dd af3d b9c8 4f3d
000003f0: 9117 813c 29b0 2e3e 11d6 1bbe 24d8 d2be

model.8.bias f4 [10]
-0.21938832 -0.3884271 -0.5093874 -0.62116134 -0.38454384 -0.10346996 -0.15184778 0.057366747
-0.09785048 0.083124734
00000000: 55a7 60be ebdf c6be 3667 02bf 6e04 1fbf
00000010: eee2 c4be 0fe8 d3bd fc7d 1bbe 65f9 6a3d
00000020: d565 c8bd 4d3d aa3d
