checkpoints/checkpoint_step_3600.pth (torch, 200878 bytes, 10 tensors)

model.0.weight f4 [256, 21]
00000000: d313 e93d 180e fc3c 1e78 583d 937b f4bd
00000010: 27e6 aabe c14e 04be 2c77 cfbe 20d8 b83c
00000020: b780 503d 8db4 cb3d 2a16 64be 8115 72bc
00000030: 16d0 863e a819 57bf 5fa5 4abe 8f36 88be
00000040: 7ba1 8abb 97f4 8b3d 10d0 083e 1017 fabe
00000050: a228 a53e d895 dc3c 091f 923c 1879 32be
00000060: 4c51 a2bd b81b 93bf 1708 9abd 22d5 a33d
00000070: 5980 b2bd c7d2 09be 77f4 9abe c998 d6bc
00000080: e109 89bd b64e abbe d0d3 afbe b365 00be
00000090: e4b5 c2bc b1fe 4bbd 3e6c 1e3e 7b30 aebd
000000a0: 98ca 0a3e 5e3a 92bd 5e38 61bd 6a0c 86be
000000b0: ebf3 7d3e 3fc2 dbbc ad15 033e 51ff af3d
000000c0: 3dbb f8be 47c6 db3d dce5 1b3e fe11 30be
000000d0: 314d 053d 7b45 01bf 1532 eabd 14eb 72be
000000e0: 6e27 5dbe 6d14 b73d 30d3 a5be d1c9 42bd
000000f0: e668 b5bd 0ca1 3dbe f6bf d5bd ec41 e03d
00000100: d4cf 1bbf 95c7 0fba 9a21 a8be 2094 09c0
00000110: 78dd 223d fe7b 43be 569f 403d 5067 d73c
00000120: d509 88bc 37b9 22bd 9c8f 293e e461 c33c
00000130: feb1 dfbd 9399 46bd f06a 643e 34ad 15bd
00000140: b0bd 263e 4b3c c4bd 4232 253e 019e 38bf
00000150: 89e4 313e 1df6 f1bd fe5a 903d bfb6 03be
00000160: 6819 873d 7204 72be eac0 693e 9024 1d3e
00000170: c0e7 6c3d 8730 2dbc 342e 18be 0c9e 4dbc
00000180: 71b0 163e ec20 53be 1e5f 80be cd6f 663d
00000190: 654d 1b3e 0ae7 ccbe b270 3bbe a970 0e3e
000001a0: 74a7 1ebd 5584 35be 0615 943d 3749 54be
000001b0: 961d df3d 6594 86bd 475b b33d e272 6bbe
000001c0: f98d d33b eb15 94be 2058 e1bd 1352 103d
000001d0: 6218 843e 3420 2ebd 5bc1 c33e 1826 d9bd
000001e0: da54 b93e 23aa d03d 62af 9c3e a95a 43be
000001f0: 6b8e 563e fdd1 f23d d4ec 24bf 940d 80bd
00000200: 4880 943e e0e4 bbbe 0171 4abf b69b 00be
00000210: a2a0 8ebe e5ee a9be 7a38 c4be a5ce 65bd
00000220: 8d5f 8ebe 1548 90be d63c 9abd 07c2 4fbe
00000230: f889 233e 9768 283e 3b94 e03d 1eba cb3d
00000240: c891 56be 209b c6bd 1e5d cebd 0cd1 11be
00000250: 77ad 03be 3c4c 4d3e 37e9 09be d30f 503e
00000260: 322b 2bbd 7c29 b9be b873 70bd ce16 a2c0
00000270: 2fac c1bc fe54 1dbd fff5 00bc c0da 73bd
00000280: 98dc 82bd 36c2 213d 9d6b 653d b3aa 38bd
00000290: df84 23be af68 71bd 4f35 50be c939 58be
000002a0: a17b a7bc 5d4b 03be f943 9a3d 5c3a 5fbe
000002b0: 820c 833d 6e78 453b 3b8a b3be 1bc6 d5bd
000002c0: e5e9 3c3e 66c8 97be 4b0c a2be b824 b7be
000002d0: 4897 95bc dec0 9ebd 0966 2ebe 41d6 98be
000002e0: a9c3 283c 2b06 8ebd afa4 83be 14eb 85bd
000002f0: 3d0b ec3c 945a 323e c3dc 53be ed80 a7be
00000300: 27a9 8fbd 0846 5d3e 6c42 71be c36a 8ebe
00000310: ff41 a5bd 5df0 053d 8775 043d dd1a 3ebe
00000320: a714 05bf 058a c8bd d908 b0be f1de a63d
00000330: fbe7 f9bd 721c 33be 6648 06bf 8db8 e13d
00000340: 55c2 5abe 1e39 aabd cf44 6fbd 62d5 fe3d
00000350: 41cb 9fbd 6e60 863d ff68 e5bd b73a 4d3e
00000360: c46c f63c ade1 913d cef3 d6bd 2fce 0d3d
00000370: f6c0 593e 5fb7 8ebe ecf1 43bd 76f7 073f
00000380: 40a3 b33d 4ac8 b7be 4c37 973e 705a 52be
00000390: edfe 57bd d671 7b3e 5b80 a8bd e73c 0cbe
000003a0: 7a71 6f3d 3034 0cbe 75d1 f1bd 433c a53e
000003b0: 5675 ab3c 5099 a43d 83e9 98bd c806 ddbe
000003c0: 118d 51be cbb4 2fbe e891 81be da1c a3bc
000003d0: e8ff c4bd ea2b 65bd 7674 a83e 6c03 74be
000003e0: fe13 99be 0dd8 2dbd 7c60 e2bd 6b22 6dbd
000003f0: 5562 d5bb a522 453e 9546 f4bd 1a24 9ebe
0.11380734 0.03076844 0.052848928 -0.119376324 -0.33378717 -0.12920667 -0.40520608 0.022563994
0.050904002 0.09946547 -0.2227408 -0.014775635 0.26330632 -0.84023523 -0.19789647 -0.26604125
-0.0042306758 0.06833761 0.1336062 -0.4884572 0.32257563 0.02692692 0.017837064 -0.17429006
-0.079256624 -1.1492834 -0.07521074 0.07999636 -0.087158866 -0.13459311 -0.30264637 -0.0261959
-0.066913374 -0.3345849 -0.34341288 -0.12538795 -0.023768373 -0.04980344 0.15470979 -0.08505341
0.13553846 -0.07140039 -0.054985397 -0.26181346 0.24800079 -0.026826022 0.12801237 0.085936196
-0.4858035 0.10731178 0.15224403 -0.17194363 0.03254432 -0.50496644 -0.11435334 -0.23722488
-0.21597072 0.08939443 -0.32387686 -0.04755575 -0.088578984 -0.18518466 -0.10437004 0.109500736
-0.60863996 -0.0005484757 -0.32838136 -2.1496658 0.03976199 -0.19090268 0.047026955 0.02629438
-0.01660625 -0.039727416 0.16558689 0.023850389 -0.10922621 -0.048486304 0.22306418 -0.036542132
0.16283298 -0.095818125 0.16132453 -0.72116095 0.17372335 -0.118145205 0.070486054 -0.12862681
0.06596643 -0.23634508 0.22827497 0.15345979 0.0578382 -0.010570652 -0.14861375 -0.012549888
0.14715745 -0.20618027 -0.2507257 0.056258965 0.15166242 -0.4002002 -0.18304709 0.13910164
-0.038733914 -0.17726262 0.072305724 -0.20731054 0.10894315 -0.06571273 0.08757644 -0.22993043
0.0064561334 -0.28922972 -0.11003137 0.035234522 0.25799853 -0.04251118 0.38233456 -0.10602969
0.3619755 0.10188701 0.30602556 -0.19077553 0.20952766 0.11856458 -0.6442387 -0.0625259
0.2900412 -0.36698055 -0.7907868 -0.12559399 -0.27856928 -0.33190075 -0.38324338 -0.056105275
-0.27807274 -0.28179994 -0.07531135 -0.2028886 0.159706 0.16446148 0.10965773 0.099476084
-0.20954049 -0.096975565 -0.100763544 -0.14239901 -0.1285914 0.20048612 -0.1346787 0.20318536
-0.04178924 -0.36164463 -0.058704108 -5.065284 -0.023641674 -0.038411133 -0.00787115 -0.059534788
-0.06389731 0.039491855 0.05601083 -0.045084666 -0.15968655 -0.058937725 -0.20332836 -0.21115793
-0.020444693 -0.12821718 0.07532496 -0.21799606 0.0639887 0.0030131596 -0.350664 -0.10438176
0.18448599 -0.2964508 -0.31650004 -0.35770202 -0.018260613 -0.0775163 -0.17031111 -0.29850963
0.010300555 -0.0693477 -0.2571158 -0.06538978 0.028813953 0.17417365 -0.20689683 -0.3271555
-0.07014685 0.21608746 -0.23560494 -0.27815828 -0.080692284 0.03269993 0.032338645 -0.18564935
-0.5198464 -0.0979195 -0.3438175 0.081479914 -0.1220245 -0.1749132 -0.5245422 0.110215284
-0.21363194 -0.083116755 -0.05841523 0.12443043 -0.078024395 0.06561361 -0.11201667 0.20041929
0.03008116 0.07123122 -0.10495721 0.03462046 0.21265015 -0.27874276 -0.047838137 0.5311197
0.08771372 -0.35894996 0.29534376 -0.20542312 -0.05273335 0.24555144 -0.08227607 -0.13695107
0.05845783 -0.13691783 -0.11807529 0.3227254 0.020929974 0.080370545 -0.07466414 -0.43169236
-0.20463969 -0.17158811 -0.2530663 -0.019911218 -0.09619123 -0.055950083 0.32901353 -0.2382943
-0.29898065 -0.04244237 -0.11053559 -0.05789415 -0.006511966 0.19251497 -0.11927525 -0.30886918

model.0.bias f4 [256]
00000000: f1b9 023e 8925 003c 1a46 69be fcea 593e
00000010: 2611 dd3e 5d9f e53d 6c27 dc3d 9d08 e03d
00000020: 6123 403e 8aca 363e 9809 6dbe 6c48 8fbc
00000030: eca2 993d 079c c1be 4dd4 913e 3cf2 a43e
00000040: caec babd 894d e8bd c997 8c3e 0d74 81be
00000050: 8040 aabd 9b70 d4be 8e80 5ebd 9493 2cbe
00000060: 0f5b f2be 5214 b1bd 2000 59be 8fb4 153e
00000070: ce7b 05be 309c 3fbc ed57 8e3e 60dd b23e
00000080: f8d5 43be c0a7 29be c493 a0be bc03 bc3d
00000090: 77b1 c9bd 2ef1 a8be 96dc 003d b4c6 c43d
000000a0: 083f 6bbd cb2c 0f3e 5548 103d a325 f33c
000000b0: f29e 543e edd8 43be 8cc1 e8bd 424a 15bd
000000c0: 06b7 753e e998 fbbd 894a 77bc bb48 703d
000000d0: fb13 b0be ea27 90be deb1 563e 50c0 6dbe
000000e0: ecaa aabe d9c6 123d 6552 9bbe 6303 4dbd
000000f0: 3494 813d 08c8 f1bd 6f21 ab3e ba47 00be
00000100: 6fd5 90bd f2ad 32be d21f 7bbd d88f 9b3e
00000110: b187 9dbe ea06 6c3e 5603 b2bd f872 9d3e
00000120: 8d1b 45bd 76b4 083e 7777 47be 657e b9be
00000130: ab70 3ebe 9a1d f6bd f7a3 3ebe 2589 df3e
00000140: a864 083d c633 b53e 3bbd fcbe c195 21be
00000150: f099 893d 878f 59be f6c8 a33e 6f8c b83e
00000160: 2a00 22bd 65c2 843d db14 6a3e 9df9 32be
00000170: a04f 06be 4174 12be 978e d0bd 3b57 89be
00000180: 8418 96be b079 f9bd 6f63 b8be c4cc da3e
00000190: 6b76 ce3e b364 25be 4962 b4bd e8e6 953e
000001a0: f17b fd3d 526b 2b3e 03d1 b1bc dfa6 0d3e
000001b0: 9550 0dbc 1d7e 08be 1964 e53c 6405 99bd
000001c0: 1ee6 fdbd 9eb0 adbd 022e 8dbd 20be b6bd
000001d0: 9b67 093e a95d a33e 7106 20bd ab68 1c3e
000001e0: 9f1c b8be 25bd 553d 0491 0cbe ee79 a83d
000001f0: 369a d8bd 517e e6be 7204 b63e 49e1 4a3e
00000200: bc35 9ebe 1cf1 86be 7787 bcbd 45fd 763e
00000210: 69a1 293c 92c5 6abe f5d4 d23e 9708 533e
00000220: dd93 fabd c3f3 65be ddd3 cc3d 2a2e a23e
00000230: 8b4f f6bd 1e7d 763d 9ddc 783e b541 75bd
00000240: 9949 713e 3ef1 a63e daf6 a93d d459 003e
00000250: a054 38bf c8a1 0ebe 899b 1e3e 5bb9 20be
00000260: a32d 9e3e e113 bcbe 8ce5 64be f0ba a93d
00000270: bcd4 77bc fdfb 5d3e 720d 5f3e 8e0c d13e
00000280: e72b 4abe d234 a13c e0e2 d03e 7605 b23d
00000290: a8b7 3fbe 2710 9c3e c690 12be a4fc 00be
000002a0: 265f fcbc 1787 9e3e 209b 3abe 81d4 8ebd
000002b0: 22f3 663e 7f03 6abe 9282 783e 8ded ca3d
000002c0: 664e 9abe e852 d73e 52f9 7fbd 042c 57be
000002d0: 8e7c b1be 1f3b 9e3e d3ed b13d 6ac3 483d
000002e0: d41c 1bbe 0a5d e8bb 5a40 92be 3e21 c0be
000002f0: 0c66 ab3d 17f6 0c3e 2a23 6cbe 96c9 5a3e
00000300: 1863 c43e 9ba9 cf3c 660e 28be f453 99be
00000310: 7282 a83e 0473 3abd f77b 823e 37b7 7abd
00000320: 5b95 a5be 23ff 64bc 6c37 d83c ac21 ca3d
00000330: f4f5 bc3c 5e90 273d 952f 42be 5fe0 16be
00000340: 40f6 c7bd 415a 60be 2970 363d aea2 ce3d
00000350: 776a d03d 43a5 503e 2fef fabd 9fb4 38be
00000360: 809c 873e 1ce5 833e 793b b0bd eea6 c23e
00000370: e382 48bd b10e 29be f66f 773c a7e4 2abe
00000380: 116e 81be 9425 74be fa52 273e db97 78be
00000390: 2850 743d b70e 1e3e 09a6 303e 31fa afbd
000003a0: f2d1 f13c dbbf d63d bf7b ff3e fa7c 25bd
000003b0: c1cb ed3d bf4d 4fbe 2af4 d43e efe8 ad3e
000003c0: bbc1 51be 0dec a03d f106 19bd 999b 7ebd
000003d0: 79b6 2ebe c33d 89be aca8 873e e147 803e
000003e0: 20f2 b3be 0a9a 2dbe 3d63 993d c80d 573d
000003f0: 1029 efbd 1817 c1be e9d1 d23d 93d6 3d3e
0.12766244 0.007821449 -0.22780648 0.21281046 0.43177146 0.11212037 0.107497066 0.10939143
0.18763496 0.178507 -0.23148191 -0.017490588 0.07501778 -0.37814352 0.28482285 0.3221606
-0.09127195 -0.11342914 0.27459553 -0.25283852 -0.08313084 -0.4149216 -0.054321818 -0.16853172
-0.47335097 -0.08646454 -0.21191454 0.14619659 -0.13035509 -0.011694953 0.27801457 0.3493452
-0.19124591 -0.16567898 -0.31362736 0.091804 -0.09848302 -0.32996505 0.031460367 0.09608212
-0.05743316 0.13981931 0.03522523 0.029681033 0.20763758 -0.1912572 -0.11365041 -0.03644777
0.23995599 -0.12285025 -0.015093454 0.05866311 -0.34390244 -0.28155452 0.20966288 -0.23217893
-0.33333528 0.035834167 -0.303363 -0.050052058 0.06327096 -0.11805731 0.33423945 -0.12527362
-0.07071959 -0.17449167 -0.061309643 0.30383182 -0.30767587 0.23049513 -0.086920425 0.30751777
-0.048121978 0.1335009 -0.19479166 -0.36229244 -0.18597667 -0.12017365 -0.18617235 0.4365932
0.03329912 0.35391062 -0.4936312 -0.15779783 0.067188144 -0.21246158 0.3198926 0.36044642
-0.039550938 0.0648239 0.22859518 -0.17478032 -0.13116312 -0.1430216 -0.10183447 -0.26824364
-0.2931558 -0.12181413 -0.36013362 0.4273435 0.4032472 -0.16151695 -0.08807809 0.2927773
0.123771556 0.16740158 -0.02170611 0.13833188 -0.008625169 -0.13329358 0.028001832 -0.07471731
-0.12397407 -0.08480953 -0.06893541 -0.08922982 0.13418429 0.31907395 -0.039068643 0.15274303
-0.35959336 0.052182335 -0.13727194 0.08226381 -0.105762884 -0.45018247 0.35550267 0.19812502
-0.3090037 -0.26355827 -0.09205525 0.24120052 0.010353425 -0.2292693 0.41178098 0.20608746
-0.12235234 -0.22456269 0.10001347 0.31675845 -0.1202689 0.060177915 0.24302907 -0.059877116
0.23563232 0.32605928 0.08299036 0.12534267 -0.7200413 -0.13928902 0.1548902 -0.15695707
0.30894193 -0.36733916 -0.2235319 0.082876086 -0.015126403 0.21678157 0.21782473 0.4082989
-0.1974331 0.019678507 0.40798092 0.08692448 -0.18722403 0.30481073 -0.14313039 -0.12596375
-0.030807089 0.3096244 -0.18223238 -0.06974126 0.22553685 -0.22852896 0.24268559 0.099085905
-0.30137938 0.4205544 -0.06249363 -0.21012884 -0.3466534 0.3090448 0.086879395 0.049014486
-0.15147716 -0.0070911692 -0.2856472 -0.37525362 0.08369073 0.13765751 -0.23060289 0.21365961
0.38356853 0.025349429 -0.16411743 -0.29946864 0.32912022 -0.045519844 0.25485203 -0.061209884
-0.32340512 -0.013976845 0.026393615 0.09869704 0.023066498 0.040909164 -0.18963464 -0.14734028
-0.09763765 -0.21909429 0.044540558 0.100896224 0.101765566 0.20375542 -0.12252652 -0.18037651
0.26486588 0.25760734 -0.086050935 0.38017982 -0.04895295 -0.1650951 0.015102377 -0.16688786
-0.25279287 -0.2384246 0.16340247 -0.24276678 0.059646755 0.15435301 0.17250837 -0.08592642
0.029519055 0.10485812 0.49899098 -0.04040239 0.116111286 -0.20244502 0.41592532 0.33966777
-0.20484059 0.07857523 -0.037360135 -0.06216011 -0.17061795 -0.26804933 0.26495874 0.2505484
-0.35145664 -0.16953292 0.07489631 0.052503377 -0.11677754 -0.37712932 0.102939434 0.18538885

model.2.weight f4 [128, 256]
00000000: 1eda ad3d 99ca 653d f7d8 d53b aea4 703d
00000010: 741a c53d d192 a6bd 4979 a0bd 89ee 4a3d
00000020: 2bbd 33bd dad5 d4bc b6d7 cb3e 06fe b1bd
00000030: 5223 b23e a57d f73d 03c6 013e cde2 883c
00000040: bd26 303d 0a07 f0bb 670a 57be 1368 353e
00000050: 2233 92bd 82bc c43d 3410 57bd 50e9 ef3d
00000060: 4a1e 113e 6889 cd3d a7e0 7bbd 0410 e43d
00000070: e013 383c a462 253d bb27 4e3e 94eb a2bd
00000080: 78bc e3bd 1c93 bbbc 2396 b63d 0161 a6bb
00000090: 40ba 8b3b 56cb b03d e066 3ebd 183f 593e
000000a0: 49e2 c53d 4cf8 36be 38e4 6ebd 7142 1e3e
000000b0: fc0a c0bd eb0e a9bc 5eff 1cbd 2a57 2cbd
000000c0: 4901 703e 591b 9c3d bb41 e33d edca 453d
000000d0: d371 f13d 0309 5bbd dbab 9a3e d5b6 a4bd
000000e0: 8840 c63d 389e 1a3d beda 85bc d2f7 f2bd
000000f0: c024 02bc 7af0 bb3c 9907 6b3e 17e7 2e3c
00000100: 3577 693d 1944 adbd 5517 89bc c683 f73d
00000110: 647b f9bd e3fc cd3d fde8 0abe 5416 8d3e
00000120: c25f c0bc 701c 2f3e 5684 913e 5e6d 703d
00000130: ce40 7c3e 3db8 f93d fc9f 4d3e 24b3 503e
00000140: 2b3d 2c3d 45ca a43e 77f6 833e 3e82 933d
00000150: 2710 8bbc 0740 6dbd 15cd d03d 0037 1d3e
00000160: ded6 0b3e e0de a0bb deda cc3d 4674 51bd
00000170: d457 0e3e 616a bbbc da83 a73e 42e8 583a
00000180: 1097 3f3d 98a9 e3bd 1ef3 163e 3e6d 953e
00000190: fe72 973e 7b2a af3c f5b5 c8bd c483 593e
000001a0: 268a 8f3d e100 a93d fb11 dd3d 86bb ac3d
000001b0: 39a1 973d 5473 18bd e4ff 533c 4da2 143d
000001c0: 4fa1 933c 247e 1cbd b8cf 8ebe 06c9 a2bc
000001d0: 2463 5abd 3c1d 4f3e cb15 223e b88e 853c
000001e0: bfcf 6c3d 6319 8c3d 3daf f7bd 221a 0a3e
000001f0: da43 bd3d 885f 9abd 6198 8b3e 12c9 db3d
00000200: 8595 e83d 6e24 623c 5912 c33d a486 8f3e
00000210: e2c3 b23d 398e f93c 0da6 443e 5851 3f3e
00000220: f6ab 9a3d 6d9e 83bd 75d9 003e 04a6 143f
00000230: f015 cabd 3600 57be d468 fa3c 8fc3 af3d
00000240: ce34 28bd a70f 203d e60a 243d b147 493e
00000250: 9c4f 8d3b b229 5bbc 48e8 333e f618 b0bd
00000260: 0488 903e 1096 3e3d 0edd 473d 5376 a53d
00000270: 7cf1 d0bc ab5d 123e 39eb 7cbe f8ec cd3d
00000280: a11c b93b e49a c93d b2d5 763d 09a2 c4bd
00000290: 2ae1 90bb 837e d23d 5851 483e a5ba d63d
000002a0: 3135 1e3c b30b 193e 0947 223e 1b13 1cbd
000002b0: 3953 213d 26da 1a3b 9f35 513e d3e6 533d
000002c0: d76a 293a 4d21 e53d a8db 07bd 37f4 8bbe
000002d0: 9f47 823d b69f 953e e342 41be 7a5e 30bd
000002e0: 036c 91bc a20b 57bd 694f 71bd 57ef 013d
000002f0: a7de e93d 0201 68bc 59c1 8cbd 47ea 25bd
00000300: 29e2 5fbe 03a2 2c3e 929d 85bd 64a0 0b3d
00000310: 6e11 593d c57e 34be 2f2a 413e 5f0d 07be
00000320: fe93 853e a97c bf3d 3a43 623e bb41 c1be
00000330: eef9 36bb 0d92 bf3d a655 39be bd58 4bbd
00000340: 717f a5bd c64b 663d 6187 953e 38a5 35bb
00000350: 6cd6 b1bc 7d4e 373d a171 ec3c 437c f2bd
00000360: 1752 fabd 5fe1 793d 1a83 193d 48aa e2be
00000370: 2e34 f2bd 3a12 ed3d 6069 fd3c ea7d 13be
00000380: 1387 2a3e 6298 66bd 9a81 693d 572e a0bc
00000390: d1f0 fbbc bf07 8f3d 740a 993e 3b32 bf3d
000003a0: 40c7 383c cbe7 07bd 955b f63d f17b 783d
000003b0: d2bd 1abe ce90 91bd a400 9c3e 620a f1be
000003c0: f2b3 b13c b124 d53d 2d71 483d 4219 bebd
000003d0: 373c 653e 215e 02be 754d 9dbc c257 07bd
000003e0: ea98 2d3e 6299 963d 580d cb3d daee a1bc
000003f0: 7ee8 96bb 6f27 e8bc 084f bebc 1e68 7fbd
0.08488868 0.056101415 0.0065261084 0.0587508 0.09624186 -0.08133472 -0.07835633 0.04954389
-0.043881577 -0.025980879 0.39813012 -0.08691029 0.34792572 0.12084512 0.12673192 0.01670971
0.043005694 -0.007325058 -0.21000062 0.17715482 -0.07138659 0.096062675 -0.052505687 0.11714423
0.1417171 0.10035974 -0.061493542 0.11135867 0.011235207 0.040377274 0.20132343 -0.07955089
-0.11119932 -0.022897296 0.08915355 -0.0050774817 0.004264146 0.08632533 -0.046484828 0.21215475
0.09662301 -0.17868155 -0.058323115 0.15455033 -0.09377095 -0.020636996 -0.038329475 -0.042075314
0.2343799 0.07622404 0.110965215 0.04828923 0.11789288 -0.05347539 0.3020924 -0.08042685
0.09680277 0.037748545 -0.016339656 -0.11863674 -0.007943332 0.022941817 0.22952117 0.010675213
0.05699845 -0.08460254 -0.016734758 0.12085681 -0.12181738 0.10058 -0.1356544 0.27556098
-0.02348316 0.17100692 0.28421277 0.05869805 0.24634096 0.12193344 0.2008056 0.20380837
0.04205052 0.3218557 0.25773975 0.07202576 -0.016975475 -0.05792239 0.10195366 0.15353012
0.13656184 -0.0049093813 0.10002683 -0.051136278 0.13900691 -0.022877874 0.32717782 0.0008274355
0.046774924 -0.11116332 0.1474118 0.29184908 0.2957992 0.021382561 -0.098003305 0.21241671
0.070087716 0.08252121 0.10794445 0.08434205 0.07403798 -0.03721936 0.012939427 0.036287595
0.018021254 -0.038206235 -0.27892852 -0.019871246 -0.053317204 0.20225996 0.15828626 0.016303405
0.05781531 0.0684078 -0.12093971 0.13486531 0.09241457 -0.075377524 0.27264693 0.107317105
0.113566436 0.013802631 0.09524984 0.2803241 0.08728768 0.030463325 0.19203968 0.18683374
0.0755233 -0.06426702 0.12582953 0.5806582 -0.098674655 -0.20996174 0.030567564 0.08582222
-0.041065983 0.039077427 0.040049456 0.19656254 0.0043124687 -0.01337664 0.17569077 -0.08598511
0.28228772 0.04652983 0.0487948 0.08079209 -0.025505774 0.14293544 -0.24699105 0.10054964
0.005649165 0.09843996 0.06026239 -0.09601218 -0.004421373 0.102780364 0.1956228 0.10484818
0.0096562365 0.14945869 0.1584741 -0.038104158 0.039386008 0.0023628562 0.20430611 0.051733803
0.0006462759 0.11187992 -0.033168465 -0.2733476 0.06361317 0.29223412 -0.18873172 -0.04305885
-0.0177517 -0.05250133 -0.058913622 0.031722393 0.11419421 -0.0141603965 -0.06872816 -0.040506627
-0.21863617 0.16858678 -0.06524195 0.034088507 0.052995138 -0.17626484 0.18863748 -0.13188694
0.26089472 0.09349949 0.22095957 -0.3774546 -0.0027919966 0.09354029 -0.18099079 -0.049645174
-0.08080948 0.056224607 0.29204848 -0.0027716886 -0.02170869 0.044752587 0.028862776 -0.11840107
-0.12222689 0.061005946 0.037478544 -0.4427054 -0.11826359 0.11575742 0.030934036 -0.14403501
0.16653089 -0.056297667 0.057008363 -0.019553347 -0.030754479 0.06983899 0.29890788 0.093357526
0.011277974 -0.03318004 0.12029187 0.060665075 -0.15111473 -0.071076974 0.3046924 -0.47078234
0.02169225 0.10407389 0.048936058 -0.09282161 0.22386251 -0.1273122 -0.019201973 -0.033042677
0.16952863 0.07353474 0.099146545 -0.019767214 -0.004605352 -0.028339116 -0.023231044 -0.062355153

model.2.bias f4 [128]
00000000: 19ff c13e c5db 5c3d 958a 0c3d 6571 d43a
00000010: 55ed b0bd 45ed 3b3e d2fc 55bc 29f1 173d
00000020: 8ba1 b03c 7f80 62bd 0809 7ebd 2052 93be
00000030: 6325 b13c c146 b53a c7b9 2cbe 7ae0 70bc
00000040: 10fb 14bc 8b26 2c3e b862 b3bd ed68 33bd
00000050: 5414 d93c d9a5 573e effd a73b f814 853e
00000060: c981 953d cf64 893e aed1 94bc d66b 3dbd
00000070: d9cb 853d 9a8c cdbc 5c1b 323e 84cd 84bd
00000080: a04a ba3e 66ea acbc 1777 a13b ff90 88bd
00000090: a379 863b bf16 413d 69d1 6fbc f67d 59bd
000000a0: f880 403e 45b5 32bc 4fe6 8a3d e314 6abd
000000b0: fdb3 a9bd b87d cdbd 55f6 2d3c b0e9 743e
000000c0: 3c5d 4cbd 7fe5 b03e 1916 483c 0e40 b5bc
000000d0: d3af aabc 9844 96bc 21f2 19bd 06a6 123d
000000e0: 5d47 2bbd f74b 203e cef7 743e 2830 03bd
000000f0: ef68 65bd 6027 513e c0f5 91be ee6a 653d
00000100: 8c50 203e 4c06 473d 5461 a43e c26c cabd
00000110: 3303 a43d 7810 8c3e 97c5 15bd 5a89 cf3d
00000120: 27a2 9bbd 82cf ef3d f761 bf3e f4f2 a0bd
00000130: d671 d3bc ddc6 b5bd 1422 133e 3c85 f0bc
00000140: 77ca 703b 5e3c d03d e057 89bc 2d73 0e3e
00000150: 44d5 90bd 0e5c d53d 0172 403e 4216 b9bd
00000160: 2900 8c3e 4b42 a53d 89a8 763e 33ed dabc
00000170: 9e30 b3ba 019d d9bb ca61 f53c dc3c 653d
00000180: 1b8a 643e 42b4 443c 7e1a 80bd 0c9b e33c
00000190: 1366 993d cc1c 2e3e dc7e b83d 32c3 373e
000001a0: abfd d1bd 10fc d6be 748a 58bd 743e 2fbd
000001b0: ebd6 f03d 3524 dc3e 953f 013e 651f 5dbd
000001c0: bce2 aa3d 9ff9 cb37 a256 8f3e aa30 073d
000001d0: f772 0fbe e19f 0d3e 7789 bd3e e409 c23d
000001e0: b05e 463e 6f44 cd3e 9342 12bd 5e07 91bd
000001f0: 6884 3dbd dc45 d0bc 1224 533d 93c1 18bc
0.37889937 0.053920526 0.03431185 0.0016208111 -0.086390175 0.1835223 -0.013060765 0.037095223
0.021561405 -0.055298325 -0.06202033 -0.28773594 0.021624273 0.001383029 -0.16867743 -0.014701957
-0.009093061 0.16811578 -0.087590635 -0.043801237 0.026498951 0.2105936 0.005126707 0.2599256
0.07300145 0.26834723 -0.01816639 -0.04624542 0.065330215 -0.025091458 0.1739325 -0.064845115
0.3638506 -0.021107864 0.0049275267 -0.06668281 0.0041038557 0.047140833 -0.01463733 -0.05309864
0.18799198 -0.010907476 0.06782209 -0.057148825 -0.08286283 -0.100337446 0.010617812 0.2391727
-0.049893603 0.34550092 0.0122123 -0.02212527 -0.020835793 -0.018343255 -0.037584428 0.035802864
-0.041816104 0.15653978 0.23922655 -0.032028347 -0.056008276 0.20425177 -0.28507805 0.05601018
0.15655726 0.04858999 0.32105505 -0.09884025 0.08008423 0.27356315 -0.03656539 0.101336196
-0.075992875 0.11709501 0.3737943 -0.0785884 -0.025811117 -0.08875821 0.14368469 -0.029360406
0.0036741772 0.10167764 -0.016765535 0.13911124 -0.07071927 0.10417949 0.18793489 -0.090374485
0.27343872 0.08069285 0.24087729 -0.026724434 -0.0013671105 -0.006641031 0.029953856 0.055966243
0.22318308 0.012005867 -0.06255053 0.027783893 0.07490172 0.17003173 0.090085715 0.17945555
-0.102534615 -0.41989183 -0.052866414 -0.04278417 0.11759742 0.42996374 0.12621911 -0.05398502
0.083440274 2.4315725e-05 0.27995783 0.033005394 -0.140087 0.1383052 0.3701894 0.09474543
0.19372058 0.40091273 -0.03570802 -0.07081483 -0.04626885 -0.025423937 0.05154807 -0.009323495

model.4.weight f4 [64, 128]
00000000: 3fc0 723e 4c72 dd3c ba8c 523e c81f e3bd
00000010: b3fd fcbd d89f 32bd 5c9f 9c3d fbc2 2c3d
00000020: 0b10 97be 44d1 083d 77e9 a5bc 02a2 dabe
00000030: 5d5d f9bd 444f 46bd e36a 9bbe 0b1a be3d
00000040: 9467 aa3c e5f4 77be 6b9d 0bbd 2287 46bd
00000050: d09f 043c b1be 0cbf acdd d13d 1c49 2f3e
00000060: f9fe 653e 5bd9 acbe b73d 4c3e c1d5 09bd
00000070: 43b3 ae3d 8295 563d 9fc6 563d 8947 4e3d
00000080: ec09 fe3c 4146 e6bc f279 993e 56ae 283d
00000090: 8808 72bc e690 323e a2b6 b73b c548 0b3d
000000a0: fadc 2e3e 7d7f c5bd c537 0dbe 213f 99bc
000000b0: df59 023c 962c a93d 8590 27bc 69b9 1dbd
000000c0: 18cc a8be f596 88bf d798 26bd 0cc1 eab9
000000d0: 12b1 a13c 3ecf 7f3d 5b83 b23d 3741 05bd
000000e0: 057c c4bc 3169 dbbc c294 81be 8704 9dbc
000000f0: 3e32 853d 57e2 cc3c dab9 013f fa5c 7e3e
00000100: ac88 17bd 5ef2 d53d a3c1 bf3d ea11 e4bc
00000110: c8b4 7bbe 386b 1b3e 72b4 80bd c1d9 043f
00000120: 0582 113d 0ad9 a33e 246c 28be 7c41 e13d
00000130: 57a1 87bd 6514 a13c f74a d13e bc15 f63d
00000140: 54c5 763c 289a 90bd bdec 663d c8d2 603f
00000150: b8ee b43d e12f 3a3d 6533 6bbe 5f29 963d
00000160: b042 393e c716 de3c 8966 a9be e468 1dbd
00000170: e27f 0abd e8f3 b13d 5bdd f43e 37a5 cfbd
00000180: a0b8 96be 648e 953d 2bfd 82be c452 25bd
00000190: 9532 cb3b 6825 c83d d1e4 403d f3ae 2f3e
000001a0: 6418 22bd eb83 34bf 48c0 26bd c86b 1bbc
000001b0: 8ad9 96bd 58e0 34bd 8b38 953e f869 b83c
000001c0: d161 783e 321c 1f3e d020 c33e b284 2bbe
000001d0: c75a 25bc d58f bc3c e8c8 033e 8752 2b3e
000001e0: 70fa 923d 9e32 1e3f 7dba 003d ea9b 2fbd
000001f0: a0ce 54bd 9499 f7bc c90d 20be 4180 79bd
00000200: 921a 6b3c 5246 643d f16a 403c 1d1b 7bbc
00000210: e139 9abc 9c10 ca3d e8a8 e1bb ed59 003c
00000220: 662e 613d c829 06bd 8f4b 87bd 43ec 773d
00000230: 23f4 333d 3425 aa3c c457 c2bd c635 413d
00000240: 0957 a3bc bb28 b5bd 7adb 7bbd 1a6b 8d3d
00000250: 4466 a8bd f0c9 abbd bf3c 883d 4335 673d
00000260: 6e95 9a3c a95a 6fbd a37f c5bd 6091 dabb
00000270: 7947 e1bb da06 41bd 1c80 34bd 5e85 3a3d
00000280: 6a98 8dbd 4e02 4dbd 050f 00bd a6e6 b2bd
00000290: fb76 7b3d f47f 1fbc b054 9d3c fbb9 0e3d
000002a0: a056 9a3c 10af 123d a9e8 a6bc 15d3 9c3d
000002b0: 4007 09bc 64c0 9cbd c1b9 033d 8a46 863d
000002c0: 2eec 01bd 105b 90bc ea00 543c f91d 9a3d
000002d0: 8005 a8bd 7ecc 23bd beec 57bd ae17 93bd
000002e0: 1fdd 7abd 7871 3cbc 356d b5bd 124b 9fbd
000002f0: 34b6 59bd d5ce 9d3d 40f5 3d3d 7764 acbc
00000300: a28d b2bb 1a2c 8abd e753 1abd 2037 903c
00000310: 911c 2ebd 1dc7 c6bd 9c3e 99bc b91d 9fbd
00000320: e0a2 27bb 242a e93c dc40 70bc aa23 d73a
00000330: 420a 83bd 364a 5d3d 4c72 3bbd 1361 803c
00000340: 0623 183d b15e ed3c 35a1 253d 86a7 6e3c
00000350: e04f 3abd f2c0 663d 1587 abbd 83a8 803d
00000360: 4e21 98bc f3a6 92bd 56f8 13bd 68fd f1bc
00000370: 3a60 54bd eeca 393d 38ae 13bd efb7 613d
00000380: 30d7 86bd 0e95 403d 31ef adbd ea4d 973c
00000390: ace1 babd 7c8a 88bd b8ea a8bd 3cef 713b
000003a0: ad76 873d 30d1 babc 2247 713d 4586 653d
000003b0: 66d0 b8bd c022 1ebd 511a cdbd 918c bcbc
000003c0: 6700 a1bd b738 063c 6061 a13c 7c1a 3ebd
000003d0: b0cc 66bc 8050 cabd 9866 903b 5ea5 f0bc
000003e0: dc0f 743d a848 55bd d754 48bd 182c 2fbd
000003f0: f6ec 353d 54d1 c8bc 01b8 803b 2e6f 5b3d
0.23706149 0.02703204 0.20561495 -0.11090046 -0.12353077 -0.04360947 0.07647583 0.042178135
-0.29504427 0.033402696 -0.020252926 -0.42701727 -0.12176011 -0.048415437 -0.30354986 0.09282311
0.020801343 -0.24214514 -0.034085672 -0.048468716 0.008094743 -0.5497847 0.10247359 0.17117733
0.22460546 -0.3375958 0.19945417 -0.033651117 0.08530285 0.052388676 0.052435514 0.05036119
0.03101059 -0.028109672 0.2997585 0.041181885 -0.014772542 0.17438087 0.0056064883 0.034004945
0.17076483 -0.09643457 -0.13790806 -0.01870686 0.007955997 0.08260457 -0.010227327 -0.0385069
-0.3296821 -1.0671068 -0.040673103 -0.0004477579 0.019737754 0.0624535 0.0871646 -0.032532897
-0.023984918 -0.026783558 -0.25308806 -0.019167198 0.065037236 0.025010271 0.5067421 0.24840155
-0.036995575 0.104466185 0.09363105 -0.027840573 -0.24580681 0.1517762 -0.06284417 0.51894766
0.035524387 0.32001525 -0.16447502 0.10998818 -0.0662257 0.019663045 0.40877506 0.12015864
0.015061695 -0.07060653 0.056378115 0.87821627 0.088345945 0.045455817 -0.22968824 0.0733211
0.18091846 0.02711047 -0.3308604 -0.03843011 -0.033813365 0.086890996 0.4782513 -0.10138934
-0.29437733 0.073025495 -0.25583777 -0.040362135 0.006201098 0.0977276 0.047093216 0.17156582
-0.039574042 -0.7051379 -0.040710717 -0.009486146 -0.07365711 -0.044159263 0.291447 0.022511467
0.24256064 0.155381 0.3811097 -0.16749838 -0.010092444 0.023017803 0.12869608 0.167307
0.071766734 0.61795986 0.03142785 -0.0428733 -0.051954865 -0.030224599 -0.15630259 -0.060913328
0.014349597 0.055731125 0.011744247 -0.0153262885 -0.018826427 0.09866449 -0.0068865903 0.00783394
0.05497589 -0.03275469 -0.066062085 0.06052805 0.043934 0.020769693 -0.09489396 0.047170423
-0.019938963 -0.08845659 -0.061488606 0.069051936 -0.082226306 -0.08388126 0.066522114 0.05644728
0.018870082 -0.05843607 -0.096434854 -0.006670162 -0.0068749753 -0.047125675 -0.044067487 0.045537345
-0.06913836 -0.050051026 -0.031264324 -0.08735399 0.061392765 -0.009735096 0.019205421 0.034845334
0.018840134 0.035811484 -0.020374613 0.07657448 -0.008363545 -0.07653883 0.03215957 0.06556423
-0.03171938 -0.017621547 0.012939671 0.07525248 -0.08204174 -0.03998994 -0.05271601 -0.07182251
-0.061246034 -0.011501662 -0.0885872 -0.077779904 -0.053152278 0.07705466 0.046376467 -0.021044
-0.005449013 -0.06746693 -0.03767767 0.01760441 -0.04250771 -0.097059466 -0.018706612 -0.07769341
-0.0025579259 0.028462477 -0.014663901 0.0016413827 -0.06398441 0.05402585 -0.0457633 0.015671289
0.037142776 0.028975816 0.040436942 0.014566308 -0.04548633 0.05633635 -0.08375374 0.06282141
-0.018570568 -0.07160749 -0.036125503 -0.029539779 -0.05184958 0.045359544 -0.03605482 0.055107053
-0.065840125 0.04701715 -0.08492888 0.01846977 -0.09125075 -0.06667039 -0.08247894 0.0036916276
0.066144325 -0.022804826 0.05890573 0.056036253 -0.09024124 -0.03860736 -0.10014785 -0.023016246
-0.07861405 0.008192233 0.019699752 -0.046411976 -0.014086887 -0.098786354 0.0044067614 -0.029375728
0.059585437 -0.052071244 -0.048909035 -0.04276666 0.044415437 -0.024513878 0.003928185 0.053572826

model.4.bias f4 [64]
00000000: 5cab 6d3e aaa6 c4bb 5dc5 253e 2a55 a83d
00000010: 9006 d23e 4501 703e faa3 193e 54c4 8abc
00000020: 91b3 813e 75fc 963b 6027 933e 5eb4 31be
00000030: cc00 de3e 2576 b1bd 5565 6d3e 5cc6 d1bc
00000040: 9cd8 aa3b 9ea7 f53e d334 dcbd 1679 ffba
00000050: 5c22 313e 68b3 0ebe 169d 903e 1d18 6d3b
00000060: cb42 abbc 8463 113e d69e 8dbb bf8a 103f
00000070: 1ba8 17be 4459 6c3d ae4d 42bd d767 3b3e
00000080: 98cc 873e 7700 febd 6a3b 84bd b77b 973d
00000090: 2c08 3b3c 13a4 fa3c fd5c d63b 76d9 243e
000000a0: 1476 463e e45b ac3e 7ee4 b8bd 12bc 543e
000000b0: 50d1 bdbd 0871 e13e 65a3 f9bd 8079 553d
000000c0: 9d2f 2bbb fc3f c2bd 9ef9 013d 8947 ce3e
000000d0: 0592 c93d 5453 483e 113c 2a3e f3b1 583d
000000e0: 2e76 5a3d a455 8fbd d14e b3bd e51f 583e
000000f0: 7e70 02bd cf0d 02be 4b48 20bd cb92 e73b
0.232099 -0.006001313 0.1618857 0.08219369 0.41020632 0.23437984 0.15003958 -0.01693932
0.2533231 0.004607732 0.28740978 -0.17353961 0.43359983 -0.086651124 0.23183186 -0.02560728
0.00521381 0.47979444 -0.10752263 -0.0019491042 0.17298263 -0.13935626 0.28244847 0.0036177703
-0.020905873 0.14198118 -0.0043219132 0.5646171 -0.14810221 0.057702318 -0.047437362 0.1830133
0.2652328 -0.124024324 -0.06456645 0.073966436 0.011415523 0.030595815 0.006541847 0.1609858
0.1938098 0.33663857 -0.090279564 0.20774868 -0.09268439 0.44031549 -0.12189368 0.052117825
-0.002612091 -0.0948486 0.031732194 0.40288952 0.09842304 0.19563037 0.16624476 0.05290408
0.05333536 -0.069987565 -0.087552674 0.21105917 -0.031845562 -0.1270058 -0.039131444 0.0070670596

model.6.weight f4 [32, 64]
00000000: eb6f 8b3d c8a2 5dbd 189d 5abb 8bcc eabd
00000010: 2e43 32be b3e1 343d 9068 3b3d fbc2 c33d
00000020: c48b c33c 5959 f9bb 24d9 cabc c5fc 49bd
00000030: 3acf 9dbd e47c a3bd 58a6 58bd e2ca b9bd
00000040: 4fda 91bd 330c 2bbe 80a0 2dbb ad9d 903d
00000050: b870 16be 737e 1e3e bf26 733d 938f 663d
00000060: ad9e 85bd 01ec 20be 370d edbc d3e9 9a3c
00000070: def2 7b3d 00ce 1abe 5957 fabd 2fb7 d43d
00000080: cc85 e23d 08e0 2e3d 1fc5 613d d75f e9bd
00000090: cde2 2bbc 4d67 69bd e493 17be 77eb 2abe
000000a0: 4c0c 1a3d 8307 f9bb e0c4 eb3b 2be5 20be
000000b0: 2818 8f3c 780d d7bd 9bd1 cabd bd0a 24bd
000000c0: 125e ddbd d93d c2bd badb 2f3d eae3 a8bd
000000d0: 1722 55be 12be 3fbd 7290 07be 9b67 783c
000000e0: d659 72bd cc05 f8bd 4612 61bd 3ed1 453d
000000f0: bda8 0cbd 24cf 9dbd f4cf c53d 47a0 be3d
00000100: befb 87bc aaa7 e1bd 5ec5 96be 3a5d 173e
00000110: 4382 b83e 58b4 4cbe a1b7 08be 3011 d03d
00000120: a7ee 80be 257f f9bd bce7 7abd 8095 0abe
00000130: 84fe f43e a7cc 813d e530 e4bd 835a 423e
00000140: 809a 5ebc 41f5 673e e6f9 f33d 33b2 c43d
00000150: 24c9 1cbc 69be aabc 2c5a c8bc b34d a93c
00000160: a909 a23e 0e34 ab3e 8700 a8bc 07c2 c03e
00000170: e951 9ebd d0e8 a5bd 6af1 2ebe 5fce f4bb
00000180: dd85 743e 2f1a b0bd 643a 27bd cb7a 0e3d
00000190: daa4 0c3e 2f57 863d 8604 e1bc 13cc 6fbe
000001a0: 689d 31bc 8206 c43e f834 5e3d 9049 603e
000001b0: f49a 18be d05a 083e f5af 0e3d 4a7c d13d
000001c0: d0f2 3abe 38d7 703b 6bbc ae3d ff80 8b3e
000001d0: 92b6 743d ad13 313e 7fe6 7b3e 48b3 3b3e
000001e0: 2e8f 723e 8c56 b83d 2041 863d 0a68 1b3e
000001f0: a26d b2bc dc55 0a3c 216c 06be 0d06 853d
00000200: 397a c23c e688 e2bc d749 cbbd 5fba 153d
00000210: c34d 81bc 6d6d 323e f308 373e a9be d9bb
00000220: 4048 7d3e e5f0 303d fa93 87bd 864a e1bd
00000230: 32b2 133e 6f20 d73d 0af5 2dbe 71ed 0c3e
00000240: f839 f53d 1e11 f0bc af38 953d c623 fb3d
00000250: 7f3a 093e 79f3 613e e2f6 78be 8af6 b5bd
00000260: b335 093e 637e 6536 3d88 e93d a42f 08be
00000270: a558 943d 9ef9 de3d 9205 17bc 920c f43d
00000280: 29b6 403e dc56 813d 0cfa 023d de1f 03be
00000290: 9791 c6bc 4785 c03c 6283 e5bd 6b95 073d
000002a0: 5d74 81bd 5c00 173d 1265 023d 90ca 44be
000002b0: 7851 d9ba 2caa a8bb 7171 a3bc 3149 a83d
000002c0: 9988 153e 77bd c1bd 4b56 823c 95a7 fcbd
000002d0: a979 fb3d 1585 fabd 0ea1 48bd 8f2e 743d
000002e0: a99e 81be ec57 0b3d 91db bdbc a0ec bebe
000002f0: dc74 833d e0f7 84bd 6f40 543d 69ee bdbc
00000300: 7edb 1e3e 9169 8dbc ec15 1fbe 8c99 d4ba
00000310: f167 a23e 5ff0 f8be f725 59be 4830 a53c
00000320: 5266 d13c 5389 e43d 6289 89bf 5168 b13c
00000330: 3d09 4c3d c3b7 3c3d 73a2 973d 0fba 98bd
00000340: 7540 bd3d a16d 32bd 5694 03bd 0ae6 52be
00000350: b598 26be b23d d13e 14e1 973d f13d 32bd
00000360: 9540 ac3c ecd3 1d3e 1ec6 113e 35ff 013c
00000370: 135d 36be ff28 423d efd4 36be a084 1dbe
00000380: 59c4 db3e 9a44 973c 7f8e d5bd e183 1fbe
00000390: 8a9c d8bd 2c0f 80bd 5c00 5ebe 49db 12be
000003a0: 2bf9 433d eafd 69be f6d6 6d3c fb89 f13c
000003b0: 6f39 9fbd fd1f 26bf bb70 d4bd f7a6 d13d
000003c0: 3609 9c3d 74fe 683c 7bb0 3d3d 9d20 70bd
000003d0: 2399 7fbe cf3a 14be 14bf 4fbe bd7c 7fbe
000003e0: 0605 43be f155 7cbd ef7b 043e 19eb 41bf
000003f0: ae5d f83d db9b 303d d0d7 0f3d 489d f6bd
0.06808456 -0.05411032 -0.0033357795 -0.11464795 -0.1740844 0.044160556 0.045754015 0.09558674
0.023870356 -0.007609528 -0.024761744 -0.049313325 -0.07705541 -0.07982805 -0.052893013 -0.090719
-0.07121717 -0.16703872 -0.002649337 0.07061324 -0.14691436 0.15477924 0.059363123 0.056289267
-0.06524406 -0.15715028 -0.028936965 0.018910324 0.061510913 -0.15117645 -0.122236915 0.10386502
0.11060676 0.04269412 0.05511963 -0.11395233 -0.010491085 -0.05698328 -0.1480251 -0.16691385
0.037609383 -0.0075997724 0.0071951 -0.1571242 0.017467573 -0.10500616 -0.0990326 -0.040049303
-0.10808958 -0.09484453 0.042934157 -0.08246596 -0.20813785 -0.046812125 -0.13238695 0.01516142
-0.059167705 -0.12110481 -0.054949068 0.048295252 -0.03434061 -0.077055246 0.096588045 0.09307914
-0.016599532 -0.110183075 -0.29447454 0.14781657 0.36036882 -0.1999067 -0.13351299 0.10159528
-0.25182077 -0.12182454 -0.061256155 -0.13533592 0.4785043 0.063378625 -0.111421384 0.1897984
-0.01358664 0.2265215 0.11912899 0.09604301 -0.00956944 -0.020842748 -0.02445706 0.020666933
0.31647995 0.33438152 -0.020508064 0.3764803 -0.07730467 -0.08101046 -0.1708428 -0.0074708904
0.2387919 -0.08598744 -0.04082717 0.034785073 0.13734761 0.06559598 -0.027467977 -0.23417692
-0.010840751 0.38286215 0.054249734 0.21903062 -0.1490286 0.13315892 0.034835774 0.102287844
-0.18256688 0.0036749374 0.085320316 0.27246854 0.059744425 0.17292662 0.24599646 0.18330109
0.23687431 0.090008825 0.0655539 0.15176407 -0.021780793 0.008443322 -0.13127185 0.06495295
0.02373992 -0.027653169 -0.09926193 0.03655469 -0.01578415 0.17424555 0.17874508 -0.006645043
0.24734592 0.043198485 -0.06620021 -0.11000542 0.14423445 0.10504233 -0.16988006 0.13762452
0.11973947 -0.029305037 0.07286202 0.122626826 0.1340122 0.22065534 -0.24312928 -0.08884914
0.13399391 3.4197226e-06 0.114029385 -0.13299423 0.0724347 0.108874545 -0.009217637 0.1191646
0.18819489 0.06315395 0.031976745 -0.12805125 -0.024239345 0.023501052 -0.112067 0.03310148
-0.06321023 0.036865577 0.03183467 -0.19217896 -0.0016580066 -0.005147239 -0.019951554 0.08217085
0.14602889 -0.09459966 0.015910288 -0.12336651 0.12279064 -0.12232415 -0.04898172 0.059614714
-0.2531636 0.034019396 -0.023175986 -0.37289906 0.064187735 -0.06492591 0.05181926 -0.023184972
0.15513417 -0.017262252 -0.15535706 -0.0016220077 0.31719926 -0.4862089 -0.21205889 0.020164624
0.025561485 0.11159005 -1.0745051 0.021656187 0.049813498 0.046073686 0.074040316 -0.07457363
0.0924081 -0.04356158 -0.032123886 -0.20595565 -0.1626919 0.40867382 0.07415977 -0.043516103
0.021026889 0.15412873 0.14235732 0.007934381 -0.17808942 0.04740238 -0.17854665 -0.15382624
0.4292324 0.018465329 -0.104275696 -0.15577652 -0.105767325 -0.06252894 -0.21679825 -0.14341463
0.047845047 -0.22850767 0.014516583 0.02948474 -0.077746265 -0.6489256 -0.10373064 0.10236924
0.07618944 0.014220823 0.046310883 -0.058624852 -0.24960761 -0.14475559 -0.20287734 -0.24949928
-0.19044885 -0.061605398 0.12937902 -0.75749356 0.12127243 0.043117385 0.035117924 -0.12041718

model.6.bias f4 [32]
00000000: 687e 303d eadd 143f 8bf2 e9bd bd29 ec3d
00000010: 7bff b03d c8ae 013f 3a6f 703e 8a13 d23c
00000020: 6b06 0b3e 3060 663e 60ad 213f 98d4 b6bc
00000030: 8a55 a3bd bc64 22be 48fc 1c3c 248a 663e
00000040: 7295 c33e f4b0 ef3d 5a8d 093e e693 6b3e
00000050: a558 ee3d 387c 793e 3155 33be 8d15 a4bd
00000060: 71af 66bc 3e43 d23d da93 153e d1ac 013f
00000070: ab02 b53e a5dc a33e 7171 643d 77ab 5e3e
0.0430893 0.58151114 -0.114232145 0.115313984 0.08642479 0.5065732 0.2347993 0.025644083
0.13576667 0.2249763 0.63155174 -0.02231817 -0.079753 -0.1585874 0.009581633 0.22513634
0.38199955 0.11703673 0.13432828 0.23005638 0.11638001 0.24363792 -0.17512967 -0.08011923
-0.014079914 0.10266732 0.14607182 0.5065432 0.35353598 0.32004276 0.05577225 0.21745096

model.8.weight f4 [10, 32]
00000000: 7969 d63d c176 523e e721 93be 5b67 d0bd
00000010: 41e6 7dbc 5034 933e d666 be3c fb4d 063c
00000020: 6416 15be c150 d43c d724 9b3e 9927 1cbe
00000030: 31ed a33c b70a 12bc a758 303e 6fbf 793e
00000040: 5e40 913e 28aa b9be 5697 fd3b 28a3 523d
00000050: 52cd bebd 58a3 993e 7280 aa3d c78b 623e
00000060: 9c84 81bd 0e2f 5abe 7e64 223d f93c 223e
00000070: e17f f93d 9057 323e 9cae 38bc 9cec 41be
00000080: 1e93 76bd 840b 933e 742f 10be cb41 543d
00000090: 2c2c 313d 7981 b43e 6fde 6abd fbb3 9bbc
000000a0: 4af5 39be 0cba 1cbe cc2c 003e 54fc 33be
000000b0: 4400 8f3d a928 063e 0d9d 02be ab23 773e
000000c0: 079f 533e f16b 97be 8648 da3d 3282 1a3e
000000d0: 7967 10be bacc 573d 8dd9 6dbd 5ca7 473e
000000e0: 0c35 19be 426f 8abe b696 b33d 70e9 ae3e
000000f0: 31cb be3d cfd7 703e b763 ebbd c0d6 45be
00000100: 1c63 053e b0ee c93e 6fa8 0fbe e64d b83d
00000110: 031d 333d b6ef b33e b64b 8c3d 64b0 f93c
00000120: b869 20be eea0 25bd f02b 3f3e ac4e cbbb
00000130: d3c3 063e 32b7 e63c 9861 223e 2188 8c3e
00000140: b7c7 183e 05ba 8fbe bc12 c7bd cd80 ef3d
00000150: 6037 b9be c090 193e d13c 9f3d eacd 853d
00000160: 686a 72be ff60 58be 72d9 1abe 7b28 5f3d
00000170: 2e10 833d fabb 243e cd0e d83d 6729 0bbe
00000180: 9a66 293c b1af a33e 2137 40be fdf7 8abe
00000190: c753 953d 42d4 6f3e 44af 3e3e 1a0f 393d
000001a0: dfed 62be ad4a 0d3e 26ff 913e 9463 53be
000001b0: aa7f 6c3d c03b 9b3d f1b9 043e b8e8 a43d
000001c0: 1a84 093e 249a 5dbe c68d 9abd 72bf 103d
000001d0: 2065 31bd 1177 1f3e 9144 fabd 4b09 15be
000001e0: 124d 75be db48 a0be 2cf7 8bbd 459e 443e
000001f0: 1ad4 eb3b 3157 893e 94ff c33b 9541 16be
00000200: e4e9 15be d66c 173e 3e65 65be 9403 8f3d
00000210: 2252 113e e589 833e d883 25bd b527 af3c
00000220: 5b10 79be 8d82 8a3d 4438 8f3e d05c 93bd
00000230: 37c8 cd3d 8020 20bd cf79 213e 0a83 92bc
00000240: b50c b03e 27fe 93be 2a38 0b3e 3365 bd3d
00000250: 87b5 69be d911 443e 82fb 07be 1c78 83bd
00000260: 59cf 21be 4651 2fbe 9295 b6bd ecd0 3f3e
00000270: 7ea3 0cbe 44b1 9b3e bd69 e03d a610 52be
00000280: 3fe0 a13d 1f59 b03e bad0 97be f176 c2bc
00000290: 8cc5 afbd 21e3 3a3e f192 383e a457 8fbd
000002a0: 6fdc 51be 380c 5f3e c667 3e3e 450b 19be
000002b0: ba63 873d 8b9a a7bc 46b1 dd3d 8ff2 563d
000002c0: 11b9 b23e 1037 58be 7361 a63d a515 ae3c
000002d0: e5f6 22be dd42 033e 8872 923c d8f3 0e3c
000002e0: a8c7 55be 6b72 4fbe 874b d1bc e58f 293e
000002f0: 1ef2 6b3c 2b3b 4f3e 1f91 383e 647a 72be
00000300: 63f1 afbd 68bb ad3e 12c0 bdbd e3ed b03c
00000310: 34c2 db3c 7bc3 473e 5045 113e 73d6 fb3b
00000320: 286c 33be 6616 ee3d bd3f 873e 6678 873b
00000330: 2124 a3bd 4fba 1fbd dc20 c53d 5924 263e
00000340: b94e 833e 2f93 a7be 24ff 443e bcae d33d
00000350: 1189 00be 38b0 ff3d a0dc 66bd 465e 143e
00000360: 3e5c b3be d469 3bbe c689 b03d 7681 323e
00000370: 3150 293e 96f2 7d3e 8d3f a5bb 501d 37be
00000380: 361f afbd 3b8e c63e edeb 17be 34b3 763d
00000390: 506e 2a3e 4ea0 9c3d 6f13 3dbd 1a02 1f3d
000003a0: db36 08be 79e0 10bd c93a 853e ac62 3ebe
000003b0: 5c3c 87bd 3b77 6cbc 3405 ff3d 3c35 98bd
000003c0: a2c2 993e 52bc 0fbe 79ec 943d c9c9 943d
000003d0: 3e2f 13be 2a0e 3f3e ee85 843d 022d 853d
000003e0: e360 4bbe 600b a9be 3399 fb3d c61e 533e
000003f0: 4369 4ebd 53f7 263e 11d6 1bbe 0276 bdbe
0.10469336 0.20553114 -0.28736803 -0.101759635 -0.015496791 0.2875085 0.023242395 0.008197303
-0.14559323 0.025917413 0.30301544 -0.1524948 0.020010563 -0.008913687 0.17221318 0.24389432
0.2836942 -0.3626263 0.007738988 0.05142513 -0.093165055 0.30007434 0.0832528 0.22123633
-0.06324121 -0.21307012 0.039646618 0.15843572 0.12182594 0.17416215 -0.011272099 -0.18937916
-0.060198896 0.28719723 -0.14080602 0.051820558 0.043255016 0.3525503 -0.057341035 -0.01900672
-0.18159977 -0.15305346 0.12517089 -0.17576724 0.069824725 0.13101448 -0.12755223 0.241347
0.20666133 -0.2957454 0.10658364 0.15088728 -0.14101972 0.052685477 -0.0580688 0.19497436
-0.14961642 -0.27038008 0.0876898 0.34162474 0.093160994 0.23519824 -0.114936285 -0.19320202
0.13026088 0.39439917 -0.14029096 0.08999233 0.04372884 0.35143822 0.06850378 0.030479617
-0.15665329 -0.040436678 0.18669105 -0.006204447 0.13160639 0.028163526 0.15857542 0.27447608
0.14919935 -0.2807161 -0.0972037 0.11694489 -0.3617506 0.14996624 0.07775272 0.065334156
-0.23673403 -0.21130751 -0.15122011 0.054481965 0.063995704 0.16087332 0.10549698 -0.13590012
0.0103394035 0.3196998 -0.1877103 -0.27142325 0.0729137 0.23420814 0.18621546 0.045180418
-0.22161053 0.13798018 0.28514975 -0.20643455 0.057738937 0.07579756 0.12961556 0.080522
0.13429299 -0.21640831 -0.075465724 0.035338826 -0.04330933 0.15572764 -0.12220109 -0.14554326
-0.23955181 -0.31305584 -0.06834254 0.19201 0.0071969153 0.26824334 0.005981395 -0.14673455
-0.14640003 0.14787611 -0.22401902 0.06983104 0.14191487 0.25691143 -0.04040894 0.021381238
-0.24322645 0.06763182 0.27972615 -0.07195437 0.100479536 -0.039093494 0.15769123 -0.01788475
0.34384695 -0.2890484 0.13595644 0.09247818 -0.22823153 0.19147433 -0.13279536 -0.064193934
-0.15801753 -0.17120847 -0.08915247 0.18732041 -0.13734242 0.3040868 0.10957668 -0.20514163
0.079041 0.34442994 -0.29651433 -0.023738356 -0.08582601 0.18250705 0.18024804 -0.06999138
-0.20494245 0.21782005 0.18594274 -0.14945705 0.06610818 -0.020459434 0.10824828 0.052477416
0.3490682 -0.21114755 0.08124056 0.021250555 -0.15914495 0.12818475 0.017876878 0.008725129
-0.20876944 -0.2025849 -0.02554871 0.16558798 0.014400987 0.20237415 0.1802411 -0.23679501
-0.08590963 0.33932042 -0.0926515 0.021597808 0.026826002 0.19508164 0.14186597 0.0076854764
-0.17521727 0.11625366 0.26415816 0.0041342257 -0.079658754 -0.038996037 0.09625408 0.16224803
0.25645998 -0.3272948 0.19237953 0.10336062 -0.12552287 0.12484783 -0.05636275 0.14489087
-0.35031313 -0.18302089 0.08620028 0.17432198 0.16534497 0.2479957 -0.0050429762 -0.17882276
-0.08550875 0.38780388 -0.14836092 0.060229495 0.16643643 0.07647763 -0.04616111 0.038820364
-0.13302176 -0.035370324 0.26021412 -0.18592328 -0.066033095 -0.014432724 0.12452164 -0.07432029
0.30031306 -0.14036682 0.07271666 0.0726505 -0.1437349 0.18657747 0.064708576 0.06502725
-0.19861178 -0.3301649 0.1228508 0.20617208 -0.050393354 0.16305284 -0.15218379 -0.37004095

model.8.bias f4 [10]
00000000: e8f5 ffbd 810e 093a 4b01 333d 51fe 2fbd
00000010: b793 61bd 2cd8 a93d 1f15 233e 6900 023e
00000020: 0308 593e 816f c43d
-0.12498075 0.00052282965 0.043702405 -0.042967144 -0.055072512 0.08293185 0.15926026 0.12695469
0.21194462 0.0959158
