checkpoints/checkpoint_step_3900.pth (torch, 200878 bytes, 10 tensors)

model.0.weight f4 [256, 21]
0.13179852 0.006900289 0.10740965 -0.17098205 -0.3231267 -0.17769448 -0.41530636 0.016145878
0.030906491 0.13389423 -0.19150302 -0.05901779 0.26208186 -0.872107 -0.21695434 -0.21114063
-0.0484482 0.07745558 0.11596953 -0.4417934 0.31677696 0.02692692 0.017837064 -0.17429006
-0.079256624 -1.1492834 -0.07521074 0.07999636 -0.087158866 -0.13459311 -0.30264637 -0.0261959
-0.066913374 -0.3345849 -0.34341288 -0.12538795 -0.023768373 -0.04980344 0.15470979 -0.08505341
0.13553846 -0.07140039 -0.054985397 -0.26181346 0.24800079 -0.026826022 0.12801237 0.085936196
-0.4858035 0.10731178 0.15224403 -0.17194363 0.03254432 -0.50496644 -0.11435334 -0.23722488
-0.21597072 0.08939443 -0.32387686 -0.04755575 -0.088578984 -0.18518466 -0.10437004 0.09442364
-0.72994167 0.033491712 -0.4082141 -2.0822546 0.031109862 -0.2395149 0.10972137 -0.0069209347
0.047719065 -0.045364935 0.15699139 -0.009791361 -0.11467674 -0.09835083 0.26584953 -0.10909587
0.1571871 -0.11428507 0.16250934 -0.6596492 0.19738635 -0.12893556 -0.004560751 -0.067646675
0.07483384 -0.2826463 0.18344098 0.18661003 0.05903988 0.022668606 -0.14404283 0.008259943
0.11773083 -0.19143875 -0.2831404 0.092705674 0.21108112 -0.45783785 -0.17789274 0.095641755
-0.02371628 -0.15600342 0.0751339 -0.20060661 0.117508724 -0.06438888 0.09640427 -0.21000715
0.005618896 -0.26970112 -0.10006009 0.054379396 0.2635646 -0.027110659 0.3897101 -0.09061903
0.3718833 0.12697005 0.31246904 -0.17178556 0.21773447 0.11739724 -0.6442387 -0.0625259
0.2900412 -0.36698055 -0.7907868 -0.12559399 -0.27856928 -0.33190075 -0.38324338 -0.056105275
-0.27807274 -0.28179994 -0.07531135 -0.2028886 0.159706 0.16446148 0.10965773 0.099476084
-0.20954049 -0.096975565 -0.100763544 -0.14239901 -0.1285914 0.20048612 -0.1346787 0.20318536
-0.04178924 -0.36164463 -0.058704108 -5.065284 -0.023641674 -0.038411133 -0.00787115 -0.059534788
-0.06389731 0.039491855 0.05601083 -0.045084666 -0.15968655 -0.058937725 -0.20332836 -0.21115793
-0.020444693 -0.12821718 0.07532496 -0.21799606 0.0639887 0.0030131596 -0.350664 -0.10438176
0.18448599 -0.2964508 -0.31650004 -0.35770202 -0.018260613 -0.0775163 -0.17031111 -0.29850963
0.010300555 -0.0693477 -0.2571158 -0.06538978 0.028813953 0.17417365 -0.20689683 -0.3271555
-0.07014685 0.21608746 -0.23560494 -0.27815828 -0.080692284 0.03269993 0.032338645 -0.18564935
-0.5198464 -0.0979195 -0.3438175 0.081479914 -0.1220245 -0.1749132 -0.5245422 0.110215284
-0.21363194 -0.083116755 -0.11312664 0.14678705 -0.1172475 0.045359667 -0.1434112 0.19555514
-0.031813957 0.07428865 -0.089080065 0.0025355525 0.15549628 -0.23052248 -0.08092712 0.55228764
0.16735715 -0.43818027 0.3137328 -0.2548331 -0.07961395 0.24012132 -0.034875996 -0.13695107
0.05845783 -0.13691783 -0.11807529 0.3227254 0.020929974 0.080370545 -0.07466414 -0.43169236
-0.20463969 -0.17158811 -0.2530663 -0.019911218 -0.09619123 -0.055950083 0.32901353 -0.2382943
-0.29898065 -0.04244237 -0.11053559 -0.05789415 -0.040382285 0.1557842 -0.15103064 -0.27003482
00000000: 31f6 063e d21b e23b 97f9 db3d eb15 2fbe
00000010: dd70 a5be 8bf5 35be 09a3 d4be 5c44 843c
00000020: 9c2f fd3c 921b 093e 5e19 44be a3bc 71bd
00000030: 982f 863e 6842 5fbf 4729 5ebe 4035 58be
00000040: 9f71 46bd 08a1 9e3d 6f81 ed3d bf32 e2be
00000050: 9730 a23e d895 dc3c 091f 923c 1879 32be
00000060: 4c51 a2bd b81b 93bf 1708 9abd 22d5 a33d
00000070: 5980 b2bd c7d2 09be 77f4 9abe c998 d6bc
00000080: e109 89bd b64e abbe d0d3 afbe b365 00be
00000090: e4b5 c2bc b1fe 4bbd 3e6c 1e3e 7b30 aebd
000000a0: 98ca 0a3e 5e3a 92bd 5e38 61bd 6a0c 86be
000000b0: ebf3 7d3e 3fc2 dbbc ad15 033e 51ff af3d
000000c0: 3dbb f8be 47c6 db3d dce5 1b3e fe11 30be
000000d0: 314d 053d 7b45 01bf 1532 eabd 14eb 72be
000000e0: 6e27 5dbe 6d14 b73d 30d3 a5be d1c9 42bd
000000f0: e668 b5bd 0ca1 3dbe f6bf d5bd 2e61 c13d
00000100: 75dd 3abf 9b2e 093d 7001 d1be a943 05c0
00000110: 1cda fe3c 6543 75be 99b5 e03d 02c9 e2bb
00000120: 1175 433d 95d0 39bd 5ac2 203e f26b 20bc
00000130: a3db eabd 296c c9bd 6e1d 883e a86d dfbd
00000140: a8f5 203e 4a0e eabd d968 263e c5de 28bf
00000150: a61f 4a3e af07 04be 5a72 95bb 578a 8abd
00000160: 7c42 993d 04b7 90be f4d7 3b3e b316 3f3e
00000170: cdd3 713d 83b3 b93c f77f 13be b654 073c
00000180: dd1c f13d 8508 44be c7f7 90be 79dc bd3d
00000190: a625 583e b969 eabe 8429 36be d3df c33d
000001a0: a548 c2bc 5cbf 1fbe cddf 993d d26b 4dbe
000001b0: 6aa8 f03d 51de 83bd 9a6f c53d 1d0c 57be
000001c0: b71e b83b 4416 8abe 4eec ccbd eebc 5e3d
000001d0: f0f1 863e 2c17 debc 1588 c73e 7896 b9bd
000001e0: 7d67 be3e 7004 023e f1fb 9f3e 8ee8 2fbe
000001f0: c9f5 5e3e f76d f03d d4ec 24bf 940d 80bd
00000200: 4880 943e e0e4 bbbe 0171 4abf b69b 00be
00000210: a2a0 8ebe e5ee a9be 7a38 c4be a5ce 65bd
00000220: 8d5f 8ebe 1548 90be d63c 9abd 07c2 4fbe
00000230: f889 233e 9768 283e 3b94 e03d 1eba cb3d
00000240: c891 56be 209b c6bd 1e5d cebd 0cd1 11be
00000250: 77ad 03be 3c4c 4d3e 37e9 09be d30f 503e
00000260: 322b 2bbd 7c29 b9be b873 70bd ce16 a2c0
00000270: 2fac c1bc fe54 1dbd fff5 00bc c0da 73bd
00000280: 98dc 82bd 36c2 213d 9d6b 653d b3aa 38bd
00000290: df84 23be af68 71bd 4f35 50be c939 58be
000002a0: a17b a7bc 5d4b 03be f943 9a3d 5c3a 5fbe
000002b0: 820c 833d 6e78 453b 3b8a b3be 1bc6 d5bd
000002c0: e5e9 3c3e 66c8 97be 4b0c a2be b824 b7be
000002d0: 4897 95bc dec0 9ebd 0966 2ebe 41d6 98be
000002e0: a9c3 283c 2b06 8ebd afa4 83be 14eb 85bd
000002f0: 3d0b ec3c 945a 323e c3dc 53be ed80 a7be
00000300: 27a9 8fbd 0846 5d3e 6c42 71be c36a 8ebe
00000310: ff41 a5bd 5df0 053d 8775 043d dd1a 3ebe
00000320: a714 05bf 058a c8bd d908 b0be f1de a63d
00000330: fbe7 f9bd 721c 33be 6648 06bf 8db8 e13d
00000340: 55c2 5abe 1e39 aabd f1ae e7bd 584f 163e
00000350: 751f f0bd 0fcb 393d 63da 12be 9b3f 483e
00000360: 5a4f 02bd a624 983d 9c6f b6bd 832b 263b
00000370: 6b3a 1f3e 160e 6cbe 1ebd a5bd b962 0d3f
00000380: ac5f 2b3e 2a59 e0be 96a1 a03e 7c79 82be
00000390: a30c a3bd 5de2 753e 22da 0ebd e73c 0cbe
000003a0: 7a71 6f3d 3034 0cbe 75d1 f1bd 433c a53e
000003b0: 5675 ab3c 5099 a43d 83e9 98bd c806 ddbe
000003c0: 118d 51be cbb4 2fbe e891 81be da1c a3bc
000003d0: e8ff c4bd ea2b 65bd 7674 a83e 6c03 74be
000003e0: fe13 99be 0dd8 2dbd 7c60 e2bd 6b22 6dbd
000003f0: e567 25bd e585 1f3e c7a7 1abe 0142 8abe

model.0.bias f4 [256]
0.12391775 0.007821449 -0.22780648 0.17535321 0.4152195 0.13566394 0.107497066 0.10939143
0.18763496 0.178507 -0.21830851 -0.017490588 0.05969973 -0.40686405 0.3272379 0.34743467
-0.09127195 -0.11342914 0.29644936 -0.23811008 -0.08313084 -0.4149216 -0.1163606 -0.16853172
-0.5021476 -0.08646454 -0.21191454 0.14619659 -0.11328576 -0.011694953 0.27038705 0.37937045
-0.17651707 -0.16567898 -0.31362736 0.091804 -0.09848302 -0.32996505 0.031460367 0.09608212
-0.05743316 0.15912947 0.007309738 -0.021024756 0.22658359 -0.1912572 -0.11365041 -0.03644777
0.24003376 -0.12285025 -0.046771295 0.05866311 -0.3606906 -0.28155452 0.21076867 -0.25048724
-0.33333528 0.035834167 -0.34437275 -0.050052058 0.06327096 -0.11805731 0.3152275 -0.12527362
-0.07071959 -0.1608513 -0.061309643 0.30563512 -0.30767587 0.19876456 -0.07188888 0.29636043
-0.048121978 0.116156146 -0.19605649 -0.37166157 -0.16810195 -0.12017365 -0.18617235 0.43136516
0.03329912 0.32899377 -0.4936312 -0.15779783 0.067188144 -0.21246158 0.33661282 0.34403327
-0.04284363 0.0648239 0.2238723 -0.17478032 -0.16233061 -0.1430216 -0.11494389 -0.26824364
-0.2931558 -0.12181413 -0.36013362 0.417999 0.4061194 -0.16151695 -0.073537484 0.2977247
0.11380122 0.16740158 -0.02170611 0.13833188 -0.008625169 -0.13329358 0.028001832 -0.07471731
-0.10734227 -0.08480953 -0.070313424 -0.08922982 0.13418429 0.30940157 -0.039068643 0.15274303
-0.34860024 0.057132985 -0.13727194 0.08226381 -0.105762884 -0.45018247 0.35978213 0.19812502
-0.3090037 -0.24968502 -0.079222485 0.21071345 0.010353425 -0.21674894 0.3959674 0.14601502
-0.12235234 -0.22456269 0.102087095 0.34787428 -0.1202689 0.09367584 0.24302907 -0.042502727
0.25397238 0.32605928 0.08299036 0.11788103 -0.74427503 -0.13928902 0.17351718 -0.15695707
0.3147819 -0.37249863 -0.2235319 0.05986933 -0.015126403 0.20885798 0.2722197 0.41434366
-0.1974331 -0.006659435 0.43308565 0.08692448 -0.17330417 0.33128744 -0.14313039 -0.12596375
-0.030807089 0.29736415 -0.16636813 -0.06974126 0.22553685 -0.223888 0.24268559 0.12629743
-0.30137938 0.44969365 -0.06249363 -0.21012884 -0.3466534 0.27674866 0.09323199 0.049014486
-0.15147716 -0.0070911692 -0.2856472 -0.37525362 0.09492223 0.13765751 -0.23060289 0.20319806
0.39678806 0.046132334 -0.16411743 -0.33121958 0.32912022 -0.033795483 0.22904131 -0.09303607
-0.32340512 0.0018320652 0.018858299 0.09384595 0.023066498 0.031921126 -0.2050792 -0.13227381
-0.09763765 -0.21909429 0.042432204 0.100896224 0.101765566 0.20375542 -0.12252652 -0.18037651
0.2513522 0.25528267 -0.086050935 0.45423952 -0.04895295 -0.1650951 -0.01665106 -0.15411693
-0.25279287 -0.223438 0.16340247 -0.24276678 0.059646755 0.15435301 0.14019561 -0.08592642
0.029519055 0.113128915 0.5452062 -0.04040239 0.13751009 -0.20244502 0.41649815 0.3734547
-0.18920945 0.07857523 -0.037360135 -0.06216011 -0.17541312 -0.25508675 0.26543513 0.30453756
-0.37561104 -0.17193858 0.07489631 0.052503377 -0.13635652 -0.37712932 0.102939434 0.18538885
00000000: 97c8 fd3d 8925 003c 1a46 69be cb8f 333e
00000010: a697 d43e 7deb 0a3e 6c27 dc3d 9d08 e03d
00000020: 6123 403e 8aca 363e 448c 5fbe 6c48 8fbc
00000030: b487 743d 7c50 d0be ba8b a73e f5e2 b13e
00000040: caec babd 894d e8bd 36c8 973e 21d3 73be
00000050: 8040 aabd 9b70 d4be 774e eebd 9493 2cbe
00000060: bf8c 00bf 5214 b1bd 2000 59be 8fb4 153e
00000070: 5d02 e8bd 309c 3fbc 2c70 8a3e d83c c23e
00000080: e4c0 34be c0a7 29be c493 a0be bc03 bc3d
00000090: 77b1 c9bd 2ef1 a8be 96dc 003d b4c6 c43d
000000a0: 083f 6bbd d6f2 223e 8786 ef3b 1c3c acbc
000000b0: 8705 683e edd8 43be 8cc1 e8bd 424a 15bd
000000c0: 69cb 753e e998 fbbd 4293 3fbd bb48 703d
000000d0: 70ac b8be ea27 90be bed3 573e dd3f 80be
000000e0: ecaa aabe d9c6 123d a051 b0be 6303 4dbd
000000f0: 3494 813d 08c8 f1bd 8065 a13e ba47 00be
00000100: 6fd5 90bd 34b6 24be d21f 7bbd 357c 9c3e
00000110: b187 9dbe f088 4b3e 7a3a 93bd 8ebc 973e
00000120: 8d1b 45bd 46e3 ed3d 08c3 48be 6d4a bebe
00000130: eb22 2cbe 9a1d f6bd f7a3 3ebe e5db dc3e
00000140: a864 083d df71 a83e 3bbd fcbe c195 21be
00000150: f099 893d 878f 59be 8458 ac3e 2125 b03e
00000160: cd7c 2fbd 65c2 843d c83e 653e 9df9 32be
00000170: ff39 26be 4174 12be b467 ebbd 3b57 89be
00000180: 8418 96be b079 f9bd 6f63 b8be f703 d63e
00000190: e2ee cf3e b364 25be d29a 96bd 5f6f 983e
000001a0: 9d10 e93d 526b 2b3e 03d1 b1bc dfa6 0d3e
000001b0: 9550 0dbc 1d7e 08be 1964 e53c 6405 99bd
000001c0: 44d6 dbbd 9eb0 adbd 7c00 90bd 20be b6bd
000001d0: 9b67 093e e269 9e3e 7106 20bd ab68 1c3e
000001e0: bb7b b2be 4704 6a3d 0491 0cbe ee79 a83d
000001f0: 369a d8bd 517e e6be 5d35 b83e 49e1 4a3e
00000200: bc35 9ebe 6ead 7fbe 663f a2bd 44c5 573e
00000210: 69a1 293c 6ff3 5dbe 3dbc ca3e f684 153e
00000220: dd93 fabd c3f3 65be 0a13 d13d 941c b23e
00000230: 8b4f f6bd 1ed9 bf3d 9ddc 783e 5717 2ebd
00000240: ab08 823e 3ef1 a63e daf6 a93d 9c6b f13d
00000250: cf88 3ebf c8a1 0ebe 7dae 313e 5bb9 20be
00000260: 182b a13e 24b8 bebe 8ce5 64be 8b39 753d
00000270: bcd4 77bc dede 553e 6160 8b3e da24 d43e
00000280: e72b 4abe 6437 dabb 67bd dd3e 7605 b23d
00000290: a676 31be 829e a93e c690 12be a4fc 00be
000002a0: 265f fcbc 1d40 983e 685c 2abe 81d4 8ebd
000002b0: 22f3 663e e542 65be 9282 783e 1d54 013e
000002c0: 664e 9abe 3f3e e63e 52f9 7fbd 042c 57be
000002d0: 8e7c b1be 00b2 8d3e 6af0 be3d 6ac3 483d
000002e0: d41c 1bbe 0a5d e8bb 5a40 92be 3e21 c0be
000002f0: 9666 c23d 17f6 0c3e 2a23 6cbe 2713 503e
00000300: ce27 cb3e 42f5 3c3d 660e 28be 9d95 a9be
00000310: 7282 a83e 226d 0abd ce89 6a3e b289 bebd
00000320: 5b95 a5be e821 f03a b87c 9a3c 4e32 c03d
00000330: f4f5 bc3c babf 023d 4800 52be c972 07be
00000340: 40f6 c7bd 415a 60be 64cd 2d3d aea2 ce3d
00000350: 776a d03d 43a5 503e 2fef fabd 9fb4 38be
00000360: 3cb1 803e 69b4 823e 793b b0bd 1592 e83e
00000370: e382 48bd b10e 29be ce67 88bc d4d0 1dbe
00000380: 116e 81be eecc 64be fa52 273e db97 78be
00000390: 2850 743d b70e 1e3e 708f 0f3e 31fa afbd
000003a0: f2d1 f13c 22b0 e73d a292 0b3f fa7c 25bd
000003b0: 72cf 0c3e bf4d 4fbe 3f3f d53e 7435 bf3e
000003c0: 1fc0 41be 0dec a03d f106 19bd 999b 7ebd
000003d0: 7f9f 33be bb9a 82be 1de7 873e 59ec 9b3e
000003e0: 1750 c0be ab10 30be 3d63 993d c80d 573d
000003f0: 0ba1 0bbe 1817 c1be e9d1 d23d 93d6 3d3e

model.2.weight f4 [128, 256]
0.05418949 0.056101415 0.0065261084 0.0901529 0.10935581 -0.081166364 -0.07835633 0.04954389
-0.043881577 -0.025980879 0.40444267 -0.08691029 0.3284007 0.122617446 0.17089278 0.009964943
0.043005694 -0.007325058 -0.25385994 0.17746802 -0.07138659 0.096062675 -0.034722216 0.11714423
0.11412781 0.10035974 -0.061493542 0.11135867 0.013295857 0.040377274 0.19395123 -0.093064524
-0.1103768 -0.022897296 0.08915355 -0.0050774817 0.004264146 0.08632533 -0.046484828 0.21215475
0.09662301 -0.1811442 -0.2427696 0.13919176 -0.09353868 -0.020636996 -0.038329475 -0.042075314
0.23121746 0.07622404 0.07951583 0.04828923 0.16064061 -0.05347539 0.28987315 -0.070950575
0.09680277 0.037748545 -0.0014038335 -0.11863674 -0.007943332 0.022941817 0.20112891 0.010675213
0.05699845 -0.10068009 -0.016734758 -0.010654757 -0.12181738 0.06892421 -0.13672136 0.24914378
-0.02348316 0.16531084 0.3457201 0.06027803 0.24697928 0.12193344 0.2008056 0.20611565
0.04205052 0.33201924 0.25773975 0.07202576 -0.016975475 -0.05792239 0.08559748 0.16358243
0.12286692 -0.0049093813 0.06770084 -0.051136278 0.10817585 -0.022877874 0.34371886 0.0008274355
0.046774924 -0.11116332 0.1474118 0.306838 0.3012445 0.021382561 -0.09758623 0.18515974
0.05935023 0.08252121 0.10794445 0.08434205 0.07403798 -0.03721936 0.012939427 0.036287595
0.017695965 -0.038206235 -0.23703896 -0.019871246 -0.053317204 0.19924864 0.15828626 0.016303405
0.0632277 0.049772333 -0.12093971 0.13486531 0.09241457 -0.075377524 0.28961506 0.107317105
0.113566436 0.01948307 0.05674685 0.2813146 0.08728768 0.03266901 0.14487132 0.16430324
0.0755233 -0.06426702 0.21093595 0.607048 -0.098674655 -0.24663565 0.030567564 0.093664244
-0.03158563 0.039077427 0.040049456 0.18519904 0.049811583 -0.01337664 0.19403493 -0.08598511
0.31186795 0.05180828 0.0487948 0.0633698 -0.025505774 0.11965177 -0.3328765 0.14293988
0.005649165 0.0912667 0.056657314 -0.09601218 -0.009195033 0.10153871 0.1956228 0.10484818
0.0096562365 0.1263313 0.18960634 -0.038104158 0.039386008 0.00924617 0.20430611 0.015250991
0.0006462759 0.13369045 -0.033168465 -0.2733476 0.06361317 0.27683756 -0.19625346 -0.04305885
-0.0177517 -0.05250133 -0.058913622 0.031722393 0.11556797 -0.0141603965 -0.06872816 -0.043598372
-0.17604573 0.16640097 -0.06524195 0.034088507 0.052995138 -0.17171615 0.22016492 -0.09655276
0.26089472 0.1022649 0.23884451 -0.33574423 -0.0027919966 0.11093764 -0.1434745 -0.049133614
-0.08080948 0.056224607 0.28553218 -0.0027716886 -0.02170869 0.044752587 0.028862776 -0.11840107
-0.15672055 0.04352611 0.037478544 -0.49831915 -0.11826359 0.11575742 0.047133185 -0.14447385
0.16653089 -0.05513462 0.057008363 -0.019553347 -0.030754479 0.06983899 0.3302383 0.093357526
0.011277974 -0.021531407 0.13258164 0.060665075 -0.15274523 -0.071076974 0.30281556 -0.4533192
0.021483872 0.10407389 0.048936058 -0.09282161 0.19235672 -0.12823108 -0.030870829 -0.031729244
0.18337864 0.041879337 0.099146545 -0.019767214 -0.011503342 -0.028339116 -0.023231044 -0.062355153
00000000: ccf5 5d3d 99ca 653d f7d8 d53b 15a2 b83d
00000010: f0f5 df3d 8d3a a6bd 4979 a0bd 89ee 4a3d
00000020: 2bbd 33bd dad5 d4bc 1c13 cf3e 06fe b1bd
00000030: 2324 a83e db1e fb3d 84fe 2e3e 0044 233c
00000040: bd26 303d 0a07 f0bb eef9 81be 2dba 353e
00000050: 2233 92bd 82bc c43d e238 0ebd 50e9 ef3d
00000060: d7bb e93d 6889 cd3d a7e0 7bbd 0410 e43d
00000070: ded6 593c a462 253d 279b 463e 9d98 bebd
00000080: 3b0d e2bd 1c93 bbbc 2396 b63d 0161 a6bb
00000090: 40ba 8b3b 56cb b03d e066 3ebd 183f 593e
000000a0: 49e2 c53d dd7d 39be 9898 78be 4988 0e3e
000000b0: 3591 bfbd eb0e a9bc 5eff 1cbd 2a57 2cbd
000000c0: 45c4 6c3e 591b 9c3d 32d9 a23d edca 453d
000000d0: f97e 243e 0309 5bbd 416a 943e 894e 91bd
000000e0: 8840 c63d 389e 1a3d d600 b8ba d2f7 f2bd
000000f0: c024 02bc 7af0 bb3c bdf4 4d3e 17e7 2e3c
00000100: 3577 693d 5d31 cebd 5517 89bc 4a91 2ebc
00000110: 647b f9bd 2328 8d3d af00 0cbe 8c1f 7f3e
00000120: c25f c0bc 3f47 293e 3a02 b13e 18e6 763d
00000130: 23e8 7c3e 3db8 f93d fc9f 4d3e fb0f 533e
00000140: 2b3d 2c3d 6dfe a93e 77f6 833e 3e82 933d
00000150: 2710 8bbc 0740 6dbd bb4d af3d 2782 273e
00000160: a7a1 fb3d e0de a0bb bda6 8a3d 4674 51bd
00000170: 4d8b dd3d 616a bbbc ebfb af3e 42e8 583a
00000180: 1097 3f3d 98a9 e3bd 1ef3 163e df19 9d3e
00000190: b83c 9a3e 7b2a af3c 4adb c7bd 849a 3d3e
000001a0: 3a19 733d e100 a93d fb11 dd3d 86bb ac3d
000001b0: 39a1 973d 5473 18bd e4ff 533c 4da2 143d
000001c0: 21f7 903c 247e 1cbd 57ba 72be 06c9 a2bc
000001d0: 2463 5abd d607 4c3e cb15 223e b88e 853c
000001e0: 867d 813d 13de 4b3d 3daf f7bd 221a 0a3e
000001f0: da43 bd3d 885f 9abd 6d48 943e 12c9 db3d
00000200: 8595 e83d f69a 9f3c 636f 683d 7808 903e
00000210: e2c3 b23d f1cf 053d 2659 143e 1c3f 283e
00000220: f6ab 9a3d 6d9e 83bd 98ff 573e 7f67 1b3f
00000230: f015 cabd 0e8e 7cbe d468 fa3c 0ad3 bf3d
00000240: ef5f 01bd a70f 203d e60a 243d d1a4 3d3e
00000250: 3b07 4c3d b229 5bbc 18b1 463e f618 b0bd
00000260: 28ad 9f3e eb34 543d 0edd 473d 07c8 813d
00000270: 7cf1 d0bc fd0b f53d ca6e aabe d55e 123e
00000280: a11c b93b 09ea ba3d 8011 683d 09a2 c4bd
00000290: c4a6 16bc 87f3 cf3d 5851 483e a5ba d63d
000002a0: 3135 1e3c fe5c 013e 2a28 423e 1b13 1cbd
000002b0: 3953 213d 3f7d 173c 9f35 513e 4bdf 793c
000002c0: d76a 293a 26e6 083e a8db 07bd 37f4 8bbe
000002d0: 9f47 823d a7bd 8d3e abf6 48be 7a5e 30bd
000002e0: 036c 91bc a20b 57bd 694f 71bd 57ef 013d
000002f0: e6ae ec3d 0201 68bc 59c1 8cbd 3594 32bd
00000300: 5545 34be 0465 2a3e 929d 85bd 64a0 0b3d
00000310: 6e11 593d 5cd6 2fbe ea72 613e 74bd c5bd
00000320: fe93 853e 4370 d13d a893 743e abe6 abbe
00000330: eef9 36bb 4633 e33d fbea 12be 5440 49bd
00000340: 717f a5bd c64b 663d 4631 923e 38a5 35bb
00000350: 6cd6 b1bc 7d4e 373d a171 ec3c 437c f2bd
00000360: 5a7b 20be 6f48 323d 1a83 193d b023 ffbe
00000370: 2e34 f2bd 3a12 ed3d ba0e 413d f4f0 13be
00000380: 1387 2a3e d7d4 61bd 9a81 693d 572e a0bc
00000390: d1f0 fbbc bf07 8f3d ff14 a93e 3b32 bf3d
000003a0: 40c7 383c a262 b0bc 7bc3 073e f17b 783d
000003b0: 3f69 1cbe ce90 91bd a40a 9b3e 7419 e8be
000003c0: f2fe af3c b124 d53d 2d71 483d 4219 bebd
000003d0: 29f9 443e 024f 03be d2e4 fcbc 86f6 01bd
000003e0: 9cc7 3b3e ab89 2b3d 580d cb3d daee a1bc
000003f0: 8378 3cbc 6f27 e8bc 084f bebc 1e68 7fbd

model.2.bias f4 [128]
0.38275155 0.07561064 0.052210476 0.018672477 -0.086390175 0.17497166 0.004963735 0.037095223
0.03968505 -0.055298325 -0.06202033 -0.2778579 0.04158402 0.001383029 -0.20044117 -0.014701957
-0.009093061 0.1597586 -0.087590635 -0.043801237 0.026498951 0.2169883 0.005126707 0.23568791
0.07300145 0.26795346 0.0030572806 -0.04624542 0.08369147 -0.025091458 0.19130185 -0.064845115
0.37069464 -0.021107864 0.07179868 -0.06668281 0.0041038557 0.047140833 -0.01463733 -0.05309864
0.1336852 -0.010907476 0.06782209 -0.057148825 -0.08286283 -0.05263178 0.010617812 0.23182984
-0.02864812 0.35011378 0.0122123 -0.02212527 -0.020835793 -0.018343255 -0.019150559 0.035802864
-0.041816104 0.15653978 0.23689221 -0.032028347 -0.056008276 0.20425177 -0.28507805 0.05601018
0.13596918 0.065996185 0.3301475 -0.09884025 0.066897266 0.26535195 -0.017232137 0.101336196
-0.075992875 0.090834394 0.3601691 -0.09448513 -0.025811117 -0.08875821 0.14368469 -0.029360406
0.0036741772 0.1224779 -0.016765535 0.14439522 -0.07071927 0.13962759 0.18295048 -0.090374485
0.27132392 0.08069285 0.19482748 -0.026724434 0.016609136 -0.006641031 0.030221079 0.08149285
0.22851616 0.012005867 -0.06255053 0.027783893 0.096087016 0.17003173 0.090085715 0.17945555
-0.102534615 -0.46732652 -0.052866414 -0.013950525 0.10880452 0.44356686 0.1500609 -0.05398502
0.1045775 2.4315725e-05 0.30444512 0.033005394 -0.140087 0.10024449 0.38840723 0.09474543
0.19372058 0.4008963 -0.03570802 -0.07081483 -0.04626885 -0.025423937 0.05154807 -0.009323495
00000000: 03f8 c33e c0d9 9a3d a7da 553d 06f7 983c
00000010: 55ed b0bd c52b 333e d4a6 a23b 29f1 173d
00000020: ca8c 223d 7f80 62bd 0809 7ebd 6443 8ebe
00000030: 0154 2a3d c146 b53a 7340 4dbe 7ae0 70bc
00000040: 10fb 14bc c297 233e b862 b3bd ed68 33bd
00000050: 5414 d93c 2e32 5e3e effd a73b 2c58 713e
00000060: c981 953d 3231 893e a85c 483b d66b 3dbd
00000070: 6f66 ab3d 9a8c cdbc a2e4 433e 84cd 84bd
00000080: b0cb bd3e 66ea acbc 300b 933d ff90 88bd
00000090: a379 863b bf16 413d 69d1 6fbc f67d 59bd
000000a0: c6e4 083e 45b5 32bc 4fe6 8a3d e314 6abd
000000b0: fdb3 a9bd 6c94 57bd 55f6 2d3c cd64 6d3e
000000c0: 76af eabc 1d42 b33e 1916 483c 0e40 b5bc
000000d0: d3af aabc 9844 96bc a2e1 9cbc 06a6 123d
000000e0: 5d47 2bbd f74b 203e df93 723e 2830 03bd
000000f0: ef68 65bd 6027 513e c0f5 91be ee6a 653d
00000100: 813b 0b3e 0229 873d 1809 a93e c26c cabd
00000110: 6f01 893d 36dc 873e 692a 8dbc 5a89 cf3d
00000120: 27a2 9bbd 6207 ba3d 1668 b83e 6b81 c1bd
00000130: d671 d3bc ddc6 b5bd 1422 133e 3c85 f0bc
00000140: 77ca 703b b1d5 fa3d e057 89bc 57dc 133e
00000150: 44d5 90bd 89fa 0e3e 5f57 3b3e 4216 b9bd
00000160: f8ea 8a3e 4b42 a53d db80 473e 33ed dabc
00000170: e20f 883c 019d d9bb 3292 f73c b9e5 a63d
00000180: 2400 6a3e 42b4 443c 7e1a 80bd 0c9b e33c
00000190: 45c9 c43d cc1c 2e3e dc7e b83d 32c3 373e
000001a0: abfd d1bd 6c45 efbe 748a 58bd be90 64bc
000001b0: e7d4 de3d 321b e33e 91a9 193e 651f 5dbd
000001c0: ba2c d63d 9ff9 cb37 3be0 9b3e aa30 073d
000001d0: f772 0fbe fc4c cd3d 50dd c63e e409 c23d
000001e0: b05e 463e 4842 cd3e 9342 12bd 5e07 91bd
000001f0: 6884 3dbd dc45 d0bc 1224 533d 93c1 18bc

model.4.weight f4 [64, 128]
0.20675246 0.022624923 0.22559483 -0.12020599 -0.12353077 -0.10103383 0.06923182 0.042178135
-0.31931818 0.033402696 -0.020252926 -0.45979577 -0.14030251 -0.048415437 -0.30354986 0.09282311
0.020801343 -0.08212083 -0.034085672 -0.048468716 0.008094743 -0.5937134 0.10247359 0.17094794
0.22460546 -0.1144136 0.20010848 -0.033651117 0.08616237 0.052388676 0.06687698 0.05036119
0.021185623 -0.028109672 0.3081924 0.041181885 -0.014772542 0.17438087 0.0056064883 0.034004945
0.16689137 -0.09643457 -0.13790806 -0.01870686 0.007955997 0.0046227444 -0.010227327 0.019970596
-0.3898502 -1.3382437 -0.040673103 -0.0004477579 0.019737754 0.0624535 0.08630032 -0.032532897
-0.023984918 -0.026783558 -0.22537744 -0.019167198 0.065037236 0.025010271 0.5067421 0.24840155
-0.0058795973 0.10626008 0.07556467 -0.027840573 -0.07118212 -0.04883941 -0.07632325 0.51894766
0.035524387 0.39754343 -0.29121616 0.03819652 -0.0662257 0.019663045 0.40877506 0.12015864
0.015061695 -0.07740611 0.056378115 0.6029192 0.088345945 0.12635836 -0.32807463 0.0733211
0.2562809 0.02711047 -0.40393603 -0.03843011 -0.039451104 0.086890996 0.58771676 -0.10494323
-0.29437733 0.073025495 -0.25583777 -0.040362135 0.005824361 0.0977276 0.047093216 0.17156582
-0.039574042 -0.77915895 -0.040710717 0.024178917 0.052422255 -0.12753882 0.2819118 0.022511467
0.23999467 0.155381 0.36894023 -0.16749838 -0.010092444 -0.013748452 0.26341304 0.167307
0.071766734 0.36186728 0.03142785 -0.0428733 -0.051954865 -0.030224599 -0.15630259 -0.060913328
0.014349597 0.055731125 0.011744247 -0.0153262885 -0.018826427 0.09866449 -0.0068865903 0.00783394
0.05497589 -0.03275469 -0.066062085 0.06052805 0.043934 0.020769693 -0.09489396 0.047170423
-0.019938963 -0.08845659 -0.061488606 0.069051936 -0.082226306 -0.08388126 0.066522114 0.05644728
0.018870082 -0.05843607 -0.096434854 -0.006670162 -0.0068749753 -0.047125675 -0.044067487 0.045537345
-0.06913836 -0.050051026 -0.031264324 -0.08735399 0.061392765 -0.009735096 0.019205421 0.034845334
0.018840134 0.035811484 -0.020374613 0.07657448 -0.008363545 -0.07653883 0.03215957 0.06556423
-0.03171938 -0.017621547 0.012939671 0.07525248 -0.08204174 -0.03998994 -0.05271601 -0.07182251
-0.061246034 -0.011501662 -0.0885872 -0.077779904 -0.053152278 0.07705466 0.046376467 -0.021044
-0.005449013 -0.06746693 -0.03767767 0.01760441 -0.04250771 -0.097059466 -0.018706612 -0.07769341
-0.0025579259 0.028462477 -0.014663901 0.0016413827 -0.06398441 0.05402585 -0.0457633 0.015671289
0.037142776 0.028975816 0.040436942 0.014566308 -0.04548633 0.05633635 -0.08375374 0.06282141
-0.018570568 -0.07160749 -0.036125503 -0.029539779 -0.05184958 0.045359544 -0.03605482 0.055107053
-0.065840125 0.04701715 -0.08492888 0.01846977 -0.09125075 -0.06667039 -0.08247894 0.0036916276
0.066144325 -0.022804826 0.05890573 0.056036253 -0.09024124 -0.03860736 -0.10014785 -0.023016246
-0.07861405 0.008192233 0.019699752 -0.046411976 -0.014086887 -0.098786354 0.0044067614 -0.029375728
0.059585437 -0.052071244 -0.048909035 -0.04276666 0.044415437 -0.024513878 0.003928185 0.053572826
00000000: ebb6 533e e757 b93c 5502 673e 8f2e f6bd
00000010: b3fd fcbd d3ea cebd 6ac9 8d3d fbc2 2c3d
00000020: ac7d a3be 44d1 083d 77e9 a5bc 5a6a ebbe
00000030: 76ab 0fbe 444f 46bd e36a 9bbe 0b1a be3d
00000040: 9467 aa3c f72e a8bd 6b9d 0bbd 2287 46bd
00000050: d09f 043c 9afd 17bf acdd d13d fa0c 2f3e
00000060: f9fe 653e ad51 eabd 3de9 4c3e c1d5 09bd
00000070: e675 b03d 8295 563d ccf6 883d 8947 4e3d
00000080: 798d ad3c 4146 e6bc 65cb 9d3e 56ae 283d
00000090: 8808 72bc e690 323e a2b6 b73b c548 0b3d
000000a0: 92e5 2a3e 7d7f c5bd c537 0dbe 213f 99bc
000000b0: df59 023c 647a 973b 8590 27bc 6099 a33c
000000c0: 729a c7be 924b abbf d798 26bd 0cc1 eab9
000000d0: 12b1 a13c 3ecf 7f3d 39be b03d 3741 05bd
000000e0: 057c c4bc 3169 dbbc 58c9 66be 8704 9dbc
000000f0: 3e32 853d 57e2 cc3c dab9 013f fa5c 7e3e
00000100: a3a9 c0bb e39e d93d a6c1 9a3d ea11 e4bc
00000110: eec7 91bd d50b 48bd 5d4f 9cbd c1d9 043f
00000120: 0582 113d d08a cb3e 491a 95be f473 1c3d
00000130: 57a1 87bd 6514 a13c f74a d13e bc15 f63d
00000140: 54c5 763c 1887 9ebd bdec 663d ea58 1a3f
00000150: b8ee b43d 1664 013e 66f9 a7be 5f29 963d
00000160: 4037 833e c716 de3c b4d0 cebe e468 1dbd
00000170: 7b97 21bd e8f3 b13d 9b74 163f 7aec d6bd
00000180: a0b8 96be 648e 953d 2bfd 82be c452 25bd
00000190: 48da be3b 6825 c83d d1e4 403d f3ae 2f3e
000001a0: 6418 22bd f676 47bf 48c0 26bd dd12 c63c
000001b0: b8b8 563d 8999 02be be56 903e f869 b83c
000001c0: 2ac1 753e 321c 1f3e bce5 bc3e b284 2bbe
000001d0: c75a 25bc 3041 61bc 13de 863e 8752 2b3e
000001e0: 70fa 923d ab46 b93e 7dba 003d ea9b 2fbd
000001f0: a0ce 54bd 9499 f7bc c90d 20be 4180 79bd
00000200: 921a 6b3c 5246 643d f16a 403c 1d1b 7bbc
00000210: e139 9abc 9c10 ca3d e8a8 e1bb ed59 003c
00000220: 662e 613d c829 06bd 8f4b 87bd 43ec 773d
00000230: 23f4 333d 3425 aa3c c457 c2bd c635 413d
00000240: 0957 a3bc bb28 b5bd 7adb 7bbd 1a6b 8d3d
00000250: 4466 a8bd f0c9 abbd bf3c 883d 4335 673d
00000260: 6e95 9a3c a95a 6fbd a37f c5bd 6091 dabb
00000270: 7947 e1bb da06 41bd 1c80 34bd 5e85 3a3d
00000280: 6a98 8dbd 4e02 4dbd 050f 00bd a6e6 b2bd
00000290: fb76 7b3d f47f 1fbc b054 9d3c fbb9 0e3d
000002a0: a056 9a3c 10af 123d a9e8 a6bc 15d3 9c3d
000002b0: 4007 09bc 64c0 9cbd c1b9 033d 8a46 863d
000002c0: 2eec 01bd 105b 90bc ea00 543c f91d 9a3d
000002d0: 8005 a8bd 7ecc 23bd beec 57bd ae17 93bd
000002e0: 1fdd 7abd 7871 3cbc 356d b5bd 124b 9fbd
000002f0: 34b6 59bd d5ce 9d3d 40f5 3d3d 7764 acbc
00000300: a28d b2bb 1a2c 8abd e753 1abd 2037 903c
00000310: 911c 2ebd 1dc7 c6bd 9c3e 99bc b91d 9fbd
00000320: e0a2 27bb 242a e93c dc40 70bc aa23 d73a
00000330: 420a 83bd 364a 5d3d 4c72 3bbd 1361 803c
00000340: 0623 183d b15e ed3c 35a1 253d 86a7 6e3c
00000350: e04f 3abd f2c0 663d 1587 abbd 83a8 803d
00000360: 4e21 98bc f3a6 92bd 56f8 13bd 68fd f1bc
00000370: 3a60 54bd eeca 393d 38ae 13bd efb7 613d
00000380: 30d7 86bd 0e95 403d 31ef adbd ea4d 973c
00000390: ace1 babd 7c8a 88bd b8ea a8bd 3cef 713b
000003a0: ad76 873d 30d1 babc 2247 713d 4586 653d
000003b0: 66d0 b8bd c022 1ebd 511a cdbd 918c bcbc
000003c0: 6700 a1bd b738 063c 6061 a13c 7c1a 3ebd
000003d0: b0cc 66bc 8050 cabd 9866 903b 5ea5 f0bc
000003e0: dc0f 743d a848 55bd d754 48bd 182c 2fbd
000003f0: f6ec 353d 54d1 c8bc 01b8 803b 2e6f 5b3d

model.4.bias f4 [64]
0.18271625 -0.006001313 0.14343986 0.08219369 0.42771146 0.25652274 0.16965868 -0.01693932
0.27488133 0.004607732 0.22764815 -0.17353961 0.4399399 -0.086651124 0.23183186 -0.02560728
0.00521381 0.46701184 -0.10752263 -0.0019491042 0.19391425 -0.11916889 0.2751346 0.0036177703
-0.058685817 0.13467005 -0.0043219132 0.5781404 -0.14810221 0.07676532 -0.047437362 0.2207657
0.20659699 -0.124024324 -0.06456645 0.073966436 0.011415523 0.030595815 0.03173645 0.1757664
0.20536608 0.3039771 -0.090279564 0.20774868 -0.09268439 0.45670813 -0.12189368 0.07494398
0.018874004 -0.0948486 0.031732194 0.4057619 0.115296155 0.19563037 0.15562877 0.050047476
0.040645823 -0.069987565 -0.087552674 0.19846296 -0.031845562 -0.1270058 -0.039131444 0.0070670596
00000000: f819 3b3e aaa6 c4bb e6e1 123e 2a55 a83d
00000010: fffc da3e f356 833e 01bb 2d3e 54c4 8abc
00000020: 3fbd 8c3e 75fc 963b 991c 693e 5eb4 31be
00000030: cd3f e13e 2576 b1bd 5565 6d3e 5cc6 d1bc
00000040: 9cd8 aa3b 2d1c ef3e d334 dcbd 1679 ffba
00000050: 7591 463e d20e f4bd 71de 8c3e 1d18 6d3b
00000060: 8a60 70bd f2e6 093e d69e 8dbb 0201 143f
00000070: 1ba8 17be 2337 9d3d ae4d 42bd 6710 623e
00000080: 298e 533e 7700 febd 6a3b 84bd b77b 973d
00000090: 2c08 3b3c 13a4 fa3c 14fe 013d 1bfc 333e
000000a0: 7c4b 523e e3a2 9b3e 7ee4 b8bd 12bc 543e
000000b0: 50d1 bdbd a6d5 e93e 65a3 f9bd 3b7c 993d
000000c0: a89d 9a3c fc3f c2bd 9ef9 013d 06c0 cf3e
000000d0: 6420 ec3d 5453 483e 265d 1f3e 95fe 4c3d
000000e0: 3c7c 263d a455 8fbd d14e b3bd e039 4b3e
000000f0: 7e70 02bd cf0d 02be 4b48 20bd cb92 e73b

model.6.weight f4 [32, 64]
0.06808456 -0.05411032 -0.0033357795 -0.11464795 -0.1740844 0.044160556 0.045754015 0.09558674
0.023870356 -0.007609528 -0.024761744 -0.049313325 -0.07705541 -0.07982805 -0.052893013 -0.090719
-0.07121717 -0.16703872 -0.002649337 0.07061324 -0.14691436 0.15477924 0.059363123 0.056289267
-0.06524406 -0.15715028 -0.028936965 0.018910324 0.061510913 -0.15117645 -0.122236915 0.10386502
0.11060676 0.04269412 0.05511963 -0.11395233 -0.010491085 -0.05698328 -0.1480251 -0.16691385
0.037609383 -0.0075997724 0.0071951 -0.1571242 0.017467573 -0.10500616 -0.0990326 -0.040049303
-0.10808958 -0.09484453 0.042934157 -0.08246596 -0.20813785 -0.046812125 -0.13238695 0.01516142
-0.059167705 -0.12110481 -0.054949068 0.048295252 -0.03434061 -0.077055246 0.096588045 0.09307914
-0.13191116 -0.110183075 -0.3115171 0.14781657 0.37261185 -0.1906974 -0.16899166 0.10159528
-0.2656245 -0.12182454 -0.08743063 -0.13533592 0.5130114 0.063378625 -0.111421384 0.1897984
-0.01358664 0.22773238 0.11912899 0.09604301 -0.015186419 0.0044352384 -0.027176498 0.020666933
0.28749606 0.35031912 -0.020508064 0.37446788 -0.07730467 -0.06493709 -0.1708428 -0.0074708904
0.21626312 -0.08598744 -0.04082717 0.034785073 0.13734761 0.06559598 -0.14947863 -0.28382418
-0.031219175 0.33589196 0.054249734 0.21903062 -0.1490286 0.12619062 0.034835774 0.08761456
-0.21412195 0.0036749374 0.085320316 0.25099704 0.066662975 0.17292662 0.23301218 0.16358368
0.23369552 0.090008825 0.0655539 0.1703693 -0.021780793 0.008443322 -0.13127185 0.06495295
0.029778237 -0.027653169 -0.21128769 0.03655469 -0.021833116 0.17271328 0.17436266 -0.006645043
0.24588332 0.043198485 -0.08340403 -0.11000542 0.2023033 0.10504233 -0.16988006 0.13762452
0.11973947 -0.012784655 0.07286202 0.122626826 0.12967677 0.23999369 -0.22356896 -0.08884914
0.13399391 -0.0051346957 0.114029385 -0.16709304 0.0724347 0.104472384 -0.009217637 0.12479441
0.18819489 0.06315395 0.031976745 -0.12805125 -0.024239345 0.023501052 -0.11929698 0.008604238
-0.06818875 0.013006882 0.03183467 -0.19217896 -0.0016580066 -0.0122369435 -0.019951554 0.07712409
0.1417433 -0.09459966 0.015910288 -0.12336651 0.11794735 -0.12232415 -0.04898172 0.042566583
-0.34566292 0.034019396 -0.023175986 -0.3274069 0.064187735 -0.06492591 0.05181926 -0.023184972
0.13326319 -0.017262252 -0.11652167 -0.0016220077 0.3735483 -0.53625107 -0.31748438 0.020164624
-0.024132565 0.11159005 -1.1002797 0.021656187 0.08194022 0.046073686 0.074040316 -0.07457363
0.0924081 -0.048295688 -0.032123886 -0.20595565 -0.3009855 0.41191453 0.035053972 -0.043516103
0.021026889 0.115418665 0.14235732 -0.0043349424 -0.17808942 0.020693757 -0.17854665 -0.15382624
0.4091081 0.018465329 -0.104275696 -0.15577652 -0.105767325 -0.06252894 -0.16870004 -0.27508435
0.094523326 -0.2698159 0.014516583 0.02948474 -0.077746265 -0.6701889 -0.10373064 0.07070716
-0.02543616 0.014220823 0.046310883 -0.014943398 -0.24960761 -0.14475559 -0.15902278 -0.23114282
-0.14280444 -0.061605398 0.12937902 -0.67694086 0.12127243 0.043117385 0.035117924 -0.12041718
00000000: eb6f 8b3d c8a2 5dbd 189d 5abb 8bcc eabd
00000010: 2e43 32be b3e1 343d 9068 3b3d fbc2 c33d
00000020: c48b c33c 5959 f9bb 24d9 cabc c5fc 49bd
00000030: 3acf 9dbd e47c a3bd 58a6 58bd e2ca b9bd
00000040: 4fda 91bd 330c 2bbe 80a0 2dbb ad9d 903d
00000050: b870 16be 737e 1e3e bf26 733d 938f 663d
00000060: ad9e 85bd 01ec 20be 370d edbc d3e9 9a3c
00000070: def2 7b3d 00ce 1abe 5957 fabd 2fb7 d43d
00000080: cc85 e23d 08e0 2e3d 1fc5 613d d75f e9bd
00000090: cde2 2bbc 4d67 69bd e493 17be 77eb 2abe
000000a0: 4c0c 1a3d 8307 f9bb e0c4 eb3b 2be5 20be
000000b0: 2818 8f3c 780d d7bd 9bd1 cabd bd0a 24bd
000000c0: 125e ddbd d93d c2bd badb 2f3d eae3 a8bd
000000d0: 1722 55be 12be 3fbd 7290 07be 9b67 783c
000000e0: d659 72bd cc05 f8bd 4612 61bd 3ed1 453d
000000f0: bda8 0cbd 24cf 9dbd f4cf c53d 47a0 be3d
00000100: b813 07be aaa7 e1bd 2b7f 9fbe 3a5d 173e
00000110: fbc6 be3e 2e46 43be 260c 2dbe 3011 d03d
00000120: efff 87be 257f f9bd d50e b3bd 8095 0abe
00000130: b754 033f a7cc 813d e530 e4bd 835a 423e
00000140: 809a 5ebc ad32 693e e6f9 f33d 33b2 c43d
00000150: 75d0 78bc 7a55 913b 3fa1 debc b34d a93c
00000160: af32 933e 075d b33e 8700 a8bc 41ba bf3e
00000170: e951 9ebd bdfd 84bd 6af1 2ebe 5fce f4bb
00000180: 1474 5d3e 2f1a b0bd 643a 27bd cb7a 0e3d
00000190: daa4 0c3e 2f57 863d ed10 19be 6751 91be
000001a0: 5bbf ffbc 08fa ab3e f834 5e3d 9049 603e
000001b0: f49a 18be 1d38 013e f5af 0e3d 436f b33d
000001c0: c942 5bbe 38d7 703b 6bbc ae3d af82 803e
000001d0: 9986 883d ad13 313e bf9a 6e3e 7b82 273e
000001e0: e14d 6f3e 8c56 b83d 2041 863d 4a75 2e3e
000001f0: a26d b2bc dc55 0a3c 216c 06be 0d06 853d
00000200: 7df1 f33c e688 e2bc cd5b 58be 5fba 153d
00000210: 5ddb b2bc c0db 303e 208c 323e a9be d9bb
00000220: d6c8 7b3e e5f0 303d bbcf aabd 864a e1bd
00000230: 9928 4f3e 6f20 d73d 0af5 2dbe 71ed 0c3e
00000240: f839 f53d bb76 51bc af38 953d c623 fb3d
00000250: fdc9 043e e8c0 753e 43ef 64be 8af6 b5bd
00000260: b335 093e f340 a8bb 3d88 e93d 701a 2bbe
00000270: a558 943d 9ef5 d53d 9205 17bc 3694 ff3d
00000280: 29b6 403e dc56 813d 0cfa 023d de1f 03be
00000290: 9791 c6bc 4785 c03c fa51 f4bd caf8 0c3c
000002a0: 8ba6 8bbd d11a 553c 1265 023d 90ca 44be
000002b0: 7851 d9ba 767d 48bc 7171 a3bc 3cf3 9d3d
000002c0: 2825 113e 77bd c1bd 4b56 823c 95a7 fcbd
000002d0: 618e f13d 1585 fabd 0ea1 48bd 4c5a 2e3d
000002e0: bbfa b0be ec57 0b3d 91db bdbc e1a1 a7be
000002f0: dc74 833d e0f7 84bd 6f40 543d 69ee bdbc
00000300: 2576 083e 9169 8dbc eaa2 eebd 8c99 d4ba
00000310: b941 bf3e c047 09bf 508d a2be 4830 a53c
00000320: a8b1 c5bc 5389 e43d f7d5 8cbf 5168 b13c
00000330: 46d0 a73d c3b7 3c3d 73a2 973d 0fba 98bd
00000340: 7540 bd3d b3d1 45bd 5694 03bd 0ae6 52be
00000350: c51a 9abe 76e6 d23e c194 0f3d f13d 32bd
00000360: 9540 ac3c 9f60 ec3d 1ec6 113e 220c 8ebb
00000370: 135d 36be f485 a93c efd4 36be a084 1dbe
00000380: 9e76 d13e 9a44 973c 7f8e d5bd e183 1fbe
00000390: 8a9c d8bd 2c0f 80bd b4bf 2cbe dbd7 8cbe
000003a0: 7295 c13d 4f25 8abe f6d6 6d3c fb89 f13c
000003b0: 6f39 9fbd 8091 2bbf bb70 d4bd eace 903d
000003c0: 7e5f d0bc 74fe 683c 7bb0 3d3d 27d5 74bc
000003d0: 2399 7fbe cf3a 14be ded6 22be b4b0 6cbe
000003e0: 543b 12be f155 7cbd ef7b 043e ff4b 2dbf
000003f0: ae5d f83d db9b 303d d0d7 0f3d 489d f6bd

model.6.bias f4 [32]
0.0430893 0.5965977 -0.08934501 0.09570833 0.06301214 0.49737763 0.1822069 0.03207269
0.15485679 0.20219229 0.6523383 0.008547542 -0.079753 -0.103221364 0.009581633 0.21443558
0.39919394 0.14399287 0.1291844 0.25339004 0.13421777 0.23184378 -0.17512967 -0.019331094
0.014395763 0.12440845 0.066565625 0.5158304 0.33084428 0.29054573 0.05577225 0.23087674
00000000: 687e 303d a0ba 183f 84fa b6bd bb02 c43d
00000010: 820c 813d 48a8 fe3e 7294 3a3e a75e 033d
00000020: c792 1e3e 7f0b 4f3e a5ff 263f fd0a 0c3c
00000030: 8a55 a3bd b965 d3bd 48fc 1c3c 0095 5b3e
00000040: 2663 cc3e de72 133e ea48 043e 57bc 813e
00000050: 6270 093e 7568 6d3e 3155 33be 3e5c 9ebc
00000060: 35dc 6b3c dcc9 fe3d 8f53 883d 760d 043f
00000070: 6c64 a93e 69c2 943e 7171 643d f46a 6c3e

model.8.weight f4 [10, 32]
0.10469336 0.1889232 -0.29336798 -0.23141749 -0.04543853 0.27611962 0.023242395 -0.009024364
-0.14966947 0.013662361 0.3534381 -0.1383765 0.020010563 -0.029953523 0.17221318 0.23195383
0.25180474 -0.36844146 0.007738988 -0.017260192 -0.095969625 0.24459709 0.0832528 0.4042891
-0.06793247 -0.21962553 0.12494645 0.19129285 0.14428003 0.1273042 -0.011272099 -0.1950675
-0.060198896 0.30056733 -0.16027017 -0.053828828 0.04365727 0.33129027 -0.03174852 0.0131134465
-0.19908074 -0.1368065 0.12491757 -0.14795683 0.069824725 0.11388831 -0.12755223 0.2790382
0.24877718 -0.29932097 0.10658364 0.17497711 -0.13942342 0.040985376 -0.0580688 0.22243966
-0.15749112 -0.27153018 0.075990364 0.30767187 0.14904693 0.25191596 -0.114936285 -0.199128
0.13026088 0.42828673 -0.15037273 0.07962143 0.016216865 0.29951683 0.06850378 0.014274577
-0.16880526 -0.031995144 0.20286722 0.02222231 0.13160639 0.03730558 0.15857542 0.30919164
0.17916177 -0.287935 -0.0972037 0.15132384 -0.3640585 0.18547231 0.07775272 0.13630632
-0.24187237 -0.213725 -0.10577481 0.07416565 0.057443622 0.17889196 0.10549698 -0.1344096
0.0103394035 0.33191136 -0.19563265 -0.16941172 0.045005307 0.25472587 0.18621546 0.03416536
-0.23322314 0.18465139 0.286694 -0.19220424 0.057738937 0.024300376 0.12961556 0.19964516
0.16031381 -0.22524318 -0.075465724 0.1543854 -0.047475554 0.14921856 -0.12220109 -0.05134644
-0.24640492 -0.31780416 -0.14744897 0.20343319 0.019442808 0.26874208 0.005981395 -0.14365725
-0.14640003 0.16856317 -0.21885166 0.06715031 0.13807559 0.23517117 -0.054068215 0.044340555
-0.24035579 0.06461751 0.27743962 -0.10778599 0.100479536 -0.0061365585 0.15769123 0.04894473
0.35914713 -0.2980729 0.13595644 0.23234847 -0.23758759 0.2127431 -0.13279536 -0.017918438
-0.16308618 -0.17982726 -0.020045776 0.22058213 -0.0949633 0.30333897 0.10957668 -0.20711562
0.079041 0.36107504 -0.301419 -0.019794745 -0.12990578 0.15121259 0.18024804 -0.0663213
-0.21163811 0.18877895 0.22597161 -0.14368644 0.06610818 -0.009378588 0.10824828 -0.07692484
0.36448923 -0.21723942 0.08124056 -0.05154355 -0.16072729 0.18627028 0.017876878 -0.0011188528
-0.21423598 -0.20956087 0.0016306737 0.19296116 0.060213484 0.22151831 0.1802411 -0.2419113
-0.08590963 0.3431539 -0.09609986 0.06183024 0.03494313 0.15662126 0.15031435 0.015464307
-0.17674886 0.11504615 0.26840353 0.007671971 -0.079658754 -0.031566147 0.09625408 0.1082239
0.2605567 -0.33058512 0.19237953 0.014475618 -0.12625659 0.092551626 -0.05636275 -0.044835445
-0.35346973 -0.18751925 0.050068177 0.15375239 0.18269248 0.23779625 -0.0050429762 -0.18551978
-0.08550875 0.39169505 -0.14707656 0.048634246 0.17473505 0.081586495 -0.04616111 0.0103294905
-0.13060804 -0.0347629 0.28800735 -0.18445584 -0.066033095 0.012757929 0.12452164 -0.041068353
0.30962315 -0.14683563 0.07271666 0.05987679 -0.15008838 0.18690285 0.064708576 -0.0028973795
-0.2024978 -0.34001642 0.085871525 0.21858527 0.015758308 0.16294363 -0.15218379 -0.3814312
00000000: 7969 d63d 1575 413e 5434 96be b5f8 6cbe
00000010: c11d 3abd 8d5f 8d3e d666 be3c edda 13bc
00000020: f442 19be 18d8 5f3c d7f5 b43e 92b2 0dbe
00000030: 31ed a33c 1761 f5bc a758 303e 4e85 6d3e
00000040: 8dec 803e 5ca4 bcbe 5697 fd3b 3f65 8dbc
00000050: b98b c4bd a977 7a3e 7280 aa3d fbfe ce3e
00000060: 2e20 8bbd 84e5 60be ede3 ff3d 46e2 433e
00000070: 25be 133e 085c 023e 9cae 38bc c6bf 47be
00000080: 1e93 76bd f6e3 993e dd1d 24be 9e7b 5cbd
00000090: f7d1 323d e19e a93e bc0a 02bd c8d9 563c
000000a0: d2db 4bbe 0117 0cbe c8d4 ff3d ff81 17be
000000b0: 4400 8f3d 463e e93d 0d9d 02be 18de 8e3e
000000c0: 72bf 7e3e 9940 99be 8648 da3d 332d 333e
000000d0: 03c5 0ebe 48e0 273d 8dd9 6dbd 39c7 633e
000000e0: 5a45 21be 0106 8bbe d6a0 9b3d 2b87 9d3e
000000f0: c29f 183e 21fb 803e b763 ebbd 36e8 4bbe
00000100: 1c63 053e 6648 db3e 4ffb 19be 8f10 a33d
00000110: 3bd9 843c 455a 993e b64b 8c3d eadf 693c
00000120: 49db 2cbe 570d 03bd 6dbc 4f3e 900b b63c
00000130: d3c3 063e bccd 183d 9861 223e 5e4e 9e3e
00000140: 2f76 373e 376c 93be bc12 c7bd a3f4 1a3e
00000150: e065 babe 74ec 3d3e d13c 9f3d e293 0b3e
00000160: 64ad 77be bada 5abe 77a0 d8bd 29e4 973d
00000170: 014a 6b3d 742f 373e cd0e d83d aca2 09be
00000180: 9a66 293c 49f0 a93e ed53 48be 447a 2dbe
00000190: 7c57 383d 6e6b 823e 44af 3e3e faf0 0b3d
000001a0: 0cd2 6ebe 4115 3d3e 8ec9 923e 30d1 44be
000001b0: aa7f 6c3d 9511 c73c f1b9 043e c86f 4c3e
000001c0: 4e29 243e 26a6 66be c68d 9abd 3517 1e3e
000001d0: ba75 42bd c0cc 183e 9144 fabd a550 52bd
000001e0: 9251 7cbe 3ab7 a2be ddfc 16be ca50 503e
000001f0: 8646 9f3c 9098 893e 94ff c33b e31a 13be
00000200: e4e9 15be d39b 2c3e a61a 60be 1a86 893d
00000210: b063 0d3e b6d0 703e a276 5dbd 719e 353d
00000220: d41f 76be 2f56 843d 910c 8e3e e7be dcbd
00000230: 37c8 cd3d 2f15 c9bb cf79 213e 457a 483d
00000240: 22e2 b73e 039d 98be 2a38 0b3e c2ec 6d3e
00000250: 294a 73be 54d9 593e 82fb 07be b0c9 92bc
00000260: 1000 27be a324 38be 0a37 a4bc 48e0 613e
00000270: 1e7c c2bd 3f4f 9b3e bd69 e03d 1e16 54be
00000280: 3fe0 a13d d4de b83e 9753 9abe 9728 a2bc
00000290: 0506 05be 79d7 1a3e f192 383e 76d3 87bd
000002a0: a9b7 58be 454f 413e 1a65 673e 8a22 13be
000002b0: ba63 873d a6a8 19bc 46b1 dd3d c58a 9dbd
000002c0: 559e ba3e 0374 5ebe 7361 a63d 541f 53bd
000002d0: b295 24be a3bd 3e3e 8872 923c 78a6 92ba
000002e0: ad60 5bbe 2097 56be 54bc d53a 9c97 453e
000002f0: 6aa2 763d b2d5 623e 1f91 383e 99b7 77be
00000300: 63f1 afbd deb1 af3e 01d0 c4bd b541 7d3d
00000310: 8720 0f3d 5361 203e 01ec 193e 015e 7d3c
00000320: a7fd 34be 519d eb3d 306c 893e 2865 fb3b
00000330: 2124 a3bd 814b 01bd dc20 c53d 7ea4 dd3d
00000340: b067 853e 7442 a9be 24ff 443e 242b 6d3c
00000350: 6849 01be b58b bd3d a0dc 66bd 5fa5 37bd
00000360: fcf9 b4be 0c05 40be 4a14 4d3d 4471 1d3e
00000370: bd13 3b3e dc80 733e 8d3f a5bb e6f8 3dbe
00000380: 361f afbd 418c c83e 3d9b 16be b434 473d
00000390: bfed 323e d216 a73d 6f13 3dbd 063d 293c
000003a0: 1dbe 05be 8b63 0ebd b375 933e fee1 3cbe
000003b0: 5c3c 87bd a206 513c 3405 ff3d 4a37 28bd
000003c0: ed86 9e3e 145c 16be 79ec 943d 5d41 753d
000003d0: c5b0 19be 7663 3f3e ee85 843d f6e1 3dbb
000003e0: 955b 4fbe a216 aebe 69dd af3d d1d4 5f3e
000003f0: 9117 813c b2da 263e 11d6 1bbe f34a c3be

model.8.bias f4 [10]
-0.10498004 -0.09329116 0.040650155 -0.10955645 -0.1119143 0.056030903 0.13802649 0.14509588
0.18570383 0.12555355
00000000: c6ff d6bd 700f bfbd c780 263d 225f e0bd
00000010: 5333 e5bd a980 653d d156 0d3e 0494 143e
00000020: 2529 3e3e 1c91 003e
