checkpoints/checkpoint_step_2700.pth (torch, 200878 bytes, 10 tensors)

model.0.weight f4 [256, 21]
00000000: 99b6 643d d5d4 8a3c ac68 e23d bad1 8abe
00000010: a71f babe 0105 02be 045f f7be dd23 5c3c
00000020: f889 ad3d 5031 43bd a308 93be 61d6 973d
00000030: 2777 423e 98b9 1ebf 60a5 35be 8325 99be
00000040: 66df 653b bffa aa3d 4ba2 0c3e 5185 f9be
00000050: 7e5f 943e c93b 703d cd23 4b3d 062d 12be
00000060: 1094 42bd b81b 93bf a701 32bd fbda e43d
00000070: 5980 b2bd bd9f d2bd 77f4 9abe 193f b63b
00000080: e109 89bd 4c0e 9bbe 8d91 9fbe 52cc bfbd
00000090: 55e5 023c 46fc 93bc 55f1 3e3e ea58 5abd
000000a0: af4f 2b3e 92ad 22bd 5e38 61bd 6a0c 86be
000000b0: ebf3 7d3e 3fc2 dbbc ad15 033e 51ff af3d
000000c0: 3dbb f8be 47c6 db3d dce5 1b3e fe11 30be
000000d0: 314d 053d 7b45 01bf 1532 eabd 14eb 72be
000000e0: 6e27 5dbe 6d14 b73d 30d3 a5be d1c9 42bd
000000f0: e668 b5bd 0ca1 3dbe f6bf d5bd 5430 393d
00000100: f9e1 b3be b563 69bd 4173 2ebe 16c8 0ec0
00000110: 7290 dfbc dacc 4fbe 6d73 8c3d 7d3f aaba
00000120: 9f1c db3c d142 61bd 3181 3c3e 5f68 823c
00000130: d060 b8bd 0b0a d8bc edc5 1a3e bede a1bb
00000140: f7aa 433e 1484 7bbd d087 c23d 1d07 3abf
00000150: d0d0 0d3e 2ce8 3cbd 1543 d53d 783b 3dbe
00000160: dca0 153d b3b5 22be 77ba 893e 76f3 3d3d
00000170: 2ede bf3d cf0e e0bd 38ff d1bd 43f1 a2bd
00000180: 9d6e 033e ef09 f1bd 665b 4abe 2728 753d
00000190: a083 153e e5a4 ccbe ad46 c2bd 9773 973c
000001a0: b179 12bc b18a 89be 2ce8 573d 9867 86be
000001b0: f7aa 8c3d 1844 f1bd 7a7c 6d3d 56ec 9fbe
000001c0: 2e5e 41bc a940 afbe 0171 2abe 3995 89bc
000001d0: a5b5 4f3e b324 e1bd 34e4 ac3e a1a4 2ebe
000001e0: 9495 a63e 26c4 093d d23e 803e c2cc 8abe
000001f0: 6c44 423e 2942 9f3d d4ec 24bf 940d 80bd
00000200: 4880 943e e0e4 bbbe 0171 4abf b69b 00be
00000210: a2a0 8ebe e5ee a9be 7a38 c4be a5ce 65bd
00000220: 8d5f 8ebe 1548 90be d63c 9abd 07c2 4fbe
00000230: f889 233e 9768 283e 3b94 e03d 1eba cb3d
00000240: c891 56be 209b c6bd 1e5d cebd 0cd1 11be
00000250: 77ad 03be 3c4c 4d3e 37e9 09be d30f 503e
00000260: 322b 2bbd 7c29 b9be b873 70bd ce16 a2c0
00000270: 2fac c1bc fe54 1dbd fff5 00bc c0da 73bd
00000280: 98dc 82bd 36c2 213d 9d6b 653d b3aa 38bd
00000290: df84 23be af68 71bd 4f35 50be c939 58be
000002a0: a17b a7bc 5d4b 03be f943 9a3d 5c3a 5fbe
000002b0: 820c 833d 6e78 453b 3b8a b3be 1bc6 d5bd
000002c0: e5e9 3c3e 66c8 97be 4b0c a2be b824 b7be
000002d0: 4897 95bc dec0 9ebd 0966 2ebe 41d6 98be
000002e0: a9c3 283c 2b06 8ebd afa4 83be 14eb 85bd
000002f0: 3d0b ec3c 945a 323e c3dc 53be ed80 a7be
00000300: 27a9 8fbd 0846 5d3e 6c42 71be c36a 8ebe
00000310: ff41 a5bd 5df0 053d 8775 043d dd1a 3ebe
00000320: a714 05bf 058a c8bd d908 b0be f1de a63d
00000330: fbe7 f9bd 721c 33be 6648 06bf 8db8 e13d
00000340: 55c2 5abe 1e39 aabd 98c1 a33d 39e8 04bd
00000350: 3caa 99bc cabe 7e3d 70af 71bd 46a3 813d
00000360: 4161 5a3e 5a74 33bd 68ca a93c 1ecc c9bd
00000370: 7b50 cd3d 9d7f e3bd 3bc9 093d ef08 f43e
00000380: 79c5 ce3d b8ee 8fbe 0156 6c3e 00cc ab3a
00000390: e4e3 4e3d d5ad a03e fd0f 08be e73c 0cbe
000003a0: 7a71 6f3d 3034 0cbe 75d1 f1bd 433c a53e
000003b0: 5675 ab3c 5099 a43d 83e9 98bd c806 ddbe
000003c0: 118d 51be cbb4 2fbe e891 81be da1c a3bc
000003d0: e8ff c4bd ea2b 65bd 7674 a83e 6c03 74be
000003e0: fe13 99be 0dd8 2dbd 7c60 e2bd 6b22 6dbd
000003f0: 8c7d 113e 6507 163e 82f8 18be 17cf 06be
0.0558382 0.01694719 0.11055121 -0.27113134 -0.36352274 -0.12697221 -0.4831468 0.013436285
0.08473581 -0.04765445 -0.28717527 0.074139364 0.18990766 -0.62001944 -0.17738867 -0.29911432
0.0035075783 0.08348607 0.13733785 -0.48734525 0.28979105 0.058650766 0.04959469 -0.14274988
-0.047504485 -1.1492834 -0.043458607 0.1117458 -0.087158866 -0.10284374 -0.30264637 0.005561721
-0.066913374 -0.30284345 -0.31165734 -0.09365143 0.007989247 -0.01806463 0.18646748 -0.05330745
0.16729616 -0.03971631 -0.054985397 -0.26181346 0.24800079 -0.026826022 0.12801237 0.085936196
-0.4858035 0.10731178 0.15224403 -0.17194363 0.03254432 -0.50496644 -0.11435334 -0.23722488
-0.21597072 0.08939443 -0.32387686 -0.04755575 -0.088578984 -0.18518466 -0.10437004 0.045212105
-0.3513334 -0.056979854 -0.17036153 -2.2309623 -0.027290557 -0.20292988 0.06857953 -0.0012988892
0.026747046 -0.05499536 0.18408658 0.015918909 -0.090028405 -0.026371976 0.15114565 -0.004939883
0.19108187 -0.061405256 0.094985604 -0.72667104 0.13849187 -0.046119854 0.104131855 -0.18479717
0.03653036 -0.15889625 0.26900074 0.04637476 0.09368549 -0.109403245 -0.10253757 -0.07956173
0.12835164 -0.11769473 -0.19761428 0.059852745 0.14600992 -0.39969555 -0.094861366 0.018487735
-0.008940146 -0.26863626 0.05271165 -0.2625091 0.068685465 -0.11780566 0.05798004 -0.31234998
-0.011802239 -0.3422902 -0.1664467 -0.016794788 0.20284136 -0.10993328 0.33767855 -0.17054988
0.32535994 0.033634327 0.25047928 -0.27109343 0.18971413 0.07776291 -0.6442387 -0.0625259
0.2900412 -0.36698055 -0.7907868 -0.12559399 -0.27856928 -0.33190075 -0.38324338 -0.056105275
-0.27807274 -0.28179994 -0.07531135 -0.2028886 0.159706 0.16446148 0.10965773 0.099476084
-0.20954049 -0.096975565 -0.100763544 -0.14239901 -0.1285914 0.20048612 -0.1346787 0.20318536
-0.04178924 -0.36164463 -0.058704108 -5.065284 -0.023641674 -0.038411133 -0.00787115 -0.059534788
-0.06389731 0.039491855 0.05601083 -0.045084666 -0.15968655 -0.058937725 -0.20332836 -0.21115793
-0.020444693 -0.12821718 0.07532496 -0.21799606 0.0639887 0.0030131596 -0.350664 -0.10438176
0.18448599 -0.2964508 -0.31650004 -0.35770202 -0.018260613 -0.0775163 -0.17031111 -0.29850963
0.010300555 -0.0693477 -0.2571158 -0.06538978 0.028813953 0.17417365 -0.20689683 -0.3271555
-0.07014685 0.21608746 -0.23560494 -0.27815828 -0.080692284 0.03269993 0.032338645 -0.18564935
-0.5198464 -0.0979195 -0.3438175 0.081479914 -0.1220245 -0.1749132 -0.5245422 0.110215284
-0.21363194 -0.083116755 0.079959095 -0.032448027 -0.018757932 0.06219367 -0.0590052 0.0632997
0.21326162 -0.043812133 0.020726398 -0.098533854 0.10025116 -0.11108325 0.033639174 0.47663066
0.10096259 -0.28111815 0.23079683 0.0013107061 0.050510302 0.31382623 -0.13287349 -0.13695107
0.05845783 -0.13691783 -0.11807529 0.3227254 0.020929974 0.080370545 -0.07466414 -0.43169236
-0.20463969 -0.17158811 -0.2530663 -0.019911218 -0.09619123 -0.055950083 0.32901353 -0.2382943
-0.29898065 -0.04244237 -0.11053559 -0.05789415 0.14208049 0.14651258 -0.14938548 -0.13164936

model.0.bias f4 [256]
00000000: 1e35 fc3d ad1d 223d 1a46 69be 4ef7 683e
00000010: ddd1 de3e 9c57 323c 6c27 dc3d 9d08 e03d
00000020: 6123 403e 8aca 363e de48 88be 6c48 8fbc
00000030: 189e 223e 4d86 bdbe c457 2d3e 40b4 5b3e
00000040: 40ea b2bd 894d e8bd 138e 533e 3c6a 9ebe
00000050: 396e 52bd 352d c4be 455d 613c 9493 2cbe
00000060: c2de cebe 5214 b1bd 2000 59be 71a1 473e
00000070: c0b2 3dbe 309c 3fbc bb62 b03e 140e 903e
00000080: e171 74be c0a7 29be 423e 9ebe bc03 bc3d
00000090: 77b1 c9bd 2471 9dbe 96dc 003d b4c6 c43d
000000a0: 083f 6bbd e1b9 833d f1a9 da3c 8a96 db3d
000000b0: f464 0b3e edd8 43be 8cc1 e8bd 424a 15bd
000000c0: fe8f 873e f1c5 babd 9a09 943d bb48 703d
000000d0: da72 a2be ea27 90be 1288 803e 0d88 6cbe
000000e0: ecaa aabe d9c6 123d b6ce b3be 6303 4dbd
000000f0: 3494 813d 08c8 f1bd 8b0a c53e ba47 00be
00000100: 6fd5 90bd 4692 5dbe d21f 7bbd abf6 923e
00000110: c745 8dbe 05cb 973e 7255 10be dba1 ab3e
00000120: 5aad 71bc 41d3 503e d5b2 8dbe 0964 9bbe
00000130: b3fa 74be 9a1d f6bd f7a3 3ebe 22ff e93e
00000140: a864 083d 99cd c73e 3bbd fcbe c195 21be
00000150: f099 893d d16d 14be 8b5a b13e 4206 d53e
00000160: 9662 cfbc 65c2 843d 571a 933e 9df9 32be
00000170: 71ac e0bd 027b 08be cfc5 c3bd 3b57 89be
00000180: 8418 96be b079 f9bd 6f63 b8be db56 eb3e
00000190: 9c8c d23e b364 25be d5ac 04be daaa 873e
000001a0: 9be7 783e 526b 2b3e 03d1 b1bc dfa6 0d3e
000001b0: 9550 0dbc 1d7e 08be 1964 e53c 6405 99bd
000001c0: f787 2cbe 9eb0 adbd 77d2 f1bc 20be b6bd
000001d0: 173d 1f3e ab4f a33e 7106 20bd ab68 1c3e
000001e0: 7158 c3be 56fc 963d 0491 0cbe 1e59 cf3d
000001f0: 369a d8bd 517e e6be 5e4a bb3e 171a 893e
00000200: bc35 9ebe 3c1a a0be 7787 bcbd 7da0 a83e
00000210: 69a1 293c 355e 8abe 0e62 d13e 424c 833e
00000220: dd93 fabd c3f3 65be abd1 1f3e 042f 383e
00000230: 8b4f f6bd 1a8c 96bc 9ddc 783e 4fbc 0dbe
00000240: 89ff 133e 5857 af3e 7f52 083e 2c0a e23d
00000250: 40a8 23bf c8a1 0ebe b8d6 de3d 5bb9 20be
00000260: f764 bb3e 8608 bdbe 8ce5 64be 0b68 ff3d
00000270: bcd4 77bc b755 5c3e f681 8d3d 3830 d73e
00000280: e72b 4abe 4f48 0ebc c750 953e 7605 b23d
00000290: ed15 73be 730d 1e3e b3f8 c7bd a4fc 00be
000002a0: 265f fcbc 217a af3e 5155 51be 81d4 8ebd
000002b0: 7529 823e e90f 85be 165e a43e dbf7 a93d
000002c0: 664e 9abe 89e9 8d3e 52f9 7fbd 042c 57be
000002d0: 8e7c b1be 4f7e b93e f839 1e3d 6ac3 483d
000002e0: fe6d acbd 0a5d e8bb a6fd 81be 3e21 c0be
000002f0: 17b3 b53c 17f6 0c3e 2a23 6cbe 83fe a73e
00000300: 31eb 9d3e 55cc 4cbd 660e 28be 08f7 98be
00000310: dcc4 b83e cd43 f3bd f33b a63e 0eae adbb
00000320: 5b95 a5be e69d aebd a9a8 4a3d 7120 8b3d
00000330: f4f5 bc3c 98ea 3e3d ca6f d2bd 67dd 4cbe
00000340: a0e6 df3c 415a 60be 031b 273d aea2 ce3d
00000350: 776a d03d 43a5 503e 2fef fabd 9fb4 38be
00000360: 0002 8e3e 9aac 7d3e 793b b0bd e4d8 8d3e
00000370: e382 48bd 4e8c 08be 3df7 bd3c dfe3 55be
00000380: 116e 81be 6f07 92be fa52 273e 0512 58be
00000390: 2850 743d d747 473e d392 343e 31fa afbd
000003a0: f2d1 f13c 42d8 183e 06f6 b53e 0967 99bc
000003b0: c39b 5f3d bf4d 4fbe d807 d53e 9846 823e
000003c0: f30b 84be 0dec a03d f106 19bd 999b 7ebd
000003d0: a62c 0ebe 8c08 9ebe cbf6 853e b2c9 eb3d
000003e0: b752 98be f093 50be ad60 e33d 823d 903d
000003f0: 101a 37be 1817 c1be 446b f13d 93d6 3d3e
0.12314819 0.039579082 -0.22780648 0.22750589 0.43519488 0.0108851455 0.107497066 0.10939143
0.18763496 0.178507 -0.26618093 -0.017490588 0.1588062 -0.37016526 0.16928011 0.21455479
-0.08736086 -0.11342914 0.20659666 -0.30940425 -0.051374648 -0.3831574 0.013755147 -0.16853172
-0.40404326 -0.08646454 -0.21191454 0.19495179 -0.18525219 -0.011694953 0.34450325 0.2813574
-0.23871566 -0.16567898 -0.30906874 0.091804 -0.09848302 -0.30750382 0.031460367 0.09608212
-0.05743316 0.06431938 0.026692363 0.107220724 0.1361273 -0.1912572 -0.11365041 -0.03644777
0.26477045 -0.091197856 0.07228394 0.05866311 -0.3172825 -0.28155452 0.25103813 -0.23098774
-0.33333528 0.035834167 -0.35118645 -0.050052058 0.06327096 -0.11805731 0.38484606 -0.12527362
-0.07071959 -0.2163783 -0.061309643 0.28703818 -0.27592298 0.2964708 -0.14095095 0.33521923
-0.014750803 0.20393087 -0.276755 -0.30349758 -0.23923759 -0.12017365 -0.18617235 0.45702463
0.03329912 0.39024046 -0.4936312 -0.15779783 0.067188144 -0.14495017 0.3463939 0.41606337
-0.025315564 0.0648239 0.28731033 -0.17478032 -0.109703906 -0.13328174 -0.09559213 -0.26824364
-0.2931558 -0.12181413 -0.36013362 0.45964703 0.411229 -0.16151695 -0.12956555 0.26497537
0.243071 0.16740158 -0.02170611 0.13833188 -0.008625169 -0.13329358 0.028001832 -0.07471731
-0.16848741 -0.08480953 -0.029519303 -0.08922982 0.15550648 0.3189672 -0.039068643 0.15274303
-0.38153413 0.07372348 -0.13727194 0.1012442 -0.105762884 -0.45018247 0.36580175 0.26777717
-0.3090037 -0.31270015 -0.09205525 0.32934943 0.010353425 -0.27025 0.40895122 0.25644118
-0.12235234 -0.22456269 0.15607326 0.17986685 -0.1202689 -0.018377353 0.24302907 -0.13841365
0.14452948 0.34246325 0.1331272 0.110370964 -0.63928604 -0.13928902 0.10880798 -0.15695707
0.36600468 -0.36920565 -0.2235319 0.124710165 -0.015126403 0.21517073 0.06909554 0.42028975
-0.1974331 -0.008684232 0.2916319 0.08692448 -0.23738833 0.15434818 -0.097642325 -0.12596375
-0.030807089 0.34272864 -0.20442702 -0.06974126 0.25422254 -0.259887 0.32103032 0.08299228
-0.30137938 0.27717236 -0.06249363 -0.21012884 -0.3466534 0.36229178 0.038629502 0.049014486
-0.08419417 -0.0070911692 -0.2538883 -0.37525362 0.022180123 0.13765751 -0.23060289 0.32811365
0.308435 -0.049999554 -0.16411743 -0.2987597 0.36087692 -0.11878166 0.32467613 -0.00530029
-0.32340512 -0.085262105 0.049477253 0.06793297 0.023066498 0.046610445 -0.10275228 -0.20006333
0.02733165 -0.21909429 0.040797245 0.100896224 0.101765566 0.20375542 -0.12252652 -0.18037651
0.277359 0.24772874 -0.086050935 0.27704537 -0.04895295 -0.13334772 0.023189181 -0.20887707
-0.25279287 -0.28521296 0.16340247 -0.21100624 0.059646755 0.19460998 0.17634134 -0.08592642
0.029519055 0.14926246 0.35539263 -0.018725889 0.054591905 -0.20244502 0.41607547 0.25444484
-0.25790367 0.07857523 -0.037360135 -0.06216011 -0.1388422 -0.30865896 0.2616485 0.1151308
-0.29750606 -0.20368934 0.11102424 0.07042982 -0.17881036 -0.37712932 0.117880374 0.18538885

model.2.weight f4 [128, 256]
00000000: fb33 cf3d cd5c d13c f7d8 d53b 2efd 263c
00000010: 66a0 8e3d 8671 8bbd 4979 a0bd 89ee 4a3d
00000020: 2bbd 33bd dad5 d4bc 4dc1 b53e 06fe b1bd
00000030: c82a a03e 046a c33d f9f8 3b3e 9a5f f73c
00000040: ecc3 363c 0a07 f0bb ba94 26be 4587 273e
00000050: defd d2bd 66ec 833d 48e1 90bc 50e9 ef3d
00000060: bd10 2f3e 6889 cd3d a7e0 7bbd 978e 033e
00000070: 3f82 d63a a462 253d 6bc3 303e 9ed2 c0bd
00000080: 539d f3bd 1c93 bbbc 9a27 b83d 0161 a6bb
00000090: 40ba 8b3b c859 c53d e066 3ebd 183f 593e
000000a0: 49e2 c53d 881c 2dbe 783e 943c b26b c03d
000000b0: 72e5 b2bd eb0e a9bc 5eff 1cbd 2a57 2cbd
000000c0: ea93 413e b03e 373d aa45 153e edca 453d
000000d0: 9aa0 8e3d 0309 5bbd 228c 5c3e 26f2 ebbd
000000e0: 8840 c63d 389e 1a3d d09b 81bd d2f7 f2bd
000000f0: c024 02bc 7af0 bb3c e4c3 533e 17e7 2e3c
00000100: 3577 693d e599 5ebd 5517 89bc 34bb 4f3e
00000110: 7aa2 b8bd 1618 043e 2225 0bbe 8120 883e
00000120: e83a 48bd fb99 623e 0d59 6f3e 951d 953c
00000130: 87a1 7a3e 3db8 f93d fc9f 4d3e 324d 203e
00000140: 2b3d 2c3d f91d 863e 77f6 833e 3e82 933d
00000150: 2710 8bbc b67d 07be 7c35 a43d 1106 093e
00000160: 3ef3 463e e0de a0bb 0fa4 fb3d 4674 51bd
00000170: 7444 0e3e e4d8 783b 9555 943e 42e8 583a
00000180: 1097 3f3d 98a9 e3bd 1ef3 163e bf0c 7b3e
00000190: 252c 913e 7b2a af3c 2d5c e6bd aaf0 273e
000001a0: f36e 473e e100 a93d fb11 dd3d 86bb ac3d
000001b0: 39a1 973d 5473 18bd e4ff 533c 4da2 143d
000001c0: 2e3e 313c 247e 1cbd 446e 6dbe 06c9 a2bc
000001d0: a8f3 8ebd 8306 593e cb15 223e b88e 853c
000001e0: 87cc 453d 5c69 a63d 3daf f7bd a42a 313e
000001f0: da43 bd3d 885f 9abd 86dd 5c3e 9fd1 c13d
00000200: 8595 e83d 1177 823b 5912 c33d e839 8f3e
00000210: e2c3 b23d bbb2 973c 5188 223e c895 6d3e
00000220: f6ab 9a3d 6d9e 83bd 8ec5 173e 07a5 013f
00000230: f015 cabd 6491 bdbd d468 fa3c 96d9 4e3d
00000240: af2e 41bd 2d0e 3c3d aa42 853d fc1e 333e
00000250: e4c1 efbc b229 5bbc c92f 333e f618 b0bd
00000260: 34e0 763e cd48 e33c 0edd 473d bae4 103e
00000270: 7cf1 d0bc 3ccc 063e ee8b a73c 3ba6 c73d
00000280: a11c b93b 7db4 533d 3e0e 803d 09a2 c4bd
00000290: 7231 6abc 2a02 ec3d 71de 483e a5ba d63d
000002a0: 3135 1e3c c94e 103e 61e3 7f3e 1b13 1cbd
000002b0: 3b63 503d 554f cdbb af69 743e cc61 033d
000002c0: d76a 293a 848c b03d a8db 07bd 37f4 8bbe
000002d0: 9f47 823d 1772 853e 4500 29be 7a5e 30bd
000002e0: 0e85 12bd a20b 57bd 9c33 a4bd 57ef 013d
000002f0: d923 c53d 0201 68bc 59c1 8cbd aa2c 2a3d
00000300: f900 62be 7c06 3f3e 929d 85bd 6529 043d
00000310: 2cf3 ab3d 2262 39be 94d2 1f3e 0b34 d8bd
00000320: fe93 853e f1c6 ca3d 8b34 193e a747 fabe
00000330: eef9 36bb 60fc a33d cccd b03d db84 88bd
00000340: 756f 1cbc c64b 663d 0535 9b3e 38a5 35bb
00000350: 6cd6 b1bc 7d4e 373d a171 ec3c 437c f2bd
00000360: 3d77 aabd 4231 c03d 1a83 193d c9ba 65be
00000370: 2e34 f2bd 1963 ac3d a162 183d 5e59 1dbe
00000380: 1387 2a3e 9579 51bd 9a81 693d 7a93 50bd
00000390: d1f0 fbbc 06e4 d73d 8545 333e 3b32 bf3d
000003a0: 40c7 383c 92d3 50bd 0ea6 453d abf1 883d
000003b0: 5d64 12be ce90 91bd 7720 8a3e 5777 ffbe
000003c0: 636a 3c3c b124 d53d 2d71 483d 4219 bebd
000003d0: 1951 5f3e 4130 0ebe e67a 9f3b 1e52 e73d
000003e0: f027 503e af4d a23d 1e37 083e 5b1e 84bc
000003f0: 53ba c53c 6f27 e8bc 46cb 893c 1e68 7fbd
0.10117336 0.025556946 0.0065261084 0.010192199 0.06964187 -0.06808762 -0.07835633 0.04954389
-0.043881577 -0.025980879 0.3549904 -0.08691029 0.3128264 0.09541705 0.18356694 0.030196954
0.01115511 -0.007325058 -0.16267672 0.16360195 -0.103023276 0.06441574 -0.017685547 0.11714423
0.17096229 0.10035974 -0.061493542 0.12847362 0.0016365721 0.040377274 0.17262046 -0.09415172
-0.118952416 -0.022897296 0.089919284 -0.0050774817 0.004264146 0.09636265 -0.046484828 0.21215475
0.09662301 -0.16905415 0.018096194 0.09395541 -0.087351695 -0.020636996 -0.038329475 -0.042075314
0.18904081 0.044737518 0.14577356 0.04828923 0.06964226 -0.05347539 0.21537831 -0.115207955
0.09680277 0.037748545 -0.06328547 -0.11863674 -0.007943332 0.022941817 0.20680195 0.010675213
0.05699845 -0.054345984 -0.016734758 0.20286256 -0.09015365 0.12899813 -0.13588384 0.265873
-0.048884302 0.22129051 0.23373814 0.018202582 0.2447568 0.12193344 0.2008056 0.15654448
0.04205052 0.26194742 0.25773975 0.07202576 -0.016975475 -0.13231549 0.08018014 0.1338122
0.19428727 -0.0049093813 0.12287151 -0.051136278 0.138933 0.0037971074 0.28971544 0.0008274355
0.046774924 -0.11116332 0.1474118 0.24516581 0.28353992 0.021382561 -0.1124805 0.164004
0.19475918 0.08252121 0.10794445 0.08434205 0.07403798 -0.03721936 0.012939427 0.036287595
0.010818047 -0.038206235 -0.23186594 -0.019871246 -0.069800675 0.2119389 0.15828626 0.016303405
0.048290756 0.081255645 -0.12093971 0.17301422 0.09241457 -0.075377524 0.2156888 0.0946381
0.113566436 0.003981479 0.09524984 0.27973866 0.08728768 0.018517843 0.15872313 0.23201668
0.0755233 -0.06426702 0.14821455 0.50642437 -0.098674655 -0.09256247 0.030567564 0.050500475
-0.04716366 0.045911957 0.06506856 0.17492288 -0.029267259 -0.01337664 0.17498697 -0.08598511
0.24108964 0.027744675 0.0487948 0.14149752 -0.025505774 0.13163847 0.020452466 0.09748503
0.005649165 0.0516858 0.062527165 -0.09601218 -0.014294015 0.1152385 0.19616105 0.10484818
0.0096562365 0.14092554 0.24989082 -0.038104158 0.050875884 -0.0062655606 0.2386844 0.03207569
0.0006462759 0.08620551 -0.033168465 -0.2733476 0.06361317 0.26063606 -0.16504009 -0.04305885
-0.035771422 -0.05250133 -0.08017656 0.031722393 0.09625978 -0.0141603965 -0.06872816 0.0415465
-0.22070684 0.18654817 -0.06524195 0.03226604 0.08395991 -0.18103841 0.15607673 -0.105568014
0.26089472 0.09901226 0.1496145 -0.4888279 -0.0027919966 0.08007121 0.08633003 -0.06665965
-0.009548058 0.056224607 0.30313888 -0.0027716886 -0.02170869 0.044752587 0.028862776 -0.11840107
-0.08323524 0.09384395 0.037478544 -0.22434534 -0.11826359 0.08417339 0.037203435 -0.15366122
0.16653089 -0.05114134 0.057008363 -0.050921895 -0.030754479 0.10541539 0.17506988 0.093357526
0.011277974 -0.05098302 0.048254065 0.066867195 -0.14296098 -0.071076974 0.26977894 -0.49895737
0.011499974 0.10407389 0.048936058 -0.09282161 0.2180828 -0.13885595 0.0048669456 0.112949595
0.20327735 0.07924973 0.13302276 -0.016127756 0.024136698 -0.028339116 0.016820561 -0.062355153

model.2.bias f4 [128]
00000000: eada b53e f55f eb3a fdbb 66bc d4be 42bd
00000010: 55ed b0bd 50de 373e b5f3 89bd 29f1 173d
00000020: 6c9b 1ebd 279d d2bc 0809 7ebd bd8d 8bbe
00000030: 4152 e0bc c146 b53a d0b2 abbd 7ae0 70bc
00000040: 10fb 14bc fa02 633e b862 b3bd ed68 33bd
00000050: 5414 d93c ab9f 953e effd a73b 87bc 9e3e
00000060: 2ee8 013e abb6 8a3e d407 a6bd d66b 3dbd
00000070: 3ef4 a93b 9a8c cdbc 34b0 ff3d 84cd 84bd
00000080: 9bf2 ac3e 66ea acbc 24bc 0abc ff90 88bd
00000090: a379 863b bf16 413d 69d1 6fbc f67d 59bd
000000a0: b34f 693e 45b5 32bc 4fe6 8a3d e314 6abd
000000b0: fdb3 a9bd 195f 1fbe 55f6 2d3c 09fa 803e
000000c0: 80a9 efbd fe28 b53e 1916 483c 0e40 b5bc
000000d0: d3af aabc 9844 96bc a507 b7bd 06a6 123d
000000e0: 5d47 2bbd f74b 203e d894 813e 2830 03bd
000000f0: ef68 65bd ea6a aa3e c0f5 91be c0e8 f83d
00000100: f13d 523d 9cb3 9bba cd44 a13e c26c cabd
00000110: a4c9 393e 2a3f 913e d361 bebd 0100 fe3d
00000120: 27a2 9bbd 4d5a 063e 26c6 b43e ff23 603c
00000130: d671 d3bc ddc6 b5bd 5904 2e3e 3c85 f0bc
00000140: 77ca 703b 3a03 5a3d e057 89bc b08d 303e
00000150: 44d5 90bd 7f48 843d 6562 443e eca3 70bd
00000160: facf 853e d0d7 c73d 03d2 ae3e 33ed dabc
00000170: dea9 53bd 019d d9bb 969a db3c 331b bcbc
00000180: 78fe 913e 42b4 443c 1bf3 763d 0c9b e33c
00000190: 9de5 70ba c918 3a3e 99a4 233e 39ef 433e
000001a0: abfd d1bd 49b5 8dbe 748a 58bd 63b3 b0bd
000001b0: 5f1c 493e f210 cd3e 6e8b 913d 651f 5dbd
000001c0: f785 063d 3830 023d 233a a73e d845 d23d
000001d0: f772 0fbe c90b 1e3e 2ec1 bb3e e409 c23d
000001e0: 6d99 533e 091a be3e 9342 12bd 5e07 91bd
000001f0: 6884 3dbd dc45 d0bc 02fe 843d 93c1 18bc
0.3551858 0.0017957675 -0.014082906 -0.04754527 -0.086390175 0.17955899 -0.067359366 0.037095223
-0.03872244 -0.025709702 -0.06202033 -0.27256575 -0.027382972 0.001383029 -0.08383715 -0.014701957
-0.009093061 0.22169104 -0.087590635 -0.043801237 0.026498951 0.2922338 0.005126707 0.3100321
0.12686226 0.2709249 -0.08106962 -0.04624542 0.0051865866 -0.025091458 0.1248478 -0.064845115
0.33778843 -0.021107864 -0.008467708 -0.06668281 0.0041038557 0.047140833 -0.01463733 -0.05309864
0.22784309 -0.010907476 0.06782209 -0.057148825 -0.08286283 -0.1556362 0.010617812 0.25190762
-0.117022514 0.35382837 0.0122123 -0.02212527 -0.020835793 -0.018343255 -0.08937005 0.035802864
-0.041816104 0.15653978 0.2530887 -0.032028347 -0.056008276 0.33284694 -0.28507805 0.121537685
0.051328603 -0.0011879089 0.31497803 -0.09884025 0.18143326 0.28368503 -0.09296002 0.124023445
-0.075992875 0.13120385 0.35307425 0.013680457 -0.025811117 -0.08875821 0.16993846 -0.029360406
0.0036741772 0.053225733 -0.016765535 0.1724155 -0.07071927 0.0645914 0.1917816 -0.058750078
0.26135236 0.0975796 0.341446 -0.026724434 -0.05167567 -0.006641031 0.02680711 -0.022962188
0.28514457 0.012005867 0.060290437 0.027783893 -0.00091894885 0.18173517 0.15980758 0.19134225
-0.102534615 -0.27677372 -0.052866414 -0.08627965 0.19639729 0.4005199 0.07106672 -0.05398502
0.032842603 0.031784266 0.32661542 0.10267228 -0.140087 0.15434183 0.36670822 0.09474543
0.20663996 0.37129238 -0.03570802 -0.07081483 -0.04626885 -0.025423937 0.06493761 -0.009323495

model.4.weight f4 [64, 128]
00000000: 5b06 f93d e0be cb3c 7df4 ee3d 2541 c5bd
00000010: b3fd fcbd e4bb 29bd aa70 843d fbc2 2c3d
00000020: 3a22 29be 8bc3 6ebc 77e9 a5bc 0267 09bf
00000030: 9fb0 a0bd 444f 46bd 9e0d 42be 0b1a be3d
00000040: 9467 aa3c fb2a a1bb 6b9d 0bbd 2287 46bd
00000050: d09f 043c 88c5 d4be acdd d13d 75e7 143e
00000060: de60 903e 3b41 c3be de65 253e c1d5 09bd
00000070: 8288 843d 8295 563d 1232 68bd 8947 4e3d
00000080: 8d16 9f39 4146 e6bc 128a 733e 56ae 283d
00000090: 8808 72bc e690 323e a2b6 b73b c548 0b3d
000000a0: 183c 173e 7d7f c5bd c537 0dbe 213f 99bc
000000b0: df59 023c 6d8c 88bd 8590 27bc fd17 e3bd
000000c0: 823d 89be d35f 22bf d798 26bd 0cc1 eab9
000000d0: 12b1 a13c 3ecf 7f3d ff2e 973d 3741 05bd
000000e0: 057c c4bc 3169 dbbc 33ab 47bd 8704 9dbc
000000f0: 3e32 853d 2962 863d dab9 013f 3f74 693e
00000100: 3bbe 1fbe 1449 a53d 5bfb 2d3e ea11 e4bc
00000110: 0baf 17be 2cef 783e a6c2 62bd c1d9 043f
00000120: 0582 113d 3cbb b2bd 2ae8 553d d613 41bd
00000130: 57a1 87bd 6514 a13c f74a d13e bc15 f63d
00000140: 54c5 763c f80e b0bd bdec 663d c9f7 153f
00000150: b8ee b43d 35c1 ddbd ea0a 9cbd 23b8 a73d
00000160: e7e5 923e c716 de3c d5e1 c0be e468 1dbd
00000170: 7c41 a83c e8f3 b13d a250 a63e 787d d9bd
00000180: 5c33 90be 648e 953d e96c ebbd c452 25bd
00000190: 6706 483a 6825 c83d 2499 253d f3ae 2f3e
000001a0: 6418 22bd c9a0 cabe 48c0 26bd dba6 cebd
000001b0: 0448 aebd ec00 053d c1a7 183e f869 b83c
000001c0: 754c 323e 321c 1f3e b33f 753e 43bb 26be
000001d0: c75a 25bc 0f47 aabb 33e2 b8bc 8752 2b3e
000001e0: 70fa 923d bd25 ac3e 7dba 003d ea9b 2fbd
000001f0: a0ce 54bd 9499 f7bc c90d 20be 4180 79bd
00000200: 921a 6b3c 5246 643d f16a 403c 1d1b 7bbc
00000210: e139 9abc 9c10 ca3d e8a8 e1bb ed59 003c
00000220: 662e 613d c829 06bd 8f4b 87bd 43ec 773d
00000230: 23f4 333d 3425 aa3c c457 c2bd c635 413d
00000240: 0957 a3bc bb28 b5bd 7adb 7bbd 1a6b 8d3d
00000250: 4466 a8bd f0c9 abbd bf3c 883d 4335 673d
00000260: 6e95 9a3c a95a 6fbd a37f c5bd 6091 dabb
00000270: 7947 e1bb da06 41bd 1c80 34bd 5e85 3a3d
00000280: 6a98 8dbd 4e02 4dbd 050f 00bd a6e6 b2bd
00000290: fb76 7b3d f47f 1fbc b054 9d3c fbb9 0e3d
000002a0: a056 9a3c 10af 123d a9e8 a6bc 15d3 9c3d
000002b0: 4007 09bc 64c0 9cbd c1b9 033d 8a46 863d
000002c0: 2eec 01bd 105b 90bc ea00 543c f91d 9a3d
000002d0: 8005 a8bd 7ecc 23bd beec 57bd ae17 93bd
000002e0: 1fdd 7abd 7871 3cbc 356d b5bd 124b 9fbd
000002f0: 34b6 59bd d5ce 9d3d 40f5 3d3d 7764 acbc
00000300: a28d b2bb 1a2c 8abd e753 1abd 2037 903c
00000310: 911c 2ebd 1dc7 c6bd 9c3e 99bc b91d 9fbd
00000320: e0a2 27bb 242a e93c dc40 70bc aa23 d73a
00000330: 420a 83bd 364a 5d3d 4c72 3bbd 1361 803c
00000340: 0623 183d b15e ed3c 35a1 253d 86a7 6e3c
00000350: e04f 3abd f2c0 663d 1587 abbd 83a8 803d
00000360: 4e21 98bc f3a6 92bd 56f8 13bd 68fd f1bc
00000370: 3a60 54bd eeca 393d 38ae 13bd efb7 613d
00000380: 30d7 86bd 0e95 403d 31ef adbd ea4d 973c
00000390: ace1 babd 7c8a 88bd b8ea a8bd 3cef 713b
000003a0: ad76 873d 30d1 babc 2247 713d 4586 653d
000003b0: 66d0 b8bd c022 1ebd 511a cdbd 918c bcbc
000003c0: 6700 a1bd b738 063c 6061 a13c 7c1a 3ebd
000003d0: b0cc 66bc 8050 cabd 9866 903b 5ea5 f0bc
000003e0: dc0f 743d a848 55bd d754 48bd 182c 2fbd
000003f0: f6ec 353d 54d1 c8bc 01b8 803b 2e6f 5b3d
0.12159415 0.02487129 0.11667726 -0.09631566 -0.12353077 -0.041438952 0.064668015 0.042178135
-0.16516963 -0.014572988 -0.020252926 -0.536728 -0.07846188 -0.048415437 -0.18950507 0.09282311
0.020801343 -0.0049184537 -0.034085672 -0.048468716 0.008094743 -0.41556954 0.10247359 0.14541419
0.28198904 -0.38135704 0.1615214 -0.033651117 0.06471349 0.052388676 -0.056688376 0.05036119
0.00030343645 -0.028109672 0.23783138 0.041181885 -0.014772542 0.17438087 0.0056064883 0.034004945
0.14769018 -0.09643457 -0.13790806 -0.01870686 0.007955997 -0.06667409 -0.010227327 -0.1108856
-0.2680474 -0.63427466 -0.040673103 -0.0004477579 0.019737754 0.0624535 0.07382011 -0.032532897
-0.023984918 -0.026783558 -0.048747253 -0.019167198 0.065037236 0.06561691 0.5067421 0.2279825
-0.15599911 0.08070579 0.16990416 -0.027840573 -0.14812867 0.24309987 -0.055361412 0.51894766
0.035524387 -0.087271184 0.052223362 -0.047138058 -0.0662257 0.019663045 0.40877506 0.12015864
0.015061695 -0.08596605 0.056378115 0.58581215 0.088345945 -0.10827867 -0.07619269 0.08189418
0.28691027 0.02711047 -0.37672296 -0.03843011 0.020539038 0.086890996 0.32483393 -0.106196344
-0.28164184 0.073025495 -0.11495382 -0.040362135 0.00076303486 0.0977276 0.04042925 0.17156582
-0.039574042 -0.39575794 -0.040710717 -0.10090419 -0.0850983 0.032471582 0.14907743 0.022511467
0.17411979 0.155381 0.2395008 -0.16282372 -0.010092444 -0.005196459 -0.022568798 0.167307
0.071766734 0.33622542 0.03142785 -0.0428733 -0.051954865 -0.030224599 -0.15630259 -0.060913328
0.014349597 0.055731125 0.011744247 -0.0153262885 -0.018826427 0.09866449 -0.0068865903 0.00783394
0.05497589 -0.03275469 -0.066062085 0.06052805 0.043934 0.020769693 -0.09489396 0.047170423
-0.019938963 -0.08845659 -0.061488606 0.069051936 -0.082226306 -0.08388126 0.066522114 0.05644728
0.018870082 -0.05843607 -0.096434854 -0.006670162 -0.0068749753 -0.047125675 -0.044067487 0.045537345
-0.06913836 -0.050051026 -0.031264324 -0.08735399 0.061392765 -0.009735096 0.019205421 0.034845334
0.018840134 0.035811484 -0.020374613 0.07657448 -0.008363545 -0.07653883 0.03215957 0.06556423
-0.03171938 -0.017621547 0.012939671 0.07525248 -0.08204174 -0.03998994 -0.05271601 -0.07182251
-0.061246034 -0.011501662 -0.0885872 -0.077779904 -0.053152278 0.07705466 0.046376467 -0.021044
-0.005449013 -0.06746693 -0.03767767 0.01760441 -0.04250771 -0.097059466 -0.018706612 -0.07769341
-0.0025579259 0.028462477 -0.014663901 0.0016413827 -0.06398441 0.05402585 -0.0457633 0.015671289
0.037142776 0.028975816 0.040436942 0.014566308 -0.04548633 0.05633635 -0.08375374 0.06282141
-0.018570568 -0.07160749 -0.036125503 -0.029539779 -0.05184958 0.045359544 -0.03605482 0.055107053
-0.065840125 0.04701715 -0.08492888 0.01846977 -0.09125075 -0.06667039 -0.08247894 0.0036916276
0.066144325 -0.022804826 0.05890573 0.056036253 -0.09024124 -0.03860736 -0.10014785 -0.023016246
-0.07861405 0.008192233 0.019699752 -0.046411976 -0.014086887 -0.098786354 0.0044067614 -0.029375728
0.059585437 -0.052071244 -0.048909035 -0.04276666 0.044415437 -0.024513878 0.003928185 0.053572826

model.4.bias f4 [64]
00000000: 1c1d 973e aaa6 c4bb 4f3d 113e 2a55 a83d
00000010: 6a2e ef3e 0f48 2b3e 4076 cb3d 54c4 8abc
00000020: 93e8 4f3e 75fc 963b b7f4 793e 5c6f cfbd
00000030: 2b51 ea3e 2576 b1bd 5565 6d3e 5cc6 d1bc
00000040: 9cd8 aa3b 5c6f fd3e d334 dcbd 1679 ffba
00000050: 5ead f93d 390d 57be 9e43 873e 1d18 6d3b
00000060: 7684 973c 145b bd3d 419d 1a3b 9d62 123f
00000070: 3148 eebd 8150 b73b ae4d 42bd 5d15 473d
00000080: ac1b 9f3e 7700 febd 6a3b 84bd 98f8 dd3d
00000090: 2c08 3b3c 13a4 fa3c 5b3f c6bd b7f7 c03d
000000a0: 3650 e53d 8149 cb3e 7ee4 b8bd 9c9f 563e
000000b0: 50d1 bdbd 6c13 c13e 65a3 f9bd fa13 1c3b
000000c0: 63ce 44bd fc3f c2bd 9ef9 013d dbfc e33e
000000d0: dd65 403d 5453 483e de8f 723e 67c6 413d
000000e0: e38d 9d3d a455 8fbd d14e b3bd 7cbb 4e3e
000000f0: 7e70 02bd cf0d 02be 4b48 20bd cb92 e73b
0.29514396 -0.006001313 0.14183544 0.08219369 0.467151 0.16726707 0.09934664 -0.01693932
0.20303564 0.004607732 0.24409758 -0.10128662 0.4576505 -0.086651124 0.23183186 -0.02560728
0.00521381 0.49499023 -0.10752263 -0.0019491042 0.1219127 -0.21001138 0.26418775 0.0036177703
0.01849578 0.092458874 0.0023592266 0.5718172 -0.11634863 0.0055943136 -0.047437362 0.048604358
0.310758 -0.124024324 -0.06456645 0.10838431 0.011415523 0.030595815 -0.09680053 0.09422248
0.1119694 0.39704517 -0.090279564 0.20959324 -0.09268439 0.3771013 -0.12189368 0.0023815618
-0.04804839 -0.0948486 0.031732194 0.4452885 0.046972144 0.19563037 0.23687693 0.04730835
0.07693078 -0.069987565 -0.087552674 0.20188707 -0.031845562 -0.1270058 -0.039131444 0.0070670596

model.6.weight f4 [32, 64]
00000000: 21ad 083d c8a2 5dbd 2404 763c 8bcc eabd
00000010: 2d7a 20be 23b8 7a3d 278a 7b3d fbc2 c33d
00000020: bcd3 183d 5959 f9bb f2e5 67b9 4cea 49bd
00000030: 5620 9ebd e47c a3bd 58a6 58bd e2ca b9bd
00000040: 4fda 91bd 534d 19be 80a0 2dbb ad9d 903d
00000050: a81d f5bd a2d0 843d 7cdc 9c3d 938f 663d
00000060: fc68 f9bd 1094 10be 370d edbc 6a9c 2f3d
00000070: def2 7b3d 1d2c b5bd 5957 fabd 99bf 843d
00000080: bdef a13d 08e0 2e3d 1fc5 613d d75f e9bd
00000090: cde2 2bbc 4d67 69bd db2d 03be e93b e5bd
000000a0: c3c3 4c3d 747c 3dbd e0c4 eb3b 2be5 20be
000000b0: 2818 8f3c f900 03bd 9bd1 cabd 35cb c23b
000000c0: 90c9 bebd d93d c2bd badb 2f3d eae3 a8bd
000000d0: 581f 0dbe 12be 3fbd 7290 07be 8b59 cf3c
000000e0: 2d9c a4bd cc05 f8bd 4612 61bd 3ed1 453d
000000f0: bda8 0cbd 24cf 9dbd f4cf c53d 47a0 be3d
00000100: 4b3d d13b aaa7 e1bd b9de 6bbe 3a5d 173e
00000110: 2698 b73e 5643 bfbd 022f 44bd 3011 d03d
00000120: 6908 23be 257f f9bd cda8 eb3d 922a c0bd
00000130: 850a df3e a7cc 813d e530 e4bd 835a 423e
00000140: 809a 5ebc 5bca 803e e6f9 f33d 33b2 c43d
00000150: 6b33 553d a3ae 2cbd 6ee5 94bd b34d a93c
00000160: 4246 c03e ad64 b13e c9c7 15bd d607 c83e
00000170: 6531 3bbd 4355 793c 6af1 2ebe c473 19bd
00000180: 2c09 4b3e 2f1a b0bd 643a 27bd 73f3 bd3d
00000190: daa4 0c3e 2f57 863d 7f1e acbc 3155 bebc
000001a0: 1a08 9d3d 17b7 c93e f834 5e3d cffc 5f3e
000001b0: f49a 18be a9fb 653e f5af 0e3d d548 3b3e
000001c0: 6bec c2bd 38d7 703b 6bbc ae3d ca79 913e
000001d0: 02c8 0ebd ad13 313e 6043 9a3e 1452 9f3d
000001e0: dfe2 c23e 8c56 b83d 2041 863d 0a75 413e
000001f0: a26d b2bc dc55 0a3c 216c 06be 0d06 853d
00000200: f1e2 d9bc e688 e2bc 1c15 4cbc 5fba 153d
00000210: e089 a63d 1b84 3c3e fb99 473e a9be d9bb
00000220: bea4 823e e5f0 303d 7007 a7bd 12e6 2dbe
00000230: 5377 253e 6f20 d73d 0af5 2dbe 71ed 0c3e
00000240: f839 f53d fc9b 50bd af38 953d c623 fb3d
00000250: 8f3f 183e 752c 403e c5ac 0fbe 8af6 b5bd
00000260: 728b 893d e583 bebb dc9b 0a3e 5539 0bbe
00000270: a558 943d 7daa 003e 9205 17bc 947d 773d
00000280: 6c95 393e dc56 813d 0cfa 023d 94c7 04be
00000290: 9791 c6bc 4785 c03c 0fde a6bd b739 c73d
000002a0: 6dc0 1f3c c261 013e 1265 023d d805 41be
000002b0: 7851 d9ba ad15 a83a 7171 a3bc 9fc6 c83d
000002c0: f9d6 273e 77bd c1bd 4b56 823c 26d3 10bd
000002d0: 7eee 093e 1585 fabd c84d 06bd 314e 9fbc
000002e0: 2e30 cdbd ec57 0b3d 91db bdbc d239 b8be
000002f0: dc74 833d e0f7 84bd 6f40 543d 69ee bdbc
00000300: ea36 b43d 9169 8dbc 56ec 8abd 8c99 d4ba
00000310: 9304 ab3e 6fbf 84be 4388 90be 4830 a53c
00000320: 8571 ec3d 5389 e43d c69c 83bf 333e e6bd
00000330: 64b8 b23d c3b7 3c3d 73a2 973d 0fba 98bd
00000340: 7540 bd3d 4eef bbbc 5694 03bd 0ae6 52be
00000350: 5852 53bd 3baf a83d 6745 483d f13d 32bd
00000360: 2304 85bc 1a83 52bc 1ec6 113e 1446 393d
00000370: 135d 36be b116 bd3d efd4 36be a084 1dbe
00000380: 27c6 e13e 9a44 973c 7f8e d5bd 7022 21be
00000390: 8a9c d8bd 2c0f 80bd b221 06be 7a9d 73bd
000003a0: 4bcf bc3d f779 47be f6d6 6d3c 3471 dd3c
000003b0: 6f39 9fbd 1896 1bbf bb70 d4bd 5953 7a3d
000003c0: f22c b7bc 74fe 683c 7bb0 3d3d f997 27bc
000003d0: d2a6 95be cf3a 14be 85fd 07be 5813 1ebe
000003e0: d809 37bd f155 7cbd ef7b 043e 575a 35bf
000003f0: ae5d f83d db9b 303d d0d7 0f3d 489d f6bd
0.033368234 -0.05411032 0.015015636 -0.11464795 -0.15671606 0.061210763 0.06141105 0.09558674
0.0373113 -0.007609528 -0.00022115538 -0.04929571 -0.07721011 -0.07982805 -0.052893013 -0.090719
-0.07121717 -0.14970903 -0.002649337 0.07061324 -0.11968547 0.06485106 0.076592416 0.056289267
-0.12178227 -0.14118981 -0.028936965 0.042873777 0.061510913 -0.088463046 -0.122236915 0.06481857
0.079070546 0.04269412 0.05511963 -0.11395233 -0.010491085 -0.05698328 -0.12810461 -0.111930676
0.04999138 -0.046261266 0.0071951 -0.1571242 0.017467573 -0.03198335 -0.0990326 0.0059446343
-0.09315789 -0.09484453 0.042934157 -0.08246596 -0.13781488 -0.046812125 -0.13238695 0.025311252
-0.08037601 -0.12110481 -0.054949068 0.048295252 -0.03434061 -0.077055246 0.096588045 0.09307914
0.0063854805 -0.110183075 -0.2303418 0.14781657 0.35858268 -0.09339015 -0.047896393 0.10159528
-0.15921177 -0.12182454 0.115068056 -0.0938312 0.43562713 0.063378625 -0.111421384 0.1897984
-0.01358664 0.25154385 0.11912899 0.09604301 0.05205099 -0.042158734 -0.07270323 0.020666933
0.37553602 0.34647122 -0.036567483 0.39068478 -0.045701403 0.015218082 -0.1708428 -0.03746392
0.19827718 -0.08598744 -0.04082717 0.0927495 0.13734761 0.06559598 -0.021010635 -0.023233982
0.07667561 0.393975 0.054249734 0.21873783 -0.1490286 0.22459282 0.034835774 0.18289502
-0.095177494 0.0036749374 0.085320316 0.2841323 -0.03485871 0.17292662 0.30129528 0.07779327
0.38063714 0.090008825 0.0655539 0.18892303 -0.021780793 0.008443322 -0.13127185 0.06495295
-0.026597472 -0.027653169 -0.012456205 0.03655469 0.08131766 0.18409769 0.19492333 -0.006645043
0.25516313 0.043198485 -0.081557155 -0.16982296 0.161588 0.10504233 -0.16988006 0.13762452
0.11973947 -0.05093001 0.07286202 0.122626826 0.14867996 0.18766959 -0.1403075 -0.08884914
0.0671605 -0.005814063 0.13536018 -0.13596089 0.0724347 0.12565036 -0.009217637 0.060422495
0.18123406 0.06315395 0.031976745 -0.12966758 -0.024239345 0.023501052 -0.08147823 0.09727805
0.009750468 0.12634948 0.03183467 -0.18849885 -0.0016580066 0.0012823843 -0.019951554 0.09803509
0.163906 -0.09459966 0.015910288 -0.035357617 0.13469884 -0.12232415 -0.03278902 -0.019446464
-0.10018955 0.034019396 -0.023175986 -0.35981613 0.064187735 -0.06492591 0.05181926 -0.023184972
0.087995365 -0.017262252 -0.06783359 -0.0016220077 0.33401927 -0.25927302 -0.2822896 0.020164624
0.1154509 0.11159005 -1.0282218 -0.11242332 0.08726576 0.046073686 0.074040316 -0.07457363
0.0924081 -0.022941258 -0.032123886 -0.20595565 -0.0515922 0.082365476 0.048894312 -0.043516103
-0.016237324 -0.01284864 0.14235732 0.045232847 -0.17808942 0.09232844 -0.17854665 -0.15382624
0.4409649 0.018465329 -0.104275696 -0.15735793 -0.105767325 -0.06252894 -0.13098791 -0.059476353
0.092192255 -0.1948012 0.014516583 0.027031519 -0.077746265 -0.607759 -0.10373064 0.061114643
-0.022360299 0.014220823 0.046310883 -0.010229104 -0.29228836 -0.14475559 -0.13280304 -0.15437067
-0.044687122 -0.061605398 0.12937902 -0.7084097 0.12127243 0.043117385 0.035117924 -0.12041718

model.6.bias f4 [32]
00000000: ce0c 733d 7723 173f 4fca 28be c703 093e
00000010: 72bb 393e ec87 f83e 9691 a03e 7ff6 56bc
00000020: b322 d03d c2a6 933e 29ed 2a3f f41e 6dbd
00000030: 8a55 a3bd 6a72 0abe 48fc 1c3c ed17 853e
00000040: e83b d13e 63bd 7b3d 7135 593e f7d5 873e
00000050: 5ecd 7d3d dffc a43e 3155 33be 18ed d2bd
00000060: c2a0 99bd e1e9 653d 3ed9 013e 2dc4 0a3f
00000070: 43b5 c63e dd52 9c3e 7171 643d ecd4 2f3e
0.059338383 0.5903849 -0.16483425 0.13380347 0.18137911 0.485412 0.31361073 -0.013120293
0.10162868 0.28838164 0.6676813 -0.057890847 -0.079753 -0.13520208 0.009581633 0.25994816
0.40866017 0.06145991 0.21211793 0.2653043 0.06196343 0.32224175 -0.17512967 -0.10299128
-0.07501365 0.056131247 0.12680528 0.5420559 0.38810167 0.3053197 0.05577225 0.17171067

model.8.weight f4 [10, 32]
00000000: 6a1a 243d fc30 0a3e b665 8fbe 19d8 403e
00000010: 8f95 093e a61c a23e 7119 283d 339c a6bd
00000020: 4f21 0fbe 35e1 863d 4487 983e 47e2 3abe
00000030: 31ed a33c ae91 293c a758 303e 150a 593e
00000040: 053e 6b3e 26a4 afbe c8f8 83bc 633c 653c
00000050: cb29 babd 0ada b03e 7280 aa3d 3d3d 9abd
00000060: 4eba 53bd a64e 44be 5adc b1bc fa00 953e
00000070: b75d ba3d 0b3c e03d 9cae 38bc 7a54 30be
00000080: c301 933c ce16 8b3e 9cb5 febd 749d 123e
00000090: 3b0f ba3c 3415 953e 6ea9 ec3b 2aba debc
000000a0: 8c23 28be d092 a73c 93b3 d73d 99b8 37be
000000b0: 4400 8f3d 1f4a 77bb 0d9d 02be 9010 243e
000000c0: c1dc 3b3e a765 8ebe 4f56 033e 816a db3d
000000d0: 5896 08be 5052 a53d 8dd9 6dbd d8d5 49bd
000000e0: d57c 10be abaa 82be 2d89 133e 3b99 cc3e
000000f0: 2b4e dd3c c650 853e b763 ebbd 3981 3ebe
00000100: ad2a 1d3e 7497 cc3e 09b9 f8bd 16ca 513e
00000110: 8ff5 073e 3dd4 b83e e78c 583d c503 e53c
00000120: cbb4 05be 9d99 cb3d 8439 433e b296 24bd
00000130: d3c3 063e 1222 803d 9861 223e 7084 3c3e
00000140: c873 e43d 89ed 86be d458 483d 53c8 c13d
00000150: a10f babe 48e5 133e d13c 9f3d a0fe 863d
00000160: 8bdb 61be 3831 4abe a941 bf3d b66a b03d
00000170: 19d9 37bc c202 fc3d cd0e d83d d905 f2bd
00000180: 245b 573d 9053 ab3e ed77 33be 3ed0 60be
00000190: 6443 1b3e 75ba 143e 84a7 c53d 2750 bcbb
000001a0: 3093 54be 5686 da3d ee9f a83e d5a6 67be
000001b0: aa7f 6c3d 491e 003d f1b9 043e 4138 543e
000001c0: 7c8a f93d 9c3e 4cbe db76 233a 90b3 f73d
000001d0: c972 01bd 21be ae3d 9144 fabd d870 e5bc
000001e0: d81e 63be 26c0 98be 054c d6bc d773 343e
000001f0: 4caa 893d 4b7c 893e 94ff c33b fec9 0bbe
00000200: 1bb7 02be 6f7a 453d ff5d 5bbe 5695 ee3d
00000210: fb21 1c3d 0ea9 a83e 9a26 fc3b ee41 2bbd
00000220: 777d 6ebe 7f6d 5c3c 4443 bd3e 9b66 6ebc
00000230: 37c8 cd3d e1bd 1e3c cf79 213e 5b43 be3d
00000240: aa62 913e ffca 8abe e520 c23d 174e 863e
00000250: 22e5 56be 53d5 4a3e 82fb 07be e022 9f3b
00000260: 1de6 13be 83b3 1dbe f7e1 ad3c 1872 223e
00000270: a50a 9e3c 3477 9a3e bd69 e03d a86a 55be
00000280: 78f0 bb3d b863 9c3e 12a1 8fbe 4c3c c2bd
00000290: f87a 803b a1aa 943e 8ef9 6b3e 3509 37be
000002a0: 320a 35be a129 193e 522e 563e 81a8 39be
000002b0: ba63 873d 979f 1cbd 46b1 dd3d 0a0e 303e
000002c0: f8e6 8d3e 6156 43be 667d 0c3e 7fa0 c73d
000002d0: 6dce 1abe fa34 7b3d 8872 923c 2023 78bc
000002e0: fde0 45be 3387 3dbe 2cc1 843d 7c69 2e3e
000002f0: ab33 843e 58b5 1d3e 1f91 383e bac9 62be
00000300: 0108 8cbd 1891 8f3e 60ba a3bd 4006 d23c
00000310: 6023 a73d 7512 843e b14a d03d 66f8 92bd
00000320: e94f 26be 50d7 073e c256 7b3e 52d6 a2bb
00000330: 2124 a3bd 5aa6 293d dc20 c53d 7db9 863c
00000340: 36a9 503e b31e a1be ea70 503e d636 d63c
00000350: c86e fabd e94b 393e a0dc 66bd 57a5 0c3e
00000360: cdd2 acbe 9f06 30be b0d4 43bc df78 433e
00000370: d3a5 243e 57fd 853e 8d3f a5bb 1317 2dbe
00000380: 7a7a afbd 8c1d c43e 10cc 0fbe f3f3 cfbc
00000390: 5853 083e 2ca0 c53d 429a 21be 3032 383d
000003a0: 64fe 03be 1aa5 503d 3026 613e be52 39be
000003b0: 5c3c 87bd 447b d03a 3405 ff3d bc00 283e
000003c0: a604 a33e d1b9 f7bd b007 223e a6bb c73d
000003d0: f3a7 f4bd 76d6 663e ee85 843d 132e a8bd
000003e0: ca7c 3fbe da7d 9ebe f037 a43d dd3e 243e
000003f0: 3900 3d3e ee8c 2d3e 11d6 1bbe a405 b6be
0.040064253 0.13495249 -0.28007287 0.18832435 0.13435958 0.31662482 0.041039888 -0.081352614
-0.1397755 0.065859236 0.297907 -0.1825038 0.020010563 0.010349674 0.17221318 0.21195252
0.22972877 -0.34304923 -0.01610984 0.013991448 -0.090900026 0.3454135 0.0832528 -0.075312115
-0.051691346 -0.19170627 -0.021711517 0.29102308 0.09099906 0.10948952 -0.011272099 -0.17219725
0.017945176 0.27165836 -0.12436983 0.14317876 0.02271234 0.2911774 0.007222346 -0.02718838
-0.1641981 0.020455748 0.10532298 -0.17941512 0.069824725 -0.0037733389 -0.12755223 0.16021943
0.1834593 -0.2781193 0.12825893 0.107136734 -0.13338602 0.080723405 -0.0580688 -0.049276203
-0.1411012 -0.25520834 0.14407797 0.39960656 0.027014812 0.26038188 -0.114936285 -0.18603982
0.15348311 0.399593 -0.12144668 0.20487246 0.13277267 0.36099425 0.05286875 0.027955899
-0.13057248 0.09941409 0.19064909 -0.040182777 0.13160639 0.062564984 0.15857542 0.18409896
0.11154896 -0.263531 0.048912838 0.09462037 -0.3634005 0.14442933 0.07775272 0.065915346
-0.22056405 -0.19745338 0.093386956 0.086141035 -0.011221194 0.123052135 0.10549698 -0.118175216
0.052577153 0.3346219 -0.17526217 -0.21954438 0.15162426 0.14524253 0.09651092 -0.0057468596
-0.20759273 0.10670154 0.32934517 -0.22622235 0.057738937 0.031278882 0.12961556 0.20724584
0.12184617 -0.19945759 0.00062356674 0.12094796 -0.03160361 0.08532358 -0.12220109 -0.02800791
-0.22179735 -0.29834098 -0.026159296 0.17622314 0.06721935 0.2685264 0.005981395 -0.13651273
-0.12765162 0.048212465 -0.21422575 0.11649577 0.038118344 0.32941478 0.0076950314 -0.041810922
-0.23290049 0.01345384 0.36965382 -0.01455083 0.100479536 0.009688825 0.15769123 0.09290191
0.28395587 -0.27108 0.094789304 0.26231453 -0.20985845 0.19807939 -0.13279536 0.0048564523
-0.1444325 -0.1540051 0.021225912 0.15863836 0.019292185 0.3016907 0.10957668 -0.20841467
0.09176725 0.3054483 -0.28052574 -0.09484157 0.003920909 0.2903643 0.23044416 -0.17874606
-0.1767967 0.14957286 0.20916107 -0.18130685 0.06610818 -0.038238134 0.10824828 0.17192855
0.27715278 -0.1907592 0.1371971 0.09747409 -0.15117808 0.06132982 0.017876878 -0.015145093
-0.19324107 -0.18508606 0.06482157 0.17032427 0.2582067 0.15401208 0.1802411 -0.22147265
-0.06837464 0.28040385 -0.079945326 0.025637746 0.08161044 0.25795332 0.10170496 -0.071762845
-0.16241421 0.13265729 0.24544814 -0.0049693966 -0.079658754 0.04141841 0.09625408 0.01644587
0.20377049 -0.31468734 0.20355573 0.026149195 -0.12228161 0.18095364 -0.05636275 0.13734947
-0.33754578 -0.17190026 -0.011952564 0.19089077 0.16078882 0.26169845 -0.0050429762 -0.16903333
-0.085682824 0.38303792 -0.14042687 -0.025384879 0.13313043 0.09649691 -0.15781501 0.044969738
-0.12890011 0.050938703 0.21987224 -0.1809797 -0.066033095 0.0015905877 0.12452164 0.1640653
0.31839484 -0.120959885 0.15823245 0.09752588 -0.11946096 0.22542748 0.064708576 -0.08211913
-0.18699947 -0.30955392 0.08018482 0.16039605 0.18457116 0.16948292 -0.15218379 -0.35551178

model.8.bias f4 [10]
00000000: 6c75 9abd 750f 303d ecec 063e f599 f7bb
00000010: 3fc4 aa3a 675b 313e 1281 5f3e 17a7 163e
00000020: 594d 803e 085b 993d
-0.07541928 0.04298349 0.13176316 -0.007556195 0.0013028457 0.17320023 0.2182658 0.14712177
0.25059012 0.07488066
