checkpoints/checkpoint_step_6000.pth (torch, 200878 bytes, 10 tensors)

model.0.weight f4 [256, 21]
00000000: 6d82 da3d e10d 0cbd d68a 213d ec58 9dbe
00000010: f1c3 46be a903 33be 383b f7be 91ac aebd
00000020: d121 983b 4964 ff3d f5d6 9ebe 197b d8bd
00000030: 8889 223e 8b32 37bf cea1 67be 1a46 43be
00000040: 982a f1bd ce9c 433d e13c b83d 84ba a3be
00000050: 3a0c f93e d895 dc3c 091f 923c 1879 32be
00000060: 4c51 a2bd b81b 93bf 1708 9abd 22d5 a33d
00000070: 5980 b2bd c7d2 09be 77f4 9abe c998 d6bc
00000080: e109 89bd b64e abbe d0d3 afbe b365 00be
00000090: e4b5 c2bc b1fe 4bbd 3e6c 1e3e 7b30 aebd
000000a0: 98ca 0a3e 5e3a 92bd 5e38 61bd 6a0c 86be
000000b0: ebf3 7d3e 3fc2 dbbc ad15 033e 51ff af3d
000000c0: 3dbb f8be 47c6 db3d dce5 1b3e fe11 30be
000000d0: 314d 053d 7b45 01bf 1532 eabd 14eb 72be
000000e0: 6e27 5dbe 6d14 b73d 30d3 a5be d1c9 42bd
000000f0: e668 b5bd 0ca1 3dbe f6bf d5bd dbf9 2ebe
00000100: 4c88 21bf 58ad 943e fc24 8dbf 4602 d0bf
00000110: fcca e43d a4d3 1fbe 7a28 3e3e 583b 4fbe
00000120: 2899 d13e 114e a1bb 3601 863e 63ae de3d
00000130: 330f ffbd d55c 86bc 471f 9b3e 7b44 6fbb
00000140: 99bf 3e3e c089 0e3e 5adf 453e 5a92 29bf
00000150: 8aec e8bc ca09 39bd bcc0 8bbe 02c7 8f3d
00000160: 6227 373d 70e6 2abe 45f7 c6bd 6bc6 653e
00000170: a5b6 ec3d f2f2 52bd 539c 87be 07fc 64bd
00000180: 0aed b3bd b19a dfbd 550b 9cbe c2e2 fdbb
00000190: 8209 9a3e eacf 4fbf e7d2 96be 8216 ff3c
000001a0: cf6e f23d 94e3 9dbd 3504 fb3d 56d0 fcbd
000001b0: 64ab 113e b007 23bc 9068 e03d ae06 01be
000001c0: 1b6b f13c c6b1 53be 74b6 20bd 5a32 0e3e
000001d0: 58a4 883e 1864 0a3d ad9b d23e d0b9 00bd
000001e0: 6b66 c53e 8d23 503e 9dae a93e d6e0 b9bd
000001f0: fa2c 6b3e b652 b73d d4ec 24bf 940d 80bd
00000200: 4880 943e e0e4 bbbe 0171 4abf b69b 00be
00000210: a2a0 8ebe e5ee a9be 7a38 c4be a5ce 65bd
00000220: 8d5f 8ebe 1548 90be d63c 9abd 07c2 4fbe
00000230: f889 233e 9768 283e 3b94 e03d 1eba cb3d
00000240: c891 56be 209b c6bd 1e5d cebd 4402 31be
00000250: 7c9f f0bd 566f 393e 37e9 09be c6c0 3a3e
00000260: ebfc 76bd 52a6 afbe 51c7 9abd ce16 a2c0
00000270: 381b 06bd e026 9fbd df00 0ebd 1477 bebd
00000280: a354 aabd 0bec 003d 9537 28bc 9cca 53bd
00000290: 49de 47be 8221 48bd 160c 7cbe 3fe3 56be
000002a0: a17b a7bc 5d4b 03be f943 9a3d 5c3a 5fbe
000002b0: 820c 833d 6e78 453b 3b8a b3be 1bc6 d5bd
000002c0: e5e9 3c3e 66c8 97be 4b0c a2be b824 b7be
000002d0: 4897 95bc dec0 9ebd 0966 2ebe 41d6 98be
000002e0: a9c3 283c 2b06 8ebd afa4 83be 14eb 85bd
000002f0: 3d0b ec3c 945a 323e c3dc 53be ed80 a7be
00000300: 27a9 8fbd 0846 5d3e 6c42 71be c36a 8ebe
00000310: ff41 a5bd 5df0 053d 8775 043d dd1a 3ebe
00000320: a714 05bf 058a c8bd d908 b0be f1de a63d
00000330: fbe7 f9bd 721c 33be 6648 06bf 8db8 e13d
00000340: 55c2 5abe 1e39 aabd 5839 6ebe 3093 2e3e
00000350: eacb 11be 64b7 13bd b300 bcbe fa56 c1bc
00000360: e6c4 97be f7c6 333e 1a07 bbbe d7f1 843e
00000370: a4d9 283e e5c9 64be c205 bc3d 4ec5 023f
00000380: e0e6 2e3e a3fb fdbe e45b 313e da7e 77be
00000390: 3f7e d5bd 1cd0 953e ea25 29bb e73c 0cbe
000003a0: 7a71 6f3d 3034 0cbe 75d1 f1bd 433c a53e
000003b0: 5675 ab3c 5099 a43d 83e9 98bd c806 ddbe
000003c0: 118d 51be cbb4 2fbe e891 81be da1c a3bc
000003d0: e8ff c4bd ea2b 65bd 7674 a83e 6c03 74be
000003e0: fe13 99be 0dd8 2dbd 7c60 e2bd 6b22 6dbd
000003f0: 4790 13be 599f b83d 4b44 afbe 00fe 33be
0.10669408 -0.034192923 0.039439045 -0.30731905 -0.19410683 -0.17481865 -0.48287368 -0.08529008
0.004642703 0.124703 -0.31023374 -0.10570354 0.15872777 -0.715615 -0.22620317 -0.1906971
-0.11775702 0.047756962 0.08995987 -0.31978238 0.4864214 0.02692692 0.017837064 -0.17429006
-0.079256624 -1.1492834 -0.07521074 0.07999636 -0.087158866 -0.13459311 -0.30264637 -0.0261959
-0.066913374 -0.3345849 -0.34341288 -0.12538795 -0.023768373 -0.04980344 0.15470979 -0.08505341
0.13553846 -0.07140039 -0.054985397 -0.26181346 0.24800079 -0.026826022 0.12801237 0.085936196
-0.4858035 0.10731178 0.15224403 -0.17194363 0.03254432 -0.50496644 -0.11435334 -0.23722488
-0.21597072 0.08939443 -0.32387686 -0.04755575 -0.088578984 -0.18518466 -0.10437004 -0.170875
-0.630986 0.290385 -1.1026912 -1.6250694 0.11171529 -0.15608078 0.18570128 -0.20237482
0.4093716 -0.0049226363 0.261728 0.108731054 -0.12454071 -0.016401688 0.302973 -0.0036509323
0.18627776 0.13919735 0.19323483 -0.6623894 -0.028433103 -0.04517535 -0.27295482 0.070203796
0.044715293 -0.16689467 -0.09715132 0.22438972 0.11558274 -0.051501222 -0.26486453 -0.055904415
-0.08785446 -0.10918177 -0.30477396 -0.007747979 0.3008538 -0.81176627 -0.2945778 0.031138662
0.11837541 -0.07709423 0.12256662 -0.123444244 0.14225537 -0.009950563 0.10957444 -0.12600204
0.029470017 -0.20673284 -0.0392365 0.13886395 0.26687884 0.033786863 0.41134396 -0.031427205
0.385547 0.20326062 0.33141032 -0.09076087 0.22966376 0.08951323 -0.6442387 -0.0625259
0.2900412 -0.36698055 -0.7907868 -0.12559399 -0.27856928 -0.33190075 -0.38324338 -0.056105275
-0.27807274 -0.28179994 -0.07531135 -0.2028886 0.159706 0.16446148 0.10965773 0.099476084
-0.20954049 -0.096975565 -0.100763544 -0.1728602 -0.11749169 0.18108878 -0.1346787 0.182376
-0.060299795 -0.3430658 -0.07557548 -5.065284 -0.0327408 -0.07771087 -0.0346688 -0.09300056
-0.083169244 0.031475108 -0.010267158 -0.051706895 -0.19518389 -0.04886008 -0.24613985 -0.20985125
-0.020444693 -0.12821718 0.07532496 -0.21799606 0.0639887 0.0030131596 -0.350664 -0.10438176
0.18448599 -0.2964508 -0.31650004 -0.35770202 -0.018260613 -0.0775163 -0.17031111 -0.29850963
0.010300555 -0.0693477 -0.2571158 -0.06538978 0.028813953 0.17417365 -0.20689683 -0.3271555
-0.07014685 0.21608746 -0.23560494 -0.27815828 -0.080692284 0.03269993 0.032338645 -0.18564935
-0.5198464 -0.0979195 -0.3438175 0.081479914 -0.1220245 -0.1749132 -0.5245422 0.110215284
-0.21363194 -0.083116755 -0.23264062 0.17048335 -0.14237943 -0.036063567 -0.36719283 -0.023601044
-0.2964241 0.17556368 -0.36528856 0.2596576 0.16489273 -0.22342642 0.09180786 0.51082313
0.1708026 -0.49606046 0.1732021 -0.24169484 -0.1042447 0.29260337 -0.0025809952 -0.13695107
0.05845783 -0.13691783 -0.11807529 0.3227254 0.020929974 0.080370545 -0.07466414 -0.43169236
-0.20463969 -0.17158811 -0.2530663 -0.019911218 -0.09619123 -0.055950083 0.32901353 -0.2382943
-0.29898065 -0.04244237 -0.11053559 -0.05789415 -0.14410506 0.09014768 -0.3423179 -0.17577362

model.0.bias f4 [256]
00000000: c679 3e3e 8925 003c 1a46 69be 7695 1b3d
00000010: 4cf9 c43e efe5 853e 6c27 dc3d 7653 b83d
00000020: 6123 403e 8aca 363e dd4e b4be 6c48 8fbc
00000030: 4811 c2bc 90db eebe 21a3 173f e8d5 f53e
00000040: d3f8 fbbd 894d e8bd 2ff9 fb3e db2b 10be
00000050: 8040 aabd 9b70 d4be 57ab 10be 9493 2cbe
00000060: 790e 14bf b1fa f1bd 2000 59be 8fb4 153e
00000070: 8f5a 6dba 309c 3fbc a292 9d3e f705 fb3e
00000080: 0e6b a3bd c0a7 29be c493 a0be bc03 bc3d
00000090: 77b1 c9bd 6ab4 9cbe 96dc 003d b4c6 c43d
000000a0: 083f 6bbd 6560 8c3e b6ff 22be 03d1 06be
000000b0: b44d ae3e edd8 43be 8cc1 e8bd cdef 86bd
000000c0: 87c0 cf3d e998 fbbd 4293 3fbd bb48 703d
000000d0: d11e c0be ea27 90be 2e1d da3d e05e c5be
000000e0: ecaa aabe 4877 853b b78e c3be 6303 4dbd
000000f0: 3494 813d 08c8 f1bd b174 ab3e ba47 00be
00000100: 6fd5 90bd 2a1c 8dbd d21f 7bbd 6c49 aa3e
00000110: b187 9dbe f088 4b3e 3300 1e3d 4f17 843e
00000120: f496 a3bd c03f ad3d ca41 45be 6d4a bebe
00000130: 1c95 77bd c462 06be f7a3 3ebe add6 d93e
00000140: a864 083d 7c6d 483e 3bbd fcbe c195 21be
00000150: f099 893d 878f 59be 8f15 b63e 28c8 833e
00000160: af8f bcbd 65c2 843d e9bd 663e 9df9 32be
00000170: 21a7 5dbe 4174 12be a7e4 44be 413d 90be
00000180: 8418 96be b079 f9bd 6f63 b8be 9809 b13e
00000190: 0339 e13e b364 25be 62bb d43c 2b5a 853e
000001a0: 8580 be3d 526b 2b3e 03d1 b1bc 197f da3d
000001b0: 9550 0dbc 1d7e 08be 1b7e 51bb 6405 99bd
000001c0: 3cdf 88bc 9eb0 adbd 7d68 c9bd 20be b6bd
000001d0: 9b67 093e f624 613e 7106 20bd ab68 1c3e
000001e0: a4a9 dbbe 0545 943d 0491 0cbe ee79 a83d
000001f0: 369a d8bd 517e e6be bee5 ac3e 49e1 4a3e
00000200: bc35 9ebe a62a 18be 0726 debd 9fb2 2c3e
00000210: 69a1 293c b132 f6bd f4eb ac3e 3bea 783d
00000220: dd93 fabd c3f3 65be 0eaa f1bb 2838 e73e
00000230: 8b4f f6bd 6590 ac3e 9ddc 783e 95fa ce3d
00000240: 3e98 923e 3ef1 a63e 6ff1 513d f9e8 d73c
00000250: 16e2 4cbf c8a1 0ebe 27cd 863e db8e 3ebe
00000260: c563 b83e a607 07bf 8ce5 64be 8b39 753d
00000270: bcd4 77bc 0ca6 363e 3770 073f 4885 be3e
00000280: e72b 4abe 6e3e 3ebd 61d8 0b3f dcf1 613d
00000290: 1418 91bd 9200 e73e c690 12be a4fc 00be
000002a0: 265f fcbc b3ae 8c3e bbf0 25bb 81d4 8ebd
000002b0: 22f3 663e c19c 9dbe 9282 783e 0d10 753d
000002c0: 4091 aabe 6068 123f 52f9 7fbd 042c 57be
000002d0: 8e7c b1be 2fe2 663e 4d1d 393e 6ac3 483d
000002e0: d41c 1bbe 0a5d e8bb 5a40 92be 3e21 c0be
000002f0: 5ebf 283e 17f6 0c3e 2a23 6cbe 1c0e dd3d
00000300: b84e 0d3f 03a5 193e 660e 28be 9d95 a9be
00000310: 7282 a83e 7474 453d 66a7 2f3e 241f 16be
00000320: 5b95 a5be d1db b33d cb06 b4bd 603a f2bc
00000330: f4f5 bc3c 2f56 39bd daaa 88be 1a8d 19bd
00000340: 40f6 c7bd 426f 80be 5adf dd3c aea2 ce3d
00000350: 776a d03d 43a5 503e 2fef fabd 9fb4 38be
00000360: 873c 143e 4fce 5e3e 793b b0bd 5fcd 5e3f
00000370: e382 48bd b10e 29be ce67 88bc 373f 6bbd
00000380: 116e 81be c548 efbd fa52 273e db97 78be
00000390: 2850 743d b70e 1e3e 0e28 fa3d 31fa afbd
000003a0: f2d1 f13c aa61 c53b 28ab 373f 18ca 93bd
000003b0: 4d87 793e bf4d 4fbe b998 8d3e 33e9 113f
000003c0: a74e aabd a6cd 3f3d f106 19bd 999b 7ebd
000003d0: 9e23 54be 14c2 1ebe fa61 963e 49d1 fb3e
000003e0: 1750 c0be 1ecd 48be 3d63 993d c80d 573d
000003f0: 56f5 ad3d 1817 c1be e5c4 913d 93d6 3d3e
0.1860114 0.007821449 -0.22780648 0.037984334 0.38471448 0.26151988 0.107497066 0.09000294
0.18763496 0.178507 -0.35216418 -0.017490588 -0.023689881 -0.46651888 0.5923329 0.4801476
-0.12303319 -0.11342914 0.4921355 -0.1407923 -0.08313084 -0.4149216 -0.14127861 -0.16853172
-0.57834584 -0.11815394 -0.21191454 0.14619659 -0.0009054327 -0.011694953 0.30775934 0.49027988
-0.079794034 -0.16567898 -0.31362736 0.091804 -0.09848302 -0.30606395 0.031460367 0.09608212
-0.05743316 0.27417293 -0.15917858 -0.13165669 0.34043658 -0.1912572 -0.11365041 -0.06588707
0.101441436 -0.12285025 -0.046771295 0.05866311 -0.3752351 -0.28155452 0.10650097 -0.38548946
-0.33333528 0.0040730573 -0.3819482 -0.050052058 0.06327096 -0.11805731 0.33487466 -0.12527362
-0.07071959 -0.068901375 -0.061309643 0.3325914 -0.30767587 0.19876456 0.03857441 0.25799033
-0.079877764 0.08459425 -0.19263378 -0.37166157 -0.060444936 -0.13123614 -0.18617235 0.42546597
0.03329912 0.19573015 -0.4936312 -0.15779783 0.067188144 -0.21246158 0.35563323 0.25738645
-0.09207093 0.0648239 0.22533382 -0.17478032 -0.21645786 -0.1430216 -0.19227849 -0.28171733
-0.2931558 -0.12181413 -0.36013362 0.34577632 0.4398881 -0.16151695 0.025968257 0.26045355
0.09301857 0.16740158 -0.02170611 0.10668773 -0.008625169 -0.13329358 -0.0031966034 -0.07471731
-0.016708009 -0.08480953 -0.09834383 -0.08922982 0.13418429 0.21986756 -0.039068643 0.15274303
-0.42902863 0.07239727 -0.13727194 0.08226381 -0.105762884 -0.45018247 0.3376903 0.19812502
-0.3090037 -0.14860019 -0.10847097 0.16865014 0.010353425 -0.12021387 0.33773768 0.060770255
-0.12235234 -0.22456269 -0.0073750084 0.4516003 -0.1202689 0.33703914 0.24302907 0.101063885
0.28631777 0.32605928 0.05125564 0.026356207 -0.8003248 -0.13928902 0.26328394 -0.18609183
0.36013618 -0.52746046 -0.2235319 0.05986933 -0.015126403 0.1783678 0.529056 0.3721106
-0.1974331 -0.046446256 0.54627043 0.055162296 -0.07084671 0.45117623 -0.14313039 -0.12596375
-0.030807089 0.27477035 -0.0025320488 -0.06974126 0.22553685 -0.30783656 0.24268559 0.05982976
-0.33313942 0.57190514 -0.06249363 -0.21012884 -0.3466534 0.2254722 0.18077584 0.049014486
-0.15147716 -0.0070911692 -0.2856472 -0.37525362 0.16479251 0.13765751 -0.23060289 0.10793707
0.5519824 0.15004353 -0.16411743 -0.33121958 0.32912022 0.04820676 0.17153701 -0.14660317
-0.32340512 0.08782161 -0.08790358 -0.029568851 0.023066498 -0.045248207 -0.2669285 -0.03748808
-0.09763765 -0.25084883 0.027084041 0.100896224 0.101765566 0.20375542 -0.12252652 -0.18037651
0.14476214 0.21758388 -0.086050935 0.8703212 -0.04895295 -0.1650951 -0.01665106 -0.057433333
-0.25279287 -0.116838016 0.16340247 -0.24276678 0.059646755 0.15435301 0.12214671 -0.08592642
0.029519055 0.0060236054 0.7174554 -0.07216281 0.2436802 -0.20244502 0.2765558 0.5699646
-0.08315783 0.04682698 -0.037360135 -0.06216011 -0.20716712 -0.15503722 0.29371625 0.4918311
-0.37561104 -0.19609496 0.07489631 0.052503377 0.0849406 -0.37712932 0.07117633 0.18538885

model.2.weight f4 [128, 256]
00000000: e116 4ebe 99ca 653d f7d8 d53b 4e86 6abe
00000010: f007 d13d 1532 9bbd 4979 a0bd b12e 8b3d
00000020: 2bbd 33bd dad5 d4bc 930d 43be 06fe b1bd
00000030: caaf 813e 0a9c 2f3e 2dab 353d 93c3 40bd
00000040: f7e4 403c 0a07 f0bb 1563 01bf 7a21 f03d
00000050: 2233 92bd 82bc c43d 726d eebb 50e9 ef3d
00000060: 97ac 613e ebee 063e a7e0 7bbd 0410 e43d
00000070: faad 09bc a462 253d d5bc 6a3e 3643 813e
00000080: f78b d9bd 1c93 bbbc 2396 b63d 0161 a6bb
00000090: 40ba 8b3b 5bcf ec3b e066 3ebd 183f 593e
000000a0: 49e2 c53d b56c 47be 7a41 8bbe 9605 01be
000000b0: 2646 bbbd eb0e a9bc 5eff 1cbd c606 99bc
000000c0: b5ae 3cbd 591b 9c3d 32d9 a23d edca 453d
000000d0: d283 bf3e 0309 5bbd 8121 893e f09b 383e
000000e0: 8840 c63d bdde 8d3d 2ac6 283c d2f7 f2bd
000000f0: c024 02bc 7af0 bb3c dd2d 9d3e 17e7 2e3c
00000100: 3577 693d 9b87 e1be 5517 89bc 5aa8 0b3e
00000110: 647b f9bd 2328 8d3d 9063 1ebe c6e2 f1bd
00000120: c25f c0bc 3f47 293e cd0a 3d3e 18e6 763d
00000130: 7e11 513e 0a29 a63d fc9f 4d3e 7008 8b3d
00000140: 2b3d 2c3d 7c8b aa3e 77f6 833e 3e82 933d
00000150: 2710 8bbc 0740 6dbd 690f 4d3d a367 ccbe
00000160: 4829 f33c e0de a0bb b8b7 163d 4674 51bd
00000170: 3e34 ba3d 616a bbbc 4092 e63e 8276 51bd
00000180: 1097 3f3d 98a9 e3bd 1ef3 163e dfaf 9d3e
00000190: 9cdc 163f 7b2a af3c d0a5 b8bd 025b c13e
000001a0: 5c2c 6ebe e100 a93d fb11 dd3d cc0b 5c3d
000001b0: 39a1 973d 5473 18bd 76eb 45bc 4da2 143d
000001c0: 25db b135 247e 1cbd 57ba 72be 06c9 a2bc
000001d0: 2463 5abd a2bb b03e cb15 223e b88e 853c
000001e0: c333 7d3c 7fc9 3f3d 3daf f7bd 221a 0a3e
000001f0: da43 bd3d 885f 9abd 4bae 043e 12c9 db3d
00000200: 8595 e83d 8bdc 133d 5fe2 b33d 0872 5e3e
00000210: e2c3 b23d 75e2 cc3c d2a1 e73d 30ae ca3d
00000220: f6ab 9a3d 6d9e 83bd 48a0 aa3d 3495 1b3f
00000230: f015 cabd 1021 dfbc d468 fa3c d1d1 d13c
00000240: d774 333e a70f 203d e60a 243d beea 8d3e
00000250: 95a8 d73e b229 5bbc 90f2 2a3e 3d5b ccbc
00000260: 8cc4 cb3e 72f1 9abc 0edd 473d 07c8 813d
00000270: 7cf1 d0bc a981 27bf c233 f8be f42e 323e
00000280: a11c b93b c747 cd3d 959e 873d c212 a3bd
00000290: 18c9 a0bd b0fa 523d 5851 483e a5ba d63d
000002a0: 3135 1e3c 37b0 36be 5aea f33e 1b13 1cbd
000002b0: 3953 213d e10c 733d 9f35 513e 71e9 f4bd
000002c0: d76a 293a 75ad 823e a8db 07bd 37f4 8bbe
000002d0: 9f47 823d 2ff1 ff3e 7c9d 79be 7a5e 30bd
000002e0: 036c 91bc a20b 57bd 694f 71bd 57ef 013d
000002f0: 31a6 693e 0201 68bc 59c1 8cbd e892 fdbe
00000300: 6978 6bbe 08ee 173e 929d 85bd 64a0 0b3d
00000310: 6e11 593d 1e07 8abe bd42 d43e 8885 2ebe
00000320: fe93 853e 1da5 2a3e 78a2 ae3e b6e2 0abe
00000330: eef9 36bb 6e49 2dbd 500a 4bbf 1609 99bd
00000340: 717f a5bd 39c7 b33d ad22 cd3e 38a5 35bb
00000350: 6cd6 b1bc 7d4e 373d a171 ec3c 437c f2bd
00000360: a897 6dbd a0f7 e53d 1a83 193d d02d c3bf
00000370: 2e34 f2bd 3a12 ed3d ba0e 413d 6037 26be
00000380: 1387 2a3e f0a6 95bd 9a81 693d 572e a0bc
00000390: d1f0 fbbc bf07 8f3d 115d a93e 3b32 bf3d
000003a0: 40c7 383c afe8 c1bc 91c0 b43e 10d8 ec3c
000003b0: c8e8 14be ce90 91bd 3658 8c3e 23f3 76bf
000003c0: e525 ffbc 6743 093e 2d71 483d 4219 bebd
000003d0: 694b 653e 6067 1cbe 7ced 86bd 473a 2c3d
000003e0: 9cc7 3b3e bc6f 913d 580d cb3d daee a1bc
000003f0: e1e4 e5bb 6f27 e8bc 084f bebc 1e68 7fbd
-0.20125915 0.056101415 0.0065261084 -0.22902796 0.10206592 -0.07577912 -0.07835633 0.06796015
-0.043881577 -0.025980879 -0.19048147 -0.08691029 0.2532943 0.17149368 0.0443527 -0.047061514
0.0117733395 -0.007325058 -0.5054181 0.11725135 -0.07138659 0.096062675 -0.0072762305 0.11714423
0.22038494 0.13177077 -0.061493542 0.11135867 -0.008403296 0.040377274 0.22923596 0.2524659
-0.10622399 -0.022897296 0.08915355 -0.0050774817 0.004264146 0.007226867 -0.046484828 0.21215475
0.09662301 -0.19475062 -0.27198392 -0.12599787 -0.09144239 -0.020636996 -0.038329475 -0.018679988
-0.04606505 0.07622404 0.07951583 0.04828923 0.37405258 -0.05347539 0.26783374 0.18028235
0.09680277 0.069272496 0.010301152 -0.11863674 -0.007943332 0.022941817 0.30699053 0.010675213
0.05699845 -0.4404877 -0.016734758 0.1363844 -0.12181738 0.06892421 -0.15467668 -0.11810832
-0.02348316 0.16531084 0.18461151 0.06027803 0.20416829 0.08113296 0.2008056 0.06788719
0.04205052 0.33309543 0.25773975 0.07202576 -0.016975475 -0.05792239 0.050063524 -0.3992282
0.02968277 -0.0049093813 0.0367963 -0.051136278 0.09091996 -0.022877874 0.45033455 -0.05113841
0.046774924 -0.11116332 0.1474118 0.30798241 0.58930373 0.021382561 -0.09016001 0.37764746
-0.2325911 0.08252121 0.10794445 0.053722188 0.07403798 -0.03721936 -0.012080064 0.036287595
1.3251307e-06 -0.038206235 -0.23703896 -0.019871246 -0.053317204 0.34518152 0.15828626 0.016303405
0.0154542355 0.04682302 -0.12093971 0.13486531 0.09241457 -0.075377524 0.12957112 0.107317105
0.113566436 0.036098998 0.08783411 0.21723187 0.08728768 0.025010327 0.11310162 0.09896505
0.0755233 -0.06426702 0.083313525 0.6077454 -0.098674655 -0.027237445 0.030567564 0.025612744
0.1752504 0.039077427 0.040049456 0.27718157 0.42120805 -0.01337664 0.16694093 -0.02494585
0.3979839 -0.018913958 0.0487948 0.0633698 -0.025505774 -0.6543222 -0.48476988 0.17400724
0.005649165 0.10023456 0.06622044 -0.07962562 -0.078508556 0.051508605 0.1956228 0.10484818
0.0096562365 -0.17840658 0.47639734 -0.038104158 0.039386008 0.059338454 0.20430611 -0.11958588
0.0006462759 0.25522962 -0.033168465 -0.2733476 0.06361317 0.49988696 -0.24376482 -0.04305885
-0.0177517 -0.05250133 -0.058913622 0.031722393 0.22817303 -0.0141603965 -0.06872816 -0.49526143
-0.22995152 0.14836895 -0.06524195 0.034088507 0.052995138 -0.26958555 0.41457167 -0.17043126
0.26089472 0.16664548 0.3410833 -0.13563046 -0.0027919966 -0.042306356 -0.7931261 -0.07472436
-0.08080948 0.08778233 0.40065518 -0.0027716886 -0.02170869 0.044752587 0.028862776 -0.11840107
-0.05800596 0.11228871 0.037478544 -1.5248356 -0.11826359 0.11575742 0.047133185 -0.16232061
0.16653089 -0.073072314 0.057008363 -0.019553347 -0.030754479 0.06983899 0.33078817 0.093357526
0.011277974 -0.023670522 0.35303167 0.02891162 -0.14541924 -0.071076974 0.2741105 -0.9646475
-0.031146 0.13404618 0.048936058 -0.09282161 0.22392048 -0.1527381 -0.06588265 0.042047765
0.18337864 0.0710139 0.099146545 -0.019767214 -0.00701581 -0.028339116 -0.023231044 -0.062355153

model.2.bias f4 [128]
00000000: 9247 db3e 750b 4a3e 12b9 393e ac29 1d3e
00000010: 55ed b0bd 76f2 6b3d 870e 053e 920e 1b3d
00000020: d95d 333e 7f80 62bd 0809 7ebd 75ef 05be
00000030: 3db9 2e3e c146 b53a 7340 4dbe 7ae0 70bc
00000040: 10fb 14bc c8db a83d b862 b3bd ed68 33bd
00000050: 5414 d93c 8440 223e effd a73b debf 483e
00000060: c981 953d c7c5 1a3e fb05 043e d66b 3dbd
00000070: 727b 5f3e 9a8c cdbc cd24 ac3e 84cd 84bd
00000080: 3545 ee3e 66ea acbc 1037 a4bc ff90 88bd
00000090: a379 863b bf16 413d 69d1 6fbc f67d 59bd
000000a0: c6e4 083e 45b5 32bc 4fe6 8a3d e314 6abd
000000b0: fdb3 a9bd b605 9d3c 55f6 2d3c 4319 323e
000000c0: a476 c83d fe79 913e 1916 483c 0e40 b5bc
000000d0: abaf 3bbd 9844 96bc 0943 d73d c630 5a3c
000000e0: 5d47 2bbd f74b 203e 58d3 ca3e 2830 03bd
000000f0: ef68 65bd 6027 513e c0f5 91be ee6a 653d
00000100: 10db a03d 299e 4d3e 5a49 c53e c26c cabd
00000110: 34a6 fa3d 8e70 953d fa5f f13d 5a89 cf3d
00000120: 27a2 9bbd f046 9ebd aee8 073f 24cc 3fbe
00000130: d671 d3bc ddc6 b5bd 1422 133e 3c85 f0bc
00000140: 77ca 703b bd29 873e e057 89bc fef9 673d
00000150: 44d5 90bd 41af 733e db71 4a3d 4216 b9bd
00000160: a845 343e 4b42 a53d 5085 123e 4040 6fbd
00000170: aef2 1a3e 019d d9bb bde7 5e3d e5b2 6a3e
00000180: 91aa 6f3e 42b4 443c 7e1a 80bd 0c9b e33c
00000190: 1b86 753e cc1c 2e3e dc7e b83d 32c3 373e
000001a0: abfd d1bd 8065 2ebf 748a 58bd 7656 cf3d
000001b0: 8de0 aa3d da77 fc3e 3071 8e3e 651f 5dbd
000001c0: c76d 773e 9ff9 cb37 ef95 793e aa30 073d
000001d0: f772 0fbe 1c6c b63d 2deb 003f e409 c23d
000001e0: b05e 463e 5c4d 133f 9342 12bd 5e07 91bd
000001f0: 6884 3dbd dc45 d0bc 1224 533d 93c1 18bc
0.4282804 0.19730933 0.18137005 0.15347928 -0.086390175 0.057604276 0.12993823 0.037855692
0.17516269 -0.055298325 -0.06202033 -0.13079627 0.1706285 0.001383029 -0.20044117 -0.014701957
-0.009093061 0.08245045 -0.087590635 -0.043801237 0.026498951 0.15844923 0.005126707 0.19604442
0.07300145 0.15114509 0.12892906 -0.04624542 0.21824434 -0.025091458 0.33621827 -0.064845115
0.46537176 -0.021107864 -0.020045787 -0.06668281 0.0041038557 0.047140833 -0.01463733 -0.05309864
0.1336852 -0.010907476 0.06782209 -0.057148825 -0.08286283 0.019167762 0.010617812 0.17392449
0.09788254 0.28413385 0.0122123 -0.02212527 -0.045821827 -0.018343255 0.10510833 0.013317293
-0.041816104 0.15653978 0.39614367 -0.032028347 -0.056008276 0.20425177 -0.28507805 0.05601018
0.07854283 0.20079865 0.38532525 -0.09884025 0.12238732 0.07296859 0.11785884 0.101336196
-0.075992875 -0.07728374 0.53089416 -0.18730217 -0.025811117 -0.08875821 0.14368469 -0.029360406
0.0036741772 0.2639903 -0.016765535 0.056634896 -0.07071927 0.23797323 0.049424987 -0.090374485
0.17604697 0.08069285 0.14308667 -0.058410883 0.15131637 -0.006641031 0.05442022 0.22919805
0.2340491 0.012005867 -0.06255053 0.027783893 0.23976938 0.17003173 0.090085715 0.17945555
-0.102534615 -0.68123627 -0.052866414 0.10123913 0.08343611 0.4931019 0.2782073 -0.05398502
0.2416297 2.4315725e-05 0.24373601 0.033005394 -0.140087 0.08907339 0.5035885 0.09474543
0.19372058 0.57539916 -0.03570802 -0.07081483 -0.04626885 -0.025423937 0.05154807 -0.009323495

model.4.weight f4 [64, 128]
00000000: 9e02 acbe ad9e 13bd 80ee 993e 7d47 22be
00000010: b3fd fcbd 6603 f7be 0302 4e3d e078 4e3c
00000020: 3fde cdbe 44d1 083d 77e9 a5bc b698 80be
00000030: b7b9 20be 444f 46bd e36a 9bbe 0b1a be3d
00000040: 9467 aa3c 3c3e 113d 6b9d 0bbd 2287 46bd
00000050: d09f 043c 4731 02bf acdd d13d fa0c 2f3e
00000060: f9fe 653e 22f9 a13e a423 593e c1d5 09bd
00000070: 0397 993d 8295 563d 1b0b f63d 8947 4e3d
00000080: 6e2c df3d 4146 e6bc 053b a83e 56ae 283d
00000090: 8808 72bc e690 323e a2b6 b73b c548 0b3d
000000a0: 92e5 2a3e 7d7f c5bd c537 0dbe 213f 99bc
000000b0: df59 023c a875 ddbe 8590 27bc 4977 d4be
000000c0: 2eb7 c3be 670b 5abf d798 26bd 0cc1 eab9
000000d0: 4770 5c3d 3ecf 7f3d 1b7a f73d 7531 3a3b
000000e0: 057c c4bc 3169 dbbc 3b53 4abf 8704 9dbc
000000f0: 3e32 853d 57e2 cc3c dab9 013f fa5c 7e3e
00000100: 7854 43bd bb52 ee3d 83d5 b93d ea11 e4bc
00000110: 6746 f73d 6fdb 143d a92f d8bd c1d9 043f
00000120: 0582 113d 6b02 a43f 7fb6 b2bc 2c80 6cbd
00000130: 57a1 87bd 6514 a13c f74a d13e bc15 f63d
00000140: 54c5 763c ce81 bfbd bdec 663d 1c4c 893e
00000150: b8ee b43d 6d1e 47bb 8e68 83be 5f29 963d
00000160: 1899 803e c716 de3c a5c6 24bf e468 1dbd
00000170: fb1e 55bd e8f3 b13d b00a 8d3f 75a0 1cbe
00000180: cf3b 6ebe 648e 953d 2bfd 82be c452 25bd
00000190: 75bb 37bc 6825 c83d d1e4 403d f3ae 2f3e
000001a0: 6418 22bd 4bee 44bf 48c0 26bd d076 e13c
000001b0: 5780 6e3d 128c cebc e5c8 b63e f869 b83c
000001c0: e158 7a3e 321c 1f3e 17a5 a83e b284 2bbe
000001d0: c75a 25bc b296 bbbc d561 253e 8752 2b3e
000001e0: 70fa 923d ed54 753c 7dba 003d ea9b 2fbd
000001f0: a0ce 54bd 9499 f7bc c90d 20be 4180 79bd
00000200: 921a 6b3c 5246 643d f16a 403c 1d1b 7bbc
00000210: e139 9abc 9c10 ca3d e8a8 e1bb ed59 003c
00000220: 662e 613d c829 06bd 8f4b 87bd 43ec 773d
00000230: 23f4 333d 3425 aa3c c457 c2bd c635 413d
00000240: 0957 a3bc bb28 b5bd 7adb 7bbd 1a6b 8d3d
00000250: 4466 a8bd f0c9 abbd bf3c 883d 4335 673d
00000260: 6e95 9a3c a95a 6fbd a37f c5bd 6091 dabb
00000270: 7947 e1bb da06 41bd 1c80 34bd 5e85 3a3d
00000280: 6a98 8dbd 4e02 4dbd 050f 00bd a6e6 b2bd
00000290: fb76 7b3d f47f 1fbc b054 9d3c fbb9 0e3d
000002a0: a056 9a3c 10af 123d a9e8 a6bc 15d3 9c3d
000002b0: 4007 09bc 64c0 9cbd c1b9 033d 8a46 863d
000002c0: 2eec 01bd 105b 90bc ea00 543c f91d 9a3d
000002d0: 8005 a8bd 7ecc 23bd beec 57bd ae17 93bd
000002e0: 1fdd 7abd 7871 3cbc 356d b5bd 124b 9fbd
000002f0: 34b6 59bd d5ce 9d3d 40f5 3d3d 7764 acbc
00000300: a28d b2bb 1a2c 8abd e753 1abd 2037 903c
00000310: 911c 2ebd 1dc7 c6bd 9c3e 99bc b91d 9fbd
00000320: e0a2 27bb 242a e93c dc40 70bc aa23 d73a
00000330: 420a 83bd 364a 5d3d 4c72 3bbd 1361 803c
00000340: 0623 183d b15e ed3c 35a1 253d 86a7 6e3c
00000350: e04f 3abd f2c0 663d 1587 abbd 83a8 803d
00000360: 4e21 98bc f3a6 92bd 56f8 13bd 68fd f1bc
00000370: 3a60 54bd eeca 393d 38ae 13bd efb7 613d
00000380: 30d7 86bd 0e95 403d 31ef adbd ea4d 973c
00000390: ace1 babd 7c8a 88bd b8ea a8bd 3cef 713b
000003a0: ad76 873d 30d1 babc 2247 713d 4586 653d
000003b0: 66d0 b8bd c022 1ebd 511a cdbd 918c bcbc
000003c0: 6700 a1bd b738 063c 6061 a13c 7c1a 3ebd
000003d0: b0cc 66bc 8050 cabd 9866 903b 5ea5 f0bc
000003e0: dc0f 743d a848 55bd d754 48bd 182c 2fbd
000003f0: f6ec 353d 54d1 c8bc 01b8 803b 2e6f 5b3d
-0.33595747 -0.036039997 0.30064774 -0.15847583 -0.12353077 -0.4824478 0.050294887 0.012602061
-0.40208623 0.033402696 -0.020252926 -0.2511651 -0.15695845 -0.048415437 -0.30354986 0.09282311
0.020801343 0.035459742 -0.034085672 -0.048468716 0.008094743 -0.5085644 0.10247359 0.17094794
0.22460546 0.31635386 0.21205002 -0.033651117 0.07499506 0.052388676 0.12013837 0.05036119
0.10897146 -0.028109672 0.32857528 0.041181885 -0.014772542 0.17438087 0.0056064883 0.034004945
0.16689137 -0.09643457 -0.13790806 -0.01870686 0.007955997 -0.43253827 -0.010227327 -0.41497257
-0.38225693 -0.8517365 -0.040673103 -0.0004477579 0.053818014 0.0624535 0.12083837 0.0028410826
-0.023984918 -0.026783558 -0.7903325 -0.019167198 0.065037236 0.025010271 0.5067421 0.24840155
-0.047687978 0.11636873 0.09073927 -0.027840573 0.12073975 0.03634208 -0.105559655 0.51894766
0.035524387 1.2813238 -0.021815537 -0.05773942 -0.0662257 0.019663045 0.40877506 0.12015864
0.015061695 -0.0935093 0.056378115 0.2681588 0.088345945 -0.0030383125 -0.25665706 0.0733211
0.251168 0.02711047 -0.6436561 -0.03843011 -0.0520315 0.086890996 1.1018887 -0.15295584
-0.23265003 0.073025495 -0.25583777 -0.040362135 -0.011214127 0.0977276 0.047093216 0.17156582
-0.039574042 -0.76926106 -0.040710717 0.027522475 0.058227863 -0.025213275 0.35700145 0.022511467
0.24447967 0.155381 0.32938454 -0.16749838 -0.010092444 -0.022899006 0.16150601 0.167307
0.071766734 0.014973861 0.03142785 -0.0428733 -0.051954865 -0.030224599 -0.15630259 -0.060913328
0.014349597 0.055731125 0.011744247 -0.0153262885 -0.018826427 0.09866449 -0.0068865903 0.00783394
0.05497589 -0.03275469 -0.066062085 0.06052805 0.043934 0.020769693 -0.09489396 0.047170423
-0.019938963 -0.08845659 -0.061488606 0.069051936 -0.082226306 -0.08388126 0.066522114 0.05644728
0.018870082 -0.05843607 -0.096434854 -0.006670162 -0.0068749753 -0.047125675 -0.044067487 0.045537345
-0.06913836 -0.050051026 -0.031264324 -0.08735399 0.061392765 -0.009735096 0.019205421 0.034845334
0.018840134 0.035811484 -0.020374613 0.07657448 -0.008363545 -0.07653883 0.03215957 0.06556423
-0.03171938 -0.017621547 0.012939671 0.07525248 -0.08204174 -0.03998994 -0.05271601 -0.07182251
-0.061246034 -0.011501662 -0.0885872 -0.077779904 -0.053152278 0.07705466 0.046376467 -0.021044
-0.005449013 -0.06746693 -0.03767767 0.01760441 -0.04250771 -0.097059466 -0.018706612 -0.07769341
-0.0025579259 0.028462477 -0.014663901 0.0016413827 -0.06398441 0.05402585 -0.0457633 0.015671289
0.037142776 0.028975816 0.040436942 0.014566308 -0.04548633 0.05633635 -0.08375374 0.06282141
-0.018570568 -0.07160749 -0.036125503 -0.029539779 -0.05184958 0.045359544 -0.03605482 0.055107053
-0.065840125 0.04701715 -0.08492888 0.01846977 -0.09125075 -0.06667039 -0.08247894 0.0036916276
0.066144325 -0.022804826 0.05890573 0.056036253 -0.09024124 -0.03860736 -0.10014785 -0.023016246
-0.07861405 0.008192233 0.019699752 -0.046411976 -0.014086887 -0.098786354 0.0044067614 -0.029375728
0.059585437 -0.052071244 -0.048909035 -0.04276666 0.044415437 -0.024513878 0.003928185 0.053572826

model.4.bias f4 [64]
00000000: f729 943d aaa6 c4bb 6ec6 9f3d 2a55 a83d
00000010: 9757 c93e 9659 d73e b823 a73e 54c4 8abc
00000020: dc7b e23e 75fc 963b 0d2a d43e 5eb4 31be
00000030: ba7f c53e 2576 b1bd 39f4 4c3e 5cc6 d1bc
00000040: 9cd8 aa3b 86ad 043f d334 dcbd f166 9f3b
00000050: 1336 b33e f534 95be 3eef 9e3e 1d18 6d3b
00000060: fd05 7ebd 5533 42bd d69e 8dbb 869d 233f
00000070: 1ba8 17be 220f 613e ae4d 42bd 2868 9bbd
00000080: 298e 533e 7700 febd 8049 aebd b77b 973d
00000090: 2c08 3b3c 13a4 fa3c 05a3 cbbd a72e 123e
000000a0: f299 883d 1687 723e 7ee4 b8bd 12bc 543e
000000b0: 50d1 bdbd a5bd 143f 65a3 f9bd 4305 683e
000000c0: 26c4 313e fc3f c2bd 9ef9 013d 6ce5 ad3e
000000d0: f349 5b3e 5453 483e 2e21 6d3e 5df1 63bb
000000e0: df4a 2cbd a455 8fbd d14e b3bd aa41 053e
000000f0: 7e70 02bd cf0d 02be 4b48 20bd cb92 e73b
0.07234567 -0.006001313 0.07801519 0.08219369 0.39324638 0.42060536 0.3264444 -0.01693932
0.44235122 0.004607732 0.41438332 -0.17353961 0.3857401 -0.086651124 0.20015039 -0.02560728
0.00521381 0.51827276 -0.10752263 0.0048645665 0.35002193 -0.29141966 0.31041902 0.0036177703
-0.06201743 -0.047412235 -0.0043219132 0.63912237 -0.14810221 0.21978429 -0.047437362 -0.075882256
0.20659699 -0.124024324 -0.08510113 0.073966436 0.011415523 0.030595815 -0.09943203 0.14275609
0.06669988 0.23684344 -0.090279564 0.20774868 -0.09268439 0.58101875 -0.12189368 0.22658257
0.17359981 -0.0948486 0.031732194 0.33964097 0.21414928 0.19563037 0.23157188 -0.0034781315
-0.04206359 -0.069987565 -0.087552674 0.1301333 -0.031845562 -0.1270058 -0.039131444 0.0070670596

model.6.weight f4 [32, 64]
00000000: eb6f 8b3d c8a2 5dbd 189d 5abb 8bcc eabd
00000010: 2e43 32be b3e1 343d 9068 3b3d fbc2 c33d
00000020: c48b c33c 5959 f9bb 24d9 cabc c5fc 49bd
00000030: 3acf 9dbd e47c a3bd 58a6 58bd e2ca b9bd
00000040: 4fda 91bd 330c 2bbe 80a0 2dbb ad9d 903d
00000050: b870 16be 737e 1e3e bf26 733d 938f 663d
00000060: ad9e 85bd 01ec 20be 370d edbc d3e9 9a3c
00000070: def2 7b3d 00ce 1abe 5957 fabd 2fb7 d43d
00000080: cc85 e23d 08e0 2e3d 1fc5 613d d75f e9bd
00000090: cde2 2bbc 4d67 69bd e493 17be 77eb 2abe
000000a0: 4c0c 1a3d 8307 f9bb e0c4 eb3b 2be5 20be
000000b0: 2818 8f3c 780d d7bd 9bd1 cabd bd0a 24bd
000000c0: 125e ddbd d93d c2bd badb 2f3d eae3 a8bd
000000d0: 1722 55be 12be 3fbd 7290 07be 9b67 783c
000000e0: d659 72bd cc05 f8bd 4612 61bd 3ed1 453d
000000f0: bda8 0cbd 24cf 9dbd f4cf c53d 47a0 be3d
00000100: 821b 94bd aaa7 e1bd 4242 90be 3a5d 173e
00000110: 46b6 cd3e f734 9abe 602b a2be 3011 d03d
00000120: bffa d5be 257f f9bd 594b a6bd 8095 0abe
00000130: 6926 003f a7cc 813d 183f a3bd 835a 423e
00000140: 809a 5ebc 1a8e 2d3e e6f9 f33d b0a9 9a3d
00000150: d605 48bd 0c9c 513d bde2 fc3c b34d a93c
00000160: f17d 8b3e c7a4 b33e 8700 a8bc 4fc0 9c3e
00000170: e951 9ebd 2ba7 54be 6af1 2ebe 30c4 7a3d
00000180: 1474 5d3e 2f1a b0bd e030 09bd cb7a 0e3d
00000190: daa4 0c3e 2f57 863d fc93 61be 6582 14be
000001a0: 2244 a7bd 0074 8d3e f834 5e3d 9049 603e
000001b0: f49a 18be d442 003e f5af 0e3d e073 f4ba
000001c0: f6ad a9be 38d7 703b 6bbc ae3d 1265 343e
000001d0: 384d 9b3d ad13 313e b475 c63d bf83 7a3e
000001e0: 3f50 ae3e 8c56 b83d 2041 863d aba9 3d3e
000001f0: a26d b2bc dc55 0a3c 216c 06be 0d06 853d
00000200: 1858 85bd e688 e2bc 5a37 47be 5fba 153d
00000210: 079e 86bc 613c 243e 4a63 213e a9be d9bb
00000220: b9d3 6f3e e5f0 303d 8bd7 e6bd 864a e1bd
00000230: 1207 3f3e 6f20 d73d 0af5 2dbe 71ed 0c3e
00000240: f839 f53d 82f1 5fbc af38 953d 599d c13d
00000250: 612b d73d 7113 7b3e b0a8 1f3c 8af6 b5bd
00000260: 7bfb 443d aca7 65bb 3d88 e93d 2ed9 babd
00000270: a558 943d 7cc2 a23d 9205 17bc b0f9 163e
00000280: 29b6 403e dc56 813d 6176 be3c de1f 03be
00000290: 9791 c6bc 4785 c03c a3f4 adbd 730b d6bd
000002a0: 267e d9bd b0bd 243c 1265 023d 90ca 44be
000002b0: 7851 d9ba c361 c1bd 7171 a3bc cd9c 423d
000002c0: b08d fd3d 77bd c1bd 4b56 823c 95a7 fcbd
000002d0: 8994 283d 1585 fabd 0ea1 48bd 35b1 cb3c
000002e0: 6fde 29be ec57 0b3d 91db bdbc e1a1 a7be
000002f0: dc74 833d e0f7 84bd 6f40 543d 69ee bdbc
00000300: 7d7f 313e 9169 8dbc eaa2 eebd 8c99 d4ba
00000310: b7c0 b03e c047 09bf bacf babe 4830 a53c
00000320: a8b1 c5bc 5389 e43d 7bfb 8bbf 5168 b13c
00000330: aa2f 363d c3b7 3c3d 73a2 973d 0fba 98bd
00000340: 7540 bd3d 6b9d bfbd 5694 03bd 0ae6 52be
00000350: 8450 9ebe 76e6 d23e 3019 3c3c f13d 32bd
00000360: 9540 ac3c 9f60 ec3d 1ec6 113e e6d0 4abd
00000370: 135d 36be f485 a93c efd4 36be a084 1dbe
00000380: 9e76 d13e 9a44 973c 7f8e d5bd e183 1fbe
00000390: 8a9c d8bd 2c0f 80bd b4bf 2cbe 7d7f 8abe
000003a0: 81ca 943d b09e 8dbe f6d6 6d3c fb89 f13c
000003b0: 6f39 9fbd 8091 2bbf bb70 d4bd eace 903d
000003c0: 9e7d 99bd 74fe 683c 7bb0 3d3d 84d8 fcbc
000003d0: 2399 7fbe cf3a 14be a510 2ebe d554 70be
000003e0: 543b 12be f155 7cbd ef7b 043e 1fb9 2dbf
000003f0: ae5d f83d db9b 303d d0d7 0f3d 489d f6bd
0.06808456 -0.05411032 -0.0033357795 -0.11464795 -0.1740844 0.044160556 0.045754015 0.09558674
0.023870356 -0.007609528 -0.024761744 -0.049313325 -0.07705541 -0.07982805 -0.052893013 -0.090719
-0.07121717 -0.16703872 -0.002649337 0.07061324 -0.14691436 0.15477924 0.059363123 0.056289267
-0.06524406 -0.15715028 -0.028936965 0.018910324 0.061510913 -0.15117645 -0.122236915 0.10386502
0.11060676 0.04269412 0.05511963 -0.11395233 -0.010491085 -0.05698328 -0.1480251 -0.16691385
0.037609383 -0.0075997724 0.0071951 -0.1571242 0.017467573 -0.10500616 -0.0990326 -0.040049303
-0.10808958 -0.09484453 0.042934157 -0.08246596 -0.20813785 -0.046812125 -0.13238695 0.01516142
-0.059167705 -0.12110481 -0.054949068 0.048295252 -0.03434061 -0.077055246 0.096588045 0.09307914
-0.07231809 -0.110183075 -0.2817555 0.14781657 0.40178126 -0.30118534 -0.31673717 0.10159528
-0.41792867 -0.12182454 -0.0811984 -0.13533592 0.5005861 0.063378625 -0.079710186 0.1897984
-0.01358664 0.16948739 0.11912899 0.075518966 -0.04883369 0.05117421 0.030869836 0.020666933
0.27244523 0.35086653 -0.020508064 0.3061547 -0.07730467 -0.20766895 -0.1708428 0.061222255
0.21626312 -0.08598744 -0.033493876 0.034785073 0.13734761 0.06559598 -0.22029108 -0.14502867
-0.08167292 0.27627563 0.054249734 0.21903062 -0.1490286 0.12525493 0.034835774 -0.0018650256
-0.33140534 0.0036749374 0.085320316 0.1761668 0.07583088 0.17292662 0.09690419 0.2446432
0.34045598 0.090008825 0.0655539 0.18521754 -0.021780793 0.008443322 -0.13127185 0.06495295
-0.06510943 -0.027653169 -0.19454709 0.03655469 -0.016432775 0.16038658 0.15760532 -0.006645043
0.2342061 0.043198485 -0.1127158 -0.11000542 0.18655041 0.10504233 -0.16988006 0.13762452
0.11973947 -0.01366842 0.07286202 0.0945384 0.10506321 0.24519135 0.009744808 -0.08884914
0.048091393 -0.0035042567 0.114029385 -0.09123455 0.0724347 0.07947251 -0.009217637 0.14743686
0.18819489 0.06315395 0.023249807 -0.12805125 -0.024239345 0.023501052 -0.084939264 -0.104514025
-0.10619764 0.010054991 0.03183467 -0.19217896 -0.0016580066 -0.09442475 -0.019951554 0.047512818
0.1238054 -0.09459966 0.015910288 -0.12336651 0.04115728 -0.12232415 -0.04898172 0.024864772
-0.16588758 0.034019396 -0.023175986 -0.3274069 0.064187735 -0.06492591 0.05181926 -0.023184972
0.17333789 -0.017262252 -0.11652167 -0.0016220077 0.3452203 -0.53625107 -0.36486608 0.020164624
-0.024132565 0.11159005 -1.0936121 0.021656187 0.04447905 0.046073686 0.074040316 -0.07457363
0.0924081 -0.09356197 -0.032123886 -0.20595565 -0.30920804 0.41191453 0.011480615 -0.043516103
0.021026889 0.115418665 0.14235732 -0.049515627 -0.17808942 0.020693757 -0.17854665 -0.15382624
0.4091081 0.018465329 -0.104275696 -0.15577652 -0.105767325 -0.06252894 -0.16870004 -0.2705039
0.07265187 -0.2766013 0.014516583 0.02948474 -0.077746265 -0.6701889 -0.10373064 0.07070716
-0.07494663 0.014220823 0.046310883 -0.030864961 -0.24960761 -0.14475559 -0.16998537 -0.23469861
-0.14280444 -0.061605398 0.12937902 -0.678606 0.12127243 0.043117385 0.035117924 -0.12041718

model.6.bias f4 [32]
00000000: 687e 303d 76ae 0c3f 1550 323d 16ba 3c3d
00000010: 820c 813d 5952 113f ea14 1a3e c397 593e
00000020: 54b6 a03e 76aa 303e 5149 103f 4a69 1a3e
00000030: 8a55 a3bd 00af 083f 74b0 b5bc bc5d 1b3e
00000040: 17f2 c83e 06eb ab3e ea48 043e 0a29 aa3e
00000050: 09dc a33e fc1d 623e 3155 33be 344e 383e
00000060: a54b 5e3e ecda 9b3e 286e 613d b9bb 0d3f
00000070: f404 8d3e 8fd8 503e 7171 643d 8b4a bb3e
0.0430893 0.54953706 0.043533403 0.046075903 0.06301214 0.5676628 0.1504704 0.21249299
0.31389105 0.17252526 0.5636187 0.15079227 -0.079753 0.5339203 -0.022178866 0.15172476
0.392472 0.33577746 0.1291844 0.33234435 0.3200381 0.2208175 -0.17512967 0.17998582
0.21708544 0.30440462 0.055036694 0.5536457 0.2754284 0.2039511 0.05577225 0.3658031

model.8.weight f4 [10, 32]
00000000: 7969 d63d 8e89 843e e5a8 a5be 28cf 63be
00000010: c11d 3abd f332 523e d666 be3c 14b2 553c
00000020: 04e7 30be 684b c3bd b3a5 843e 39e8 ab3c
00000030: 31ed a33c addf 5ebc a758 303e c549 6b3e
00000040: 8386 a83e cf6b d1be 5697 fd3b 6d47 ec39
00000050: 6f4e 01be abd1 883e 7280 aa3d 44b5 92bc
00000060: 8068 a7bd 2fca 86be ede3 ff3d c717 f63d
00000070: 25be 133e 8478 643e 9cae 38bc f64c 60be
00000080: 1e93 76bd ef4c a53e f050 4abe 169e 01bd
00000090: f7d1 323d d66d 933e bc0a 02bd b237 c43c
000000a0: 133d 84be ebac 60be 3f2c 353e a295 59bd
000000b0: 4400 8f3d e331 05bd 0d9d 02be 66bd 673e
000000c0: 9eda 963e 39fa a3be 8648 da3d 3f5b 513e
000000d0: e045 1bbe e8a6 b53d 8dd9 6dbd 5d5d ff3d
000000e0: 80ce 53be ac3c 95be d6a0 9b3d 9ad9 f33d
000000f0: 9b58 0b3e 8d23 443e b763 ebbd 2763 54be
00000100: 1c63 053e bec9 003f 477a 3cbe c31a 2d3d
00000110: 3bd9 843c dcb4 f33c b64b 8c3d 09f3 c43c
00000120: 70fd 4dbe 7d3e f73d ee4a 9e3e 4ac9 f93c
00000130: d3c3 063e 1a3a 28bc 9861 223e 781a 763e
00000140: 69ae 883e 2fc5 a4be bc12 c7bd 57b7 8e3e
00000150: 95e3 c5be 3b5f 243e d13c 9f3d 024e f83d
00000160: 2aab 84be 3e9e 78be 77a0 d8bd e9c4 5a3d
00000170: 014a 6b3d 2f18 423e cd0e d83d c6af 1dbe
00000180: 9a66 293c 69eb ad3e f1f0 69be f163 25be
00000190: 7c57 383d 4fa2 3c3e 44af 3e3e 0c64 7d3d
000001a0: b06d 7abe d7b7 5f3d bfde 933e a007 5dbb
000001b0: aa7f 6c3d 3ae8 4a3c f1b9 043e 54b9 393e
000001c0: bf1c 6c3e f753 85be c68d 9abd c4f6 183e
000001d0: 40b3 b1bd 3c91 423e 9144 fabd a467 1e3e
000001e0: f9eb 88be 469d b5be ddfc 16be 026e b03d
000001f0: 8646 9f3c 875e 433e 94ff c33b abfe 27be
00000200: e4e9 15be d877 603e e996 56be 556d d93d
00000210: b063 0d3e 232f b33e a276 5dbd a62a 0b3d
00000220: d0f1 80be cb4d 6b3d 602c a03e 496a c3bc
00000230: 37c8 cd3d 22ab 73bd cf79 213e def0 6ebb
00000240: a0d7 cf3e 4056 b0be 2a38 0b3e a06b 153e
00000250: 59ad 6abe a2c8 5e3e 82fb 07be ee26 c03d
00000260: b93b 5cbe 2a63 5ebe 0a37 a4bc 1611 ab3d
00000270: 1e7c c2bd 3b47 5b3e bd69 e03d 52ad 7bbe
00000280: 3fe0 a13d 9931 b63e dabf aabe 1a77 12bc
00000290: 0506 05be c0c2 913e f192 383e 2086 7bbd
000002a0: 87e0 77be 9d6f 193e cf4e 4b3e db7e 61bc
000002b0: ba63 873d 246e 11bd 46b1 dd3d d52b 98bd
000002c0: 0e16 b63e 198c 82be 7361 a63d 7394 72be
000002d0: 1cfd 43be 0a35 633e 8872 923c 5e2e 343c
000002e0: 38a0 7ebe ed73 7fbe 54bc d53a b809 e23d
000002f0: 6aa2 763d d778 603e 1f91 383e a649 86be
00000300: 63f1 afbd a682 9a3e 4ca4 e0bd 6ea4 503d
00000310: 8720 0f3d 1155 fa3d 01ec 193e 962d 1cbc
00000320: ea44 4fbe 0f8a 963d 8fe4 7a3e f8ff 443d
00000330: 2124 a3bd 6195 eabc dc20 c53d d502 0a3e
00000340: 8277 853e 4411 b9be 24ff 443e 6707 1a3d
00000350: 60ca 16be 876d ed3d a0dc 66bd e825 af3c
00000360: b9df bebe 2664 5cbe d324 203d 690e ce3d
00000370: bd13 3b3e 0129 6f3e 8d3f a5bb d4d7 5cbe
00000380: 361f afbd b180 af3e e6e3 2bbe 6301 b03d
00000390: bfed 323e 5524 a7bd 2e78 6cbc 0f0c 373c
000003a0: fbf7 1ebe f947 85bd 3de5 9f3e eacc ddbb
000003b0: 5c3c 87bd 59d1 f9bc fd0a be3d 2c83 13be
000003c0: e707 9e3e 57a4 3fbe 79ec 943d 1b4a 22be
000003d0: 8175 3dbe 9097 2f3e ee85 843d 6858 ab3d
000003e0: 3044 72be 3970 c1be 69dd af3d b9c8 4f3d
000003f0: 9117 813c 29b0 2e3e 11d6 1bbe b3a7 cebe
0.10469336 0.25886196 -0.3235542 -0.22246993 -0.04543853 0.20527248 0.023242395 0.013042945
-0.17275625 -0.09535867 0.25907668 0.020984756 0.020010563 -0.013603133 0.17221318 0.2297736
0.32915124 -0.40902564 0.007738988 0.00045066644 -0.12627576 0.26722464 0.0832528 -0.0179087
-0.08174229 -0.2632613 0.12494645 0.12016254 0.14428003 0.22311598 -0.011272099 -0.21904358
-0.060198896 0.32285258 -0.19757438 -0.031644903 0.04365727 0.28794736 -0.03174852 0.023952339
-0.25827846 -0.21940963 0.1769266 -0.053121217 0.069824725 -0.03251828 -0.12755223 0.22630844
0.29463667 -0.32026842 0.10658364 0.20444964 -0.15163374 0.088697255 -0.0580688 0.124689795
-0.20684242 -0.2914785 0.075990364 0.119067386 0.13608019 0.19154187 -0.114936285 -0.20740949
0.13026088 0.50307834 -0.1840602 0.04226185 0.016216865 0.029749326 0.06850378 0.02404167
-0.2011621 0.120724656 0.30916542 0.03049149 0.13160639 -0.010267759 0.15857542 0.24033535
0.26695564 -0.3218169 -0.0972037 0.27874252 -0.38650194 0.16051953 0.07775272 0.12124254
-0.25911838 -0.24279115 -0.10577481 0.053410444 0.057443622 0.18954538 0.10549698 -0.15399083
0.0103394035 0.33968666 -0.22845818 -0.16151406 0.045005307 0.18421291 0.18621546 0.06186299
-0.24455905 0.054618683 0.2888088 -0.0033726469 0.057738937 0.012384469 0.12961556 0.18137103
0.23057841 -0.26040623 -0.075465724 0.14937884 -0.08676767 0.19000715 -0.12220109 0.15469223
-0.26742533 -0.35471553 -0.14744897 0.08614732 0.019442808 0.19079028 0.005981395 -0.16405742
-0.14640003 0.21920717 -0.20956005 0.106165566 0.13807559 0.349969 -0.054068215 0.03397622
-0.25184488 0.057447236 0.31283855 -0.023854392 0.100479536 -0.059489377 0.15769123 -0.0036459486
0.40594196 -0.34440804 0.13595644 0.14591837 -0.2291769 0.21756223 -0.13279536 0.09382425
-0.21507157 -0.21717516 -0.020045776 0.08352868 -0.0949633 0.21413891 0.10957668 -0.24577835
0.079041 0.35584715 -0.33349496 -0.008939529 -0.12990578 0.28468895 0.18024804 -0.06140721
-0.24206744 0.14983983 0.19854282 -0.013763155 0.06610818 -0.03550543 0.10824828 -0.07430235
0.355637 -0.2549751 0.08124056 -0.23689441 -0.19139522 0.22188202 0.017876878 0.010997383
-0.24865806 -0.24946566 0.0016306737 0.1103701 0.060213484 0.21921097 0.1802411 -0.26228064
-0.08590963 0.30177802 -0.10968837 0.050938062 0.03494313 0.122232564 0.15031435 -0.009532353
-0.20241132 0.07350551 0.2450125 0.048095673 -0.079658754 -0.028635683 0.09625408 0.13477643
0.2606774 -0.36145985 0.19237953 0.037604716 -0.14725637 0.11593156 -0.05636275 0.02138038
-0.37280062 -0.21522579 0.03909762 0.10061342 0.18269248 0.23355485 -0.0050429762 -0.21566707
-0.08550875 0.3427787 -0.16786155 0.085940145 0.17473505 -0.08161227 -0.01443295 0.011172309
-0.15524285 -0.06507868 0.31229582 -0.0067688124 -0.066033095 -0.030495333 0.092794396 -0.14405507
0.30865404 -0.18715034 0.07271666 -0.15848581 -0.18501855 0.1714766 0.064708576 0.083664715
-0.23658824 -0.37780932 0.085871525 0.050728533 0.015758308 0.17059387 -0.15218379 -0.4036232

model.8.bias f4 [10]
00000000: 4964 07be 72d1 82be f575 a8be 237e c5be
00000010: 8633 55be ff73 18bd b97e b4bd d32f 273d
00000020: 2be1 16bd a188 8d3d
-0.1322185 -0.2555042 -0.32902494 -0.38572797 -0.20820436 -0.037219997 -0.08813233 0.040817093
-0.03683583 0.069108255
