checkpoints/checkpoint_step_2000.pth (torch, 200878 bytes, 10 tensors)

model.0.weight f4 [256, 21]
000000 d5 ac 20 3d 6c 95 f8 3b ec 02 24 3e 10 57 89 be
       0.039227325 0.007586172 0.1601674 -0.26824236
000010 2f 1e 89 be 6b f5 88 be af 33 1f bf 9d 6b 13 3e
       -0.2678084 -0.2674974 -0.6218824 0.1439652
000020 83 8a ba 3d ad 2c 9d bc 58 1f 96 be d4 0d 33 3e
       0.0910845 -0.019186342 -0.29320788 0.17485744
000030 a6 7a 10 3e 45 d5 df be 6c 34 45 be bf 51 5f be
       0.14109287 -0.437174 -0.19258279 -0.21808527
000040 87 c0 42 3d 95 74 02 3e 18 9f 33 3e 76 7b d2 be
       0.04754689 0.12739785 0.17541158 -0.41109818
000050 9c d5 63 3e c9 3b 70 3d cd 23 4b 3d 06 2d 12 be
       0.22249454 0.058650766 0.04959469 -0.14274988
000060 10 94 42 bd b8 1b 93 bf a7 01 32 bd fb da e4 3d
       -0.047504485 -1.1492834 -0.043458607 0.1117458
000070 59 80 b2 bd bd 9f d2 bd 77 f4 9a be 19 3f b6 3b
       -0.087158866 -0.10284374 -0.30264637 0.005561721
000080 e1 09 89 bd 4c 0e 9b be 8d 91 9f be 52 cc bf bd
       -0.066913374 -0.30284345 -0.31165734 -0.09365143
000090 55 e5 02 3c 46 fc 93 bc 55 f1 3e 3e ea 58 5a bd
       0.007989247 -0.01806463 0.18646748 -0.05330745
0000a0 af 4f 2b 3e 92 ad 22 bd d3 7a 62 3b f5 aa 6d be
       0.16729616 -0.03971631 0.0034558072 -0.23209746
0000b0 a6 60 9e 3e 3f c2 db bc 68 07 21 3e 4c 99 14 3e
       0.30933112 -0.026826022 0.15725482 0.14511603
0000c0 3d bb f8 be 98 1a 2d 3e 1e 9b 54 3e a3 0a 15 be
       -0.4858035 0.16904676 0.20762298 -0.14554839
0000d0 b3 7f ba 3d 7b 45 01 bf 5e eb 65 bd 31 83 6e be
       0.09106388 -0.50496644 -0.056132667 -0.23292233
0000e0 31 3f 25 be a3 1a 0f 3e 85 e7 89 be bf 1d c9 3b
       -0.16137387 0.13975005 -0.26934448 0.006137579
0000f0 fb ba ec bc 80 6d 3e be 88 ed 5f bd 37 a8 d3 3d
       -0.028897753 -0.18596458 -0.054669887 0.10334819
000100 22 34 a3 be cc 95 db bd c0 e5 c0 bd c2 31 1b c0
       -0.31875712 -0.10721931 -0.09418821 -2.424912
000110 4d 61 c4 bd 75 80 42 be 80 e3 8b 3d e6 04 73 bd
       -0.09588871 -0.18994315 0.068305016 -0.059330843
000120 fd d3 ce 3d c4 50 98 bc 7b d1 13 3e 90 7f 6d bd
       0.10099027 -0.0185932 0.14435379 -0.05798298
000130 7a cd 5e bd 8f 21 c3 3c ec bc 02 3e 43 21 c7 3d
       -0.054395176 0.023819713 0.1276738 0.09723141
000140 fa 4b 07 3e a7 eb 01 bd 10 c9 4e 3d 69 91 1e bf
       0.13212577 -0.031718876 0.050484717 -0.6194063
000150 14 9a 61 3d 07 b8 7b 3d 53 19 f2 3c f3 04 fa bd
       0.05507858 0.0614548 0.029553091 -0.12207975
000160 14 39 ae 3c f1 e6 e9 bd 36 f2 81 3e 5f 97 bb 3d
       0.021267451 -0.11421002 0.25380105 0.09159731
000170 2c 9f 18 3d 7b 20 9c bd bd e9 95 bd f9 ec ed bd
       0.037261173 -0.07623383 -0.07319973 -0.116174646
000180 b3 37 16 3e 48 1b dd bd 52 af 13 be db 41 af 3d
       0.14669685 -0.10796219 -0.14422348 0.08557483
000190 da 72 1c 3e 91 06 c3 be 15 36 62 bd 81 0e 9e 3d
       0.15278187 -0.38090947 -0.055227358 0.0771761
0001a0 18 16 af 3b 45 a8 b0 be d0 25 b5 3c db 47 b8 be
       0.00534321 -0.3450338 0.022112757 -0.3599232
0001b0 7e 24 47 3d eb 90 56 be b0 b3 a2 3c 78 03 b4 be
       0.048618786 -0.2095372 0.019861072 -0.35158896
0001c0 a5 92 56 bd f2 9f b8 be ab 69 5e be b7 ed 6d 3c
       -0.052385945 -0.3605953 -0.21719997 0.014522008
0001d0 fe 8f 04 3e 60 35 fe bd ea d9 8f 3e 22 0a 51 be
       0.12945554 -0.12412524 0.28095943 -0.20414022
0001e0 db 61 a0 3e 90 fa 66 3d be 71 25 3e bd a9 9d be
       0.31324658 0.0563913 0.1615667 -0.30793563
0001f0 76 40 2b 3e d2 04 fa bc 63 dd 23 bf 4a 85 a5 bc
       0.16723809 -0.030519877 -0.64009684 -0.020205159
000200 1d 5b aa 3e e0 e4 bb be 4c 7b 49 bf 44 4e a5 bd
       0.3327264 -0.36698055 -0.7870376 -0.080715686
000210 25 3f 70 be fa 95 aa be ce 09 c5 be 1a f4 7d bc
       -0.23461588 -0.33317548 -0.38484043 -0.015500093
000220 60 b4 71 be c3 f4 8c be db e6 02 bd 07 c2 4f be
       -0.23603964 -0.27530488 -0.031958442 -0.2028886
000230 3f 3a 49 3e 8b c8 5b 3e bd 13 1c 3e 60 e3 d8 3d
       0.19651125 0.2146322 0.15241905 0.10590243
000240 bc d1 2c be fb 98 ac bd 9b 91 81 bd 0c d1 11 be
       -0.16876882 -0.08427616 -0.063266 -0.14239901
000250 77 ad 03 be 3c 4c 4d 3e 37 e9 09 be d3 0f 50 3e
       -0.1285914 0.20048612 -0.1346787 0.20318536
000260 32 2b 2b bd 7c 29 b9 be b8 73 70 bd ce 16 a2 c0
       -0.04178924 -0.36164463 -0.058704108 -5.065284
000270 2f ac c1 bc fe 54 1d bd ff f5 00 bc c0 da 73 bd
       -0.023641674 -0.038411133 -0.00787115 -0.059534788
000280 98 dc 82 bd 36 c2 21 3d 9d 6b 65 3d b3 aa 38 bd
       -0.06389731 0.039491855 0.05601083 -0.045084666
000290 df 84 23 be af 68 71 bd 4f 35 50 be c9 39 58 be
       -0.15968655 -0.058937725 -0.20332836 -0.21115793
0002a0 05 08 34 3c 5d 4b 03 be 83 a3 da 3d 5c 3a 5f be
       0.01098824 -0.12821718 0.10675719 -0.21799606
0002b0 86 2e c3 3d c0 f2 0a 3d 3b 8a b3 be d9 45 95 bd
       0.09530358 0.03392291 -0.350664 -0.07288713
0002c0 39 18 5d 3e 66 c8 97 be fa df 91 be b8 24 b7 be
       0.21591271 -0.2964508 -0.28491193 -0.35770202
0002d0 87 47 5a 3c de c0 9e bd b9 0f 0e be 41 d6 98 be
       0.0133227175 -0.0775163 -0.13873185 -0.29850963
0002e0 50 95 2b 3d 2b 06 8e bd 79 dc 67 be 8d 96 0a bd
       0.041890442 -0.0693477 -0.22642697 -0.033834983
0002f0 82 36 77 3d 03 0c 5e 3e 99 27 09 be 5b dd 86 be
       0.060354717 0.2168427 -0.13394012 -0.26340756
000300 d6 98 89 bd 8e 77 77 3e c8 51 df bd b9 75 7e be
       -0.06718604 0.241667 -0.109042704 -0.24849595
000310 23 34 3d bd 79 fd fd 3d d3 80 9a 3c 0b 11 07 be
       -0.0461923 0.12401862 0.018860256 -0.13190095
000320 12 5c 0e bf 5e ba 49 bd af cb 77 be a9 ab d1 3d
       -0.5560924 -0.04925 -0.24198793 0.1023782
000330 00 34 3f 3d 11 de 03 be e9 e7 de be 35 75 24 3e
       0.04668045 -0.1287768 -0.43536308 0.16060336
000340 b2 66 0e be ef 30 e2 3c 24 eb 5a bc 79 e8 05 3d
       -0.13906363 0.027611224 -0.013361726 0.032692406
000350 a0 e0 a6 3d 31 dd 44 bc 19 32 83 3c b5 9e b2 3c
       0.081483126 -0.012015627 0.0160151 0.021804193
000360 ac 8b 6f 3e d4 44 ae bc 64 f2 61 3d 8e fa bc bd
       0.23393124 -0.021273054 0.055162802 -0.09227477
000370 fa c9 21 3d 82 90 c2 bc ed 44 7a 3d c0 dc 03 3f
       0.03949926 -0.023750547 0.06110089 0.5150871
000380 dc cf 7f 3d 5e 96 4f be 2e f0 53 3e 1a c9 25 3d
       0.06245409 -0.20272204 0.2069709 0.04047499
000390 ce b3 bf 3d d1 c6 ad 3e e4 86 91 bd e7 3c 0c be
       0.09360467 0.33940747 -0.071058065 -0.13695107
0003a0 7a 71 6f 3d 30 34 0c be 75 d1 f1 bd 43 3c a5 3e
       0.05845783 -0.13691783 -0.11807529 0.3227254
0003b0 56 75 ab 3c 50 99 a4 3d 83 e9 98 bd c8 06 dd be
       0.020929974 0.080370545 -0.07466414 -0.43169236
0003c0 11 8d 51 be cb b4 2f be e8 91 81 be da 1c a3 bc
       -0.20463969 -0.17158811 -0.2530663 -0.019911218
0003d0 e8 ff c4 bd ea 2b 65 bd 76 74 a8 3e 6c 03 74 be
       -0.09619123 -0.055950083 0.32901353 -0.2382943
0003e0 fe 13 99 be 0d d8 2d bd 7c 60 e2 bd 6b 22 6d bd
       -0.29898065 -0.04244237 -0.11053559 -0.05789415
0003f0 54 b3 04 3e 84 b7 40 3e 8b 5b 32 be de 3a 8a bd
       0.12959033 0.18820006 -0.17417733 -0.06749509

model.0.bias f4 [256]
000000 a4 6e 12 3e ad 1d 22 3d 27 30 2e be 1c d9 41 3e
       0.14300019 0.039579082 -0.17010556 0.18930477
000010 2f ec da 3e 6b e2 8b bd b2 62 19 3e 9d 08 e0 3d
       0.4275832 -0.06830295 0.14979056 0.10939143
000020 64 78 60 3e 44 a2 6e 3e 10 af 9e be 6c 48 8f bc
       0.21920925 0.23304087 -0.30992937 -0.017490588
000030 d1 99 3e 3e ff 1a c7 be 30 6c c5 3d 0d 47 ff 3d
       0.18613364 -0.38887784 0.09639776 0.12464724
000040 40 ea b2 bd 89 4d e8 bd 68 13 2d 3e 3f 65 af be
       -0.08736086 -0.11342914 0.16901934 -0.34256932
000050 39 6e 52 bd fc 41 9d be 98 17 4c 3d 94 93 2c be
       -0.051374648 -0.30714405 0.04982719 -0.16853172
000060 0e 85 ac be 52 14 b1 bd 8d 7e 38 be 8d 3d 89 3e
       -0.33695263 -0.08646454 -0.18017025 0.26804772
000070 0b 93 57 be 30 9c 3f bc 51 ad c1 3e d3 c0 83 3e
       -0.21052186 -0.011694953 0.37827542 0.2573305
000080 2b 99 8a be c0 a7 29 be 99 2b 71 be bc 03 bc 3d
       -0.27069983 -0.16567898 -0.23551787 0.091804
000090 77 b1 c9 bd 28 da 7e be 96 dc 00 3d b4 c6 c4 3d
       -0.09848302 -0.24887908 0.031460367 0.09608212
0000a0 08 3f 6b bd 4b d5 3f 3b cd 8f da 3a 8c 21 fd 3d
       -0.05743316 0.002927142 0.0016674936 0.12359914
0000b0 37 ec 96 3d ed d8 43 be 8c c1 e8 bd ef ea e8 3c
       0.07369273 -0.1912572 -0.11365041 0.028432338
0000c0 54 41 91 3e d3 74 81 bd 08 d5 17 3d bb 48 70 3d
       0.28370154 -0.063211106 0.037068397 0.05866311
0000d0 98 9f a6 be ea 27 90 be 6b db 90 3e 82 12 7b be
       -0.32543635 -0.28155452 0.28292403 -0.24518779
0000e0 53 34 8e be d9 c6 12 3d 42 a5 90 be 63 03 4d bd
       -0.27774295 0.035834167 -0.28251082 -0.050052058
0000f0 34 94 81 3d 08 c8 f1 bd 0d 67 d0 3e ba 47 00 be
       0.06327096 -0.11805731 0.40703622 -0.12527362
000100 6f d5 90 bd 7a ce 7a be f1 3b 5a bd 68 41 8e 3e
       -0.07071959 -0.24492827 -0.05327982 0.27784276
000110 c7 45 8d be 33 02 b0 3e e4 e8 2b be af b0 be 3e
       -0.27592298 0.34376678 -0.1678806 0.37244174
000120 29 fb b4 bc b8 91 79 3e e8 40 95 be d8 92 af be
       -0.022092419 0.24371994 -0.29151082 -0.3429172
000130 51 be 85 be 9a 1d f6 bd f7 a3 3e be cf 61 ee 3e
       -0.26121762 -0.12017365 -0.18617235 0.46558997
000140 a8 64 08 3d 23 f9 d9 3e 7f 4e d9 be c1 95 21 be
       0.03329912 0.4257289 -0.424427 -0.15779783
000150 f0 99 89 3d e0 c2 9a bd 5e c9 c1 3e 5a 29 e7 3e
       0.067188144 -0.07556701 0.37848943 0.45148736
000160 d0 08 4d bd 24 cb c5 3d 89 00 a9 3e 9d f9 32 be
       -0.050057232 0.096578866 0.3300822 -0.17478032
000170 27 3e d4 bd 02 7b 08 be 05 32 e7 bd 3b 57 89 be
       -0.10363417 -0.13328174 -0.11288837 -0.26824364
000180 d6 4c 92 be 1d cf ca bd 6f 63 b8 be cf a1 ef 3e
       -0.28574246 -0.09902785 -0.36013362 0.46803138
000190 88 3f d8 3e b3 64 25 be ec e5 24 be 0f 04 99 3e
       0.4223597 -0.16151695 -0.16103333 0.2988591
0001a0 2a 9a 9e 3e 52 6b 2b 3e fa ce 70 3d df a6 0d 3e
       0.30976993 0.16740158 0.05879114 0.13833188
0001b0 95 50 0d bc 1d 7e 08 be 19 64 e5 3c 64 05 99 bd
       -0.008625169 -0.13329358 0.028001832 -0.07471731
0001c0 55 b7 55 be 9e b0 ad bd 93 cf 80 bc 20 be b6 bd
       -0.20870717 -0.08480953 -0.01572398 -0.08922982
0001d0 3a 57 5c 3e 93 cd 90 3e 71 06 20 bd ab 68 1c 3e
       0.2151765 0.2828184 -0.039068643 0.15274303
0001e0 f8 07 cb be 5f 9b b2 3d 04 91 0c be 27 49 1e 3e
       -0.39654517 0.08721041 -0.13727194 0.15457593
0001f0 36 9a d8 bd 15 2c ca be 0c 2e a8 3e 8a d0 9c 3e
       -0.105762884 -0.39486757 0.3284763 0.30627853
000200 bc 35 9e be 73 40 b1 be c1 0c 91 bd 01 24 bf 3e
       -0.3090037 -0.34619483 -0.07082511 0.37332156
000210 69 a1 29 3c 99 21 99 be c5 23 cf 3e 75 49 8c 3e
       0.010353425 -0.29908445 0.40456977 0.27399793
000220 6a a5 01 bd 98 72 45 be f2 5b 47 3e df 98 0a 3e
       -0.03165189 -0.19281995 0.19468668 0.13534878
000230 8b 4f f6 bd d3 bd 88 bd 89 d3 87 3e b0 8b 31 be
       -0.1202689 -0.06676831 0.26528576 -0.17338443
000240 f1 8c a2 3d 3f f0 d0 3e d4 13 11 3e 64 4e af 3d
       0.07937039 0.40808293 0.1416772 0.08559874
000250 9d 9d 14 bf c8 a1 0e be 2f f5 9e 3d 5b b9 20 be
       -0.58053 -0.13928902 0.07761609 -0.15695707
000260 35 9b d7 3e 1b 6c c5 be ef 60 44 be e0 ee 38 3e
       0.421106 -0.3855904 -0.19177602 0.18059874
000270 83 14 e7 3c 8a a2 6f 3e 2b f7 5e bb bc ac d7 3e
       0.028208023 0.23401847 -0.0034021835 0.42123973
000280 e7 2b 4a be 80 6c ec bc 48 66 54 3e 28 f9 c5 3d
       -0.1974331 -0.02886033 0.20742142 0.096666634
000290 ba 6c 8b be 14 f3 e8 3c f1 63 77 bd a4 fc 00 be
       -0.2723139 0.028436221 -0.060398046 -0.12596375
0002a0 26 5f fc bc 48 8c b8 3e 88 4d 7f be 81 d4 8e bd
       -0.030807089 0.36044526 -0.2493192 -0.06974126
0002b0 63 4b 8e 3e de 78 91 be 23 95 c0 3e 3c 17 d6 3d
       0.2779189 -0.28412527 0.37613782 0.1045365
0002c0 66 4e 9a be f3 ba 3f 3e 52 f9 7f bd 04 2c 57 be
       -0.30137938 0.18723659 -0.06249363 -0.21012884
0002d0 8e 7c b1 be a8 2a c2 3e d3 98 8c 3c 28 b7 d0 3d
       -0.3466534 0.3792317 0.017162716 0.10191184
0002e0 f8 2f a0 bd 0a 5d e8 bb fd 47 5b be 3e 21 c0 be
       -0.07821649 -0.0070911692 -0.2141418 -0.37525362
0002f0 c3 14 d8 bc 17 f6 0c 3e 2a 23 6c be 1d 46 c9 3e
       -0.026377087 0.13765751 -0.23060289 0.39311305
000300 6f 0a 8e 3e d0 ed c9 bd 8e 93 07 be d7 88 83 be
       0.27742335 -0.09859812 -0.13239881 -0.25690338
000310 a7 89 c7 3e 96 17 38 be 78 3e b7 3e 2a 27 fc 3c
       0.38972208 -0.17977747 0.35789847 0.030780394
000320 bb ef 92 be 95 68 22 be e8 ee bd 3d 34 86 fc 3c
       -0.28698525 -0.15860207 0.092740834 0.030825712
000330 f4 f5 bc 3c 52 31 f6 3c 8b 7b 83 bc 34 b4 66 be
       0.023066498 0.030052815 -0.01605012 -0.2252968
000340 1f 8c c6 bc 41 5a 60 be 75 0c 0f 3d ae a2 ce 3d
       -0.024236737 -0.21909429 0.03492399 0.100896224
000350 77 6a d0 3d 43 a5 50 3e 3d c9 db bd e4 2c 19 be
       0.101765566 0.20375542 -0.107317425 -0.1495853
000360 4d 2f 82 3e 07 45 6f 3e 5c 84 a8 bd 72 ad 7b 3e
       0.25426713 0.23366176 -0.082283705 0.24577883
000370 e3 82 48 bd 4e 8c 08 be 3d f7 bd 3c 60 0f 74 be
       -0.04895295 -0.13334772 0.023189181 -0.2383399
000380 11 6e 81 be cc e0 9e be 79 7a 47 3e 05 12 58 be
       -0.25279287 -0.3103088 0.19480313 -0.21100624
000390 28 50 74 3d fb 27 3e 3e b9 2e 5a 3e 31 fa af bd
       0.059646755 0.18569939 0.21306886 -0.08592642
0003a0 f2 d1 f1 3c 27 b0 23 3e 7c 34 91 3e 29 1f 81 3c
       0.029519055 0.15985166 0.28360355 0.015761929
0003b0 f4 6b 79 3c 86 b8 22 be 61 6a d9 3e 44 75 54 3e
       0.015223492 -0.15890703 0.42463973 0.20747858
0003c0 68 6a 93 be 0d ec a0 3d f1 06 19 bd 99 9b 7e bd
       -0.2879212 0.07857523 -0.037360135 -0.06216011
0003d0 32 c8 0b be f0 9c ab be 3e 52 6c 3e d8 41 1b 3d
       -0.13650587 -0.3351817 0.23078248 0.03790459
0003e0 d9 70 8e be 3f 46 71 be fc 1c 66 3e 82 3d 90 3d
       -0.2782047 -0.23561953 0.22471994 0.07042982
0003f0 4d dd 66 be 17 5b b1 be 44 6b f1 3d 64 46 56 3e
       -0.22545357 -0.3463981 0.117880374 0.2092529

model.2.weight f4 [128, 256]
000000 99 fd d4 3c cd 5c d1 3c 9e 56 d9 3c c4 78 04 bd
       0.025999831 0.025556946 0.02653056 -0.032341734
000010 5b 93 88 3c aa 28 98 bd 25 2c dd bd 89 ee 4a 3d
       0.016671827 -0.07429631 -0.107994355 0.04954389
000020 e6 16 49 bc 8c 21 08 bd c8 14 b5 3e 06 fe b1 bd
       -0.012273526 -0.033235118 0.35367417 -0.08691029
000030 d2 09 81 3e c2 83 6e 3d 67 25 c9 3d f3 12 36 3c
       0.25202805 0.058231123 0.09821587 0.011112916
000040 ec c3 36 3c 0a 07 f0 bb 5a 51 e0 bd 52 ac 19 3e
       0.01115511 -0.007325058 -0.109530166 0.15007141
000050 de fd d2 bd 19 9d a1 3d 83 cd 06 3b 50 e9 ef 3d
       -0.103023276 0.07891292 0.0020569272 0.11714423
000060 c9 a2 64 3e 68 89 cd 3d f2 03 f5 bc 3c 0f 0f 3e
       0.22327723 0.10035974 -0.029909108 0.13970655
000070 e7 67 48 bb a4 62 25 3d 46 b4 0e 3e c1 c7 00 be
       -0.0030579509 0.040377274 0.13935956 -0.125762
000080 a8 dc f3 bd 1c 93 bb bc 95 0f 18 3e 01 61 a6 bb
       -0.11907321 -0.022897296 0.14849694 -0.0050774817
000090 40 ba 8b 3b 3b e1 c2 3d e0 66 3e bd 18 3f 59 3e
       0.004264146 0.095156156 -0.046484828 0.21215475
0000a0 49 e2 c5 3d 11 6c 22 be a9 6c 0e bc e6 a8 e5 3d
       0.09662301 -0.15861537 -0.008692899 0.112138554
0000b0 20 e9 98 bd eb 0e a9 bc 5e ff 1c bd 93 79 cd bc
       -0.0746634 -0.020636996 -0.038329475 -0.025082385
0000c0 27 4f 13 3e 83 f0 39 3d af c0 97 3d ed ca 45 3d
       0.14385663 0.045395385 0.07409798 0.04828923
0000d0 99 44 8f bb 03 09 5b bd 39 6b 28 3e 81 04 06 be
       -0.004372191 -0.05347539 0.16447152 -0.13087656
0000e0 2b a1 39 3d 38 9e 1a 3d 3b 2a 25 bd d2 f7 f2 bd
       0.045319717 0.037748545 -0.040323477 -0.11863674
0000f0 c0 24 02 bc 7a f0 bb 3c c8 18 39 3e 17 e7 2e 3c
       -0.007943332 0.022941817 0.1807586 0.010675213
000100 35 77 69 3d 77 8f 17 bd 08 63 02 bd 6d 1d 18 3e
       0.05699845 -0.037002053 -0.031832725 0.14854975
000110 7a a2 b8 bd 74 f1 03 3e 05 d7 0a be 02 86 74 3e
       -0.09015365 0.12885076 -0.13558586 0.23879245
000120 3e f6 cf bd 7d 64 2b 3e 2c 4c 6e 3e bb 6b 2d bb
       -0.10154389 0.16737552 0.23271245 -0.0026461917
000130 88 df 73 3e 3d b8 f9 3d fc 9f 4d 3e 3d 37 01 3e
       0.23815739 0.12193344 0.2008056 0.12618728
000140 2b 3d 2c 3d 35 4f 74 3e bd 80 84 3e 3e 82 93 3d
       0.04205052 0.2385834 0.2587947 0.07202576
000150 27 10 8b bc a8 17 71 be cd 7c 46 3d b8 cf be 3d
       -0.016975475 -0.2354418 0.048458863 0.09316963
000160 5c 79 30 3e 11 22 14 bd 47 2f a1 3d 46 74 51 bd
       0.17233795 -0.0361653 0.078703456 -0.051136278
000170 37 3f d4 3d e4 d8 78 3b 86 de 4e 3e 42 e8 58 3a
       0.1036362 0.0037971074 0.20202073 0.0008274355
000180 1a f6 87 3d df aa c7 bd 1e f3 16 3e 31 b8 5c 3e
       0.06638737 -0.09749388 0.1474118 0.21554638
000190 a8 bc 84 3e 7b 2a af 3c b5 a2 fa bd 1b 96 4a 3e
       0.25925183 0.021382561 -0.12238065 0.19783823
0001a0 94 cc 54 3e e1 00 a9 3d c3 56 00 3e 86 bb ac 3d
       0.20781165 0.08252121 0.12533097 0.08434205
0001b0 39 a1 97 3d 54 73 18 bd e4 ff 53 3c 4d a2 14 3d
       0.07403798 -0.03721936 0.012939427 0.036287595
0001c0 5a 46 fb 3b 24 7e 1c bd eb ed 75 be 06 c9 a2 bc
       0.0076682987 -0.038206235 -0.2401654 -0.019871246
0001d0 e3 ea 13 bd f5 c1 26 3e cb 15 22 3e b8 8e 85 3c
       -0.036112677 0.16284926 0.15828626 0.016303405
0001e0 1c 29 05 3d c3 34 dc 3c 3d af f7 bd 7f 85 37 3e
       0.032509908 0.026880627 -0.12093971 0.17922018
0001f0 da 43 bd 3d 3d 7f c2 bd d2 57 17 3e e5 26 85 3d
       0.09241457 -0.09496925 0.14779595 0.06501559
000200 85 95 e8 3d 4c 6d 5b 3b e3 76 8e 3d 52 03 5d 3e
       0.113566436 0.0033481894 0.069562696 0.21583298
000210 e2 c3 b2 3d 5e 9e 5e 3c a4 e0 10 3e fd a8 6a 3e
       0.08728768 0.013587562 0.14148194 0.22916026
000220 fa a9 ea 3c 5e 4a 05 bd 0b a3 13 3e b3 69 f5 3e
       0.028645504 -0.032541625 0.14417665 0.47932205
000230 f0 15 ca bd 44 73 3c bd b1 55 91 3d 06 e6 5e 3d
       -0.098674655 -0.046008363 0.070964225 0.054418586
000240 51 04 09 be 63 f0 78 3d 16 80 c9 3b ad 25 93 3d
       -0.13380553 0.060776126 0.0061493022 0.071849205
000250 8b e5 99 bd b2 29 5b bc 50 57 15 3e f6 18 b0 bd
       -0.07514485 -0.01337664 0.14584088 -0.08598511
000260 f6 39 44 3e 0c 98 05 3c 42 9c 90 3c 1a f7 f9 3d
       0.19162735 0.008153927 0.017652635 0.12205334
000270 f3 05 16 bd ab d8 e6 3d 91 de 95 3d 88 83 bc 3d
       -0.036626767 0.11271795 0.07317842 0.09204775
000280 a1 1c b9 3b c2 1f 63 3d 08 31 20 3d 38 a7 be bd
       0.005649165 0.05545021 0.03910926 -0.09309238
000290 af f1 e8 bc be 0f ad 3d 94 cd e8 3d a5 ba d6 3d
       -0.028435556 0.08450268 0.11367336 0.10484818
0002a0 31 35 1e 3c 04 f6 e6 3d 72 16 7e 3e 1b 13 1c bd
       0.0096562365 0.112773925 0.2481325 -0.038104158
0002b0 ea 19 aa bb 15 80 be bb 64 b5 64 3e ef 5d 98 3d
       -0.0051910775 -0.0058136084 0.2233482 0.074397914
0002c0 d7 6a 29 3a 82 e8 1f 3d a8 db 07 bd 37 f4 8b be
       0.0006462759 0.039040096 -0.033168465 -0.2733476
0002d0 9f 47 82 3d 0e 44 6c 3e b0 c1 2a be 08 60 1e bd
       0.06361317 0.23072836 -0.16675448 -0.0386658
0002e0 f3 15 48 bd a2 0b 57 bd 8a 69 17 bd 57 ef 01 3d
       -0.048849057 -0.05250133 -0.036965884 0.031722393
0002f0 35 43 be 3d 02 01 68 bc 59 c1 8c bd 4a 01 c6 3c
       0.092901625 -0.0141603965 -0.06872816 0.024170537
000300 d7 f1 79 be 22 68 53 3e ce 4d 0a bd 7e 19 92 3c
       -0.24408661 0.20645192 -0.033765607 0.017834421
000310 07 3d 85 3d 80 42 27 be 6c cd fb 3d 06 68 25 be
       0.06505781 -0.16333961 0.122950405 -0.16152963
000320 55 0e 6b 3e ba 25 d8 3d a7 01 db 3d 89 ed 25 bf
       0.22954686 0.10554071 0.106936745 -0.64815575
000330 ee f9 36 bb e1 f5 bc 3d 4b 62 b9 3d 85 83 8e bd
       -0.0027919966 0.09226585 0.09051951 -0.06958679
000340 03 4b 91 bc c6 4b 66 3d 26 17 97 3e 38 a5 35 bb
       -0.017735964 0.056224607 0.29509848 -0.0027716886
000350 6c d6 b1 bc 7d 4e 37 3d 72 55 fb 3c 0d 12 ee bd
       -0.02170869 0.044752587 0.030680392 -0.11624537
000360 19 c2 18 be 3f 05 a2 3d e2 0f 3b 3d 90 b7 96 be
       -0.14917792 0.07911157 0.045669444 -0.29436922
000370 2e 34 f2 bd 19 63 ac 3d a1 62 18 3d 61 1e 24 be
       -0.11826359 0.08417339 0.037203435 -0.16027214
000380 13 87 2a 3e 57 cd 32 bd 45 10 9d 3d 7a 93 50 bd
       0.16653089 -0.04365286 0.07669119 -0.050921895
000390 d1 f0 fb bc 05 b9 cf 3d ab 98 0a 3e 3b 32 bf 3d
       -0.030754479 0.101427115 0.135348 0.093357526
0003a0 40 c7 38 3c 01 dd f8 bd 98 fa c7 bc 4f a1 f4 bc
       0.011277974 -0.12151528 -0.024411485 -0.029862074
0003b0 b3 d3 04 be 08 ee 12 bd f3 86 6a 3e 1d 0a fc be
       -0.12971382 -0.035871536 0.22903042 -0.49226466
0003c0 7f ed 89 3b b1 24 d5 3d 2d 71 48 3d 42 19 be bd
       0.00420922 0.10407389 0.048936058 -0.09282161
0003d0 ee fa be 3d e6 8d 0e be ce 52 f9 3c f2 b8 ee 3d
       0.09325205 -0.13921317 0.030434992 0.11656369
0003e0 a6 ce 5d 3e 85 9f 30 3d 65 fb 01 3e 5b 1e 84 bc
       0.21660861 0.04312088 0.12693556 -0.016127756
0003f0 a3 d4 3c 3c 09 9b 58 bd 46 cb 89 3c 0e e8 a6 bd
       0.011525306 -0.052882228 0.016820561 -0.0814973

model.2.bias f4 [128]
000000 c5 f4 a6 3e 5b f6 bf bc c0 b0 04 bd 7b e1 87 bd
       0.3260862 -0.023432901 -0.032395124 -0.06634804
000010 55 ed b0 bd 15 f0 13 3e 7d 5b a3 bd 51 61 b2 3d
       -0.086390175 0.14447053 -0.079764344 0.08709968
000020 4c c3 64 bd 27 9d d2 bc 08 09 7e bd 6a 0e 49 be
       -0.055850312 -0.025709702 -0.06202033 -0.19634405
000030 93 74 3c bd c1 46 b5 3a f4 0a 53 bd 7a e0 70 bc
       -0.04600961 0.001383029 -0.051524118 -0.014701957
000040 10 fb 14 bc 1d e1 78 3e b8 62 b3 bd ed 68 33 bd
       -0.009093061 0.24304624 -0.087590635 -0.043801237
000050 54 14 d9 3c 5e bd a4 3e ef fd a7 3b 9b a3 ac 3e
       0.026498951 0.32175726 0.005126707 0.3371857
000060 68 9a f2 3d 0f 5e 83 3e 27 fc d8 bd d6 6b 3d bd
       0.11845857 0.256577 -0.10594969 -0.04624542
000070 b7 7c 85 bc 9a 8c cd bc 09 5c d4 3d 84 cd 84 bd
       -0.01629482 -0.025091458 0.10369117 -0.064845115
000080 96 49 9f 3e 66 ea ac bc 78 a7 81 3c ff 90 88 bd
       0.3111083 -0.021107864 0.015826926 -0.06668281
000090 a3 79 86 3b 0d ab 46 3d 69 d1 6f bc f6 7d 59 bd
       0.0041038557 0.04850297 -0.01463733 -0.05309864
0000a0 2f 37 6c 3e 46 99 aa 3c 26 22 c5 3d e3 14 6a bd
       0.23067926 0.02082504 0.09625654 -0.057148825
0000b0 fd b3 a9 bd 14 27 3b be 55 f6 2d 3c 2f 00 6c 3e
       -0.08286283 -0.18276626 0.010617812 0.23046945
0000c0 32 4c 13 be 9e 63 b7 3e 19 16 48 3c 0e 40 b5 bc
       -0.14384535 0.3581819 0.0122123 -0.02212527
0000d0 d3 af aa bc 98 44 96 bc 10 4d fc bd 06 a6 12 3d
       -0.020835793 -0.018343255 -0.12319386 0.035802864
0000e0 5d 47 2b bd e9 23 4a 3e 64 da 8c 3e 28 30 03 bd
       -0.041816104 0.19740261 0.2751037 -0.032028347
0000f0 ef 68 65 bd 34 38 bb 3e 27 a6 57 be 03 58 58 3e
       -0.056008276 0.36566317 -0.21059476 0.21127324
000100 d9 0d 06 3d 45 6c b4 bc fa da a4 3e 36 69 89 bd
       0.03272805 -0.022024283 0.32198316 -0.067095205
000110 cd a3 51 3e 46 8d 8b 3e 1c 10 f9 bd 45 9c 27 3e
       0.20472641 0.2725622 -0.12161276 0.16368206
000120 27 a2 9b bd d0 ce e4 3d a1 18 b4 3e 8b d1 d5 3c
       -0.075992875 0.11172259 0.3517504 0.026100894
000130 d6 71 d3 bc dd c6 b5 bd 5a c6 3a 3e 3c 85 f0 bc
       -0.025811117 -0.08875821 0.18239728 -0.029360406
000140 77 ca 70 3b b4 b5 15 3d e0 57 89 bc c0 1d 1a 3e
       0.0036741772 0.03655024 -0.016765535 0.15050411
000150 44 d5 90 bd 91 06 14 3d 96 6e 52 3e ec a3 70 bd
       -0.07071927 0.036139075 0.20549998 -0.058750078
000160 cf 4b 78 3e a3 25 fd 3d b4 50 b5 3e 33 ed da bc
       0.24247669 0.12360694 0.35413134 -0.026724434
000170 5b 57 95 bd 01 9d d9 bb fc bc 42 3c b2 ad 80 bd
       -0.07292052 -0.006641031 0.011885878 -0.0628313
000180 70 b2 97 3e 42 b4 44 3c 6a 31 99 3d 0c 9b e3 3c
       0.29628325 0.012005867 0.07480128 0.027783893
000190 a4 14 28 bd b8 60 70 3e c2 ca 73 3e 73 cb 67 3e
       -0.04103531 0.23474395 0.23807815 0.22636203
0001a0 bd e2 d2 bd f9 38 6e be 74 8a 58 bd 9f f2 ef bd
       -0.10297153 -0.23263921 -0.052866414 -0.11716198
0001b0 86 a3 48 3e 78 31 cb 3e 0b aa 50 3d 65 1f 5d bd
       0.19593629 0.3968618 0.050943416 -0.05398502
0001c0 a3 6f a8 3c 38 30 02 3d 73 1f a4 3e ec 00 8f 3d
       0.020561045 0.031784266 0.32055244 0.06982598
0001d0 b3 c4 d9 bd 00 5b 45 3e d7 0d b4 3e b1 3f 1e 3e
       -0.106332205 0.19272995 0.3516681 0.15453984
0001e0 b5 cd 71 3e 5c 75 b4 3e 93 42 12 bd 5e 07 91 bd
       0.23613627 0.35245788 -0.03570802 -0.07081483
0001f0 e6 04 1b bd dc 45 d0 bc 4c 23 a8 3d 93 c1 18 bc
       -0.03784647 -0.025423937 0.08209857 -0.009323495

model.4.weight f4 [64, 128]
000000 8c f9 34 3d 4a 77 a9 3d 7e 5f d7 3d 6b c6 ba bd
       0.0441833 0.08274706 0.105162606 -0.091198765
000010 b3 fd fc bd 74 67 35 bd af a9 03 3d 72 d9 05 3e
       -0.12353077 -0.044288114 0.032144245 0.1307123
000020 1d 3a d3 bc 8b c3 6e bc 77 e9 a5 bc 91 9a 2c be
       -0.025784547 -0.014572988 -0.020252926 -0.16855837
000030 cc 40 c1 bc 44 4f 46 bd 3d 0f 43 3e 0b 1a be 3d
       -0.023590468 -0.048415437 0.19048782 0.09282311
000040 94 67 aa 3c 23 5c 6c 3d 6b 9d 0b bd 22 87 46 bd
       0.020801343 0.057705056 -0.034085672 -0.048468716
000050 d0 9f 04 3c f0 a1 46 be ac dd d1 3d ea 45 ee 3d
       0.008094743 -0.19397712 0.10247359 0.11634429
000060 11 ba 20 3e 00 0b ea be 65 10 f3 3d c1 d5 09 bd
       0.15695979 -0.45711517 0.118683614 -0.033651117
000070 1d 58 ef 3c 82 95 56 3d ce 82 a4 bd 89 47 4e 3d
       0.02921682 0.052388676 -0.080327615 0.05036119
000080 04 65 4e 3c 41 46 e6 bc bf 2d 7f 3e 56 ae 28 3d
       0.012597326 -0.028109672 0.24919794 0.041181885
000090 88 08 72 bc 50 95 32 3e a2 b6 b7 3b c5 48 0b 3d
       -0.014772542 0.1743977 0.0056064883 0.034004945
0000a0 78 1c 87 3d d5 fa 94 bd c5 37 0d be 21 3f 99 bc
       0.06597227 -0.07274405 -0.13790806 -0.01870686
0000b0 df 59 02 3c 39 b0 c0 bb 85 90 27 bc f8 cc 21 3d
       0.007955997 -0.0058803824 -0.010227327 0.039502114
0000c0 d6 3f 61 be d6 37 7a be d7 98 26 bd 0c c1 ea b9
       -0.21997008 -0.24435362 -0.040673103 -0.0004477579
0000d0 12 b1 a1 3c 3e cf 7f 3d 76 02 88 3d 37 41 05 bd
       0.019737754 0.0624535 0.066410944 -0.032532897
0000e0 05 7c c4 bc 4d 40 b5 3c 2f ff 14 bd 87 04 9d bc
       -0.023984918 0.022125388 -0.036376175 -0.019167198
0000f0 3e 32 85 3d 27 98 9f bc f3 c2 04 3f a4 3a e4 3d
       0.065037236 -0.019481732 0.5185997 0.11143997
000100 9f f5 84 bd c3 5b ba 3d 40 3b b6 3d f8 70 97 bb
       -0.06492161 0.090995334 0.0889802 -0.004621621
000110 1c ff 9f bd f2 54 5e 3e f7 56 35 bd 2c 46 e0 3e
       -0.0781233 0.21712092 -0.04427239 0.43803537
000120 05 82 11 3d 36 ff 06 be 6c 3f 5d bb cc 26 db 3d
       0.035524387 -0.13183293 -0.0033759726 0.10700759
000130 57 a1 87 bd 65 14 a1 3c 13 00 b3 3e bc 15 f6 3d
       -0.0662257 0.019663045 0.34960994 0.12015864
000140 54 c5 76 3c fd 9b a2 bd bd ec 66 3d 8d 0e 5f 3e
       0.015061695 -0.07939909 0.056378115 0.21782894
000150 b8 ee b4 3d 1a 40 f7 3c 82 15 bc 3d 23 b8 a7 3d
       0.088345945 0.030181933 0.0918379 0.08189418
000160 9a 82 19 3e ec a8 95 3d ae b8 39 be e4 68 1d bd
       0.14991227 0.0730761 -0.18136856 -0.03843011
000170 83 cc cc 3d e8 f3 b1 3d a8 9a 82 3e a4 d0 12 be
       0.09999945 0.086890996 0.25508618 -0.14337403
000180 7f 4c 57 be 64 8e 95 3d ed 03 10 be c4 52 25 bd
       -0.21025275 0.073025495 -0.14063998 -0.040362135
000190 70 02 1d bd f3 0b 17 3d d0 20 49 3d 29 9e 30 3e
       -0.038332403 0.03687663 0.049103558 0.17247833
0001a0 85 9b 09 bc ed ae 80 be 48 c0 26 bd d6 81 12 bb
       -0.008398895 -0.25133458 -0.040710717 -0.002235522
0001b0 32 d5 28 3e a8 d8 42 3d 33 31 19 3c f8 69 b8 3c
       0.16487578 0.0475699 0.009350109 0.022511467
0001c0 3a e2 00 3e 32 1c 1f 3e 78 2f af 3d 6d dd 29 be
       0.12586299 0.155381 0.08553976 -0.16588373
0001d0 b7 30 a5 3b 91 03 fd 3c 7e f4 c2 bd bc 1b 17 3e
       0.0050412077 0.03088549 -0.095192894 0.14756674
0001e0 23 46 f8 3c be 47 91 3e 7d ba 00 3d ea 9b 2f bd
       0.030306881 0.28375047 0.03142785 -0.0428733
0001f0 dd 3b ca bc 94 99 f7 bc 7d b5 74 be 41 80 79 bd
       -0.024686748 -0.030224599 -0.23897357 -0.060913328
000200 92 1a 6b 3c 52 46 64 3d f1 6a 40 3c 1d 1b 7b bc
       0.014349597 0.055731125 0.011744247 -0.0153262885
000210 e1 39 9a bc 9c 10 ca 3d e8 a8 e1 bb ed 59 00 3c
       -0.018826427 0.09866449 -0.0068865903 0.00783394
000220 66 2e 61 3d c8 29 06 bd 8f 4b 87 bd 43 ec 77 3d
       0.05497589 -0.03275469 -0.066062085 0.06052805
000230 23 f4 33 3d 34 25 aa 3c c4 57 c2 bd c6 35 41 3d
       0.043934 0.020769693 -0.09489396 0.047170423
000240 09 57 a3 bc bb 28 b5 bd 7a db 7b bd 1a 6b 8d 3d
       -0.019938963 -0.08845659 -0.061488606 0.069051936
000250 44 66 a8 bd f0 c9 ab bd bf 3c 88 3d 43 35 67 3d
       -0.082226306 -0.08388126 0.066522114 0.05644728
000260 6e 95 9a 3c a9 5a 6f bd a3 7f c5 bd 60 91 da bb
       0.018870082 -0.05843607 -0.096434854 -0.006670162
000270 79 47 e1 bb da 06 41 bd 1c 80 34 bd 5e 85 3a 3d
       -0.0068749753 -0.047125675 -0.044067487 0.045537345
000280 6a 98 8d bd 4e 02 4d bd 05 0f 00 bd a6 e6 b2 bd
       -0.06913836 -0.050051026 -0.031264324 -0.08735399
000290 fb 76 7b 3d f4 7f 1f bc b0 54 9d 3c fb b9 0e 3d
       0.061392765 -0.009735096 0.019205421 0.034845334
0002a0 a0 56 9a 3c 10 af 12 3d a9 e8 a6 bc 15 d3 9c 3d
       0.018840134 0.035811484 -0.020374613 0.07657448
0002b0 40 07 09 bc 64 c0 9c bd c1 b9 03 3d 8a 46 86 3d
       -0.008363545 -0.07653883 0.03215957 0.06556423
0002c0 2e ec 01 bd 10 5b 90 bc ea 00 54 3c f9 1d 9a 3d
       -0.03171938 -0.017621547 0.012939671 0.07525248
0002d0 80 05 a8 bd 7e cc 23 bd be ec 57 bd ae 17 93 bd
       -0.08204174 -0.03998994 -0.05271601 -0.07182251
0002e0 1f dd 7a bd 78 71 3c bc 35 6d b5 bd 12 4b 9f bd
       -0.061246034 -0.011501662 -0.0885872 -0.077779904
0002f0 34 b6 59 bd d5 ce 9d 3d 40 f5 3d 3d 77 64 ac bc
       -0.053152278 0.07705466 0.046376467 -0.021044
000300 a2 8d b2 bb 1a 2c 8a bd e7 53 1a bd 20 37 90 3c
       -0.005449013 -0.06746693 -0.03767767 0.01760441
000310 91 1c 2e bd 1d c7 c6 bd 9c 3e 99 bc b9 1d 9f bd
       -0.04250771 -0.097059466 -0.018706612 -0.07769341
000320 e0 a2 27 bb 24 2a e9 3c dc 40 70 bc aa 23 d7 3a
       -0.0025579259 0.028462477 -0.014663901 0.0016413827
000330 42 0a 83 bd 36 4a 5d 3d 4c 72 3b bd 13 61 80 3c
       -0.06398441 0.05402585 -0.0457633 0.015671289
000340 06 23 18 3d b1 5e ed 3c 35 a1 25 3d 86 a7 6e 3c
       0.037142776 0.028975816 0.040436942 0.014566308
000350 e0 4f 3a bd f2 c0 66 3d 15 87 ab bd 83 a8 80 3d
       -0.04548633 0.05633635 -0.08375374 0.06282141
000360 4e 21 98 bc f3 a6 92 bd 56 f8 13 bd 68 fd f1 bc
       -0.018570568 -0.07160749 -0.036125503 -0.029539779
000370 3a 60 54 bd ee ca 39 3d 38 ae 13 bd ef b7 61 3d
       -0.05184958 0.045359544 -0.03605482 0.055107053
000380 30 d7 86 bd 0e 95 40 3d 31 ef ad bd ea 4d 97 3c
       -0.065840125 0.04701715 -0.08492888 0.01846977
000390 ac e1 ba bd 7c 8a 88 bd b8 ea a8 bd 3c ef 71 3b
       -0.09125075 -0.06667039 -0.08247894 0.0036916276
0003a0 ad 76 87 3d 30 d1 ba bc 22 47 71 3d 45 86 65 3d
       0.066144325 -0.022804826 0.05890573 0.056036253
0003b0 66 d0 b8 bd c0 22 1e bd 51 1a cd bd 91 8c bc bc
       -0.09024124 -0.03860736 -0.10014785 -0.023016246
0003c0 67 00 a1 bd b7 38 06 3c 60 61 a1 3c 7c 1a 3e bd
       -0.07861405 0.008192233 0.019699752 -0.046411976
0003d0 b0 cc 66 bc 80 50 ca bd 98 66 90 3b 5e a5 f0 bc
       -0.014086887 -0.098786354 0.0044067614 -0.029375728
0003e0 dc 0f 74 3d a8 48 55 bd d7 54 48 bd 18 2c 2f bd
       0.059585437 -0.052071244 -0.048909035 -0.04276666
0003f0 f6 ec 35 3d 54 d1 c8 bc 01 b8 80 3b 2e 6f 5b 3d
       0.044415437 -0.024513878 0.003928185 0.053572826

model.4.bias f4 [64]
000000 77 c5 80 3e aa a6 c4 bb 38 50 c8 3d 31 39 e9 3d
       0.25150654 -0.006001313 0.097809255 0.113878615
000010 25 8b f1 3e d0 ac f7 3d be 16 9e 3d 54 c4 8a bc
       0.4717647 0.12093508 0.077191815 -0.01693932
000020 ab 43 37 3e 75 fc 96 3b 17 02 86 3e 7c 4a 9f bd
       0.17896907 0.004607732 0.2617347 -0.07777879
000030 6a 86 e5 3e 25 76 b1 bd 8d f8 6a 3e 5c c6 d1 bc
       0.44829112 -0.086651124 0.22946377 -0.02560728
000040 20 8f fc 3c cb 93 f1 3e d3 34 dc bd 1d 8e eb bb
       0.030829966 0.4718307 -0.10752263 -0.007188572
000050 62 5a cb 3d b0 34 4a be ee 79 70 3e 1d 18 6d 3b
       0.099293485 -0.19746661 0.23484012 0.0036177703
000060 d5 24 7f 3c 3c 90 26 3d 14 e6 a9 3d 0e ec 09 3f
       0.015572746 0.040664896 0.08295837 0.53875816
000070 99 5f d3 bd 85 a8 6a bc 89 72 9e bc 71 15 d0 bc
       -0.10320968 -0.014322405 -0.019341724 -0.025400849
000080 03 e2 8a 3e 77 00 fe bd 6a 3b 84 bd 24 c1 cd 3d
       0.27125558 -0.124024324 -0.06456645 0.10046604
000090 2c 08 3b 3c d1 0b 67 3d 54 0e 9d bd 92 c6 76 3d
       0.011415523 0.056407753 -0.076687485 0.060247965
0000a0 b8 79 f5 3d d8 82 c8 3e 7e e4 b8 bd 73 e2 97 3e
       0.11986107 0.39162326 -0.090279564 0.29664955
0000b0 50 d1 bd bd a2 0d b6 3e 65 a3 f9 bd 82 f1 0e bc
       -0.09268439 0.35557276 -0.12189368 -0.008724572
0000c0 20 af 80 bd fc 3f c2 bd 9e f9 01 3d 5b 6d d1 3e
       -0.062834024 -0.0948486 0.031732194 0.40903744
0000d0 cc 30 de 3c 17 2f 80 3e 60 16 5b 3e 6f b2 50 3d
       0.027122878 0.25035927 0.21395254 0.050951418
0000e0 81 d6 c2 3d a4 55 8f bd d1 4e b3 bd 6a 9d 2d 3e
       0.095135696 -0.069987565 -0.087552674 0.1695458
0000f0 7e 70 02 bd cf 0d 02 be 4b 48 20 bd cb 92 e7 3b
       -0.031845562 -0.1270058 -0.039131444 0.0070670596

model.6.weight f4 [32, 64]
000000 21 ad 08 3d c8 a2 5d bd 24 04 76 3c 8b cc ea bd
       0.033368234 -0.05411032 0.015015636 -0.11464795
000010 2d 7a 20 be 23 b8 7a 3d 27 8a 7b 3d fb c2 c3 3d
       -0.15671606 0.061210763 0.06141105 0.09558674
000020 bc d3 18 3d 59 59 f9 bb f2 e5 67 b9 4c ea 49 bd
       0.0373113 -0.007609528 -0.00022115538 -0.04929571
000030 56 20 9e bd e4 7c a3 bd 58 a6 58 bd e2 ca b9 bd
       -0.07721011 -0.07982805 -0.052893013 -0.090719
000040 4f da 91 bd 53 4d 19 be 80 a0 2d bb ad 9d 90 3d
       -0.07121717 -0.14970903 -0.002649337 0.07061324
000050 a8 1d f5 bd a2 d0 84 3d 7c dc 9c 3d 93 8f 66 3d
       -0.11968547 0.06485106 0.076592416 0.056289267
000060 fc 68 f9 bd 10 94 10 be 37 0d ed bc 6a 9c 2f 3d
       -0.12178227 -0.14118981 -0.028936965 0.042873777
000070 de f2 7b 3d 1d 2c b5 bd 59 57 fa bd 99 bf 84 3d
       0.061510913 -0.088463046 -0.122236915 0.06481857
000080 bd ef a1 3d 08 e0 2e 3d 1f c5 61 3d d7 5f e9 bd
       0.079070546 0.04269412 0.05511963 -0.11395233
000090 cd e2 2b bc 4d 67 69 bd db 2d 03 be e9 3b e5 bd
       -0.010491085 -0.05698328 -0.12810461 -0.111930676
0000a0 c3 c3 4c 3d 74 7c 3d bd e0 c4 eb 3b 2b e5 20 be
       0.04999138 -0.046261266 0.0071951 -0.1571242
0000b0 28 18 8f 3c f9 00 03 bd 9b d1 ca bd 35 cb c2 3b
       0.017467573 -0.03198335 -0.0990326 0.0059446343
0000c0 90 c9 be bd d9 3d c2 bd ba db 2f 3d ea e3 a8 bd
       -0.09315789 -0.09484453 0.042934157 -0.08246596
0000d0 58 1f 0d be 12 be 3f bd 72 90 07 be 8b 59 cf 3c
       -0.13781488 -0.046812125 -0.13238695 0.025311252
0000e0 2d 9c a4 bd cc 05 f8 bd 46 12 61 bd 3e d1 45 3d
       -0.08037601 -0.12110481 -0.054949068 0.048295252
0000f0 bd a8 0c bd 24 cf 9d bd f4 cf c5 3d 47 a0 be 3d
       -0.03434061 -0.077055246 0.096588045 0.09307914
000100 d2 71 21 3d aa a7 e1 bd 1d cd 77 be d7 4b 37 3e
       0.039415188 -0.110183075 -0.24199338 0.17900024
000110 29 49 ad 3e 90 2c d1 bd fa 2c 0e bd 30 11 d0 3d
       0.3384488 -0.10213578 -0.03471086 0.10159528
000120 bc 76 1c be 25 7f f9 bd 8f ee ac 3d a6 1e 05 be
       -0.15279669 -0.12182454 0.08443939 -0.12999973
000130 dc c2 c3 3e a7 cc 81 3d 1a 88 f0 bd 83 5a 42 3e
       0.38234603 0.063378625 -0.11744709 0.1897984
000140 21 f2 06 bd 5c fc 88 3e e6 f9 f3 3d 88 52 ec 3d
       -0.032945756 0.26755035 0.11912899 0.11539179
000150 df cb 58 3d 70 de a7 bd 26 28 e7 bd b3 4d a9 3c
       0.0529288 -0.081967235 -0.112869546 0.020666933
000160 8f 48 be 3e 2a 2d 9f 3e e1 ad 45 3b 2f c5 cb 3e
       0.37164733 0.31089145 0.0030163454 0.39798877
000170 1f 21 93 bd cc 1d c5 3b 6a f1 2e be a6 37 9f bd
       -0.07184052 0.006015515 -0.1708428 -0.07774286
000180 74 9a 44 3e 2f 1a b0 bd 64 3a 27 bd 96 2b 05 bd
       0.19199544 -0.08598744 -0.04082717 -0.03251227
000190 da a4 0c 3e 01 99 7a 3d 6d 5a b8 3c 5a 15 17 bc
       0.13734761 0.061181072 0.022504056 -0.009221399
0001a0 6f 1f 86 3d 4d 15 c5 3e f8 34 5e 3d 01 b7 a1 3e
       0.06548964 0.38492814 0.054249734 0.31584933
0001b0 f4 9a 18 be d3 ed 48 3e f5 af 0e 3d 89 10 3d 3e
       -0.1490286 0.19621973 0.034835774 0.18463339
0001c0 42 d2 ab bd 38 d7 70 3b 6b bc ae 3d 3a 14 77 3e
       -0.08389713 0.0036749374 0.085320316 0.2412881
0001d0 2d 39 15 bd a1 60 ec 3d 7d 07 8d 3e 69 32 a7 ba
       -0.03643148 0.11541868 0.27544776 -0.0012756112
0001e0 2f 50 d7 3e 8c 56 b8 3d 20 41 86 3d 50 0f 56 3e
       0.42053363 0.090008825 0.0655539 0.20904279
0001f0 a2 6d b2 bc dc 55 0a 3c 21 6c 06 be 0d 06 85 3d
       -0.021780793 0.008443322 -0.13127185 0.06495295
000200 52 a7 30 bd e6 88 e2 bc c3 71 94 bd 5f ba 15 3d
       -0.04312832 -0.027653169 -0.07248261 0.03655469
000210 c6 ea 3f 3d 61 44 44 3e ad c8 4e 3e a9 be d9 bb
       0.046854757 0.1916671 0.20193739 -0.006645043
000220 2a 02 85 3e e5 f0 30 3d 42 7b 79 bc 6b 35 24 be
       0.25978214 0.043198485 -0.015227141 -0.16036002
000230 a8 3f 1a 3e 6f 20 d7 3d 55 98 2b be 71 ed 0c 3e
       0.15063345 0.10504233 -0.16757329 0.13762452
000240 f8 39 f5 3d 55 7a 8e bd af 38 95 3d 29 0d 3c 3e
       0.11973947 -0.06956927 0.07286202 0.18364395
000250 64 21 1e 3e c0 9c 7f 3e 85 56 14 be 8a f6 b5 bd
       0.15442425 0.24962139 -0.1448613 -0.08884914
000260 e0 e3 51 3e 77 29 b2 bb ae a5 8d bb 08 8b 12 be
       0.20497084 -0.005437072 -0.004322729 -0.14310849
000270 ee 8c b9 3d bb ac 08 3e bd c2 c3 ba c7 d2 1a 3e
       0.09060083 0.13347141 -0.0014935356 0.15119468
000280 d0 2a 02 3c dc 56 81 3d 0c fa 02 3d e4 8b 86 bd
       0.007944778 0.06315395 0.031976745 -0.06569651
000290 97 91 c6 bc be f2 0d 3d ba dc a9 bd 7d 32 ee 3d
       -0.024239345 0.034655325 -0.082940534 0.116307236
0002a0 5f 27 c3 3c 5e cc 61 3d 12 65 02 3d db bd 4b bd
       0.023822485 0.05512654 0.03183467 -0.049741607
0002b0 78 51 d9 ba e8 05 e5 3c 71 71 a3 bc ad 8b e0 3d
       -0.0016580066 0.027956918 -0.019951554 0.10964141
0002c0 c4 61 2d 3e 77 bd c1 bd 4b 56 82 3c 4f 0a 8f 3c
       0.16931826 -0.09459966 0.015910288 0.01746097
0002d0 db f3 1a 3e cd 23 c6 bd c6 6f ae 3d 0e 28 0b be
       0.15132086 -0.09674797 0.08517413 -0.13589498
0002e0 dd d4 22 bd ec 57 0b 3d 91 db bd bc 04 d2 50 be
       -0.039753783 0.034019396 -0.023175986 -0.20392615
0002f0 dc 74 83 3d e0 f7 84 bd 6f 40 54 3d 69 ee bd bc
       0.064187735 -0.06492591 0.05181926 -0.023184972
000300 c0 05 2a 3d 91 69 8d bc 6c bb 8a 3d 8c 99 d4 ba
       0.04150939 -0.017262252 0.06774029 -0.0016220077
000310 01 a8 87 3e 38 3a 4c be 11 65 c2 bd 48 30 a5 3c
       0.26495364 -0.19944084 -0.09491933 0.020164624
000320 f3 55 88 bd 53 89 e4 3d 58 8e 61 bf 1f 42 d5 3c
       -0.066570185 0.11159005 -0.88107824 0.026032506
000330 a0 44 32 3d c3 b7 3c 3d 3a d0 ba 3d 0f ba 98 bd
       0.043522477 0.046073686 0.09121747 -0.07457363
000340 a9 f4 ac 3d 27 4b 2a bd 56 94 03 bd cc b8 00 be
       0.08445103 -0.041575577 -0.032123886 -0.12570494
000350 90 6f da bd 95 51 59 3d 19 66 7d 3e f1 3d 32 bd
       -0.1066581 0.05305632 0.24745978 -0.043516103
000360 c7 ef cd 3d da b7 2d bd 55 e4 45 3e a7 96 07 3d
       0.100554995 -0.042411663 0.19325383 0.033102658
000370 fa 56 03 be d3 3f 91 3d ef d4 36 be a0 84 1d be
       -0.12826148 0.07092252 -0.17854665 -0.15382624
000380 30 e5 d4 3e 9a 44 97 3c 7f 8e d5 bd f7 6e d1 bd
       0.41581106 0.018465329 -0.104275696 -0.10226243
000390 8a 9c d8 bd 2c 0f 80 bd d7 e9 03 3d 4a 5e 48 3d
       -0.105767325 -0.06252894 0.03220543 0.048918046
0003a0 83 46 13 3e b1 8f 53 be f6 d6 6d 3c 3c 2a 3d 3e
       0.14382367 -0.20660283 0.014516583 0.18473142
0003b0 6f 39 9f bd ff 81 73 be bb 70 d4 bd 05 81 4c 3e
       -0.077746265 -0.23780058 -0.10373064 0.19971092
0003c0 14 e4 69 3d 74 fe 68 3c 7b b0 3d 3d ce 13 9a bd
       0.057102278 0.014220823 0.046310883 -0.07523309
0003d0 63 ad 1e be 93 c9 00 be 6d 6b 08 be 20 23 c9 3d
       -0.1549583 -0.12576894 -0.1332223 0.09821153
0003e0 c7 5f a2 3d f1 55 7c bd ef 7b 04 3e 37 39 11 bf
       0.07928424 -0.061605398 0.12937902 -0.5672793
0003f0 ae 5d f8 3d db 9b 30 3d d0 d7 0f 3d 48 9d f6 bd
       0.12127243 0.043117385 0.035117924 -0.12041718

model.6.bias f4 [32]
000000 ce 0c 73 3d a3 b9 14 3f 53 3c 2d be 2b 5d d3 3d
       0.059338383 0.5809576 -0.16917543 0.10320505
000010 67 d4 19 3e 89 61 ec 3e ec ab 9d 3e ce e5 25 3c
       0.15022431 0.46168163 0.30795228 0.0101255905
000020 aa 71 8a 3d 63 22 8c 3e 0b 36 1e 3f fb 23 03 bd
       0.06759961 0.27369985 0.61801213 -0.032016736
000030 8a 55 a3 bd ec 6c 6b bd 48 fc 1c 3c d5 e6 83 3e
       -0.079753 -0.057476923 0.009581633 0.25762048
000040 fe 56 c6 3e a7 5d ff 3c 24 40 2b 3e e0 55 7b 3e
       0.38738245 0.031172587 0.16723686 0.24544477
000050 f2 72 2d 3d 47 9b a0 3e 11 d0 12 be 18 ed d2 bd
       0.04234595 0.31368467 -0.14337184 -0.10299128
000060 20 41 c0 bd 78 4a db 3c ff 77 0e 3e c2 dd ff 3e
       -0.093874216 0.026768908 0.13912962 0.49973875
000070 31 24 b8 3e 74 ec 98 3e 71 71 64 3d d7 17 15 3e
       0.35965112 0.298679 0.05577225 0.14559875

model.8.weight f4 [10, 32]
000000 6a 1a 24 3d 62 6c d2 3d 3f fe 8c be 10 48 ab 3d
       0.040064253 0.10274579 -0.27537724 0.08363354
000010 bb 49 66 3e e4 e8 9f 3e 0d f0 e1 3c 44 d7 0a be
       0.22489063 0.3123237 0.027580285 -0.1355868
000020 a9 01 00 be b5 e8 9e 3d b5 0d 92 3e 13 13 42 be
       -0.12500633 0.07759229 0.28526083 -0.18952589
000030 31 ed a3 3c 4c 51 27 3c a7 58 30 3e 1f 83 3d 3e
       0.020010563 0.010212254 0.17221318 0.1850705
000040 cd 4d 49 3e a0 4e a8 be 46 6c ce bd b7 ca 09 3d
       0.19658585 -0.32872486 -0.10079245 0.03364059
000050 c7 d1 9d bd 68 34 c0 3e 72 80 aa 3d 3d 3d 9a bd
       -0.077060275 0.37539983 0.0832528 -0.075312115
000060 d7 09 10 bd 4c 0b 31 be a8 8e 5d 3d d8 9e 9c 3e
       -0.035165634 -0.17289466 0.054091126 0.30589938
000070 70 9c 41 3e 9e 1d bc 3d 9c ae 38 bc 43 6b 20 be
       0.18907332 0.091853365 -0.011272099 -0.15665917
000080 c3 01 93 3c 17 ea 86 3e ca fe e2 bd 22 0e a2 3d
       0.017945176 0.2635047 -0.110837534 0.07912852
000090 9f 79 c7 3c ec e2 8b 3e 70 a9 98 3a 55 d3 38 bd
       0.024349986 0.27321565 0.0011647176 -0.045123417
0000a0 bb b0 20 be e4 47 03 bd df 0d a7 3d 19 48 3c be
       -0.15692417 -0.032050982 0.081569426 -0.18386878
0000b0 44 00 8f 3d 38 28 37 3d 0d 9d 02 be d5 75 5e 3e
       0.069824725 0.04471609 -0.12755223 0.21724637
0000c0 b4 ed 47 3e 39 ab 89 be 84 31 5c bd ae 1c b0 3d
       0.1952427 -0.26888445 -0.05375816 0.0859922
0000d0 e3 2d ff bd 8a f7 0a 3d 8d d9 6d bd d8 d5 49 bd
       -0.12459924 0.033927478 -0.0580688 -0.049276203
0000e0 9f 50 04 be 83 62 78 be 52 78 80 3d bb 40 cd 3e
       -0.1292138 -0.24256329 0.06272949 0.40088448
0000f0 2f 22 83 3c ce f6 8d 3e b7 63 eb bd cd de 31 be
       0.016007511 0.2772736 -0.114936285 -0.17370148
000100 ad 2a 1d 3e c8 ee c6 3e eb 56 df bd 64 cf b5 3c
       0.15348311 0.3885405 -0.1090525 0.022193618
000110 8c 55 29 3e 0f 8b b9 3e 6e 0f 9d bd f8 9a 20 bd
       0.1653654 0.36238906 -0.076689586 -0.03921029
000120 dc d9 f2 bd 03 86 c0 3b d9 a3 24 3e d2 93 ed bc
       -0.1185796 0.0058753504 0.16078128 -0.02900115
000130 d3 c3 06 3e b9 3f a2 3c 98 61 22 3e d7 87 2e 3e
       0.13160639 0.019805776 0.15857542 0.17044006
000140 67 3c 72 3d 8d 50 80 be 3b e0 71 bd 79 ca 21 3e
       0.059139635 -0.25061455 -0.059051733 0.15799893
000150 e4 86 ba be de ee 2a 3e 96 e7 df 3d a0 fe 86 3d
       -0.36431038 0.16692683 0.109328434 0.065915346
000160 02 1a 59 be cc 38 40 be fd 7c af 3c 10 8f 9d 3d
       -0.21201327 -0.18771666 0.021421904 0.07693303
000170 81 f0 7f bc 2e 5a c5 3d cd 0e d8 3d d4 57 dd bd
       -0.015621305 0.09636341 0.10549698 -0.108077675
000180 24 5b 57 3d 3d 1d a7 3e 35 7a 26 be 08 9f b4 be
       0.052577153 0.32639495 -0.16257556 -0.3527758
000190 56 33 34 3e 40 7a f3 3d 5c 1f c3 3c 10 58 b2 bd
       0.17597708 0.11888552 0.023818664 -0.08708203
0001a0 c8 78 43 be 1b 36 9a 3d 19 d7 9a 3e 38 69 64 be
       -0.19089043 0.07529851 0.3024223 -0.22305763
0001b0 aa 7f 6c 3d ab 5d 79 3d f1 b9 04 3e d8 de 24 3e
       0.057738937 0.060880344 0.12961556 0.16100633
0001c0 da 0f 45 3d ca f9 3a be 84 45 db ba e5 e6 4d 3e
       0.04811082 -0.1825935 -0.0016729091 0.2010761
0001d0 e7 55 d1 bc b5 20 fd 3d 91 44 fa bd d8 70 e5 bc
       -0.025553657 0.12359754 -0.12220109 -0.02800791
0001e0 01 36 56 be 07 6c 91 be 0c 99 05 3d 09 dc 5b 3e
       -0.20919038 -0.2840273 0.03261666 0.21470656
0001f0 b3 d6 ec 3d e3 81 8c 3e 94 ff c3 3b d3 92 01 be
       0.11564388 0.27442846 0.005981395 -0.12653665
000200 1b b7 02 be e4 4b 7f 3b b9 50 57 be ae 8b 24 3e
       -0.12765162 0.0038955146 -0.21026887 0.16068909
000210 17 bf bb 3d 36 36 a1 3e f3 9a 37 bd 54 62 1b bd
       0.09167307 0.31486672 -0.044825505 -0.03793557
000220 d8 0a 6c be f3 cd e2 bc 6f 66 b1 3e 43 f1 e2 bb
       -0.23051012 -0.027686095 0.34648463 -0.0069257333
000230 37 c8 cd 3d 57 fc a8 3c cf 79 21 3e 1b 2a 94 3d
       0.100479536 0.020628138 0.15769123 0.072345935
000240 75 75 a0 3e 5e bd 86 be f5 2f a9 3d e4 f8 97 3e
       0.31339613 -0.2631635 0.082611 0.29682076
000250 5c fc 4a be 23 ef 3a 3e 82 fb 07 be e0 22 9f 3b
       -0.1982283 0.18255286 -0.13279536 0.0048564523
000260 4d 0a 08 be a1 0d 11 be 3b c2 e5 3d a8 3c d5 3d
       -0.1328518 -0.14165355 0.11218687 0.1041196
000270 d0 f9 8d 3c f6 a1 aa 3e bd 69 e0 3d 99 3d 4d be
       0.017331034 0.3332669 0.10957668 -0.20043029
000280 78 f0 bb 3d d8 41 95 3e c9 72 86 be 53 2f a4 3d
       0.09176725 0.29151797 -0.2625945 0.08016839
000290 fc 31 80 bd 85 68 a2 3e f5 e8 be 3d 23 70 7c be
       -0.06259534 0.31720367 0.09321777 -0.24652152
0002a0 1a dc 28 be de 81 3f 3e 9f 3f 5c 3e d2 0d 36 be
       -0.16490212 0.18701884 0.21508645 -0.1777871
0002b0 ba 63 87 3d 2f 9b 10 3b 46 b1 dd 3d d5 db 01 3e
       0.06610818 0.0022065153 0.10824828 0.12681516
0002c0 5f 7d 5d 3e 19 6a 27 be 15 f5 05 3e dc 47 24 3e
       0.21629857 -0.16349067 0.13081773 0.16043037
0002d0 0a b9 0e be da 2b e0 3c 88 72 92 3c 20 23 78 bc
       -0.13937774 0.02736466 0.017876878 -0.015145093
0002e0 bc 64 33 be 62 d6 27 be 0f 4e ad 3d 32 21 35 3e
       -0.17518896 -0.16390374 0.08462154 0.17688444
0002f0 7a 48 79 3e c2 49 bf 3d 1f 91 38 3e e0 cf 56 be
       0.24344054 0.0934024 0.1802411 -0.20977736
000300 01 08 8c bd e5 12 7e 3e 96 4e 8a bd d5 e5 f8 3d
       -0.06837464 0.24811895 -0.0675327 0.12153212
000310 78 fc 8b 3d f6 9d 6c 3e ce 4b b1 3d 3f dd 0e be
       0.06835264 0.23107132 0.08657037 -0.13951586
000320 3d df 1f be 5c fd 27 3e 26 90 5c 3e be 31 c4 ba
       -0.15612502 0.16405243 0.21539363 -0.0014968438
000330 21 24 a3 bd ea 55 e3 3b dc 20 c5 3d 89 df e7 3b
       -0.079658754 0.006937732 0.09625408 0.007076208
000340 6b e8 4e 3e b9 74 9b be d7 b7 3f 3e 84 80 0d 3b
       0.20205848 -0.3036249 0.18722473 0.0021591494
000350 98 c9 eb bd 89 12 4e 3e a0 dc 66 bd 57 a5 0c 3e
       -0.1151306 0.20124258 -0.05636275 0.13734947
000360 2a 7b a7 be 70 22 21 be c8 f3 10 3d 6e c6 29 3e
       -0.32711154 -0.15735793 0.035388738 0.16579601
000370 62 db 6b 3d 93 86 93 3e 8d 3f a5 bb 89 75 1f be
       0.057582267 0.2881361 -0.0050429762 -0.1557218
000380 7a 7a af bd b9 5f c3 3e cb b2 04 be fe 79 a3 3b
       -0.085682824 0.38158968 -0.12958829 0.004988908
000390 7f b1 06 3e 4a 4e 6c 3d eb 4b c2 bd 27 ad b4 3b
       0.13153647 0.05769185 -0.094871365 0.0055138054
0003a0 5c da fd bd 28 14 3a 3d 2e 87 4d 3e e4 a5 3f be
       -0.12395164 0.04542938 0.20071098 -0.18715626
0003b0 5c 3c 87 bd 74 c7 8c 3d 34 05 ff 3d 8e a5 fd 3d
       -0.066033095 0.0687398 0.12452164 0.12385093
0003c0 40 2e af 3e 0c 2e dc bd 9d f2 06 3e 79 6e c3 3d
       0.34214973 -0.1075097 0.13178487 0.09542555
0003d0 c2 ce d3 bd 17 a6 7d 3e ee 85 84 3d 13 2e a8 bd
       -0.1034217 0.2477039 0.064708576 -0.08211913
0003e0 c2 56 31 be ee 45 97 be 3f 5e 06 3e 86 83 01 3e
       -0.17318252 -0.2954554 0.1312189 0.12647828
0003f0 80 01 04 3e df f9 08 3e 11 d6 1b be f9 6c b0 be
       0.12891197 0.13376568 -0.15218379 -0.3445814

model.8.bias f4 [10]
000000 d7 35 bc bd 06 b9 9a 3d 74 44 1e 3e 25 f8 3e bd
       -0.09189957 0.07554822 0.154558 -0.046623368
000010 02 ad 9f 3d f3 b8 23 3e 47 b5 90 3e 20 3a 15 3e
       0.077966705 0.15988521 0.28263304 0.14572954
000020 4f e3 54 3e 27 f2 0b 3e
       0.20789836 0.13666593
