checkpoints/checkpoint_step_5000.pth (torch, 200878 bytes, 10 tensors)

model.0.weight f4 [256, 21]
0.122191444 0.021167582 0.1511969 -0.31885505 -0.3079022 -0.15459305 -0.50353557 -0.035201278
0.07394378 0.11293828 -0.21518165 -0.099147595 0.20854795 -0.78295785 -0.27181253 -0.15307592
-0.052020635 0.06549913 0.10568034 -0.32715142 0.40027615 0.02692692 0.017837064 -0.17429006
-0.079256624 -1.1492834 -0.07521074 0.07999636 -0.087158866 -0.13459311 -0.30264637 -0.0261959
-0.066913374 -0.3345849 -0.34341288 -0.12538795 -0.023768373 -0.04980344 0.15470979 -0.08505341
0.13553846 -0.07140039 -0.054985397 -0.26181346 0.24800079 -0.026826022 0.12801237 0.085936196
-0.4858035 0.10731178 0.15224403 -0.17194363 0.03254432 -0.50496644 -0.11435334 -0.23722488
-0.21597072 0.08939443 -0.32387686 -0.04755575 -0.088578984 -0.18518466 -0.10437004 -0.043171916
-0.774373 0.09143384 -0.6366087 -1.6434637 0.08731864 -0.24806301 0.18859342 -0.17089547
0.3705371 -0.14878833 0.2786686 -0.0115476865 -0.12056356 -0.070548356 0.31825897 -0.120931454
0.20750447 -0.064730436 0.16470248 -0.7172162 0.12736331 -0.088876106 -0.18581556 0.033676732
0.11560224 -0.3578838 0.079311535 0.12873922 0.1692056 -0.029869957 -0.19416285 -0.031509306
-0.014056709 -0.13361983 -0.4336855 0.072956555 0.2478424 -0.6005856 -0.2146267 0.05510941
0.06327244 -0.12879442 0.10169649 -0.13870113 0.13039778 -0.023284366 0.10654099 -0.16331787
0.018704286 -0.22459105 -0.0651167 0.10968517 0.26503322 0.009468254 0.40927696 -0.05141982
0.39017114 0.17261587 0.33143565 -0.119440354 0.22563933 0.10537131 -0.6442387 -0.0625259
0.2900412 -0.36698055 -0.7907868 -0.12559399 -0.27856928 -0.33190075 -0.38324338 -0.056105275
-0.27807274 -0.28179994 -0.07531135 -0.2028886 0.159706 0.16446148 0.10965773 0.099476084
-0.20954049 -0.096975565 -0.100763544 -0.1728602 -0.11749169 0.18108878 -0.1346787 0.182376
-0.060299795 -0.3430658 -0.07557548 -5.065284 -0.0327408 -0.07771087 -0.0346688 -0.09300056
-0.083169244 0.031475108 -0.010267158 -0.051706895 -0.19518389 -0.04886008 -0.24613985 -0.20985125
-0.020444693 -0.12821718 0.07532496 -0.21799606 0.0639887 0.0030131596 -0.350664 -0.10438176
0.18448599 -0.2964508 -0.31650004 -0.35770202 -0.018260613 -0.0775163 -0.17031111 -0.29850963
0.010300555 -0.0693477 -0.2571158 -0.06538978 0.028813953 0.17417365 -0.20689683 -0.3271555
-0.07014685 0.21608746 -0.23560494 -0.27815828 -0.080692284 0.03269993 0.032338645 -0.18564935
-0.5198464 -0.0979195 -0.3438175 0.081479914 -0.1220245 -0.1749132 -0.5245422 0.110215284
-0.21363194 -0.083116755 -0.2683155 0.19728036 -0.22446014 0.078935236 -0.31863403 0.099330686
-0.22620139 0.17870413 -0.23969792 0.23593274 0.15707105 -0.21626365 0.017074157 0.58945996
0.18892437 -0.46076214 0.25427634 -0.2504776 -0.07099259 0.23372558 0.03124969 -0.13695107
0.05845783 -0.13691783 -0.11807529 0.3227254 0.020929974 0.080370545 -0.07466414 -0.43169236
-0.20463969 -0.17158811 -0.2530663 -0.019911218 -0.09619123 -0.055950083 0.32901353 -0.2382943
-0.29898065 -0.04244237 -0.11053559 -0.05789415 -0.11235508 0.0871076 -0.3110393 -0.15697075
00000000: 823f fa3d a367 ad3c 5cd3 1a3e f840 a3be
00000010: 5ba5 9dbe a44d 1ebe b5e7 00bf 372f 10bd
00000020: d66f 973d 2f4c e73d 9458 5cbe e50d cbbd
00000030: 988d 553e ed6f 48bf 032b 8bbe efbf 1cbe
00000040: 9713 55bd 6824 863d ef6e d83d 6480 a7be
00000050: fff0 cc3e d895 dc3c 091f 923c 1879 32be
00000060: 4c51 a2bd b81b 93bf 1708 9abd 22d5 a33d
00000070: 5980 b2bd c7d2 09be 77f4 9abe c998 d6bc
00000080: e109 89bd b64e abbe d0d3 afbe b365 00be
00000090: e4b5 c2bc b1fe 4bbd 3e6c 1e3e 7b30 aebd
000000a0: 98ca 0a3e 5e3a 92bd 5e38 61bd 6a0c 86be
000000b0: ebf3 7d3e 3fc2 dbbc ad15 033e 51ff af3d
000000c0: 3dbb f8be 47c6 db3d dce5 1b3e fe11 30be
000000d0: 314d 053d 7b45 01bf 1532 eabd 14eb 72be
000000e0: 6e27 5dbe 6d14 b73d 30d3 a5be d1c9 42bd
000000f0: e668 b5bd 0ca1 3dbe f6bf d5bd 09d5 30bd
00000100: 4f3d 46bf aa41 bb3d caf8 22bf 055d d2bf
00000110: 1dd4 b23d 3b04 7ebe a21e 413e 39ff 2ebe
00000120: 0ab7 bd3e f85b 18be a7ad 8e3e 8232 3dbc
00000130: 07ea f6bd a87b 90bd d7f2 a23e e9aa f7bd
00000140: 0d7c 543e 6491 84bd c4a7 283e 7b9b 37bf
00000150: 876b 023e ad04 b6bd 6f46 3ebe 9df0 093d
00000160: dec0 ec3d 8c3c b7be 166e a23d 37d4 033e
00000170: 3c44 2d3e d7b1 f4bc a0d2 46be e70f 01bd
00000180: 1c4e 66bc a3d3 08be 070c debe 3f6a 953d
00000190: 66ca 7d3e fabf 19bf 1ac7 5bbe 68ba 613d
000001a0: fb94 813d afe2 03be 4046 d03d ab07 0ebe
000001b0: ff86 053e dbbe bebc 2a32 da3d cd3c 27be
000001c0: bb39 993c 32fb 65be e85b 85bd 9ea2 e03d
000001d0: 6fb2 873e bc20 1b3c c08c d13e 979d 52bd
000001e0: 83c4 c73e 37c2 303e efb1 a93e 259d f4bd
000001f0: ff0d 673e eacc d73d d4ec 24bf 940d 80bd
00000200: 4880 943e e0e4 bbbe 0171 4abf b69b 00be
00000210: a2a0 8ebe e5ee a9be 7a38 c4be a5ce 65bd
00000220: 8d5f 8ebe 1548 90be d63c 9abd 07c2 4fbe
00000230: f889 233e 9768 283e 3b94 e03d 1eba cb3d
00000240: c891 56be 209b c6bd 1e5d cebd 4402 31be
00000250: 7c9f f0bd 566f 393e 37e9 09be c6c0 3a3e
00000260: ebfc 76bd 52a6 afbe 51c7 9abd ce16 a2c0
00000270: 381b 06bd e026 9fbd df00 0ebd 1477 bebd
00000280: a354 aabd 0bec 003d 9537 28bc 9cca 53bd
00000290: 49de 47be 8221 48bd 160c 7cbe 3fe3 56be
000002a0: a17b a7bc 5d4b 03be f943 9a3d 5c3a 5fbe
000002b0: 820c 833d 6e78 453b 3b8a b3be 1bc6 d5bd
000002c0: e5e9 3c3e 66c8 97be 4b0c a2be b824 b7be
000002d0: 4897 95bc dec0 9ebd 0966 2ebe 41d6 98be
000002e0: a9c3 283c 2b06 8ebd afa4 83be 14eb 85bd
000002f0: 3d0b ec3c 945a 323e c3dc 53be ed80 a7be
00000300: 27a9 8fbd 0846 5d3e 6c42 71be c36a 8ebe
00000310: ff41 a5bd 5df0 053d 8775 043d dd1a 3ebe
00000320: a714 05bf 058a c8bd d908 b0be f1de a63d
00000330: fbe7 f9bd 721c 33be 6648 06bf 8db8 e13d
00000340: 55c2 5abe 1e39 aabd a660 89be dd03 4a3e
00000350: e1d8 65be cca8 a13d 0024 a3be e36d cb3d
00000360: 56a1 67be 37fe 363e 5f73 75be 5a98 713e
00000370: 3cd7 203e 3874 5dbe 1adf 8b3c d9e6 163f
00000380: 6475 413e 04e9 ebbe 8230 823e 9a3e 80be
00000390: 9064 91bd c255 6f3e 5aff ff3c e73c 0cbe
000003a0: 7a71 6f3d 3034 0cbe 75d1 f1bd 433c a53e
000003b0: 5675 ab3c 5099 a43d 83e9 98bd c806 ddbe
000003c0: 118d 51be cbb4 2fbe e891 81be da1c a3bc
000003d0: e8ff c4bd ea2b 65bd 7674 a83e 6c03 74be
000003e0: fe13 99be 0dd8 2dbd 7c60 e2bd 6b22 6dbd
000003f0: 6c1a e6bd 7865 b23d 8b40 9fbe f1bc 20be

model.0.bias f4 [256]
0.16647297 0.007821449 -0.22780648 0.0590781 0.36846703 0.2153065 0.107497066 0.09000294
0.18763496 0.178507 -0.26735282 -0.017490588 -0.0048838905 -0.45000073 0.483215 0.43880454
-0.12303319 -0.11342914 0.41110307 -0.17740147 -0.08313084 -0.4149216 -0.1163606 -0.16853172
-0.5243812 -0.11815394 -0.21191454 0.14619659 -0.04501054 -0.011694953 0.2938861 0.4167303
-0.11671399 -0.16567898 -0.31362736 0.091804 -0.09848302 -0.32996505 0.031460367 0.09608212
-0.05743316 0.22801608 -0.07984945 -0.08493564 0.29010433 -0.1912572 -0.11365041 -0.013824331
0.16020888 -0.12285025 -0.046771295 0.05866311 -0.3737371 -0.28155452 0.10650097 -0.32502252
-0.33333528 0.0040730573 -0.3819482 -0.050052058 0.06327096 -0.11805731 0.28486997 -0.12527362
-0.07071959 -0.12297063 -0.061309643 0.33837336 -0.30767587 0.19876456 -0.0056886706 0.25632164
-0.048121978 0.116156146 -0.19537336 -0.37166157 -0.10511944 -0.12017365 -0.18617235 0.38915387
0.03329912 0.28078273 -0.4936312 -0.15779783 0.067188144 -0.21246158 0.333742 0.30386093
-0.086534195 0.0648239 0.2238723 -0.17478032 -0.21645786 -0.1430216 -0.17999135 -0.26058593
-0.2931558 -0.12181413 -0.36013362 0.36769652 0.4129023 -0.16151695 -0.012669567 0.2615476
0.129864 0.16740158 -0.02170611 0.10668773 -0.008625169 -0.13329358 0.020550394 -0.07471731
-0.04603816 -0.08480953 -0.070313424 -0.08922982 0.13418429 0.2393504 -0.039068643 0.15274303
-0.31401506 0.07326968 -0.13727194 0.08226381 -0.105762884 -0.45018247 0.37035197 0.19812502
-0.3090037 -0.1892194 -0.10847097 0.16865014 0.010353425 -0.15843037 0.3799865 0.060770255
-0.12235234 -0.22456269 0.063391395 0.400794 -0.1202689 0.23384607 0.24302907 -0.0022864945
0.25787312 0.32605928 0.08299036 0.05772503 -0.80843925 -0.13928902 0.1916103 -0.18609183
0.3655709 -0.49013856 -0.2235319 0.05986933 -0.015126403 0.18595342 0.47112972 0.3694651
-0.1974331 -0.046446256 0.5012471 0.055162296 -0.110852554 0.4055108 -0.14313039 -0.12596375
-0.030807089 0.2681796 -0.075877324 -0.06974126 0.22553685 -0.27587533 0.24268559 0.029336799
-0.33313942 0.5305974 -0.06249363 -0.21012884 -0.3466534 0.27233416 0.12442671 0.049014486
-0.15147716 -0.0070911692 -0.2856472 -0.37525362 0.14551732 0.13765751 -0.23060289 0.1953972
0.45130166 0.118525304 -0.16411743 -0.33121958 0.32912022 0.04938703 0.17690702 -0.12557657
-0.32340512 0.056736186 -0.048008338 0.021880234 0.023066498 -0.011823303 -0.1912653 -0.0748975
-0.09763765 -0.25084883 0.033355623 0.100896224 0.101765566 0.20375542 -0.12252652 -0.18037651
0.23026374 0.20464242 -0.086050935 0.72220844 -0.04895295 -0.1650951 -0.01665106 -0.09597565
-0.25279287 -0.16093798 0.16340247 -0.24276678 0.059646755 0.15435301 0.12214671 -0.08592642
0.029519055 0.002934894 0.6531602 -0.07216281 0.20269442 -0.20244502 0.32460648 0.49476916
-0.12613651 0.04682698 -0.037360135 -0.06216011 -0.20716712 -0.19468424 0.30145368 0.43124026
-0.37561104 -0.21871004 0.07489631 0.052503377 -0.018188924 -0.37712932 0.102939434 0.18538885
00000000: e477 2a3e 8925 003c 1a46 69be e1fb 713d
00000010: b6a7 bc3e 4f79 5c3e 6c27 dc3d 7653 b83d
00000020: 6123 403e 8aca 363e 78e2 88be 6c48 8fbc
00000030: 0b09 a0bb 7f66 e6be f567 f73e fdaa e03e
00000040: d3f8 fbbd 894d e8bd 1a7c d23e bba8 35be
00000050: 8040 aabd 9b70 d4be 774e eebd 9493 2cbe
00000060: d93d 06bf b1fa f1bd 2000 59be 8fb4 153e
00000070: f95c 38bd 309c 3fbc 3d78 963e ad5d d53e
00000080: bf07 efbd c0a7 29be c493 a0be bc03 bc3d
00000090: 77b1 c9bd 2ef1 a8be 96dc 003d b4c6 c43d
000000a0: 083f 6bbd 0c7d 693e 1c88 a3bd bdf2 adbd
000000b0: 8e88 943e edd8 43be 8cc1 e8bd 727f 62bc
000000c0: cc0d 243e e998 fbbd 4293 3fbd bb48 703d
000000d0: 785a bfbe ea27 90be 2e1d da3d 5a69 a6be
000000e0: ecaa aabe 4877 853b b78e c3be 6303 4dbd
000000f0: 3494 813d 08c8 f1bd 7ada 913e ba47 00be
00000100: 6fd5 90bd 07d8 fbbd d21f 7bbd 463f ad3e
00000110: b187 9dbe f088 4b3e 0768 babb 973c 833e
00000120: 8d1b 45bd 46e3 ed3d f40f 48be 6d4a bebe
00000130: dc48 d7bd 9a1d f6bd f7a3 3ebe 2d3f c73e
00000140: a864 083d c1c2 8f3e 3bbd fcbe c195 21be
00000150: f099 893d 878f 59be 3be0 aa3e a993 9b3e
00000160: d738 b1bd 65c2 843d c83e 653e 9df9 32be
00000170: 21a7 5dbe 4174 12be a74f 38be 856b 85be
00000180: 8418 96be b079 f9bd 6f63 b8be b842 bc3e
00000190: ee67 d33e b364 25be 0494 4fbc 91e9 853e
000001a0: 12fb 043e 526b 2b3e 03d1 b1bc 197f da3d
000001b0: 9550 0dbc 1d7e 08be 4d59 a83c 6405 99bd
000001c0: 8292 3cbd 9eb0 adbd 7c00 90bd 20be b6bd
000001d0: 9b67 093e 4518 753e 7106 20bd ab68 1c3e
000001e0: 95c6 a0be 6a0e 963d 0491 0cbe ee79 a83d
000001f0: 369a d8bd 517e e6be c69e bd3e 49e1 4a3e
00000200: bc35 9ebe bbc2 41be 0726 debd 9fb2 2c3e
00000210: 69a1 293c 923b 22be 978d c23e 3bea 783d
00000220: dd93 fabd c3f3 65be 59d3 813d df34 cd3e
00000230: 8b4f f6bd 5875 6f3e 9ddc 783e 03d9 15bb
00000240: f207 843e 3ef1 a63e daf6 a93d 1571 6c3d
00000250: e0f5 4ebf c8a1 0ebe 7e35 443e db8e 3ebe
00000260: 1c2c bb3e 71f3 fabe 8ce5 64be 8b39 753d
00000270: bcd4 77bc 936a 3e3e ea37 f13e 882a bd3e
00000280: e72b 4abe 6e3e 3ebd bb51 003f dcf1 613d
00000290: aa06 e3bd 1d9f cf3e c690 12be a4fc 00be
000002a0: 265f fcbc d64e 893e 9265 9bbd 81d4 8ebd
000002b0: 22f3 663e 883f 8dbe 9282 783e ba53 f03c
000002c0: 4091 aabe 3bd5 073f 52f9 7fbd 042c 57be
000002d0: 8e7c b1be 626f 8b3e 6ed3 fe3d 6ac3 483d
000002e0: d41c 1bbe 0a5d e8bb 5a40 92be 3e21 c0be
000002f0: 7e02 153e 17f6 0c3e 2a23 6cbe 3416 483e
00000300: 0311 e73e 65bd f23d 660e 28be 9d95 a9be
00000310: 7282 a83e 0e4a 4a3d 1d27 353e 2597 00be
00000320: 5b95 a5be 3464 683d 64a4 44bd 2d3e b33c
00000330: f4f5 bc3c 87b6 41bc 0ddb 43be dc63 99bd
00000340: 40f6 c7bd 426f 80be e89f 083d aea2 ce3d
00000350: 776a d03d 43a5 503e 2fef fabd 9fb4 38be
00000360: 42ca 6b3e c88d 513e 793b b0bd a7e2 383f
00000370: e382 48bd b10e 29be ce67 88bc e28e c4bd
00000380: 116e 81be edcc 24be fa52 273e db97 78be
00000390: 2850 743d b70e 1e3e 0e28 fa3d 31fa afbd
000003a0: f2d1 f13c 5a57 403b 8235 273f 18ca 93bd
000003b0: 208f 4f3e bf4d 4fbe d232 a63e 6252 fd3e
000003c0: ee29 01be a6cd 3f3d f106 19bd 999b 7ebd
000003d0: 9e23 54be 4e5b 47be 2358 9a3e 86cb dc3e
000003e0: 1750 c0be 86f5 5fbe 3d63 993d c80d 573d
000003f0: f000 95bc 1817 c1be e9d1 d23d 93d6 3d3e

model.2.weight f4 [128, 256]
-0.15332463 0.056101415 0.0065261084 0.076128274 -0.027442915 -0.08067257 -0.07835633 0.06796015
-0.043881577 -0.025980879 0.13908234 -0.08691029 0.28487977 -0.05213363 -0.058771465 -0.06762567
0.0117733395 -0.007325058 -0.45087817 0.18059583 -0.07138659 0.096062675 -0.034722216 0.11714423
0.17308457 0.13177077 -0.061493542 0.11135867 0.0008883866 0.040377274 0.07102253 0.065559134
-0.121872894 -0.022897296 0.08915355 -0.0050774817 0.004264146 0.08632533 -0.046484828 0.21215475
0.09662301 -0.20884326 -0.48228696 0.028835982 -0.08598023 -0.020636996 -0.038329475 -0.041877553
-0.00069764676 0.07622404 0.07951583 0.04828923 0.17368525 -0.05347539 0.26783374 -0.17371504
0.09680277 0.069272496 0.010301152 -0.11863674 -0.007943332 0.022941817 0.29627222 0.010675213
0.05699845 -0.15109597 -0.016734758 -0.036925144 -0.12181738 0.06892421 -0.15074658 0.09000109
-0.02348316 0.16531084 0.061804254 0.06027803 0.24591647 0.12193344 0.2008056 -0.003128139
0.04205052 0.37736246 0.25773975 0.07202576 -0.016975475 -0.05792239 -0.0058535365 0.025063308
0.13487698 -0.0049093813 0.06770084 -0.051136278 0.09091996 -0.022877874 0.41236916 -0.02550744
0.046774924 -0.11116332 0.1474118 0.20028895 0.37605453 0.021382561 -0.10194057 0.28253344
-0.11896813 0.08252121 0.10794445 0.053722188 0.07403798 -0.03721936 0.039698336 0.036287595
0.0037913006 -0.038206235 -0.23703896 -0.019871246 -0.053317204 0.24348368 0.15828626 0.016303405
0.120476164 -0.0013447307 -0.12093971 0.13486531 0.09241457 -0.075377524 0.21182358 0.107317105
0.113566436 0.0018819851 0.08783411 0.21723187 0.08728768 0.031376503 0.15615022 0.09896505
0.0755233 -0.06426702 0.09430508 0.5487755 -0.098674655 -0.036990043 0.030567564 0.13553222
0.15469705 0.039077427 0.040049456 0.20093413 0.40336865 -0.01337664 0.19499663 -0.02494585
0.1786136 0.031652886 0.0487948 0.0633698 -0.025505774 -0.033860754 -0.53549033 -0.11889903
0.005649165 0.10023456 0.073906116 -0.07962562 -0.027762124 0.082195595 0.1956228 0.10484818
0.0096562365 0.0011178434 0.4651376 -0.038104158 0.039386008 0.13030544 0.20430611 0.0842681
0.0006462759 0.22012575 -0.033168465 -0.2733476 0.06361317 0.23409227 -0.2792572 -0.04305885
-0.0177517 -0.05250133 -0.058913622 0.031722393 0.22837248 -0.0141603965 -0.06872816 -0.38106802
-0.25478625 0.15462722 -0.06524195 0.034088507 0.052995138 -0.21862637 0.23327683 -0.0706519
0.26089472 0.14630203 0.34583727 -0.09649948 -0.0027919966 0.042647325 -0.56397015 -0.08778779
-0.08080948 0.08778233 0.42753655 -0.0027716886 -0.02170869 0.044752587 0.028862776 -0.11840107
-0.032023374 0.06957438 0.037478544 -1.1194977 -0.11826359 0.11575742 0.047133185 -0.16498354
0.16653089 -0.060882915 0.057008363 -0.019553347 -0.030754479 0.06983899 0.33078817 0.093357526
0.011277974 0.038876683 0.31828612 0.02891162 -0.15247612 -0.071076974 0.19641502 -0.8768402
0.011829459 0.13404618 0.048936058 -0.09282161 0.22392048 -0.14247195 -0.18511787 -0.034761593
0.18337864 0.010440716 0.099146545 -0.019767214 -0.011775291 -0.028339116 -0.023231044 -0.062355153
00000000: 2201 1dbe 99ca 653d f7d8 d53b 24e9 9b3d
00000010: f7cf e0bc a937 a5bd 4979 a0bd b12e 8b3d
00000020: 2bbd 33bd dad5 d4bc 9a6b 0e3e 06fe b1bd
00000030: c3db 913e 138a 55bd 59ba 70bd 547f 8abd
00000040: f7e4 403c 0a07 f0bb 81d9 e6be 1dee 383e
00000050: 2233 92bd 82bc c43d e238 0ebd 50e9 ef3d
00000060: 153d 313e ebee 063e a7e0 7bbd 0410 e43d
00000070: 9ee2 683a a462 253d 4374 913d de43 863d
00000080: 7f98 f9bd 1c93 bbbc 2396 b63d 0161 a6bb
00000090: 40ba 8b3b 56cb b03d e066 3ebd 183f 593e
000000a0: 49e2 c53d 02db 55be 51ee f6be 7039 ec3c
000000b0: 6716 b0bd eb0e a9bc 5eff 1cbd cc87 2bbd
000000c0: 48e2 36ba 591b 9c3d 32d9 a23d edca 453d
000000d0: 8cda 313e 0309 5bbd 8121 893e 5be2 31be
000000e0: 8840 c63d bdde 8d3d 2ac6 283c d2f7 f2bd
000000f0: c024 02bc 7af0 bb3c feb0 973e 17e7 2e3c
00000100: 3577 693d e7b8 1abe 5517 89bc d23e 17bd
00000110: 647b f9bd 2328 8d3d 505d 1abe 7e52 b83d
00000120: c25f c0bc 3f47 293e 7526 7d3d 18e6 763d
00000130: 87d1 7b3e 3db8 f93d fc9f 4d3e 7701 4dbb
00000140: 2b3d 2c3d a735 c13e 77f6 833e 3e82 933d
00000150: 2710 8bbc 0740 6dbd 06cf bfbb 9151 cd3c
00000160: 311d 0a3e e0de a0bb bda6 8a3d 4674 51bd
00000170: 3e34 ba3d 616a bbbc 0d22 d33e fbf4 d0bc
00000180: 1097 3f3d 98a9 e3bd 1ef3 163e 8c18 4d3e
00000190: 388a c03e 7b2a af3c 38c6 d0bd 39a8 903e
000001a0: 90a5 f3bd e100 a93d fb11 dd3d cc0b 5c3d
000001b0: 39a1 973d 5473 18bd b99a 223d 4da2 143d
000001c0: 7877 783b 247e 1cbd 57ba 72be 06c9 a2bc
000001d0: 2463 5abd c953 793e cb15 223e b88e 853c
000001e0: 35bc f63d ad41 b0ba 3daf f7bd 221a 0a3e
000001f0: da43 bd3d 885f 9abd 48e8 583e 12c9 db3d
00000200: 8595 e83d f1ac f63a 5fe2 b33d 0872 5e3e
00000210: e2c3 b23d a684 003d d8e5 1f3e 30ae ca3d
00000220: f6ab 9a3d 6d9e 83bd 0623 c13d 8d7c 0c3f
00000230: f015 cabd df82 17bd d468 fa3c f5c8 0a3e
00000240: e768 1e3e a70f 203d e60a 243d adc1 4d3e
00000250: 5686 ce3e b229 5bbc 32ad 473e 3d5b ccbc
00000260: 7ce6 363e 75a6 013d 0edd 473d 07c8 813d
00000270: 7cf1 d0bc 93b1 0abd e515 09bf 5681 f3bd
00000280: a11c b93b c747 cd3d 175c 973d c212 a3bd
00000290: 656d e3bc 2a56 a83d 5851 483e a5ba d63d
000002a0: 3135 1e3c 9a84 923a 8426 ee3e 1b13 1cbd
000002b0: 3953 213d ca6e 053e 9f35 513e c194 ac3d
000002c0: d76a 293a a568 613e a8db 07bd 37f4 8bbe
000002d0: 9f47 823d e2b5 6f3e cdfa 8ebe 7a5e 30bd
000002e0: 036c 91bc a20b 57bd 694f 71bd 57ef 013d
000002f0: 7ada 693e 0201 68bc 59c1 8cbd 591b c3be
00000300: 5873 82be 9956 1e3e 929d 85bd 64a0 0b3d
00000310: 6e11 593d 97df 5fbe 1fe0 6e3e f1b1 90bd
00000320: fe93 853e 33d0 153e 9511 b13e 85a1 c5bd
00000330: eef9 36bb f6ae 2e3d 5960 10bf 16ca b3bd
00000340: 717f a5bd 39c7 b33d 12e6 da3e 38a5 35bb
00000350: 6cd6 b1bc 7d4e 373d a171 ec3c 437c f2bd
00000360: f12a 03bd 037d 8e3d 1a83 193d b34b 8fbf
00000370: 2e34 f2bd 3a12 ed3d ba0e 413d 72f1 28be
00000380: 1387 2a3e 5d60 79bd 9a81 693d 572e a0bc
00000390: d1f0 fbbc bf07 8f3d 115d a93e 3b32 bf3d
000003a0: 40c7 383c 283d 1f3d 66f6 a23e 10d8 ec3c
000003b0: b322 1cbe ce90 91bd 0521 493e 9978 60bf
000003c0: 59d0 413c 6743 093e 2d71 483d 4219 bebd
000003d0: 694b 653e 2be4 11be 8a8f 3dbe 2c62 0ebd
000003e0: 9cc7 3b3e 890f 2b3c 580d cb3d daee a1bc
000003f0: 26ed 40bc 6f27 e8bc 084f bebc 1e68 7fbd

model.2.bias f4 [128]
0.34919187 0.14969671 0.12728058 0.09668344 -0.086390175 0.12645176 0.07780197 0.037855692
0.11671079 -0.055298325 -0.06202033 -0.2088257 0.11728784 0.001383029 -0.20044117 -0.014701957
-0.009093061 0.08245045 -0.087590635 -0.043801237 0.026498951 0.15844923 0.005126707 0.19604442
0.07300145 0.1811582 0.0773601 -0.04624542 0.16168387 -0.025091458 0.28093463 -0.064845115
0.39518481 -0.021107864 -0.020045787 -0.06668281 0.0041038557 0.047140833 -0.01463733 -0.05309864
0.1336852 -0.010907476 0.06782209 -0.057148825 -0.08286283 -0.0052416483 0.010617812 0.1797611
0.05038278 0.30409905 0.0122123 -0.02212527 -0.045821827 -0.018343255 0.053171843 0.013317293
-0.041816104 0.15653978 0.2293956 -0.032028347 -0.056008276 0.20425177 -0.28507805 0.05601018
0.0828327 0.14447986 0.35296428 -0.09884025 0.089448825 0.123794995 0.061662275 0.101336196
-0.075992875 -0.011878063 0.4286513 -0.12995183 -0.025811117 -0.08875821 0.14368469 -0.029360406
0.0036741772 0.20726976 -0.016765535 0.056634896 -0.07071927 0.241331 0.07798784 -0.090374485
0.23362224 0.08069285 0.14521295 -0.026724434 0.09545737 -0.006641031 -0.03365066 0.1738427
0.2340491 0.012005867 -0.06255053 0.027783893 0.18342328 0.17003173 0.090085715 0.17945555
-0.102534615 -0.5949331 -0.052866414 0.05772343 0.08343611 0.49745098 0.22473678 -0.05398502
0.18610853 2.4315725e-05 0.24373601 0.033005394 -0.140087 0.10724441 0.44139746 0.09474543
0.19372058 0.47740197 -0.03570802 -0.07081483 -0.04626885 -0.025423937 0.05154807 -0.009323495
00000000: 47c9 b23e 184a 193e d755 023e f801 c63d
00000010: 55ed b0bd 927c 013e a456 9f3d 920e 1b3d
00000020: 1106 ef3d 7f80 62bd 0809 7ebd 68d6 55be
00000030: 9b34 f03d c146 b53a 7340 4dbe 7ae0 70bc
00000040: 10fb 14bc c8db a83d b862 b3bd ed68 33bd
00000050: 5414 d93c 8440 223e effd a73b debf 483e
00000060: c981 953d 8981 393e f96e 9e3d d66b 3dbd
00000070: 7590 253e 9a8c cdbc aad6 8f3e 84cd 84bd
00000080: aa55 ca3e 66ea acbc 1037 a4bc ff90 88bd
00000090: a379 863b bf16 413d 69d1 6fbc f67d 59bd
000000a0: c6e4 083e 45b5 32bc 4fe6 8a3d e314 6abd
000000b0: fdb3 a9bd 22c2 abbb 55f6 2d3c 4b13 383e
000000c0: 2d5e 4e3d dfb2 9b3e 1916 483c 0e40 b5bc
000000d0: abaf 3bbd 9844 96bc b8ca 593d c630 5a3c
000000e0: 5d47 2bbd f74b 203e aee6 6a3e 2830 03bd
000000f0: ef68 65bd 6027 513e c0f5 91be ee6a 653d
00000100: 31a4 a93d 87f2 133e bcb7 b43e c26c cabd
00000110: f230 b73d 3b88 fd3d 9591 7c3d 5a89 cf3d
00000120: 27a2 9bbd 359c 42bc 2f78 db3e 1812 05be
00000130: d671 d3bc ddc6 b5bd 1422 133e 3c85 f0bc
00000140: 77ca 703b 863e 543e e057 89bc fef9 673d
00000150: 44d5 90bd 791f 773e 17b8 9f3d 4216 b9bd
00000160: ab3a 6f3e 4b42 a53d b4b2 143e 33ed dabc
00000170: 277f c33d 019d d9bb 46d5 09bd d203 323e
00000180: 91aa 6f3e 42b4 443c 7e1a 80bd 0c9b e33c
00000190: 50d3 3b3e cc1c 2e3e dc7e b83d 32c3 373e
000001a0: abfd d1bd 894d 18bf 748a 58bd 676f 6c3d
000001b0: 8de0 aa3d e5b1 fe3e 6621 663e 651f 5dbd
000001c0: 3c93 3e3e 9ff9 cb37 ef95 793e aa30 073d
000001d0: f772 0fbe f5a2 db3d d9fe e13e e409 c23d
000001e0: b05e 463e 086e f43e 9342 12bd 5e07 91bd
000001f0: 6884 3dbd dc45 d0bc 1224 533d 93c1 18bc

model.4.weight f4 [64, 128]
-0.20107277 -0.014505595 0.2753916 -0.15219182 -0.12353077 -0.102861285 0.052052192 0.012602061
-0.40158695 0.033402696 -0.020252926 -0.2014865 -0.15042233 -0.048415437 -0.30354986 0.09282311
0.020801343 0.035459742 -0.034085672 -0.048468716 0.008094743 -0.5085644 0.10247359 0.17094794
0.22460546 0.28173563 0.20908919 -0.033651117 0.07850361 0.052388676 0.10163924 0.05036119
0.24241143 -0.028109672 0.32857528 0.041181885 -0.014772542 0.17438087 0.0056064883 0.034004945
0.16689137 -0.09643457 -0.13790806 -0.01870686 0.007955997 -0.33058682 -0.010227327 -0.23427904
-0.39929914 -0.7578514 -0.040673103 -0.0004477579 0.053818014 0.0624535 0.11541437 0.0028410826
-0.023984918 -0.026783558 -0.3466838 -0.019167198 0.065037236 0.025010271 0.5067421 0.24840155
0.04303021 0.11616806 0.12407015 -0.027840573 0.12459019 -0.14554232 -0.10171748 0.51894766
0.035524387 0.70046103 -0.11762988 -0.10315721 -0.0662257 0.019663045 0.40877506 0.12015864
0.015061695 -0.0873897 0.056378115 0.2681588 0.088345945 -0.0033619034 -0.25451988 0.0733211
0.58377284 0.02711047 -0.47404963 -0.03843011 -0.052218437 0.086890996 1.1827154 -0.14577112
-0.23265003 0.073025495 -0.25583777 -0.040362135 -0.011167857 0.0977276 0.047093216 0.17156582
-0.039574042 -0.7067199 -0.040710717 0.0012936943 0.058227863 0.05998857 0.32798657 0.022511467
0.23901877 0.155381 0.32938454 -0.16749838 -0.010092444 0.09127994 0.14316091 0.167307
0.071766734 0.058832772 0.03142785 -0.0428733 -0.051954865 -0.030224599 -0.15630259 -0.060913328
0.014349597 0.055731125 0.011744247 -0.0153262885 -0.018826427 0.09866449 -0.0068865903 0.00783394
0.05497589 -0.03275469 -0.066062085 0.06052805 0.043934 0.020769693 -0.09489396 0.047170423
-0.019938963 -0.08845659 -0.061488606 0.069051936 -0.082226306 -0.08388126 0.066522114 0.05644728
0.018870082 -0.05843607 -0.096434854 -0.006670162 -0.0068749753 -0.047125675 -0.044067487 0.045537345
-0.06913836 -0.050051026 -0.031264324 -0.08735399 0.061392765 -0.009735096 0.019205421 0.034845334
0.018840134 0.035811484 -0.020374613 0.07657448 -0.008363545 -0.07653883 0.03215957 0.06556423
-0.03171938 -0.017621547 0.012939671 0.07525248 -0.08204174 -0.03998994 -0.05271601 -0.07182251
-0.061246034 -0.011501662 -0.0885872 -0.077779904 -0.053152278 0.07705466 0.046376467 -0.021044
-0.005449013 -0.06746693 -0.03767767 0.01760441 -0.04250771 -0.097059466 -0.018706612 -0.07769341
-0.0025579259 0.028462477 -0.014663901 0.0016413827 -0.06398441 0.05402585 -0.0457633 0.015671289
0.037142776 0.028975816 0.040436942 0.014566308 -0.04548633 0.05633635 -0.08375374 0.06282141
-0.018570568 -0.07160749 -0.036125503 -0.029539779 -0.05184958 0.045359544 -0.03605482 0.055107053
-0.065840125 0.04701715 -0.08492888 0.01846977 -0.09125075 -0.06667039 -0.08247894 0.0036916276
0.066144325 -0.022804826 0.05890573 0.056036253 -0.09024124 -0.03860736 -0.10014785 -0.023016246
-0.07861405 0.008192233 0.019699752 -0.046411976 -0.014086887 -0.098786354 0.0044067614 -0.029375728
0.059585437 -0.052071244 -0.048909035 -0.04276666 0.044415437 -0.024513878 0.003928185 0.053572826
00000000: 05e6 4dbe e0a8 6dbc 2100 8d3e 2cd8 1bbe
00000010: b3fd fcbd f0a8 d2bd ae34 553d e078 4e3c
00000020: ce9c cdbe 44d1 083d 77e9 a5bc 7a52 4ebe
00000030: 5008 1abe 444f 46bd e36a 9bbe 0b1a be3d
00000040: 9467 aa3c 3c3e 113d 6b9d 0bbd 2287 46bd
00000050: d09f 043c 4731 02bf acdd d13d fa0c 2f3e
00000060: f9fe 653e a73f 903e 7a1b 563e c1d5 09bd
00000070: 80c6 a03d 8295 563d 3c28 d03d 8947 4e3d
00000080: b43a 783e 4146 e6bc 053b a83e 56ae 283d
00000090: 8808 72bc e690 323e a2b6 b73b c548 0b3d
000000a0: 92e5 2a3e 7d7f c5bd c537 0dbe 213f 99bc
000000b0: df59 023c ad42 a9be 8590 27bc d8e6 6fbe
000000c0: f070 ccbe 8d02 42bf d798 26bd 0cc1 eab9
000000d0: 4770 5c3d 3ecf 7f3d 5f5e ec3d 7531 3a3b
000000e0: 057c c4bc 3169 dbbc 8a80 b1be 8704 9dbc
000000f0: 3e32 853d 57e2 cc3c dab9 013f fa5c 7e3e
00000100: 7240 303d 85e9 ed3d 7e18 fe3d ea11 e4bc
00000110: 2429 ff3d 0c09 15be 4151 d0bd c1d9 043f
00000120: 0582 113d 6a51 333f efe7 f0bd 1644 d3bd
00000130: 57a1 87bd 6514 a13c f74a d13e bc15 f63d
00000140: 54c5 763c 5ff9 b2bd bdec 663d 1c4c 893e
00000150: b8ee b43d 6153 5cbb 6e50 82be 5f29 963d
00000160: 2372 153f c716 de3c a2b6 f2be e468 1dbd
00000170: 00e3 55bd e8f3 b13d 3863 973f 0645 15be
00000180: cf3b 6ebe 648e 953d 2bfd 82be c452 25bd
00000190: 63f9 36bc 6825 c83d d1e4 403d f3ae 2f3e
000001a0: 6418 22bd 98eb 34bf 48c0 26bd 2d91 a93a
000001b0: 5780 6e3d 93b6 753d dbed a73e f869 b83c
000001c0: 56c1 743e 321c 1f3e 17a5 a83e b284 2bbe
000001d0: c75a 25bc faf0 ba3d c698 123e 8752 2b3e
000001e0: 70fa 923d a2fa 703d 7dba 003d ea9b 2fbd
000001f0: a0ce 54bd 9499 f7bc c90d 20be 4180 79bd
00000200: 921a 6b3c 5246 643d f16a 403c 1d1b 7bbc
00000210: e139 9abc 9c10 ca3d e8a8 e1bb ed59 003c
00000220: 662e 613d c829 06bd 8f4b 87bd 43ec 773d
00000230: 23f4 333d 3425 aa3c c457 c2bd c635 413d
00000240: 0957 a3bc bb28 b5bd 7adb 7bbd 1a6b 8d3d
00000250: 4466 a8bd f0c9 abbd bf3c 883d 4335 673d
00000260: 6e95 9a3c a95a 6fbd a37f c5bd 6091 dabb
00000270: 7947 e1bb da06 41bd 1c80 34bd 5e85 3a3d
00000280: 6a98 8dbd 4e02 4dbd 050f 00bd a6e6 b2bd
00000290: fb76 7b3d f47f 1fbc b054 9d3c fbb9 0e3d
000002a0: a056 9a3c 10af 123d a9e8 a6bc 15d3 9c3d
000002b0: 4007 09bc 64c0 9cbd c1b9 033d 8a46 863d
000002c0: 2eec 01bd 105b 90bc ea00 543c f91d 9a3d
000002d0: 8005 a8bd 7ecc 23bd beec 57bd ae17 93bd
000002e0: 1fdd 7abd 7871 3cbc 356d b5bd 124b 9fbd
000002f0: 34b6 59bd d5ce 9d3d 40f5 3d3d 7764 acbc
00000300: a28d b2bb 1a2c 8abd e753 1abd 2037 903c
00000310: 911c 2ebd 1dc7 c6bd 9c3e 99bc b91d 9fbd
00000320: e0a2 27bb 242a e93c dc40 70bc aa23 d73a
00000330: 420a 83bd 364a 5d3d 4c72 3bbd 1361 803c
00000340: 0623 183d b15e ed3c 35a1 253d 86a7 6e3c
00000350: e04f 3abd f2c0 663d 1587 abbd 83a8 803d
00000360: 4e21 98bc f3a6 92bd 56f8 13bd 68fd f1bc
00000370: 3a60 54bd eeca 393d 38ae 13bd efb7 613d
00000380: 30d7 86bd 0e95 403d 31ef adbd ea4d 973c
00000390: ace1 babd 7c8a 88bd b8ea a8bd 3cef 713b
000003a0: ad76 873d 30d1 babc 2247 713d 4586 653d
000003b0: 66d0 b8bd c022 1ebd 511a cdbd 918c bcbc
000003c0: 6700 a1bd b738 063c 6061 a13c 7c1a 3ebd
000003d0: b0cc 66bc 8050 cabd 9866 903b 5ea5 f0bc
000003e0: dc0f 743d a848 55bd d754 48bd 182c 2fbd
000003f0: f6ec 353d 54d1 c8bc 01b8 803b 2e6f 5b3d

model.4.bias f4 [64]
0.09490063 -0.006001313 0.07801519 0.08219369 0.39324638 0.3514505 0.25822872 -0.01693932
0.3719501 0.004607732 0.28289032 -0.17353961 0.3857401 -0.086651124 0.20015039 -0.02560728
0.00521381 0.50083256 -0.10752263 0.07142425 0.2843073 -0.17531957 0.30403024 0.0036177703
-0.06201743 0.08819833 -0.0043219132 0.69041985 -0.14810221 0.16074617 -0.047437362 0.16881426
0.20659699 -0.124024324 -0.08510113 0.073966436 0.011415523 0.030595815 -0.05378692 0.1540465
0.1709647 0.23684344 -0.090279564 0.20774868 -0.09268439 0.52716744 -0.12189368 0.16362399
0.107035995 -0.0948486 0.031732194 0.33964097 0.17510562 0.19563037 0.23157188 -0.0034781315
-0.041373156 -0.069987565 -0.087552674 0.1301333 -0.031845562 -0.1270058 -0.039131444 0.0070670596
00000000: 435b c23d aaa6 c4bb 6ec6 9f3d 2a55 a83d
00000010: 9757 c93e 52f1 b33e 8e36 843e 54c4 8abc
00000020: 3e70 be3e 75fc 963b 00d7 903e 5eb4 31be
00000030: ba7f c53e 2576 b1bd 39f4 4c3e 5cc6 d1bc
00000040: 9cd8 aa3b 9036 003f d334 dcbd e146 923d
00000050: ba90 913e f986 33be daa9 9b3e 1d18 6d3b
00000060: fd05 7ebd 53a1 b43d d69e 8dbb 5bbf 303f
00000070: 1ba8 17be a59a 243e ae4d 42bd a5dd 2c3e
00000080: 298e 533e 7700 febd 8049 aebd b77b 973d
00000090: 2c08 3b3c 13a4 fa3c ac4f 5cbd 5ebe 1d3e
000000a0: 5f11 2f3e 1687 723e 7ee4 b8bd 12bc 543e
000000b0: 50d1 bdbd 72f4 063f 65a3 f9bd 0c8d 273e
000000c0: b035 db3d fc3f c2bd 9ef9 013d 6ce5 ad3e
000000d0: e34e 333e 5453 483e 2e21 6d3e 5df1 63bb
000000e0: e676 29bd a455 8fbd d14e b3bd aa41 053e
000000f0: 7e70 02bd cf0d 02be 4b48 20bd cb92 e73b

model.6.weight f4 [32, 64]
0.06808456 -0.05411032 -0.0033357795 -0.11464795 -0.1740844 0.044160556 0.045754015 0.09558674
0.023870356 -0.007609528 -0.024761744 -0.049313325 -0.07705541 -0.07982805 -0.052893013 -0.090719
-0.07121717 -0.16703872 -0.002649337 0.07061324 -0.14691436 0.15477924 0.059363123 0.056289267
-0.06524406 -0.15715028 -0.028936965 0.018910324 0.061510913 -0.15117645 -0.122236915 0.10386502
0.11060676 0.04269412 0.05511963 -0.11395233 -0.010491085 -0.05698328 -0.1480251 -0.16691385
0.037609383 -0.0075997724 0.0071951 -0.1571242 0.017467573 -0.10500616 -0.0990326 -0.040049303
-0.10808958 -0.09484453 0.042934157 -0.08246596 -0.20813785 -0.046812125 -0.13238695 0.01516142
-0.059167705 -0.12110481 -0.054949068 0.048295252 -0.03434061 -0.077055246 0.096588045 0.09307914
-0.07231809 -0.110183075 -0.2817555 0.14781657 0.40178126 -0.30118534 -0.31673717 0.10159528
-0.41792867 -0.12182454 -0.0811984 -0.13533592 0.5005861 0.063378625 -0.079710186 0.1897984
-0.01358664 0.16948739 0.11912899 0.075518966 -0.04883369 0.05117421 0.030869836 0.020666933
0.27244523 0.35086653 -0.020508064 0.3061547 -0.07730467 -0.20766895 -0.1708428 0.061222255
0.21626312 -0.08598744 -0.033493876 0.034785073 0.13734761 0.06559598 -0.22029108 -0.14502867
-0.08167292 0.27627563 0.054249734 0.21903062 -0.1490286 0.12525493 0.034835774 -0.0018650256
-0.33140534 0.0036749374 0.085320316 0.1761668 0.07583088 0.17292662 0.09690419 0.2446432
0.34045598 0.090008825 0.0655539 0.18521754 -0.021780793 0.008443322 -0.13127185 0.06495295
-0.037763175 -0.027653169 -0.19454709 0.03655469 -0.016432775 0.16588034 0.16480753 -0.006645043
0.23978351 0.043198485 -0.06349313 -0.11000542 0.18655041 0.10504233 -0.16988006 0.13762452
0.11973947 0.13448162 0.07286202 0.09957602 0.11614815 0.23103604 -0.10552157 -0.08884914
0.048091393 -0.0059972713 0.114029385 -0.13943371 0.0724347 0.09213146 -0.009217637 0.11416695
0.18819489 0.06315395 0.023249807 -0.12805125 -0.024239345 0.023501052 -0.13362893 -0.109749146
-0.050949696 0.010054991 0.03183467 -0.19217896 -0.0016580066 -0.04295121 -0.019951554 0.060796335
0.13236707 -0.09459966 0.015910288 -0.12336651 0.08829825 -0.12232415 -0.04898172 0.024864772
-0.16533554 0.034019396 -0.023175986 -0.3274069 0.064187735 -0.06492591 0.05181926 -0.023184972
0.17333789 -0.017262252 -0.11652167 -0.0016220077 0.3452203 -0.53625107 -0.36486608 0.020164624
-0.024132565 0.11159005 -1.0936121 0.021656187 0.04447905 0.046073686 0.074040316 -0.07457363
0.0924081 -0.09356197 -0.032123886 -0.20595565 -0.30920804 0.41191453 0.011480615 -0.043516103
0.021026889 0.115418665 0.14235732 -0.049515627 -0.17808942 0.020693757 -0.17854665 -0.15382624
0.4091081 0.018465329 -0.104275696 -0.15577652 -0.105767325 -0.06252894 -0.16870004 -0.2705039
0.07265187 -0.2766013 0.014516583 0.02948474 -0.077746265 -0.6701889 -0.10373064 0.07070716
-0.07494663 0.014220823 0.046310883 -0.030864961 -0.24960761 -0.14475559 -0.16998537 -0.23469861
-0.14280444 -0.061605398 0.12937902 -0.678606 0.12127243 0.043117385 0.035117924 -0.12041718
00000000: eb6f 8b3d c8a2 5dbd 189d 5abb 8bcc eabd
00000010: 2e43 32be b3e1 343d 9068 3b3d fbc2 c33d
00000020: c48b c33c 5959 f9bb 24d9 cabc c5fc 49bd
00000030: 3acf 9dbd e47c a3bd 58a6 58bd e2ca b9bd
00000040: 4fda 91bd 330c 2bbe 80a0 2dbb ad9d 903d
00000050: b870 16be 737e 1e3e bf26 733d 938f 663d
00000060: ad9e 85bd 01ec 20be 370d edbc d3e9 9a3c
00000070: def2 7b3d 00ce 1abe 5957 fabd 2fb7 d43d
00000080: cc85 e23d 08e0 2e3d 1fc5 613d d75f e9bd
00000090: cde2 2bbc 4d67 69bd e493 17be 77eb 2abe
000000a0: 4c0c 1a3d 8307 f9bb e0c4 eb3b 2be5 20be
000000b0: 2818 8f3c 780d d7bd 9bd1 cabd bd0a 24bd
000000c0: 125e ddbd d93d c2bd badb 2f3d eae3 a8bd
000000d0: 1722 55be 12be 3fbd 7290 07be 9b67 783c
000000e0: d659 72bd cc05 f8bd 4612 61bd 3ed1 453d
000000f0: bda8 0cbd 24cf 9dbd f4cf c53d 47a0 be3d
00000100: 821b 94bd aaa7 e1bd 4242 90be 3a5d 173e
00000110: 46b6 cd3e f734 9abe 602b a2be 3011 d03d
00000120: bffa d5be 257f f9bd 594b a6bd 8095 0abe
00000130: 6926 003f a7cc 813d 183f a3bd 835a 423e
00000140: 809a 5ebc 1a8e 2d3e e6f9 f33d b0a9 9a3d
00000150: d605 48bd 0c9c 513d bde2 fc3c b34d a93c
00000160: f17d 8b3e c7a4 b33e 8700 a8bc 4fc0 9c3e
00000170: e951 9ebd 2ba7 54be 6af1 2ebe 30c4 7a3d
00000180: 1474 5d3e 2f1a b0bd e030 09bd cb7a 0e3d
00000190: daa4 0c3e 2f57 863d fc93 61be 6582 14be
000001a0: 2244 a7bd 0074 8d3e f834 5e3d 9049 603e
000001b0: f49a 18be d442 003e f5af 0e3d e073 f4ba
000001c0: f6ad a9be 38d7 703b 6bbc ae3d 1265 343e
000001d0: 384d 9b3d ad13 313e b475 c63d bf83 7a3e
000001e0: 3f50 ae3e 8c56 b83d 2041 863d aba9 3d3e
000001f0: a26d b2bc dc55 0a3c 216c 06be 0d06 853d
00000200: 8fad 1abd e688 e2bc 5a37 47be 5fba 153d
00000210: 079e 86bc 89dc 293e 4ec3 283e a9be d9bb
00000220: cf89 753e e5f0 303d b008 82bd 864a e1bd
00000230: 1207 3f3e 6f20 d73d 0af5 2dbe 71ed 0c3e
00000240: f839 f53d 8db5 093e af38 953d 83ee cb3d
00000250: 15df ed3d b694 6c3e b11b d8bd 8af6 b5bd
00000260: 7bfb 443d c284 c4bb 3d88 e93d b6c7 0ebe
00000270: a558 943d 6baf bc3d 9205 17bc 5dd0 e93d
00000280: 29b6 403e dc56 813d 6176 be3c de1f 03be
00000290: 9791 c6bc 4785 c03c 06d6 08be 29c4 e0bd
000002a0: a1b0 50bd b0bd 243c 1265 023d 90ca 44be
000002b0: 7851 d9ba 9ced 2fbd 7171 a3bc 9405 793d
000002c0: 3c8b 073e 77bd c1bd 4b56 823c 95a7 fcbd
000002d0: b7d5 b43d 1585 fabd 0ea1 48bd 35b1 cb3c
000002e0: b84d 29be ec57 0b3d 91db bdbc e1a1 a7be
000002f0: dc74 833d e0f7 84bd 6f40 543d 69ee bdbc
00000300: 7d7f 313e 9169 8dbc eaa2 eebd 8c99 d4ba
00000310: b7c0 b03e c047 09bf bacf babe 4830 a53c
00000320: a8b1 c5bc 5389 e43d 7bfb 8bbf 5168 b13c
00000330: aa2f 363d c3b7 3c3d 73a2 973d 0fba 98bd
00000340: 7540 bd3d 6b9d bfbd 5694 03bd 0ae6 52be
00000350: 8450 9ebe 76e6 d23e 3019 3c3c f13d 32bd
00000360: 9540 ac3c 9f60 ec3d 1ec6 113e e6d0 4abd
00000370: 135d 36be f485 a93c efd4 36be a084 1dbe
00000380: 9e76 d13e 9a44 973c 7f8e d5bd e183 1fbe
00000390: 8a9c d8bd 2c0f 80bd b4bf 2cbe 7d7f 8abe
000003a0: 81ca 943d b09e 8dbe f6d6 6d3c fb89 f13c
000003b0: 6f39 9fbd 8091 2bbf bb70 d4bd eace 903d
000003c0: 9e7d 99bd 74fe 683c 7bb0 3d3d 84d8 fcbc
000003d0: 2399 7fbe cf3a 14be a510 2ebe d554 70be
000003e0: 543b 12be f155 7cbd ef7b 043e 1fb9 2dbf
000003f0: ae5d f83d db9b 303d d0d7 0f3d 489d f6bd

model.6.bias f4 [32]
0.0430893 0.54953706 -0.019870415 0.046075903 0.06301214 0.492408 0.1504704 0.12603186
0.24124214 0.17252526 0.5636187 0.08395478 -0.079753 0.42289048 -0.022178866 0.15172476
0.392472 0.25600684 0.1291844 0.3576143 0.23603773 0.2208175 -0.17512967 0.09068374
0.13478726 0.2268517 0.055036694 0.57136905 0.2754284 0.2039511 0.05577225 0.30066246
00000000: 687e 303d 76ae 0c3f 48c7 a2bc 16ba 3c3d
00000010: 820c 813d e71c fc3e ea14 1a3e 7f0e 013e
00000020: 2e08 773e 76aa 303e 5149 103f 7cf0 ab3d
00000030: 8a55 a3bd 1a85 d83e 74b0 b5bc bc5d 1b3e
00000040: 17f2 c83e 5413 833e ea48 043e 3919 b73e
00000050: e0b3 713e fc1d 623e 3155 33be 66b8 b93d
00000060: ac05 0a3e d04b 683e 286e 613d 3e45 123f
00000070: f404 8d3e 8fd8 503e 7171 643d 6ef0 993e

model.8.weight f4 [10, 32]
0.10469336 0.25886196 -0.30965737 -0.22246993 -0.04543853 0.20842214 0.023242395 0.0068956376
-0.1607702 -0.09535867 0.25907668 -0.091273785 0.020010563 0.013321422 0.17221318 0.2297736
0.32915124 -0.3937219 0.007738988 0.00045066644 -0.10846037 0.26722464 0.0832528 0.031001087
-0.0726608 -0.24870746 0.12494645 0.07371429 0.14428003 0.22311598 -0.011272099 -0.21507666
-0.060198896 0.32285258 -0.1954941 -0.031644903 0.04365727 0.32604942 -0.03174852 -0.016361361
-0.23587435 -0.21940963 0.1769266 -0.012183677 0.069824725 0.15895262 -0.12755223 0.22630844
0.29463667 -0.30993494 0.10658364 0.22315653 -0.14810194 0.088697255 -0.0580688 0.023503635
-0.18464889 -0.27823046 0.075990364 0.09620928 0.13608019 0.19154187 -0.114936285 -0.19761632
0.13026088 0.50307834 -0.17062096 0.04226185 0.016216865 0.32949802 0.06850378 0.069876105
-0.18928446 0.120724656 0.30916542 0.042458843 0.13160639 0.027406536 0.15857542 0.24033535
0.26695564 -0.30697113 -0.0972037 0.31037474 -0.37570494 0.16051953 0.07775272 0.26323107
-0.24721816 -0.23354687 -0.10577481 0.22801793 0.057443622 0.18954538 0.10549698 -0.1460477
0.0103394035 0.33968666 -0.2143799 -0.16151406 0.045005307 0.19339183 0.18621546 0.055532444
-0.25059906 0.054618683 0.2888088 -0.109117374 0.057738937 0.03783141 0.12961556 0.18137103
0.23057841 -0.24526723 -0.075465724 0.17785592 -0.064123236 0.19000715 -0.12220109 0.3464417
-0.2599884 -0.3376574 -0.14744897 0.26022416 0.019442808 0.19079028 0.005981395 -0.1543386
-0.14640003 0.21920717 -0.21650454 0.106165566 0.13807559 0.22649209 -0.054068215 -0.017777395
-0.2444418 0.057447236 0.31283855 -0.07104914 0.100479536 0.022376806 0.15769123 -0.0036459486
0.40594196 -0.32441697 0.13595644 0.164425 -0.24870984 0.21756223 -0.13279536 0.32757616
-0.19447985 -0.19853336 -0.020045776 0.13071252 -0.0949633 0.21413891 0.10957668 -0.22241075
0.079041 0.35584715 -0.31665394 -0.008939529 -0.12990578 0.1768924 0.18024804 -0.062225696
-0.22954714 0.14983983 0.19854282 -0.051342823 0.06610818 -0.02791015 0.10824828 -0.07430235
0.355637 -0.23735227 0.08124056 -0.23689441 -0.1798392 0.22188202 0.017876878 0.017781112
-0.23045777 -0.23293704 0.0016306737 0.15253249 0.060213484 0.21921097 0.1802411 -0.2568849
-0.08590963 0.30177802 -0.10039454 0.050938062 0.03494313 0.13253048 0.15031435 -0.017592067
-0.18445382 0.07350551 0.2450125 0.040586896 -0.079658754 0.0027215611 0.09625408 0.13477643
0.2606774 -0.34612873 0.19237953 0.037604716 -0.13693535 0.11593156 -0.05636275 0.036999617
-0.36634445 -0.20345354 0.03909762 0.19623965 0.18269248 0.23355485 -0.0050429762 -0.2014065
-0.08550875 0.3427787 -0.15691161 0.085940145 0.17473505 0.1997763 -0.01443295 0.0040571936
-0.14326593 -0.06507868 0.31229582 -0.057749916 -0.066033095 0.022660766 0.092794396 -0.14405507
0.30865404 -0.16929127 0.07271666 -0.15848581 -0.16554521 0.1714766 0.064708576 0.02301424
-0.22404577 -0.36167416 0.085871525 0.11164183 0.015758308 0.17059387 -0.15218379 -0.3954668
00000000: 7969 d63d 8e89 843e 698b 9ebe 28cf 63be
00000010: c11d 3abd 9d6c 553e d666 be3c cdf4 e13b
00000020: f1a0 24be 684b c3bd b3a5 843e c0ed babd
00000030: 31ed a33c 1842 5a3c a758 303e c549 6b3e
00000040: 8386 a83e eb95 c9be 5697 fd3b 6d47 ec39
00000050: 7820 debd abd1 883e 7280 aa3d fef5 fd3c
00000060: 2fcf 94bd 2bad 7ebe ede3 ff3d 85f7 963d
00000070: 25be 133e 8478 643e 9cae 38bc 0e3d 5cbe
00000080: 1e93 76bd ef4c a53e 9b2f 48be 169e 01bd
00000090: f7d1 323d f3ef a63e bc0a 02bd 4308 86bc
000000a0: 0c89 71be ebac 60be 3f2c 353e 0c9e 47bc
000000b0: 4400 8f3d 7ac4 223e 0d9d 02be 66bd 673e
000000c0: 9eda 963e cbaf 9ebe 8648 da3d 2583 643e
000000d0: 09a8 17be e8a6 b53d 8dd9 6dbd b28a c03c
000000e0: 9914 3dbe 3974 8ebe d6a0 9b3d 5f09 c53d
000000f0: 9b58 0b3e 8d23 443e b763 ebbd ef5b 4abe
00000100: 1c63 053e bec9 003f 43b7 2ebe c31a 2d3d
00000110: 3bd9 843c f7b3 a83e b64b 8c3d 341b 8f3d
00000120: c9d3 41be 7d3e f73d ee4a 9e3e 53e9 2d3d
00000130: d3c3 063e ac83 e03c 9861 223e 781a 763e
00000140: 69ae 883e 522b 9dbe bc12 c7bd 70e9 9e3e
00000150: 665c c0be 3b5f 243e d13c 9f3d 39c6 863e
00000160: c226 7dbe e926 6fbe 77a0 d8bd 887d 693e
00000170: 014a 6b3d 2f18 423e cd0e d83d 878d 15be
00000180: 9a66 293c 69eb ad3e 6886 5bbe f163 25be
00000190: 7c57 383d 8208 463e 44af 3e3e fd75 633d
000001a0: 854e 80be d7b7 5f3d bfde 933e ee78 dfbd
000001b0: aa7f 6c3d 1cf5 1a3d f1b9 043e 54b9 393e
000001c0: bf1c 6c3e 5527 7bbe c68d 9abd dd1f 363e
000001d0: 0b53 83bd 3c91 423e 9144 fabd ce60 b13e
000001e0: 331d 85be 6ee1 acbe ddfc 16be 1a3c 853e
000001f0: 8646 9f3c 875e 433e 94ff c33b f00a 1ebe
00000200: e4e9 15be d877 603e 5eb3 5dbe 556d d93d
00000210: b063 0d3e 8bed 673e a276 5dbd e6a1 91bc
00000220: f44e 7abe cb4d 6b3d 602c a03e 3682 91bd
00000230: 37c8 cd3d 904f b73c cf79 213e def0 6ebb
00000240: a0d7 cf3e fb19 a6be 2a38 0b3e 075f 283e
00000250: cbad 7ebe a2c8 5e3e 82fb 07be 10b8 a73e
00000260: ba25 47be 544c 4bbe 0a37 a4bc 81d9 053e
00000270: 1e7c c2bd 3b47 5b3e bd69 e03d a5bf 63be
00000280: 3fe0 a13d 9931 b63e 7720 a2be 1a77 12bc
00000290: 0506 05be 4823 353e f192 383e 5fe0 7ebd
000002a0: 680e 6bbe 9d6f 193e cf4e 4b3e da4c 52bd
000002b0: ba63 873d d4a3 e4bc 46b1 dd3d d52b 98bd
000002c0: 0e16 b63e 790c 73be 7361 a63d 7394 72be
000002d0: c427 38be 0a35 633e 8872 923c b2a9 913c
000002e0: 1ffd 6bbe 0c87 6ebe 54bc d53a 7a31 1c3e
000002f0: 6aa2 763d d778 603e 1f91 383e 6b86 83be
00000300: 63f1 afbd a682 9a3e a79b cdbd 6ea4 503d
00000310: 8720 0f3d 12b6 073e 01ec 193e 3d1d 90bc
00000320: 76e1 3cbe 0f8a 963d 8fe4 7a3e 723e 263d
00000330: 2124 a3bd 385c 323b dc20 c53d d502 0a3e
00000340: 8277 853e c937 b1be 24ff 443e 6707 1a3d
00000350: c838 0cbe 876d ed3d a0dc 66bd e98c 173d
00000360: 8091 bbbe 2056 50be d324 203d 0cf3 483e
00000370: bd13 3b3e 0129 6f3e 8d3f a5bb 813d 4ebe
00000380: 361f afbd b180 af3e 70ad 20be 6301 b03d
00000390: bfed 323e 2992 4c3e 2e78 6cbc 35f2 843b
000003a0: 4eb4 12be f947 85bd 3de5 9f3e 2d8b 6cbd
000003b0: 5c3c 87bd 12a3 b93c fd0a be3d 2c83 13be
000003c0: e707 9e3e b15a 2dbe 79ec 943d 1b4a 22be
000003d0: af84 29be 9097 2f3e ee85 843d 5c88 bc3c
000003e0: 416c 65be 5b2d b9be 69dd af3d 79a4 e43d
000003f0: 9117 813c 29b0 2e3e 11d6 1bbe a07a cabe

model.8.bias f4 [10]
-0.107980885 -0.23697464 -0.13407765 -0.25903565 -0.13333888 0.0098012695 -0.009294489 0.101575024
0.007842534 0.11894281
00000000: 1525 ddbd 7ba9 72be a74b 09be 52a0 84be
00000010: fd89 08be 8195 203c ea47 18bc 9106 d03d
00000020: f97d 003c 4a98 f33d
