checkpoints/checkpoint_step_6400.pth (torch, 200878 bytes, 10 tensors)

model.0.weight f4 [256, 21]
0.117083244 -0.06023986 -0.01119778 -0.30060777 -0.24379466 -0.15999217 -0.4661741 -0.13128397
0.049227603 0.045241844 -0.28678375 -0.10855568 0.12837704 -0.63627255 -0.20276919 -0.186691
-0.122113556 0.024220003 0.10588842 -0.32856843 0.52702993 0.02692692 0.017837064 -0.17429006
-0.079256624 -1.1492834 -0.07521074 0.07999636 -0.087158866 -0.13459311 -0.30264637 -0.0261959
-0.066913374 -0.3345849 -0.34341288 -0.12538795 -0.023768373 -0.04980344 0.15470979 -0.08505341
0.13553846 -0.07140039 -0.054985397 -0.26181346 0.24800079 -0.026826022 0.12801237 0.085936196
-0.4858035 0.10731178 0.15224403 -0.17194363 0.03254432 -0.50496644 -0.11435334 -0.23722488
-0.21597072 0.08939443 -0.32387686 -0.04755575 -0.088578984 -0.18518466 -0.10437004 -0.08088846
-0.614837 0.2876739 -1.1781605 -1.6501154 0.12479835 0.014630692 0.13806084 -0.23399892
0.42074335 0.021889113 0.24917425 0.13776354 -0.12933111 0.03559446 0.28450713 0.05783205
0.1597871 0.19423513 0.19056967 -0.6372414 -0.044692796 -0.008881534 -0.26705167 0.052057836
0.061110176 -0.102211855 -0.10495355 0.27486113 0.14624824 -0.062368695 -0.3014061 0.011285516
-0.0741335 -0.069071546 -0.2253611 0.018399423 0.3293163 -0.8414097 -0.30270743 -0.021990713
0.13902718 -0.06064316 0.12879659 -0.109620966 0.143701 -0.0046624197 0.11081117 -0.11882151
0.042461988 -0.20651989 -0.03553647 0.146896 0.2699964 0.042075947 0.406705 -0.02029029
0.38253292 0.2157959 0.33215454 -0.07943734 0.23414072 0.0804673 -0.6442387 -0.0625259
0.2900412 -0.36698055 -0.7907868 -0.12559399 -0.27856928 -0.33190075 -0.38324338 -0.056105275
-0.27807274 -0.28179994 -0.07531135 -0.2028886 0.159706 0.16446148 0.10965773 0.099476084
-0.20954049 -0.096975565 -0.100763544 -0.1728602 -0.11749169 0.18108878 -0.1346787 0.182376
-0.060299795 -0.3430658 -0.07557548 -5.065284 -0.0327408 -0.07771087 -0.0346688 -0.09300056
-0.083169244 0.031475108 -0.010267158 -0.051706895 -0.19518389 -0.04886008 -0.24613985 -0.20985125
-0.020444693 -0.12821718 0.07532496 -0.21799606 0.0639887 0.0030131596 -0.350664 -0.10438176
0.18448599 -0.2964508 -0.31650004 -0.35770202 -0.018260613 -0.0775163 -0.17031111 -0.29850963
0.010300555 -0.0693477 -0.2571158 -0.06538978 0.028813953 0.17417365 -0.20689683 -0.3271555
-0.07014685 0.21608746 -0.23560494 -0.27815828 -0.080692284 0.03269993 0.032338645 -0.18564935
-0.5198464 -0.0979195 -0.3438175 0.081479914 -0.1220245 -0.1749132 -0.5245422 0.110215284
-0.21363194 -0.083116755 -0.2657155 0.17306668 -0.17711736 0.01832262 -0.44484863 -0.027453154
-0.2291573 0.17037338 -0.3443788 0.22188221 0.14220694 -0.21077468 0.1580207 0.4913359
0.20236607 -0.5041151 0.17952257 -0.23775877 -0.06269367 0.30456135 0.0021384468 -0.13695107
0.05845783 -0.13691783 -0.11807529 0.3227254 0.020929974 0.080370545 -0.07466414 -0.43169236
-0.20463969 -0.17158811 -0.2530663 -0.019911218 -0.09619123 -0.055950083 0.32901353 -0.2382943
-0.29898065 -0.04244237 -0.11053559 -0.05789415 -0.14410506 0.09014768 -0.3423179 -0.17577362
00000000: 57c9 ef3d 12be 76bd e576 37bc 43e9 99be
00000010: 4fa5 79be fdd4 23be 5fae eebe 4e6f 06be
00000020: e2a2 493d 834f 393d 52d5 92be 7152 debd
00000030: 4575 033e c2e2 22bf baa2 4fbe ed2b 3fbe
00000040: ac16 fabd 0769 c63c 07dc d83d 1f3a a8be
00000050: 6feb 063f d895 dc3c 091f 923c 1879 32be
00000060: 4c51 a2bd b81b 93bf 1708 9abd 22d5 a33d
00000070: 5980 b2bd c7d2 09be 77f4 9abe c998 d6bc
00000080: e109 89bd b64e abbe d0d3 afbe b365 00be
00000090: e4b5 c2bc b1fe 4bbd 3e6c 1e3e 7b30 aebd
000000a0: 98ca 0a3e 5e3a 92bd 5e38 61bd 6a0c 86be
000000b0: ebf3 7d3e 3fc2 dbbc ad15 033e 51ff af3d
000000c0: 3dbb f8be 47c6 db3d dce5 1b3e fe11 30be
000000d0: 314d 053d 7b45 01bf 1532 eabd 14eb 72be
000000e0: 6e27 5dbe 6d14 b73d 30d3 a5be d1c9 42bd
000000f0: e668 b5bd 0ca1 3dbe f6bf d5bd d9a8 a5bd
00000100: f565 1dbf fe49 933e f7cd 96bf fb36 d3bf
00000110: 4796 ff3d 92b5 6f3c d25f 0d3e 6a9d 6fbe
00000120: ac6b d73e cc50 b33c 8927 7f3e e311 0d3e
00000130: 606f 04be 7fcb 113d ebaa 913e 4de1 6c3d
00000140: 3b9f 233e 93e5 463e b224 433e 4122 23bf
00000150: cb0f 37bd db83 11bc ffba 88be 993a 553d
00000160: aa4e 7a3d 7354 d1bd e3f1 d6bd 99ba 8c3e
00000170: 19c2 153e 5176 7fbd e651 9abe e3e6 383c
00000180: 4ed3 97bd 6275 8dbd 0fc5 66be 63ba 963c
00000190: 259c a83e a066 57bf 78fc 9abe de25 b4bc
000001a0: 245d 0e3e f664 78bd 41e3 033e f580 e0bd
000001b0: 5b26 133e 36c7 98bb f7f0 e23d b158 f3bd
000001c0: 9fec 2d3d f379 53be b18e 11bd e86b 163e
000001d0: f83c 8a3e d457 2c3d a33b d03e d237 a6bc
000001e0: 5bdb c33e 9af9 5c3e 2910 aa3e 0bb0 a2bd
000001f0: 96c2 6f3e 0acc a43d d4ec 24bf 940d 80bd
00000200: 4880 943e e0e4 bbbe 0171 4abf b69b 00be
00000210: a2a0 8ebe e5ee a9be 7a38 c4be a5ce 65bd
00000220: 8d5f 8ebe 1548 90be d63c 9abd 07c2 4fbe
00000230: f889 233e 9768 283e 3b94 e03d 1eba cb3d
00000240: c891 56be 209b c6bd 1e5d cebd 4402 31be
00000250: 7c9f f0bd 566f 393e 37e9 09be c6c0 3a3e
00000260: ebfc 76bd 52a6 afbe 51c7 9abd ce16 a2c0
00000270: 381b 06bd e026 9fbd df00 0ebd 1477 bebd
00000280: a354 aabd 0bec 003d 9537 28bc 9cca 53bd
00000290: 49de 47be 8221 48bd 160c 7cbe 3fe3 56be
000002a0: a17b a7bc 5d4b 03be f943 9a3d 5c3a 5fbe
000002b0: 820c 833d 6e78 453b 3b8a b3be 1bc6 d5bd
000002c0: e5e9 3c3e 66c8 97be 4b0c a2be b824 b7be
000002d0: 4897 95bc dec0 9ebd 0966 2ebe 41d6 98be
000002e0: a9c3 283c 2b06 8ebd afa4 83be 14eb 85bd
000002f0: 3d0b ec3c 945a 323e c3dc 53be ed80 a7be
00000300: 27a9 8fbd 0846 5d3e 6c42 71be c36a 8ebe
00000310: ff41 a5bd 5df0 053d 8775 043d dd1a 3ebe
00000320: a714 05bf 058a c8bd d908 b0be f1de a63d
00000330: fbe7 f9bd 721c 33be 6648 06bf 8db8 e13d
00000340: 55c2 5abe 1e39 aabd dd0b 88be 6438 313e
00000350: 415e 35be 5219 963c 33c3 e3be 70e5 e0bc
00000360: 36a8 6abe 5c76 2e3e 6b52 b0be 1735 633e
00000370: b29e 113e 51d5 57be 2ed0 213e 6190 fb3e
00000380: 0d39 4f3e b00d 01bf c4d4 373e 0977 73be
00000390: 8a65 80bd 77ef 9b3e 2f25 0c3b e73c 0cbe
000003a0: 7a71 6f3d 3034 0cbe 75d1 f1bd 433c a53e
000003b0: 5675 ab3c 5099 a43d 83e9 98bd c806 ddbe
000003c0: 118d 51be cbb4 2fbe e891 81be da1c a3bc
000003d0: e8ff c4bd ea2b 65bd 7674 a83e 6c03 74be
000003e0: fe13 99be 0dd8 2dbd 7c60 e2bd 6b22 6dbd
000003f0: 4790 13be 599f b83d 4b44 afbe 00fe 33be

model.0.bias f4 [256]
0.1770803 0.007821449 -0.22780648 0.005011473 0.4137489 0.2740407 0.107497066 0.09000294
0.18763496 0.178507 -0.38676175 -0.017490588 -0.023689881 -0.47663587 0.6291574 0.49242207
-0.12303319 -0.11342914 0.52744794 -0.13251685 -0.08313084 -0.4149216 -0.14127861 -0.16853172
-0.57834584 -0.11815394 -0.21191454 0.14619659 0.010596205 -0.011694953 0.29669866 0.53476954
-0.07111127 -0.16567898 -0.31362736 0.091804 -0.09848302 -0.3597708 0.031460367 0.09608212
-0.05743316 0.28681824 -0.18158442 -0.1711748 0.3517816 -0.1912572 -0.14540505 -0.06588707
0.101441436 -0.12285025 -0.046771295 0.05866311 -0.3744237 -0.28155452 0.10650097 -0.4157211
-0.33333528 0.0040730573 -0.3819482 -0.050052058 0.06327096 -0.11805731 0.33413652 -0.12527362
-0.07071959 -0.052490957 -0.061309643 0.32929114 -0.30767587 0.16701579 0.05027032 0.2453921
-0.079877764 0.08459425 -0.19999844 -0.37166157 -0.049738888 -0.13123614 -0.18617235 0.39233944
0.03329912 0.19573015 -0.4936312 -0.15779783 0.067188144 -0.21246158 0.36171576 0.21380727
-0.12198704 0.0648239 0.22533382 -0.17478032 -0.21645786 -0.1430216 -0.18467206 -0.28171733
-0.2931558 -0.12181413 -0.36013362 0.3218172 0.4385553 -0.16151695 0.03624616 0.25354996
0.1007236 0.16740158 -0.02170611 0.10668773 -0.008625169 -0.13329358 -0.0031966034 -0.07471731
-0.010510131 -0.08480953 -0.09834383 -0.08922982 0.13418429 0.18181385 -0.039068643 0.15274303
-0.46565068 0.09471255 -0.13727194 0.08226381 -0.105762884 -0.45018247 0.3386673 0.19812502
-0.3090037 -0.1382228 -0.10847097 0.16865014 0.010353425 -0.1100816 0.3483368 0.060770255
-0.12235234 -0.22456269 -0.0073750084 0.4791624 -0.1202689 0.4247043 0.24302907 0.12086207
0.3235381 0.32605928 0.05125564 0.028582318 -0.7912003 -0.13928902 0.29483354 -0.18609183
0.34724298 -0.54439586 -0.2235319 0.05986933 -0.015126403 0.16432568 0.52563393 0.3609878
-0.1974331 -0.046446256 0.5600205 0.055162296 -0.06050484 0.46387887 -0.14313039 -0.12596375
-0.030807089 0.263122 0.017520387 -0.06974126 0.22553685 -0.32732913 0.24268559 0.06014762
-0.33313942 0.58946913 -0.06249363 -0.21012884 -0.3466534 0.22944936 0.20260905 0.049014486
-0.15147716 -0.0070911692 -0.2856472 -0.37525362 0.18234992 0.13765751 -0.23060289 0.100280695
0.5666351 0.16125198 -0.16411743 -0.33121958 0.32912022 0.040538747 0.15451393 -0.14660317
-0.32340512 0.09612598 -0.08790358 -0.030554451 0.023066498 -0.032644045 -0.28864604 -0.028171655
-0.09763765 -0.25084883 -0.0014171264 0.100896224 0.101765566 0.20375542 -0.12252652 -0.18037651
0.14613514 0.245863 -0.086050935 0.9137807 -0.04895295 -0.1650951 -0.01665106 -0.047262967
-0.25279287 -0.10561437 0.16340247 -0.24276678 0.059646755 0.15435301 0.12214671 -0.08592642
0.029519055 -0.024861502 0.7252566 -0.07216281 0.25297505 -0.20244502 0.2765558 0.6013405
-0.07242208 0.04682698 -0.037360135 -0.06216011 -0.20716712 -0.14511517 0.2568247 0.511245
-0.37561104 -0.19402201 0.07489631 0.052503377 0.15622306 -0.37712932 0.07117633 0.18538885
00000000: 8a54 353e 8925 003c 1a46 69be 4837 a43b
00000010: e5d6 d33e 104f 8c3e 6c27 dc3d 7653 b83d
00000020: 6123 403e 8aca 363e a305 c6be 6c48 8fbc
00000030: 4811 c2bc 9e09 f4be 7610 213f bf1e fc3e
00000040: d3f8 fbbd 894d e8bd d406 073f 7fb2 07be
00000050: 8040 aabd 9b70 d4be 57ab 10be 9493 2cbe
00000060: 790e 14bf b1fa f1bd 2000 59be 8fb4 153e
00000070: b49b 2d3c 309c 3fbc e3e8 973e a8e6 083f
00000080: c9a2 91bd c0a7 29be c493 a0be bc03 bc3d
00000090: 77b1 c9bd e133 b8be 96dc 003d b4c6 c43d
000000a0: 083f 6bbd d7d9 923e 44f1 39be 7248 2fbe
000000b0: b81c b43e edd8 43be 10e5 14be cdef 86bd
000000c0: 87c0 cf3d e998 fbbd 4293 3fbd bb48 703d
000000d0: 77b4 bfbe ea27 90be 2e1d da3d 65d9 d4be
000000e0: ecaa aabe 4877 853b b78e c3be 6303 4dbd
000000f0: 3494 813d 08c8 f1bd f113 ab3e ba47 00be
00000100: 6fd5 90bd c200 57bd d21f 7bbd d998 a83e
00000110: b187 9dbe 3006 2b3e 40e8 4d3d 1148 7b3e
00000120: f496 a3bd c03f ad3d 64cc 4cbe 6d4a bebe
00000130: 01bb 4bbd c462 06be f7a3 3ebe b7e0 c83e
00000140: a864 083d 7c6d 483e 3bbd fcbe c195 21be
00000150: f099 893d 878f 59be cf32 b93e 4bf0 5a3e
00000160: 57d4 f9bd 65c2 843d e9bd 663e 9df9 32be
00000170: 21a7 5dbe 4174 12be ac1a 3dbe 413d 90be
00000180: 8418 96be b079 f9bd 6f63 b8be 39c5 a43e
00000190: 528a e03e b364 25be da76 143d 4dd1 813e
000001a0: 2d48 ce3d 526b 2b3e 03d1 b1bc 197f da3d
000001b0: 9550 0dbc 1d7e 08be 1b7e 51bb 6405 99bd
000001c0: af32 2cbc 9eb0 adbd 7d68 c9bd 20be b6bd
000001d0: 9b67 093e 692d 3a3e 7106 20bd ab68 1c3e
000001e0: c469 eebe a7f8 c13d 0491 0cbe ee79 a83d
000001f0: 369a d8bd 517e e6be cd65 ad3e 49e1 4a3e
00000200: bc35 9ebe 478a 0dbe 0726 debd 9fb2 2c3e
00000210: 69a1 293c 7672 e1bd 3359 b23e 3bea 783d
00000220: dd93 fabd c3f3 65be 0eaa f1bb c654 f53e
00000230: 8b4f f6bd d872 d93e 9ddc 783e 8886 f73d
00000240: c9a6 a53e 3ef1 a63e 6ff1 513d 7725 ea3c
00000250: 1a8c 4abf c8a1 0ebe 6cf4 963e db8e 3ebe
00000260: d5c9 b13e 875d 0bbf 8ce5 64be 8b39 753d
00000270: bcd4 77bc fe44 283e f28f 063f 65d3 b83e
00000280: e72b 4abe 6e3e 3ebd 815d 0f3f dcf1 613d
00000290: ecd3 77bd 8881 ed3e c690 12be a4fc 00be
000002a0: 265f fcbc edb7 863e ea86 8f3c 81d4 8ebd
000002b0: 22f3 663e af97 a7be 9282 783e 5a5d 763d
000002c0: 4091 aabe 73e7 163f 52f9 7fbd 042c 57be
000002d0: 8e7c b1be c6f4 6a3e bf78 4f3e 6ac3 483d
000002e0: d41c 1bbe 0a5d e8bb 5a40 92be 3e21 c0be
000002f0: f0b9 3a3e 17f6 0c3e 2a23 6cbe f75f cd3d
00000300: ff0e 113f 3d1f 253e 660e 28be 9d95 a9be
00000310: 7282 a83e f50b 263d e638 1e3e 241f 16be
00000320: 5b95 a5be b3dd c43d cb06 b4bd 544d fabc
00000330: f4f5 bc3c c3b5 05bd 6ac9 93be 3ec8 e6bc
00000340: 40f6 c7bd 426f 80be dfbe b9ba aea2 ce3d
00000350: 776a d03d 43a5 503e 2fef fabd 9fb4 38be
00000360: 73a4 153e 83c3 7b3e 793b b0bd 88ed 693f
00000370: e382 48bd b10e 29be ce67 88bc d096 41bd
00000380: 116e 81be 594c d8bd fa52 273e db97 78be
00000390: 2850 743d b70e 1e3e 0e28 fa3d 31fa afbd
000003a0: f2d1 f13c 59aa cbbc 6baa 393f 18ca 93bd
000003b0: f285 813e bf4d 4fbe b998 8d3e 73f1 193f
000003c0: 0752 94bd a6cd 3f3d f106 19bd 999b 7ebd
000003d0: 9e23 54be 1299 14be 877e 833e f4e0 023f
000003e0: 1750 c0be b5ad 46be 3d63 993d c80d 573d
000003f0: f0f8 1f3e 1817 c1be e5c4 913d 93d6 3d3e

model.2.weight f4 [128, 256]
-0.1325452 0.056101415 0.0065261084 -0.27658907 -0.08471246 -0.10887164 -0.07835633 0.06796015
-0.043881577 -0.025980879 -0.19860266 -0.08691029 0.2532943 0.20812102 -0.036920544 -0.08361486
0.0117733395 -0.007325058 -0.5754593 0.11496039 -0.07138659 0.096062675 -0.0072762305 0.11714423
0.22038494 0.13177077 -0.061493542 0.11135867 -0.0020163667 0.040377274 0.24597317 0.22504508
-0.1354387 -0.022897296 0.08915355 -0.0050774817 0.004264146 -0.010461285 -0.046484828 0.21215475
0.09662301 -0.22417034 -0.3476611 -0.112431265 -0.11677193 -0.020636996 -0.06627411 -0.018679988
-0.04606505 0.07622404 0.07951583 0.04828923 0.22019392 -0.05347539 0.26783374 0.27389592
0.09680277 0.069272496 0.010301152 -0.11863674 -0.007943332 0.022941817 0.21159457 0.010675213
0.05699845 -0.49400762 -0.016734758 0.092673406 -0.12181738 0.06892421 -0.17594913 -0.15490586
-0.02348316 0.16531084 0.09727868 0.06027803 0.2187689 0.08113296 0.2008056 0.08101911
0.04205052 0.33309543 0.25773975 0.07202576 -0.016975475 -0.05792239 -0.05557573 -0.3906782
-0.007856486 -0.0049093813 0.0367963 -0.051136278 0.09091996 -0.022877874 0.5018751 -0.05113841
0.046774924 -0.11116332 0.1474118 0.30169734 0.5399387 0.021382561 -0.1252809 0.24569213
-0.23239742 0.08252121 0.10794445 0.053722188 0.07403798 -0.03721936 -0.012080064 0.036287595
-0.03485352 -0.038206235 -0.23703896 -0.019871246 -0.053317204 0.25322038 0.15828626 0.016303405
0.050789624 -0.005176044 -0.12093971 0.13486531 0.09241457 -0.075377524 0.17365623 0.107317105
0.113566436 0.0054812524 0.08783411 0.21723187 0.08728768 0.017375011 0.10157357 0.09896505
0.0755233 -0.06426702 0.083313525 0.5914638 -0.098674655 -0.14959209 0.030567564 0.004010733
0.16011506 0.039077427 0.040049456 0.31344768 0.4077793 -0.01337664 0.23956041 -0.02494585
0.44492856 -0.10293964 0.0487948 0.0633698 -0.025505774 -0.70705503 -0.49975857 0.12978731
0.005649165 0.10023456 0.06952168 -0.07962562 -0.08031492 0.03278502 0.1956228 0.10484818
0.0096562365 0.0064436956 0.448094 -0.038104158 0.039386008 0.08165061 0.20430611 -0.13955332
0.0006462759 0.23245898 -0.033168465 -0.2733476 0.06361317 0.5041131 -0.30249622 -0.04305885
-0.0177517 -0.05250133 -0.058913622 0.031722393 0.19713251 -0.0141603965 -0.06872816 -0.49526143
-0.3891471 0.110301904 -0.06524195 0.034088507 0.052995138 -0.35723156 0.3560552 -0.17043126
0.26089472 0.13317141 0.3410833 -0.13700947 -0.0027919966 0.048467163 -0.7524207 -0.08648455
-0.08080948 0.08778233 0.423718 -0.0027716886 -0.02170869 0.044752587 0.028862776 -0.11840107
-0.1467874 0.01571299 0.037478544 -1.5761175 -0.11826359 0.11575742 0.047133185 -0.19597478
0.16653089 -0.09306414 0.057008363 -0.019553347 -0.030754479 0.06983899 0.33078817 0.093357526
0.011277974 -0.02225975 0.35982537 0.02891162 -0.17208965 -0.071076974 0.2741105 -0.9245242
-0.02797045 0.13404618 0.048936058 -0.09282161 0.22392048 -0.16629916 -0.089328505 0.0074630403
0.18337864 0.12036861 0.099146545 -0.019767214 -0.03557474 -0.028339116 -0.023231044 -0.062355153
00000000: eeb9 07be 99ca 653d f7d8 d53b 159d 8dbe
00000010: ba7d adbd 18f8 debd 4979 a0bd b12e 8b3d
00000020: 2bbd 33bd dad5 d4bc 7f5e 4bbe 06fe b1bd
00000030: caaf 813e ad1d 553e ff39 17bd 453e abbd
00000040: f7e4 403c 0a07 f0bb 4d51 13bf 5a70 eb3d
00000050: 2233 92bd 82bc c43d 726d eebb 50e9 ef3d
00000060: 97ac 613e ebee 063e a7e0 7bbd 0410 e43d
00000070: 0525 04bb a462 253d 64e0 7b3e 3872 663e
00000080: 71b0 0abe 1c93 bbbc 2396 b63d 0161 a6bb
00000090: 40ba 8b3b cf65 2bbc e066 3ebd 183f 593e
000000a0: 49e2 c53d e98c 65be a300 b2be 5d42 e6bd
000000b0: 1f26 efbd eb0e a9bc b8ba 87bd c606 99bc
000000c0: b5ae 3cbd 591b 9c3d 32d9 a23d edca 453d
000000d0: 847a 613e 0309 5bbd 8121 893e 163c 8c3e
000000e0: 8840 c63d bdde 8d3d 2ac6 283c d2f7 f2bd
000000f0: c024 02bc 7af0 bb3c 3fac 583e 17e7 2e3c
00000100: 3577 693d 91ee fcbe 5517 89bc 8ecb bd3d
00000110: 647b f9bd 2328 8d3d 022c 34be a49f 1ebe
00000120: c25f c0bc 3f47 293e 0b3a c73d 18e6 763d
00000130: f404 603e 0a29 a63d fc9f 4d3e 59ed a53d
00000140: 2b3d 2c3d 7c8b aa3e 77f6 833e 3e82 933d
00000150: 2710 8bbc 0740 6dbd 60a3 63bd f906 c8be
00000160: 7eb8 00bc e0de a0bb b8b7 163d 4674 51bd
00000170: 3e34 ba3d 616a bbbc e37a 003f 8276 51bd
00000180: 1097 3f3d 98a9 e3bd 1ef3 163e 1378 9a3e
00000190: 6c39 0a3f 7b2a af3c a349 00be b896 7b3e
000001a0: 97f9 6dbe e100 a93d fb11 dd3d cc0b 5c3d
000001b0: 39a1 973d 5473 18bd 76eb 45bc 4da2 143d
000001c0: 91c2 0ebd 247e 1cbd 57ba 72be 06c9 a2bc
000001d0: 2463 5abd 1aa6 813e cb15 223e b88e 853c
000001e0: c808 503d ce9b a9bb 3daf f7bd 221a 0a3e
000001f0: da43 bd3d 885f 9abd f0d2 313e 12c9 db3d
00000200: 8595 e83d 149c b33b 5fe2 b33d 0872 5e3e
00000210: e2c3 b23d 0a56 8e3c ce05 d03d 30ae ca3d
00000220: f6ab 9a3d 6d9e 83bd 48a0 aa3d 2c6a 173f
00000230: f015 cabd ab2e 19be d468 fa3c 786c 833b
00000240: 34f5 233e a70f 203d e60a 243d 377c a03e
00000250: 73c8 d03e b229 5bbc 534f 753e 3d5b ccbc
00000260: adcd e33e 05d2 d2bd 0edd 473d 07c8 813d
00000270: 7cf1 d0bc 8f01 35bf 5be0 ffbe f7e6 043e
00000280: a11c b93b c747 cd3d 6261 8e3d c212 a3bd
00000290: 267c a4bd 9649 063d 5851 483e a5ba d63d
000002a0: 3135 1e3c a325 d33b 946c e53e 1b13 1cbd
000002b0: 3953 213d 6f38 a73d 9f35 513e 11e7 0ebe
000002c0: d76a 293a ba09 6e3e a8db 07bd 37f4 8bbe
000002d0: 9f47 823d 8e0d 013f c9e0 9abe 7a5e 30bd
000002e0: 036c 91bc a20b 57bd 694f 71bd 57ef 013d
000002f0: 1bdd 493e 0201 68bc 59c1 8cbd e892 fdbe
00000300: 4a3e c7be f7e5 e13d 929d 85bd 64a0 0b3d
00000310: 6e11 593d 0ee7 b6be de4c b63e 8885 2ebe
00000320: fe93 853e 165e 083e 78a2 ae3e 364c 0cbe
00000330: eef9 36bb 8185 463d a59e 40bf d01e b1bd
00000340: 717f a5bd 39c7 b33d 91f1 d83e 38a5 35bb
00000350: 6cd6 b1bc 7d4e 373d a171 ec3c 437c f2bd
00000360: 704f 16be 87b8 803c 1a83 193d 38be c9bf
00000370: 2e34 f2bd 3a12 ed3d ba0e 413d 9dad 48be
00000380: 1387 2a3e 6998 bebd 9a81 693d 572e a0bc
00000390: d1f0 fbbc bf07 8f3d 115d a93e 3b32 bf3d
000003a0: 40c7 383c 145a b6bc 083b b83e 10d8 ec3c
000003b0: 4538 30be ce90 91bd 3658 8c3e 9ead 6cbf
000003c0: 4922 e5bc 6743 093e 2d71 483d 4219 bebd
000003d0: 694b 653e 544a 2abe ddf1 b6bd 858c f43b
000003e0: 9cc7 3b3e d183 f63d 580d cb3d daee a1bc
000003f0: d2b6 11bd 6f27 e8bc 084f bebc 1e68 7fbd

model.2.bias f4 [128]
0.4240416 0.21452498 0.19672015 0.16971025 -0.086390175 0.02309585 0.14481477 0.037855692
0.18446988 -0.055298325 -0.06202033 -0.113622904 0.18547109 0.001383029 -0.20044117 -0.014701957
-0.009093061 0.08245045 -0.087590635 -0.043801237 0.026498951 0.15844923 0.005126707 0.19604442
0.07300145 0.17457469 0.146422 -0.04624542 0.23482595 -0.025091458 0.3517632 -0.064845115
0.49282905 -0.021107864 -0.020045787 -0.06668281 0.0041038557 0.047140833 -0.01463733 -0.05309864
0.1336852 -0.010907476 0.06782209 -0.057148825 -0.08286283 -0.013459646 0.010617812 0.15342098
0.11273303 0.24438329 0.0122123 -0.02212527 -0.045821827 -0.018343255 0.118954815 0.013317293
-0.041816104 0.15653978 0.48776966 -0.032028347 -0.056008276 0.20425177 -0.28507805 0.05601018
0.108693644 0.21815379 0.4296127 -0.09884025 0.1315286 0.015736844 0.13353482 0.101336196
-0.075992875 -0.07437324 0.5129834 -0.2190425 -0.025811117 -0.08875821 0.14368469 -0.029360406
0.0036741772 0.27551708 -0.016765535 0.056634896 -0.07071927 0.2527408 0.049424987 -0.090374485
0.19868137 0.08069285 0.14308667 -0.058410883 0.16819371 -0.006641031 0.0389004 0.24520086
0.2340491 0.012005867 -0.06255053 0.027783893 0.25543767 0.17003173 0.090085715 0.17945555
-0.102534615 -0.7154566 -0.052866414 0.11584652 0.08343611 0.48368555 0.29249784 -0.05398502
0.25791994 2.4315725e-05 0.24373601 0.033005394 -0.140087 0.08907339 0.5472317 0.09474543
0.19372058 0.5130599 -0.03570802 -0.07081483 -0.04626885 -0.025423937 0.05154807 -0.009323495
00000000: fb1b d93e 70ac 5b3e 0271 493e 86c8 2d3e
00000010: 55ed b0bd 8233 bd3c 534a 143e 920e 1b3d
00000020: ace5 3c3e 7f80 62bd 0809 7ebd 20b3 e8bd
00000030: 22ec 3d3e c146 b53a 7340 4dbe 7ae0 70bc
00000040: 10fb 14bc c8db a83d b862 b3bd ed68 33bd
00000050: 5414 d93c 8440 223e effd a73b debf 483e
00000060: c981 953d b5c3 323e a6ef 153e d66b 3dbd
00000070: 3776 703e 9a8c cdbc 4e1a b43e 84cd 84bd
00000080: 1754 fc3e 66ea acbc 1037 a4bc ff90 88bd
00000090: a379 863b bf16 413d 69d1 6fbc f67d 59bd
000000a0: c6e4 083e 45b5 32bc 4fe6 8a3d e314 6abd
000000b0: fdb3 a9bd d985 5cbc 55f6 2d3c 641a 1d3e
000000c0: 93e0 e63d 9d3f 7a3e 1916 483c 0e40 b5bc
000000d0: abaf 3bbd 9844 96bc 959e f33d c630 5a3c
000000e0: 5d47 2bbd f74b 203e f2bc f93e 2830 03bd
000000f0: ef68 65bd 6027 513e c0f5 91be ee6a 653d
00000100: c69a de3d b563 5f3e 32f6 db3e c26c cabd
00000110: 6faf 063e 8eea 803c 5abd 083e 5a89 cf3d
00000120: 27a2 9bbd ff50 98bd e152 033f ad4c 60be
00000130: d671 d3bc ddc6 b5bd 1422 133e 3c85 f0bc
00000140: 77ca 703b 9310 8d3e e057 89bc fef9 673d
00000150: 44d5 90bd 3e67 813e db71 4a3d 4216 b9bd
00000160: 2173 4b3e 4b42 a53d 5085 123e 4040 6fbd
00000170: f93a 2c3e 019d d9bb 0756 1f3d ef15 7b3e
00000180: 91aa 6f3e 42b4 443c 7e1a 80bd 0c9b e33c
00000190: bac8 823e cc1c 2e3e dc7e b83d 32c3 373e
000001a0: abfd d1bd 2a28 37bf 748a 58bd f140 ed3d
000001b0: 8de0 aa3d a2a5 f73e 47c2 953e 651f 5dbd
000001c0: 150e 843e 9ff9 cb37 ef95 793e aa30 073d
000001d0: f772 0fbe 1c6c b63d 6017 0c3f e409 c23d
000001e0: b05e 463e e557 033f 9342 12bd 5e07 91bd
000001f0: 6884 3dbd dc45 d0bc 1224 533d 93c1 18bc

model.4.weight f4 [64, 128]
-0.19430424 -0.049301554 0.30043456 -0.16706271 -0.12353077 -0.69801354 0.044132818 0.012602061
-0.4414229 0.033402696 -0.020252926 -0.3856338 -0.17436151 -0.048415437 -0.30354986 0.09282311
0.020801343 0.035459742 -0.034085672 -0.048468716 0.008094743 -0.5085644 0.10247359 0.17094794
0.22460546 0.29646954 0.20777938 -0.033651117 0.07232043 0.052388676 0.1262571 0.05036119
0.23345932 -0.028109672 0.32857528 0.041181885 -0.014772542 0.17438087 0.0056064883 0.034004945
0.16689137 -0.09643457 -0.13790806 -0.01870686 0.007955997 -0.51584893 -0.010227327 -0.4151613
-0.3826541 -0.7800341 -0.040673103 -0.0004477579 0.053818014 0.0624535 0.1243889 0.0028410826
-0.023984918 -0.026783558 -0.7691331 -0.019167198 0.065037236 0.025010271 0.5067421 0.24840155
0.0025425993 0.10731836 0.21761654 -0.027840573 0.08339081 -0.036045384 -0.11865515 0.51894766
0.035524387 1.4790046 0.034054037 -0.06272458 -0.0662257 0.019663045 0.40877506 0.12015864
0.015061695 -0.107495084 0.056378115 0.2681588 0.088345945 -0.19827016 -0.25665706 0.0733211
0.21274082 0.02711047 -0.6436561 -0.03843011 -0.069028325 0.086890996 1.1890467 -0.15157835
-0.23265003 0.073025495 -0.25583777 -0.040362135 -0.010287693 0.0977276 0.047093216 0.17156582
-0.039574042 -0.5858764 -0.040710717 0.027331023 0.058227863 0.05300051 0.3572233 0.022511467
0.24154083 0.155381 0.32938454 -0.16749838 -0.010092444 -0.022899006 0.28756636 0.167307
0.071766734 0.027980618 0.03142785 -0.0428733 -0.051954865 -0.030224599 -0.15630259 -0.060913328
0.014349597 0.055731125 0.011744247 -0.0153262885 -0.018826427 0.09866449 -0.0068865903 0.00783394
0.05497589 -0.03275469 -0.066062085 0.06052805 0.043934 0.020769693 -0.09489396 0.047170423
-0.019938963 -0.08845659 -0.061488606 0.069051936 -0.082226306 -0.08388126 0.066522114 0.05644728
0.018870082 -0.05843607 -0.096434854 -0.006670162 -0.0068749753 -0.047125675 -0.044067487 0.045537345
-0.06913836 -0.050051026 -0.031264324 -0.08735399 0.061392765 -0.009735096 0.019205421 0.034845334
0.018840134 0.035811484 -0.020374613 0.07657448 -0.008363545 -0.07653883 0.03215957 0.06556423
-0.03171938 -0.017621547 0.012939671 0.07525248 -0.08204174 -0.03998994 -0.05271601 -0.07182251
-0.061246034 -0.011501662 -0.0885872 -0.077779904 -0.053152278 0.07705466 0.046376467 -0.021044
-0.005449013 -0.06746693 -0.03767767 0.01760441 -0.04250771 -0.097059466 -0.018706612 -0.07769341
-0.0025579259 0.028462477 -0.014663901 0.0016413827 -0.06398441 0.05402585 -0.0457633 0.015671289
0.037142776 0.028975816 0.040436942 0.014566308 -0.04548633 0.05633635 -0.08375374 0.06282141
-0.018570568 -0.07160749 -0.036125503 -0.029539779 -0.05184958 0.045359544 -0.03605482 0.055107053
-0.065840125 0.04701715 -0.08492888 0.01846977 -0.09125075 -0.06667039 -0.08247894 0.0036916276
0.066144325 -0.022804826 0.05890573 0.056036253 -0.09024124 -0.03860736 -0.10014785 -0.023016246
-0.07861405 0.008192233 0.019699752 -0.046411976 -0.014086887 -0.098786354 0.0044067614 -0.029375728
0.059585437 -0.052071244 -0.048909035 -0.04276666 0.044415437 -0.024513878 0.003928185 0.053572826
00000000: b1f7 46be 6df0 49bd 8fd2 993e 7d12 2bbe
00000010: b3fd fcbd 04b1 32bf 9dc4 343d e078 4e3c
00000020: 2f02 e2be 44d1 083d 77e9 a5bc cb71 c5be
00000030: d38b 32be 444f 46bd e36a 9bbe 0b1a be3d
00000040: 9467 aa3c 3c3e 113d 6b9d 0bbd 2287 46bd
00000050: d09f 043c 4731 02bf acdd d13d fa0c 2f3e
00000060: f9fe 653e dbca 973e 1ec4 543e c1d5 09bd
00000070: bc1c 943d 8295 563d 8b49 013e 8947 4e3d
00000080: f60f 6f3e 4146 e6bc 053b a83e 56ae 283d
00000090: 8808 72bc e690 323e a2b6 b73b c548 0b3d
000000a0: 92e5 2a3e 7d7f c5bd c537 0dbe 213f 99bc
000000b0: df59 023c ad0e 04bf 8590 27bc 0690 d4be
000000c0: 3deb c3be 51b0 47bf d798 26bd 0cc1 eab9
000000d0: 4770 5c3d 3ecf 7f3d 9cbf fe3d 7531 3a3b
000000e0: 057c c4bc 3169 dbbc e8e5 44bf 8704 9dbc
000000f0: 3e32 853d 57e2 cc3c dab9 013f fa5c 7e3e
00000100: bda1 263b bac9 db3d dfd6 5e3e ea11 e4bc
00000110: cdc8 aa3d 53a4 13bd 7901 f3bd c1d9 043f
00000120: 0582 113d 0650 bd3f 3f7c 0b3d bf75 80bd
00000130: 57a1 87bd 6514 a13c f74a d13e bc15 f63d
00000140: 54c5 763c 6226 dcbd bdec 663d 1c4c 893e
00000150: b8ee b43d 5507 4bbe 8e68 83be 5f29 963d
00000160: bbd8 593e c716 de3c a5c6 24bf e468 1dbd
00000170: b95e 8dbd e8f3 b13d af32 983f 5b37 1bbe
00000180: cf3b 6ebe 648e 953d 2bfd 82be c452 25bd
00000190: b68d 28bc 6825 c83d d1e4 403d f3ae 2f3e
000001a0: 6418 22bd fffb 15bf 48c0 26bd 4fe5 df3c
000001b0: 5780 6e3d 1017 593d f9e5 b63e f869 b83c
000001c0: 7b56 773e 321c 1f3e 17a5 a83e b284 2bbe
000001d0: c75a 25bc b296 bbbc e63b 933e 8752 2b3e
000001e0: 70fa 923d 9c37 e53c 7dba 003d ea9b 2fbd
000001f0: a0ce 54bd 9499 f7bc c90d 20be 4180 79bd
00000200: 921a 6b3c 5246 643d f16a 403c 1d1b 7bbc
00000210: e139 9abc 9c10 ca3d e8a8 e1bb ed59 003c
00000220: 662e 613d c829 06bd 8f4b 87bd 43ec 773d
00000230: 23f4 333d 3425 aa3c c457 c2bd c635 413d
00000240: 0957 a3bc bb28 b5bd 7adb 7bbd 1a6b 8d3d
00000250: 4466 a8bd f0c9 abbd bf3c 883d 4335 673d
00000260: 6e95 9a3c a95a 6fbd a37f c5bd 6091 dabb
00000270: 7947 e1bb da06 41bd 1c80 34bd 5e85 3a3d
00000280: 6a98 8dbd 4e02 4dbd 050f 00bd a6e6 b2bd
00000290: fb76 7b3d f47f 1fbc b054 9d3c fbb9 0e3d
000002a0: a056 9a3c 10af 123d a9e8 a6bc 15d3 9c3d
000002b0: 4007 09bc 64c0 9cbd c1b9 033d 8a46 863d
000002c0: 2eec 01bd 105b 90bc ea00 543c f91d 9a3d
000002d0: 8005 a8bd 7ecc 23bd beec 57bd ae17 93bd
000002e0: 1fdd 7abd 7871 3cbc 356d b5bd 124b 9fbd
000002f0: 34b6 59bd d5ce 9d3d 40f5 3d3d 7764 acbc
00000300: a28d b2bb 1a2c 8abd e753 1abd 2037 903c
00000310: 911c 2ebd 1dc7 c6bd 9c3e 99bc b91d 9fbd
00000320: e0a2 27bb 242a e93c dc40 70bc aa23 d73a
00000330: 420a 83bd 364a 5d3d 4c72 3bbd 1361 803c
00000340: 0623 183d b15e ed3c 35a1 253d 86a7 6e3c
00000350: e04f 3abd f2c0 663d 1587 abbd 83a8 803d
00000360: 4e21 98bc f3a6 92bd 56f8 13bd 68fd f1bc
00000370: 3a60 54bd eeca 393d 38ae 13bd efb7 613d
00000380: 30d7 86bd 0e95 403d 31ef adbd ea4d 973c
00000390: ace1 babd 7c8a 88bd b8ea a8bd 3cef 713b
000003a0: ad76 873d 30d1 babc 2247 713d 4586 653d
000003b0: 66d0 b8bd c022 1ebd 511a cdbd 918c bcbc
000003c0: 6700 a1bd b738 063c 6061 a13c 7c1a 3ebd
000003d0: b0cc 66bc 8050 cabd 9866 903b 5ea5 f0bc
000003e0: dc0f 743d a848 55bd d754 48bd 182c 2fbd
000003f0: f6ec 353d 54d1 c8bc 01b8 803b 2e6f 5b3d

model.4.bias f4 [64]
0.08296614 -0.006001313 0.07801519 0.08219369 0.39324638 0.44133216 0.3465855 -0.01693932
0.46304968 0.004607732 0.41953102 -0.17353961 0.3857401 -0.086651124 0.20015039 -0.02560728
0.00521381 0.518599 -0.10752263 0.0048645665 0.36923608 -0.28890115 0.31041902 0.0036177703
-0.06201743 -0.038480412 -0.0043219132 0.63912237 -0.14810221 0.23631138 -0.047437362 -0.069991715
0.20659699 -0.124024324 -0.08510113 0.073966436 0.011415523 0.030595815 -0.13115978 0.098524936
0.08234775 0.23684344 -0.090279564 0.20774868 -0.09268439 0.5934872 -0.12189368 0.24276319
0.19472769 -0.0948486 0.031732194 0.33964097 0.23132923 0.19563037 0.23157188 -0.0034781315
-0.04206359 -0.069987565 -0.087552674 0.1301333 -0.031845562 -0.1270058 -0.039131444 0.0070670596
00000000: 27ea a93d aaa6 c4bb 6ec6 9f3d 2a55 a83d
00000010: 9757 c93e 4af6 e13e a873 b13e 54c4 8abc
00000020: d914 ed3e 75fc 963b c5cc d63e 5eb4 31be
00000030: ba7f c53e 2576 b1bd 39f4 4c3e 5cc6 d1bc
00000040: 9cd8 aa3b e7c2 043f d334 dcbd f166 9f3b
00000050: 830c bd3e daea 93be 3eef 9e3e 1d18 6d3b
00000060: fd05 7ebd a39d 1dbd d69e 8dbb 869d 233f
00000070: 1ba8 17be 9cfb 713e ae4d 42bd d157 8fbd
00000080: 298e 533e 7700 febd 8049 aebd b77b 973d
00000090: 2c08 3b3c 13a4 fa3c c04e 06be 71c7 c93d
000000a0: f0a5 a83d 1687 723e 7ee4 b8bd 12bc 543e
000000b0: 50d1 bdbd c7ee 173f 65a3 f9bd ea96 783e
000000c0: b266 473e fc3f c2bd 9ef9 013d 6ce5 ad3e
000000d0: 92e1 6c3e 5453 483e 2e21 6d3e 5df1 63bb
000000e0: df4a 2cbd a455 8fbd d14e b3bd aa41 053e
000000f0: 7e70 02bd cf0d 02be 4b48 20bd cb92 e73b

model.6.weight f4 [32, 64]
0.06808456 -0.05411032 -0.0033357795 -0.11464795 -0.1740844 0.044160556 0.045754015 0.09558674
0.023870356 -0.007609528 -0.024761744 -0.049313325 -0.07705541 -0.07982805 -0.052893013 -0.090719
-0.07121717 -0.16703872 -0.002649337 0.07061324 -0.14691436 0.15477924 0.059363123 0.056289267
-0.06524406 -0.15715028 -0.028936965 0.018910324 0.061510913 -0.15117645 -0.122236915 0.10386502
0.11060676 0.04269412 0.05511963 -0.11395233 -0.010491085 -0.05698328 -0.1480251 -0.16691385
0.037609383 -0.0075997724 0.0071951 -0.1571242 0.017467573 -0.10500616 -0.0990326 -0.040049303
-0.10808958 -0.09484453 0.042934157 -0.08246596 -0.20813785 -0.046812125 -0.13238695 0.01516142
-0.059167705 -0.12110481 -0.054949068 0.048295252 -0.03434061 -0.077055246 0.096588045 0.09307914
-0.07231809 -0.110183075 -0.2817555 0.14781657 0.40178126 -0.30118534 -0.31673717 0.10159528
-0.41792867 -0.12182454 -0.0811984 -0.13533592 0.5005861 0.063378625 -0.079710186 0.1897984
-0.01358664 0.16948739 0.11912899 0.075518966 -0.04883369 0.05117421 0.030869836 0.020666933
0.27244523 0.35086653 -0.020508064 0.3061547 -0.07730467 -0.20766895 -0.1708428 0.061222255
0.21626312 -0.08598744 -0.033493876 0.034785073 0.13734761 0.06559598 -0.22029108 -0.14502867
-0.08167292 0.27627563 0.054249734 0.21903062 -0.1490286 0.12525493 0.034835774 -0.0018650256
-0.33140534 0.0036749374 0.085320316 0.1761668 0.07583088 0.17292662 0.09690419 0.2446432
0.34045598 0.090008825 0.0655539 0.18521754 -0.021780793 0.008443322 -0.13127185 0.06495295
-0.06756518 -0.027653169 -0.19454709 0.03655469 -0.016432775 0.15798803 0.15554683 -0.006645043
0.23221958 0.043198485 -0.10924166 -0.11000542 0.18655041 0.10504233 -0.16988006 0.13762452
0.11973947 -0.08552514 0.07286202 0.0945384 0.10183284 0.2056485 0.009744808 -0.08884914
0.048091393 -0.0055360803 0.114029385 -0.09123455 0.0724347 0.07653402 -0.009217637 0.12510785
0.18819489 0.06315395 0.023249807 -0.12805125 -0.024239345 0.023501052 -0.0829673 -0.12505502
-0.008695291 0.010054991 0.03183467 -0.19217896 -0.0016580066 -0.10098285 -0.019951554 0.04273218
0.121387474 -0.09459966 0.015910288 -0.12336651 0.023759583 -0.12232415 -0.04898172 0.024864772
-0.16588758 0.034019396 -0.023175986 -0.3274069 0.064187735 -0.06492591 0.05181926 -0.023184972
0.17333789 -0.017262252 -0.11652167 -0.0016220077 0.3452203 -0.53625107 -0.36486608 0.020164624
-0.024132565 0.11159005 -1.0936121 0.021656187 0.04447905 0.046073686 0.074040316 -0.07457363
0.0924081 -0.09356197 -0.032123886 -0.20595565 -0.30920804 0.41191453 0.011480615 -0.043516103
0.021026889 0.115418665 0.14235732 -0.049515627 -0.17808942 0.020693757 -0.17854665 -0.15382624
0.4091081 0.018465329 -0.104275696 -0.15577652 -0.105767325 -0.06252894 -0.16870004 -0.2705039
0.07265187 -0.2766013 0.014516583 0.02948474 -0.077746265 -0.6701889 -0.10373064 0.07070716
-0.07494663 0.014220823 0.046310883 -0.030864961 -0.24960761 -0.14475559 -0.16998537 -0.23469861
-0.14280444 -0.061605398 0.12937902 -0.678606 0.12127243 0.043117385 0.035117924 -0.12041718
00000000: eb6f 8b3d c8a2 5dbd 189d 5abb 8bcc eabd
00000010: 2e43 32be b3e1 343d 9068 3b3d fbc2 c33d
00000020: c48b c33c 5959 f9bb 24d9 cabc c5fc 49bd
00000030: 3acf 9dbd e47c a3bd 58a6 58bd e2ca b9bd
00000040: 4fda 91bd 330c 2bbe 80a0 2dbb ad9d 903d
00000050: b870 16be 737e 1e3e bf26 733d 938f 663d
00000060: ad9e 85bd 01ec 20be 370d edbc d3e9 9a3c
00000070: def2 7b3d 00ce 1abe 5957 fabd 2fb7 d43d
00000080: cc85 e23d 08e0 2e3d 1fc5 613d d75f e9bd
00000090: cde2 2bbc 4d67 69bd e493 17be 77eb 2abe
000000a0: 4c0c 1a3d 8307 f9bb e0c4 eb3b 2be5 20be
000000b0: 2818 8f3c 780d d7bd 9bd1 cabd bd0a 24bd
000000c0: 125e ddbd d93d c2bd badb 2f3d eae3 a8bd
000000d0: 1722 55be 12be 3fbd 7290 07be 9b67 783c
000000e0: d659 72bd cc05 f8bd 4612 61bd 3ed1 453d
000000f0: bda8 0cbd 24cf 9dbd f4cf c53d 47a0 be3d
00000100: 821b 94bd aaa7 e1bd 4242 90be 3a5d 173e
00000110: 46b6 cd3e f734 9abe 602b a2be 3011 d03d
00000120: bffa d5be 257f f9bd 594b a6bd 8095 0abe
00000130: 6926 003f a7cc 813d 183f a3bd 835a 423e
00000140: 809a 5ebc 1a8e 2d3e e6f9 f33d b0a9 9a3d
00000150: d605 48bd 0c9c 513d bde2 fc3c b34d a93c
00000160: f17d 8b3e c7a4 b33e 8700 a8bc 4fc0 9c3e
00000170: e951 9ebd 2ba7 54be 6af1 2ebe 30c4 7a3d
00000180: 1474 5d3e 2f1a b0bd e030 09bd cb7a 0e3d
00000190: daa4 0c3e 2f57 863d fc93 61be 6582 14be
000001a0: 2244 a7bd 0074 8d3e f834 5e3d 9049 603e
000001b0: f49a 18be d442 003e f5af 0e3d e073 f4ba
000001c0: f6ad a9be 38d7 703b 6bbc ae3d 1265 343e
000001d0: 384d 9b3d ad13 313e b475 c63d bf83 7a3e
000001e0: 3f50 ae3e 8c56 b83d 2041 863d aba9 3d3e
000001f0: a26d b2bc dc55 0a3c 216c 06be 0d06 853d
00000200: 9d5f 8abd e688 e2bc 5a37 47be 5fba 153d
00000210: 079e 86bc 9dc7 213e ab47 1f3e a9be d9bb
00000220: f8ca 6d3e e5f0 303d 17ba dfbd 864a e1bd
00000230: 1207 3f3e 6f20 d73d 0af5 2dbe 71ed 0c3e
00000240: f839 f53d ce27 afbd af38 953d 599d c13d
00000250: bc8d d03d 8595 523e b0a8 1f3c 8af6 b5bd
00000260: 7bfb 443d 0268 b5bb 3d88 e93d 2ed9 babd
00000270: a558 943d debd 9c3d 9205 17bc 461c 003e
00000280: 29b6 403e dc56 813d 6176 be3c de1f 03be
00000290: 9791 c6bc 4785 c03c c3ea a9bd 6c0e 00be
000002a0: b276 0ebc b0bd 243c 1265 023d 90ca 44be
000002b0: 7851 d9ba 19d0 cebd 7171 a3bc f007 2f3d
000002c0: ff99 f83d 77bd c1bd 4b56 823c 95a7 fcbd
000002d0: 75a3 c23c 1585 fabd 0ea1 48bd 35b1 cb3c
000002e0: 6fde 29be ec57 0b3d 91db bdbc e1a1 a7be
000002f0: dc74 833d e0f7 84bd 6f40 543d 69ee bdbc
00000300: 7d7f 313e 9169 8dbc eaa2 eebd 8c99 d4ba
00000310: b7c0 b03e c047 09bf bacf babe 4830 a53c
00000320: a8b1 c5bc 5389 e43d 7bfb 8bbf 5168 b13c
00000330: aa2f 363d c3b7 3c3d 73a2 973d 0fba 98bd
00000340: 7540 bd3d 6b9d bfbd 5694 03bd 0ae6 52be
00000350: 8450 9ebe 76e6 d23e 3019 3c3c f13d 32bd
00000360: 9540 ac3c 9f60 ec3d 1ec6 113e e6d0 4abd
00000370: 135d 36be f485 a93c efd4 36be a084 1dbe
00000380: 9e76 d13e 9a44 973c 7f8e d5bd e183 1fbe
00000390: 8a9c d8bd 2c0f 80bd b4bf 2cbe 7d7f 8abe
000003a0: 81ca 943d b09e 8dbe f6d6 6d3c fb89 f13c
000003b0: 6f39 9fbd 8091 2bbf bb70 d4bd eace 903d
000003c0: 9e7d 99bd 74fe 683c 7bb0 3d3d 84d8 fcbc
000003d0: 2399 7fbe cf3a 14be a510 2ebe d554 70be
000003e0: 543b 12be f155 7cbd ef7b 043e 1fb9 2dbf
000003f0: ae5d f83d db9b 303d d0d7 0f3d 489d f6bd

model.6.bias f4 [32]
0.0430893 0.54953706 0.07491902 0.046075903 0.06301214 0.63618654 0.1504704 0.2927698
0.3367979 0.17252526 0.5636187 0.27596623 -0.079753 0.5650012 -0.022178866 0.15172476
0.392472 0.35970142 0.1291844 0.33234435 0.33130205 0.2208175 -0.17512967 0.18268052
0.23853786 0.3264141 0.055036694 0.5536457 0.2754284 0.2039511 0.05577225 0.39358103
00000000: 687e 303d 76ae 0c3f 256f 993d 16ba 3c3d
00000010: 820c 813d 1fdd 223f ea14 1a3e ece5 953e
00000020: c670 ac3e 76aa 303e 5149 103f 724b 8d3e
00000030: 8a55 a3bd eba3 103f 74b0 b5bc bc5d 1b3e
00000040: 17f2 c83e c92a b83e ea48 043e 0a29 aa3e
00000050: 6ca0 a93e fc1d 623e 3155 33be 9a10 3b3e
00000060: 4543 743e c01f a73e 286e 613d b9bb 0d3f
00000070: f404 8d3e 8fd8 503e 7171 643d 7483 c93e

model.8.weight f4 [10, 32]
0.10469336 0.25886196 -0.3244617 -0.22246993 -0.04543853 0.31121716 0.023242395 0.008568138
-0.18078066 -0.09535867 0.25907668 0.009402375 0.020010563 0.01505429 0.17221318 0.2297736
0.32915124 -0.41455245 0.007738988 0.00045066644 -0.13127474 0.26722464 0.0832528 0.07130201
-0.089428425 -0.2671612 0.12494645 0.12016254 0.14428003 0.22311598 -0.011272099 -0.22432448
-0.060198896 0.32285258 -0.19825001 -0.031644903 0.04365727 0.39336446 -0.03174852 0.057672724
-0.28366745 -0.21940963 0.1769266 -0.045005977 0.069824725 0.00062447024 -0.12755223 0.22630844
0.29463667 -0.31884322 0.10658364 0.20444964 -0.15070833 0.088697255 -0.0580688 0.24380451
-0.2191577 -0.29314125 0.075990364 0.119067386 0.13608019 0.19154187 -0.114936285 -0.21215284
0.13026088 0.50307834 -0.18644524 0.04226185 0.016216865 0.012909468 0.06850378 0.012048068
-0.20927721 0.120724656 0.30916542 0.022080388 0.13160639 0.02991572 0.15857542 0.24033535
0.26695564 -0.32714635 -0.0972037 0.27874252 -0.38355467 0.16051953 0.07775272 0.15118249
-0.2648237 -0.24786332 -0.10577481 0.053410444 0.057443622 0.18954538 0.10549698 -0.16104154
0.0103394035 0.33968666 -0.23304437 -0.16151406 0.045005307 0.19334634 0.18621546 0.03533046
-0.23222458 0.054618683 0.2888088 0.004545579 0.057738937 0.035907526 0.12961556 0.18137103
0.23057841 -0.27072546 -0.075465724 0.14937884 -0.096098505 0.19000715 -0.12220109 0.1634523
-0.26563534 -0.36594042 -0.14744897 0.08614732 0.019442808 0.19079028 0.005981395 -0.17012359
-0.14640003 0.21920717 -0.21382774 0.106165566 0.13807559 0.3107399 -0.054068215 0.03375791
-0.24488947 0.057447236 0.31283855 0.011647801 0.100479536 -0.09627187 0.15769123 -0.0036459486
0.40594196 -0.35424984 0.13595644 0.14591837 -0.23280385 0.21756223 -0.13279536 0.13615823
-0.21630123 -0.2256115 -0.020045776 0.08352868 -0.0949633 0.21413891 0.10957668 -0.25183553
0.079041 0.35584715 -0.3365135 -0.008939529 -0.12990578 0.19231446 0.18024804 -0.054284845
-0.24217196 0.14983983 0.19854282 -0.0073328787 0.06610818 0.015300216 0.10824828 -0.07430235
0.355637 -0.26264623 0.08124056 -0.23689441 -0.19731407 0.22188202 0.017876878 -0.019106315
-0.25274152 -0.25714546 0.0016306737 0.1103701 0.060213484 0.21921097 0.1802411 -0.2637568
-0.08590963 0.30177802 -0.11275198 0.050938062 0.03494313 0.09399914 0.15031435 -0.009799527
-0.21275426 0.07350551 0.2450125 0.03321557 -0.079658754 0.01647054 0.09625408 0.13477643
0.2606774 -0.36497936 0.19237953 0.037604716 -0.15061954 0.11593156 -0.05636275 -0.027931647
-0.37899968 -0.2166554 0.03909762 0.10061342 0.18269248 0.23355485 -0.0050429762 -0.2202747
-0.08550875 0.3427787 -0.17094609 0.085940145 0.17473505 -0.06613679 -0.01443295 0.00010106825
-0.16116692 -0.06507868 0.31229582 -0.0021256628 -0.066033095 0.019781217 0.092794396 -0.14405507
0.30865404 -0.19275752 0.07271666 -0.15848581 -0.18822725 0.1714766 0.064708576 0.030153815
-0.24088188 -0.38306355 0.085871525 0.050728533 0.015758308 0.17059387 -0.15218379 -0.4058958
00000000: 7969 d63d 8e89 843e d81f a6be 28cf 63be
00000010: c11d 3abd db57 9f3e d666 be3c 6061 0c3c
00000020: 911e 39be 684b c3bd b3a5 843e 6b0c 1a3c
00000030: 31ed a33c 45a6 763c a758 303e c549 6b3e
00000040: 8386 a83e 3840 d4be 5697 fd3b 6d47 ec39
00000050: e36c 06be abd1 883e 7280 aa3d ca06 923d
00000060: 4026 b7bd 5ac9 88be ede3 ff3d c717 f63d
00000070: 25be 133e 8478 643e 9cae 38bc 51b5 65be
00000080: 1e93 76bd ef4c a53e 0d02 4bbe 169e 01bd
00000090: f7d1 323d 1167 c93e bc0a 02bd 3c3a 6c3d
000000a0: dc3c 91be ebac 60be 3f2c 353e 3058 38bd
000000b0: 4400 8f3d 7db3 233a 0d9d 02be 66bd 673e
000000c0: 9eda 963e 6b3f a3be 8648 da3d 3f5b 513e
000000d0: 4953 1abe e8a6 b53d 8dd9 6dbd e4a7 793e
000000e0: e06a 60be 9c16 96be d6a0 9b3d 9ad9 f33d
000000f0: 9b58 0b3e 8d23 443e b763 ebbd 983e 59be
00000100: 1c63 053e bec9 003f 80eb 3ebe c31a 2d3d
00000110: 3bd9 843c 3c82 533c b64b 8c3d 4365 453c
00000120: c44c 56be 7d3e f73d ee4a 9e3e eee1 b43c
00000130: d3c3 063e d011 f53c 9861 223e 781a 763e
00000140: 69ae 883e ba7f a7be bc12 c7bd 57b7 8e3e
00000150: 4761 c4be 3b5f 243e d13c 9f3d 95cf 1a3e
00000160: f996 87be e2cf 7dbe 77a0 d8bd e9c4 5a3d
00000170: 014a 6b3d 2f18 423e cd0e d83d 13e8 24be
00000180: 9a66 293c 69eb ad3e 2fa3 6ebe f163 25be
00000190: 7c57 383d 95fc 453e 44af 3e3e acb6 103d
000001a0: 48cc 6dbe d7b7 5f3d bfde 933e 15f3 943b
000001b0: aa7f 6c3d c513 133d f1b9 043e 54b9 393e
000001c0: bf1c 6c3e 879c 8abe c68d 9abd c4f6 183e
000001d0: 4bcf c4bd 3c91 423e 9144 fabd 0a60 273e
000001e0: 5b01 88be 8b5c bbbe ddfc 16be 026e b03d
000001f0: 8646 9f3c 875e 433e 94ff c33b e134 2ebe
00000200: e4e9 15be d877 603e a9f5 5abe 556d d93d
00000210: b063 0d3e 4d19 9f3e a276 5dbd bc45 0a3d
00000220: 4ec4 7abe cb4d 6b3d 602c a03e 6bd6 3e3c
00000230: 37c8 cd3d 302a c5bd cf79 213e def0 6ebb
00000240: a0d7 cf3e 3c60 b5be 2a38 0b3e a06b 153e
00000250: 2264 6ebe a2c8 5e3e 82fb 07be 106d 0b3e
00000260: 127e 5dbe b306 67be 0a37 a4bc 1611 ab3d
00000270: 1e7c c2bd 3b47 5b3e bd69 e03d 96f0 80be
00000280: 3fe0 a13d 9931 b63e 7f4b acbe 1a77 12bc
00000290: 0506 05be 15ee 443e f192 383e c959 5ebd
000002a0: edfb 77be 9d6f 193e cf4e 4b3e a548 f0bb
000002b0: ba63 873d c2ad 7a3c 46b1 dd3d d52b 98bd
000002c0: 0e16 b63e 9179 86be 7361 a63d 7394 72be
000002d0: b30c 4abe 0a35 633e 8872 923c d984 9cbc
000002e0: 5667 81be 92a8 83be 54bc d53a b809 e23d
000002f0: 6aa2 763d d778 603e 1f91 383e 220b 87be
00000300: 63f1 afbd a682 9a3e 83ea e6bd 6ea4 503d
00000310: 8720 0f3d 9f82 c03d 01ec 193e 328e 20bc
00000320: 41dc 59be 0f8a 963d 8fe4 7a3e 0d0d 083d
00000330: 2124 a3bd 3aed 863c dc20 c53d d502 0a3e
00000340: 8277 853e 93de babe 24ff 443e 6707 1a3d
00000350: 023c 1abe 876d ed3d a0dc 66bd e9d0 e4bc
00000360: 3f0c c2be eada 5dbe d324 203d 690e ce3d
00000370: bd13 3b3e 0129 6f3e 8d3f a5bb b18f 61be
00000380: 361f afbd b180 af3e 7e0c 2fbe 6301 b03d
00000390: bfed 323e ba72 87bd 2e78 6cbc 9bf4 d338
000003a0: f108 25be f947 85bd 3de5 9f3e b44e 0bbb
000003b0: 5c3c 87bd 380c a23c fd0a be3d 2c83 13be
000003c0: e707 9e3e 3a62 45be 79ec 943d 1b4a 22be
000003d0: a5be 40be 9097 2f3e ee85 843d 2205 f73c
000003e0: bda9 76be e820 c4be 69dd af3d b9c8 4f3d
000003f0: 9117 813c 29b0 2e3e 11d6 1bbe 93d1 cfbe

model.8.bias f4 [10]
-0.15963657 -0.38308856 -0.3056414 -0.39590374 -0.22134443 -0.08222417 -0.11414317 0.018109888
-0.0142310085 0.07436651
00000000: c577 23be 2f24 c4be 087d 9cbe e5b3 cabe
00000010: 1da8 62be 2565 a8bd e5c3 e9bd 305b 943c
00000020: 2d29 69bc 784d 983d
