checkpoints/checkpoint_step_5800.pth (torch, 200878 bytes, 10 tensors)

model.0.weight f4 [256, 21]
00000000: 051c f93d 48ab 4fbd cf1e 613d 09d9 9dbe
00000010: 94e3 7cbe 7eac 14be 712b fabe a021 b0bd
00000020: ef2e 2f3c eede 003e c7ef 9cbe 4d4e f3bd
00000030: 9f24 2c3e 64b2 38bf a150 82be 7126 41be
00000040: 7144 f3bd b517 503d 2dfd a13d f7d9 a6be
00000050: 1569 f03e d895 dc3c 091f 923c 1879 32be
00000060: 4c51 a2bd b81b 93bf 1708 9abd 22d5 a33d
00000070: 5980 b2bd c7d2 09be 77f4 9abe c998 d6bc
00000080: e109 89bd b64e abbe d0d3 afbe b365 00be
00000090: e4b5 c2bc b1fe 4bbd 3e6c 1e3e 7b30 aebd
000000a0: 98ca 0a3e 5e3a 92bd 5e38 61bd 6a0c 86be
000000b0: ebf3 7d3e 3fc2 dbbc ad15 033e 51ff af3d
000000c0: 3dbb f8be 47c6 db3d dce5 1b3e fe11 30be
000000d0: 314d 053d 7b45 01bf 1532 eabd 14eb 72be
000000e0: 6e27 5dbe 6d14 b73d 30d3 a5be d1c9 42bd
000000f0: e668 b5bd 0ca1 3dbe f6bf d5bd 90e3 9cbe
00000100: d1d3 1dbf c602 8b3e 0be9 89bf da00 c3bf
00000110: cf82 b83d de91 68be a097 713e 2308 33be
00000120: a34c c43e d4b1 c8bd 3fd7 943e 459a c33d
00000130: 5e75 0abe 8064 b7bd 78c5 9f3e a409 8abd
00000140: 2547 4e3e 1562 853d 5970 3f3e e7fb 2bbf
00000150: 7ba5 8c3c be60 5abd 4da1 9bbe 1b92 953d
00000160: d7b7 4d3d 01a3 6abe 5f63 92bd 6e81 423e
00000170: d34c bc3d a0b9 b13b 76d1 77be 7e5f 92bd
00000180: ab42 d0bd 9776 febd 8a88 ccbe 21e5 bf3c
00000190: dc45 813e 51fa 2fbf 0069 a3be c837 a53d
000001a0: f21f 0d3e 0a6e b4bd c1c8 f33d 31cc 04be
000001b0: 63a8 123e 9253 23bc 411b e23d 9a5d 06be
000001c0: 9aaa c53c e3bc 50be 69c4 31bd 7954 093e
000001d0: 592c 883e 324a fe3c 0b28 d43e beb9 10bd
000001e0: 67b7 c53e 8973 4c3e 08a7 a93e b5a5 c8bd
000001f0: b409 693e b3e5 be3d d4ec 24bf 940d 80bd
00000200: 4880 943e e0e4 bbbe 0171 4abf b69b 00be
00000210: a2a0 8ebe e5ee a9be 7a38 c4be a5ce 65bd
00000220: 8d5f 8ebe 1548 90be d63c 9abd 07c2 4fbe
00000230: f889 233e 9768 283e 3b94 e03d 1eba cb3d
00000240: c891 56be 209b c6bd 1e5d cebd 4402 31be
00000250: 7c9f f0bd 566f 393e 37e9 09be c6c0 3a3e
00000260: ebfc 76bd 52a6 afbe 51c7 9abd ce16 a2c0
00000270: 381b 06bd e026 9fbd df00 0ebd 1477 bebd
00000280: a354 aabd 0bec 003d 9537 28bc 9cca 53bd
00000290: 49de 47be 8221 48bd 160c 7cbe 3fe3 56be
000002a0: a17b a7bc 5d4b 03be f943 9a3d 5c3a 5fbe
000002b0: 820c 833d 6e78 453b 3b8a b3be 1bc6 d5bd
000002c0: e5e9 3c3e 66c8 97be 4b0c a2be b824 b7be
000002d0: 4897 95bc dec0 9ebd 0966 2ebe 41d6 98be
000002e0: a9c3 283c 2b06 8ebd afa4 83be 14eb 85bd
000002f0: 3d0b ec3c 945a 323e c3dc 53be ed80 a7be
00000300: 27a9 8fbd 0846 5d3e 6c42 71be c36a 8ebe
00000310: ff41 a5bd 5df0 053d 8775 043d dd1a 3ebe
00000320: a714 05bf 058a c8bd d908 b0be f1de a63d
00000330: fbe7 f9bd 721c 33be 6648 06bf 8db8 e13d
00000340: 55c2 5abe 1e39 aabd 9626 6abe c8db 283e
00000350: bede 27be 1209 b7bb dd01 b5be b9a1 71bc
00000360: dc5e a2be 1448 383e 5f74 c5be 2f5e 883e
00000370: 7c36 2b3e 6575 75be 8fde 053e 0330 003f
00000380: 06ef 2d3e 4f48 00bf 6f17 383e fb04 7bbe
00000390: 0a19 01be ab8c 913e 0731 d93c e73c 0cbe
000003a0: 7a71 6f3d 3034 0cbe 75d1 f1bd 433c a53e
000003b0: 5675 ab3c 5099 a43d 83e9 98bd c806 ddbe
000003c0: 118d 51be cbb4 2fbe e891 81be da1c a3bc
000003d0: e8ff c4bd ea2b 65bd 7674 a83e 6c03 74be
000003e0: fe13 99be 0dd8 2dbd 7c60 e2bd 6b22 6dbd
000003f0: 2f8e 13be e06a f33d 4843 afbe 7370 1ebe
0.121635474 -0.050700456 0.054961022 -0.30829647 -0.24696189 -0.14518926 -0.48861268 -0.086001635
0.010692342 0.12585041 -0.30651686 -0.11880169 0.16810845 -0.721472 -0.2545214 -0.1886232
-0.118782885 0.05080386 0.079096176 -0.3258817 0.4695517 0.02692692 0.017837064 -0.17429006
-0.079256624 -1.1492834 -0.07521074 0.07999636 -0.087158866 -0.13459311 -0.30264637 -0.0261959
-0.066913374 -0.3345849 -0.34341288 -0.12538795 -0.023768373 -0.04980344 0.15470979 -0.08505341
0.13553846 -0.07140039 -0.054985397 -0.26181346 0.24800079 -0.026826022 0.12801237 0.085936196
-0.4858035 0.10731178 0.15224403 -0.17194363 0.03254432 -0.50496644 -0.11435334 -0.23722488
-0.21597072 0.08939443 -0.32387686 -0.04755575 -0.088578984 -0.18518466 -0.10437004 -0.30642366
-0.6165133 0.27150553 -1.0774244 -1.5234635 0.09009325 -0.22711894 0.23592997 -0.17483573
0.3833972 -0.09799543 0.2907047 0.09550909 -0.13521335 -0.08954716 0.31205344 -0.0674012
0.20144327 0.06512848 0.18695201 -0.6718125 0.017168751 -0.053314917 -0.303965 0.07303258
0.05022415 -0.22913744 -0.0714786 0.18994686 0.091943406 0.0054237396 -0.24200997 -0.0714712
-0.10168966 -0.12424963 -0.3994792 0.023424687 0.2524861 -0.6874133 -0.31916046 0.0806728
0.13781717 -0.08810051 0.11903525 -0.12968518 0.14322047 -0.009968655 0.110403545 -0.13121644
0.0241292 -0.20384555 -0.043400202 0.1341113 0.26596335 0.031041238 0.414368 -0.035333388
0.38616487 0.19965948 0.33135247 -0.09797231 0.22757608 0.093211554 -0.6442387 -0.0625259
0.2900412 -0.36698055 -0.7907868 -0.12559399 -0.27856928 -0.33190075 -0.38324338 -0.056105275
-0.27807274 -0.28179994 -0.07531135 -0.2028886 0.159706 0.16446148 0.10965773 0.099476084
-0.20954049 -0.096975565 -0.100763544 -0.1728602 -0.11749169 0.18108878 -0.1346787 0.182376
-0.060299795 -0.3430658 -0.07557548 -5.065284 -0.0327408 -0.07771087 -0.0346688 -0.09300056
-0.083169244 0.031475108 -0.010267158 -0.051706895 -0.19518389 -0.04886008 -0.24613985 -0.20985125
-0.020444693 -0.12821718 0.07532496 -0.21799606 0.0639887 0.0030131596 -0.350664 -0.10438176
0.18448599 -0.2964508 -0.31650004 -0.35770202 -0.018260613 -0.0775163 -0.17031111 -0.29850963
0.010300555 -0.0693477 -0.2571158 -0.06538978 0.028813953 0.17417365 -0.20689683 -0.3271555
-0.07014685 0.21608746 -0.23560494 -0.27815828 -0.080692284 0.03269993 0.032338645 -0.18564935
-0.5198464 -0.0979195 -0.3438175 0.081479914 -0.1220245 -0.1749132 -0.5245422 0.110215284
-0.21363194 -0.083116755 -0.22866282 0.1649009 -0.16393563 -0.005585798 -0.35352984 -0.01474803
-0.31712997 0.17996246 -0.38565347 0.26634356 0.16720003 -0.23970564 0.1307318 0.5007326
0.16985711 -0.50110334 0.17977689 -0.24513619 -0.12607208 0.28427634 0.026512636 -0.13695107
0.05845783 -0.13691783 -0.11807529 0.3227254 0.020929974 0.080370545 -0.07466414 -0.43169236
-0.20463969 -0.17158811 -0.2530663 -0.019911218 -0.09619123 -0.055950083 0.32901353 -0.2382943
-0.29898065 -0.04244237 -0.11053559 -0.05789415 -0.14409707 0.11885619 -0.3423102 -0.15472583

model.0.bias f4 [256]
00000000: cdf1 393e 8925 003c 1a46 69be 9ef1 233d
00000010: f024 bc3e 03dd 823e 6c27 dc3d 7653 b83d
00000020: 6123 403e 8aca 363e ee39 abbe 6c48 8fbc
00000030: 2683 2cbb 1e51 eabe eb4b 123f a861 f23e
00000040: d3f8 fbbd 894d e8bd 8f4f f63e da1f 15be
00000050: 8040 aabd 9b70 d4be 57ab 10be 9493 2cbe
00000060: 790e 14bf b1fa f1bd 2000 59be 8fb4 153e
00000070: 2094 c8bb 309c 3fbc b9a3 9b3e 3cab f23e
00000080: c0d3 acbd c0a7 29be c493 a0be bc03 bc3d
00000090: 77b1 c9bd 23c2 91be 96dc 003d b4c6 c43d
000000a0: 083f 6bbd 6643 893e db6c 13be 5408 ebbd
000000b0: 644a ab3e edd8 43be 8cc1 e8bd cdef 86bd
000000c0: 87c0 cf3d e998 fbbd 4293 3fbd bb48 703d
000000d0: a2b6 c1be ea27 90be 2e1d da3d 955a bcbe
000000e0: ecaa aabe 4877 853b b78e c3be 6303 4dbd
000000f0: 3494 813d 08c8 f1bd e239 ab3e ba47 00be
00000100: 6fd5 90bd 0a69 acbd d21f 7bbd 58f8 ac3e
00000110: b187 9dbe f088 4b3e 1d2e 063d 59e1 7c3e
00000120: f496 a3bd c03f ad3d 7f53 40be 6d4a bebe
00000130: af33 86bd b650 c6bd f7a3 3ebe becc db3e
00000140: a864 083d 7c6d 483e 3bbd fcbe c195 21be
00000150: f099 893d 878f 59be 1000 b53e 9e99 923e
00000160: a744 dabd 65c2 843d e9bd 663e 9df9 32be
00000170: 21a7 5dbe 4174 12be 91d3 49be 413d 90be
00000180: 8418 96be b079 f9bd 6f63 b8be cd35 b33e
00000190: 0c62 e03e b364 25be 2e92 ab3c c3d3 793e
000001a0: de66 cb3d 526b 2b3e 03d1 b1bc 197f da3d
000001b0: 9550 0dbc 1d7e 08be 1b7e 51bb 6405 99bd
000001c0: bddb a5bc 9eb0 adbd 7c00 90bd 20be b6bd
000001d0: 9b67 093e dfae 543e 7106 20bd ab68 1c3e
000001e0: 1871 c9be 21b8 6d3d 0491 0cbe ee79 a83d
000001f0: 369a d8bd 517e e6be 8096 af3e 49e1 4a3e
00000200: bc35 9ebe 3235 1dbe 0726 debd 9fb2 2c3e
00000210: 69a1 293c be4a 00be 67e5 b53e 3bea 783d
00000220: dd93 fabd c3f3 65be 0eaa f1bb fcd5 e33e
00000230: 8b4f f6bd f22f 993e 9ddc 783e 684d 7b3d
00000240: b511 893e 3ef1 a63e 6ff1 513d e068 ee3c
00000250: 700f 4dbf c8a1 0ebe 3c53 7f3e db8e 3ebe
00000260: a655 b73e 42ea 05bf 8ce5 64be 8b39 753d
00000270: bcd4 77bc a5ec 363e ba4b 053f 880a a13e
00000280: e72b 4abe 6e3e 3ebd d82e 0a3f dcf1 613d
00000290: 74ce 9bbd f107 e43e c690 12be a4fc 00be
000002a0: 265f fcbc 6865 8c3e ef7e 9cbc 81d4 8ebd
000002b0: 22f3 663e af7a 98be 9282 783e df1a 853d
000002c0: 4091 aabe a17f 103f 52f9 7fbd 042c 57be
000002d0: 8e7c b1be 7579 613e 517c 343e 6ac3 483d
000002e0: d41c 1bbe 0a5d e8bb 5a40 92be 3e21 c0be
000002f0: 102f 2a3e 17f6 0c3e 2a23 6cbe e3eb f93d
00000300: 2c7f 083f 9495 193e 660e 28be 9d95 a9be
00000310: 7282 a83e 7293 533d 03a8 243e 30e2 10be
00000320: 5b95 a5be 7d24 ac3d cb06 b4bd 2126 debc
00000330: f4f5 bc3c 50ae 1cbd 7504 70be 0d63 2bbd
00000340: 40f6 c7bd 426f 80be 3af5 3f3d aea2 ce3d
00000350: 776a d03d 43a5 503e 2fef fabd 9fb4 38be
00000360: da91 243e 2d5b 573e 793b b0bd 6ccc 583f
00000370: e382 48bd b10e 29be ce67 88bc a014 7ebd
00000380: 116e 81be dc72 fabd fa52 273e db97 78be
00000390: 2850 743d b70e 1e3e 0e28 fa3d 31fa afbd
000003a0: f2d1 f13c b8eb 19bc 93f2 353f 18ca 93bd
000003b0: d36d 743e bf4d 4fbe 96ba 933e f50a 0e3f
000003c0: fab1 b4bd a6cd 3f3d f106 19bd 999b 7ebd
000003d0: 9e23 54be 64de 23be e80d 983e 8572 f43e
000003e0: 1750 c0be 1891 43be 3d63 993d c80d 573d
000003f0: 4023 923d 1817 c1be e5c4 913d 93d6 3d3e
0.18158646 0.007821449 -0.22780648 0.040025346 0.3674693 0.25559244 0.107497066 0.09000294
0.18763496 0.178507 -0.33442634 -0.017490588 -0.0026323288 -0.45765013 0.5714709 0.4734013
-0.12303319 -0.11342914 0.48107573 -0.14562932 -0.08313084 -0.4149216 -0.14127861 -0.16853172
-0.57834584 -0.11815394 -0.21191454 0.14619659 -0.0061211735 -0.011694953 0.30398348 0.47396266
-0.084388256 -0.16567898 -0.31362736 0.091804 -0.09848302 -0.28468427 0.031460367 0.09608212
-0.05743316 0.26809233 -0.14396994 -0.11476198 0.33455193 -0.1912572 -0.11365041 -0.06588707
0.101441436 -0.12285025 -0.046771295 0.05866311 -0.3783465 -0.28155452 0.10650097 -0.3678786
-0.33333528 0.0040730573 -0.3819482 -0.050052058 0.06327096 -0.11805731 0.334426 -0.12527362
-0.07071959 -0.08418472 -0.061309643 0.3378322 -0.30767587 0.19876456 0.03275882 0.24695338
-0.079877764 0.08459425 -0.18781851 -0.37166157 -0.065528266 -0.09683363 -0.18617235 0.42929643
0.03329912 0.19573015 -0.4936312 -0.15779783 0.067188144 -0.21246158 0.3535161 0.28632826
-0.10657626 0.0648239 0.22533382 -0.17478032 -0.21645786 -0.1430216 -0.19709612 -0.28171733
-0.2931558 -0.12181413 -0.36013362 0.35001984 0.43824804 -0.16151695 0.020943727 0.24397187
0.0993173 0.16740158 -0.02170611 0.10668773 -0.008625169 -0.13329358 -0.0031966034 -0.07471731
-0.020246381 -0.08480953 -0.070313424 -0.08922982 0.13418429 0.20769833 -0.039068643 0.15274303
-0.39344096 0.058036927 -0.13727194 0.08226381 -0.105762884 -0.45018247 0.3429451 0.19812502
-0.3090037 -0.15352324 -0.10847097 0.16865014 0.010353425 -0.12528512 0.35526583 0.060770255
-0.12235234 -0.22456269 -0.0073750084 0.44499195 -0.1202689 0.29919392 0.24302907 0.061353117
0.26771322 0.32605928 0.05125564 0.029102743 -0.8010168 -0.13928902 0.24934095 -0.18609183
0.35807532 -0.52310574 -0.2235319 0.05986933 -0.015126403 0.1786371 0.52068675 0.31453347
-0.1974331 -0.046446256 0.5397773 0.055162296 -0.07607737 0.4453731 -0.14313039 -0.12596375
-0.030807089 0.27421117 -0.019103495 -0.06974126 0.22553685 -0.297811 0.24268559 0.06499266
-0.33313942 0.56444746 -0.06249363 -0.21012884 -0.3466534 0.22018988 0.17625548 0.049014486
-0.15147716 -0.0070911692 -0.2856472 -0.37525362 0.16619515 0.13765751 -0.23060289 0.12203195
0.5331905 0.14998466 -0.16411743 -0.33121958 0.32912022 0.051654287 0.16079716 -0.14148784
-0.32340512 0.08405397 -0.08790358 -0.02711779 0.023066498 -0.038252175 -0.234392 -0.04184251
-0.09763765 -0.25084883 0.046864726 0.100896224 0.101765566 0.20375542 -0.12252652 -0.18037651
0.16071263 0.21030875 -0.086050935 0.84686923 -0.04895295 -0.1650951 -0.01665106 -0.06203139
-0.25279287 -0.12228939 0.16340247 -0.24276678 0.059646755 0.15435301 0.12214671 -0.08592642
0.029519055 -0.009394579 0.71073264 -0.07216281 0.2387002 -0.20244502 0.2885329 0.5548547
-0.08823009 0.04682698 -0.037360135 -0.06216011 -0.20716712 -0.16002804 0.2969811 0.4774362
-0.37561104 -0.19098318 0.07489631 0.052503377 0.0713563 -0.37712932 0.07117633 0.18538885

model.2.weight f4 [128, 256]
00000000: b7c7 4abe 99ca 653d f7d8 d53b 914d 62be
00000010: 945c f03c b304 9dbd 4979 a0bd b12e 8b3d
00000020: 2bbd 33bd dad5 d4bc c301 09be 06fe b1bd
00000030: d3b0 813e 93c9 1b3e 03ee 913d 4f9e 38bd
00000040: f7e4 403c 0a07 f0bb e555 e6be 5a20 123e
00000050: 2233 92bd 82bc c43d 726d eebb 50e9 ef3d
00000060: 97ac 613e ebee 063e a7e0 7bbd 0410 e43d
00000070: f145 fbba a462 253d 0698 443e 8248 783e
00000080: 90b0 d1bd 1c93 bbbc 2396 b63d 0161 a6bb
00000090: 40ba 8b3b e1c8 7f3d e066 3ebd 183f 593e
000000a0: 49e2 c53d 0732 48be d427 9dbe 7eb1 5ebd
000000b0: 4d36 aebd eb0e a9bc 5eff 1cbd c606 99bc
000000c0: b5ae 3cbd 591b 9c3d 32d9 a23d edca 453d
000000d0: 1dd9 b83e 0309 5bbd 8121 893e f467 ba3d
000000e0: 8840 c63d bdde 8d3d 2ac6 283c d2f7 f2bd
000000f0: c024 02bc 7af0 bb3c d53d a33e 17e7 2e3c
00000100: 3577 693d 90ac b7be 5517 89bc 1aa1 093e
00000110: 647b f9bd 2328 8d3d f388 16be 81fe 22be
00000120: c25f c0bc 3f47 293e 7c8f 493e 18e6 763d
00000130: e68b 5b3e e6f7 e53d fc9f 4d3e 77a9 483d
00000140: 2b3d 2c3d 7c8b aa3e 77f6 833e 3e82 933d
00000150: 2710 8bbc 0740 6dbd 1cc7 e13c bba6 b7be
00000160: e615 833b e0de a0bb b8b7 163d 4674 51bd
00000170: 3e34 ba3d 616a bbbc 84b2 c73e 8276 51bd
00000180: 1097 3f3d 98a9 e3bd 1ef3 163e 3b58 993e
00000190: 0cfc 163f 7b2a af3c 2910 aebd 0380 c73e
000001a0: ff78 4dbe e100 a93d fb11 dd3d cc0b 5c3d
000001b0: 39a1 973d 5473 18bd 76eb 45bc 4da2 143d
000001c0: 69db f43b 247e 1cbd 57ba 72be 06c9 a2bc
000001d0: 2463 5abd 7989 883e cb15 223e b88e 853c
000001e0: 026b 3e3d 7304 04bd 3daf f7bd 221a 0a3e
000001f0: da43 bd3d 885f 9abd bfcf ff3d 12c9 db3d
00000200: 8595 e83d 6604 1c3d 5fe2 b33d 0872 5e3e
00000210: e2c3 b23d 8b57 0a3d 2058 283e 30ae ca3d
00000220: f6ab 9a3d 6d9e 83bd 48a0 aa3d d19d 223f
00000230: f015 cabd 95c4 e83d d468 fa3c 4926 9f3d
00000240: 4520 383e a70f 203d e60a 243d f82d 573e
00000250: 5e84 db3e b229 5bbc 3859 053e 3d5b ccbc
00000260: 8f4b d23e ff47 5cbd 0edd 473d 07c8 813d
00000270: 7cf1 d0bc 6136 23bf 0543 eebe c657 963d
00000280: a11c b93b c747 cd3d ac4c 893d c212 a3bd
00000290: 3d0a 85bd 0ead 6f3d 5851 483e a5ba d63d
000002a0: 3135 1e3c 96a0 17be da23 f43e 1b13 1cbd
000002b0: 3953 213d f732 30bd 9f35 513e 69ca 1ebe
000002c0: d76a 293a 1d9a 853e a8db 07bd 37f4 8bbe
000002d0: 9f47 823d 6c93 c53e 7296 d2be 7a5e 30bd
000002e0: 036c 91bc a20b 57bd 694f 71bd 57ef 013d
000002f0: e0ec 7f3e 0201 68bc 59c1 8cbd e892 fdbe
00000300: 679e 07be e507 2a3e 929d 85bd 64a0 0b3d
00000310: 6e11 593d e22e 6ebe beb4 943e 27bc 11be
00000320: fe93 853e a64c 273e 78a2 ae3e 9540 23be
00000330: eef9 36bb 148e 0abe 02b8 42bf fde5 9cbd
00000340: 717f a5bd 39c7 b33d c5a5 e93e 38a5 35bb
00000350: 6cd6 b1bc 7d4e 373d a171 ec3c 437c f2bd
00000360: 7c51 89bc 81e1 063e 1a83 193d 2ffb bbbf
00000370: 2e34 f2bd 3a12 ed3d ba0e 413d fff1 24be
00000380: 1387 2a3e ac1a 8fbd 9a81 693d 572e a0bc
00000390: d1f0 fbbc bf07 8f3d 115d a93e 3b32 bf3d
000003a0: 40c7 383c 73ba 033c 7b99 b83e 10d8 ec3c
000003b0: 4f2e 0fbe ce90 91bd fdd5 5e3e f7a4 7dbf
000003c0: 5307 96bc 6743 093e 2d71 483d 4219 bebd
000003d0: 694b 653e e81c 14be 5aa4 cfbd b68a 003d
000003e0: 9cc7 3b3e 5843 1d3d 580d cb3d daee a1bc
000003f0: 7289 f4bc 6f27 e8bc 084f bebc 1e68 7fbd
-0.19802748 0.056101415 0.0065261084 -0.22099902 0.02934102 -0.07666912 -0.07835633 0.06796015
-0.043881577 -0.025980879 -0.13379578 -0.08691029 0.2533022 0.15213613 0.07125475 -0.04507285
0.0117733395 -0.007325058 -0.44987407 0.14270154 -0.07138659 0.096062675 -0.0072762305 0.11714423
0.22038494 0.13177077 -0.061493542 0.11135867 -0.0019170624 0.040377274 0.19198617 0.2424641
-0.10238755 -0.022897296 0.08915355 -0.0050774817 0.004264146 0.062447432 -0.046484828 0.21215475
0.09662301 -0.19550334 -0.3069445 -0.05436849 -0.08506451 -0.020636996 -0.038329475 -0.018679988
-0.04606505 0.07622404 0.07951583 0.04828923 0.36103144 -0.05347539 0.26783374 0.09101859
0.09680277 0.069272496 0.010301152 -0.11863674 -0.007943332 0.022941817 0.31883112 0.010675213
0.05699845 -0.35873842 -0.016734758 0.13440362 -0.12181738 0.06892421 -0.1470068 -0.15917398
-0.02348316 0.16531084 0.19683641 0.06027803 0.21440086 0.112289235 0.2008056 0.04898974
0.04205052 0.33309543 0.25773975 0.07202576 -0.016975475 -0.05792239 0.027560763 -0.35869393
0.004000413 -0.0049093813 0.0367963 -0.051136278 0.09091996 -0.022877874 0.39003384 -0.05113841
0.046774924 -0.11116332 0.1474118 0.29950127 0.58978343 0.021382561 -0.08499176 0.38964853
-0.20065688 0.08252121 0.10794445 0.053722188 0.07403798 -0.03721936 -0.012080064 0.036287595
0.007472445 -0.038206235 -0.23703896 -0.019871246 -0.053317204 0.26667383 0.15828626 0.016303405
0.04648877 -0.032230806 -0.12093971 0.13486531 0.09241457 -0.075377524 0.12490796 0.107317105
0.113566436 0.038090132 0.08783411 0.21723187 0.08728768 0.033774894 0.16439867 0.09896505
0.0755233 -0.06426702 0.083313525 0.6352206 -0.098674655 0.1136562 0.030567564 0.07770974
0.1798106 0.039077427 0.040049456 0.2101363 0.42874426 -0.01337664 0.13022316 -0.02494585
0.41073272 -0.0537796 0.0487948 0.0633698 -0.025505774 -0.6375485 -0.46535507 0.0734096
0.005649165 0.10023456 0.06704077 -0.07962562 -0.064960934 0.058514647 0.1956228 0.10484818
0.0096562365 -0.14807352 0.47683603 -0.038104158 0.039386008 -0.043017354 0.20430611 -0.15506901
0.0006462759 0.26094142 -0.033168465 -0.2733476 0.06361317 0.38589036 -0.41130406 -0.04305885
-0.0177517 -0.05250133 -0.058913622 0.031722393 0.24992704 -0.0141603965 -0.06872816 -0.49526143
-0.1324402 0.16604574 -0.06524195 0.034088507 0.052995138 -0.23260072 0.29044145 -0.1423193
0.26089472 0.16337833 0.3410833 -0.15942605 -0.0027919966 -0.13530761 -0.76062024 -0.07661054
-0.08080948 0.08778233 0.45634285 -0.0027716886 -0.02170869 0.044752587 0.028862776 -0.11840107
-0.016762488 0.1317196 0.037478544 -1.468603 -0.11826359 0.11575742 0.047133185 -0.16107939
0.16653089 -0.06987509 0.057008363 -0.019553347 -0.030754479 0.06983899 0.33078817 0.093357526
0.011277974 0.008040058 0.36054596 0.02891162 -0.13982509 -0.071076974 0.21761318 -0.9907984
-0.01831404 0.13404618 0.048936058 -0.09282161 0.22392048 -0.14464152 -0.101387694 0.031382285
0.18337864 0.038394302 0.099146545 -0.019767214 -0.029850695 -0.028339116 -0.023231044 -0.062355153

model.2.bias f4 [128]
00000000: 01d8 d83e 4d9b 413e 481b 323e d994 143e
00000010: 55ed b0bd 1c1f ab3d ddb3 fa3d 920e 1b3d
00000020: f647 2d3e 7f80 62bd 0809 7ebd 11db 01be
00000030: 34ec 263e c146 b53a 7340 4dbe 7ae0 70bc
00000040: 10fb 14bc c8db a83d b862 b3bd ed68 33bd
00000050: 5414 d93c 8440 223e effd a73b debf 483e
00000060: c981 953d 906d 0f3e 7953 f73d d66b 3dbd
00000070: 12e6 563e 9a8c cdbc ce62 a83e 84cd 84bd
00000080: 7d82 e43e 66ea acbc 1037 a4bc ff90 88bd
00000090: a379 863b bf16 413d 69d1 6fbc f67d 59bd
000000a0: c6e4 083e 45b5 32bc 4fe6 8a3d e314 6abd
000000b0: fdb3 a9bd 26d8 163d 55f6 2d3c 14de 4c3e
000000c0: c7a9 ba3d 5b87 9b3e 1916 483c 0e40 b5bc
000000d0: abaf 3bbd 9844 96bc 2b67 c83d c630 5a3c
000000e0: 5d47 2bbd f74b 203e 5f16 bf3e 2830 03bd
000000f0: ef68 65bd 6027 513e c0f5 91be ee6a 653d
00000100: f05d ab3d a2f8 443e e0c7 bd3e c26c cabd
00000110: 2a97 f43d 8c23 d33d 3e9a e03d 5a89 cf3d
00000120: 27a2 9bbd dba8 86bd 4516 043f 0c18 2dbe
00000130: d671 d3bc ddc6 b5bd 1422 133e 3c85 f0bc
00000140: 77ca 703b cfd9 833e e057 89bc fef9 673d
00000150: 44d5 90bd c684 7e3e db71 4a3d 4216 b9bd
00000160: cb48 463e 4b42 a53d 5085 123e 4040 6fbd
00000170: 1c5f 123e 019d d9bb c321 7d3d fa04 623e
00000180: 91aa 6f3e 42b4 443c 7e1a 80bd 0c9b e33c
00000190: f306 6d3e cc1c 2e3e dc7e b83d 32c3 373e
000001a0: abfd d1bd 1afd 28bf 748a 58bd 50b5 bf3d
000001b0: 8de0 aa3d 91fb f43e 8891 8a3e 651f 5dbd
000001c0: bae0 6e3e 9ff9 cb37 ef95 793e aa30 073d
000001d0: f772 0fbe 1c6c b63d 3deb 013f e409 c23d
000001e0: b05e 463e 625f 103f 9342 12bd 5e07 91bd
000001f0: 6884 3dbd dc45 d0bc 1224 533d 93c1 18bc
0.42352298 0.18906899 0.1739322 0.14509906 -0.086390175 0.08355543 0.122413374 0.037855692
0.16921982 -0.055298325 -0.06202033 -0.12681223 0.16301042 0.001383029 -0.20044117 -0.014701957
-0.009093061 0.08245045 -0.087590635 -0.043801237 0.026498951 0.15844923 0.005126707 0.19604442
0.07300145 0.14006639 0.12076468 -0.04624542 0.20986202 -0.025091458 0.32887882 -0.064845115
0.44630805 -0.021107864 -0.020045787 -0.06668281 0.0041038557 0.047140833 -0.01463733 -0.05309864
0.1336852 -0.010907476 0.06782209 -0.057148825 -0.08286283 0.03682723 0.010617812 0.20006591
0.09114414 0.30376706 0.0122123 -0.02212527 -0.045821827 -0.018343255 0.09785303 0.013317293
-0.041816104 0.15653978 0.37321755 -0.032028347 -0.056008276 0.20425177 -0.28507805 0.05601018
0.083675265 0.19235471 0.37066555 -0.09884025 0.11942895 0.103095144 0.10966919 0.101336196
-0.075992875 -0.065751754 0.5159648 -0.16903704 -0.025811117 -0.08875821 0.14368469 -0.029360406
0.0036741772 0.25752112 -0.016765535 0.056634896 -0.07071927 0.24855337 0.049424987 -0.090374485
0.19363706 0.08069285 0.14308667 -0.058410883 0.14294094 -0.006641031 0.061799776 0.22072211
0.2340491 0.012005867 -0.06255053 0.027783893 0.23147182 0.17003173 0.090085715 0.17945555
-0.102534615 -0.660112 -0.052866414 0.093607545 0.08343611 0.4784818 0.27064157 -0.05398502
0.23327914 2.4315725e-05 0.24373601 0.033005394 -0.140087 0.08907339 0.5074957 0.09474543
0.19372058 0.5639554 -0.03570802 -0.07081483 -0.04626885 -0.025423937 0.05154807 -0.009323495

model.4.weight f4 [64, 128]
00000000: 3d72 b7be 4072 f1bc f7af 983e 68f0 1bbe
00000010: b3fd fcbd cc49 7fbe 14e8 5f3d e078 4e3c
00000020: 9214 c9be 44d1 083d 77e9 a5bc 3e6e 3ebe
00000030: d266 1bbe 444f 46bd e36a 9bbe 0b1a be3d
00000040: 9467 aa3c 3c3e 113d 6b9d 0bbd 2287 46bd
00000050: d09f 043c 4731 02bf acdd d13d fa0c 2f3e
00000060: f9fe 653e bdae 973e 1187 5f3e c1d5 09bd
00000070: 597b a13d 8295 563d 58f9 dd3d 8947 4e3d
00000080: 0ee8 a73b 4146 e6bc 053b a83e 56ae 283d
00000090: 8808 72bc e690 323e a2b6 b73b c548 0b3d
000000a0: 92e5 2a3e 7d7f c5bd c537 0dbe 213f 99bc
000000b0: df59 023c 3b4d cfbe 8590 27bc 08ae fcbe
000000c0: 6662 c5be 6f55 5bbf d798 26bd 0cc1 eab9
000000d0: 4770 5c3d 3ecf 7f3d 4140 ed3d 7531 3a3b
000000e0: 057c c4bc 3169 dbbc d35e 32bf 8704 9dbc
000000f0: 3e32 853d 57e2 cc3c dab9 013f fa5c 7e3e
00000100: a12e b4bd 3959 fb3d a2df 0b3e ea11 e4bc
00000110: 990d 0e3e 1afb 0e3d c5f2 cebd c1d9 043f
00000120: 0582 113d e307 983f f815 a0bd 595b 55bd
00000130: 57a1 87bd 6514 a13c f74a d13e bc15 f63d
00000140: 54c5 763c cd92 c0bd bdec 663d 1c4c 893e
00000150: b8ee b43d bed4 41bc 8e68 83be 5f29 963d
00000160: 8d90 be3e c716 de3c a5c6 24bf e468 1dbd
00000170: 3279 2dbd e8f3 b13d f821 943f 4fe8 1bbe
00000180: cf3b 6ebe 648e 953d 2bfd 82be c452 25bd
00000190: 86fe 36bc 6825 c83d d1e4 403d f3ae 2f3e
000001a0: 6418 22bd f308 46bf 48c0 26bd f37c fa3c
000001b0: 5780 6e3d f405 d0bd c6a2 b63e f869 b83c
000001c0: 140b 7f3e 321c 1f3e 17a5 a83e b284 2bbe
000001d0: c75a 25bc b296 bbbc 8d78 313e 8752 2b3e
000001e0: 70fa 923d e6a6 723d 7dba 003d ea9b 2fbd
000001f0: a0ce 54bd 9499 f7bc c90d 20be 4180 79bd
00000200: 921a 6b3c 5246 643d f16a 403c 1d1b 7bbc
00000210: e139 9abc 9c10 ca3d e8a8 e1bb ed59 003c
00000220: 662e 613d c829 06bd 8f4b 87bd 43ec 773d
00000230: 23f4 333d 3425 aa3c c457 c2bd c635 413d
00000240: 0957 a3bc bb28 b5bd 7adb 7bbd 1a6b 8d3d
00000250: 4466 a8bd f0c9 abbd bf3c 883d 4335 673d
00000260: 6e95 9a3c a95a 6fbd a37f c5bd 6091 dabb
00000270: 7947 e1bb da06 41bd 1c80 34bd 5e85 3a3d
00000280: 6a98 8dbd 4e02 4dbd 050f 00bd a6e6 b2bd
00000290: fb76 7b3d f47f 1fbc b054 9d3c fbb9 0e3d
000002a0: a056 9a3c 10af 123d a9e8 a6bc 15d3 9c3d
000002b0: 4007 09bc 64c0 9cbd c1b9 033d 8a46 863d
000002c0: 2eec 01bd 105b 90bc ea00 543c f91d 9a3d
000002d0: 8005 a8bd 7ecc 23bd beec 57bd ae17 93bd
000002e0: 1fdd 7abd 7871 3cbc 356d b5bd 124b 9fbd
000002f0: 34b6 59bd d5ce 9d3d 40f5 3d3d 7764 acbc
00000300: a28d b2bb 1a2c 8abd e753 1abd 2037 903c
00000310: 911c 2ebd 1dc7 c6bd 9c3e 99bc b91d 9fbd
00000320: e0a2 27bb 242a e93c dc40 70bc aa23 d73a
00000330: 420a 83bd 364a 5d3d 4c72 3bbd 1361 803c
00000340: 0623 183d b15e ed3c 35a1 253d 86a7 6e3c
00000350: e04f 3abd f2c0 663d 1587 abbd 83a8 803d
00000360: 4e21 98bc f3a6 92bd 56f8 13bd 68fd f1bc
00000370: 3a60 54bd eeca 393d 38ae 13bd efb7 613d
00000380: 30d7 86bd 0e95 403d 31ef adbd ea4d 973c
00000390: ace1 babd 7c8a 88bd b8ea a8bd 3cef 713b
000003a0: ad76 873d 30d1 babc 2247 713d 4586 653d
000003b0: 66d0 b8bd c022 1ebd 511a cdbd 918c bcbc
000003c0: 6700 a1bd b738 063c 6061 a13c 7c1a 3ebd
000003d0: b0cc 66bc 8050 cabd 9866 903b 5ea5 f0bc
000003e0: dc0f 743d a848 55bd d754 48bd 182c 2fbd
000003f0: f6ec 353d 54d1 c8bc 01b8 803b 2e6f 5b3d
-0.35829344 -0.029473424 0.2982175 -0.15228426 -0.12353077 -0.24930495 0.054664686 0.012602061
-0.39273506 0.033402696 -0.020252926 -0.18596742 -0.15175942 -0.048415437 -0.30354986 0.09282311
0.020801343 0.035459742 -0.034085672 -0.048468716 0.008094743 -0.5085644 0.10247359 0.17094794
0.22460546 0.29625502 0.21828867 -0.033651117 0.07884855 0.052388676 0.10838574 0.05036119
0.0051240986 -0.028109672 0.32857528 0.041181885 -0.014772542 0.17438087 0.0056064883 0.034004945
0.16689137 -0.09643457 -0.13790806 -0.01870686 0.007955997 -0.4048861 -0.010227327 -0.49351525
-0.38551635 -0.85677236 -0.040673103 -0.0004477579 0.053818014 0.0624535 0.11584521 0.0028410826
-0.023984918 -0.026783558 -0.6967594 -0.019167198 0.065037236 0.025010271 0.5067421 0.24840155
-0.08797956 0.12272877 0.13659528 -0.027840573 0.13872375 0.034907438 -0.10104898 0.51894766
0.035524387 1.1877407 -0.0781669 -0.05208907 -0.0662257 0.019663045 0.40877506 0.12015864
0.015061695 -0.09403 0.056378115 0.2681588 0.088345945 -0.011830507 -0.25665706 0.0733211
0.37219658 0.02711047 -0.6436561 -0.03843011 -0.04235191 0.086890996 1.1572866 -0.15225337
-0.23265003 0.073025495 -0.25583777 -0.040362135 -0.011169082 0.0977276 0.047093216 0.17156582
-0.039574042 -0.77357405 -0.040710717 0.030577159 0.058227863 -0.101573855 0.3567106 0.022511467
0.2490657 0.155381 0.32938454 -0.16749838 -0.010092444 -0.022899006 0.17331143 0.167307
0.071766734 0.059241198 0.03142785 -0.0428733 -0.051954865 -0.030224599 -0.15630259 -0.060913328
0.014349597 0.055731125 0.011744247 -0.0153262885 -0.018826427 0.09866449 -0.0068865903 0.00783394
0.05497589 -0.03275469 -0.066062085 0.06052805 0.043934 0.020769693 -0.09489396 0.047170423
-0.019938963 -0.08845659 -0.061488606 0.069051936 -0.082226306 -0.08388126 0.066522114 0.05644728
0.018870082 -0.05843607 -0.096434854 -0.006670162 -0.0068749753 -0.047125675 -0.044067487 0.045537345
-0.06913836 -0.050051026 -0.031264324 -0.08735399 0.061392765 -0.009735096 0.019205421 0.034845334
0.018840134 0.035811484 -0.020374613 0.07657448 -0.008363545 -0.07653883 0.03215957 0.06556423
-0.03171938 -0.017621547 0.012939671 0.07525248 -0.08204174 -0.03998994 -0.05271601 -0.07182251
-0.061246034 -0.011501662 -0.0885872 -0.077779904 -0.053152278 0.07705466 0.046376467 -0.021044
-0.005449013 -0.06746693 -0.03767767 0.01760441 -0.04250771 -0.097059466 -0.018706612 -0.07769341
-0.0025579259 0.028462477 -0.014663901 0.0016413827 -0.06398441 0.05402585 -0.0457633 0.015671289
0.037142776 0.028975816 0.040436942 0.014566308 -0.04548633 0.05633635 -0.08375374 0.06282141
-0.018570568 -0.07160749 -0.036125503 -0.029539779 -0.05184958 0.045359544 -0.03605482 0.055107053
-0.065840125 0.04701715 -0.08492888 0.01846977 -0.09125075 -0.06667039 -0.08247894 0.0036916276
0.066144325 -0.022804826 0.05890573 0.056036253 -0.09024124 -0.03860736 -0.10014785 -0.023016246
-0.07861405 0.008192233 0.019699752 -0.046411976 -0.014086887 -0.098786354 0.0044067614 -0.029375728
0.059585437 -0.052071244 -0.048909035 -0.04276666 0.044415437 -0.024513878 0.003928185 0.053572826

model.4.bias f4 [64]
00000000: 7e71 903d aaa6 c4bb 6ec6 9f3d 2a55 a83d
00000010: 9757 c93e e1ff d13e 4890 a13e 54c4 8abc
00000020: aa2a dd3e 75fc 963b a9aa d83e 5eb4 31be
00000030: ba7f c53e 2576 b1bd 39f4 4c3e 5cc6 d1bc
00000040: 9cd8 aa3b beed 093f d334 dcbd 9227 013b
00000050: 46fb ad3e 2e6b 8ebe 3eef 9e3e 1d18 6d3b
00000060: fd05 7ebd 312f 12bd d69e 8dbb 869d 233f
00000070: 1ba8 17be 4716 583e ae4d 42bd 602e 8dbd
00000080: 298e 533e 7700 febd 8049 aebd b77b 973d
00000090: 2c08 3b3c 13a4 fa3c afa4 d6bd 3e05 e03d
000000a0: feb4 8d3d 1687 723e 7ee4 b8bd 12bc 543e
000000b0: 50d1 bdbd 2829 133f 65a3 f9bd 0035 5e3e
000000c0: 5a4e 263e fc3f c2bd 9ef9 013d 6ce5 ad3e
000000d0: 5057 533e 5453 483e 2e21 6d3e 5df1 63bb
000000e0: df4a 2cbd a455 8fbd d14e b3bd aa41 053e
000000f0: 7e70 02bd cf0d 02be 4b48 20bd cb92 e73b
0.07052897 -0.006001313 0.07801519 0.08219369 0.39324638 0.41015533 0.3155539 -0.01693932
0.43196613 0.004607732 0.42317703 -0.17353961 0.3857401 -0.086651124 0.20015039 -0.02560728
0.00521381 0.5387839 -0.10752263 0.0019707424 0.3398077 -0.27816147 0.31041902 0.0036177703
-0.06201743 -0.035689536 -0.0043219132 0.63912237 -0.14810221 0.21102248 -0.047437362 -0.06893611
0.20659699 -0.124024324 -0.08510113 0.073966436 0.011415523 0.030595815 -0.1048063 0.109385
0.06919287 0.23684344 -0.090279564 0.20774868 -0.09268439 0.57484674 -0.12189368 0.21699905
0.16240826 -0.0948486 0.031732194 0.33964097 0.20638776 0.19563037 0.23157188 -0.0034781315
-0.04206359 -0.069987565 -0.087552674 0.1301333 -0.031845562 -0.1270058 -0.039131444 0.0070670596

model.6.weight f4 [32, 64]
00000000: eb6f 8b3d c8a2 5dbd 189d 5abb 8bcc eabd
00000010: 2e43 32be b3e1 343d 9068 3b3d fbc2 c33d
00000020: c48b c33c 5959 f9bb 24d9 cabc c5fc 49bd
00000030: 3acf 9dbd e47c a3bd 58a6 58bd e2ca b9bd
00000040: 4fda 91bd 330c 2bbe 80a0 2dbb ad9d 903d
00000050: b870 16be 737e 1e3e bf26 733d 938f 663d
00000060: ad9e 85bd 01ec 20be 370d edbc d3e9 9a3c
00000070: def2 7b3d 00ce 1abe 5957 fabd 2fb7 d43d
00000080: cc85 e23d 08e0 2e3d 1fc5 613d d75f e9bd
00000090: cde2 2bbc 4d67 69bd e493 17be 77eb 2abe
000000a0: 4c0c 1a3d 8307 f9bb e0c4 eb3b 2be5 20be
000000b0: 2818 8f3c 780d d7bd 9bd1 cabd bd0a 24bd
000000c0: 125e ddbd d93d c2bd badb 2f3d eae3 a8bd
000000d0: 1722 55be 12be 3fbd 7290 07be 9b67 783c
000000e0: d659 72bd cc05 f8bd 4612 61bd 3ed1 453d
000000f0: bda8 0cbd 24cf 9dbd f4cf c53d 47a0 be3d
00000100: 821b 94bd aaa7 e1bd 4242 90be 3a5d 173e
00000110: 46b6 cd3e f734 9abe 602b a2be 3011 d03d
00000120: bffa d5be 257f f9bd 594b a6bd 8095 0abe
00000130: 6926 003f a7cc 813d 183f a3bd 835a 423e
00000140: 809a 5ebc 1a8e 2d3e e6f9 f33d b0a9 9a3d
00000150: d605 48bd 0c9c 513d bde2 fc3c b34d a93c
00000160: f17d 8b3e c7a4 b33e 8700 a8bc 4fc0 9c3e
00000170: e951 9ebd 2ba7 54be 6af1 2ebe 30c4 7a3d
00000180: 1474 5d3e 2f1a b0bd e030 09bd cb7a 0e3d
00000190: daa4 0c3e 2f57 863d fc93 61be 6582 14be
000001a0: 2244 a7bd 0074 8d3e f834 5e3d 9049 603e
000001b0: f49a 18be d442 003e f5af 0e3d e073 f4ba
000001c0: f6ad a9be 38d7 703b 6bbc ae3d 1265 343e
000001d0: 384d 9b3d ad13 313e b475 c63d bf83 7a3e
000001e0: 3f50 ae3e 8c56 b83d 2041 863d aba9 3d3e
000001f0: a26d b2bc dc55 0a3c 216c 06be 0d06 853d
00000200: eb0a 72bd e688 e2bc 5a37 47be 5fba 153d
00000210: 079e 86bc 5e92 253e bdbc 223e a9be d9bb
00000220: 6515 713e e5f0 303d 560e edbd 864a e1bd
00000230: 1207 3f3e 6f20 d73d 0af5 2dbe 71ed 0c3e
00000240: f839 f53d fc6d 9bbb af38 953d 93ad 753d
00000250: c6ad db3d 4797 763e b0a8 1f3c 8af6 b5bd
00000260: 7bfb 443d 8328 d0bb 3d88 e93d 2ed9 babd
00000270: a558 943d 21ab a73d 9205 17bc 3879 0b3e
00000280: 29b6 403e dc56 813d 6176 be3c de1f 03be
00000290: 9791 c6bc 4785 c03c 98b7 abbd 8f4d c5bd
000002a0: aa6e e2bd b0bd 243c 1265 023d 90ca 44be
000002b0: 7851 d9ba 7b9e a9bd 7171 a3bc 0825 503d
000002c0: 9a74 003e 77bd c1bd 4b56 823c 95a7 fcbd
000002d0: 208c 543d 1585 fabd 0ea1 48bd 35b1 cb3c
000002e0: 6fde 29be ec57 0b3d 91db bdbc e1a1 a7be
000002f0: dc74 833d e0f7 84bd 6f40 543d 69ee bdbc
00000300: 7d7f 313e 9169 8dbc eaa2 eebd 8c99 d4ba
00000310: b7c0 b03e c047 09bf bacf babe 4830 a53c
00000320: a8b1 c5bc 5389 e43d 7bfb 8bbf 5168 b13c
00000330: aa2f 363d c3b7 3c3d 73a2 973d 0fba 98bd
00000340: 7540 bd3d 6b9d bfbd 5694 03bd 0ae6 52be
00000350: 8450 9ebe 76e6 d23e 3019 3c3c f13d 32bd
00000360: 9540 ac3c 9f60 ec3d 1ec6 113e e6d0 4abd
00000370: 135d 36be f485 a93c efd4 36be a084 1dbe
00000380: 9e76 d13e 9a44 973c 7f8e d5bd e183 1fbe
00000390: 8a9c d8bd 2c0f 80bd b4bf 2cbe 7d7f 8abe
000003a0: 81ca 943d b09e 8dbe f6d6 6d3c fb89 f13c
000003b0: 6f39 9fbd 8091 2bbf bb70 d4bd eace 903d
000003c0: 9e7d 99bd 74fe 683c 7bb0 3d3d 84d8 fcbc
000003d0: 2399 7fbe cf3a 14be a510 2ebe d554 70be
000003e0: 543b 12be f155 7cbd ef7b 043e 1fb9 2dbf
000003f0: ae5d f83d db9b 303d d0d7 0f3d 489d f6bd
0.06808456 -0.05411032 -0.0033357795 -0.11464795 -0.1740844 0.044160556 0.045754015 0.09558674
0.023870356 -0.007609528 -0.024761744 -0.049313325 -0.07705541 -0.07982805 -0.052893013 -0.090719
-0.07121717 -0.16703872 -0.002649337 0.07061324 -0.14691436 0.15477924 0.059363123 0.056289267
-0.06524406 -0.15715028 -0.028936965 0.018910324 0.061510913 -0.15117645 -0.122236915 0.10386502
0.11060676 0.04269412 0.05511963 -0.11395233 -0.010491085 -0.05698328 -0.1480251 -0.16691385
0.037609383 -0.0075997724 0.0071951 -0.1571242 0.017467573 -0.10500616 -0.0990326 -0.040049303
-0.10808958 -0.09484453 0.042934157 -0.08246596 -0.20813785 -0.046812125 -0.13238695 0.01516142
-0.059167705 -0.12110481 -0.054949068 0.048295252 -0.03434061 -0.077055246 0.096588045 0.09307914
-0.07231809 -0.110183075 -0.2817555 0.14781657 0.40178126 -0.30118534 -0.31673717 0.10159528
-0.41792867 -0.12182454 -0.0811984 -0.13533592 0.5005861 0.063378625 -0.079710186 0.1897984
-0.01358664 0.16948739 0.11912899 0.075518966 -0.04883369 0.05117421 0.030869836 0.020666933
0.27244523 0.35086653 -0.020508064 0.3061547 -0.07730467 -0.20766895 -0.1708428 0.061222255
0.21626312 -0.08598744 -0.033493876 0.034785073 0.13734761 0.06559598 -0.22029108 -0.14502867
-0.08167292 0.27627563 0.054249734 0.21903062 -0.1490286 0.12525493 0.034835774 -0.0018650256
-0.33140534 0.0036749374 0.085320316 0.1761668 0.07583088 0.17292662 0.09690419 0.2446432
0.34045598 0.090008825 0.0655539 0.18521754 -0.021780793 0.008443322 -0.13127185 0.06495295
-0.059092443 -0.027653169 -0.19454709 0.03655469 -0.016432775 0.16169116 0.1589231 -0.006645043
0.23543318 0.043198485 -0.11575 -0.11000542 0.18655041 0.10504233 -0.16988006 0.13762452
0.11973947 -0.004743336 0.07286202 0.059979986 0.10726504 0.24081145 0.009744808 -0.08884914
0.048091393 -0.0063524856 0.114029385 -0.09123455 0.0724347 0.08186937 -0.009217637 0.1362046
0.18819489 0.06315395 0.023249807 -0.12805125 -0.024239345 0.023501052 -0.08384627 -0.09633934
-0.11056264 0.010054991 0.03183467 -0.19217896 -0.0016580066 -0.08282181 -0.019951554 0.050816566
0.1254448 -0.09459966 0.015910288 -0.12336651 0.051891446 -0.12232415 -0.04898172 0.024864772
-0.16588758 0.034019396 -0.023175986 -0.3274069 0.064187735 -0.06492591 0.05181926 -0.023184972
0.17333789 -0.017262252 -0.11652167 -0.0016220077 0.3452203 -0.53625107 -0.36486608 0.020164624
-0.024132565 0.11159005 -1.0936121 0.021656187 0.04447905 0.046073686 0.074040316 -0.07457363
0.0924081 -0.09356197 -0.032123886 -0.20595565 -0.30920804 0.41191453 0.011480615 -0.043516103
0.021026889 0.115418665 0.14235732 -0.049515627 -0.17808942 0.020693757 -0.17854665 -0.15382624
0.4091081 0.018465329 -0.104275696 -0.15577652 -0.105767325 -0.06252894 -0.16870004 -0.2705039
0.07265187 -0.2766013 0.014516583 0.02948474 -0.077746265 -0.6701889 -0.10373064 0.07070716
-0.07494663 0.014220823 0.046310883 -0.030864961 -0.24960761 -0.14475559 -0.16998537 -0.23469861
-0.14280444 -0.061605398 0.12937902 -0.678606 0.12127243 0.043117385 0.035117924 -0.12041718

model.6.bias f4 [32]
00000000: 687e 303d 76ae 0c3f fcc5 e83c 16ba 3c3d
00000010: 820c 813d 30c6 123f ea14 1a3e c138 373e
00000020: 604f 9b3e 76aa 303e 5149 103f c710 053e
00000030: 8a55 a3bd 68ac 083f 74b0 b5bc bc5d 1b3e
00000040: 17f2 c83e f25b a63e ea48 043e 0a29 aa3e
00000050: 7d5f 9f3e fc1d 623e 3155 33be 603c 323e
00000060: fd5b 4f3e 0898 953e 286e 613d b9bb 0d3f
00000070: f404 8d3e 8fd8 503e 7171 643d 4cb8 b33e
0.0430893 0.54953706 0.028414719 0.046075903 0.06301214 0.5733366 0.1504704 0.17892744
0.30333996 0.17252526 0.5636187 0.12994681 -0.079753 0.5338807 -0.022178866 0.15172476
0.392472 0.32492024 0.1291844 0.33234435 0.3112754 0.2208175 -0.17512967 0.17405844
0.20249934 0.29217553 0.055036694 0.5536457 0.2754284 0.2039511 0.05577225 0.35101545

model.8.weight f4 [10, 32]
00000000: 7969 d63d 8e89 843e 6557 a4be 28cf 63be
00000010: c11d 3abd 6baf 313e d666 be3c c1c7 013d
00000020: bba3 2fbe 684b c3bd b3a5 843e e4ba 223c
00000030: 31ed a33c c92d d4bc a758 303e c549 6b3e
00000040: 8386 a83e a9b8 cfbe 5697 fd3b 6d47 ec39
00000050: 201c fbbd abd1 883e 7280 aa3d 80f1 f0bb
00000060: 3039 a4bd 0c53 85be ede3 ff3d c717 f63d
00000070: 25be 133e 8478 643e 9cae 38bc a43c 5fbe
00000080: 1e93 76bd ef4c a53e 34a7 49be 169e 01bd
00000090: f7d1 323d b99a bf3e bc0a 02bd aaa8 2d3d
000000a0: 1549 7abe ebac 60be 3f2c 353e 20d9 2ebd
000000b0: 4400 8f3d 89ea d2bc 0d9d 02be 66bd 673e
000000c0: 9eda 963e 0b61 a4be 8648 da3d 3f5b 513e
000000d0: c06a 1abe e8a6 b53d 8dd9 6dbd 9bdb 293d
000000e0: 19a7 4dbe a62a 95be d6a0 9b3d 9ad9 f33d
000000f0: 9b58 0b3e 8d23 443e b763 ebbd 5590 58be
00000100: 1c63 053e bec9 003f ad0a 3bbe c31a 2d3d
00000110: 3bd9 843c dcb4 f33c b64b 8c3d 0e3a 373d
00000120: 741a 4cbe 7d3e f73d ee4a 9e3e f5ce 2c3d
00000130: d3c3 063e 5322 30bc 9861 223e 781a 763e
00000140: 69ae 883e 7abc a3be bc12 c7bd 57b7 8e3e
00000150: 6aec c5be 3b5f 243e d13c 9f3d 8f9d b83d
00000160: a240 83be 5974 77be 77a0 d8bd e9c4 5a3d
00000170: 014a 6b3d 2f18 423e cd0e d83d c16e 1cbe
00000180: 9a66 293c 69eb ad3e 7eec 66be f163 25be
00000190: 7c57 383d 0f9f 0d3e 44af 3e3e 62b9 6f3d
000001a0: 102b 80be d7b7 5f3d bfde 933e 5805 dbbc
000001b0: aa7f 6c3d 61c7 8bb9 f1b9 043e 54b9 393e
000001c0: bf1c 6c3e 799c 83be c68d 9abd c4f6 183e
000001d0: a2f7 a6bd 3c91 423e 9144 fabd e5c5 093e
000001e0: 37e5 89be dd93 b3be ddfc 16be 026e b03d
000001f0: 8646 9f3c 875e 433e 94ff c33b 8c5c 25be
00000200: e4e9 15be d877 603e d23a 58be 556d d93d
00000210: b063 0d3e 6551 aa3e a276 5dbd 7da1 643d
00000220: 39ca 81be cb4d 6b3d 602c a03e dca0 15bd
00000230: 37c8 cd3d 226a aabd cf79 213e def0 6ebb
00000240: a0d7 cf3e a24e aebe 2a38 0b3e a06b 153e
00000250: e039 71be a2c8 5e3e 82fb 07be 0358 0f3e
00000260: 74f8 58be 3f5e 5bbe 0a37 a4bc 1611 ab3d
00000270: 1e7c c2bd 3b47 5b3e bd69 e03d ab57 75be
00000280: 3fe0 a13d 9931 b63e d40e a9be 1a77 12bc
00000290: 0506 05be cb58 8d3e f192 383e b7b1 71bd
000002a0: 0105 76be 9d6f 193e cf4e 4b3e 47e6 b3bc
000002b0: ba63 873d ac09 59bd 46b1 dd3d d52b 98bd
000002c0: 0e16 b63e f2ed 80be 7361 a63d 7394 72be
000002d0: e01e 42be 0a35 633e 8872 923c 96f4 d33c
000002e0: b20a 7cbe b206 7cbe 54bc d53a b809 e23d
000002f0: 6aa2 763d d778 603e 1f91 383e fbab 85be
00000300: 63f1 afbd a682 9a3e 88af ddbd 6ea4 503d
00000310: 8720 0f3d 5572 083e 01ec 193e b913 593c
00000320: 4ea5 4bbe 0f8a 963d 8fe4 7a3e 70ff 313d
00000330: 2124 a3bd 0125 fcbc dc20 c53d d502 0a3e
00000340: 8277 853e 4c87 b7be 24ff 443e 6707 1a3d
00000350: dc14 14be 876d ed3d a0dc 66bd 2930 593d
00000360: b62b bebe 348a 5abe d324 203d 690e ce3d
00000370: bd13 3b3e 0129 6f3e 8d3f a5bb 9575 5abe
00000380: 361f afbd b180 af3e aef7 2abe 6301 b03d
00000390: bfed 323e 6c54 063d 2e78 6cbc 3a06 a13c
000003a0: 6960 1cbe f947 85bd 3de5 9f3e 9cea e7bb
000003b0: 5c3c 87bd d250 c3bc fd0a be3d 2c83 13be
000003c0: e707 9e3e 7ff6 3bbe 79ec 943d 1b4a 22be
000003d0: 1adc 39be 9097 2f3e ee85 843d 0dae fc3d
000003e0: 71a0 6fbe 94e1 bfbe 69dd af3d b9c8 4f3d
000003f0: 9117 813c 29b0 2e3e 11d6 1bbe 4f52 cdbe
0.10469336 0.25886196 -0.32097927 -0.22246993 -0.04543853 0.17352073 0.023242395 0.03168464
-0.17152302 -0.09535867 0.25907668 0.0099322535 0.020010563 -0.025900738 0.17221318 0.2297736
0.32915124 -0.40570572 0.007738988 0.00045066644 -0.12261224 0.26722464 0.0832528 -0.007353008
-0.0801872 -0.26039922 0.12494645 0.12016254 0.14428003 0.22311598 -0.011272099 -0.21800476
-0.060198896 0.32285258 -0.19692689 -0.031644903 0.04365727 0.37422732 -0.03174852 0.04239718
-0.24441941 -0.21940963 0.1769266 -0.042687535 0.069824725 -0.0257466 -0.12755223 0.22630844
0.29463667 -0.32105288 0.10658364 0.20444964 -0.15079784 0.088697255 -0.0580688 0.041469198
-0.20083274 -0.291341 0.075990364 0.119067386 0.13608019 0.19154187 -0.114936285 -0.21148808
0.13026088 0.50307834 -0.18265791 0.04226185 0.016216865 0.029749326 0.06850378 0.0447331
-0.19931966 0.120724656 0.30916542 0.042189557 0.13160639 -0.010750371 0.15857542 0.24033535
0.26695564 -0.31979734 -0.0972037 0.27874252 -0.38656932 0.16051953 0.07775272 0.09014427
-0.25635248 -0.24165477 -0.10577481 0.053410444 0.057443622 0.18954538 0.10549698 -0.15276624
0.0103394035 0.33968666 -0.22551152 -0.16151406 0.045005307 0.13830207 0.18621546 0.058526404
-0.25032854 0.054618683 0.2888088 -0.026735947 0.057738937 -0.00026660695 0.12961556 0.18137103
0.23057841 -0.25705317 -0.075465724 0.14937884 -0.08152701 0.19000715 -0.12220109 0.13454397
-0.2693269 -0.35073748 -0.14744897 0.08614732 0.019442808 0.19079028 0.005981395 -0.16148585
-0.14640003 0.21920717 -0.21116188 0.106165566 0.13807559 0.33265224 -0.054068215 0.05581807
-0.25349596 0.057447236 0.31283855 -0.03653036 0.100479536 -0.083210245 0.15769123 -0.0036459486
0.40594196 -0.34044367 0.13595644 0.14591837 -0.23557234 0.21756223 -0.13279536 0.13998418
-0.21188527 -0.21422671 -0.020045776 0.08352868 -0.0949633 0.21413891 0.10957668 -0.23959224
0.079041 0.35584715 -0.33019125 -0.008939529 -0.12990578 0.27606806 0.18024804 -0.059007373
-0.24025346 0.14983983 0.19854282 -0.02196039 0.06610818 -0.05298774 0.10824828 -0.07430235
0.355637 -0.25181538 0.08124056 -0.23689441 -0.1895709 0.22188202 0.017876878 0.025873464
-0.24613455 -0.24611929 0.0016306737 0.1103701 0.060213484 0.21921097 0.1802411 -0.26107773
-0.08590963 0.30177802 -0.108244956 0.050938062 0.03494313 0.13324864 0.15031435 0.013249331
-0.19887277 0.07350551 0.2450125 0.043456495 -0.079658754 -0.030779364 0.09625408 0.13477643
0.2606774 -0.3584541 0.19237953 0.037604716 -0.14461082 0.11593156 -0.05636275 0.053024445
-0.37142724 -0.21341783 0.03909762 0.10061342 0.18269248 0.23355485 -0.0050429762 -0.21333916
-0.08550875 0.3427787 -0.16696045 0.085940145 0.17473505 0.032795355 -0.01443295 0.01965629
-0.15271153 -0.06507868 0.31229582 -0.007077528 -0.066033095 -0.023842249 0.092794396 -0.14405507
0.30865404 -0.1835575 0.07271666 -0.15848581 -0.18150368 0.1714766 0.064708576 0.12337885
-0.23401047 -0.3747679 0.085871525 0.050728533 0.015758308 0.17059387 -0.15218379 -0.4010186

model.8.bias f4 [10]
00000000: 73af 06be af76 83be f528 a6be 7214 b5be
00000010: 94b0 44be e211 0fbc 5191 8cbd 636f 813d
00000020: c12e 33bd 9373 8c3d
-0.13152866 -0.25676486 -0.32453123 -0.3536716 -0.19207984 -0.008732291 -0.068636544 0.063200735
-0.04374576 0.068579815
