checkpoints/checkpoint_step_4000.pth (torch, 200878 bytes, 10 tensors)

model.0.weight f4 [256, 21]
0	0x3e163924	0.14670235
1	0x3be8ecb4	0.0071082953
2	0x3df6e198	0.12054747
3	0xbe353fd7	-0.17700134
4	0xbea4a6ff	-0.32158658
5	0xbe259989	-0.1617185
6	0xbed60984	-0.41804135
7	0x3c99275e	0.01869553
8	0x3cd30a1d	0.025761658
9	0x3e1ba2fe	0.15198895
10	0xbe393306	-0.1808587
11	0xbd514cd3	-0.051098656
12	0x3e8cd74e	0.27508014
13	0xbf60063c	-0.8750951
14	0xbe53317f	-0.2062435
15	0xbe422912	-0.1896098
16	0xbd0559b2	-0.032556243
17	0x3d9c4bfe	0.07631682
18	0x3de993b8	0.11405128
19	0xbeced622	-0.40397745
20	0x3ea145ec	0.3149866
21	0x3cdc95d8	0.02692692
22	0x3c921f09	0.017837064
23	0xbe327918	-0.17429006
24	0xbda2514c	-0.079256624
25	0xbf931bb8	-1.1492834
26	0xbd9a0817	-0.07521074
27	0x3da3d522	0.07999636
28	0xbdb28059	-0.087158866
29	0xbe09d2c7	-0.13459311
30	0xbe9af477	-0.30264637
31	0xbcd698c9	-0.0261959
32	0xbd8909e1	-0.066913374
33	0xbeab4eb6	-0.3345849
34	0xbeafd3d0	-0.34341288
35	0xbe0065b3	-0.12538795
36	0xbcc2b5e4	-0.023768373
37	0xbd4bfeb1	-0.04980344
38	0x3e1e6c3e	0.15470979
39	0xbdae307b	-0.08505341
40	0x3e0aca98	0.13553846
41	0xbd923a5e	-0.07140039
42	0xbd61385e	-0.054985397
43	0xbe860c6a	-0.26181346
44	0x3e7df3eb	0.24800079
45	0xbcdbc23f	-0.026826022
46	0x3e0315ad	0.12801237
47	0x3dafff51	0.085936196
48	0xbef8bb3d	-0.4858035
49	0x3ddbc647	0.10731178
50	0x3e1be5dc	0.15224403
51	0xbe3011fe	-0.17194363
52	0x3d054d31	0.03254432
53	0xbf01457b	-0.50496644
54	0xbdea3215	-0.11435334
55	0xbe72eb14	-0.23722488
56	0xbe5d276e	-0.21597072
57	0x3db7146d	0.08939443
58	0xbea5d330	-0.32387686
59	0xbd42c9d1	-0.04755575
60	0xbdb568e6	-0.088578984
61	0xbe3da10c	-0.18518466
62	0xbdd5bff6	-0.10437004
63	0x3ddc2987	0.10750108
64	0xbf454c38	-0.77069426
65	0x3c8f6f2a	0.017509062
66	0xbec707d7	-0.3887317
67	0xc001d372	-2.0285306
68	0x3d66db81	0.05636168
69	0xbe5a0c79	-0.2129382
70	0x3de40558	0.11133832
71	0x3af2ccee	0.0018524209
72	0x3d8e11e4	0.06937006
73	0xbdc4700b	-0.09591683
74	0x3e4e43ff	0.20143126
75	0xbd283672	-0.041067548
76	0xbdc9edf0	-0.09859836
77	0xbe014924	-0.12625557
78	0x3e95e0ce	0.29273075
79	0xbdb29236	-0.08719294
80	0x3e292d92	0.1652129
81	0xbe093ad1	-0.13401343
82	0x3e40cb28	0.18827498
83	0xbf203654	-0.625829
84	0x3e476c74	0.19474965
85	0xbdff862a	-0.12476762
86	0xbd424d53	-0.047437023
87	0xbd03c035	-0.032165725
88	0x3d96338a	0.07334049
89	0xbe950c2f	-0.29110858
90	0x3e47a109	0.19495024
91	0x3e2e302d	0.17010565
92	0x3d497cce	0.04919129
93	0x3cf859b7	0.030316217
94	0xbe127284	-0.14301497
95	0x3c678a7e	0.01413214
96	0x3ddd65a9	0.10810406
97	0xbe3c99e1	-0.18418075
98	0xbe94dd63	-0.29075155
99	0x3de2c118	0.11071986
100	0x3e650e3d	0.22368713
101	0xbefa164c	-0.48845136
102	0xbe3e6788	-0.18594182
103	0x3dc0a73e	0.09406899
104	0xbc9b473b	-0.018954864
105	0xbe18e5ad	-0.14931364
106	0x3da1252c	0.07868418
107	0xbe420f50	-0.18951154
108	0x3df1132d	0.117712356
109	0xbd7dd3c6	-0.06196954
110	0x3dcc3358	0.099707305
111	0xbe50158e	-0.20320722
112	0x3be53c2c	0.0069956984
113	0xbe857016	-0.26062077
114	0xbdcc2614	-0.099682
115	0x3d821292	0.06351198
116	0x3e864ccc	0.26230466
117	0xbcad164c	-0.021128796
118	0x3ec89d50	0.3918252
119	0xbdac20d1	-0.08404697
120	0x3ebfeec4	0.3748685
121	0x3e09949a	0.13435593
122	0x3ea2090c	0.31647527
123	0xbe28417f	-0.16431235
124	0x3e6245a8	0.22096884
125	0x3df48304	0.11939052
126	0xbf24ecd4	-0.6442387
127	0xbd800d94	-0.0625259
128	0x3e948048	0.2900412
129	0xbebbe4e0	-0.36698055
130	0xbf4a7101	-0.7907868
131	0xbe009bb6	-0.12559399
132	0xbe8ea0a2	-0.27856928
133	0xbea9eee5	-0.33190075
134	0xbec4387a	-0.38324338
135	0xbd65cea5	-0.056105275
136	0xbe8e5f8d	-0.27807274
137	0xbe904815	-0.28179994
138	0xbd9a3cd6	-0.07531135
139	0xbe4fc207	-0.2028886
140	0x3e2389f8	0.159706
141	0x3e286897	0.16446148
142	0x3de0943b	0.10965773
143	0x3dcbba1e	0.099476084
144	0xbe5691c8	-0.20954049
145	0xbdc69b20	-0.096975565
146	0xbdce5d1e	-0.100763544
147	0xbe11d10c	-0.14239901
148	0xbe03ad77	-0.1285914
149	0x3e4d4c3c	0.20048612
150	0xbe09e937	-0.1346787
151	0x3e500fd3	0.20318536
152	0xbd2b2b32	-0.04178924
153	0xbeb9297c	-0.36164463
154	0xbd7073b8	-0.058704108
155	0xc0a216ce	-5.065284
156	0xbcc1ac2f	-0.023641674
157	0xbd1d54fe	-0.038411133
158	0xbc00f5ff	-0.00787115
159	0xbd73dac0	-0.059534788
160	0xbd82dc98	-0.06389731
161	0x3d21c236	0.039491855
162	0x3d656b9d	0.05601083
163	0xbd38aab3	-0.045084666
164	0xbe2384df	-0.15968655
165	0xbd7168af	-0.058937725
166	0xbe50354f	-0.20332836
167	0xbe5839c9	-0.21115793
168	0xbca77ba1	-0.020444693
169	0xbe034b5d	-0.12821718
170	0x3d9a43f9	0.07532496
171	0xbe5f3a5c	-0.21799606
172	0x3d830c82	0.0639887
173	0x3b45786e	0.0030131596
174	0xbeb38a3b	-0.350664
175	0xbdd5c61b	-0.10438176
176	0x3e3ce9e5	0.18448599
177	0xbe97c866	-0.2964508
178	0xbea20c4b	-0.31650004
179	0xbeb724b8	-0.35770202
180	0xbc959748	-0.018260613
181	0xbd9ec0de	-0.0775163
182	0xbe2e6609	-0.17031111
183	0xbe98d641	-0.29850963
184	0x3c28c3a9	0.010300555
185	0xbd8e062b	-0.0693477
186	0xbe83a4af	-0.2571158
187	0xbd85eb14	-0.06538978
188	0x3cec0b3d	0.028813953
189	0x3e325a94	0.17417365
190	0xbe53dcc3	-0.20689683
191	0xbea780ed	-0.3271555
192	0xbd8fa927	-0.07014685
193	0x3e5d4608	0.21608746
194	0xbe71426c	-0.23560494
195	0xbe8e6ac3	-0.27815828
196	0xbda541ff	-0.080692284
197	0x3d05f05d	0.03269993
198	0x3d047587	0.032338645
199	0xbe3e1add	-0.18564935
200	0xbf0514a7	-0.5198464
201	0xbdc88a05	-0.0979195
202	0xbeb008d9	-0.3438175
203	0x3da6def1	0.081479914
204	0xbdf9e7fb	-0.1220245
205	0xbe331c72	-0.1749132
206	0xbf064866	-0.5245422
207	0x3de1b88d	0.110215284
208	0xbe5ac255	-0.21363194
209	0xbdaa391e	-0.083116755
210	0xbdc33942	-0.095324054
211	0x3e0de9e8	0.1385876
212	0xbddf5c4f	-0.10906278
213	0x3d54970e	0.05190187
214	0xbe30ce31	-0.17266156
215	0x3e3f1bcb	0.18662946
216	0xbd1d7cf4	-0.038449243
217	0x3d9017c9	0.07035787
218	0xbda0fbe6	-0.07860546
219	0xbbfd0319	-0.0077213165
220	0x3e12394a	0.14279667
221	0xbe5f1919	-0.21786918
222	0xbd87107a	-0.065949395
223	0x3f0cdac8	0.55021334
224	0x3e4a0287	0.19727527
225	0xbeec8359	-0.4619396
226	0x3ea0f069	0.31433418
227	0xbe80a124	-0.2512294
228	0xbda80ea6	-0.08205919
229	0x3e6a0778	0.22854412
230	0xbcbe6261	-0.02324027
231	0xbe0c3ce7	-0.13695107
232	0x3d6f717a	0.05845783
233	0xbe0c3430	-0.13691783
234	0xbdf1d175	-0.11807529
235	0x3ea53c43	0.3227254
236	0x3cab7556	0.020929974
237	0x3da49950	0.080370545
238	0xbd98e983	-0.07466414
239	0xbedd06c8	-0.43169236
240	0xbe518d11	-0.20463969
241	0xbe2fb4cb	-0.17158811
242	0xbe8191e8	-0.2530663
243	0xbca31cda	-0.019911218
244	0xbdc4ffe8	-0.09619123
245	0xbd652bea	-0.055950083
246	0x3ea87476	0.32901353
247	0xbe74036c	-0.2382943
248	0xbe9913fe	-0.29898065
249	0xbd2dd80d	-0.04244237
250	0xbde2607c	-0.11053559
251	0xbd6d226b	-0.05789415
252	0xbcb339d6	-0.021878164
253	0x3daefa0a	0.08543785
254	0xbe3112e0	-0.17292356
255	0xbe8afff4	-0.27148402

model.0.bias f4 [256]
0	0x3e0a1973	0.1348627
1	0x3c002589	0.007821449
2	0xbe69461a	-0.22780648
3	0x3e2be72e	0.16787407
4	0x3ecf4f3a	0.40490133
5	0x3e12d05a	0.14337292
6	0x3ddc276c	0.107497066
7	0x3de0089d	0.10939143
8	0x3e402361	0.18763496
9	0x3e36ca8a	0.178507
10	0xbe5c000d	-0.21484394
11	0xbc8f486c	-0.017490588
12	0x3d4b9c24	0.049709454
13	0xbecfeccc	-0.4061035
14	0x3eafdba1	0.3434725
15	0x3eb623f6	0.3557431
16	0xbdbaecca	-0.09127195
17	0xbde84d89	-0.11342914
18	0x3e9c0544	0.30472767
19	0xbe6e185d	-0.23251481
20	0xbdaa4080	-0.08313084
21	0xbed4709b	-0.4149216
22	0xbdee4e77	-0.1163606
23	0xbe2c9394	-0.16853172
24	0xbf03c118	-0.5146651
25	0xbdb11452	-0.08646454
26	0xbe590020	-0.21191454
27	0x3e15b48f	0.14619659
28	0xbddda5ec	-0.10822663
29	0xbc3f9c30	-0.011694953
30	0x3e8cb9fd	0.27485648
31	0x3ec58605	0.3857881
32	0xbe30e986	-0.17276582
33	0xbe29a7c0	-0.16567898
34	0xbea093c4	-0.31362736
35	0x3dbc03bc	0.091804
36	0xbdc9b177	-0.09848302
37	0xbea8f12e	-0.32996505
38	0x3d00dc96	0.031460367
39	0x3dc4c6b4	0.09608212
40	0xbd6b3f08	-0.05743316
41	0x3e289c0b	0.16465776
42	0xbb4142cc	-0.0029489277
43	0xbd33f1e8	-0.04393187
44	0x3e6ee4e3	0.23329501
45	0xbe43d8ed	-0.1912572
46	0xbde8c18c	-0.11365041
47	0xbd154a42	-0.03644777
48	0x3e718872	0.23587206
49	0xbdfb98e9	-0.12285025
50	0xbd3f9342	-0.046771295
51	0x3d7048bb	0.05866311
52	0xbec103d9	-0.37698248
53	0xbe9027ea	-0.28155452
54	0x3e5a7a08	0.21335614
55	0xbe7b2c50	-0.24528623
56	0xbeaaaaec	-0.33333528
57	0x3d12c6d9	0.035834167
58	0xbea3a60c	-0.3196262
59	0xbd4d0363	-0.050052058
60	0x3d819434	0.06327096
61	0xbdf1c808	-0.11805731
62	0x3e9a49b4	0.30134356
63	0xbe0047ba	-0.12527362
64	0xbd90d56f	-0.07071959
65	0xbe1e08d8	-0.15433061
66	0xbd7b1fd2	-0.061309643
67	0x3e9fbf2d	0.31200543
68	0xbe9d87b1	-0.30767587
69	0x3e4b88f0	0.19876456
70	0xbd88f016	-0.06686418
71	0x3e907a14	0.28218138
72	0xbd451b8d	-0.048121978
73	0x3dede346	0.116156146
74	0xbe48e8e6	-0.19620094
75	0xbebe4a6d	-0.37166157
76	0xbe27a60a	-0.16371933
77	0xbdf61d9a	-0.12017365
78	0xbe3ea3f7	-0.18617235
79	0x3edd317f	0.43201825
80	0x3d0864a8	0.03329912
81	0x3ea1855d	0.3154706
82	0xbefcbd3b	-0.4936312
83	0xbe2195c1	-0.15779783
84	0x3d8999f0	0.067188144
85	0xbe598f87	-0.21246158
86	0x3ea77843	0.3270894
87	0x3eaf0250	0.34181452
88	0xbd2340a6	-0.039856575
89	0x3d84c265	0.0648239
90	0x3e653ec8	0.2238723
91	0xbe32f99d	-0.17478032
92	0xbe3529fb	-0.17691796
93	0xbe127441	-0.1430216
94	0xbdf35948	-0.118822634
95	0xbe89573b	-0.26824364
96	0xbe961884	-0.2931558
97	0xbdf979b0	-0.12181413
98	0xbeb8636f	-0.36013362
99	0x3ed4895c	0.41511047
100	0x3ecf1965	0.40449062
101	0xbe2564b3	-0.16151695
102	0xbd8ec51c	-0.069711894
103	0x3e970313	0.29494533
104	0x3ded06a1	0.1157353
105	0x3e2b6b52	0.16740158
106	0xbcb1d103	-0.02170611
107	0x3e0da6df	0.13833188
108	0xbc0d5095	-0.008625169
109	0xbe087e1d	-0.13329358
110	0x3ce56419	0.028001832
111	0xbd990564	-0.07471731
112	0xbdcbfb3a	-0.09960027
113	0xbdadb09e	-0.08480953
114	0xbd90007c	-0.070313424
115	0xbdb6be20	-0.08922982
116	0x3e09679b	0.13418429
117	0x3e9bf3fd	0.30459586
118	0xbd200671	-0.039068643
119	0x3e1c68ab	0.15274303
120	0xbeb146e1	-0.3462439
121	0x3d766308	0.060153037
122	0xbe0c9104	-0.13727194
123	0x3da879ee	0.08226381
124	0xbdd89a36	-0.105762884
125	0xbee67e51	-0.45018247
126	0x3eb93a5b	0.36177334
127	0x3e4ae149	0.19812502
128	0xbe9e35bc	-0.3090037
129	0xbe7b2461	-0.24525596
130	0xbdde2607	-0.10847097
131	0x3e5f8f8b	0.21832101
132	0x3c29a169	0.010353425
133	0xbe59c008	-0.2126466
134	0x3ec8ce6e	0.39219993
135	0x3e04d0d7	0.12970291
136	0xbdfa93dd	-0.12235234
137	0xbe65f3c3	-0.22456269
138	0x3db226ae	0.08698784
139	0x3eb75a4f	0.35811087
140	0xbdf64f8b	-0.1202689
141	0x3dd64bd7	0.10463684
142	0x3e78dc9d	0.24302907
143	0xbd1bd8c5	-0.038048524
144	0x3e772ace	0.24137422
145	0x3ea6f13e	0.32605928
146	0x3da9f6da	0.08299036
147	0x3deba35d	0.115057684
148	0xbf411327	-0.7541985
149	0xbe0ea1c8	-0.13928902
150	0x3e328650	0.17434049
151	0xbe20b95b	-0.15695707
152	0x3ea299d5	0.3175799
153	0xbec0f5a3	-0.37687406
154	0xbe64e58c	-0.2235319
155	0x3d75398b	0.05986933
156	0xbc77d4bc	-0.015126403
157	0x3e5c37f1	0.21505715
158	0x3e9403fd	0.28909293
159	0x3ed339bb	0.41254982
160	0xbe4a2be7	-0.1974331
161	0xbc698fed	-0.014255506
162	0x3ee09c0c	0.43869054
163	0x3db20576	0.08692448
164	0xbe2d29a8	-0.16910422
165	0x3eaca88b	0.33722338
166	0xbe1290c6	-0.14313039
167	0xbe00fca4	-0.12596375
168	0xbcfc5f26	-0.030807089
169	0x3e9592dc	0.29213607
170	0xbe2b940b	-0.16755693
171	0xbd8ed481	-0.06974126
172	0x3e66f322	0.22553685
173	0xbe63d9f1	-0.22251107
174	0x3e788292	0.24268559
175	0x3dd0f5c1	0.10203124
176	0xbe9a4e66	-0.30137938
177	0x3ee80e0c	0.45323217
178	0xbd7ff952	-0.06249363
179	0xbe572c04	-0.21012884
180	0xbeb17c8e	-0.3466534
181	0x3e8b810a	0.27246886
182	0x3dc03048	0.09384209
183	0x3d48c36a	0.049014486
184	0xbe1b1cd4	-0.15147716
185	0xbbe85d0a	-0.0070911692
186	0xbe92405a	-0.2856472
187	0xbec0213e	-0.37525362
188	0x3dc7da21	0.09758402
189	0x3e0cf617	0.13765751
190	0xbe6c232a	-0.23060289
191	0x3e5608cc	0.20901793
192	0x3eccb4ea	0.39981776
193	0x3d488805	0.048957843
194	0xbe280e66	-0.16411743
195	0xbea9959d	-0.33121958
196	0x3ea88272	0.32912022
197	0xbcf28da8	-0.029608563
198	0x3e6682eb	0.22510879
199	0xbdf1a7f2	-0.11799611
200	0xbea5955b	-0.32340512
201	0x3ba4d528	0.005030293
202	0x3ca5d682	0.020243887
203	0x3db29bc7	0.087211184
204	0x3cbcf5f4	0.023066498
205	0x3cedefa1	0.029044928
206	0xbe567438	-0.20942771
207	0xbe02e4b0	-0.1278255
208	0xbdc7f640	-0.09763765
209	0xbe605a41	-0.21909429
210	0x3d2d10a0	0.042252183
211	0x3dcea2ae	0.100896224
212	0x3dd06a77	0.101765566
213	0x3e50a543	0.20375542
214	0xbdfaef2f	-0.12252652
215	0xbe38b49f	-0.18037651
216	0x3e824978	0.25446677
217	0x3e830701	0.2559128
218	0xbdb03b79	-0.086050935
219	0x3ef98cd7	0.48740265
220	0xbd4882e3	-0.04895295
221	0xbe290eb1	-0.1650951
222	0xbc8867ce	-0.01665106
223	0xbe197b9b	-0.14988558
224	0xbe816e11	-0.25279287
225	0xbe601581	-0.21883203
226	0x3e2752fa	0.16340247
227	0xbe7897db	-0.24276678
228	0x3d745028	0.059646755
229	0x3e1e0eb7	0.15435301
230	0x3dfa280e	0.12214671
231	0xbdaffa31	-0.08592642
232	0x3cf1d1f2	0.029519055
233	0x3dd8252f	0.10553967
234	0x3f0de802	0.5543214
235	0xbd93c9f6	-0.07216255
236	0x3e11236d	0.1417367
237	0xbe4f4dbf	-0.20244502
238	0x3ed3c839	0.41363695
239	0x3ec2853b	0.37992272
240	0xbe3cbda4	-0.18431717
241	0x3da0ec0d	0.07857523
242	0xbd1906f1	-0.037360135
243	0xbd7e9b99	-0.06216011
244	0xbe339f7f	-0.17541312
245	0xbe8056e2	-0.25066286
246	0x3e8e3d38	0.2778108
247	0x3ea39612	0.31950432
248	0xbec05017	-0.37561104
249	0xbe350736	-0.17678532
250	0x3d99633d	0.07489631
251	0x3d570dc8	0.052503377
252	0xbe0a86cb	-0.13527982
253	0xbec11718	-0.37712932
254	0x3dd2d1e9	0.102939434
255	0x3e3dd693	0.18538885

model.2.weight f4 [128, 256]
0	0x3d0dbc27	0.034603264
1	0x3d65ca99	0.056101415
2	0x3bd5d8f7	0.0065261084
3	0x3dac0403	0.08399203
4	0x3dd18d52	0.10232033
5	0xbda4a9cc	-0.08040199
6	0xbda07949	-0.07835633
7	0x3d4aee89	0.04954389
8	0xbd33bd2b	-0.043881577
9	0xbcd4d5da	-0.025980879
10	0x3ecbcc5f	0.3980436
11	0xbdb1fe06	-0.08691029
12	0x3ea6aa67	0.32551882
13	0x3ddb0343	0.106939815
14	0x3e2460d0	0.16052556
15	0x3bc458d4	0.0059920345
16	0x3d3026bd	0.043005694
17	0xbbf0070a	-0.007325058
18	0xbe8dc47c	-0.27688968
19	0x3e36c0d9	0.17847003
20	0xbd923322	-0.07138659
21	0x3dc4bc82	0.096062675
22	0xbd0e38e2	-0.034722216
23	0x3defe950	0.11714423
24	0x3df82d42	0.12118007
25	0x3dcd8968	0.10035974
26	0xbd7be0a7	-0.061493542
27	0x3de41004	0.11135867
28	0x3c1ea442	0.009682717
29	0x3d2562a4	0.040377274
30	0x3e37a77a	0.17934981
31	0xbdf6bcf9	-0.120477624
32	0xbde3f2da	-0.11130305
33	0xbcbb931c	-0.022897296
34	0x3db69623	0.08915355
35	0xbba66101	-0.0050774817
36	0x3b8bba40	0.004264146
37	0x3db0cb56	0.08632533
38	0xbd3e66e0	-0.046484828
39	0x3e593f18	0.21215475
40	0x3dc5e249	0.09662301
41	0xbe3d9e8c	-0.18517512
42	0xbe9c7091	-0.3055463
43	0x3e297d50	0.16551709
44	0xbdc08356	-0.0940005
45	0xbca90eeb	-0.020636996
46	0xbd1cff5e	-0.038329475
47	0xbd2c572a	-0.042075314
48	0x3e58e7d0	0.2118218
49	0x3d9c1b59	0.07622404
50	0x3da2d932	0.07951583
51	0x3d45caed	0.04828923
52	0x3e2e4adb	0.17020743
53	0xbd5b0903	-0.05347539
54	0x3e935345	0.28774467
55	0xbd9acbd8	-0.07558411
56	0x3dc64088	0.09680277
57	0x3d1a9e38	0.037748545
58	0x3c74f569	0.0149510885
59	0xbdf2f7d2	-0.11863674
60	0xbc0224c0	-0.007943332
61	0x3cbbf07a	0.022941817
62	0x3e592d41	0.21208669
63	0x3c2ee717	0.010675213
64	0x3d697735	0.05699845
65	0xbdd62ec5	-0.10458139
66	0xbc891755	-0.016734758
67	0xbd4339ac	-0.047662422
68	0xbdf97b64	-0.12181738
69	0x3d8d2823	0.06892421
70	0xbe0e47bc	-0.13894552
71	0x3e6b451a	0.22975579
72	0xbcc05fc2	-0.02348316
73	0x3e29473f	0.16531084
74	0x3eac9655	0.33708444
75	0x3d76e618	0.06027803
76	0x3e7bf86e	0.24606487
77	0x3df9b83d	0.12193344
78	0x3e4d9ffc	0.2008056
79	0x3e4a70ee	0.19769642
80	0x3d2c3d2b	0.04205052
81	0x3ea27d58	0.31736255
82	0x3e83f677	0.25773975
83	0x3d93823e	0.07202576
84	0xbc8b1027	-0.016975475
85	0xbd6d4007	-0.05792239
86	0x3da063aa	0.078315094
87	0x3e2d0bc6	0.16899022
88	0x3e002314	0.12513381
89	0xbba0dee0	-0.0049093813
90	0x3d8aa6bd	0.06770084
91	0xbd517446	-0.051136278
92	0x3da9d990	0.0829345
93	0xbcbb6a61	-0.022877874
94	0x3eb42d93	0.3519102
95	0x3a58e842	0.0008274355
96	0x3d3f9710	0.046774924
97	0xbde3a998	-0.11116332
98	0x3e16f31e	0.1474118
99	0x3e9d391d	0.30707636
100	0x3e97e55a	0.2966717
101	0x3caf2a7b	0.021382561
102	0xbdcb8aaa	-0.099385574
103	0x3e439021	0.1909795
104	0x3cd62c07	0.02614404
105	0x3da900e1	0.08252121
106	0x3ddd11fb	0.10794445
107	0x3dacbb86	0.08434205
108	0x3d97a139	0.07403798
109	0xbd187354	-0.03721936
110	0x3c53ffe4	0.012939427
111	0x3d14a24d	0.036287595
112	0x3c880b65	0.016606996
113	0xbd1c7e24	-0.038206235
114	0xbe72ba57	-0.23703896
115	0xbca2c906	-0.019871246
116	0xbd5a6324	-0.053317204
117	0x3e4a5916	0.19760546
118	0x3e2215cb	0.15828626
119	0x3c858eb8	0.016303405
120	0x3d8169d6	0.06319015
121	0x3d051f3a	0.032500483
122	0xbdf7af3d	-0.12093971
123	0x3e0a1a22	0.13486531
124	0x3dbd43da	0.09241457
125	0xbd9a5f88	-0.075377524
126	0x3e9bd7a3	0.30437955
127	0x3ddbc912	0.107317105
128	0x3de89585	0.113566436
129	0x3c8d92e3	0.017281955
130	0x3db3e25f	0.08783411
131	0x3e80af44	0.25133717
132	0x3db2c3e2	0.08728768
133	0x3d033ac0	0.03203845
134	0x3dfcd66c	0.12345585
135	0x3e1c49ed	0.15262575
136	0x3d9aabf6	0.0755233
137	0xbd839e6d	-0.06426702
138	0x3e540e69	0.20708622
139	0x3f1dbfb8	0.61620665
140	0xbdca15f0	-0.098674655
141	0xbe77167e	-0.24129674
142	0x3cfa68d4	0.030567564
143	0x3dcd444e	0.10022794
144	0xbd1914f8	-0.037373513
145	0x3d200fa7	0.039077427
146	0x3d240ae6	0.040049456
147	0x3e3d00f6	0.18457398
148	0x3d8135dc	0.06309101
149	0xbc5b29b2	-0.01337664
150	0x3e5293ca	0.2056419
151	0xbdb018f6	-0.08598511
152	0x3e9c0377	0.30471393
153	0x3d6b362a	0.0574247
154	0x3d47dd0e	0.0487948
155	0x3d81c807	0.0633698
156	0xbcd0f17c	-0.025505774
157	0x3e059e0e	0.13048574
158	0xbebca7bb	-0.36846718
159	0x3e16f744	0.14742762
160	0x3bb91ca1	0.005649165
161	0x3dbb97d2	0.09159817
162	0x3d5fb15a	0.054612495
163	0xbdc4a209	-0.09601218
164	0xbc1b17e9	-0.00946615
165	0x3dcf3a36	0.10118525
166	0x3e485158	0.1956228
167	0x3dd6baa5	0.10484818
168	0x3c1e3531	0.0096562365
169	0x3dd7ee9e	0.105435595
170	0x3e525ece	0.20543978
171	0xbd1c131b	-0.038104158
172	0x3d215339	0.039386008
173	0x3bf02182	0.007328213
174	0x3e51359f	0.20430611
175	0x3b536d25	0.00322611
176	0x3a296ad7	0.0006462759
177	0x3e0a768b	0.13521783
178	0xbd07dba8	-0.033168465
179	0xbe8bf437	-0.2733476
180	0x3d82479f	0.06361317
181	0x3e872fc6	0.26403636
182	0xbe475b45	-0.1946841
183	0xbd305e7a	-0.04305885
184	0xbc916c03	-0.0177517
185	0xbd570ba2	-0.05250133
186	0xbd714f69	-0.058913622
187	0x3d01ef57	0.031722393
188	0x3e03442a	0.12818971
189	0xbc680102	-0.0141603965
190	0xbd8cc159	-0.06872816
191	0xbd48d243	-0.049028646
192	0xbe3ea947	-0.18619262
193	0x3e2ba8f3	0.16763668
194	0xbd859d92	-0.06524195
195	0x3d0ba064	0.034088507
196	0x3d59116e	0.052995138
197	0xbe33c3d9	-0.17555179
198	0x3e4cb4ea	0.19990888
199	0xbdac489b	-0.08412286
200	0x3e8593fe	0.26089472
201	0x3dd47a8e	0.10374938
202	0x3e7f8859	0.24954356
203	0xbea2752e	-0.31730026
204	0xbb36f9ee	-0.0027919966
205	0x3de4d703	0.11173823
206	0xbe33c8eb	-0.17557113
207	0xbd558cf7	-0.052136388
208	0xbda57f71	-0.08080948
209	0x3d664bc6	0.056224607
210	0x3e963fc4	0.29345524
211	0xbb35a538	-0.0027716886
212	0xbcb1d66c	-0.02170869
213	0x3d374e7d	0.044752587
214	0x3cec71a1	0.028862776
215	0xbdf27c43	-0.11840107
216	0xbe2851c0	-0.16437435
217	0x3d2df882	0.042473324
218	0x3d19831a	0.037478544
219	0xbf0df5b8	-0.5545306
220	0xbdf2342e	-0.11826359
221	0x3ded123a	0.11575742
222	0x3d410eba	0.047133185
223	0xbe1741a0	-0.14771128
224	0x3e2a8713	0.16653089
225	0xbd632fb5	-0.05546542
226	0x3d69819a	0.057008363
227	0xbca02e57	-0.019553347
228	0xbcfbf0d1	-0.030754479
229	0x3d8f07bf	0.06983899
230	0x3ea95d11	0.33078817
231	0x3dbf323b	0.093357526
232	0x3c38c740	0.011277974
233	0xbce03b5c	-0.027372055
234	0x3e0f3b76	0.13987526
235	0x3cecd8a2	0.028911892
236	0xbe1eee51	-0.15520598
237	0xbd9190ce	-0.071076974
238	0x3e9a2311	0.3010488
239	0xbef04c1b	-0.46933064
240	0x3c9ff7ef	0.019527404
241	0x3dd524b1	0.10407389
242	0x3d48712d	0.048936058
243	0xbdbe1942	-0.09282161
244	0x3e44f929	0.19235672
245	0xbe0679ce	-0.13132402
246	0xbd49e550	-0.049290955
247	0xbd1af3f7	-0.03783032
248	0x3e3bc79c	0.18337864
249	0x3d5c4499	0.053776357
250	0x3dcb0d58	0.099146545
251	0xbca1eeda	-0.019767214
252	0xbc39663b	-0.011315878
253	0xbce8276f	-0.028339116
254	0xbcbe4f08	-0.023231044
255	0xbd7f681e	-0.062355153

model.2.bias f4 [128]
0	0x3ec2909b	0.3800095
1	0x3da71624	0.0815852
2	0x3d6fca63	0.05854262
3	0x3cc6a1ea	0.024247129
4	0xbdb0ed55	-0.086390175
5	0x3e304b48	0.17216218
6	0x3c267bed	0.010161382
7	0x3d3cb0e3	0.04606713
8	0x3d369c8b	0.044582885
9	0xbd62807f	-0.055298325
10	0xbd7e0908	-0.06202033
11	0xbe8cad58	-0.27476
12	0x3d3fa52b	0.046788376
13	0x3ab546c1	0.001383029
14	0xbe4d4073	-0.20044117
15	0xbc70e07a	-0.014701957
16	0xbc14fb10	-0.009093061
17	0x3e06de0a	0.13170639
18	0xbdb362b8	-0.087590635
19	0xbd3368ed	-0.043801237
20	0x3cd91454	0.026498951
21	0x3e42f7e7	0.1903988
22	0x3ba7fdef	0.005126707
23	0x3e48bfde	0.19604442
24	0x3d9581c9	0.07300145
25	0x3e865545	0.2623693
26	0x3c182ccc	0.009288024
27	0xbd3d6bd6	-0.04624542
28	0x3db8137a	0.0898809
29	0xbccd8c9a	-0.025091458
30	0x3e4b8016	0.1987308
31	0xbd84cd84	-0.064845115
32	0x3ebe85ef	0.37211558
33	0xbcacea66	-0.021107864
34	0x3d8d0285	0.06885246
35	0xbd8890ff	-0.06668281
36	0x3b8679a3	0.0041038557
37	0x3d4116bf	0.047140833
38	0xbc6fd169	-0.01463733
39	0xbd597df6	-0.05309864
40	0x3e08e4c6	0.1336852
41	0xbc32b545	-0.010907476
42	0x3d8ae64f	0.06782209
43	0xbd6a14e3	-0.057148825
44	0xbda9b3fd	-0.08286283
45	0xbd45613f	-0.048188444
46	0x3c2df655	0.010617812
47	0x3e64ced2	0.2234452
48	0xbcb5f1d7	-0.022210045
49	0x3eaf78f3	0.34271964
50	0x3c481619	0.0122123
51	0xbcb5400e	-0.02212527
52	0xbcaaafd3	-0.020835793
53	0xbc964498	-0.018343255
54	0xbc7cc80b	-0.015428553
55	0x3d12a606	0.035802864
56	0xbd2b475d	-0.041816104
57	0x3e204bf7	0.15653978
58	0x3e751cb2	0.23936728
59	0xbd033028	-0.032028347
60	0xbd6568ef	-0.056008276
61	0x3e512760	0.20425177
62	0xbe91f5c0	-0.28507805
63	0x3d656aee	0.05601018
64	0x3e0cd843	0.13754372
65	0x3d93012e	0.071779594
66	0x3eab6789	0.3347743
67	0xbdca6cc2	-0.09884025
68	0x3d8ba1ec	0.068179935
69	0x3e8418f4	0.25800288
70	0xbc2a463b	-0.010392721
71	0x3dcf895a	0.101336196
72	0xbd9ba227	-0.075992875
73	0x3d9a7131	0.07541121
74	0x3eba888e	0.36432308
75	0xbddb33f1	-0.107032664
76	0xbcd371d6	-0.025811117
77	0xbdb5c6dd	-0.08875821
78	0x3e132214	0.14368469
79	0xbcf0853c	-0.029360406
80	0x3b70ca77	0.0036741772
81	0x3e01c43f	0.12672518
82	0xbc8957e0	-0.016765535
83	0x3e1b7e56	0.15184912
84	0xbd90d544	-0.07071927
85	0x3e0eecf6	0.13957581
86	0x3e340414	0.1757968
87	0xbdb91642	-0.090374485
88	0x3e8ae305	0.27126327
89	0x3da5424b	0.08069285
90	0x3e3c9ad1	0.18418433
91	0xbcdaed33	-0.026724434
92	0x3cbda27e	0.023148771
93	0xbbd99d01	-0.006641031
94	0x3d137caf	0.03600758
95	0x3dbab667	0.09116822
96	0x3e77d072	0.2420061
97	0x3c44b442	0.012005867
98	0xbd801a7e	-0.06255053
99	0x3ce39b0c	0.027783893
100	0x3dd4eca3	0.10396697
101	0x3e2e1ccc	0.17003173
102	0x3db87edc	0.090085715
103	0x3e37c332	0.17945555
104	0xbdd1fdab	-0.102534615
105	0xbef5739e	-0.4793977
106	0xbd588a74	-0.052866414
107	0xbbed2fde	-0.007238372
108	0x3dbfade6	0.0935934
109	0x3ee69560	0.4503584
110	0x3e1e65ca	0.15468517
111	0xbd5d1f65	-0.05398502
112	0x3de3a2f3	0.111150645
113	0x37cbf99f	2.4315725e-05
114	0x3e8526e6	0.2600624
115	0x3d0730aa	0.033005394
116	0xbe0f72f7	-0.140087
117	0x3dba8c23	0.0910876
118	0x3ec6b134	0.3880707
119	0x3dc209e4	0.09474543
120	0x3e465eb0	0.19372058
121	0x3ecedcec	0.40402925
122	0xbd124293	-0.03570802
123	0xbd91075e	-0.07081483
124	0xbd3d8468	-0.04626885
125	0xbcd045dc	-0.025423937
126	0x3d532412	0.05154807
127	0xbc18c193	-0.009323495

model.4.weight f4 [64, 128]
0	0x3e56ff6d	0.20995875
1	0x3c85ea18	0.016346976
2	0x3e6dd188	0.23224461
3	0xbdfad8fa	-0.12248416
4	0xbdfcfdb3	-0.12353077
5	0xbdb1b5f4	-0.08677283
6	0x3d8f154c	0.06986484
7	0x3cf8ae6c	0.030356608
8	0xbea50850	-0.32232904
9	0x3d08d144	0.033402696
10	0xbca5e977	-0.020252926
11	0xbed58d5c	-0.4170941
12	0xbe0efdb7	-0.13963972
13	0xbd464f44	-0.048415437
14	0xbe9b6ae3	-0.30354986
15	0x3dbe1a0b	0.09282311
16	0x3caa6794	0.020801343
17	0xbd2825f6	-0.041051827
18	0xbd0b9d6b	-0.034085672
19	0xbd468722	-0.048468716
20	0x3c049fd0	0.008094743
21	0xbf159fce	-0.5844697
22	0x3dd1ddac	0.10247359
23	0x3e2f0cfa	0.17094794
24	0x3e65fef9	0.22460546
25	0x3c3b9dbe	0.011451183
26	0x3e4e097c	0.20120806
27	0xbd09d5c1	-0.033651117
28	0x3db4c546	0.088266894
29	0x3d569582	0.052388676
30	0x3d9f40c6	0.077760264
31	0x3d4e4789	0.05036119
32	0x3d94a8a8	0.07258731
33	0xbce64641	-0.028109672
34	0x3e9fa8b5	0.311834
35	0x3d28ae56	0.041181885
36	0xbc720888	-0.014772542
37	0x3e3290e6	0.17438087
38	0x3bb7b6a2	0.0056064883
39	0x3d0b48c5	0.034004945
40	0x3e2ae592	0.16689137
41	0xbdc57f7d	-0.09643457
42	0xbe0d37c5	-0.13790806
43	0xbc993f21	-0.01870686
44	0x3c0259df	0.007955997
45	0xbbbced00	-0.0057655573
46	0xbc279085	-0.010227327
47	0x3c8120b0	0.015762657
48	0xbeca8e55	-0.39561716
49	0xbf99ee11	-1.2025777
50	0xbd2698d7	-0.040673103
51	0xb9eac10c	-0.0004477579
52	0x3ca1b112	0.019737754
53	0x3d7fcf3e	0.0624535
54	0x3dc69f51	0.09698356
55	0xbd054137	-0.032532897
56	0xbcc47c05	-0.023984918
57	0xbcdb6931	-0.026783558
58	0xbe2156dd	-0.15755792
59	0xbc9d0487	-0.019167198
60	0x3d85323e	0.065037236
61	0x3ccce257	0.025010271
62	0x3f01b9da	0.5067421
63	0x3e7e5cfa	0.24840155
64	0xbcf86fcb	-0.030326745
65	0x3ddad934	0.106859595
66	0x3de81239	0.11331601
67	0xbce411ea	-0.027840573
68	0xbd497017	-0.049179163
69	0xbdad3fa0	-0.08459401
70	0xbd9fb97b	-0.077990495
71	0x3f04d9c1	0.51894766
72	0x3d118205	0.035524387
73	0x3ec15448	0.37759614
74	0xbe7e44a1	-0.24830867
75	0xbd214c74	-0.039379552
76	0xbd87a157	-0.0662257
77	0x3ca11465	0.019663045
78	0x3ed14af7	0.40877506
79	0x3df615bc	0.12015864
80	0x3c76c554	0.015061695
81	0xbd95023c	-0.07275817
82	0x3d66ecbd	0.056378115
83	0x3f0394b9	0.5139881
84	0x3db4eeb8	0.088345945
85	0x3df1de7b	0.11810013
86	0xbeaadddf	-0.333724
87	0x3d96295f	0.0733211
88	0x3e95ed9f	0.29282853
89	0x3cde16c7	0.02711047
90	0xbee116aa	-0.43962604
91	0xbd1d68e4	-0.03843011
92	0xbd23b875	-0.039970834
93	0x3db1f3e8	0.086890996
94	0x3f1ceeb8	0.61301756
95	0xbdd3445e	-0.103157744
96	0xbe8c2512	-0.27372032
97	0x3d958e64	0.073025495
98	0xbe82fd2b	-0.25583777
99	0xbd2552c4	-0.040362135
100	0x3c1bf819	0.0095196
101	0x3dc82568	0.0977276
102	0x3d40e4d1	0.047093216
103	0x3e2faef3	0.17156582
104	0xbd221864	-0.039574042
105	0xbf634e15	-0.8879102
106	0xbd26c048	-0.040710717
107	0x3c52b5e2	0.012860747
108	0x3d5808a0	0.0527426
109	0xbdb83d48	-0.089960635
110	0x3e911a34	0.28340304
111	0x3cb869f8	0.022511467
112	0x3e748aab	0.23881023
113	0x3e1f1c32	0.155381
114	0x3ea6b962	0.3256331
115	0xbe2b84b2	-0.16749838
116	0xbc255ac7	-0.010092444
117	0x3df1a98e	0.11799918
118	0x3eaf60bd	0.34253493
119	0x3e2b5287	0.167307
120	0x3d92fa70	0.071766734
121	0x3e79f247	0.24408828
122	0x3d00ba7d	0.03142785
123	0xbd2f9bea	-0.0428733
124	0xbd54cea0	-0.051954865
125	0xbcf79994	-0.030224599
126	0xbe200dc9	-0.15630259
127	0xbd798041	-0.060913328
128	0x3c6b1a92	0.014349597
129	0x3d644652	0.055731125
130	0x3c406af1	0.011744247
131	0xbc7b1b1d	-0.0153262885
132	0xbc9a39e1	-0.018826427
133	0x3dca109c	0.09866449
134	0xbbe1a8e8	-0.0068865903
135	0x3c0059ed	0.00783394
136	0x3d612e66	0.05497589
137	0xbd0629c8	-0.03275469
138	0xbd874b8f	-0.066062085
139	0x3d77ec43	0.06052805
140	0x3d33f423	0.043934
141	0x3caa2534	0.020769693
142	0xbdc257c4	-0.09489396
143	0x3d4135c6	0.047170423
144	0xbca35709	-0.019938963
145	0xbdb528bb	-0.08845659
146	0xbd7bdb7a	-0.061488606
147	0x3d8d6b1a	0.069051936
148	0xbda86644	-0.082226306
149	0xbdabc9f0	-0.08388126
150	0x3d883cbf	0.066522114
151	0x3d673543	0.05644728
152	0x3c9a956e	0.018870082
153	0xbd6f5aa9	-0.05843607
154	0xbdc57fa3	-0.096434854
155	0xbbda9160	-0.006670162
156	0xbbe14779	-0.0068749753
157	0xbd4106da	-0.047125675
158	0xbd34801c	-0.044067487
159	0x3d3a855e	0.045537345
160	0xbd8d986a	-0.06913836
161	0xbd4d024e	-0.050051026
162	0xbd000f05	-0.031264324
163	0xbdb2e6a6	-0.08735399
164	0x3d7b76fb	0.061392765
165	0xbc1f7ff4	-0.009735096
166	0x3c9d54b0	0.019205421
167	0x3d0eb9fb	0.034845334
168	0x3c9a56a0	0.018840134
169	0x3d12af10	0.035811484
170	0xbca6e8a9	-0.020374613
171	0x3d9cd315	0.07657448
172	0xbc090740	-0.008363545
173	0xbd9cc064	-0.07653883
174	0x3d03b9c1	0.03215957
175	0x3d86468a	0.06556423
176	0xbd01ec2e	-0.03171938
177	0xbc905b10	-0.017621547
178	0x3c5400ea	0.012939671
179	0x3d9a1df9	0.07525248
180	0xbda80580	-0.08204174
181	0xbd23cc7e	-0.03998994
182	0xbd57ecbe	-0.05271601
183	0xbd9317ae	-0.07182251
184	0xbd7add1f	-0.061246034
185	0xbc3c7178	-0.011501662
186	0xbdb56d35	-0.0885872
187	0xbd9f4b12	-0.077779904
188	0xbd59b634	-0.053152278
189	0x3d9dced5	0.07705466
190	0x3d3df540	0.046376467
191	0xbcac6477	-0.021044
192	0xbbb28da2	-0.005449013
193	0xbd8a2c1a	-0.06746693
194	0xbd1a53e7	-0.03767767
195	0x3c903720	0.01760441
196	0xbd2e1c91	-0.04250771
197	0xbdc6c71d	-0.097059466
198	0xbc993e9c	-0.018706612
199	0xbd9f1db9	-0.07769341
200	0xbb27a2e0	-0.0025579259
201	0x3ce92a24	0.028462477
202	0xbc7040dc	-0.014663901
203	0x3ad723aa	0.0016413827
204	0xbd830a42	-0.06398441
205	0x3d5d4a36	0.05402585
206	0xbd3b724c	-0.0457633
207	0x3c806113	0.015671289
208	0x3d182306	0.037142776
209	0x3ced5eb1	0.028975816
210	0x3d25a135	0.040436942
211	0x3c6ea786	0.014566308
212	0xbd3a4fe0	-0.04548633
213	0x3d66c0f2	0.05633635
214	0xbdab8715	-0.08375374
215	0x3d80a883	0.06282141
216	0xbc98214e	-0.018570568
217	0xbd92a6f3	-0.07160749
218	0xbd13f856	-0.036125503
219	0xbcf1fd68	-0.029539779
220	0xbd54603a	-0.05184958
221	0x3d39caee	0.045359544
222	0xbd13ae38	-0.03605482
223	0x3d61b7ef	0.055107053
224	0xbd86d730	-0.065840125
225	0x3d40950e	0.04701715
226	0xbdadef31	-0.08492888
227	0x3c974dea	0.01846977
228	0xbdbae1ac	-0.09125075
229	0xbd888a7c	-0.06667039
230	0xbda8eab8	-0.08247894
231	0x3b71ef3c	0.0036916276
232	0x3d8776ad	0.066144325
233	0xbcbad130	-0.022804826
234	0x3d714722	0.05890573
235	0x3d658645	0.056036253
236	0xbdb8d066	-0.09024124
237	0xbd1e22c0	-0.03860736
238	0xbdcd1a51	-0.10014785
239	0xbcbc8c91	-0.023016246
240	0xbda10067	-0.07861405
241	0x3c0638b7	0.008192233
242	0x3ca16160	0.019699752
243	0xbd3e1a7c	-0.046411976
244	0xbc66ccb0	-0.014086887
245	0xbdca5080	-0.098786354
246	0x3b906698	0.0044067614
247	0xbcf0a55e	-0.029375728
248	0x3d740fdc	0.059585437
249	0xbd5548a8	-0.052071244
250	0xbd4854d7	-0.048909035
251	0xbd2f2c18	-0.04276666
252	0x3d35ecf6	0.044415437
253	0xbcc8d154	-0.024513878
254	0x3b80b801	0.003928185
255	0x3d5b6f2e	0.053572826

model.4.bias f4 [64]
0	0x3e40df4b	0.1883518
1	0xbbc4a6aa	-0.006001313
2	0x3e15c561	0.14626075
3	0x3da8552a	0.08219369
4	0x3ed5e3e9	0.41775444
5	0x3e86fccd	0.26364747
6	0x3e35332f	0.17695306
7	0xbc8ac454	-0.01693932
8	0x3e90bb9a	0.2826813
9	0x3b96fc75	0.004607732
10	0x3e454314	0.1926387
11	0xbe31b45e	-0.17353961
12	0x3edf0a13	0.43562374
13	0xbdb17625	-0.086651124
14	0x3e6d6555	0.23183186
15	0xbcd1c65c	-0.02560728
16	0x3baad89c	0.00521381
17	0x3ef34276	0.47511643
18	0xbddc34d3	-0.10752263
19	0xbaff7916	-0.0019491042
20	0x3e4ce2a6	0.20008335
21	0xbe0931be	-0.13397881
22	0x3e88c894	0.2671553
23	0x3b6d181d	0.0036177703
24	0xbca870b3	-0.020561552
25	0x3e03a43a	0.12855616
26	0xbb8d9ed6	-0.0043219132
27	0x3f16f26f	0.58963674
28	0xbe17a81b	-0.14810221
29	0x3dab6fa4	0.08370903
30	0xbd424dae	-0.047437362
31	0x3e67d873	0.22641163
32	0x3e538e29	0.20659699
33	0xbdfe0077	-0.124024324
34	0xbd843b6a	-0.06456645
35	0x3d977bb7	0.073966436
36	0x3c3b082c	0.011415523
37	0x3cfaa413	0.030595815
38	0x3d14a81d	0.036293138
39	0x3e3706cb	0.17873685
40	0x3e666841	0.22500707
41	0x3e949677	0.29021046
42	0xbdb8e47e	-0.090279564
43	0x3e54bc12	0.20774868
44	0xbdbdd150	-0.09268439
45	0x3eebcfe4	0.46057045
46	0xbdf9a365	-0.12189368
47	0x3da75766	0.08170967
48	0x3cd2c9c8	0.025730982
49	0xbdc23ffc	-0.0948486
50	0x3d01f99e	0.031732194
51	0x3eccf953	0.4003397
52	0x3df57b77	0.1198644
53	0x3e485354	0.19563037
54	0x3e2587ef	0.16165136
55	0x3d597e31	0.05309886
56	0x3c761cf8	0.015021555
57	0xbd8f55a4	-0.069987565
58	0xbdb34ed1	-0.087552674
59	0x3e4c852d	0.19972678
60	0xbd02707e	-0.031845562
61	0xbe020dcf	-0.1270058
62	0xbd20484b	-0.039131444
63	0x3be792cb	0.0070670596

model.6.weight f4 [32, 64]
0	0x3d8b6feb	0.06808456
1	0xbd5da2c8	-0.05411032
2	0xbb5a9d18	-0.0033357795
3	0xbdeacc8b	-0.11464795
4	0xbe32432e	-0.1740844
5	0x3d34e1b3	0.044160556
6	0x3d3b6890	0.045754015
7	0x3dc3c2fb	0.09558674
8	0x3cc38bc4	0.023870356
9	0xbbf95959	-0.007609528
10	0xbccad924	-0.024761744
11	0xbd49fcc5	-0.049313325
12	0xbd9dcf3a	-0.07705541
13	0xbda37ce4	-0.07982805
14	0xbd58a658	-0.052893013
15	0xbdb9cae2	-0.090719
16	0xbd91da4f	-0.07121717
17	0xbe2b0c33	-0.16703872
18	0xbb2da080	-0.002649337
19	0x3d909dad	0.07061324
20	0xbe1670b8	-0.14691436
21	0x3e1e7e73	0.15477924
22	0x3d7326bf	0.059363123
23	0x3d668f93	0.056289267
24	0xbd859ead	-0.06524406
25	0xbe20ec01	-0.15715028
26	0xbced0d37	-0.028936965
27	0x3c9ae9d3	0.018910324
28	0x3d7bf2de	0.061510913
29	0xbe1ace00	-0.15117645
30	0xbdfa5759	-0.122236915
31	0x3dd4b72f	0.10386502
32	0x3de285cc	0.11060676
33	0x3d2ee008	0.04269412
34	0x3d61c51f	0.05511963
35	0xbde95fd7	-0.11395233
36	0xbc2be2cd	-0.010491085
37	0xbd69674d	-0.05698328
38	0xbe1793e4	-0.1480251
39	0xbe2aeb77	-0.16691385
40	0x3d1a0c4c	0.037609383
41	0xbbf90783	-0.0075997724
42	0x3bebc4e0	0.0071951
43	0xbe20e52b	-0.1571242
44	0x3c8f1828	0.017467573
45	0xbdd70d78	-0.10500616
46	0xbdcad19b	-0.0990326
47	0xbd240abd	-0.040049303
48	0xbddd5e12	-0.10808958
49	0xbdc23dd9	-0.09484453
50	0x3d2fdbba	0.042934157
51	0xbda8e3ea	-0.08246596
52	0xbe552217	-0.20813785
53	0xbd3fbe12	-0.046812125
54	0xbe079072	-0.13238695
55	0x3c78679b	0.01516142
56	0xbd7259d6	-0.059167705
57	0xbdf805cc	-0.12110481
58	0xbd611246	-0.054949068
59	0x3d45d13e	0.048295252
60	0xbd0ca8bd	-0.03434061
61	0xbd9dcf24	-0.077055246
62	0x3dc5cff4	0.096588045
63	0x3dbea047	0.09307914
64	0xbe221757	-0.15829216
65	0xbde1a7aa	-0.110183075
66	0xbe902c7e	-0.28158945
67	0x3e175d3a	0.14781657
68	0x3ec9bc7a	0.3940161
69	0xbe4daab9	-0.20084657
70	0xbe24595e	-0.16049716
71	0x3dd01130	0.10159528
72	0xbe8d0e62	-0.27550036
73	0xbdf97f25	-0.12182454
74	0xbdcabb37	-0.0989899
75	0xbe0a9580	-0.13533592
76	0x3f018fe7	0.506102
77	0x3d81cca7	0.063378625
78	0xbde430e5	-0.111421384
79	0x3e425a83	0.1897984
80	0xbc5e9a80	-0.01358664
81	0x3e6a3471	0.22871567
82	0x3df3f9e6	0.11912899
83	0x3dc4b233	0.09604301
84	0x3c0bc4e9	0.008530834
85	0x3c230ea7	0.009952224
86	0xbc30bb40	-0.010786831
87	0x3ca94db3	0.020666933
88	0x3e8318c3	0.2560483
89	0x3e9ab3ee	0.302154
90	0xbca80087	-0.020508064
91	0x3ec1b223	0.3783122
92	0xbd9e51e9	-0.07730467
93	0xbd39213d	-0.045197714
94	0xbe2ef16a	-0.1708428
95	0xbbf4ce5f	-0.0074708904
96	0x3e5d7414	0.21626312
97	0xbdb01a2f	-0.08598744
98	0xbd273a64	-0.04082717
99	0x3d0e7acb	0.034785073
100	0x3e0ca4da	0.13734761
101	0x3d86572f	0.06559598
102	0xbdf8a138	-0.12140125
103	0xbe7f7ce8	-0.24949992
104	0xbce7057d	-0.02820086
105	0x3ea7efa3	0.32800016
106	0x3d5e34f8	0.054249734
107	0x3e604990	0.21903062
108	0xbe189af4	-0.1490286
109	0x3e05417c	0.13013262
110	0x3d0eaff5	0.034835774
111	0x3dfb5f65	0.122740544
112	0xbe55f3ba	-0.20893756
113	0x3b70d738	0.0036749374
114	0x3daebc6b	0.085320316
115	0x3e80fe1a	0.25193864
116	0x3d84a190	0.06476128
117	0x3e3113ad	0.17292662
118	0x3e643a26	0.22287807
119	0x3e26c8a9	0.16287483
120	0x3e7cf60b	0.24703233
121	0x3db8568c	0.090008825
122	0x3d864120	0.0655539
123	0x3e35ca82	0.17753032
124	0xbcb26da2	-0.021780793
125	0x3c0a55dc	0.008443322
126	0xbe066c21	-0.13127185
127	0x3d85060d	0.06495295
128	0x3d00d284	0.031450763
129	0xbce288e6	-0.027653169
130	0xbe5a5db1	-0.21324803
131	0x3d15ba5f	0.03655469
132	0xbc8735b0	-0.016505092
133	0x3e30cd9b	0.17265932
134	0x3e31e0f1	0.17370965
135	0xbbd9bea9	-0.006645043
136	0x3e7bb613	0.24581175
137	0x3d30f0e5	0.043198485
138	0xbdb79563	-0.0896404
139	0xbde14a86	-0.11000542
140	0x3e4f501b	0.20245402
141	0x3dd7206f	0.10504233
142	0xbe2df50a	-0.16988006
143	0x3e0ced71	0.13762452
144	0x3df539f8	0.11973947
145	0x38567fa4	5.114045e-05
146	0x3d9538af	0.07286202
147	0x3dfb23c6	0.122626826
148	0x3e03b63f	0.1286249
149	0x3e7a12dc	0.24421257
150	0xbe55aa4b	-0.20865743
151	0xbdb5f68a	-0.08884914
152	0x3e235ad4	0.15952617
153	0xbc07d62d	-0.00829081
154	0x3de9883d	0.114029385
155	0xbe30cbc0	-0.17265224
156	0x3d9458a5	0.0724347
157	0x3dd344b4	0.103158385
158	0xbc170592	-0.009217637
159	0x3dfc368a	0.1231509
160	0x3e40b629	0.18819489
161	0x3d8156dc	0.06315395
162	0x3d02fa0c	0.031976745
163	0xbe031fde	-0.12805125
164	0xbcc69197	-0.024239345
165	0x3cc08547	0.023501052
166	0xbdf1f206	-0.118137404
167	0x3af6e5b7	0.0018836771
168	0xbd5305ef	-0.05151933
169	0x3c551ad1	0.013006882
170	0x3d026512	0.03183467
171	0xbe44ca90	-0.19217896
172	0xbad95178	-0.0016580066
173	0xbc88c412	-0.016695056
174	0xbca37171	-0.019951554
175	0x3d9ae9c2	0.07564117
176	0x3e105912	0.14096478
177	0xbdc1bd77	-0.09459966
178	0x3c82564b	0.015910288
179	0xbdfca795	-0.12336651
180	0x3dea2d37	0.11434405
181	0xbdfa8515	-0.12232415
182	0xbd48a10e	-0.04898172
183	0x3d81eae6	0.063436314
184	0xbead42ab	-0.33839926
185	0x3d0b57ec	0.034019396
186	0xbcbddb91	-0.023175986
187	0xbea7a1e1	-0.3274069
188	0x3d8374dc	0.064187735
189	0xbd84f7e0	-0.06492591
190	0x3d54406f	0.05181926
191	0xbcbdee69	-0.023184972
192	0x3e31a6bc	0.1734876
193	0xbc8d6991	-0.017262252
194	0xbdeea2ea	-0.11652167
195	0xbad4998c	-0.0016220077
196	0x3eb6dd0b	0.35715517
197	0xbf0947c0	-0.53625107
198	0xbeb05181	-0.34437183
199	0x3ca53048	0.020164624
200	0xbcc5b1a8	-0.024132565
201	0x3de48953	0.11159005
202	0xbf8b33ec	-1.087522
203	0x3cb16851	0.021656187
204	0x3d63b54e	0.055592827
205	0x3d3cb7c3	0.046073686
206	0x3d97a273	0.074040316
207	0xbd98ba0f	-0.07457363
208	0x3dbd4075	0.0924081
209	0xbda1f029	-0.07907135
210	0xbd039456	-0.032123886
211	0xbe52e60a	-0.20595565
212	0xbe9e5084	-0.30920804
213	0x3ed2e676	0.41191453
214	0x3ce44ef1	0.027869673
215	0xbd323df1	-0.043516103
216	0x3cac4095	0.021026889
217	0x3dec609f	0.115418665
218	0x3e11c61e	0.14235732
219	0xbd148ebd	-0.03626894
220	0xbe365d13	-0.17808942
221	0x3ca985f4	0.020693757
222	0xbe36d4ef	-0.17854665
223	0xbe1d84a0	-0.15382624
224	0x3ed1769e	0.4091081
225	0x3c97449a	0.018465329
226	0xbdd58e7f	-0.104275696
227	0xbe1f83e1	-0.15577652
228	0xbdd89c8a	-0.105767325
229	0xbd800f2c	-0.06252894
230	0xbe2cbfb4	-0.16870004
231	0xbe8a7f7d	-0.2705039
232	0x3d8e121b	0.06937047
233	0xbe8d3c6d	-0.27585164
234	0x3c6dd6f6	0.014516583
235	0x3cf189fb	0.02948474
236	0xbd9f396f	-0.077746265
237	0xbf2b9180	-0.6701889
238	0xbdd470bb	-0.10373064
239	0x3d90ceea	0.07070716
240	0xbd448c8f	-0.04798561
241	0x3c68fe74	0.014220823
242	0x3d3db07b	0.046310883
243	0xbcfe8eda	-0.031073976
244	0xbe7f9923	-0.24960761
245	0xbe143acf	-0.14475559
246	0xbe2e10a5	-0.16998537
247	0xbe7054d5	-0.23469861
248	0xbe123b54	-0.14280444
249	0xbd7c55f1	-0.061605398
250	0x3e047bef	0.12937902
251	0xbf2d9668	-0.67807627
252	0x3df85dae	0.12127243
253	0x3d309bdb	0.043117385
254	0x3d0fd7d0	0.035117924
255	0xbdf69d48	-0.12041718

model.6.bias f4 [32]
0	0x3d307e68	0.0430893
1	0x3f1c1887	0.60974926
2	0xbdaa2fce	-0.08309899
3	0x3d791fab	0.060821217
4	0x3d810c82	0.06301214
5	0x3efc27a4	0.49248993
6	0x3e3a9472	0.1822069
7	0x3d119bbe	0.035548918
8	0x3e25bc6c	0.16185158
9	0x3e540cda	0.20708027
10	0x3f2bbf79	0.6708904
11	0x3c67d791	0.014150516
12	0xbda3558a	-0.079753
13	0xbd9254eb	-0.07145103
14	0x3c1cfc48	0.009581633
15	0x3e3273aa	0.17426935
16	0x3ed61615	0.41813722
17	0x3e1cc9d9	0.15311374
18	0x3e0448ea	0.1291844
19	0x3e608518	0.21925771
20	0x3e109322	0.14118627
21	0x3e6245b2	0.22096899
22	0xbe335531	-0.17512967
23	0xbb9baa0a	-0.004750495
24	0x3cc163f9	0.023607241
25	0x3e072e00	0.13201141
26	0x3d616e28	0.055036694
27	0x3f0797b3	0.5296585
28	0x3e8d04f4	0.2754284
29	0x3e90eee0	0.28307247
30	0x3d647171	0.05577225
31	0x3e6f95b8	0.23396957

model.8.weight f4 [10, 32]
0	0x3dd66979	0.10469336
1	0x3e38e2f0	0.1805532
2	0xbe96c3fc	-0.294464
3	0xbe63cf28	-0.22246993
4	0xbd3a1dc1	-0.04543853
5	0x3e8928bf	0.267889
6	0x3cbe66d6	0.023242395
7	0xbc5c40c0	-0.013443172
8	0xbe1b806c	-0.15185708
9	0xbd174db9	-0.036939356
10	0x3ea67666	0.32512206
11	0xbe0ba69d	-0.13637777
12	0x3ca3ed31	0.020010563
13	0xbd8bad3a	-0.0682015
14	0x3e3058a7	0.17221318
15	0x3e6e583d	0.23275848
16	0x3e8907e2	0.26763827
17	0xbebe2d72	-0.37144047
18	0x3bfd9756	0.007738988
19	0xbd0e2ead	-0.034712482
20	0xbdca006e	-0.09863363
21	0x3e882318	0.26589274
22	0x3daa8072	0.0832528
23	0x3ee5bf88	0.4487269
24	0xbd9059e9	-0.07048399
25	0xbe642498	-0.22279584
26	0x3dffe3ed	0.12494645
27	0x3e226c7a	0.15861693
28	0x3e13be25	0.14428003
29	0x3e2ce74b	0.16885106
30	0xbc38ae9c	-0.011272099
31	0xbe4a75a7	-0.19771443
32	0xbd76931e	-0.060198896
33	0x3e9aa0c2	0.30200773
34	0xbe2acc00	-0.16679382
35	0xbd019e16	-0.031644903
36	0x3d32d1f7	0.04365727
37	0x3eb7a775	0.35869947
38	0xbd020abc	-0.03174852
39	0x3c4ff2b4	0.012692142
40	0xbe524c1b	-0.20536844
41	0xbe25cc95	-0.16191323
42	0x3e0e2bf7	0.13883959
43	0xbe159cdc	-0.14610618
44	0x3d8f0044	0.069824725
45	0x3ddd780e	0.10813914
46	0xbe029d0d	-0.12755223
47	0x3e82d486	0.25552768
48	0x3e805be8	0.2507012
49	0xbe9937f4	-0.299255
50	0x3dda4886	0.10658364
51	0x3e1a1ea9	0.15050758
52	0xbe0f6369	-0.14002766
53	0x3d638f30	0.055556476
54	0xbd6dd98d	-0.0580688
55	0x3e4dc160	0.20093298
56	0xbe231640	-0.15926456
57	0xbe8ad863	-0.27118215
58	0x3d9ba0d6	0.075990364
59	0x3e9dcd08	0.3082049
60	0x3e0b589d	0.13608022
61	0x3e83c31c	0.25734794
62	0xbdeb63b7	-0.114936285
63	0xbe4a89b2	-0.19779089
64	0x3e05631c	0.13026088
65	0x3edba761	0.42901137
66	0xbe1d97f5	-0.15389998
67	0x3d8f20ff	0.069887154
68	0x3c84d93b	0.016216865
69	0x3e8a50eb	0.2701486
70	0x3d8c4bb6	0.06850378
71	0x3c9270d0	0.017876059
72	0xbe300e03	-0.17192845
73	0xbc8384db	-0.016054561
74	0x3e56859a	0.20949402
75	0x3ce23a42	0.02761567
76	0x3e06c3d3	0.13160639
77	0x3d2003d2	0.039066143
78	0x3e226198	0.15857542
79	0x3e884dac	0.2662176
80	0x3e32c242	0.17456916
81	0xbe945bb9	-0.2897623
82	0xbdc712bc	-0.0972037
83	0x3e1ced05	0.15324791
84	0xbebacd78	-0.36484885
85	0x3e36e416	0.17860445
86	0x3d9f3cd1	0.07775272
87	0x3e438ba4	0.19096237
88	0xbe77ff23	-0.2421842
89	0xbe5c2b67	-0.21500932
90	0xbdd8a077	-0.10577481
91	0x3db54fec	0.088531345
92	0x3d6b4a01	0.057443622
93	0x3e331f70	0.17492461
94	0x3dd80ecd	0.10549698
95	0xbe095fad	-0.13415404
96	0x3c29669a	0.0103394035
97	0x3eb164fe	0.34647363
98	0xbe4adf40	-0.19811726
99	0xbe253393	-0.16132955
100	0x3d38577c	0.045005307
101	0x3e833ae4	0.25630867
102	0x3e3eaf44	0.18621546
103	0x3d1862d3	0.03720362
104	0xbe714af0	-0.23563743
105	0x3e2d4969	0.16922535
106	0x3e9b1a1f	0.30293366
107	0xbe38b7c0	-0.18038845
108	0x3d6c7faa	0.057738937
109	0xbce00043	-0.027343875
110	0x3e04b9f1	0.12961556
111	0x3e3f9389	0.18708624
112	0x3e34766b	0.17623298
113	0xbe6944b1	-0.2278011
114	0xbd9a8dc6	-0.075465724
115	0x3dfa49c6	0.122211024
116	0xbd43111a	-0.04762373
117	0x3e1dee4d	0.15422936
118	0xbdfa4491	-0.12220109
119	0x3dc70f6f	0.097197406
120	0xbe7de105	-0.2479287
121	0xbea37730	-0.3192687
122	0xbe16fcdd	-0.14744897
123	0x3e5f1d3a	0.21788493
124	0x3c9f4686	0.019442808
125	0x3e8a0642	0.269579
126	0x3bc3ff94	0.005981395
127	0xbe13666a	-0.14394537
128	0xbe15e9e4	-0.14640003
129	0x3e40b3a4	0.18818527
130	0xbe5d89a8	-0.21634543
131	0x3dd96d55	0.106165566
132	0x3e0d63b0	0.13807559
133	0x3e776ee4	0.24163395
134	0xbd5d76a2	-0.054068215
135	0x3d3a3b18	0.045466512
136	0xbe740b0e	-0.23832342
137	0x3d84562f	0.06461751
138	0x3e9c4e30	0.30528402
139	0xbde36486	-0.11103158
140	0x3dcdc837	0.100479536
141	0x3c8056ff	0.015666483
142	0x3e2179cf	0.15769123
143	0x3cb2d694	0.021830834
144	0x3ebd3547	0.3695471
145	0xbe9a0e2a	-0.3008893
146	0x3e0b382a	0.13595644
147	0x3e80ed79	0.25181177
148	0xbe74c90a	-0.23904815
149	0x3e5dcb3b	0.21659558
150	0xbe07fb82	-0.13279536
151	0x3e14061f	0.1445546
152	0xbe2956aa	-0.16536966
153	0xbe3a4866	-0.1819168
154	0xbca4370a	-0.020045776
155	0x3e7be338	0.24598396
156	0xbdc27c1e	-0.0949633
157	0x3e9bdb06	0.3044054
158	0x3de069bd	0.10957668
159	0xbe5519a7	-0.20810567
160	0x3da1e03f	0.079041
161	0x3eaf9386	0.3429224
162	0xbe9b9601	-0.3038788
163	0xbc3283a3	-0.010895642
164	0xbe050605	-0.12990578
165	0x3e00ee20	0.12590837
166	0x3e3892f1	0.18024804
167	0xbd989d10	-0.07451832
168	0xbe5a9fcb	-0.21350019
169	0x3e414f45	0.18877895
170	0x3e4ffe81	0.2031193
171	0xbe0feea0	-0.14055872
172	0x3d8763ba	0.06610818
173	0xbccc9293	-0.024972236
174	0x3dddb146	0.10824828
175	0xbd8c4480	-0.06849003
176	0x3eb02e97	0.34410545
177	0xbe60c18e	-0.21948835
178	0x3da66173	0.08124056
179	0xbd818da6	-0.063258454
180	0xbe25c7e5	-0.16189535
181	0x3e2d264d	0.16909142
182	0x3c927288	0.017876878
183	0xbd5add28	-0.053433567
184	0xbe5ddf62	-0.21667245
185	0xbe594936	-0.21219334
186	0x3ad5bc54	0.0016306737
187	0x3e32094e	0.17386362
188	0x3d76a26a	0.060213484
189	0x3e515447	0.20442306
190	0x3e38911f	0.1802411
191	0xbe7992de	-0.24372432
192	0xbdaff163	-0.08590963
193	0x3eb61ecf	0.3557038
194	0xbdc55028	-0.09634429
195	0x3d5040ef	0.050843176
196	0x3d0f2087	0.03494313
197	0x3e32d7ca	0.1746513
198	0x3e19ec01	0.15031435
199	0x3c525706	0.012838131
200	0xbe36118c	-0.17780131
201	0x3dcd499f	0.10023808
202	0x3e941be8	0.2892754
203	0x3a8570e8	0.0010180743
204	0xbda32421	-0.079658754
205	0xbd0cedc8	-0.034406453
206	0x3dc520dc	0.09625408
207	0x3dec517f	0.11538982
208	0x3e8c518f	0.27405974
209	0xbeaa0652	-0.33207947
210	0x3e44ff24	0.19237953
211	0x3d450935	0.048104484
212	0xbe03e9cd	-0.12882157
213	0x3db0fa41	0.08641482
214	0xbd66dca0	-0.05636275
215	0xbc6b1ca2	-0.014350088
216	0xbeb58a27	-0.35456964
217	0xbe429a88	-0.19004261
218	0x3d2024d3	0.03909762
219	0x3e359332	0.17731932
220	0x3e3b13bd	0.18269248
221	0x3e73482c	0.23758
222	0xbba53f8d	-0.0050429762
223	0xbe40b636	-0.18819508
224	0xbdaf1f36	-0.08550875
225	0x3ec6e392	0.38845497
226	0xbe180f9b	-0.14849703
227	0x3db00163	0.085940145
228	0x3e32edbf	0.17473505
229	0x3dbbd85a	0.09172125
230	0xbd3d136f	-0.04616111
231	0x3b1071b6	0.0022040433
232	0xbe06c0c6	-0.13159475
233	0xbd1e6098	-0.038666338
234	0x3e93b4fd	0.2884902
235	0xbe35beb1	-0.17748524
236	0xbd873c5c	-0.066033095
237	0x3cb040fa	0.021515358
238	0x3dff0534	0.12452164
239	0xbd616b0f	-0.05503374
240	0x3e9c9e35	0.30589452
241	0xbe195b56	-0.14976248
242	0x3d94ec79	0.07271666
243	0x3b21be47	0.0024680065
244	0xbe1ad3c2	-0.15119842
245	0x3e412bbd	0.18864341
246	0x3d8485ee	0.064708576
247	0x3cc8d046	0.024513375
248	0xbe51d1ac	-0.2049014
249	0xbeafa54d	-0.34305802
250	0x3dafdd69	0.085871525
251	0x3e5d192e	0.21591637
252	0x3c811791	0.015758308
253	0x3e218eed	0.15777178
254	0xbe1bd611	-0.15218379
255	0xbec4a273	-0.3840519

model.8.bias f4 [10]
0	0xbddbcdc4	-0.10732606
1	0xbdde6c3a	-0.10860486
2	0x3cf7d747	0.03025402
3	0xbe0afaa4	-0.13572174
4	0xbdee09a5	-0.11622933
5	0x3d49ad05	0.04923727
6	0x3e04676c	0.12930077
7	0x3e19c10c	0.15015048
8	0x3e2e42be	0.17017648
9	0x3e064ab0	0.13114429
