checkpoints/checkpoint_step_5700.pth (torch, 200878 bytes, 10 tensors)

model.0.weight f4 [256, 21]
0	0x3e02a263	0.12757258
1	0xbd50591e	-0.05086624
2	0x3d3ded3d	0.046368826
3	0xbe9be987	-0.30451605
4	0xbe661721	-0.2246976
5	0xbe29dcf6	-0.16588196
6	0xbef1216a	-0.47095805
7	0xbdcf1c43	-0.10112812
8	0x3ccbc4d9	0.024874138
9	0x3e11d720	0.1424222
10	0xbe9a3851	-0.3012109
11	0xbdf8f88c	-0.121567816
12	0x3e351ac6	0.17685995
13	0xbf35275b	-0.70763177
14	0xbe81e06c	-0.25366533
15	0xbe39d697	-0.18148266
16	0xbdde4174	-0.10852328
17	0x3d4ef225	0.050523896
18	0x3da8c087	0.08239847
19	0xbea8be5b	-0.3295773
20	0x3ef02747	0.46904966
21	0x3cdc95d8	0.02692692
22	0x3c921f09	0.017837064
23	0xbe327918	-0.17429006
24	0xbda2514c	-0.079256624
25	0xbf931bb8	-1.1492834
26	0xbd9a0817	-0.07521074
27	0x3da3d522	0.07999636
28	0xbdb28059	-0.087158866
29	0xbe09d2c7	-0.13459311
30	0xbe9af477	-0.30264637
31	0xbcd698c9	-0.0261959
32	0xbd8909e1	-0.066913374
33	0xbeab4eb6	-0.3345849
34	0xbeafd3d0	-0.34341288
35	0xbe0065b3	-0.12538795
36	0xbcc2b5e4	-0.023768373
37	0xbd4bfeb1	-0.04980344
38	0x3e1e6c3e	0.15470979
39	0xbdae307b	-0.08505341
40	0x3e0aca98	0.13553846
41	0xbd923a5e	-0.07140039
42	0xbd61385e	-0.054985397
43	0xbe860c6a	-0.26181346
44	0x3e7df3eb	0.24800079
45	0xbcdbc23f	-0.026826022
46	0x3e0315ad	0.12801237
47	0x3dafff51	0.085936196
48	0xbef8bb3d	-0.4858035
49	0x3ddbc647	0.10731178
50	0x3e1be5dc	0.15224403
51	0xbe3011fe	-0.17194363
52	0x3d054d31	0.03254432
53	0xbf01457b	-0.50496644
54	0xbdea3215	-0.11435334
55	0xbe72eb14	-0.23722488
56	0xbe5d276e	-0.21597072
57	0x3db7146d	0.08939443
58	0xbea5d330	-0.32387686
59	0xbd42c9d1	-0.04755575
60	0xbdb568e6	-0.088578984
61	0xbe3da10c	-0.18518466
62	0xbdd5bff6	-0.10437004
63	0xbead692b	-0.338693
64	0xbf1cd912	-0.61268723
65	0x3e877062	0.2645293
66	0xbf8acb79	-1.0843345
67	0xbfb9488a	-1.4475262
68	0x3d8bca98	0.06825751
69	0xbe5d646f	-0.21620344
70	0x3e84d483	0.25943384
71	0xbe4d8ffb	-0.20074455
72	0x3ec30131	0.38086846
73	0xbdfa73d9	-0.122291274
74	0x3e925e20	0.28587437
75	0x3d8fb5bc	0.07017085
76	0xbe039f31	-0.12853695
77	0xbdcbea28	-0.09956771
78	0x3ea472ea	0.32118922
79	0xbdce98d4	-0.100877434
80	0x3e5073ee	0.20356724
81	0x3cd5fe16	0.026122134
82	0x3e3e8188	0.186041
83	0xbf2c02ff	-0.6719207
84	0x3d0ccdb8	0.034375876
85	0xbd2d0ae7	-0.042246725
86	0xbe9b5eef	-0.30345866
87	0x3d931108	0.07180983
88	0x3d8e6fdf	0.069549315
89	0xbe83d874	-0.25751078
90	0xbd34c72c	-0.044135258
91	0x3e2a10bc	0.16607946
92	0x3e020e32	0.12700728
93	0xbd04a182	-0.03238059
94	0xbe75c304	-0.24000174
95	0xbd8071f5	-0.062717356
96	0xbda36cef	-0.07979762
97	0xbe140517	-0.14455067
98	0xbec4ad5a	-0.38413507
99	0x3d090234	0.033449367
100	0x3e834f96	0.25646657
101	0xbf2e1eba	-0.68015635
102	0xbe922561	-0.28544143
103	0x3d9a0fdb	0.075225554
104	0x3e1860c6	0.14880666
105	0xbdc0a3db	-0.09406253
106	0x3dee03d0	0.11621821
107	0xbe0caf52	-0.13738754
108	0x3e13d471	0.14436509
109	0xbc323a01	-0.010878087
110	0x3de380d6	0.11108558
111	0xbe09e609	-0.13466658
112	0x3ca59232	0.020211313
113	0xbe4f40ae	-0.20239517
114	0xbd38a130	-0.045075595
115	0x3e0556ad	0.13021345
116	0x3e893361	0.26797011
117	0x3cd82318	0.026383922
118	0x3ed3a2e7	0.41335222
119	0xbd183c47	-0.03716686
120	0x3ec63dc8	0.3871901
121	0x3e4894e0	0.19588041
122	0x3eaaadee	0.33335823
123	0xbdd1dad8	-0.10246819
124	0x3e675921	0.22592594
125	0x3dc09cf3	0.09404936
126	0xbf24ecd4	-0.6442387
127	0xbd800d94	-0.0625259
128	0x3e948048	0.2900412
129	0xbebbe4e0	-0.36698055
130	0xbf4a7101	-0.7907868
131	0xbe009bb6	-0.12559399
132	0xbe8ea0a2	-0.27856928
133	0xbea9eee5	-0.33190075
134	0xbec4387a	-0.38324338
135	0xbd65cea5	-0.056105275
136	0xbe8e5f8d	-0.27807274
137	0xbe904815	-0.28179994
138	0xbd9a3cd6	-0.07531135
139	0xbe4fc207	-0.2028886
140	0x3e2389f8	0.159706
141	0x3e286897	0.16446148
142	0x3de0943b	0.10965773
143	0x3dcbba1e	0.099476084
144	0xbe5691c8	-0.20954049
145	0xbdc69b20	-0.096975565
146	0xbdce5d1e	-0.100763544
147	0xbe310244	-0.1728602
148	0xbdf09f7c	-0.11749169
149	0x3e396f56	0.18108878
150	0xbe09e937	-0.1346787
151	0x3e3ac0c6	0.182376
152	0xbd76fceb	-0.060299795
153	0xbeafa652	-0.3430658
154	0xbd9ac751	-0.07557548
155	0xc0a216ce	-5.065284
156	0xbd061b38	-0.0327408
157	0xbd9f26e0	-0.07771087
158	0xbd0e00df	-0.0346688
159	0xbdbe7714	-0.09300056
160	0xbdaa54a3	-0.083169244
161	0x3d00ec0b	0.031475108
162	0xbc283795	-0.010267158
163	0xbd53ca9c	-0.051706895
164	0xbe47de49	-0.19518389
165	0xbd482182	-0.04886008
166	0xbe7c0c16	-0.24613985
167	0xbe56e33f	-0.20985125
168	0xbca77ba1	-0.020444693
169	0xbe034b5d	-0.12821718
170	0x3d9a43f9	0.07532496
171	0xbe5f3a5c	-0.21799606
172	0x3d830c82	0.0639887
173	0x3b45786e	0.0030131596
174	0xbeb38a3b	-0.350664
175	0xbdd5c61b	-0.10438176
176	0x3e3ce9e5	0.18448599
177	0xbe97c866	-0.2964508
178	0xbea20c4b	-0.31650004
179	0xbeb724b8	-0.35770202
180	0xbc959748	-0.018260613
181	0xbd9ec0de	-0.0775163
182	0xbe2e6609	-0.17031111
183	0xbe98d641	-0.29850963
184	0x3c28c3a9	0.010300555
185	0xbd8e062b	-0.0693477
186	0xbe83a4af	-0.2571158
187	0xbd85eb14	-0.06538978
188	0x3cec0b3d	0.028813953
189	0x3e325a94	0.17417365
190	0xbe53dcc3	-0.20689683
191	0xbea780ed	-0.3271555
192	0xbd8fa927	-0.07014685
193	0x3e5d4608	0.21608746
194	0xbe71426c	-0.23560494
195	0xbe8e6ac3	-0.27815828
196	0xbda541ff	-0.080692284
197	0x3d05f05d	0.03269993
198	0x3d047587	0.032338645
199	0xbe3e1add	-0.18564935
200	0xbf0514a7	-0.5198464
201	0xbdc88a05	-0.0979195
202	0xbeb008d9	-0.3438175
203	0x3da6def1	0.081479914
204	0xbdf9e7fb	-0.1220245
205	0xbe331c72	-0.1749132
206	0xbf064866	-0.5245422
207	0x3de1b88d	0.110215284
208	0xbe5ac255	-0.21363194
209	0xbdaa391e	-0.083116755
210	0xbe720c75	-0.23637564
211	0x3e3467a8	0.17617667
212	0xbe3e0664	-0.18557125
213	0x3c3c6f00	0.011501074
214	0xbebee252	-0.37282044
215	0x3c63cbcd	0.01390357
216	0xbea3fc33	-0.3202835
217	0x3e337e1e	0.17528579
218	0xbea85744	-0.32879078
219	0x3e72e27c	0.2371921
220	0x3e2994dc	0.16560692
221	0xbe755a30	-0.23960185
222	0x3e10785e	0.14108416
223	0x3f02363d	0.5086401
224	0x3e2e633a	0.1703004
225	0xbef9bf9d	-0.48779002
226	0x3e3a3092	0.1818259
227	0xbe6eba4b	-0.23313253
228	0xbe0f393e	-0.1398668
229	0x3e9848b7	0.29742977
230	0x3d0c0c6f	0.034191545
231	0xbe0c3ce7	-0.13695107
232	0x3d6f717a	0.05845783
233	0xbe0c3430	-0.13691783
234	0xbdf1d175	-0.11807529
235	0x3ea53c43	0.3227254
236	0x3cab7556	0.020929974
237	0x3da49950	0.080370545
238	0xbd98e983	-0.07466414
239	0xbedd06c8	-0.43169236
240	0xbe518d11	-0.20463969
241	0xbe2fb4cb	-0.17158811
242	0xbe8191e8	-0.2530663
243	0xbca31cda	-0.019911218
244	0xbdc4ffe8	-0.09619123
245	0xbd652bea	-0.055950083
246	0x3ea87476	0.32901353
247	0xbe74036c	-0.2382943
248	0xbe9913fe	-0.29898065
249	0xbd2dd80d	-0.04244237
250	0xbde2607c	-0.11053559
251	0xbd6d226b	-0.05789415
252	0xbde61a6c	-0.11235508
253	0x3db26578	0.0871076
254	0xbe9f408b	-0.3110393
255	0xbe20bcf1	-0.15697075

model.0.bias f4 [256]
0	0x3e3f4af0	0.1868093
1	0x3c002589	0.007821449
2	0xbe69461a	-0.22780648
3	0x3d1971ee	0.037462167
4	0x3ebd7c0e	0.3700871
5	0x3e809665	0.25114742
6	0x3ddc276c	0.107497066
7	0x3db85376	0.09000294
8	0x3e402361	0.18763496
9	0x3e36ca8a	0.178507
10	0xbea42e90	-0.32066774
11	0xbc8f486c	-0.017490588
12	0xbba0090b	-0.0048838905
13	0xbeec5ceb	-0.4616464
14	0x3f0fee2a	0.56222785
15	0x3ef07638	0.46965194
16	0xbdfbf8d3	-0.12303319
17	0xbde84d89	-0.11342914
18	0x3ef381cc	0.47559965
19	0xbe17f357	-0.1483892
20	0xbdaa4080	-0.08313084
21	0xbed4709b	-0.4149216
22	0xbe10ab57	-0.14127861
23	0xbe2c9394	-0.16853172
24	0xbf140e79	-0.57834584
25	0xbdf1fab1	-0.11815394
26	0xbe590020	-0.21191454
27	0x3e15b48f	0.14619659
28	0xbc2b2686	-0.010446196
29	0xbc3f9c30	-0.011694953
30	0x3e99dc26	0.30050772
31	0x3eeeaf48	0.46618104
32	0xbdb27ad5	-0.087148346
33	0xbe29a7c0	-0.16567898
34	0xbea093c4	-0.31362736
35	0x3dbc03bc	0.091804
36	0xbdc9b177	-0.09848302
37	0xbea1e3bd	-0.31619063
38	0x3d00dc96	0.031460367
39	0x3dc4c6b4	0.09608212
40	0xbd6b3f08	-0.05743316
41	0x3e8711d3	0.26380786
42	0xbe0dec5f	-0.138597
43	0xbdfc9fb7	-0.12335151
44	0x3ea8d884	0.32977688
45	0xbe43d8ed	-0.1912572
46	0xbde8c18c	-0.11365041
47	0xbd86efcd	-0.06588707
48	0x3dcfc087	0.101441436
49	0xbdfb98e9	-0.12285025
50	0xbd3f9342	-0.046771295
51	0x3d7048bb	0.05866311
52	0xbec4a745	-0.38408867
53	0xbe9027ea	-0.28155452
54	0x3dda1d2e	0.10650097
55	0xbeb7f139	-0.35926226
56	0xbeaaaaec	-0.33333528
57	0x3b857748	0.0040730573
58	0xbec38eb7	-0.3819482
59	0xbd4d0363	-0.050052058
60	0x3d819434	0.06327096
61	0xbdf1c808	-0.11805731
62	0x3ea936b6	0.33049554
63	0xbe0047ba	-0.12527362
64	0xbd90d56f	-0.07071959
65	0xbdc1e17a	-0.09466834
66	0xbd7b1fd2	-0.061309643
67	0x3eaf1228	0.3419354
68	0xbe9d87b1	-0.30767587
69	0x3e4b88f0	0.19876456
70	0x3cec603e	0.028854486
71	0x3e808eb3	0.2510887
72	0xbda396f4	-0.079877764
73	0x3dad3fc0	0.08459425
74	0xbe3bf631	-0.18355633
75	0xbebe4a6d	-0.37166157
76	0xbd902164	-0.07037619
77	0xbdf61d9a	-0.12017365
78	0xbe3ea3f7	-0.18617235
79	0x3edb2575	0.42802015
80	0x3d0864a8	0.03329912
81	0x3e486d7c	0.19573015
82	0xbefcbd3b	-0.4936312
83	0xbe2195c1	-0.15779783
84	0x3d8999f0	0.067188144
85	0xbe598f87	-0.21246158
86	0x3eb74938	0.3579805
87	0x3e98794b	0.2978004
88	0xbdee0cd8	-0.116235435
89	0x3d84c265	0.0648239
90	0x3e66bde9	0.22533382
91	0xbe32f99d	-0.17478032
92	0xbe5da721	-0.21645786
93	0xbe127441	-0.1430216
94	0xbe4a62e1	-0.19764282
95	0xbe903d41	-0.28171733
96	0xbe961884	-0.2931558
97	0xbdf979b0	-0.12181413
98	0xbeb8636f	-0.36013362
99	0x3eb56c1b	0.3543404
100	0x3ee3865c	0.44438446
101	0xbe2564b3	-0.16151695
102	0x3c95360b	0.018214246
103	0x3e672a81	0.22574808
104	0x3dcdd494	0.10050312
105	0x3e2b6b52	0.16740158
106	0xbcb1d103	-0.02170611
107	0x3dda7f19	0.10668773
108	0xbc0d5095	-0.008625169
109	0xbe087e1d	-0.13329358
110	0xbb517e1b	-0.0031966034
111	0xbd990564	-0.07471731
112	0xbcaad98e	-0.020855691
113	0xbdadb09e	-0.08480953
114	0xbd90007c	-0.070313424
115	0xbdb6be20	-0.08922982
116	0x3e09679b	0.13418429
117	0x3e593115	0.2121013
118	0xbd200671	-0.039068643
119	0x3e1c68ab	0.15274303
120	0xbec02cf7	-0.37534305
121	0x3d93d5b5	0.07218496
122	0xbe0c9104	-0.13727194
123	0x3da879ee	0.08226381
124	0xbdd89a36	-0.105762884
125	0xbee67e51	-0.45018247
126	0x3eb33271	0.3499942
127	0x3e4ae149	0.19812502
128	0xbe9e35bc	-0.3090037
129	0xbe211019	-0.15728797
130	0xbdde2607	-0.10847097
131	0x3e2cb29f	0.16865014
132	0x3c29a169	0.010353425
133	0xbe02d862	-0.12777856
134	0x3ebd5fb1	0.3698707
135	0x3d78ea3b	0.060770255
136	0xbdfa93dd	-0.12235234
137	0xbe65f3c3	-0.22456269
138	0xbbf1aa0e	-0.0073750084
139	0x3edfdd04	0.4372331
140	0xbdf64f8b	-0.1202689
141	0x3e9160bf	0.28394124
142	0x3e78dc9d	0.24302907
143	0x3d56b0ea	0.052414812
144	0x3e8652ab	0.26234946
145	0x3ea6f13e	0.32605928
146	0x3d51f16f	0.05125564
147	0x3d01900c	0.031631514
148	0xbf4e2712	-0.80528367
149	0xbe0ea1c8	-0.13928902
150	0x3e717570	0.23579955
151	0xbe3e8edb	-0.18609183
152	0x3eba6fd7	0.36413452
153	0xbf04b644	-0.51840615
154	0xbe64e58c	-0.2235319
155	0x3d75398b	0.05986933
156	0xbc77d4bc	-0.015126403
157	0x3e25c6ba	0.1618909
158	0x3f03fd45	0.51558334
159	0x3ea9eb93	0.3318754
160	0xbe4a2be7	-0.1974331
161	0xbd3e3e6e	-0.046446256
162	0x3f090a1c	0.5353105
163	0x3d61f1dc	0.055162296
164	0xbda1118b	-0.07864674
165	0x3ee1cac0	0.44099998
166	0xbe1290c6	-0.14313039
167	0xbe00fca4	-0.12596375
168	0xbcfc5f26	-0.030807089
169	0x3e8a01c6	0.26954478
170	0xbcde5190	-0.027138501
171	0xbd8ed481	-0.06974126
172	0x3e66f322	0.22553685
173	0xbe97a66c	-0.29619157
174	0x3e788292	0.24268559
175	0x3d600726	0.054694317
176	0xbeaa9140	-0.33313942
177	0x3f0f3e7c	0.5595472
178	0xbd7ff952	-0.06249363
179	0xbe572c04	-0.21012884
180	0xbeb17c8e	-0.3466534
181	0x3e652d2d	0.22380514
182	0x3e2b8872	0.16751269
183	0x3d48c36a	0.049014486
184	0xbe1b1cd4	-0.15147716
185	0xbbe85d0a	-0.0070911692
186	0xbe92405a	-0.2856472
187	0xbec0213e	-0.37525362
188	0x3e26f4a3	0.16304259
189	0x3e0cf617	0.13765751
190	0xbe6c232a	-0.23060289
191	0x3dd8f07b	0.10592743
192	0x3f057970	0.52138424
193	0x3e181e7f	0.14855383
194	0xbe280e66	-0.16411743
195	0xbea9959d	-0.33121958
196	0x3ea88272	0.32912022
197	0x3d603ef1	0.054747526
198	0x3e2b8b2f	0.16752313
199	0xbe044856	-0.12918219
200	0xbea5955b	-0.32340512
201	0x3da4deb8	0.08050293
202	0xbdb406cb	-0.08790358
203	0xbcc07091	-0.023491176
204	0x3cbcf5f4	0.023066498
205	0xbd1af050	-0.037826836
206	0xbe64b5d7	-0.22334991
207	0xbd37e451	-0.044895474
208	0xbdc7f640	-0.09763765
209	0xbe806f42	-0.25084883
210	0x3d2ec6dd	0.04267012
211	0x3dcea2ae	0.100896224
212	0x3dd06a77	0.101765566
213	0x3e50a543	0.20375542
214	0xbdfaef2f	-0.12252652
215	0xbe38b49f	-0.18037651
216	0x3e2b71d0	0.16742635
217	0x3e553969	0.20822681
218	0xbdb03b79	-0.086050935
219	0x3f54ef02	0.83177197
220	0xbd4882e3	-0.04895295
221	0xbe290eb1	-0.1650951
222	0xbc8867ce	-0.01665106
223	0xbd855ac8	-0.06511456
224	0xbe816e11	-0.25279287
225	0xbe019b13	-0.12656812
226	0x3e2752fa	0.16340247
227	0xbe7897db	-0.24276678
228	0x3d745028	0.059646755
229	0x3e1e0eb7	0.15435301
230	0x3dfa280e	0.12214671
231	0xbdaffa31	-0.08592642
232	0x3cf1d1f2	0.029519055
233	0x3ca4878d	0.020084167
234	0x3f33e8c0	0.70277023
235	0xbd93ca18	-0.07216281
236	0x3e70f221	0.23529865
237	0xbe4f4dbf	-0.20244502
238	0x3e93ba96	0.2885329
239	0x3f0cef86	0.55052984
240	0xbdbbfff3	-0.09179678
241	0x3d3fcda6	0.04682698
242	0xbd1906f1	-0.037360135
243	0xbd7e9b99	-0.06216011
244	0xbe54239e	-0.20716712
245	0xbe26bf45	-0.16283901
246	0x3e9c70e2	0.30554873
247	0x3ef001c7	0.46876356
248	0xbec05017	-0.37561104
249	0xbe412e7e	-0.18865392
250	0x3d99633d	0.07489631
251	0x3d570dc8	0.052503377
252	0x3d8f374b	0.06992968
253	0xbec11718	-0.37712932
254	0x3d91c4e5	0.07117633
255	0x3e3dd693	0.18538885

model.2.weight f4 [128, 256]
0	0xbe4997fa	-0.1968688
1	0x3d65ca99	0.056101415
2	0x3bd5d8f7	0.0065261084
3	0xbe3ba913	-0.18326215
4	0xbbd47857	-0.006484072
5	0xbd9efda2	-0.0776322
6	0xbda07949	-0.07835633
7	0x3d8b2eb1	0.06796015
8	0xbd33bd2b	-0.043881577
9	0xbcd4d5da	-0.025980879
10	0xbe2c4505	-0.16823204
11	0xbdb1fe06	-0.08691029
12	0x3e91dbc3	0.28487977
13	0x3dc975fe	0.09836958
14	0x3d514f90	0.051101267
15	0xbd533cb0	-0.051571548
16	0x3c40e4f7	0.0117733395
17	0xbbf0070a	-0.007325058
18	0xbee33e60	-0.44383526
19	0x3e1bd550	0.15218091
20	0xbd923322	-0.07138659
21	0x3dc4bc82	0.096062675
22	0xbbee6d72	-0.0072762305
23	0x3defe950	0.11714423
24	0x3e61ac97	0.22038494
25	0x3e06eeeb	0.13177077
26	0xbd7be0a7	-0.061493542
27	0x3de41004	0.11135867
28	0xbbb84d75	-0.005624468
29	0x3d2562a4	0.040377274
30	0x3e04a6da	0.12954274
31	0x3e679f5b	0.22619383
32	0xbdd95c8b	-0.10613354
33	0xbcbb931c	-0.022897296
34	0x3db69623	0.08915355
35	0xbba66101	-0.0050774817
36	0x3b8bba40	0.004264146
37	0x3db0cb56	0.08632533
38	0xbd3e66e0	-0.046484828
39	0x3e593f18	0.21215475
40	0x3dc5e249	0.09662301
41	0xbe4ca332	-0.19984129
42	0xbebe68a6	-0.37189215
43	0xbd703484	-0.058643833
44	0xbdac281b	-0.08406087
45	0xbca90eeb	-0.020636996
46	0xbd1cff5e	-0.038329475
47	0xbc9906c6	-0.018679988
48	0xbd3caeb5	-0.04606505
49	0x3d9c1b59	0.07622404
50	0x3da2d932	0.07951583
51	0x3d45caed	0.04828923
52	0x3ee5d49a	0.44888765
53	0xbd5b0903	-0.05347539
54	0x3e892181	0.26783374
55	0xbd37717b	-0.044785958
56	0x3dc64088	0.09680277
57	0x3d8ddebd	0.069272496
58	0x3c28c62a	0.010301152
59	0xbdf2f7d2	-0.11863674
60	0xbc0224c0	-0.007943332
61	0x3cbbf07a	0.022941817
62	0x3e9a7310	0.3016591
63	0x3c2ee717	0.010675213
64	0x3d697735	0.05699845
65	0xbe8d03de	-0.27542013
66	0xbc891755	-0.016734758
67	0x3da08c56	0.07839267
68	0xbdf97b64	-0.12181738
69	0x3d8d2823	0.06892421
70	0xbe172aa6	-0.14762363
71	0xbdd66bab	-0.10469755
72	0xbcc05fc2	-0.02348316
73	0x3e29473f	0.16531084
74	0x3e00f4ec	0.1259343
75	0x3d76e618	0.06027803
76	0x3e5ba7d0	0.21450734
77	0x3df9b83d	0.12193344
78	0x3e4d9ffc	0.2008056
79	0x3ce5a6d9	0.02803366
80	0x3d2c3d2b	0.04205052
81	0x3eaa8b7c	0.33309543
82	0x3e83f677	0.25773975
83	0x3d93823e	0.07202576
84	0xbc8b1027	-0.016975475
85	0xbd6d4007	-0.05792239
86	0x3bd4408c	0.006477421
87	0xbe91864f	-0.28422782
88	0x3d25ab06	0.040446304
89	0xbba0dee0	-0.0049093813
90	0x3d16b7b8	0.0367963
91	0xbd517446	-0.051136278
92	0x3dba343e	0.09091996
93	0xbcbb6a61	-0.022877874
94	0x3ec98883	0.39361963
95	0xbd517682	-0.05113841
96	0x3d3f9710	0.046774924
97	0xbde3a998	-0.11116332
98	0x3e16f31e	0.1474118
99	0x3e8b2f6a	0.27184612
100	0x3f0fe00e	0.56201255
101	0x3caf2a7b	0.021382561
102	0xbdb72c84	-0.089440376
103	0x3ebb4eea	0.36583644
104	0xbe63a409	-0.22230543
105	0x3da900e1	0.08252121
106	0x3ddd11fb	0.10794445
107	0x3d5c0bcc	0.053722188
108	0x3d97a139	0.07403798
109	0xbd187354	-0.03721936
110	0xbc45eb76	-0.012080064
111	0x3d14a24d	0.036287595
112	0x3c03f738	0.008054547
113	0xbd1c7e24	-0.038206235
114	0xbe72ba57	-0.23703896
115	0xbca2c906	-0.019871246
116	0xbd5a6324	-0.053317204
117	0x3e6e1598	0.23250425
118	0x3e2215cb	0.15828626
119	0x3c858eb8	0.016303405
120	0x3d843bc4	0.06456712
121	0x3c31b19b	0.010845567
122	0xbdf7af3d	-0.12093971
123	0x3e0a1a22	0.13486531
124	0x3dbd43da	0.09241457
125	0xbd9a5f88	-0.075377524
126	0x3de32ca5	0.110925
127	0x3ddbc912	0.107317105
128	0x3de89585	0.113566436
129	0x3cf52a6d	0.029927457
130	0x3db3e25f	0.08783411
131	0x3e5e7208	0.21723187
132	0x3db2c3e2	0.08728768
133	0x3cfae3e6	0.030626249
134	0x3e1b6894	0.15176612
135	0x3dcaae30	0.09896505
136	0x3d9aabf6	0.0755233
137	0xbd839e6d	-0.06426702
138	0x3daaa048	0.083313525
139	0x3f2658ef	0.6497945
140	0xbdca15f0	-0.098674655
141	0x3e540378	0.20704448
142	0x3cfa68d4	0.030567564
143	0x3df47d2e	0.11937939
144	0x3e23de2a	0.16002718
145	0x3d200fa7	0.039077427
146	0x3d240ae6	0.040049456
147	0x3e32afe5	0.17449911
148	0x3edbc5ef	0.4292445
149	0xbc5b29b2	-0.01337664
150	0x3de8c133	0.11364975
151	0xbccc5b3d	-0.02494585
152	0x3eb90b64	0.36141503
153	0xbd152c3b	-0.036419135
154	0x3d47dd0e	0.0487948
155	0x3d81c807	0.0633698
156	0xbcd0f17c	-0.025505774
157	0xbf142690	-0.5787134
158	0xbedc8d0e	-0.43076366
159	0x3cf1917e	0.029488321
160	0x3bb91ca1	0.005649165
161	0x3dcd47c7	0.10023456
162	0x3d882bed	0.06649003
163	0xbda312c2	-0.07962562
164	0xbd7890d1	-0.060684983
165	0x3d84b0a0	0.06479001
166	0x3e485158	0.1956228
167	0x3dd6baa5	0.10484818
168	0x3c1e3531	0.0096562365
169	0xbdf61c05	-0.12017063
170	0x3ef9078a	0.48638564
171	0xbd1c131b	-0.038104158
172	0x3d215339	0.039386008
173	0xbdcc1160	-0.099642515
174	0x3e51359f	0.20430611
175	0xbe30b460	-0.17256308
176	0x3a296ad7	0.0006462759
177	0x3e84b499	0.25919035
178	0xbd07dba8	-0.033168465
179	0xbe8bf437	-0.2733476
180	0x3d82479f	0.06361317
181	0x3eb511b9	0.35365084
182	0xbecbf514	-0.39835417
183	0xbd305e7a	-0.04305885
184	0xbc916c03	-0.0177517
185	0xbd570ba2	-0.05250133
186	0xbd714f69	-0.058913622
187	0x3d01ef57	0.031722393
188	0x3e88d861	0.26727584
189	0xbc680102	-0.0141603965
190	0xbd8cc159	-0.06872816
191	0xbeeda53f	-0.46415135
192	0xbdd40dcd	-0.10354195
193	0x3e2fe33c	0.17176527
194	0xbd859d92	-0.06524195
195	0x3d0ba064	0.034088507
196	0x3d59116e	0.052995138
197	0xbe62e665	-0.22158201
198	0x3e1decdc	0.15422386
199	0xbe11bc27	-0.1423193
200	0x3e8593fe	0.26089472
201	0x3e2bec26	0.16789302
202	0x3eaea278	0.3410833
203	0xbe453c4b	-0.19261281
204	0xbb36f9ee	-0.0027919966
205	0xbe03d33d	-0.1287355
206	0xbf4f5761	-0.80992705
207	0xbda9f1ba	-0.08298059
208	0xbda57f71	-0.08080948
209	0x3db3c739	0.08778233
210	0x3eebd0b6	0.4605767
211	0xbb35a538	-0.0027716886
212	0xbcb1d66c	-0.02170869
213	0x3d374e7d	0.044752587
214	0x3cec71a1	0.028862776
215	0xbdf27c43	-0.11840107
216	0x3c980968	0.018559173
217	0x3de32896	0.110917255
218	0x3d19831a	0.037478544
219	0xbfb28d1a	-1.3949311
220	0xbdf2342e	-0.11826359
221	0x3ded123a	0.11575742
222	0x3d410eba	0.047133185
223	0xbe267256	-0.16254553
224	0x3e2a8713	0.16653089
225	0xbd8d2adc	-0.068929404
226	0x3d69819a	0.057008363
227	0xbca02e57	-0.019553347
228	0xbcfbf0d1	-0.030754479
229	0x3d8f07bf	0.06983899
230	0x3ea95d11	0.33078817
231	0x3dbf323b	0.093357526
232	0x3c38c740	0.011277974
233	0x3c03ba73	0.008040058
234	0x3eb62636	0.35576028
235	0x3cecd810	0.02891162
236	0xbe10669b	-0.14101641
237	0xbd9190ce	-0.071076974
238	0x3e5ed5fd	0.21761318
239	0xbf84c392	-1.0372183
240	0xbc6a9329	-0.014317312
241	0x3e094367	0.13404618
242	0x3d48712d	0.048936058
243	0xbdbe1942	-0.09282161
244	0x3e654b69	0.22392048
245	0xbe192a6b	-0.14957587
246	0xbe2b2959	-0.16714992
247	0x3d375b8b	0.044765037
248	0x3e3bc79c	0.18337864
249	0x3c3ede09	0.011649617
250	0x3dcb0d58	0.099146545
251	0xbca1eeda	-0.019767214
252	0xbc7d6f05	-0.015468364
253	0xbce8276f	-0.028339116
254	0xbcbe4f08	-0.023231044
255	0xbd7f681e	-0.062355153

model.2.bias f4 [128]
0	0x3ecf79f6	0.40522736
1	0x3e3ef037	0.18646322
2	0x3e2d1a3e	0.16904542
3	0x3e0f4029	0.13989319
4	0xbdb0ed55	-0.086390175
5	0x3db68c54	0.08913484
6	0x3df0a90e	0.117509946
7	0x3d1b0e92	0.037855692
8	0x3e2523ad	0.1612689
9	0xbd62807f	-0.055298325
10	0xbd7e0908	-0.06202033
11	0xbe03126e	-0.12799999
12	0x3e221d56	0.15831503
13	0x3ab546c1	0.001383029
14	0xbe4d4073	-0.20044117
15	0xbc70e07a	-0.014701957
16	0xbc14fb10	-0.009093061
17	0x3da8dbc8	0.08245045
18	0xbdb362b8	-0.087590635
19	0xbd3368ed	-0.043801237
20	0x3cd91454	0.026498951
21	0x3e224084	0.15844923
22	0x3ba7fdef	0.005126707
23	0x3e48bfde	0.19604442
24	0x3d9581c9	0.07300145
25	0x3e31dda5	0.17369707
26	0x3df0a99f	0.11751103
27	0xbd3d6bd6	-0.04624542
28	0x3e51956b	0.20467155
29	0xbccd8c9a	-0.025091458
30	0x3ea5d4df	0.3238897
31	0xbd84cd84	-0.064845115
32	0x3edd1e86	0.4318735
33	0xbcacea66	-0.021107864
34	0xbca43710	-0.020045787
35	0xbd8890ff	-0.06668281
36	0x3b8679a3	0.0041038557
37	0x3d4116bf	0.047140833
38	0xbc6fd169	-0.01463733
39	0xbd597df6	-0.05309864
40	0x3e08e4c6	0.1336852
41	0xbc32b545	-0.010907476
42	0x3d8ae64f	0.06782209
43	0xbd6a14e3	-0.057148825
44	0xbda9b3fd	-0.08286283
45	0x3c397c25	0.011321102
46	0x3c2df655	0.010617812
47	0x3e3f5afc	0.18687052
48	0x3db4a724	0.08820942
49	0x3e96528f	0.29359862
50	0x3c481619	0.0122123
51	0xbcb5400e	-0.02212527
52	0xbd3bafab	-0.045821827
53	0xbc964498	-0.018343255
54	0x3dbda9c7	0.09260898
55	0x3c5a30c6	0.013317293
56	0xbd2b475d	-0.041816104
57	0x3e204bf7	0.15653978
58	0x3ea7269c	0.32646644
59	0xbd033028	-0.032028347
60	0xbd6568ef	-0.056008276
61	0x3e512760	0.20425177
62	0xbe91f5c0	-0.28507805
63	0x3d656aee	0.05601018
64	0x3de5753e	0.11204003
65	0x3e4072ac	0.18793744
66	0x3ec36719	0.38164595
67	0xbdca6cc2	-0.09884025
68	0x3de50588	0.111826956
69	0x3db5cb48	0.088766634
70	0x3dd5c6fb	0.10438343
71	0x3dcf895a	0.101336196
72	0xbd9ba227	-0.075992875
73	0xbd66b79f	-0.05632746
74	0x3f00bf99	0.50292355
75	0xbe20fa01	-0.15720369
76	0xbcd371d6	-0.025811117
77	0xbdb5c6dd	-0.08875821
78	0x3e132214	0.14368469
79	0xbcf0853c	-0.029360406
80	0x3b70ca77	0.0036741772
81	0x3e802363	0.25026998
82	0xbc8957e0	-0.016765535
83	0x3d67f9fe	0.056634896
84	0xbd90d544	-0.07071927
85	0x3e6d9299	0.23200454
86	0x3d4a71db	0.049424987
87	0xbdb91642	-0.090374485
88	0x3e49dae2	0.19712403
89	0x3da5424b	0.08069285
90	0x3e128550	0.14308667
91	0xbd6f4040	-0.058410883
92	0x3e0dc14c	0.13843268
93	0xbbd99d01	-0.006641031
94	0x3cb09dce	0.021559622
95	0x3e5c9498	0.21541059
96	0x3e6faa91	0.2340491
97	0x3c44b442	0.012005867
98	0xbd801a7e	-0.06255053
99	0x3ce39b0c	0.027783893
100	0x3e672823	0.22573905
101	0x3e2e1ccc	0.17003173
102	0x3db87edc	0.090085715
103	0x3e37c332	0.17945555
104	0xbdd1fdab	-0.102534615
105	0xbf25da17	-0.64785904
106	0xbd588a74	-0.052866414
107	0x3db98a09	0.09059531
108	0x3daae08d	0.08343611
109	0x3ef61ad8	0.48067355
110	0x3e87ff90	0.26562166
111	0xbd5d1f65	-0.05398502
112	0x3e69d118	0.22833669
113	0x37cbf99f	2.4315725e-05
114	0x3e7995ef	0.24373601
115	0x3d0730aa	0.033005394
116	0xbe0f72f7	-0.140087
117	0x3de05a92	0.10954775
118	0x3efcbb89	0.49361828
119	0x3dc209e4	0.09474543
120	0x3e465eb0	0.19372058
121	0x3f095319	0.5364242
122	0xbd124293	-0.03570802
123	0xbd91075e	-0.07081483
124	0xbd3d8468	-0.04626885
125	0xbcd045dc	-0.025423937
126	0x3d532412	0.05154807
127	0xbc18c193	-0.009323495

model.4.weight f4 [64, 128]
0	0xbea1c89e	-0.3159837
1	0xbcdd2696	-0.026995938
2	0x3e9431f0	0.2894435
3	0xbe1cc06f	-0.15307783
4	0xbdfcfdb3	-0.12353077
5	0xbe5a06ee	-0.21291706
6	0x3d573656	0.052542053
7	0x3c4e78e0	0.012602061
8	0xbec92c02	-0.39291388
9	0x3d08d144	0.033402696
10	0xbca5e977	-0.020252926
11	0xbe1636dd	-0.14669366
12	0xbe20623e	-0.15662476
13	0xbd464f44	-0.048415437
14	0xbe9b6ae3	-0.30354986
15	0x3dbe1a0b	0.09282311
16	0x3caa6794	0.020801343
17	0x3d113e3c	0.035459742
18	0xbd0b9d6b	-0.034085672
19	0xbd468722	-0.048468716
20	0x3c049fd0	0.008094743
21	0xbf023147	-0.5085644
22	0x3dd1ddac	0.10247359
23	0x3e2f0cfa	0.17094794
24	0x3e65fef9	0.22460546
25	0x3e854b44	0.26033986
26	0x3e5cb29a	0.21552506
27	0xbd09d5c1	-0.033651117
28	0x3d9ef403	0.07761385
29	0x3d569582	0.052388676
30	0x3dc70678	0.09718031
31	0x3d4e4789	0.05036119
32	0x3d1231b7	0.035691943
33	0xbce64641	-0.028109672
34	0x3ea83b05	0.32857528
35	0x3d28ae56	0.041181885
36	0xbc720888	-0.014772542
37	0x3e3290e6	0.17438087
38	0x3bb7b6a2	0.0056064883
39	0x3d0b48c5	0.034004945
40	0x3e2ae592	0.16689137
41	0xbdc57f7d	-0.09643457
42	0xbe0d37c5	-0.13790806
43	0xbc993f21	-0.01870686
44	0x3c0259df	0.007955997
45	0xbed56142	-0.41675764
46	0xbc279085	-0.010227327
47	0xbf05494d	-0.52064973
48	0xbec8e11c	-0.39234245
49	0xbf64642b	-0.89215344
50	0xbd2698d7	-0.040673103
51	0xb9eac10c	-0.0004477579
52	0x3d5c7047	0.053818014
53	0x3d7fcf3e	0.0624535
54	0x3ddf9fec	0.109191746
55	0x3b3a3175	0.0028410826
56	0xbcc47c05	-0.023984918
57	0xbcdb6931	-0.026783558
58	0xbf12c6b2	-0.57334435
59	0xbc9d0487	-0.019167198
60	0x3d85323e	0.065037236
61	0x3ccce257	0.025010271
62	0x3f01b9da	0.5067421
63	0x3e7e5cfa	0.24840155
64	0xbd913c7f	-0.07091617
65	0x3df76712	0.12080206
66	0x3e494207	0.19654094
67	0xbce411ea	-0.027840573
68	0x3e49a005	0.19689949
69	0x3c04b4e9	0.008099773
70	0xbdd477b1	-0.10374392
71	0x3f04d9c1	0.51894766
72	0x3d118205	0.035524387
73	0x3f91bc5f	1.1385611
74	0xbde263c2	-0.110541835
75	0xbd70fe46	-0.058836244
76	0xbd87a157	-0.0662257
77	0x3ca11465	0.019663045
78	0x3ed14af7	0.40877506
79	0x3df615bc	0.12015864
80	0x3c76c554	0.015061695
81	0xbdcf0a6b	-0.10109409
82	0x3d66ecbd	0.056378115
83	0x3e894c1c	0.2681588
84	0x3db4eeb8	0.088345945
85	0xbbd5ec17	-0.0065283882
86	0xbe83688e	-0.25665706
87	0x3d96295f	0.0733211
88	0x3ee65cdb	0.44992718
89	0x3cde16c7	0.02711047
90	0xbf24c6a5	-0.6436561
91	0xbd1d68e4	-0.03843011
92	0xbd2cecf9	-0.042218182
93	0x3db1f3e8	0.086890996
94	0x3f98be7f	1.1933135
95	0xbe1b0cb1	-0.1514156
96	0xbe6e3bcf	-0.23265003
97	0x3d958e64	0.073025495
98	0xbe82fd2b	-0.25583777
99	0xbd2552c4	-0.040362135
100	0xbc4043cb	-0.011734913
101	0x3dc82568	0.0977276
102	0x3d40e4d1	0.047093216
103	0x3e2faef3	0.17156582
104	0xbd221864	-0.039574042
105	0xbf3ad4d8	-0.72981024
106	0xbd26c048	-0.040710717
107	0x3cf7bf72	0.030242655
108	0x3d6e8057	0.058227863
109	0xbda7eb8e	-0.08199225
110	0x3eb2d372	0.34926945
111	0x3cb869f8	0.022511467
112	0x3e7b28f2	0.24527338
113	0x3e1f1c32	0.155381
114	0x3ea8a517	0.32938454
115	0xbe2b84b2	-0.16749838
116	0xbc255ac7	-0.010092444
117	0xbc6a9663	-0.014318082
118	0x3e54996c	0.20761651
119	0x3e2b5287	0.167307
120	0x3d92fa70	0.071766734
121	0x3d67b019	0.056564424
122	0x3d00ba7d	0.03142785
123	0xbd2f9bea	-0.0428733
124	0xbd54cea0	-0.051954865
125	0xbcf79994	-0.030224599
126	0xbe200dc9	-0.15630259
127	0xbd798041	-0.060913328
128	0x3c6b1a92	0.014349597
129	0x3d644652	0.055731125
130	0x3c406af1	0.011744247
131	0xbc7b1b1d	-0.0153262885
132	0xbc9a39e1	-0.018826427
133	0x3dca109c	0.09866449
134	0xbbe1a8e8	-0.0068865903
135	0x3c0059ed	0.00783394
136	0x3d612e66	0.05497589
137	0xbd0629c8	-0.03275469
138	0xbd874b8f	-0.066062085
139	0x3d77ec43	0.06052805
140	0x3d33f423	0.043934
141	0x3caa2534	0.020769693
142	0xbdc257c4	-0.09489396
143	0x3d4135c6	0.047170423
144	0xbca35709	-0.019938963
145	0xbdb528bb	-0.08845659
146	0xbd7bdb7a	-0.061488606
147	0x3d8d6b1a	0.069051936
148	0xbda86644	-0.082226306
149	0xbdabc9f0	-0.08388126
150	0x3d883cbf	0.066522114
151	0x3d673543	0.05644728
152	0x3c9a956e	0.018870082
153	0xbd6f5aa9	-0.05843607
154	0xbdc57fa3	-0.096434854
155	0xbbda9160	-0.006670162
156	0xbbe14779	-0.0068749753
157	0xbd4106da	-0.047125675
158	0xbd34801c	-0.044067487
159	0x3d3a855e	0.045537345
160	0xbd8d986a	-0.06913836
161	0xbd4d024e	-0.050051026
162	0xbd000f05	-0.031264324
163	0xbdb2e6a6	-0.08735399
164	0x3d7b76fb	0.061392765
165	0xbc1f7ff4	-0.009735096
166	0x3c9d54b0	0.019205421
167	0x3d0eb9fb	0.034845334
168	0x3c9a56a0	0.018840134
169	0x3d12af10	0.035811484
170	0xbca6e8a9	-0.020374613
171	0x3d9cd315	0.07657448
172	0xbc090740	-0.008363545
173	0xbd9cc064	-0.07653883
174	0x3d03b9c1	0.03215957
175	0x3d86468a	0.06556423
176	0xbd01ec2e	-0.03171938
177	0xbc905b10	-0.017621547
178	0x3c5400ea	0.012939671
179	0x3d9a1df9	0.07525248
180	0xbda80580	-0.08204174
181	0xbd23cc7e	-0.03998994
182	0xbd57ecbe	-0.05271601
183	0xbd9317ae	-0.07182251
184	0xbd7add1f	-0.061246034
185	0xbc3c7178	-0.011501662
186	0xbdb56d35	-0.0885872
187	0xbd9f4b12	-0.077779904
188	0xbd59b634	-0.053152278
189	0x3d9dced5	0.07705466
190	0x3d3df540	0.046376467
191	0xbcac6477	-0.021044
192	0xbbb28da2	-0.005449013
193	0xbd8a2c1a	-0.06746693
194	0xbd1a53e7	-0.03767767
195	0x3c903720	0.01760441
196	0xbd2e1c91	-0.04250771
197	0xbdc6c71d	-0.097059466
198	0xbc993e9c	-0.018706612
199	0xbd9f1db9	-0.07769341
200	0xbb27a2e0	-0.0025579259
201	0x3ce92a24	0.028462477
202	0xbc7040dc	-0.014663901
203	0x3ad723aa	0.0016413827
204	0xbd830a42	-0.06398441
205	0x3d5d4a36	0.05402585
206	0xbd3b724c	-0.0457633
207	0x3c806113	0.015671289
208	0x3d182306	0.037142776
209	0x3ced5eb1	0.028975816
210	0x3d25a135	0.040436942
211	0x3c6ea786	0.014566308
212	0xbd3a4fe0	-0.04548633
213	0x3d66c0f2	0.05633635
214	0xbdab8715	-0.08375374
215	0x3d80a883	0.06282141
216	0xbc98214e	-0.018570568
217	0xbd92a6f3	-0.07160749
218	0xbd13f856	-0.036125503
219	0xbcf1fd68	-0.029539779
220	0xbd54603a	-0.05184958
221	0x3d39caee	0.045359544
222	0xbd13ae38	-0.03605482
223	0x3d61b7ef	0.055107053
224	0xbd86d730	-0.065840125
225	0x3d40950e	0.04701715
226	0xbdadef31	-0.08492888
227	0x3c974dea	0.01846977
228	0xbdbae1ac	-0.09125075
229	0xbd888a7c	-0.06667039
230	0xbda8eab8	-0.08247894
231	0x3b71ef3c	0.0036916276
232	0x3d8776ad	0.066144325
233	0xbcbad130	-0.022804826
234	0x3d714722	0.05890573
235	0x3d658645	0.056036253
236	0xbdb8d066	-0.09024124
237	0xbd1e22c0	-0.03860736
238	0xbdcd1a51	-0.10014785
239	0xbcbc8c91	-0.023016246
240	0xbda10067	-0.07861405
241	0x3c0638b7	0.008192233
242	0x3ca16160	0.019699752
243	0xbd3e1a7c	-0.046411976
244	0xbc66ccb0	-0.014086887
245	0xbdca5080	-0.098786354
246	0x3b906698	0.0044067614
247	0xbcf0a55e	-0.029375728
248	0x3d740fdc	0.059585437
249	0xbd5548a8	-0.052071244
250	0xbd4854d7	-0.048909035
251	0xbd2f2c18	-0.04276666
252	0x3d35ecf6	0.044415437
253	0xbcc8d154	-0.024513878
254	0x3b80b801	0.003928185
255	0x3d5b6f2e	0.053572826

model.4.bias f4 [64]
0	0x3d993511	0.07480825
1	0xbbc4a6aa	-0.006001313
2	0x3d9fc66e	0.07801519
3	0x3da8552a	0.08219369
4	0x3ec95797	0.39324638
5	0x3ecec0c9	0.40381458
6	0x3e9e598c	0.30927694
7	0xbc8ac454	-0.01693932
8	0x3eda1751	0.42595914
9	0x3b96fc75	0.004607732
10	0x3ed5fb53	0.41793308
11	0xbe31b45e	-0.17353961
12	0x3ec57fba	0.3857401
13	0xbdb17625	-0.086651124
14	0x3e4cf439	0.20015039
15	0xbcd1c65c	-0.02560728
16	0x3baad89c	0.00521381
17	0x3f0f6fe3	0.560301
18	0xbddc34d3	-0.10752263
19	0x3bdd76ea	0.0067585604
20	0x3eaaf401	0.33389285
21	0xbe86e130	-0.2634368
22	0x3eacb87d	0.33734503
23	0x3b6d181d	0.0036177703
24	0xbd7e05fd	-0.06201743
25	0xbc16ae3a	-0.009196812
26	0xbb8d9ed6	-0.0043219132
27	0x3f239d86	0.63912237
28	0xbe17a81b	-0.14810221
29	0x3e51fb4c	0.20506018
30	0xbd424dae	-0.047437362
31	0xbd88c3f9	-0.06678004
32	0x3e538e29	0.20659699
33	0xbdfe0077	-0.124024324
34	0xbdae4980	-0.08510113
35	0x3d977bb7	0.073966436
36	0x3c3b082c	0.011415523
37	0x3cfaa413	0.030595815
38	0xbde79327	-0.11307364
39	0x3db0ce14	0.08633056
40	0x3de1a02d	0.11016879
41	0x3e728716	0.23684344
42	0xbdb8e47e	-0.090279564
43	0x3e54bc12	0.20774868
44	0xbdbdd150	-0.09268439
45	0x3f120662	0.5704099
46	0xbdf9a365	-0.12189368
47	0x3e58575a	0.21127072
48	0x3e1fe88d	0.15616055
49	0xbdc23ffc	-0.0948486
50	0x3d01f99e	0.031732194
51	0x3eade56c	0.33964097
52	0x3e4eb494	0.20186073
53	0x3e485354	0.19563037
54	0x3e6d212e	0.23157188
55	0xbb63f15d	-0.0034781315
56	0xbd2c4adf	-0.04206359
57	0xbd8f55a4	-0.069987565
58	0xbdb34ed1	-0.087552674
59	0x3e0541aa	0.1301333
60	0xbd02707e	-0.031845562
61	0xbe020dcf	-0.1270058
62	0xbd20484b	-0.039131444
63	0x3be792cb	0.0070670596

model.6.weight f4 [32, 64]
0	0x3d8b6feb	0.06808456
1	0xbd5da2c8	-0.05411032
2	0xbb5a9d18	-0.0033357795
3	0xbdeacc8b	-0.11464795
4	0xbe32432e	-0.1740844
5	0x3d34e1b3	0.044160556
6	0x3d3b6890	0.045754015
7	0x3dc3c2fb	0.09558674
8	0x3cc38bc4	0.023870356
9	0xbbf95959	-0.007609528
10	0xbccad924	-0.024761744
11	0xbd49fcc5	-0.049313325
12	0xbd9dcf3a	-0.07705541
13	0xbda37ce4	-0.07982805
14	0xbd58a658	-0.052893013
15	0xbdb9cae2	-0.090719
16	0xbd91da4f	-0.07121717
17	0xbe2b0c33	-0.16703872
18	0xbb2da080	-0.002649337
19	0x3d909dad	0.07061324
20	0xbe1670b8	-0.14691436
21	0x3e1e7e73	0.15477924
22	0x3d7326bf	0.059363123
23	0x3d668f93	0.056289267
24	0xbd859ead	-0.06524406
25	0xbe20ec01	-0.15715028
26	0xbced0d37	-0.028936965
27	0x3c9ae9d3	0.018910324
28	0x3d7bf2de	0.061510913
29	0xbe1ace00	-0.15117645
30	0xbdfa5759	-0.122236915
31	0x3dd4b72f	0.10386502
32	0x3de285cc	0.11060676
33	0x3d2ee008	0.04269412
34	0x3d61c51f	0.05511963
35	0xbde95fd7	-0.11395233
36	0xbc2be2cd	-0.010491085
37	0xbd69674d	-0.05698328
38	0xbe1793e4	-0.1480251
39	0xbe2aeb77	-0.16691385
40	0x3d1a0c4c	0.037609383
41	0xbbf90783	-0.0075997724
42	0x3bebc4e0	0.0071951
43	0xbe20e52b	-0.1571242
44	0x3c8f1828	0.017467573
45	0xbdd70d78	-0.10500616
46	0xbdcad19b	-0.0990326
47	0xbd240abd	-0.040049303
48	0xbddd5e12	-0.10808958
49	0xbdc23dd9	-0.09484453
50	0x3d2fdbba	0.042934157
51	0xbda8e3ea	-0.08246596
52	0xbe552217	-0.20813785
53	0xbd3fbe12	-0.046812125
54	0xbe079072	-0.13238695
55	0x3c78679b	0.01516142
56	0xbd7259d6	-0.059167705
57	0xbdf805cc	-0.12110481
58	0xbd611246	-0.054949068
59	0x3d45d13e	0.048295252
60	0xbd0ca8bd	-0.03434061
61	0xbd9dcf24	-0.077055246
62	0x3dc5cff4	0.096588045
63	0x3dbea047	0.09307914
64	0xbd941b82	-0.07231809
65	0xbde1a7aa	-0.110183075
66	0xbe904242	-0.2817555
67	0x3e175d3a	0.14781657
68	0x3ecdb646	0.40178126
69	0xbe9a34f7	-0.30118534
70	0xbea22b60	-0.31673717
71	0x3dd01130	0.10159528
72	0xbed5fabf	-0.41792867
73	0xbdf97f25	-0.12182454
74	0xbda64b59	-0.0811984
75	0xbe0a9580	-0.13533592
76	0x3f002669	0.5005861
77	0x3d81cca7	0.063378625
78	0xbda33f18	-0.079710186
79	0x3e425a83	0.1897984
80	0xbc5e9a80	-0.01358664
81	0x3e2d8e1a	0.16948739
82	0x3df3f9e6	0.11912899
83	0x3d9aa9b0	0.075518966
84	0xbd4805d6	-0.04883369
85	0x3d519c0c	0.05117421
86	0x3cfce2bd	0.030869836
87	0x3ca94db3	0.020666933
88	0x3e8b7df1	0.27244523
89	0x3eb3a4c7	0.35086653
90	0xbca80087	-0.020508064
91	0x3e9cc04f	0.3061547
92	0xbd9e51e9	-0.07730467
93	0xbe54a72b	-0.20766895
94	0xbe2ef16a	-0.1708428
95	0x3d7ac430	0.061222255
96	0x3e5d7414	0.21626312
97	0xbdb01a2f	-0.08598744
98	0xbd0930e0	-0.033493876
99	0x3d0e7acb	0.034785073
100	0x3e0ca4da	0.13734761
101	0x3d86572f	0.06559598
102	0xbe6193fc	-0.22029108
103	0xbe148265	-0.14502867
104	0xbda74422	-0.08167292
105	0x3e8d7400	0.27627563
106	0x3d5e34f8	0.054249734
107	0x3e604990	0.21903062
108	0xbe189af4	-0.1490286
109	0x3e0042d4	0.12525493
110	0x3d0eaff5	0.034835774
111	0xbaf473e0	-0.0018650256
112	0xbea9adf6	-0.33140534
113	0x3b70d738	0.0036749374
114	0x3daebc6b	0.085320316
115	0x3e346512	0.1761668
116	0x3d9b4d38	0.07583088
117	0x3e3113ad	0.17292662
118	0x3dc675b4	0.09690419
119	0x3e7a83bf	0.2446432
120	0x3eae503f	0.34045598
121	0x3db8568c	0.090008825
122	0x3d864120	0.0655539
123	0x3e3da9ab	0.18521754
124	0xbcb26da2	-0.021780793
125	0x3c0a55dc	0.008443322
126	0xbe066c21	-0.13127185
127	0x3d85060d	0.06495295
128	0xbd502a6b	-0.050821703
129	0xbce288e6	-0.027653169
130	0xbe47375a	-0.19454709
131	0x3d15ba5f	0.03655469
132	0xbc869e07	-0.016432775
133	0x3e264a2b	0.1623923
134	0x3e238584	0.15968901
135	0xbbd9bea9	-0.006645043
136	0x3e71b00a	0.2360231
137	0x3d30f0e5	0.043198485
138	0xbdda8b2f	-0.106710784
139	0xbde14a86	-0.11000542
140	0x3e3f0712	0.18655041
141	0x3dd7206f	0.10504233
142	0xbe2df50a	-0.16988006
143	0x3e0ced71	0.13762452
144	0x3df539f8	0.11973947
145	0xbd462725	-0.048377175
146	0x3d9538af	0.07286202
147	0x3d949563	0.07255056
148	0x3dde00e2	0.10840012
149	0x3e71650d	0.23573704
150	0x3b4c7182	0.0031195586
151	0xbdb5f68a	-0.08884914
152	0x3d44fb7b	0.048091393
153	0xbc1ddf90	-0.009635821
154	0x3de9883d	0.114029385
155	0xbdbad92e	-0.09123455
156	0x3d9458a5	0.0724347
157	0x3daae55d	0.08344529
158	0xbc170592	-0.009217637
159	0x3e0c5aee	0.13706562
160	0x3e40b629	0.18819489
161	0x3d8156dc	0.06315395
162	0x3cbe7661	0.023249807
163	0xbe031fde	-0.12805125
164	0xbcc69197	-0.024239345
165	0x3cc08547	0.023501052
166	0xbdab6f6b	-0.08370861
167	0xbddde4dd	-0.10834668
168	0xbd1c4869	-0.038154993
169	0x3c24bdb0	0.010054991
170	0x3d026512	0.03183467
171	0xbe44ca90	-0.19217896
172	0xbad95178	-0.0016580066
173	0xbd9a4b5f	-0.07533907
174	0xbca37171	-0.019951554
175	0x3d54d92f	0.051964935
176	0x3e017d25	0.12645395
177	0xbdc1bd77	-0.09459966
178	0x3c82564b	0.015910288
179	0xbdfca795	-0.12336651
180	0x3d6f3937	0.058404174
181	0xbdfa8515	-0.12232415
182	0xbd48a10e	-0.04898172
183	0x3ccbb135	0.024864772
184	0xbe29de6f	-0.16588758
185	0x3d0b57ec	0.034019396
186	0xbcbddb91	-0.023175986
187	0xbea7a1e1	-0.3274069
188	0x3d8374dc	0.064187735
189	0xbd84f7e0	-0.06492591
190	0x3d54406f	0.05181926
191	0xbcbdee69	-0.023184972
192	0x3e317f7d	0.17333789
193	0xbc8d6991	-0.017262252
194	0xbdeea2ea	-0.11652167
195	0xbad4998c	-0.0016220077
196	0x3eb0c0b7	0.3452203
197	0xbf0947c0	-0.53625107
198	0xbebacfba	-0.36486608
199	0x3ca53048	0.020164624
200	0xbcc5b1a8	-0.024132565
201	0x3de48953	0.11159005
202	0xbf8bfb7b	-1.0936121
203	0x3cb16851	0.021656187
204	0x3d362faa	0.04447905
205	0x3d3cb7c3	0.046073686
206	0x3d97a273	0.074040316
207	0xbd98ba0f	-0.07457363
208	0x3dbd4075	0.0924081
209	0xbdbf9d6b	-0.09356197
210	0xbd039456	-0.032123886
211	0xbe52e60a	-0.20595565
212	0xbe9e5084	-0.30920804
213	0x3ed2e676	0.41191453
214	0x3c3c1930	0.011480615
215	0xbd323df1	-0.043516103
216	0x3cac4095	0.021026889
217	0x3dec609f	0.115418665
218	0x3e11c61e	0.14235732
219	0xbd4ad0e6	-0.049515627
220	0xbe365d13	-0.17808942
221	0x3ca985f4	0.020693757
222	0xbe36d4ef	-0.17854665
223	0xbe1d84a0	-0.15382624
224	0x3ed1769e	0.4091081
225	0x3c97449a	0.018465329
226	0xbdd58e7f	-0.104275696
227	0xbe1f83e1	-0.15577652
228	0xbdd89c8a	-0.105767325
229	0xbd800f2c	-0.06252894
230	0xbe2cbfb4	-0.16870004
231	0xbe8a7f7d	-0.2705039
232	0x3d94ca81	0.07265187
233	0xbe8d9eb0	-0.2766013
234	0x3c6dd6f6	0.014516583
235	0x3cf189fb	0.02948474
236	0xbd9f396f	-0.077746265
237	0xbf2b9180	-0.6701889
238	0xbdd470bb	-0.10373064
239	0x3d90ceea	0.07070716
240	0xbd997d9e	-0.07494663
241	0x3c68fe74	0.014220823
242	0x3d3db07b	0.046310883
243	0xbcfcd884	-0.030864961
244	0xbe7f9923	-0.24960761
245	0xbe143acf	-0.14475559
246	0xbe2e10a5	-0.16998537
247	0xbe7054d5	-0.23469861
248	0xbe123b54	-0.14280444
249	0xbd7c55f1	-0.061605398
250	0x3e047bef	0.12937902
251	0xbf2db91f	-0.678606
252	0x3df85dae	0.12127243
253	0x3d309bdb	0.043117385
254	0x3d0fd7d0	0.035117924
255	0xbdf69d48	-0.12041718

model.6.bias f4 [32]
0	0x3d307e68	0.0430893
1	0x3f0cae76	0.54953706
2	0x3cae2cc6	0.021261584
3	0x3d3cba16	0.046075903
4	0x3d810c82	0.06301214
5	0x3f125d67	0.5717377
6	0x3e1a14ea	0.1504704
7	0x3e37df7a	0.17956343
8	0x3e9757a2	0.29559046
9	0x3e30aa76	0.17252526
10	0x3f104951	0.5636187
11	0x3df89008	0.12136847
12	0xbda3558a	-0.079753
13	0x3f0918f5	0.53553706
14	0xbcb5b074	-0.022178866
15	0x3e1b5dbc	0.15172476
16	0x3ec8f217	0.392472
17	0x3ea2cd52	0.31797272
18	0x3e0448ea	0.1291844
19	0x3eaa290a	0.33234435
20	0x3e9d39c2	0.30708128
21	0x3e621dfc	0.2208175
22	0xbe335531	-0.17512967
23	0x3e300bc5	0.1719199
24	0x3e49b7f4	0.19699079
25	0x3e9187d7	0.2842395
26	0x3d616e28	0.055036694
27	0x3f0dbbb9	0.5536457
28	0x3e8d04f4	0.2754284
29	0x3e50d88f	0.2039511
30	0x3d647171	0.05577225
31	0x3eb00bbc	0.34383953

model.8.weight f4 [10, 32]
0	0x3dd66979	0.10469336
1	0x3e84898e	0.25886196
2	0xbea40b48	-0.32039857
3	0xbe63cf28	-0.22246993
4	0xbd3a1dc1	-0.04543853
5	0x3e112a9f	0.14176415
6	0x3cbe66d6	0.023242395
7	0x3c818b50	0.0158135
8	0xbe301d60	-0.17198706
9	0xbdc34b68	-0.09535867
10	0x3e84a5b3	0.25907668
11	0x3c28c393	0.010300535
12	0x3ca3ed31	0.020010563
13	0x3bf1eaaa	0.0073827105
14	0x3e3058a7	0.17221318
15	0x3e6b49c5	0.2297736
16	0x3ea88683	0.32915124
17	0xbecf2c23	-0.4046336
18	0x3bfd9756	0.007738988
19	0x39ec476d	0.00045066644
20	0xbdf77ead	-0.12084708
21	0x3e88d1ab	0.26722464
22	0x3daa8072	0.0832528
23	0xbdcc7d6f	-0.09984862
24	0xbda3c013	-0.079956196
25	0xbe84f9e7	-0.2597191
26	0x3dffe3ed	0.12494645
27	0x3df617c7	0.12016254
28	0x3e13be25	0.14428003
29	0x3e647884	0.22311598
30	0xbc38ae9c	-0.011272099
31	0xbe5e3ebe	-0.21703622
32	0xbd76931e	-0.060198896
33	0x3ea54cef	0.32285258
34	0xbe481556	-0.19539389
35	0xbd019e16	-0.031644903
36	0x3d32d1f7	0.04365727
37	0x3edc7281	0.4305611
38	0xbd020abc	-0.03174852
39	0x3cd333b1	0.025781484
40	0xbe742ac4	-0.23844439
41	0xbe60aceb	-0.21940963
42	0x3e352c3f	0.1769266
43	0xbd0618ba	-0.032738425
44	0x3d8f0044	0.069824725
45	0x3c375fa2	0.011192234
46	0xbe029d0d	-0.12755223
47	0x3e67bd66	0.22630844
48	0x3e96da9e	0.29463667
49	0xbea4c7bd	-0.32183638
50	0x3dda4886	0.10658364
51	0x3e515b3f	0.20444964
52	0xbe1bdedd	-0.15221734
53	0x3db5a6e8	0.088697255
54	0xbd6dd98d	-0.0580688
55	0x3d28da2e	0.041223697
56	0xbe4a63a7	-0.19764577
57	0xbe953342	-0.2914067
58	0x3d9ba0d6	0.075990364
59	0x3df3d99a	0.119067386
60	0x3e0b589b	0.13608019
61	0x3e44238d	0.19154187
62	0xbdeb63b7	-0.114936285
63	0xbe5aab8b	-0.21354501
64	0x3e05631c	0.13026088
65	0x3f00c9be	0.50307834
66	0xbe380080	-0.1796894
67	0x3d2d1ac3	0.04226185
68	0x3c84d93b	0.016216865
69	0x3cf3b4dc	0.029749326
70	0x3d8c4bb6	0.06850378
71	0x3d069a36	0.03286191
72	0xbe49c885	-0.19705398
73	0x3df73e7d	0.120724656
74	0x3e9e4aee	0.30916542
75	0x3d20fe07	0.03930476
76	0x3e06c3d3	0.13160639
77	0x3c903cb9	0.01760708
78	0x3e226198	0.15857542
79	0x3e761a78	0.24033535
80	0x3e88ae69	0.26695564
81	0xbea2c04c	-0.31787336
82	0xbdc712bc	-0.0972037
83	0x3e8eb757	0.27874252
84	0xbec3f6ff	-0.3827438
85	0x3e245f3b	0.16051953
86	0x3d9f3cd1	0.07775272
87	0x3d7ea5b1	0.062169734
88	0xbe827c27	-0.25485346
89	0xbe7605ee	-0.240257
90	0xbdd8a077	-0.10577481
91	0x3d5ac4e9	0.053410444
92	0x3d6b4a01	0.057443622
93	0x3e42182f	0.18954538
94	0x3dd80ecd	0.10549698
95	0xbe1b3446	-0.1515666
96	0x3c29669a	0.0103394035
97	0x3eadeb69	0.33968666
98	0xbe65c7d4	-0.2243951
99	0xbe2563f1	-0.16151406
100	0x3d38577c	0.045005307
101	0x3e0d9f0f	0.13830207
102	0x3e3eaf44	0.18621546
103	0x3d0f53aa	0.034991898
104	0xbe812068	-0.25220037
105	0x3d5fb7d7	0.054618683
106	0x3e93debf	0.2888088
107	0xbd1e89b4	-0.038705543
108	0x3d6c7faa	0.057738937
109	0x3d0f7669	0.035025034
110	0x3e04b9f1	0.12961556
111	0x3e39b954	0.18137103
112	0x3e6c1cbf	0.23057841
113	0xbe828550	-0.25492334
114	0xbd9a8dc6	-0.075465724
115	0x3e18f6c4	0.14937884
116	0xbd9f0471	-0.07764519
117	0x3e42913c	0.19000715
118	0xbdfa4491	-0.12220109
119	0x3e04f3b6	0.12983593
120	0xbe8a2818	-0.26983714
121	0xbeb271df	-0.34852502
122	0xbe16fcdd	-0.14744897
123	0x3db06e02	0.08614732
124	0x3c9f4686	0.019442808
125	0x3e435e87	0.19079028
126	0x3bc3ff94	0.005981395
127	0xbe22e02f	-0.15905832
128	0xbe15e9e4	-0.14640003
129	0x3e6077d8	0.21920717
130	0xbe56ccc5	-0.20976551
131	0x3dd96d55	0.106165566
132	0x3e0d63b0	0.13807559
133	0x3e9a2126	0.30103415
134	0xbd5d76a2	-0.054068215
135	0x3daa2b4f	0.08309042
136	0xbe804ee3	-0.25060186
137	0x3d6b4dcb	0.057447236
138	0x3ea02c60	0.31283855
139	0xbd19e15e	-0.037568443
140	0x3dcdc837	0.100479536
141	0xbde07410	-0.10959637
142	0x3e2179cf	0.15769123
143	0xbb6ef0de	-0.0036459486
144	0x3ecfd7a0	0.40594196
145	0xbeac891f	-0.33698365
146	0x3e0b382a	0.13595644
147	0x3e156ba0	0.14591837
148	0xbe708d15	-0.23491319
149	0x3e5ec8a2	0.21756223
150	0xbe07fb82	-0.13279536
151	0x3e4283ce	0.18995592
152	0xbe543f78	-0.20727336
153	0xbe5832b0	-0.21113086
154	0xbca4370a	-0.020045776
155	0x3dab1116	0.08352868
156	0xbdc27c1e	-0.0949633
157	0x3e5b473b	0.21413891
158	0x3de069bd	0.10957668
159	0xbe720dd3	-0.23638086
160	0x3da1e03f	0.079041
161	0x3eb63199	0.35584715
162	0xbea852a0	-0.32875538
163	0xbc12771a	-0.008939529
164	0xbe050605	-0.12990578
165	0x3e92f06e	0.28699058
166	0x3e3892f1	0.18024804
167	0xbd81c901	-0.063371666
168	0xbe74e340	-0.23914814
169	0x3e196f9d	0.14983983
170	0x3e4b4ecf	0.19854282
171	0xbc4327a5	-0.011911307
172	0x3d8763ba	0.06610818
173	0xbc8fe7a2	-0.017566506
174	0x3dddb146	0.10824828
175	0xbd982bd5	-0.07430235
176	0x3eb6160e	0.355637
177	0xbe805310	-0.25063372
178	0x3da66173	0.08124056
179	0xbe729473	-0.23689441
180	0xbe4113cb	-0.18855207
181	0x3e63350a	0.22188202
182	0x3c927288	0.017876878
183	0xbd84b8e3	-0.06480577
184	0xbe7a1491	-0.24421908
185	0xbe7ad787	-0.2449628
186	0x3ad5bc54	0.0016306737
187	0x3de209b8	0.1103701
188	0x3d76a26a	0.060213484
189	0x3e6078d7	0.21921097
190	0x3e38911f	0.1802411
191	0xbe8570c5	-0.260626
192	0xbdaff163	-0.08590963
193	0x3e9a82a6	0.30177802
194	0xbddda0ac	-0.10821661
195	0x3d50a46e	0.050938062
196	0x3d0f2087	0.03494313
197	0x3df4b122	0.11947848
198	0x3e19ec01	0.15031435
199	0xba4cce09	-0.0007812684
200	0xbe4a09a2	-0.19730237
201	0x3d968a0f	0.07350551
202	0x3e7ae48f	0.2450125
203	0x3d2949bc	0.041330084
204	0xbda32421	-0.079658754
205	0xbc07e8f6	-0.008295288
206	0x3dc520dc	0.09625408
207	0x3e0a02d5	0.13477643
208	0x3e857782	0.2606774
209	0xbeb66935	-0.35627142
210	0x3e44ff24	0.19237953
211	0x3d1a0767	0.037604716
212	0xbe12458f	-0.14284347
213	0x3ded6d87	0.11593156
214	0xbd66dca0	-0.05636275
215	0x3d05b669	0.032644663
216	0xbebde303	-0.3708726
217	0xbe59166c	-0.2119996
218	0x3d2024d3	0.03909762
219	0x3dce0e69	0.10061342
220	0x3e3b13bd	0.18269248
221	0x3e6f2901	0.23355485
222	0xbba53f8d	-0.0050429762
223	0xbe5800ae	-0.2109401
224	0xbdaf1f36	-0.08550875
225	0x3eaf80b1	0.3427787
226	0xbe2a6b84	-0.16642576
227	0x3db00163	0.085940145
228	0x3e32edbf	0.17473505
229	0x3dbdc166	0.092654034
230	0xbc6c782e	-0.01443295
231	0x3c20f727	0.009824551
232	0xbe1bb42f	-0.15205453
233	0xbd8547f9	-0.06507868
234	0x3e9fe53d	0.31229582
235	0xbc62ce29	-0.013843098
236	0xbd873c5c	-0.066033095
237	0x3bd0c46a	0.0063710706
238	0x3dbe0afd	0.092794396
239	0xbe13832c	-0.14405507
240	0x3e9e07e7	0.30865404
241	0xbe3a0c44	-0.18168741
242	0x3d94ec79	0.07271666
243	0xbe224a1b	-0.15848581
244	0xbe3896fe	-0.18026349
245	0x3e2f9790	0.1714766
246	0x3d8485ee	0.064708576
247	0x3e102523	0.14076667
248	0xbe6ec39a	-0.23316804
249	0xbebf192a	-0.37323886
250	0x3dafdd69	0.085871525
251	0x3d4fc8b9	0.050728533
252	0x3c811791	0.015758308
253	0x3e2eb029	0.17059387
254	0xbe1bd611	-0.15218379
255	0xbeccb084	-0.3997842

model.8.bias f4 [10]
0	0xbdf040fa	-0.11731143
1	0xbe879999	-0.26484373
2	0xbea291ea	-0.3175195
3	0xbea948ed	-0.3306345
4	0xbe3da8ed	-0.18521471
5	0xbbdc1324	-0.006716149
6	0xbd812130	-0.06305158
7	0x3d925a77	0.07146161
8	0xbd487324	-0.04893793
9	0x3da612c9	0.08109052
