checkpoints/checkpoint_step_3100.pth (torch, 200878 bytes, 10 tensors)

model.0.weight f4 [256, 21]
0	0x3deff25f	0.117161505
1	0xbd784896	-0.0606161
2	0x3d8211ff	0.06351089
3	0xbe27185b	-0.16317885
4	0xbea4d3b9	-0.32192782
5	0xbe207bcd	-0.15672226
6	0xbedf057c	-0.43558872
7	0x3c8da94e	0.017292645
8	0x3d4d327a	0.050096966
9	0x3cdab79f	0.026698885
10	0xbe99134b	-0.29897532
11	0x3d600acb	0.054697793
12	0x3e646f29	0.22308029
13	0xbf3ac5d8	-0.72958136
14	0xbe4bdb38	-0.19907844
15	0xbe953d0a	-0.29148132
16	0xbca98bde	-0.020696577
17	0x3dc63a1f	0.096790545
18	0x3e0af166	0.13568649
19	0xbef13416	-0.4711005
20	0x3e9e2b58	0.30892444
21	0x3d703bc9	0.058650766
22	0x3d4b23cd	0.04959469
23	0xbe122d06	-0.14274988
24	0xbd429410	-0.047504485
25	0xbf931bb8	-1.1492834
26	0xbd3201a7	-0.043458607
27	0x3de4dafb	0.1117458
28	0xbdb28059	-0.087158866
29	0xbdd29fbd	-0.10284374
30	0xbe9af477	-0.30264637
31	0x3bb63f19	0.005561721
32	0xbd8909e1	-0.066913374
33	0xbe9b0e4c	-0.30284345
34	0xbe9f918d	-0.31165734
35	0xbdbfcc52	-0.09365143
36	0x3c02e555	0.007989247
37	0xbc93fc46	-0.01806463
38	0x3e3ef155	0.18646748
39	0xbd5a58ea	-0.05330745
40	0x3e2b4faf	0.16729616
41	0xbd22ad92	-0.03971631
42	0xbd61385e	-0.054985397
43	0xbe860c6a	-0.26181346
44	0x3e7df3eb	0.24800079
45	0xbcdbc23f	-0.026826022
46	0x3e0315ad	0.12801237
47	0x3dafff51	0.085936196
48	0xbef8bb3d	-0.4858035
49	0x3ddbc647	0.10731178
50	0x3e1be5dc	0.15224403
51	0xbe3011fe	-0.17194363
52	0x3d054d31	0.03254432
53	0xbf01457b	-0.50496644
54	0xbdea3215	-0.11435334
55	0xbe72eb14	-0.23722488
56	0xbe5d276e	-0.21597072
57	0x3db7146d	0.08939443
58	0xbea5d330	-0.32387686
59	0xbd42c9d1	-0.04755575
60	0xbdb568e6	-0.088578984
61	0xbe3da10c	-0.18518466
62	0xbdd5bff6	-0.10437004
63	0x3dc63414	0.09677902
64	0xbee6e2e4	-0.4509498
65	0xbd2e1c65	-0.042507548
66	0xbe4bd143	-0.19904046
67	0xc00d7858	-2.2104702
68	0x3cd6d7cc	0.026225947
69	0xbe4fc032	-0.2028816
70	0x3d90af64	0.07064703
71	0x3d172cca	0.03690795
72	0x3aaa0c69	0.0012973669
73	0x3b777310	0.0037757792
74	0x3e306396	0.17225489
75	0x3d9006e5	0.07032565
76	0xbe0f8286	-0.14014634
77	0xbd11d72f	-0.035605606
78	0x3e3df2fe	0.18549725
79	0xbc8989c0	-0.016789317
80	0x3e448b12	0.19193676
81	0xbda41520	-0.08011842
82	0x3e0ae642	0.13564399
83	0xbf2db356	-0.6785177
84	0x3e2c1521	0.16804935
85	0xbe0284d7	-0.12745987
86	0x3de2b9e5	0.11070613
87	0xbe43d7fa	-0.19125357
88	0x3d924735	0.07142488
89	0xbe7b4686	-0.24538621
90	0x3e8cd67e	0.27507395
91	0x3d6a16b9	0.057150576
92	0x3db950ed	0.090486385
93	0xbd984a18	-0.07436007
94	0xbdfbd6b8	-0.12296814
95	0xbd52aa40	-0.051431894
96	0x3deb2e2a	0.114834145
97	0xbe14c156	-0.14526877
98	0xbe503bfc	-0.20335382
99	0x3cdcd075	0.026954869
100	0x3e1554a2	0.14583066
101	0xbed26f2a	-0.41100436
102	0xbdff701b	-0.12472554
103	0x3d9ae027	0.07562285
104	0xbcee3f0c	-0.029082797
105	0xbe62c1c2	-0.22144225
106	0x3d88b9c1	0.06676055
107	0xbe709bc3	-0.23496918
108	0x3db5f431	0.088844664
109	0xbdaf43ac	-0.08557829
110	0x3d91c724	0.07118061
111	0xbe8daf40	-0.27672768
112	0x3a07b4a3	0.0005176758
113	0xbea37f10	-0.31932878
114	0xbe040a07	-0.1289445
115	0xbb6ee3af	-0.0036451628
116	0x3e71b11e	0.23602721
117	0xbd9ae856	-0.07563846
118	0x3eb82d5d	0.3597211
119	0xbe1789bd	-0.14798637
120	0x3eb259e8	0.34834218
121	0x3d69dcb6	0.057095252
122	0x3e8fd581	0.28092578
123	0xbe699ebf	-0.22814463
124	0x3e48fc29	0.19627441
125	0x3dd34f8d	0.103179075
126	0xbf24ecd4	-0.6442387
127	0xbd800d94	-0.0625259
128	0x3e948048	0.2900412
129	0xbebbe4e0	-0.36698055
130	0xbf4a7101	-0.7907868
131	0xbe009bb6	-0.12559399
132	0xbe8ea0a2	-0.27856928
133	0xbea9eee5	-0.33190075
134	0xbec4387a	-0.38324338
135	0xbd65cea5	-0.056105275
136	0xbe8e5f8d	-0.27807274
137	0xbe904815	-0.28179994
138	0xbd9a3cd6	-0.07531135
139	0xbe4fc207	-0.2028886
140	0x3e2389f8	0.159706
141	0x3e286897	0.16446148
142	0x3de0943b	0.10965773
143	0x3dcbba1e	0.099476084
144	0xbe5691c8	-0.20954049
145	0xbdc69b20	-0.096975565
146	0xbdce5d1e	-0.100763544
147	0xbe11d10c	-0.14239901
148	0xbe03ad77	-0.1285914
149	0x3e4d4c3c	0.20048612
150	0xbe09e937	-0.1346787
151	0x3e500fd3	0.20318536
152	0xbd2b2b32	-0.04178924
153	0xbeb9297c	-0.36164463
154	0xbd7073b8	-0.058704108
155	0xc0a216ce	-5.065284
156	0xbcc1ac2f	-0.023641674
157	0xbd1d54fe	-0.038411133
158	0xbc00f5ff	-0.00787115
159	0xbd73dac0	-0.059534788
160	0xbd82dc98	-0.06389731
161	0x3d21c236	0.039491855
162	0x3d656b9d	0.05601083
163	0xbd38aab3	-0.045084666
164	0xbe2384df	-0.15968655
165	0xbd7168af	-0.058937725
166	0xbe50354f	-0.20332836
167	0xbe5839c9	-0.21115793
168	0xbca77ba1	-0.020444693
169	0xbe034b5d	-0.12821718
170	0x3d9a43f9	0.07532496
171	0xbe5f3a5c	-0.21799606
172	0x3d830c82	0.0639887
173	0x3b45786e	0.0030131596
174	0xbeb38a3b	-0.350664
175	0xbdd5c61b	-0.10438176
176	0x3e3ce9e5	0.18448599
177	0xbe97c866	-0.2964508
178	0xbea20c4b	-0.31650004
179	0xbeb724b8	-0.35770202
180	0xbc959748	-0.018260613
181	0xbd9ec0de	-0.0775163
182	0xbe2e6609	-0.17031111
183	0xbe98d641	-0.29850963
184	0x3c28c3a9	0.010300555
185	0xbd8e062b	-0.0693477
186	0xbe83a4af	-0.2571158
187	0xbd85eb14	-0.06538978
188	0x3cec0b3d	0.028813953
189	0x3e325a94	0.17417365
190	0xbe53dcc3	-0.20689683
191	0xbea780ed	-0.3271555
192	0xbd8fa927	-0.07014685
193	0x3e5d4608	0.21608746
194	0xbe71426c	-0.23560494
195	0xbe8e6ac3	-0.27815828
196	0xbda541ff	-0.080692284
197	0x3d05f05d	0.03269993
198	0x3d047587	0.032338645
199	0xbe3e1add	-0.18564935
200	0xbf0514a7	-0.5198464
201	0xbdc88a05	-0.0979195
202	0xbeb008d9	-0.3438175
203	0x3da6def1	0.081479914
204	0xbdf9e7fb	-0.1220245
205	0xbe331c72	-0.1749132
206	0xbf064866	-0.5245422
207	0x3de1b88d	0.110215284
208	0xbe5ac255	-0.21363194
209	0xbdaa391e	-0.083116755
210	0x3c9b4391	0.018953117
211	0x3c729c8b	0.014807831
212	0xbdd1e87c	-0.10249421
213	0x3dd855af	0.10563218
214	0xbdf40fb4	-0.11917058
215	0x3df2e9bc	0.118609875
216	0x3e254fff	0.16143797
217	0x3c8af072	0.016960356
218	0xbce62ab3	-0.028096532
219	0xbcb81af5	-0.022473792
220	0x3e4dd252	0.20099762
221	0xbe6b6f6b	-0.22991721
222	0x3cd9e15b	0.026596716
223	0x3ee937a8	0.45550275
224	0x3df0bbfb	0.117546044
225	0xbeb077cb	-0.34466395
226	0x3e914247	0.28370878
227	0xbdb85481	-0.09000493
228	0x3d237355	0.03990491
229	0x3e908618	0.28227305
230	0xbe0ada58	-0.13559854
231	0xbe0c3ce7	-0.13695107
232	0x3d6f717a	0.05845783
233	0xbe0c3430	-0.13691783
234	0xbdf1d175	-0.11807529
235	0x3ea53c43	0.3227254
236	0x3cab7556	0.020929974
237	0x3da49950	0.080370545
238	0xbd98e983	-0.07466414
239	0xbedd06c8	-0.43169236
240	0xbe518d11	-0.20463969
241	0xbe2fb4cb	-0.17158811
242	0xbe8191e8	-0.2530663
243	0xbca31cda	-0.019911218
244	0xbdc4ffe8	-0.09619123
245	0xbd652bea	-0.055950083
246	0x3ea87476	0.32901353
247	0xbe74036c	-0.2382943
248	0xbe9913fe	-0.29898065
249	0xbd2dd80d	-0.04244237
250	0xbde2607c	-0.11053559
251	0xbd6d226b	-0.05789415
252	0x3d8ceb1a	0.068807796
253	0x3e2c5228	0.16828215
254	0xbe0f45c0	-0.13991451
255	0xbe7707fe	-0.24124143

model.0.bias f4 [256]
0	0x3e06558e	0.13118574
1	0x3d221dad	0.039579082
2	0xbe69461a	-0.22780648
3	0x3e722224	0.23645836
4	0x3ee01b4b	0.43770823
5	0x3d781c5c	0.06057392
6	0x3ddc276c	0.107497066
7	0x3de0089d	0.10939143
8	0x3e402361	0.18763496
9	0x3e36ca8a	0.178507
10	0xbe827017	-0.25476143
11	0xbc8f486c	-0.017490588
12	0x3e052773	0.1300333
13	0xbeb3f3f6	-0.35147065
14	0x3e5a0e92	0.2129462
15	0x3e89ad4a	0.26890022
16	0xbdbaecca	-0.09127195
17	0xbde84d89	-0.11342914
18	0x3e728620	0.23683977
19	0xbe91559d	-0.2838563
20	0xbdaa4080	-0.08313084
21	0xbec42d35	-0.3831574
22	0xbd335c40	-0.04378915
23	0xbe2c9394	-0.16853172
24	0xbedc8835	-0.43072668
25	0xbdb11452	-0.08646454
26	0xbe590020	-0.21191454
27	0x3e3639c6	0.17795476
28	0xbe270bf6	-0.16313156
29	0xbc3f9c30	-0.011694953
30	0x3ea0e8b1	0.3142753
31	0x3e9fd229	0.31215027
32	0xbe5ef894	-0.21774513
33	0xbe29a7c0	-0.16567898
34	0xbea093c4	-0.31362736
35	0x3dbc03bc	0.091804
36	0xbdc9b177	-0.09848302
37	0xbea8f12e	-0.32996505
38	0x3d00dc96	0.031460367
39	0x3dc4c6b4	0.09608212
40	0xbd6b3f08	-0.05743316
41	0x3dd56c16	0.104210064
42	0x3d37e9d3	0.044900727
43	0x3d727d33	0.05920143
44	0x3e2db54f	0.16963695
45	0xbe43d8ed	-0.1912572
46	0xbde8c18c	-0.11365041
47	0xbd154a42	-0.03644777
48	0x3e82c986	0.25544375
49	0xbdbac5f1	-0.091197856
50	0x3c936739	0.017993556
51	0x3d7048bb	0.05866311
52	0xbea9cda9	-0.3316472
53	0xbe9027ea	-0.28155452
54	0x3e69d74e	0.22836038
55	0xbe6af6b7	-0.22945677
56	0xbeaaaaec	-0.33333528
57	0x3d12c6d9	0.035834167
58	0xbeb744c6	-0.35794657
59	0xbd4d0363	-0.050052058
60	0x3d819434	0.06327096
61	0xbdf1c808	-0.11805731
62	0x3eba7be0	0.36422634
63	0xbe0047ba	-0.12527362
64	0xbd90d56f	-0.07071959
65	0xbe49a05b	-0.19690077
66	0xbd7b1fd2	-0.061309643
67	0x3ea13fd9	0.31494024
68	0xbe8d45c7	-0.27592298
69	0x3e85ba2c	0.261186
70	0xbdea2de2	-0.11434533
71	0x3ea7c4f7	0.3276746
72	0xbd451b8d	-0.048121978
73	0x3e24a6b8	0.16079223
74	0xbe6f9084	-0.23394972
75	0xbeb97e65	-0.36229244
76	0xbe602d90	-0.2189238
77	0xbdf61d9a	-0.12017365
78	0xbe3ea3f7	-0.18617235
79	0x3ee37ca4	0.4443103
80	0x3d0864a8	0.03329912
81	0x3ebb388a	0.36566573
82	0xbefcbd3b	-0.4936312
83	0xbe2195c1	-0.15779783
84	0x3d8999f0	0.067188144
85	0xbe4dbaf3	-0.20090847
86	0x3ea8e097	0.32983848
87	0x3ec8e8ae	0.3924002
88	0xbce5c7ce	-0.028049376
89	0x3d84c265	0.0648239
90	0x3e969d17	0.29416725
91	0xbe32f99d	-0.17478032
92	0xbdd26193	-0.10272517
93	0xbe127441	-0.1430216
94	0xbdc07b79	-0.093985505
95	0xbe89573b	-0.26824364
96	0xbe961884	-0.2931558
97	0xbdf979b0	-0.12181413
98	0xbeb8636f	-0.36013362
99	0x3ee4c300	0.44680023
100	0x3ed08c36	0.40731972
101	0xbe2564b3	-0.16151695
102	0xbde48bef	-0.11159503
103	0x3e93629a	0.28786165
104	0x3e437a5e	0.19089648
105	0x3e2b6b52	0.16740158
106	0xbcb1d103	-0.02170611
107	0x3e0da6df	0.13833188
108	0xbc0d5095	-0.008625169
109	0xbe087e1d	-0.13329358
110	0x3ce56419	0.028001832
111	0xbd990564	-0.07471731
112	0xbe16e641	-0.14736272
113	0xbdadb09e	-0.08480953
114	0xbcfa575f	-0.03055924
115	0xbdb6be20	-0.08922982
116	0x3e09679b	0.13418429
117	0x3ea6aa1d	0.3255166
118	0xbd200671	-0.039068643
119	0x3e1c68ab	0.15274303
120	0xbebf1ce6	-0.37326735
121	0x3d609cfe	0.05483722
122	0xbe0c9104	-0.13727194
123	0x3dc88272	0.097905055
124	0xbdd89a36	-0.105762884
125	0xbee67e51	-0.45018247
126	0x3eb2ba1f	0.34907624
127	0x3e4ae149	0.19812502
128	0xbe9e35bc	-0.3090037
129	0xbe94d640	-0.2906971
130	0xbdbc8777	-0.09205525
131	0x3e99c349	0.30031803
132	0x3c29a169	0.010353425
133	0xbe812bef	-0.2522883
134	0x3ed4b533	0.41544494
135	0x3e7ee358	0.24891412
136	0xbdfa93dd	-0.12235234
137	0xbe65f3c3	-0.22456269
138	0x3df6ec97	0.12056845
139	0x3e6b6363	0.22987132
140	0xbdf64f8b	-0.1202689
141	0x3c8fbfa7	0.017547442
142	0x3e78dc9d	0.24302907
143	0xbdd0eb9a	-0.102011874
144	0x3e3399a6	0.17539081
145	0x3ea6f13e	0.32605928
146	0x3e19091f	0.14944886
147	0x3df7ce8b	0.12099942
148	0xbf2bdd81	-0.67134863
149	0xbe0ea1c8	-0.13928902
150	0x3e0152ab	0.12629192
151	0xbe20b95b	-0.15695707
152	0x3ea8a815	0.32940736
153	0xbeb8ced9	-0.36095312
154	0xbe64e58c	-0.2235319
155	0x3de3730b	0.11105927
156	0xbc77d4bc	-0.015126403
157	0x3e4fa1f3	0.20276622
158	0x3e06ceb4	0.13164788
159	0x3ed54261	0.41652206
160	0xbe4a2be7	-0.1974331
161	0x3cab213a	0.020889867
162	0x3eb2c094	0.3491255
163	0x3db20576	0.08692448
164	0xbe5b753c	-0.2143144
165	0x3e706d86	0.2347928
166	0xbe1290c6	-0.14313039
167	0xbe00fca4	-0.12596375
168	0xbcfc5f26	-0.030807089
169	0x3ea7ab74	0.32747996
170	0xbe3ffd31	-0.18748929
171	0xbd8ed481	-0.06974126
172	0x3e66f322	0.22553685
173	0xbe7c6bec	-0.24650544
174	0x3e8c84a7	0.27444956
175	0x3dd0c1dd	0.101932265
176	0xbe9a4e66	-0.30137938
177	0x3eb3f510	0.35147905
178	0xbd7ff952	-0.06249363
179	0xbe572c04	-0.21012884
180	0xbeb17c8e	-0.3466534
181	0x3eb20075	0.34765974
182	0x3d800c29	0.06252319
183	0x3d48c36a	0.049014486
184	0xbdf5ce76	-0.1200227
185	0xbbe85d0a	-0.0070911692
186	0xbe92405a	-0.2856472
187	0xbec0213e	-0.37525362
188	0x3d5f9587	0.05458596
189	0x3e0cf617	0.13765751
190	0xbe6c232a	-0.23060289
191	0x3e8b5f2a	0.27221042
192	0x3eae122e	0.33998245
193	0xbc951320	-0.018197596
194	0xbe280e66	-0.16411743
195	0xbe9953f4	-0.29946864
196	0x3eb8c4dc	0.36087692
197	0xbda70d77	-0.08156865
198	0x3e9abdf5	0.3022305
199	0xbc927ea1	-0.017882647
200	0xbea5955b	-0.32340512
201	0xbd5e023b	-0.054201346
202	0x3d09ad47	0.033612516
203	0x3db0dc67	0.086357884
204	0x3cbcf5f4	0.023066498
205	0x3d5d659f	0.05405199
206	0xbe1f1d65	-0.15538557
207	0xbe362977	-0.17789255
208	0xbc80603d	-0.01567089
209	0xbe605a41	-0.21909429
210	0x3d122358	0.035678238
211	0x3dcea2ae	0.100896224
212	0x3dd06a77	0.101765566
213	0x3e50a543	0.20375542
214	0xbdfaef2f	-0.12252652
215	0xbe38b49f	-0.18037651
216	0x3e9132f4	0.28359187
217	0x3e8500c3	0.25977144
218	0xbdb03b79	-0.086050935
219	0x3e9a7526	0.30167502
220	0xbd4882e3	-0.04895295
221	0xbe290eb1	-0.1650951
222	0x3cbdf73d	0.023189181
223	0xbe43654a	-0.19081607
224	0xbe816e11	-0.25279287
225	0xbe886990	-0.26643038
226	0x3e2752fa	0.16340247
227	0xbe7897db	-0.24276678
228	0x3d745028	0.059646755
229	0x3e3ceba0	0.18449259
230	0x3e26d453	0.16291933
231	0xbdaffa31	-0.08592642
232	0x3cf1d1f2	0.029519055
233	0x3e010627	0.12600003
234	0x3ed93d6e	0.4242968
235	0xbd257cfa	-0.04040239
236	0x3daf6e35	0.08565942
237	0xbe4f4dbf	-0.20244502
238	0x3ed549d3	0.41657886
239	0x3e93b7dd	0.28851214
240	0xbe6df62a	-0.23238435
241	0x3da0ec0d	0.07857523
242	0xbd1906f1	-0.037360135
243	0xbd7e9b99	-0.06216011
244	0xbe254e51	-0.16143157
245	0xbe956818	-0.2918098
246	0x3e7e057f	0.24806784
247	0x3e294460	0.16529989
248	0xbea13460	-0.3148527
249	0xbe3f8f17	-0.18706928
250	0x3dd54686	0.10413842
251	0x3d570dc8	0.052503377
252	0xbe134b0b	-0.14384095
253	0xbec11718	-0.37712932
254	0x3dd2d1e9	0.102939434
255	0x3e3dd693	0.18538885

model.2.weight f4 [128, 256]
0	0x3dee040a	0.11621864
1	0x3cd15ccd	0.025556946
2	0x3bd5d8f7	0.0065261084
3	0x3d571933	0.052514266
4	0x3dc4f6ca	0.09617384
5	0xbda06e53	-0.07833543
6	0xbda07949	-0.07835633
7	0x3d4aee89	0.04954389
8	0xbd33bd2b	-0.043881577
9	0xbcd4d5da	-0.025980879
10	0x3eb79a6a	0.35859996
11	0xbdb1fe06	-0.08691029
12	0x3ea8853e	0.32914156
13	0x3dd735e9	0.105083294
14	0x3e16df93	0.14733724
15	0x3cd9f510	0.026606113
16	0x3d3026bd	0.043005694
17	0xbbf0070a	-0.007325058
18	0xbe49dbdb	-0.19712774
19	0x3e30faf4	0.17283231
20	0xbd923322	-0.07138659
21	0x3d83ec66	0.06441574
22	0xbb88e7a5	-0.004178005
23	0x3defe950	0.11714423
24	0x3dcb95a6	0.099406525
25	0x3dcd8968	0.10035974
26	0xbd7be0a7	-0.061493542
27	0x3e122957	0.14273582
28	0x3bf732de	0.0075439056
29	0x3d2562a4	0.040377274
30	0x3e4efb47	0.20213042
31	0xbde3860b	-0.11109551
32	0xbdebc6b8	-0.11512512
33	0xbcbb931c	-0.022897296
34	0x3db69623	0.08915355
35	0xbba66101	-0.0050774817
36	0x3b8bba40	0.004264146
37	0x3db0cb56	0.08632533
38	0xbd3e66e0	-0.046484828
39	0x3e593f18	0.21215475
40	0x3dc5e249	0.09662301
41	0xbe30a787	-0.17251407
42	0x3d84564b	0.064617716
43	0x3d95a4ab	0.073067985
44	0xbdba8902	-0.091081634
45	0xbca90eeb	-0.020636996
46	0xbd1cff5e	-0.038329475
47	0xbd2c572a	-0.042075314
48	0x3e537822	0.20651296
49	0x3d373eb0	0.044737518
50	0x3da6feba	0.08154054
51	0x3d45caed	0.04828923
52	0x3dde3c5a	0.10851355
53	0xbd5b0903	-0.05347539
54	0x3e728d8e	0.23686811
55	0xbdcf1512	-0.10111441
56	0x3dc64088	0.09680277
57	0x3d1a9e38	0.037748545
58	0x3c531eef	0.012885793
59	0xbdf2f7d2	-0.11863674
60	0xbc0224c0	-0.007943332
61	0x3cbbf07a	0.022941817
62	0x3e70b068	0.23504794
63	0x3c2ee717	0.010675213
64	0x3d697735	0.05699845
65	0xbd8a5a06	-0.06755452
66	0xbc891755	-0.016734758
67	0x3e5dbe7f	0.216547
68	0xbdb8a27a	-0.09015365
69	0x3df83a57	0.121205024
70	0xbe0989a5	-0.13431413
71	0x3e8e5c85	0.27804962
72	0xbcc05fc2	-0.02348316
73	0x3e5b73c3	0.21430878
74	0x3e6d92c1	0.23200513
75	0x3d706d5e	0.05869805
76	0x3e7d9fc4	0.24767977
77	0x3df9b83d	0.12193344
78	0x3e4d9ffc	0.2008056
79	0x3e35b528	0.17744887
80	0x3d2c3d2b	0.04205052
81	0x3e91034a	0.28322822
82	0x3e83f677	0.25773975
83	0x3d93823e	0.07202576
84	0xbc8b1027	-0.016975475
85	0xbd7b3e87	-0.061338928
86	0x3db9a3eb	0.09064468
87	0x3e20fcea	0.15721479
88	0x3e4c0ccc	0.19926757
89	0xbba0dee0	-0.0049093813
90	0x3e07f2da	0.13276234
91	0xbd517446	-0.051136278
92	0x3e2b404b	0.16723745
93	0xbcbb6a61	-0.022877874
94	0x3e9f38eb	0.31098112
95	0x3a58e842	0.0008274355
96	0x3d3f9710	0.046774924
97	0xbde3a998	-0.11116332
98	0x3e16f31e	0.1474118
99	0x3e881587	0.26578924
100	0x3e92679f	0.28594682
101	0x3caf2a7b	0.021382561
102	0xbdd5f9ac	-0.10448012
103	0x3e4ac9ed	0.19803591
104	0x3e1735b0	0.14766574
105	0x3da900e1	0.08252121
106	0x3ddd11fb	0.10794445
107	0x3dacbb86	0.08434205
108	0x3d97a139	0.07403798
109	0xbd187354	-0.03721936
110	0x3c53ffe4	0.012939427
111	0x3d14a24d	0.036287595
112	0x3c8a7b92	0.016904626
113	0xbd1c7e24	-0.038206235
114	0xbe969835	-0.29413
115	0xbca2c906	-0.019871246
116	0xbd5a6324	-0.053317204
117	0x3e6154e9	0.22005047
118	0x3e2215cb	0.15828626
119	0x3c858eb8	0.016303405
120	0x3d54a6af	0.051916774
121	0x3dae7179	0.08517737
122	0xbdf7af3d	-0.12093971
123	0x3e08709d	0.13324209
124	0x3dbd43da	0.09241457
125	0xbd9a5f88	-0.075377524
126	0x3e73a0cb	0.23791806
127	0x3ddbc912	0.107317105
128	0x3de89585	0.113566436
129	0x3be55f7f	0.0069999094
130	0x3dc31259	0.09524984
131	0x3e9d3f2b	0.30712256
132	0x3db2c3e2	0.08728768
133	0x3ccbc090	0.024872094
134	0x3e42ec8c	0.19035548
135	0x3e55a42d	0.2086341
136	0x3d9aabf6	0.0755233
137	0xbd839e6d	-0.06426702
138	0x3e0eca15	0.13944276
139	0x3f04f827	0.5194115
140	0xbdca15f0	-0.098674655
141	0xbe0c36b9	-0.1369275
142	0x3cfa68d4	0.030567564
143	0x3d9ec81e	0.07753013
144	0xbcb8e5c4	-0.022570498
145	0x3d200fa7	0.039077427
146	0x3c1f4b71	0.0097225765
147	0x3e4fce78	0.20293605
148	0xbc431976	-0.011907926
149	0xbc5b29b2	-0.01337664
150	0x3e2f5d47	0.17125426
151	0xbdb018f6	-0.08598511
152	0x3e8562e1	0.26052
153	0x3d0e791e	0.034783475
154	0x3d47dd0e	0.0487948
155	0x3d9590b6	0.07302992
156	0xbcd0f17c	-0.025505774
157	0x3e17ef72	0.14837435
158	0xbda39c65	-0.07988814
159	0x3dc1651e	0.09443115
160	0x3bb91ca1	0.005649165
161	0x3d120b1f	0.035655137
162	0x3d87e5b5	0.0663561
163	0xbdc4a209	-0.09601218
164	0xbbf590c2	-0.007494063
165	0x3de05a23	0.10954692
166	0x3e485158	0.1956228
167	0x3dd6baa5	0.10484818
168	0x3c1e3531	0.0096562365
169	0x3e19a8ec	0.15005845
170	0x3e698304	0.22803885
171	0xbd1c131b	-0.038104158
172	0x3d215339	0.039386008
173	0xbb84696f	-0.004040889
174	0x3e71a437	0.23597799
175	0x3c8d8b22	0.017278258
176	0x3a296ad7	0.0006462759
177	0x3dd2762d	0.102764465
178	0xbd07dba8	-0.033168465
179	0xbe8bf437	-0.2733476
180	0x3d82479f	0.06361317
181	0x3e908b15	0.2823111
182	0xbe1bb320	-0.1520505
183	0xbd305e7a	-0.04305885
184	0x3c44acbb	0.012004073
185	0xbd570ba2	-0.05250133
186	0xbd714f69	-0.058913622
187	0x3d01ef57	0.031722393
188	0x3de33033	0.11093178
189	0xbc680102	-0.0141603965
190	0xbd8cc159	-0.06872816
191	0x3b0ae958	0.0021196213
192	0xbe3d3210	-0.18476129
193	0x3e3528d3	0.17691354
194	0xbd859d92	-0.06524195
195	0x3d0ba064	0.034088507
196	0x3dabf32c	0.08395991
197	0xbe395f20	-0.18102694
198	0x3e39e9cb	0.18155591
199	0xbdb7ad92	-0.08968653
200	0x3e8593fe	0.26089472
201	0x3db9f4a8	0.090798676
202	0x3e267ff0	0.16259742
203	0xbee5dd01	-0.44895175
204	0xbb36f9ee	-0.0027919966
205	0x3dc2fbc1	0.095206745
206	0xbcfe859e	-0.031069573
207	0xbd66e351	-0.05636913
208	0xbd786267	-0.06064072
209	0x3d664bc6	0.056224607
210	0x3e981fc2	0.2971173
211	0xbb35a538	-0.0027716886
212	0xbcb1d66c	-0.02170869
213	0x3d374e7d	0.044752587
214	0x3cec71a1	0.028862776
215	0xbdf27c43	-0.11840107
216	0xbdb39e0f	-0.08770382
217	0x3da50cf1	0.08059109
218	0x3d19831a	0.037478544
219	0xbea27572	-0.3173023
220	0xbdf2342e	-0.11826359
221	0x3ded123a	0.11575742
222	0x3d1862a1	0.037203435
223	0xbe170fd5	-0.14752133
224	0x3e2a8713	0.16653089
225	0xbd5c860a	-0.053838767
226	0x3d69819a	0.057008363
227	0xbca02e57	-0.019553347
228	0xbcfbf0d1	-0.030754479
229	0x3dcee8ca	0.10102995
230	0x3e6839a2	0.22678235
231	0x3dbf323b	0.093357526
232	0x3c38c740	0.011277974
233	0xbcf2b43b	-0.029626956
234	0x3dba304a	0.09091242
235	0x3d787bf1	0.060665075
236	0xbe1669af	-0.14688753
237	0xbd9190ce	-0.071076974
238	0x3e97bfce	0.29638523
239	0xbf03a69f	-0.5142612
240	0x3c972d8f	0.018454341
241	0x3dd524b1	0.10407389
242	0x3d48712d	0.048936058
243	0xbdbe1942	-0.09282161
244	0x3e418a87	0.189005
245	0xbe040e0c	-0.12895983
246	0xbc982dd2	-0.018576536
247	0x3d67611c	0.056489095
248	0x3e51928a	0.20466056
249	0x3de47109	0.11154372
250	0x3e02c458	0.12770212
251	0xbca1eeda	-0.019767214
252	0x3b9ec774	0.004845554
253	0xbce8276f	-0.028339116
254	0xbcbe4f08	-0.023231044
255	0xbd7f681e	-0.062355153

model.2.bias f4 [128]
0	0x3ebc73a2	0.3680697
1	0x3cc4831e	0.023988303
2	0x3b66e920	0.0035234168
3	0xbce9af3a	-0.028525937
4	0xbdb0ed55	-0.086390175
5	0x3e3fe233	0.18738632
6	0xbd35aba8	-0.044353157
7	0x3d17f129	0.037095223
8	0xbc389937	-0.011266998
9	0xbcd29d27	-0.025709702
10	0xbd7e0908	-0.06202033
11	0xbe9946b9	-0.2993677
12	0xbbffa560	-0.0078016967
13	0x3ab546c1	0.001383029
14	0xbe0e73cf	-0.13911365
15	0xbc70e07a	-0.014701957
16	0xbc14fb10	-0.009093061
17	0x3e44c395	0.19215234
18	0xbdb362b8	-0.087590635
19	0xbd3368ed	-0.043801237
20	0x3cd91454	0.026498951
21	0x3e894d72	0.268169
22	0x3ba7fdef	0.005126707
23	0x3e87e022	0.26538187
24	0x3de45a7c	0.11150071
25	0x3e8b9c81	0.2726784
26	0xbd57e999	-0.05271301
27	0xbd3d6bd6	-0.04624542
28	0x3cfb81bb	0.030701509
29	0xbccd8c9a	-0.025091458
30	0x3e126749	0.14297213
31	0xbd84cd84	-0.064845115
32	0x3eb3e735	0.35137334
33	0xbcacea66	-0.021107864
34	0xbd085cbe	-0.03329157
35	0xbd8890ff	-0.06668281
36	0x3b8679a3	0.0041038557
37	0x3d4116bf	0.047140833
38	0xbc6fd169	-0.01463733
39	0xbd597df6	-0.05309864
40	0x3e637b06	0.22214898
41	0xbc32b545	-0.010907476
42	0x3d8ae64f	0.06782209
43	0xbd6a14e3	-0.057148825
44	0xbda9b3fd	-0.08286283
45	0xbe0766f2	-0.13222864
46	0x3c2df655	0.010617812
47	0x3e7eb3ac	0.24873227
48	0xbdb1088f	-0.086442105
49	0x3eb50f3b	0.35363182
50	0x3c481619	0.0122123
51	0xbcb5400e	-0.02212527
52	0xbcaaafd3	-0.020835793
53	0xbc964498	-0.018343255
54	0xbd859836	-0.065231726
55	0x3d12a606	0.035802864
56	0xbd2b475d	-0.041816104
57	0x3e204bf7	0.15653978
58	0x3e7f8cf6	0.24956116
59	0xbd033028	-0.032028347
60	0xbd6568ef	-0.056008276
61	0x3e8f8b10	0.28035784
62	0xbe91f5c0	-0.28507805
63	0x3dd54b7f	0.1041479
64	0x3da6f227	0.08151656
65	0x3c97385e	0.018459495
66	0x3ea5a2e7	0.32350847
67	0xbdca6cc2	-0.09884025
68	0x3e05b86f	0.13058637
69	0x3e8d7519	0.276284
70	0xbd96703d	-0.073456265
71	0x3dcf895a	0.101336196
72	0xbd9ba227	-0.075992875
73	0x3e041de2	0.12902024
74	0x3eb63d8b	0.3559383
75	0xbc983503	-0.018579965
76	0xbcd371d6	-0.025811117
77	0xbdb5c6dd	-0.08875821
78	0x3e132214	0.14368469
79	0xbcf0853c	-0.029360406
80	0x3b70ca77	0.0036741772
81	0x3d95540b	0.072914205
82	0xbc8957e0	-0.016765535
83	0x3e25c490	0.16188264
84	0xbd90d544	-0.07071927
85	0x3da49626	0.08036451
86	0x3e46fc88	0.1943227
87	0xbd70a3ec	-0.058750078
88	0x3e8b425b	0.27199063
89	0x3da5424b	0.08069285
90	0x3e958274	0.2920109
91	0xbcdaed33	-0.026724434
92	0xbd02736d	-0.03184836
93	0xbbd99d01	-0.006641031
94	0x3d0a11f5	0.03370853
95	0x3c68962f	0.014195963
96	0x3e8fe284	0.28102505
97	0x3c44b442	0.012005867
98	0x3c391d4a	0.011298487
99	0x3ce39b0c	0.027783893
100	0x3cfae105	0.030624876
101	0x3e2e1ccc	0.17003173
102	0x3ddf9511	0.10917104
103	0x3e37c332	0.17945555
104	0xbdd1fdab	-0.102534615
105	0xbeaa8371	-0.33303407
106	0xbd588a74	-0.052866414
107	0xbd97f0c2	-0.07418968
108	0x3e2f3e1f	0.17113541
109	0x3ed5ae9a	0.41734773
110	0x3dc411cb	0.09573706
111	0xbd5d1f65	-0.05398502
112	0x3d593d2f	0.053036865
113	0x3d023038	0.031784266
114	0x3e9ff57a	0.3124197
115	0x3dc0f162	0.0942104
116	0xbe0f72f7	-0.140087
117	0x3e061efe	0.1309776
118	0x3ebc7614	0.36808836
119	0x3dc209e4	0.09474543
120	0x3e465eb0	0.19372058
121	0x3ec64cd2	0.38730484
122	0xbd124293	-0.03570802
123	0xbd91075e	-0.07081483
124	0xbd3d8468	-0.04626885
125	0xbcd045dc	-0.025423937
126	0x3d532412	0.05154807
127	0xbc18c193	-0.009323495

model.4.weight f4 [64, 128]
0	0x3e62ebb6	0.22160229
1	0x3c3cb5cd	0.011517954
2	0x3e2048e9	0.15652813
3	0xbddd59b5	-0.10808126
4	0xbdfcfdb3	-0.12353077
5	0x3b5a0c0a	0.0033271336
6	0x3da58b69	0.08083231
7	0x3d2cc2fb	0.042178135
8	0xbe74c573	-0.23903446
9	0xbc6ec38b	-0.014572988
10	0xbca5e977	-0.020252926
11	0xbee640cc	-0.4497131
12	0xbddb41bc	-0.10705897
13	0xbd464f44	-0.048415437
14	0xbe9765c3	-0.29569826
15	0x3dbe1a0b	0.09282311
16	0x3caa6794	0.020801343
17	0xbe8cc20a	-0.2749179
18	0xbd0b9d6b	-0.034085672
19	0xbd468722	-0.048468716
20	0x3c049fd0	0.008094743
21	0xbeffcab3	-0.49959335
22	0x3dd1ddac	0.10247359
23	0x3d4adc48	0.049526483
24	0x3e57ba83	0.21067242
25	0xbea67327	-0.3250973
26	0x3e39684c	0.18106192
27	0xbd09d5c1	-0.033651117
28	0x3d97a4f5	0.0740451
29	0x3d569582	0.052388676
30	0xba5cc766	-0.00084220467
31	0x3d4e4789	0.05036119
32	0x3cb4096d	0.02197715
33	0xbce64641	-0.028109672
34	0x3ea8401a	0.32861406
35	0x3d28ae56	0.041181885
36	0xbc720888	-0.014772542
37	0x3e3290e6	0.17438087
38	0x3bb7b6a2	0.0056064883
39	0x3d0b48c5	0.034004945
40	0x3e2cf95d	0.16892
41	0xbdc57f7d	-0.09643457
42	0xbe0d37c5	-0.13790806
43	0xbc993f21	-0.01870686
44	0x3c0259df	0.007955997
45	0x3d4154b2	0.047199912
46	0xbc279085	-0.010227327
47	0xbe51ceb7	-0.20489012
48	0xbe8e5d39	-0.27805498
49	0xbf5cc98c	-0.86245036
50	0xbd2698d7	-0.040673103
51	0xb9eac10c	-0.0004477579
52	0x3ca1b112	0.019737754
53	0x3d7fcf3e	0.0624535
54	0x3dc5f3e1	0.09665657
55	0xbd054137	-0.032532897
56	0xbcc47c05	-0.023984918
57	0xbcdb6931	-0.026783558
58	0xbcb96a24	-0.02263362
59	0xbc9d0487	-0.019167198
60	0x3d85323e	0.065037236
61	0x3b59c3f9	0.003322838
62	0x3f01b9da	0.5067421
63	0x3e61afc1	0.22039701
64	0xbe3a71c7	-0.18207465
65	0x3daae345	0.083441295
66	0x3e6c165a	0.23055401
67	0xbce411ea	-0.027840573
68	0x3cb127f2	0.021625493
69	0x3e870853	0.26373538
70	0xbd557179	-0.05211017
71	0x3f04d9c1	0.51894766
72	0x3d118205	0.035524387
73	0x3dfac665	0.12244872
74	0x3d9aeef3	0.07565107
75	0xbd81328c	-0.06308469
76	0xbd87a157	-0.0662257
77	0x3ca11465	0.019663045
78	0x3ed14af7	0.40877506
79	0x3df615bc	0.12015864
80	0x3c76c554	0.015061695
81	0xbd9bfc42	-0.07616474
82	0x3d66ecbd	0.056378115
83	0x3f62dbec	0.88616824
84	0x3db4eeb8	0.088345945
85	0xbe515c60	-0.20445395
86	0xbe89dc52	-0.26925904
87	0x3da7b823	0.08189418
88	0x3e8d6105	0.27613083
89	0x3cde16c7	0.02711047
90	0xbe85aaf3	-0.26106986
91	0xbd1d68e4	-0.03843011
92	0xbccbdb25	-0.02488477
93	0x3db1f3e8	0.086890996
94	0x3f1d1858	0.6136527
95	0xbdc6f146	-0.09713988
96	0xbe90eb42	-0.28304487
97	0x3d958e64	0.073025495
98	0xbe882165	-0.26587978
99	0xbd2552c4	-0.040362135
100	0x3c2fd684	0.010732297
101	0x3dc82568	0.0977276
102	0x3d42423e	0.047426455
103	0x3e2faef3	0.17156582
104	0xbd221864	-0.039574042
105	0xbee3c2ac	-0.4448446
106	0xbd26c048	-0.040710717
107	0xbdf3062a	-0.1186641
108	0xbbaae72b	-0.0052155457
109	0x3ccf5efd	0.025313849
110	0x3e6bb245	0.23017223
111	0x3cb869f8	0.022511467
112	0x3e5a5871	0.213228
113	0x3e1f1c32	0.155381
114	0x3eb48b52	0.35262543
115	0xbe15644c	-0.14589041
116	0xbc255ac7	-0.010092444
117	0x3e1a1856	0.15048346
118	0x3dc80ad5	0.09767691
119	0x3e2b5287	0.167307
120	0x3d92fa70	0.071766734
121	0x3efa831e	0.4892816
122	0x3d00ba7d	0.03142785
123	0xbd2f9bea	-0.0428733
124	0xbd54cea0	-0.051954865
125	0xbcf79994	-0.030224599
126	0xbe200dc9	-0.15630259
127	0xbd798041	-0.060913328
128	0x3c6b1a92	0.014349597
129	0x3d644652	0.055731125
130	0x3c406af1	0.011744247
131	0xbc7b1b1d	-0.0153262885
132	0xbc9a39e1	-0.018826427
133	0x3dca109c	0.09866449
134	0xbbe1a8e8	-0.0068865903
135	0x3c0059ed	0.00783394
136	0x3d612e66	0.05497589
137	0xbd0629c8	-0.03275469
138	0xbd874b8f	-0.066062085
139	0x3d77ec43	0.06052805
140	0x3d33f423	0.043934
141	0x3caa2534	0.020769693
142	0xbdc257c4	-0.09489396
143	0x3d4135c6	0.047170423
144	0xbca35709	-0.019938963
145	0xbdb528bb	-0.08845659
146	0xbd7bdb7a	-0.061488606
147	0x3d8d6b1a	0.069051936
148	0xbda86644	-0.082226306
149	0xbdabc9f0	-0.08388126
150	0x3d883cbf	0.066522114
151	0x3d673543	0.05644728
152	0x3c9a956e	0.018870082
153	0xbd6f5aa9	-0.05843607
154	0xbdc57fa3	-0.096434854
155	0xbbda9160	-0.006670162
156	0xbbe14779	-0.0068749753
157	0xbd4106da	-0.047125675
158	0xbd34801c	-0.044067487
159	0x3d3a855e	0.045537345
160	0xbd8d986a	-0.06913836
161	0xbd4d024e	-0.050051026
162	0xbd000f05	-0.031264324
163	0xbdb2e6a6	-0.08735399
164	0x3d7b76fb	0.061392765
165	0xbc1f7ff4	-0.009735096
166	0x3c9d54b0	0.019205421
167	0x3d0eb9fb	0.034845334
168	0x3c9a56a0	0.018840134
169	0x3d12af10	0.035811484
170	0xbca6e8a9	-0.020374613
171	0x3d9cd315	0.07657448
172	0xbc090740	-0.008363545
173	0xbd9cc064	-0.07653883
174	0x3d03b9c1	0.03215957
175	0x3d86468a	0.06556423
176	0xbd01ec2e	-0.03171938
177	0xbc905b10	-0.017621547
178	0x3c5400ea	0.012939671
179	0x3d9a1df9	0.07525248
180	0xbda80580	-0.08204174
181	0xbd23cc7e	-0.03998994
182	0xbd57ecbe	-0.05271601
183	0xbd9317ae	-0.07182251
184	0xbd7add1f	-0.061246034
185	0xbc3c7178	-0.011501662
186	0xbdb56d35	-0.0885872
187	0xbd9f4b12	-0.077779904
188	0xbd59b634	-0.053152278
189	0x3d9dced5	0.07705466
190	0x3d3df540	0.046376467
191	0xbcac6477	-0.021044
192	0xbbb28da2	-0.005449013
193	0xbd8a2c1a	-0.06746693
194	0xbd1a53e7	-0.03767767
195	0x3c903720	0.01760441
196	0xbd2e1c91	-0.04250771
197	0xbdc6c71d	-0.097059466
198	0xbc993e9c	-0.018706612
199	0xbd9f1db9	-0.07769341
200	0xbb27a2e0	-0.0025579259
201	0x3ce92a24	0.028462477
202	0xbc7040dc	-0.014663901
203	0x3ad723aa	0.0016413827
204	0xbd830a42	-0.06398441
205	0x3d5d4a36	0.05402585
206	0xbd3b724c	-0.0457633
207	0x3c806113	0.015671289
208	0x3d182306	0.037142776
209	0x3ced5eb1	0.028975816
210	0x3d25a135	0.040436942
211	0x3c6ea786	0.014566308
212	0xbd3a4fe0	-0.04548633
213	0x3d66c0f2	0.05633635
214	0xbdab8715	-0.08375374
215	0x3d80a883	0.06282141
216	0xbc98214e	-0.018570568
217	0xbd92a6f3	-0.07160749
218	0xbd13f856	-0.036125503
219	0xbcf1fd68	-0.029539779
220	0xbd54603a	-0.05184958
221	0x3d39caee	0.045359544
222	0xbd13ae38	-0.03605482
223	0x3d61b7ef	0.055107053
224	0xbd86d730	-0.065840125
225	0x3d40950e	0.04701715
226	0xbdadef31	-0.08492888
227	0x3c974dea	0.01846977
228	0xbdbae1ac	-0.09125075
229	0xbd888a7c	-0.06667039
230	0xbda8eab8	-0.08247894
231	0x3b71ef3c	0.0036916276
232	0x3d8776ad	0.066144325
233	0xbcbad130	-0.022804826
234	0x3d714722	0.05890573
235	0x3d658645	0.056036253
236	0xbdb8d066	-0.09024124
237	0xbd1e22c0	-0.03860736
238	0xbdcd1a51	-0.10014785
239	0xbcbc8c91	-0.023016246
240	0xbda10067	-0.07861405
241	0x3c0638b7	0.008192233
242	0x3ca16160	0.019699752
243	0xbd3e1a7c	-0.046411976
244	0xbc66ccb0	-0.014086887
245	0xbdca5080	-0.098786354
246	0x3b906698	0.0044067614
247	0xbcf0a55e	-0.029375728
248	0x3d740fdc	0.059585437
249	0xbd5548a8	-0.052071244
250	0xbd4854d7	-0.048909035
251	0xbd2f2c18	-0.04276666
252	0x3d35ecf6	0.044415437
253	0xbcc8d154	-0.024513878
254	0x3b80b801	0.003928185
255	0x3d5b6f2e	0.053572826

model.4.bias f4 [64]
0	0x3e8d2af8	0.27571845
1	0xbbc4a6aa	-0.006001313
2	0x3e05835e	0.13038394
3	0x3da8552a	0.08219369
4	0x3ee7cbf5	0.45272794
5	0x3e46808d	0.19384976
6	0x3df4db84	0.11955932
7	0xbc8ac454	-0.01693932
8	0x3e63a425	0.22230585
9	0x3b96fc75	0.004607732
10	0x3e8156e9	0.2526162
11	0xbdddb174	-0.10824862
12	0x3ee407cb	0.44537196
13	0xbdb17625	-0.086651124
14	0x3e6d6555	0.23183186
15	0xbcd1c65c	-0.02560728
16	0x3baad89c	0.00521381
17	0x3efea5ea	0.49735957
18	0xbddc34d3	-0.10752263
19	0xbaff7916	-0.0019491042
20	0x3e109a63	0.14121394
21	0xbe3bfc27	-0.18357907
22	0x3e8cb4d6	0.27481717
23	0x3b6d181d	0.0036177703
24	0x3d497e01	0.049192432
25	0x3dd8549a	0.105630115
26	0xbb8d9ed6	-0.0043219132
27	0x3f127bc3	0.57220095
28	0xbe17a81b	-0.14810221
29	0x3cdd38fe	0.027004715
30	0xbd424dae	-0.047437362
31	0x3dd6ccb4	0.10488263
32	0x3e90873a	0.2822817
33	0xbdfe0077	-0.124024324
34	0xbd843b6a	-0.06456645
35	0x3d977bb7	0.073966436
36	0x3c3b082c	0.011415523
37	0x3cfaa413	0.030595815
38	0xbd7dc9c2	-0.06195999
39	0x3dfffd44	0.124994785
40	0x3e369520	0.17830324
41	0x3ec4e4db	0.38455853
42	0xbdb8e47e	-0.090279564
43	0x3e54bc12	0.20774868
44	0xbdbdd150	-0.09268439
45	0x3ecdf37f	0.40224835
46	0xbdf9a365	-0.12189368
47	0x3c93b7ca	0.018031973
48	0xbd056ce9	-0.032574568
49	0xbdc23ffc	-0.0948486
50	0x3d01f99e	0.031732194
51	0x3eddafb4	0.43298113
52	0x3d7f041c	0.06225978
53	0x3e485354	0.19563037
54	0x3e37a925	0.17935617
55	0x3d2f80e6	0.042847537
56	0x3d1d388f	0.038384017
57	0xbd8f55a4	-0.069987565
58	0xbdb34ed1	-0.087552674
59	0x3e60bace	0.2194626
60	0xbd02707e	-0.031845562
61	0xbe020dcf	-0.1270058
62	0xbd20484b	-0.039131444
63	0x3be792cb	0.0070670596

model.6.weight f4 [32, 64]
0	0x3d8d73bf	0.069068424
1	0xbd5da2c8	-0.05411032
2	0xbb5a9d18	-0.0033357795
3	0xbdeacc8b	-0.11464795
4	0xbe32432e	-0.1740844
5	0x3d48a3da	0.048984386
6	0x3d7dcf46	0.06196525
7	0x3dc3c2fb	0.09558674
8	0x3cfb8792	0.030704293
9	0xbbf95959	-0.007609528
10	0x3bd914bb	0.0066247857
11	0xbd4a3599	-0.04936752
12	0xbdbfbd1e	-0.09362243
13	0xbda37ce4	-0.07982805
14	0xbd58a658	-0.052893013
15	0xbdb9cae2	-0.090719
16	0xbd91da4f	-0.07121717
17	0xbe14ca41	-0.14530279
18	0xbb2da080	-0.002649337
19	0x3d909dad	0.07061324
20	0xbe06ef8d	-0.13177319
21	0x3e0fec5f	0.14055012
22	0x3dd45ef2	0.10369672
23	0x3d668f93	0.056289267
24	0xbdc019de	-0.09379934
25	0xbe1fdb3b	-0.15610974
26	0xbced0d37	-0.028936965
27	0x3d2e6b39	0.042582724
28	0x3d7bf2de	0.061510913
29	0xbdf76aba	-0.12080903
30	0xbdfa5759	-0.122236915
31	0x3dd4b72f	0.10386502
32	0x3de285cc	0.11060676
33	0x3d2ee008	0.04269412
34	0x3d61c51f	0.05511963
35	0xbde95fd7	-0.11395233
36	0xbc2be2cd	-0.010491085
37	0xbd69674d	-0.05698328
38	0xbe3229f9	-0.17398824
39	0xbe069ee8	-0.13146555
40	0x3d28d9f3	0.041223478
41	0xbc852365	-0.016252229
42	0x3bebc4e0	0.0071951
43	0xbe20e52b	-0.1571242
44	0x3c8f1828	0.017467573
45	0xbdaef386	-0.08542542
46	0xbdcad19b	-0.0990326
47	0xbc27aa5d	-0.010233489
48	0xbdb79050	-0.08963072
49	0xbdc23dd9	-0.09484453
50	0x3d2fdbba	0.042934157
51	0xbda8e3ea	-0.08246596
52	0xbe40d831	-0.1883247
53	0xbd3fbe12	-0.046812125
54	0xbe079072	-0.13238695
55	0x3cf519fe	0.02991962
56	0xbd769b10	-0.060206473
57	0xbdf805cc	-0.12110481
58	0xbd611246	-0.054949068
59	0x3d45d13e	0.048295252
60	0xbd0ca8bd	-0.03434061
61	0xbd9dcf24	-0.077055246
62	0x3dc5cff4	0.096588045
63	0x3dbea047	0.09307914
64	0xbd5a2b3d	-0.05326389
65	0xbde1a7aa	-0.110183075
66	0xbe85a4ec	-0.26102388
67	0x3e175d3a	0.14781657
68	0x3ebd2734	0.36943972
69	0xbe10647a	-0.14100829
70	0xbdaf1efc	-0.08550832
71	0x3dd01130	0.10159528
72	0xbe4f3ed0	-0.20238805
73	0xbdf97f25	-0.12182454
74	0x3cd58a32	0.026066873
75	0xbe0bdec6	-0.136592
76	0x3ee8f63b	0.4550036
77	0x3d81cca7	0.063378625
78	0xbde430e5	-0.111421384
79	0x3e425a83	0.1897984
80	0xbc5e9a80	-0.01358664
81	0x3e697d72	0.2280176
82	0x3df3f9e6	0.11912899
83	0x3dc4b233	0.09604301
84	0x3c91e944	0.017811425
85	0xbd261787	-0.04054978
86	0x3cdcf0a1	0.02697021
87	0x3ca94db3	0.020666933
88	0x3e96065d	0.2930173
89	0x3ed53c5b	0.4164761
90	0xbca80087	-0.020508064
91	0x3ebf7e97	0.37401268
92	0xbd9e51e9	-0.07730467
93	0xbd048bc7	-0.032359865
94	0xbe2ef16a	-0.1708428
95	0xbbf4ce5f	-0.0074708904
96	0x3e6139bf	0.21994685
97	0xbdb01a2f	-0.08598744
98	0xbd273a64	-0.04082717
99	0x3d0e7acb	0.034785073
100	0x3e0ca4da	0.13734761
101	0x3d86572f	0.06559598
102	0xbdee54f1	-0.11637295
103	0xbc49047c	-0.012269136
104	0x3cfd59b5	0.030926565
105	0x3ecc7c66	0.39938658
106	0x3d5e34f8	0.054249734
107	0x3e604990	0.21903062
108	0xbe189af4	-0.1490286
109	0x3e7bec63	0.24601893
110	0x3d0eaff5	0.034835774
111	0x3e192a44	0.1495753
112	0xbe046d4f	-0.12932323
113	0x3b70d738	0.0036749374
114	0x3daebc6b	0.085320316
115	0x3e9ba179	0.3039663
116	0xbce5730f	-0.028008966
117	0x3e3113ad	0.17292662
118	0x3ea0174a	0.31267768
119	0x3de32f1c	0.1109297
120	0x3e9bfbe0	0.30465603
121	0x3db8568c	0.090008825
122	0x3d864120	0.0655539
123	0x3e2d6a84	0.16935164
124	0xbcb26da2	-0.021780793
125	0x3c0a55dc	0.008443322
126	0xbe066c21	-0.13127185
127	0x3d85060d	0.06495295
128	0x3c562c68	0.013072111
129	0xbce288e6	-0.027653169
130	0xbdc6cab6	-0.09706633
131	0x3d15ba5f	0.03655469
132	0x3c971229	0.018441277
133	0x3e375d79	0.1790675
134	0x3e41bcc6	0.18919668
135	0xbbd9bea9	-0.006645043
136	0x3e809526	0.2511379
137	0x3d30f0e5	0.043198485
138	0xbdb09edd	-0.08624051
139	0xbde8f213	-0.11374297
140	0x3db8e073	0.09027185
141	0x3dd7206f	0.10504233
142	0xbe2df50a	-0.16988006
143	0x3e0ced71	0.13762452
144	0x3df539f8	0.11973947
145	0xbd30a4de	-0.04312598
146	0x3d9538af	0.07286202
147	0x3dfb23c6	0.122626826
148	0x3e112dfc	0.14177698
149	0x3e2c874a	0.16848484
150	0xbe2e6420	-0.17030382
151	0xbdb5f68a	-0.08884914
152	0x3e238348	0.15968049
153	0xbcb8ed47	-0.02257408
154	0x3de9883d	0.114029385
155	0xbdf83047	-0.12118583
156	0x3d9458a5	0.0724347
157	0x3df1e0ad	0.11810432
158	0xbc170592	-0.009217637
159	0x3d9d1f98	0.07672042
160	0x3e40ae3f	0.1881647
161	0x3d8156dc	0.06315395
162	0x3d02fa0c	0.031976745
163	0xbe031fde	-0.12805125
164	0xbcc69197	-0.024239345
165	0x3cc08547	0.023501052
166	0xbd713008	-0.058883697
167	0x3d93133d	0.07181404
168	0xbd63dacf	-0.055628594
169	0x3db91928	0.09038001
170	0x3d026512	0.03183467
171	0xbe44ca90	-0.19217896
172	0xbad95178	-0.0016580066
173	0xba97b179	-0.0011573277
174	0xbca37171	-0.019951554
175	0x3db5c9cb	0.088763796
176	0x3e20cbcf	0.15702747
177	0xbdc1bd77	-0.09459966
178	0x3c82564b	0.015910288
179	0xbdfca012	-0.123352185
180	0x3e04c9ee	0.12967655
181	0xbdfa8515	-0.12232415
182	0xbd48a10e	-0.04898172
183	0x3cbff183	0.023430591
184	0xbe2d0512	-0.16896465
185	0x3d0b57ec	0.034019396
186	0xbcbddb91	-0.023175986
187	0xbef8303e	-0.48474306
188	0x3d8374dc	0.064187735
189	0xbd84f7e0	-0.06492591
190	0x3d54406f	0.05181926
191	0xbcbdee69	-0.023184972
192	0x3e50e6fd	0.20400615
193	0xbc8d6991	-0.017262252
194	0xbd8b16d9	-0.06791467
195	0xbad4998c	-0.0016220077
196	0x3e9a6a3e	0.3015918
197	0xbec2ea9c	-0.38069618
198	0xbe61402d	-0.21997137
199	0x3ca53048	0.020164624
200	0x3dd4fa94	0.103993565
201	0x3de48953	0.11159005
202	0xbf92d9ad	-1.1472679
203	0xbc312739	-0.010812574
204	0x3d8a4b25	0.06752614
205	0x3d3cb7c3	0.046073686
206	0x3d97a273	0.074040316
207	0xbd98ba0f	-0.07457363
208	0x3dbd4075	0.0924081
209	0xbd1556ff	-0.03645992
210	0xbd039456	-0.032123886
211	0xbe52e60a	-0.20595565
212	0xbd8240d9	-0.06360025
213	0x3e8b4b6b	0.27205977
214	0x3d263797	0.04058036
215	0xbd323df1	-0.043516103
216	0xbcb52ec6	-0.02211703
217	0x3cf6af5c	0.030112915
218	0x3e11c61e	0.14235732
219	0x3cdc2fa5	0.026878187
220	0xbe365d13	-0.17808942
221	0x3d426ab0	0.047465026
222	0xbe36d4ef	-0.17854665
223	0xbe1d84a0	-0.15382624
224	0x3ed531a8	0.41639447
225	0x3c97449a	0.018465329
226	0xbdd58e7f	-0.104275696
227	0xbe1f83e1	-0.15577652
228	0xbdd89c8a	-0.105767325
229	0xbd800f2c	-0.06252894
230	0xbe0aeb52	-0.1356633
231	0xbc4e3d33	-0.012587833
232	0x3d6f3ea9	0.058409367
233	0xbe58c660	-0.21169424
234	0x3c6dd6f6	0.014516583
235	0x3cf189fb	0.02948474
236	0xbd9f396f	-0.077746265
237	0xbf2063cd	-0.62652284
238	0xbdd470bb	-0.10373064
239	0x3da47e83	0.08031943
240	0x3d3445b4	0.044011787
241	0x3c68fe74	0.014220823
242	0x3d3db07b	0.046310883
243	0xbd51a918	-0.05118665
244	0xbe8ed2c2	-0.2789517
245	0xbe143acf	-0.14475559
246	0xbe4ef46c	-0.20210427
247	0xbe773724	-0.24142128
248	0xbde4d667	-0.111737065
249	0xbd7c55f1	-0.061605398
250	0x3e047bef	0.12937902
251	0xbf43a619	-0.7642532
252	0x3df85dae	0.12127243
253	0x3d309bdb	0.043117385
254	0x3d0fd7d0	0.035117924
255	0xbdf69d48	-0.12041718

model.6.bias f4 [32]
0	0x3d615326	0.055010937
1	0x3f102022	0.5629903
2	0xbe19cb30	-0.15018916
3	0x3e10f15c	0.14154571
4	0x3e11471c	0.14187282
5	0x3effcd02	0.49961096
6	0x3e96cb18	0.29451823
7	0xbc4167ab	-0.0118045015
8	0x3df4f45c	0.1196067
9	0x3e8f71eb	0.280166
10	0x3f2775cc	0.6541412
11	0xbd4cd70d	-0.050009776
12	0xbda3558a	-0.079753
13	0xbe1cb786	-0.15304384
14	0x3c1cfc48	0.009581633
15	0x3e6ade78	0.22936428
16	0x3ecf2a5b	0.40462002
17	0x3d9e1433	0.077186964
18	0x3e205866	0.15658721
19	0x3e88f9d7	0.26753113
20	0x3da8d319	0.08243389
21	0x3e98c3bf	0.29836842
22	0xbe335531	-0.17512967
23	0xbd1519d7	-0.036401596
24	0xbd5ff3a9	-0.05467573
25	0x3d96af87	0.07357698
26	0x3dbe9557	0.09305828
27	0x3f095870	0.5365057
28	0x3eac2cc4	0.33627903
29	0x3ea395d7	0.31950256
30	0x3d647171	0.05577225
31	0x3e40a899	0.18814315

model.8.weight f4 [10, 32]
0	0x3ded9f03	0.11602595
1	0x3e2d4350	0.16920209
2	0xbe8f87e7	-0.28033373
3	0xbbd8c9ba	-0.0066158446
4	0x3dfd3d2d	0.12365184
5	0x3e9c53b0	0.30532598
6	0x3cd337b0	0.02578339
7	0x3cae5b4e	0.021283772
8	0xbe124a4b	-0.14286153
9	0x3d84a445	0.064766444
10	0x3e9b0466	0.30276793
11	0xbe2efe7a	-0.17089263
12	0x3ca3ed31	0.020010563
13	0x3d93da86	0.072194144
14	0x3e3058a7	0.17221318
15	0x3e3ad422	0.18244985
16	0x3e75f9c3	0.24021058
17	0xbeb3ca82	-0.3511544
18	0x3bfd961f	0.007738843
19	0x3bdef9f1	0.0068046977
20	0xbdb893c1	-0.09012557
21	0x3ead4848	0.3384421
22	0x3daa8072	0.0832528
23	0xbd6fda6d	-0.058557916
24	0xbd637d51	-0.055539433
25	0xbe4e0016	-0.2011722
26	0x3d016fd0	0.031600773
27	0x3e811be0	0.2521658
28	0x3de766e3	0.11298921
29	0x3e018ddf	0.12651776
30	0xbc38ae9c	-0.011272099
31	0xbe37713c	-0.17914289
32	0xbc9419a8	-0.01807864
33	0x3e995c33	0.29953155
34	0xbe046ad3	-0.12931375
35	0x3db7b01d	0.08969138
36	0x3bf20510	0.0073858574
37	0x3e9a8673	0.30180702
38	0x3d8fdd1b	0.070245944
39	0xbc320be1	-0.01086709
40	0xbe3122d9	-0.1729845
41	0xbddb6401	-0.107124336
42	0x3dfb0c62	0.12258221
43	0xbe32dfe5	-0.17468221
44	0x3d8f0044	0.069824725
45	0x3df75821	0.12077356
46	0xbe029d0d	-0.12755223
47	0x3e2b08e2	0.16702607
48	0x3e3e6ff6	0.18597397
49	0xbe91e253	-0.28492984
50	0x3e0d9332	0.13825682
51	0x3e174219	0.14771308
52	0xbe0eb015	-0.13934357
53	0x3dd012ed	0.1015986
54	0xbd6dd98d	-0.0580688
55	0x3deffc16	0.117180035
56	0xbe15328b	-0.14570062
57	0xbe868514	-0.26273406
58	0x3dc3e2aa	0.09564717
59	0x3ecc57e3	0.39910802
60	0x3d59159a	0.052999116
61	0x3e868b2b	0.26278052
62	0xbdeb63b7	-0.114936285
63	0xbe43f02f	-0.19134592
64	0x3e091e8a	0.13390556
65	0x3ecbae03	0.39781198
66	0xbe0482c7	-0.12940513
67	0x3e50e0dd	0.20398279
68	0x3dcc5144	0.09976438
69	0x3ec2cf29	0.38048676
70	0x3dda988a	0.10673626
71	0x3d60268e	0.05472427
72	0xbe1097b0	-0.14120364
73	0x3dacc38f	0.08435737
74	0x3e5e2ba2	0.21696332
75	0xbd1d25ef	-0.038366254
76	0x3e06c3d3	0.13160639
77	0x3da9b5ff	0.08286666
78	0x3e226198	0.15857542
79	0x3e5016a6	0.2032114
80	0x3e15ae60	0.146173
81	0xbe8a601c	-0.2702645
82	0xbd8d6516	-0.06904046
83	0x3d61ae65	0.055097956
84	0xbeb9b40e	-0.36270183
85	0x3e0d703b	0.13812344
86	0x3d9f3cd1	0.07775272
87	0x3cbf17b0	0.023326725
88	0xbe68e748	-0.22744477
89	0xbe5062eb	-0.20350234
90	0x3d3b219c	0.04568635
91	0x3d8f3715	0.06992928
92	0xbdd1b588	-0.102397025
93	0x3e168869	0.14700474
94	0x3dd80ecd	0.10549698
95	0xbe011b07	-0.12607966
96	0x3d7c9fe7	0.061675932
97	0x3ea7cf94	0.32775557
98	0xbe37f610	-0.17964959
99	0xbe2bb427	-0.16767941
100	0x3e0bc9d1	0.13651206
101	0x3e413dd4	0.18871242
102	0x3dfae77d	0.12251184
103	0x3d9d5e29	0.07683975
104	0xbe580218	-0.21094549
105	0x3db2bbae	0.08727203
106	0x3ead9084	0.3389932
107	0xbe5be970	-0.21475768
108	0x3d6c7faa	0.057738937
109	0x3e042fc5	0.12908848
110	0x3e04b9f1	0.12961556
111	0x3e3134b4	0.17305261
112	0x3e00f9cd	0.12595291
113	0xbe5403b1	-0.20704533
114	0xbd994938	-0.074846685
115	0x3dc43dd3	0.095821045
116	0xbd0f80c7	-0.03503492
117	0x3e10780a	0.14108291
118	0xbdfa4491	-0.12220109
119	0x3c0f2786	0.00873745
120	0xbe6ae38e	-0.22938368
121	0xbe9c3717	-0.3051078
122	0x3d461cef	0.048367437
123	0x3e4cf40c	0.20014971
124	0x3d89caaf	0.06728112
125	0x3e8cca3b	0.2749804
126	0x3bc3ff94	0.005981395
127	0xbe124dee	-0.1428754
128	0xbe26bb17	-0.16282307
129	0x3dddc20f	0.10828029
130	0xbe5fbe1a	-0.21849862
131	0x3d431f23	0.047637116
132	0xbc12dca0	-0.008963734
133	0x3e9a6c98	0.30160975
134	0xbdc4aeb2	-0.09603633
135	0xba3a3f8b	-0.00071048056
136	0xbe745ca8	-0.2386347
137	0xbd15c327	-0.036563065
138	0x3eae6337	0.3406007
139	0xbcf80089	-0.030273693
140	0x3dcdc837	0.100479536
141	0x3d614c69	0.05500451
142	0x3e2179cf	0.15769123
143	0x3de95169	0.11392481
144	0x3ea416b0	0.3204856
145	0xbe8ec7cd	-0.2788681
146	0x3e0b39ff	0.13596343
147	0x3e5234f5	0.20528014
148	0xbe5ee64b	-0.21767537
149	0x3e4bc646	0.19899854
150	0xbe07fb82	-0.13279536
151	0x3df4577a	0.11930747
152	0xbe1ba9ff	-0.15201567
153	0xbe256a40	-0.16153812
154	0x3d50b89d	0.05095731
155	0x3e2f2522	0.17104009
156	0xbccea58c	-0.025225423
157	0x3e9d8100	0.30762482
158	0x3de069bd	0.10957668
159	0xbe550c28	-0.20805418
160	0x3daf2409	0.08551795
161	0x3ea1da0a	0.31611663
162	0xbe929db8	-0.28635955
163	0xbda48c71	-0.080345996
164	0xba4a3812	-0.00077140436
165	0x3e903ef0	0.28173018
166	0x3e366084	0.17810255
167	0xbdd07bec	-0.10179886
168	0xbe3cdf8e	-0.18444654
169	0x3dbda0e5	0.09259204
170	0x3e5648b6	0.20926175
171	0xbe345315	-0.17609818
172	0x3d8763ba	0.06610818
173	0xbcbae637	-0.022814853
174	0x3dddb146	0.10824828
175	0x3e219af6	0.15781769
176	0x3ea21cc0	0.3166256
177	0xbe4cbf69	-0.19994892
178	0x3df899d2	0.12138714
179	0x3d6f0d65	0.058362383
180	0xbe1e8cab	-0.15483348
181	0x3da286a0	0.07935834
182	0x3c927288	0.017876878
183	0x3c5fdece	0.013663961
184	0xbe4c2fcb	-0.19940107
185	0xbe4582aa	-0.19288126
186	0x3cd633a6	0.026147675
187	0x3e329b5b	0.17442076
188	0x3df6bb07	0.120473914
189	0x3e37df73	0.17956333
190	0x3e38911f	0.1802411
191	0xbe670d5e	-0.22563693
192	0xbd5ee5a3	-0.054418217
193	0x3e9c37c8	0.30511308
194	0xbdad4832	-0.08461036
195	0xbd87280e	-0.06599437
196	0x3d9ac82f	0.07557713
197	0x3e81d67e	0.25358957
198	0x3e22da2d	0.1590354
199	0x3bde4ccc	0.0067840572
200	0xbe291027	-0.16510068
201	0x3d9cc18b	0.07654103
202	0x3e859a67	0.26094362
203	0x3bf72fe3	0.0075435503
204	0xbda32421	-0.079658754
205	0xbc9bd3db	-0.019021919
206	0x3dc520dc	0.09625408
207	0x3d88d442	0.0668111
208	0x3e598ff8	0.21246326
209	0xbea3f74f	-0.3202462
210	0x3e260aec	0.16215104
211	0x3d8d3b4f	0.06896078
212	0xbdf6935a	-0.12039824
213	0x3e1de451	0.15419127
214	0xbd66dca0	-0.05636275
215	0x3e294b40	0.16532612
216	0xbeb0a34f	-0.34499595
217	0xbe33e26b	-0.1756684
218	0x3c70d115	0.014698287
219	0x3e2cd19a	0.16876832
220	0x3e0cd07c	0.13751405
221	0x3e757d81	0.23973657
222	0xbba53f8d	-0.0050429762
223	0xbe330ced	-0.174854
224	0xbdb5a529	-0.088693924
225	0x3ec55b0c	0.38546026
226	0xbe16b27d	-0.14716525
227	0x3d4c07aa	0.049811997
228	0x3dca355d	0.098734595
229	0x3dd9a513	0.106271885
230	0xbdee9e34	-0.116512686
231	0x3ce1612b	0.027512154
232	0xbe08f988	-0.13376439
233	0x3cc102dc	0.023560934
234	0x3e72e518	0.23720205
235	0xbe3f4b75	-0.18681128
236	0xbd873c5c	-0.066033095
237	0xbdb4de37	-0.088314466
238	0x3dff0534	0.12452164
239	0x3e2642c7	0.16236411
240	0x3ea5112b	0.3223966
241	0xbe0452fa	-0.12922278
242	0x3dd3cbfd	0.10341642
243	0x3d9b543e	0.07584427
244	0xbe05d651	-0.13070036
245	0x3e4b427c	0.1984958
246	0x3d8485ee	0.064708576
247	0xbd2381eb	-0.03991882
248	0xbe447755	-0.19186147
249	0xbea26900	-0.31720734
250	0x3db567aa	0.08857663
251	0x3e28127f	0.16413306
252	0x3dedba78	0.11607832
253	0x3e30849a	0.17238083
254	0xbe1bd611	-0.15218379
255	0xbeb70f99	-0.35754088

model.8.bias f4 [10]
0	0xbd962d77	-0.073328905
1	0x3c92d224	0.017922468
2	0x3daf53fd	0.08560941
3	0xbcd23508	-0.025660053
4	0xbc1e6f24	-0.009670053
5	0x3e0592d0	0.13044286
6	0x3e47b1c7	0.1950141
7	0x3e2069bc	0.15665334
8	0x3e8b0163	0.27149495
9	0x3d2d214e	0.04226809
