checkpoints/checkpoint_step_7700.pth (torch, 200878 bytes, 10 tensors)

model.0.weight f4 [256, 21]
000000 dd 25 34 3e b2 54 8e bd 47 36 71 bd ef 68 a9 be
       0.17592569 -0.06949748 -0.058889654 -0.3308787
000010 d6 47 9f be 1a f9 2d be e7 9e 02 bf f8 79 e3 bd
       -0.31109494 -0.16989556 -0.51023716 -0.11107248
000020 ec c9 0a 3d 26 d5 31 be b5 93 63 be 5e 14 43 be
       0.033883974 -0.17366466 -0.22224315 -0.19050738
000030 10 cd 36 3d a3 ac 0a bf a9 2b 2a bd 25 96 b4 be
       0.044629157 -0.5416967 -0.041545544 -0.352708
000040 b2 96 a3 bd 54 ed 20 bd 5e 32 81 3d 0b 03 a2 be
       -0.07987727 -0.039288834 0.06308435 -0.31642947
000050 33 56 1e 3f d8 95 dc 3c 09 1f 92 3c 18 79 32 be
       0.6185028 0.02692692 0.017837064 -0.17429006
000060 4c 51 a2 bd b8 1b 93 bf 17 08 9a bd 22 d5 a3 3d
       -0.079256624 -1.1492834 -0.07521074 0.07999636
000070 59 80 b2 bd c7 d2 09 be 77 f4 9a be c9 98 d6 bc
       -0.087158866 -0.13459311 -0.30264637 -0.0261959
000080 e1 09 89 bd b6 4e ab be d0 d3 af be b3 65 00 be
       -0.066913374 -0.3345849 -0.34341288 -0.12538795
000090 e4 b5 c2 bc b1 fe 4b bd 3e 6c 1e 3e 7b 30 ae bd
       -0.023768373 -0.04980344 0.15470979 -0.08505341
0000a0 98 ca 0a 3e 5e 3a 92 bd 5e 38 61 bd 6a 0c 86 be
       0.13553846 -0.07140039 -0.054985397 -0.26181346
0000b0 eb f3 7d 3e 3f c2 db bc ad 15 03 3e 51 ff af 3d
       0.24800079 -0.026826022 0.12801237 0.085936196
0000c0 3d bb f8 be 47 c6 db 3d dc e5 1b 3e fe 11 30 be
       -0.4858035 0.10731178 0.15224403 -0.17194363
0000d0 31 4d 05 3d 7b 45 01 bf 15 32 ea bd 14 eb 72 be
       0.03254432 -0.50496644 -0.11435334 -0.23722488
0000e0 6e 27 5d be 6d 14 b7 3d 30 d3 a5 be d1 c9 42 bd
       -0.21597072 0.08939443 -0.32387686 -0.04755575
0000f0 e6 68 b5 bd 0c a1 3d be f6 bf d5 bd 05 e5 69 be
       -0.088578984 -0.18518466 -0.10437004 -0.2284127
000100 e5 f3 37 bf 13 56 f2 3d 52 18 af bf 6a 84 00 c0
       -0.7185653 0.118328236 -1.3679297 -2.008082
000110 45 0c 68 3d 0f 63 04 be b3 33 1a 3d da 9e 94 be
       0.056652326 -0.12928413 0.03764696 -0.29027444
000120 e9 69 81 3e 38 54 c1 bc e1 ce fb 3d 86 b0 0e bd
       0.25276116 -0.023599729 0.122953184 -0.034836315
000130 c9 19 89 be 93 79 e4 3b 61 bd 5b 3c 6d 7e a3 bb
       -0.26777485 0.0069725006 0.013411851 -0.0049894364
000140 4f 9d 4a bc 6b 7b e7 3d db 69 87 3d d5 2b 3e bf
       -0.012366607 0.11302837 0.06611987 -0.7428563
000150 63 01 44 bd d1 79 a4 bb da 4c 8c be e9 0d 13 bd
       -0.047852885 -0.0050194045 -0.27402383 -0.035901938
000160 0f 5a 4b 3e 20 a8 14 be ad 8e ad bc 3c 27 29 3e
       0.19858573 -0.1451726 -0.021186197 0.16518873
000170 a4 f8 35 3e c5 9d 19 be cf 49 a5 be 43 41 ef 3d
       0.1777063 -0.1500159 -0.32282874 0.116823696
000180 6f 07 7d bd b4 fa bd bc be e8 54 be 05 e0 dd 3d
       -0.061774667 -0.023190834 -0.20791909 0.10833744
000190 11 a4 ae 3e 88 6d 6b bf 24 4c 89 be 6a 76 09 bd
       0.34109548 -0.91964006 -0.26815903 -0.033560194
0001a0 e6 ac 33 3e ce f4 8f bd a9 08 06 3e d3 b6 b6 bd
       0.17546424 -0.07029115 0.13089241 -0.0892159
0001b0 46 5d 29 3e 0f 36 a4 3c 0b 1b ec 3d 72 7d b3 bd
       0.16539487 0.020045308 0.115285955 -0.08764161
0001c0 f7 d5 43 3d 61 7d 42 be 59 b1 0b bd 79 dc 2f 3e
       0.047811475 -0.18993141 -0.03410468 0.17173947
0001d0 dc f5 85 3e 52 69 8c 3d 18 d0 d4 3e e8 1e ef ba
       0.26164138 0.06856026 0.41565013 -0.0018243464
0001e0 c1 b3 c0 3e f2 d0 75 3e d5 6d a9 3e a4 27 66 bd
       0.3763714 0.24005488 0.33091608 -0.056190148
0001f0 f7 63 6c 3e c5 8a 5c 3d d4 ec 24 bf 94 0d 80 bd
       0.23085009 0.05384328 -0.6442387 -0.0625259
000200 48 80 94 3e e0 e4 bb be 01 71 4a bf b6 9b 00 be
       0.2900412 -0.36698055 -0.7907868 -0.12559399
000210 a2 a0 8e be e5 ee a9 be 7a 38 c4 be a5 ce 65 bd
       -0.27856928 -0.33190075 -0.38324338 -0.056105275
000220 8d 5f 8e be 15 48 90 be d6 3c 9a bd 07 c2 4f be
       -0.27807274 -0.28179994 -0.07531135 -0.2028886
000230 f8 89 23 3e 97 68 28 3e 3b 94 e0 3d 1e ba cb 3d
       0.159706 0.16446148 0.10965773 0.099476084
000240 c8 91 56 be 20 9b c6 bd 1e 5d ce bd 44 02 31 be
       -0.20954049 -0.096975565 -0.100763544 -0.1728602
000250 7c 9f f0 bd 56 6f 39 3e 37 e9 09 be c6 c0 3a 3e
       -0.11749169 0.18108878 -0.1346787 0.182376
000260 eb fc 76 bd 52 a6 af be 51 c7 9a bd ce 16 a2 c0
       -0.060299795 -0.3430658 -0.07557548 -5.065284
000270 38 1b 06 bd e0 26 9f bd df 00 0e bd 14 77 be bd
       -0.0327408 -0.07771087 -0.0346688 -0.09300056
000280 a3 54 aa bd 0b ec 00 3d 95 37 28 bc 9c ca 53 bd
       -0.083169244 0.031475108 -0.010267158 -0.051706895
000290 49 de 47 be 82 21 48 bd 16 0c 7c be 3f e3 56 be
       -0.19518389 -0.04886008 -0.24613985 -0.20985125
0002a0 a1 7b a7 bc 5d 4b 03 be f9 43 9a 3d 5c 3a 5f be
       -0.020444693 -0.12821718 0.07532496 -0.21799606
0002b0 82 0c 83 3d 6e 78 45 3b 3b 8a b3 be 1b c6 d5 bd
       0.0639887 0.0030131596 -0.350664 -0.10438176
0002c0 e5 e9 3c 3e 66 c8 97 be 4b 0c a2 be b8 24 b7 be
       0.18448599 -0.2964508 -0.31650004 -0.35770202
0002d0 48 97 95 bc de c0 9e bd 09 66 2e be 41 d6 98 be
       -0.018260613 -0.0775163 -0.17031111 -0.29850963
0002e0 a9 c3 28 3c 2b 06 8e bd af a4 83 be 14 eb 85 bd
       0.010300555 -0.0693477 -0.2571158 -0.06538978
0002f0 3d 0b ec 3c 55 d4 11 3e c3 dc 53 be ed 80 a7 be
       0.028813953 0.14241154 -0.20689683 -0.3271555
000300 57 b6 d0 bd c9 bf 3c 3e 6c 42 71 be c3 6a 8e be
       -0.101910286 0.18432535 -0.23560494 -0.27815828
000310 f7 4d e6 bd 24 da 75 3a 87 75 04 3d 97 a1 5e be
       -0.11245339 0.0009378514 0.032338645 -0.21741329
000320 a7 14 05 bf bd cb 04 be d9 08 b0 be fb a2 4b 3d
       -0.5198464 -0.12968345 -0.3438175 0.049715977
000330 fb e7 f9 bd 2c a3 53 be 66 48 06 bf 1d ab a0 3d
       -0.1220245 -0.20667714 -0.5245422 0.07845137
000340 55 c2 5a be a1 44 eb bd 12 64 06 bf df 32 4f 3e
       -0.21363194 -0.11487699 -0.52496445 0.2023425
000350 0d 19 61 be c3 e7 03 3e 0d 86 f3 be 01 77 ee bd
       -0.21982212 0.12881379 -0.4756321 -0.11643792
000360 0e f4 c9 bd ce e6 3e 3e b1 59 eb be 10 62 0b 3e
       -0.09861003 0.18642733 -0.45966867 0.13611627
000370 4c 96 28 bd c2 30 a7 bd f0 23 0c 3e 1a 18 f0 3e
       -0.04115896 -0.08163597 0.13685584 0.46893388
000380 9d 0a 84 3e 04 d2 45 bf 23 e1 88 bd 99 ed d4 bd
       0.25789347 -0.77273583 -0.066835664 -0.10396881
000390 0d 67 be 3c 0a d1 a3 3e e1 42 a7 bd e7 3c 0c be
       0.023242498 0.31995422 -0.08167053 -0.13695107
0003a0 7a 71 6f 3d 30 34 0c be 75 d1 f1 bd 43 3c a5 3e
       0.05845783 -0.13691783 -0.11807529 0.3227254
0003b0 56 75 ab 3c 50 99 a4 3d 83 e9 98 bd c8 06 dd be
       0.020929974 0.080370545 -0.07466414 -0.43169236
0003c0 11 8d 51 be cb b4 2f be e8 91 81 be da 1c a3 bc
       -0.20463969 -0.17158811 -0.2530663 -0.019911218
0003d0 e8 ff c4 bd ea 2b 65 bd 76 74 a8 3e 6c 03 74 be
       -0.09619123 -0.055950083 0.32901353 -0.2382943
0003e0 fe 13 99 be 0d d8 2d bd 7c 60 e2 bd 6b 22 6d bd
       -0.29898065 -0.04244237 -0.11053559 -0.05789415
0003f0 47 90 13 be 59 9f b8 3d 4b 44 af be 00 fe 33 be
       -0.14410506 0.09014768 -0.3423179 -0.17577362

model.0.bias f4 [256]
000000 32 43 16 3e 89 25 00 3c 1a 46 69 be f6 4d 39 be
       0.1467407 0.007821449 -0.22780648 -0.18096146
000010 c9 ce cc 3e 6d 08 a8 3e 6c 27 dc 3d 76 53 b8 3d
       0.40001515 0.32818928 0.107497066 0.09000294
000020 61 23 40 3e d0 43 16 3e 33 1c e2 be 6c 48 8f bc
       0.18763496 0.14674306 -0.4416214 -0.017490588
000030 48 11 c2 bc 8c 7d 0d bf db e7 2a 3f 5e 8f 0b 3f
       -0.023689881 -0.55269694 0.66760033 0.54515636
000040 d3 f8 fb bd ea f2 f1 bd a5 51 26 3f 45 ba c6 bd
       -0.12303319 -0.1181391 0.6496833 -0.09703497
000050 80 40 aa bd 9b 70 d4 be 57 ab 10 be 94 93 2c be
       -0.08313084 -0.4149216 -0.14127861 -0.16853172
000060 79 0e 14 bf b1 fa f1 bd 20 00 59 be 8f b4 15 3e
       -0.57834584 -0.11815394 -0.21191454 0.14619659
000070 1a d6 77 3d 30 9c 3f bc 01 de 69 3e 33 ac 1d 3f
       0.060506918 -0.011694953 0.22838594 0.6159088
000080 cf 49 e9 bc c0 a7 29 be c4 93 a0 be bc 03 bc 3d
       -0.028477577 -0.16567898 -0.31362736 0.091804
000090 77 b1 c9 bd e1 33 b8 be 96 dc 00 3d b4 c6 c4 3d
       -0.09848302 -0.3597708 0.031460367 0.09608212
0000a0 08 3f 6b bd e7 a2 ae 3e a3 0e 69 be 75 e6 5b be
       -0.05743316 0.3410866 -0.2275949 -0.21474631
0000b0 9c 69 ce 3e ed d8 43 be 10 e5 14 be cd ef 86 bd
       0.4031495 -0.1912572 -0.14540505 -0.06588707
0000c0 87 c0 cf 3d e9 98 fb bd 42 93 3f bd bb 48 70 3d
       0.101441436 -0.12285025 -0.046771295 0.05866311
0000d0 f9 66 b2 be ea 27 90 be 2f 13 99 3d 99 cb fc be
       -0.34844187 -0.28155452 0.07474362 -0.49374083
0000e0 ec aa aa be 48 77 85 3b b7 8e c3 be 63 03 4d bd
       -0.33333528 0.0040730573 -0.3819482 -0.050052058
0000f0 34 94 81 3d 08 c8 f1 bd 56 39 ab 3e ba 47 00 be
       0.06327096 -0.11805731 0.3344218 -0.12527362
000100 6f d5 90 bd 83 50 0a bb d2 1f 7b bd 8b 4f 96 3e
       -0.07071959 -0.0021105118 -0.061309643 0.2935756
000110 b1 87 9d be 30 06 2b 3e 32 a5 d1 3d f5 e8 81 3e
       -0.30767587 0.16701579 0.10236587 0.25373045
000120 f4 96 a3 bd c0 3f ad 3d 63 07 52 be 6d 4a be be
       -0.079877764 0.08459425 -0.2051063 -0.37166157
000130 f5 35 a1 bb c4 62 06 be f7 a3 3e be bc c3 a7 3e
       -0.0049197623 -0.13123614 -0.18617235 0.3276652
000140 a8 64 08 3d 7c 6d 48 3e 3b bd fc be c1 95 21 be
       0.03329912 0.19573015 -0.4936312 -0.15779783
000150 f0 99 89 3d 87 8f 59 be c8 c5 b2 3e 4b f0 5a 3e
       0.067188144 -0.21246158 0.3491652 0.21380727
000160 da 7b 05 be 65 c2 84 3d e9 bd 66 3e 9d f9 32 be
       -0.13035527 0.0648239 0.22533382 -0.17478032
000170 21 a7 5d be 41 74 12 be 65 dc 31 be 41 3d 90 be
       -0.21645786 -0.1430216 -0.1736923 -0.28171733
000180 84 18 96 be b0 79 f9 bd 6f 63 b8 be 5d 8a 7d 3e
       -0.2931558 -0.12181413 -0.36013362 0.24759813
000190 ae ee cc 3e b3 64 25 be ee c3 a3 3d c2 6c 57 3e
       0.40025848 -0.16151695 0.07996355 0.21037582
0001a0 cc c3 8f 3c 52 6b 2b 3e 03 d1 b1 bc 19 7f da 3d
       0.017549418 0.16740158 -0.02170611 0.10668773
0001b0 95 50 0d bc 1d 7e 08 be 1b 7e 51 bb 64 05 99 bd
       -0.008625169 -0.13329358 -0.0031966034 -0.07471731
0001c0 cb 37 ba 3c 9e b0 ad bd 7d 68 c9 bd 20 be b6 bd
       0.022731682 -0.08480953 -0.09834383 -0.08922982
0001d0 9b 67 09 3e b5 9a 89 3d 71 06 20 bd ab 68 1c 3e
       0.13418429 0.06718961 -0.039068643 0.15274303
0001e0 8c 47 fe be 2a ca 17 bd 04 91 0c be ee 79 a8 3d
       -0.4966396 -0.037058033 -0.13727194 0.08226381
0001f0 36 9a d8 bd 51 7e e6 be 9b b9 b2 3e 49 e1 4a 3e
       -0.105762884 -0.45018247 0.3490723 0.19812502
000200 bc 35 9e be 3d ef c0 bd 07 26 de bd 9f b2 2c 3e
       -0.3090037 -0.09420631 -0.10847097 0.16865014
000210 69 a1 29 3c a4 f5 89 bd ca 7b 9d 3e 3b ea 78 3d
       0.010353425 -0.06736305 0.30758506 0.060770255
000220 dd 93 fa bd c3 f3 65 be 8d 5e a5 3c 4b f6 12 3f
       -0.12235234 -0.22456269 0.020186687 0.57407063
000230 8b 4f f6 bd a3 24 1b 3f 9d dc 78 3e c1 94 d5 3b
       -0.1202689 0.6060278 0.24302907 0.006517977
000240 12 3e d8 3e 3e f1 a6 3e 6f f1 51 3d df 1b b8 3d
       0.42234856 0.32605928 0.05125564 0.08989691
000250 14 e1 2a bf c8 a1 0e be 65 67 9b 3e db 8e 3e be
       -0.6674969 -0.13928902 0.3035232 -0.18609183
000260 7c 1f 94 3e a7 85 15 bf 8c e5 64 be 8b 39 75 3d
       0.2893027 -0.5840706 -0.2235319 0.05986933
000270 bc d4 77 bc 4f 85 91 3e 7a 47 04 3f 6e 90 90 3e
       -0.015126403 0.2842202 0.51671565 0.2823519
000280 e7 2b 4a be 6e 3e 3e bd 17 85 1c 3f dc f1 61 3d
       -0.1974331 -0.046446256 0.6114058 0.055162296
000290 99 86 4c bc 57 0c 04 3f c6 90 12 be a4 fc 00 be
       -0.012483262 0.5158133 -0.14313039 -0.12596375
0002a0 26 5f fc bc eb 82 86 3e 6d 3e 87 3d 81 d4 8e bd
       -0.030807089 0.26271757 0.06603704 -0.06974126
0002b0 9a 58 4a 3e 5d 98 c3 be 92 82 78 3e c8 3b 8e 3d
       0.19760361 -0.3820218 0.24268559 0.06944996
0002c0 40 91 aa be 60 b2 22 3f 52 f9 7f bd 04 2c 57 be
       -0.33313942 0.6355343 -0.06249363 -0.21012884
0002d0 8e 7c b1 be e2 0b 7c 3e 5a 6c 75 3e 6a c3 48 3d
       -0.3466534 0.24613908 0.23967114 0.049014486
0002e0 d4 1c 1b be 0a 5d e8 bb 5a 40 92 be 3e 21 c0 be
       -0.15147716 -0.0070911692 -0.2856472 -0.37525362
0002f0 3d f5 2f 3e 17 f6 0c 3e 2a 23 6c be f7 5f cd 3d
       0.17183395 0.13765751 -0.23060289 0.100280695
000300 d4 91 19 3f 0d c6 46 3e 66 0e 28 be 9d 95 a9 be
       0.5998814 0.19411488 -0.16411743 -0.33121958
000310 72 82 a8 3e 64 85 dc 3d 59 09 b7 3d 24 1f 16 be
       0.32912022 0.1076763 0.0893733 -0.14660317
000320 5b 95 a5 be 02 09 fa 3d cb 06 b4 bd d6 a8 65 3d
       -0.32340512 0.12208749 -0.08790358 0.056069218
000330 f4 f5 bc 3c 22 a2 23 bc 47 57 82 be 9f 22 7b 3c
       0.023066498 -0.009987386 -0.25457212 0.0153280785
000340 40 f6 c7 bd 42 6f 80 be 50 59 e9 bc ae a2 ce 3d
       -0.09763765 -0.25084883 -0.02848497 0.100896224
000350 77 6a d0 3d 43 a5 50 3e 2f ef fa bd 9f b4 38 be
       0.101765566 0.20375542 -0.12252652 -0.18037651
000360 88 32 df 3d 2a 47 41 3e 79 3b b0 bd 12 4c 79 3f
       0.1089831 0.18874803 -0.086050935 0.973817
000370 e3 82 48 bd b1 0e 29 be ce 67 88 bc ea 31 68 ba
       -0.04895295 -0.1650951 -0.01665106 -0.00088575354
000380 11 6e 81 be 7b 45 63 bd fa 52 27 3e db 97 78 be
       -0.25279287 -0.055486184 0.16340247 -0.24276678
000390 28 50 74 3d b7 0e 1e 3e 0e 28 fa 3d 31 fa af bd
       0.059646755 0.15435301 0.12214671 -0.08592642
0003a0 f2 d1 f1 3c 6d 13 2f bd 96 44 48 3f 18 ca 93 bd
       0.029519055 -0.042743135 0.78229654 -0.07216281
0003b0 b6 78 99 3e bf 4d 4f be b9 98 8d 3e a7 41 3e 3f
       0.29974908 -0.20244502 0.2765558 0.7431893
0003c0 83 13 b7 bc a6 cd 3f 3d f1 06 19 bd 99 9b 7e bd
       -0.022348171 0.04682698 -0.037360135 -0.06216011
0003d0 9e 23 54 be 6e 5e ce bd d0 ea 3a 3e 07 bb 0a 3f
       -0.20716712 -0.10076605 0.18253636 0.5419163
0003e0 17 50 c0 be 1d 38 25 be 3d 63 99 3d c8 0d 57 3d
       -0.37561104 -0.16134687 0.07489631 0.052503377
0003f0 79 7c 20 3e 18 17 c1 be e5 c4 91 3d 93 d6 3d 3e
       0.15672483 -0.37712932 0.07117633 0.18538885

model.2.weight f4 [128, 256]
000000 ba a4 3f be 99 ca 65 3d f7 d8 d5 3b 19 c8 9d be
       -0.18715182 0.056101415 0.0065261084 -0.30816725
000010 8a 24 4f be 0b 89 5c be 49 79 a0 bd b1 2e 8b 3d
       -0.20228782 -0.21536653 -0.07835633 0.06796015
000020 2b bd 33 bd da d5 d4 bc b7 08 a1 be 06 fe b1 bd
       -0.043881577 -0.025980879 -0.3145196 -0.08691029
000030 ca af 81 3e a6 d6 86 3e bf e5 13 be 72 dd 78 be
       0.2532943 0.2633564 -0.1444311 -0.24303225
000040 f7 e4 40 3c 0a 07 f0 bb 97 9e ed be 13 ac 16 3d
       0.0117733395 -0.007325058 -0.46410057 0.036785197
000050 22 33 92 bd 82 bc c4 3d 72 6d ee bb 50 e9 ef 3d
       -0.07138659 0.096062675 -0.0072762305 0.11714423
000060 97 ac 61 3e eb ee 06 3e a7 e0 7b bd 04 10 e4 3d
       0.22038494 0.13177077 -0.061493542 0.11135867
000070 4e 10 88 bd a4 62 25 3d 36 5a 0c 3e 72 02 1a 3e
       -0.06643735 0.040377274 0.13706288 0.15039995
000080 e2 17 80 be 1c 93 bb bc 23 96 b6 3d 01 61 a6 bb
       -0.2501822 -0.022897296 0.08915355 -0.0050774817
000090 40 ba 8b 3b cf 65 2b bc e0 66 3e bd 18 3f 59 3e
       0.004264146 -0.010461285 -0.046484828 0.21215475
0000a0 49 e2 c5 3d 14 7d a7 be 53 05 03 bf 5d 42 e6 bd
       0.09662301 -0.32712615 -0.5118 -0.112431265
0000b0 bc 0a 3e be eb 0e a9 bc b8 ba 87 bd c6 06 99 bc
       -0.18558782 -0.020636996 -0.06627411 -0.018679988
0000c0 b5 ae 3c bd 59 1b 9c 3d 32 d9 a2 3d ed ca 45 3d
       -0.04606505 0.07622404 0.07951583 0.04828923
0000d0 3b 01 41 3e 03 09 5b bd 81 21 89 3e ef 56 72 3e
       0.18848126 -0.05347539 0.26783374 0.23665975
0000e0 88 40 c6 3d bd de 8d 3d 2a c6 28 3c d2 f7 f2 bd
       0.09680277 0.069272496 0.010301152 -0.11863674
0000f0 c0 24 02 bc 7a f0 bb 3c e2 87 44 3e 17 e7 2e 3c
       -0.007943332 0.022941817 0.1919246 0.010675213
000100 35 77 69 3d 6b 03 10 bf 55 17 89 bc 75 c2 ba 3b
       0.05699845 -0.56255215 -0.016734758 0.0056994506
000110 64 7b f9 bd 23 28 8d 3d ec 09 89 be 26 80 f0 bd
       -0.12181738 0.06892421 -0.26765382 -0.117431924
000120 c2 5f c0 bc 3f 47 29 3e e3 ec f9 bc 18 e6 76 3d
       -0.02348316 0.16531084 -0.030508464 0.06027803
000130 78 7f 21 3e 0a 29 a6 3d fc 9f 4d 3e ad 4f 03 3d
       0.15771282 0.08113296 0.2008056 0.032058407
000140 2b 3d 2c 3d 7c 8b aa 3e 77 f6 83 3e 3e 82 93 3d
       0.04205052 0.33309543 0.25773975 0.07202576
000150 27 10 8b bc 07 40 6d bd da 38 0b be f9 06 c8 be
       -0.016975475 -0.05792239 -0.13595906 -0.3906782
000160 47 9a cc 3c e0 de a0 bb b8 b7 16 3d 46 74 51 bd
       0.024975909 -0.0049093813 0.0367963 -0.051136278
000170 3e 34 ba 3d 61 6a bb bc 82 4c 11 3f 82 76 51 bd
       0.09091996 -0.022877874 0.56757367 -0.05113841
000180 10 97 3f 3d 98 a9 e3 bd 1e f3 16 3e 61 11 5f 3e
       0.046774924 -0.11116332 0.1474118 0.21783973
000190 3f b1 d8 3e 7b 2a af 3c 97 ff 83 be d7 9a 12 3e
       0.42322728 0.021382561 -0.25780937 0.14316879
0001a0 84 dc a9 be e1 00 a9 3d fb 11 dd 3d cc 0b 5c 3d
       -0.33176053 0.08252121 0.10794445 0.053722188
0001b0 39 a1 97 3d 54 73 18 bd 76 eb 45 bc 4d a2 14 3d
       0.07403798 -0.03721936 -0.012080064 0.036287595
0001c0 e4 62 16 be 24 7e 1c bd 57 ba 72 be 06 c9 a2 bc
       -0.14686161 -0.038206235 -0.23703896 -0.019871246
0001d0 24 63 5a bd 52 1d d9 3d cb 15 22 3e b8 8e 85 3c
       -0.053317204 0.106012955 0.15828626 0.016303405
0001e0 af 98 82 3e 2a 0c 88 bd 3d af f7 bd 22 1a 0a 3e
       0.25507113 -0.06642945 -0.12093971 0.13486531
0001f0 da 43 bd 3d 88 5f 9a bd ce 87 ac 3d 12 c9 db 3d
       0.09241457 -0.075377524 0.0842434 0.107317105
000200 85 95 e8 3d 5c 82 ef bd 5f e2 b3 3d 08 72 5e 3e
       0.113566436 -0.11694786 0.08783411 0.21723187
000210 e2 c3 b2 3d 73 9f 9c bd 9c 98 77 3d 30 ae ca 3d
       0.08728768 -0.076476 0.060448274 0.09896505
000220 f6 ab 9a 3d 6d 9e 83 bd 48 a0 aa 3d cf 4a 0a 3f
       0.0755233 -0.06426702 0.083313525 0.540204
000230 f0 15 ca bd 9b 02 fd bd d4 68 fa 3c 9a df a9 bd
       -0.098674655 -0.123540126 0.030567564 -0.08294602
000240 06 c2 2e 3e a7 0f 20 3d e6 0a 24 3d d3 8a b1 3e
       0.17066202 0.039077427 0.040049456 0.34676227
000250 ed 29 bf 3e b2 29 5b bc 5d 67 bb 3e 3d 5b cc bc
       0.37336674 -0.01337664 0.36602297 -0.02494585
000260 05 07 b1 3e 0a a5 01 be 0e dd 47 3d 07 c8 81 3d
       0.34575668 -0.12660614 0.0487948 0.0633698
000270 7c f1 d0 bc 8c 80 47 bf 94 02 eb be c3 fd 0e 3e
       -0.025505774 -0.7793052 -0.45900404 0.1396399
000280 a1 1c b9 3b c7 47 cd 3d f8 df c5 3b c2 12 a3 bd
       0.005649165 0.10023456 0.006038662 -0.07962562
000290 83 d1 2e be 2f a2 37 bc 58 51 48 3e a5 ba d6 3d
       -0.1707211 -0.011208101 0.1956228 0.10484818
0002a0 31 35 1e 3c 2b a9 dc 3c 0f a0 c0 3e 1b 13 1c bd
       0.0096562365 0.026936134 0.37622115 -0.038104158
0002b0 39 53 21 3d 89 d9 92 3e 9f 35 51 3e 9e d1 cf 3d
       0.039386008 0.2868159 0.20430611 0.10147403
0002c0 d7 6a 29 3a fa de 42 3e a8 db 07 bd 37 f4 8b be
       0.0006462759 0.19030371 -0.033168465 -0.2733476
0002d0 9f 47 82 3d 6f f5 0e 3f 81 3c 8e be 7a 5e 30 bd
       0.06361317 0.5584325 -0.27780536 -0.04305885
0002e0 03 6c 91 bc a2 0b 57 bd 69 4f 71 bd 57 ef 01 3d
       -0.0177517 -0.05250133 -0.058913622 0.031722393
0002f0 78 f8 0d 3e 02 01 68 bc 59 c1 8c bd e8 92 fd be
       0.13864315 -0.0141603965 -0.06872816 -0.49526143
000300 8e 66 dd be 21 84 8d 3d 92 9d 85 bd 64 a0 0b 3d
       -0.43242306 0.06909967 -0.06524195 0.034088507
000310 6e 11 59 3d cb b9 e6 be 1d 1e 1f 3f 88 85 2e be
       0.052995138 -0.45063624 0.62155324 -0.17043126
000320 fe 93 85 3e fa 32 03 3e 78 a2 ae 3e 6a 25 43 be
       0.26089472 0.12812415 0.3410833 -0.19057241
000330 ee f9 36 bb e3 5c 45 3e 0d 87 7c bf a3 3d 38 be
       -0.0027919966 0.19273715 -0.9864357 -0.17992263
000340 71 7f a5 bd 39 c7 b3 3d fe 9e 87 3e 38 a5 35 bb
       -0.08080948 0.08778233 0.2648849 -0.0027716886
000350 6c d6 b1 bc 7d 4e 37 3d a1 71 ec 3c 43 7c f2 bd
       -0.02170869 0.044752587 0.028862776 -0.11840107
000360 d6 d1 1b be d4 12 06 be 1a 83 19 3d da c9 e9 bf
       -0.15216765 -0.1309312 0.037478544 -1.8264725
000370 2e 34 f2 bd 3a 12 ed 3d ba 0e 41 3d 3c cf 94 be
       -0.11826359 0.11575742 0.047133185 -0.29064357
000380 13 87 2a 3e b5 64 3a be 9a 81 69 3d 57 2e a0 bc
       0.16653089 -0.18202479 0.057008363 -0.019553347
000390 d1 f0 fb bc bf 07 8f 3d 11 5d a9 3e 3b 32 bf 3d
       -0.030754479 0.06983899 0.33078817 0.093357526
0003a0 40 c7 38 3c 9a cf b1 bc 50 32 b3 3e 10 d8 ec 3c
       0.011277974 -0.021705437 0.34999323 0.02891162
0003b0 45 b3 83 be ce 90 91 bd 36 58 8c 3e 4a 38 7c bf
       -0.2572271 -0.071076974 0.2741105 -0.9852339
0003c0 60 fa bd bd 67 43 09 3e 2d 71 48 3d 42 19 be bd
       -0.09276271 0.13404618 0.048936058 -0.09282161
0003d0 69 4b 65 3e e3 8e 91 be 54 82 a9 bd fe c7 7d 3c
       0.22392048 -0.28429326 -0.08276811 0.015489576
0003e0 9c c7 3b 3e 5a c8 9d 3d 58 0d cb 3d da ee a1 bc
       0.18337864 0.0770423 0.099146545 -0.019767214
0003f0 05 5a 15 be 6f 27 e8 bc 08 4f be bc 1e 68 7f bd
       -0.14585121 -0.028339116 -0.023231044 -0.062355153

model.2.bias f4 [128]
000000 e4 21 9b 3e f2 52 8b 3e 06 7e 83 3e 03 85 70 3e
       0.30299294 0.2721172 0.25682086 0.2348824
000010 55 ed b0 bd 09 22 ad bd 02 0a 51 3e 92 0e 1b 3d
       -0.086390175 -0.08453757 0.20413974 0.037855692
000020 9a 9c 79 3e 7f 80 62 bd 08 09 7e bd 95 fd 21 be
       0.24376145 -0.055298325 -0.06202033 -0.1581939
000030 40 fc 7b 3e c1 46 b5 3a 73 40 4d be 7a e0 70 bc
       0.24607944 0.001383029 -0.20044117 -0.014701957
000040 10 fb 14 bc c8 db a8 3d b8 62 b3 bd ed 68 33 bd
       -0.009093061 0.08245045 -0.087590635 -0.043801237
000050 54 14 d9 3c 84 40 22 3e ef fd a7 3b de bf 48 3e
       0.026498951 0.15844923 0.005126707 0.19604442
000060 c9 81 95 3d a3 42 6b 3e c2 b5 55 3e d6 6b 3d bd
       0.07300145 0.22974639 0.20870116 -0.04624542
000070 56 99 99 3e 9a 8c cd bc bc bb d3 3e 84 cd 84 bd
       0.299998 -0.025091458 0.41354167 -0.064845115
000080 5e 43 01 3f 66 ea ac bc 10 37 a4 bc ff 90 88 bd
       0.5049342 -0.021107864 -0.020045787 -0.06668281
000090 a3 79 86 3b bf 16 41 3d 69 d1 6f bc f6 7d 59 bd
       0.0041038557 0.047140833 -0.01463733 -0.05309864
0000a0 c6 e4 08 3e 45 b5 32 bc 4f e6 8a 3d e3 14 6a bd
       0.1336852 -0.010907476 0.06782209 -0.057148825
0000b0 fd b3 a9 bd 6c db 29 3d 55 f6 2d 3c 64 1a 1d 3e
       -0.08286283 0.041469023 0.010617812 0.15342098
0000c0 6c 52 2e 3e 1e 19 37 3e 19 16 48 3c 0e 40 b5 bc
       0.17023629 0.17880675 0.0122123 -0.02212527
0000d0 ab af 3b bd 98 44 96 bc 48 e1 33 3e c6 30 5a 3c
       -0.045821827 -0.018343255 0.17566407 0.013317293
0000e0 5d 47 2b bd f7 4b 20 3e c6 35 0f 3f 28 30 03 bd
       -0.041816104 0.15653978 0.55941427 -0.032028347
0000f0 ef 68 65 bd 60 27 51 3e c0 f5 91 be ee 6a 65 3d
       -0.056008276 0.20425177 -0.28507805 0.05601018
000100 ce df 3a 3e f5 2a 91 3e ae 6c d4 3e c2 6c ca bd
       0.18249437 0.28353086 0.41489166 -0.09884025
000110 dc ad 42 3e a1 22 1b bd c2 e7 49 3e 5a 89 cf 3d
       0.19011635 -0.03787482 0.19717315 0.101336196
000120 27 a2 9b bd 7c d6 e7 bd 85 95 23 3f ad 4c 60 be
       -0.075992875 -0.113202065 0.63900024 -0.2190425
000130 d6 71 d3 bc dd c6 b5 bd 14 22 13 3e 3c 85 f0 bc
       -0.025811117 -0.08875821 0.14368469 -0.029360406
000140 77 ca 70 3b 3a 23 ab 3e e0 57 89 bc fe f9 67 3d
       0.0036741772 0.33425313 -0.016765535 0.056634896
000150 44 d5 90 bd 59 97 ac 3e db 71 4a 3d 42 16 b9 bd
       -0.07071927 0.3370922 0.049424987 -0.090374485
000160 91 b1 48 3e 4b 42 a5 3d 50 85 12 3e 40 40 6f bd
       0.19598986 0.08069285 0.14308667 -0.058410883
000170 88 41 6e 3e 01 9d d9 bb ab 21 f9 bc 55 ef 9d 3e
       0.23267186 -0.006641031 -0.030411562 0.30846658
000180 91 aa 6f 3e 42 b4 44 3c 7e 1a 80 bd 0c 9b e3 3c
       0.2340491 0.012005867 -0.06255053 0.027783893
000190 8c b4 a3 3e cc 1c 2e 3e dc 7e b8 3d 32 c3 37 3e
       0.31973684 0.17003173 0.090085715 0.17945555
0001a0 ab fd d1 bd c2 d6 48 bf 74 8a 58 bd 05 d2 27 3e
       -0.102534615 -0.78452694 -0.052866414 0.1638871
0001b0 8d e0 aa 3d 28 15 01 3f 2e af b4 3e 65 1f 5d bd
       0.08343611 0.50422907 0.35289901 -0.05398502
0001c0 2a ac a4 3e 9f f9 cb 37 ef 95 79 3e aa 30 07 3d
       0.321626 2.4315725e-05 0.24373601 0.033005394
0001d0 f7 72 0f be 1c 6c b6 3d a2 4e 17 3f e4 09 c2 3d
       -0.140087 0.08907339 0.5910436 0.09474543
0001e0 b0 5e 46 3e 36 da 01 3f 93 42 12 bd 5e 07 91 bd
       0.19372058 0.5072359 -0.03570802 -0.07081483
0001f0 68 84 3d bd dc 45 d0 bc 12 24 53 3d 93 c1 18 bc
       -0.04626885 -0.025423937 0.05154807 -0.009323495

model.4.weight f4 [64, 128]
000000 be e8 bd bc 0d f4 bd bd be 2c 9a 3e 59 8e 42 be
       -0.02318227 -0.092750646 0.3011226 -0.18999614
000010 b3 fd fc bd 07 d6 2b bf 3a c0 04 3d e0 78 4e 3c
       -0.12353077 -0.67123455 0.032409884 0.012602061
000020 b4 87 08 bf 44 d1 08 3d 77 e9 a5 bc 32 1d ad be
       -0.53332067 0.033402696 -0.020252926 -0.33811337
000030 55 01 60 be 44 4f 46 bd e3 6a 9b be 0b 1a be 3d
       -0.21875508 -0.048415437 -0.30354986 0.09282311
000040 94 67 aa 3c 3c 3e 11 3d 6b 9d 0b bd 22 87 46 bd
       0.020801343 0.035459742 -0.034085672 -0.048468716
000050 d0 9f 04 3c 47 31 02 bf ac dd d1 3d fa 0c 2f 3e
       0.008094743 -0.5085644 0.10247359 0.17094794
000060 f9 fe 65 3e 3b f4 d3 3e 84 a7 4a 3e c1 d5 09 bd
       0.22460546 0.4139727 0.19790465 -0.033651117
000070 1e 5a 57 3d 82 95 56 3d 1e 42 01 3e 89 47 4e 3d
       0.052576177 0.052388676 0.12622878 0.05036119
000080 f4 2f 4c 3d 41 46 e6 bc 05 3b a8 3e 56 ae 28 3d
       0.04985042 -0.028109672 0.32857528 0.041181885
000090 88 08 72 bc e6 90 32 3e a2 b6 b7 3b c5 48 0b 3d
       -0.014772542 0.17438087 0.0056064883 0.034004945
0000a0 92 e5 2a 3e 7d 7f c5 bd c5 37 0d be 21 3f 99 bc
       0.16689137 -0.09643457 -0.13790806 -0.01870686
0000b0 df 59 02 3c f4 63 1e bf 85 90 27 bc 06 90 d4 be
       0.007955997 -0.61871266 -0.010227327 -0.4151613
0000c0 96 87 ca be 9b 71 96 bf d7 98 26 bd 0c c1 ea b9
       -0.3955657 -1.175342 -0.040673103 -0.0004477579
0000d0 47 70 5c 3d 3e cf 7f 3d a6 b3 f7 3d 75 31 3a 3b
       0.053818014 0.0624535 0.12094812 0.0028410826
0000e0 05 7c c4 bc 31 69 db bc d2 47 8a bf 87 04 9d bc
       -0.023984918 -0.026783558 -1.0803168 -0.019167198
0000f0 3e 32 85 3d 57 e2 cc 3c da b9 01 3f fa 5c 7e 3e
       0.065037236 0.025010271 0.5067421 0.24840155
000100 8d 9a 4f 3d 3b 46 9a 3d de 04 e6 3d ea 11 e4 bc
       0.0506845 0.07532927 0.11231397 -0.027840573
000110 db 42 7b be df 13 e2 bc 94 2c 14 be c1 d9 04 3f
       -0.24537222 -0.027597366 -0.1447013 0.51894766
000120 05 82 11 3d 95 03 9c 3f e8 8f ba 3d bf 75 80 bd
       0.035524387 1.2188593 0.09109479 -0.06272458
000130 57 a1 87 bd 65 14 a1 3c f7 4a d1 3e bc 15 f6 3d
       -0.0662257 0.019663045 0.40877506 0.12015864
000140 54 c5 76 3c f7 41 1c be bd ec 66 3d 1c 4c 89 3e
       0.015061695 -0.15259539 0.056378115 0.2681588
000150 b8 ee b4 3d 4b f8 ac be 8e 68 83 be 5f 29 96 3d
       0.088345945 -0.33783183 -0.25665706 0.0733211
000160 61 af 82 3d c7 16 de 3c a5 c6 24 bf e4 68 1d bd
       0.06381107 0.02711047 -0.6436561 -0.03843011
000170 a8 c1 e7 bd e8 f3 b1 3d 24 b6 ad 3f 5a ba 24 be
       -0.11316234 0.086890996 1.357121 -0.16086712
000180 cf 3b 6e be 64 8e 95 3d 2b fd 82 be c4 52 25 bd
       -0.23265003 0.073025495 -0.25583777 -0.040362135
000190 ba 00 9a bc 68 25 c8 3d d1 e4 40 3d f3 ae 2f 3e
       -0.018799175 0.0977276 0.047093216 0.17156582
0001a0 64 18 22 bd 12 7a cb be 48 c0 26 bd 97 44 2a 3d
       -0.039574042 -0.3974157 -0.040710717 0.04156932
0001b0 57 80 6e 3d 8c bc af be 3c 73 c5 3e f8 69 b8 3c
       0.058227863 -0.34323537 0.3856448 0.022511467
0001c0 a0 4c 79 3e 32 1c 1f 3e 17 a5 a8 3e b2 84 2b be
       0.24345636 0.155381 0.32938454 -0.16749838
0001d0 c7 5a 25 bc b2 96 bb bc af 60 8d 3e 87 52 2b 3e
       -0.010092444 -0.022899006 0.27612826 0.167307
0001e0 70 fa 92 3d 9c 37 e5 3c 7d ba 00 3d ea 9b 2f bd
       0.071766734 0.027980618 0.03142785 -0.0428733
0001f0 a0 ce 54 bd 94 99 f7 bc c9 0d 20 be 41 80 79 bd
       -0.051954865 -0.030224599 -0.15630259 -0.060913328
000200 92 1a 6b 3c 52 46 64 3d f1 6a 40 3c 1d 1b 7b bc
       0.014349597 0.055731125 0.011744247 -0.0153262885
000210 e1 39 9a bc 9c 10 ca 3d e8 a8 e1 bb ed 59 00 3c
       -0.018826427 0.09866449 -0.0068865903 0.00783394
000220 66 2e 61 3d c8 29 06 bd 8f 4b 87 bd 43 ec 77 3d
       0.05497589 -0.03275469 -0.066062085 0.06052805
000230 23 f4 33 3d 34 25 aa 3c c4 57 c2 bd c6 35 41 3d
       0.043934 0.020769693 -0.09489396 0.047170423
000240 09 57 a3 bc bb 28 b5 bd 7a db 7b bd 1a 6b 8d 3d
       -0.019938963 -0.08845659 -0.061488606 0.069051936
000250 44 66 a8 bd f0 c9 ab bd bf 3c 88 3d 43 35 67 3d
       -0.082226306 -0.08388126 0.066522114 0.05644728
000260 6e 95 9a 3c a9 5a 6f bd a3 7f c5 bd 60 91 da bb
       0.018870082 -0.05843607 -0.096434854 -0.006670162
000270 79 47 e1 bb da 06 41 bd 1c 80 34 bd 5e 85 3a 3d
       -0.0068749753 -0.047125675 -0.044067487 0.045537345
000280 6a 98 8d bd 4e 02 4d bd 05 0f 00 bd a6 e6 b2 bd
       -0.06913836 -0.050051026 -0.031264324 -0.08735399
000290 fb 76 7b 3d f4 7f 1f bc b0 54 9d 3c fb b9 0e 3d
       0.061392765 -0.009735096 0.019205421 0.034845334
0002a0 a0 56 9a 3c 10 af 12 3d a9 e8 a6 bc 15 d3 9c 3d
       0.018840134 0.035811484 -0.020374613 0.07657448
0002b0 40 07 09 bc 64 c0 9c bd c1 b9 03 3d 8a 46 86 3d
       -0.008363545 -0.07653883 0.03215957 0.06556423
0002c0 2e ec 01 bd 10 5b 90 bc ea 00 54 3c f9 1d 9a 3d
       -0.03171938 -0.017621547 0.012939671 0.07525248
0002d0 80 05 a8 bd 7e cc 23 bd be ec 57 bd ae 17 93 bd
       -0.08204174 -0.03998994 -0.05271601 -0.07182251
0002e0 1f dd 7a bd 78 71 3c bc 35 6d b5 bd 12 4b 9f bd
       -0.061246034 -0.011501662 -0.0885872 -0.077779904
0002f0 34 b6 59 bd d5 ce 9d 3d 40 f5 3d 3d 77 64 ac bc
       -0.053152278 0.07705466 0.046376467 -0.021044
000300 a2 8d b2 bb 1a 2c 8a bd e7 53 1a bd 20 37 90 3c
       -0.005449013 -0.06746693 -0.03767767 0.01760441
000310 91 1c 2e bd 1d c7 c6 bd 9c 3e 99 bc b9 1d 9f bd
       -0.04250771 -0.097059466 -0.018706612 -0.07769341
000320 e0 a2 27 bb 24 2a e9 3c dc 40 70 bc aa 23 d7 3a
       -0.0025579259 0.028462477 -0.014663901 0.0016413827
000330 42 0a 83 bd 36 4a 5d 3d 4c 72 3b bd 13 61 80 3c
       -0.06398441 0.05402585 -0.0457633 0.015671289
000340 06 23 18 3d b1 5e ed 3c 35 a1 25 3d 86 a7 6e 3c
       0.037142776 0.028975816 0.040436942 0.014566308
000350 e0 4f 3a bd f2 c0 66 3d 15 87 ab bd 83 a8 80 3d
       -0.04548633 0.05633635 -0.08375374 0.06282141
000360 4e 21 98 bc f3 a6 92 bd 56 f8 13 bd 68 fd f1 bc
       -0.018570568 -0.07160749 -0.036125503 -0.029539779
000370 3a 60 54 bd ee ca 39 3d 38 ae 13 bd ef b7 61 3d
       -0.05184958 0.045359544 -0.03605482 0.055107053
000380 30 d7 86 bd 0e 95 40 3d 31 ef ad bd ea 4d 97 3c
       -0.065840125 0.04701715 -0.08492888 0.01846977
000390 ac e1 ba bd 7c 8a 88 bd b8 ea a8 bd 3c ef 71 3b
       -0.09125075 -0.06667039 -0.08247894 0.0036916276
0003a0 ad 76 87 3d 30 d1 ba bc 22 47 71 3d 45 86 65 3d
       0.066144325 -0.022804826 0.05890573 0.056036253
0003b0 66 d0 b8 bd c0 22 1e bd 51 1a cd bd 91 8c bc bc
       -0.09024124 -0.03860736 -0.10014785 -0.023016246
0003c0 67 00 a1 bd b7 38 06 3c 60 61 a1 3c 7c 1a 3e bd
       -0.07861405 0.008192233 0.019699752 -0.046411976
0003d0 b0 cc 66 bc 80 50 ca bd 98 66 90 3b 5e a5 f0 bc
       -0.014086887 -0.098786354 0.0044067614 -0.029375728
0003e0 dc 0f 74 3d a8 48 55 bd d7 54 48 bd 18 2c 2f bd
       0.059585437 -0.052071244 -0.048909035 -0.04276666
0003f0 f6 ec 35 3d 54 d1 c8 bc 01 b8 80 3b 2e 6f 5b 3d
       0.044415437 -0.024513878 0.003928185 0.053572826

model.4.bias f4 [64]
000000 5d 41 82 bd aa a6 c4 bb 6e c6 9f 3d 2a 55 a8 3d
       -0.06360123 -0.006001313 0.07801519 0.08219369
000010 97 57 c9 3e 40 db 04 3f f6 f4 d7 3e 54 c4 8a bc
       0.39324638 0.5189705 0.42179078 -0.01693932
000020 9e ff 0a 3f 75 fc 96 3b 87 cc 10 3f 5e b4 31 be
       0.5429629 0.004607732 0.56562084 -0.17353961
000030 ba 7f c5 3e 25 76 b1 bd 39 f4 4c 3e 5c c6 d1 bc
       0.3857401 -0.086651124 0.20015039 -0.02560728
000040 9c d8 aa 3b 43 d1 0f 3f d3 34 dc bd f1 66 9f 3b
       0.00521381 0.56178683 -0.10752263 0.0048645665
000050 31 6f e2 3e 76 36 c1 be 3e ef 9e 3e 1d 18 6d 3b
       0.44225457 -0.37736863 0.31041902 0.0036177703
000060 fd 05 7e bd eb 77 99 bd d6 9e 8d bb 86 9d 23 3f
       -0.06201743 -0.07493576 -0.0043219132 0.63912237
000070 1b a8 17 be 7d 6d 9b 3e ae 4d 42 bd 65 65 fc bd
       -0.14810221 0.3035697 -0.047437362 -0.12324027
000080 29 8e 53 3e 77 00 fe bd 80 49 ae bd b7 7b 97 3d
       0.20659699 -0.124024324 -0.08510113 0.073966436
000090 2c 08 3b 3c 13 a4 fa 3c 52 84 05 be ee b4 d6 bc
       0.011415523 0.030595815 -0.13038757 -0.02620932
0000a0 36 36 03 3d 16 87 72 3e 7e e4 b8 bd 12 bc 54 3e
       0.03203412 0.23684344 -0.090279564 0.20774868
0000b0 50 d1 bd bd 20 ad 20 3f 65 a3 f9 bd 68 d9 9f 3e
       -0.09268439 0.6276417 -0.12189368 0.31220555
0000c0 a7 ed 89 3e fc 3f c2 bd 9e f9 01 3d 6c e5 ad 3e
       0.26939127 -0.0948486 0.031732194 0.33964097
0000d0 b6 e7 a2 3e 54 53 48 3e 2e 21 6d 3e 5d f1 63 bb
       0.31817406 0.19563037 0.23157188 -0.0034781315
0000e0 df 4a 2c bd a4 55 8f bd d1 4e b3 bd aa 41 05 3e
       -0.04206359 -0.069987565 -0.087552674 0.1301333
0000f0 7e 70 02 bd cf 0d 02 be 4b 48 20 bd cb 92 e7 3b
       -0.031845562 -0.1270058 -0.039131444 0.0070670596

model.6.weight f4 [32, 64]
000000 eb 6f 8b 3d c8 a2 5d bd 18 9d 5a bb 8b cc ea bd
       0.06808456 -0.05411032 -0.0033357795 -0.11464795
000010 2e 43 32 be b3 e1 34 3d 90 68 3b 3d fb c2 c3 3d
       -0.1740844 0.044160556 0.045754015 0.09558674
000020 c4 8b c3 3c 59 59 f9 bb 24 d9 ca bc c5 fc 49 bd
       0.023870356 -0.007609528 -0.024761744 -0.049313325
000030 3a cf 9d bd e4 7c a3 bd 58 a6 58 bd e2 ca b9 bd
       -0.07705541 -0.07982805 -0.052893013 -0.090719
000040 4f da 91 bd 33 0c 2b be 80 a0 2d bb ad 9d 90 3d
       -0.07121717 -0.16703872 -0.002649337 0.07061324
000050 b8 70 16 be 73 7e 1e 3e bf 26 73 3d 93 8f 66 3d
       -0.14691436 0.15477924 0.059363123 0.056289267
000060 ad 9e 85 bd 01 ec 20 be 37 0d ed bc d3 e9 9a 3c
       -0.06524406 -0.15715028 -0.028936965 0.018910324
000070 de f2 7b 3d 00 ce 1a be 59 57 fa bd 2f b7 d4 3d
       0.061510913 -0.15117645 -0.122236915 0.10386502
000080 cc 85 e2 3d 08 e0 2e 3d 1f c5 61 3d d7 5f e9 bd
       0.11060676 0.04269412 0.05511963 -0.11395233
000090 cd e2 2b bc 4d 67 69 bd e4 93 17 be 77 eb 2a be
       -0.010491085 -0.05698328 -0.1480251 -0.16691385
0000a0 4c 0c 1a 3d 83 07 f9 bb e0 c4 eb 3b 2b e5 20 be
       0.037609383 -0.0075997724 0.0071951 -0.1571242
0000b0 28 18 8f 3c 78 0d d7 bd 9b d1 ca bd bd 0a 24 bd
       0.017467573 -0.10500616 -0.0990326 -0.040049303
0000c0 12 5e dd bd d9 3d c2 bd ba db 2f 3d ea e3 a8 bd
       -0.10808958 -0.09484453 0.042934157 -0.08246596
0000d0 17 22 55 be 12 be 3f bd 72 90 07 be 9b 67 78 3c
       -0.20813785 -0.046812125 -0.13238695 0.01516142
0000e0 d6 59 72 bd cc 05 f8 bd 46 12 61 bd 3e d1 45 3d
       -0.059167705 -0.12110481 -0.054949068 0.048295252
0000f0 bd a8 0c bd 24 cf 9d bd f4 cf c5 3d 47 a0 be 3d
       -0.03434061 -0.077055246 0.096588045 0.09307914
000100 82 1b 94 bd aa a7 e1 bd 42 42 90 be 3a 5d 17 3e
       -0.07231809 -0.110183075 -0.2817555 0.14781657
000110 46 b6 cd 3e f7 34 9a be 60 2b a2 be 30 11 d0 3d
       0.40178126 -0.30118534 -0.31673717 0.10159528
000120 bf fa d5 be 25 7f f9 bd 59 4b a6 bd 80 95 0a be
       -0.41792867 -0.12182454 -0.0811984 -0.13533592
000130 69 26 00 3f a7 cc 81 3d 18 3f a3 bd 83 5a 42 3e
       0.5005861 0.063378625 -0.079710186 0.1897984
000140 80 9a 5e bc 1a 8e 2d 3e e6 f9 f3 3d b0 a9 9a 3d
       -0.01358664 0.16948739 0.11912899 0.075518966
000150 d6 05 48 bd 0c 9c 51 3d bd e2 fc 3c b3 4d a9 3c
       -0.04883369 0.05117421 0.030869836 0.020666933
000160 f1 7d 8b 3e c7 a4 b3 3e 87 00 a8 bc 4f c0 9c 3e
       0.27244523 0.35086653 -0.020508064 0.3061547
000170 e9 51 9e bd 2b a7 54 be 6a f1 2e be 30 c4 7a 3d
       -0.07730467 -0.20766895 -0.1708428 0.061222255
000180 14 74 5d 3e 2f 1a b0 bd e0 30 09 bd cb 7a 0e 3d
       0.21626312 -0.08598744 -0.033493876 0.034785073
000190 da a4 0c 3e 2f 57 86 3d fc 93 61 be 65 82 14 be
       0.13734761 0.06559598 -0.22029108 -0.14502867
0001a0 22 44 a7 bd 00 74 8d 3e f8 34 5e 3d 90 49 60 3e
       -0.08167292 0.27627563 0.054249734 0.21903062
0001b0 f4 9a 18 be d4 42 00 3e f5 af 0e 3d e0 73 f4 ba
       -0.1490286 0.12525493 0.034835774 -0.0018650256
0001c0 f6 ad a9 be 38 d7 70 3b 6b bc ae 3d 12 65 34 3e
       -0.33140534 0.0036749374 0.085320316 0.1761668
0001d0 38 4d 9b 3d ad 13 31 3e b4 75 c6 3d bf 83 7a 3e
       0.07583088 0.17292662 0.09690419 0.2446432
0001e0 3f 50 ae 3e 8c 56 b8 3d 20 41 86 3d ab a9 3d 3e
       0.34045598 0.090008825 0.0655539 0.18521754
0001f0 a2 6d b2 bc dc 55 0a 3c 21 6c 06 be 0d 06 85 3d
       -0.021780793 0.008443322 -0.13127185 0.06495295
000200 39 37 c3 bd e6 88 e2 bc 5a 37 47 be 5f ba 15 3d
       -0.09532017 -0.027653169 -0.19454709 0.03655469
000210 07 9e 86 bc ec 69 19 3e 61 12 18 3e a9 be d9 bb
       -0.016432775 0.14981812 0.14850761 -0.006645043
000220 48 d7 65 3e e5 f0 30 3d 5c 88 10 be 86 4a e1 bd
       0.22445405 0.043198485 -0.14114517 -0.11000542
000230 12 07 3f 3e 6f 20 d7 3d 0a f5 2d be 71 ed 0c 3e
       0.18655041 0.10504233 -0.16988006 0.13762452
000240 f8 39 f5 3d 7c 4c d6 3b af 38 95 3d 59 9d c1 3d
       0.11973947 0.0065398794 0.07286202 0.0945384
000250 82 84 b9 3d dd f0 47 3e b0 a8 1f 3c 8a f6 b5 bd
       0.09058477 0.19525476 0.009744808 -0.08884914
000260 7b fb 44 3d 50 82 54 bc 3d 88 e9 3d 2e d9 ba bd
       0.048091393 -0.012970522 0.114029385 -0.09123455
000270 a5 58 94 3d 87 17 83 3d 92 05 17 bc 1b 08 d4 3d
       0.0724347 0.06400972 -0.009217637 0.103531085
000280 29 b6 40 3e dc 56 81 3d 61 76 be 3c de 1f 03 be
       0.18819489 0.06315395 0.023249807 -0.12805125
000290 97 91 c6 bc 47 85 c0 3c 19 0e 6e bd 34 26 e2 bd
       -0.024239345 0.023501052 -0.058118913 -0.11042443
0002a0 5a f7 40 3c b0 bd 24 3c 12 65 02 3d 90 ca 44 be
       0.011777723 0.010054991 0.03183467 -0.19217896
0002b0 78 51 d9 ba 17 49 21 be 71 71 a3 bc 0a f5 be 3c
       -0.0016580066 -0.15750538 -0.019951554 0.023310203
0002c0 3e 2f e8 3d 77 bd c1 bd 4b 56 82 3c 95 a7 fc bd
       0.11337136 -0.09459966 0.015910288 -0.12336651
0002d0 7c fa ce 3c 15 85 fa bd 0e a1 48 bd 35 b1 cb 3c
       0.025265925 -0.12232415 -0.04898172 0.024864772
0002e0 6f de 29 be ec 57 0b 3d 91 db bd bc e1 a1 a7 be
       -0.16588758 0.034019396 -0.023175986 -0.3274069
0002f0 dc 74 83 3d e0 f7 84 bd 6f 40 54 3d 69 ee bd bc
       0.064187735 -0.06492591 0.05181926 -0.023184972
000300 7d 7f 31 3e 91 69 8d bc ea a2 ee bd 8c 99 d4 ba
       0.17333789 -0.017262252 -0.11652167 -0.0016220077
000310 b7 c0 b0 3e c0 47 09 bf ba cf ba be 48 30 a5 3c
       0.3452203 -0.53625107 -0.36486608 0.020164624
000320 a8 b1 c5 bc 53 89 e4 3d 7b fb 8b bf 51 68 b1 3c
       -0.024132565 0.11159005 -1.0936121 0.021656187
000330 aa 2f 36 3d c3 b7 3c 3d 73 a2 97 3d 0f ba 98 bd
       0.04447905 0.046073686 0.074040316 -0.07457363
000340 75 40 bd 3d 6b 9d bf bd 56 94 03 bd 0a e6 52 be
       0.0924081 -0.09356197 -0.032123886 -0.20595565
000350 84 50 9e be 76 e6 d2 3e 30 19 3c 3c f1 3d 32 bd
       -0.30920804 0.41191453 0.011480615 -0.043516103
000360 95 40 ac 3c 9f 60 ec 3d 1e c6 11 3e e6 d0 4a bd
       0.021026889 0.115418665 0.14235732 -0.049515627
000370 13 5d 36 be f4 85 a9 3c ef d4 36 be a0 84 1d be
       -0.17808942 0.020693757 -0.17854665 -0.15382624
000380 9e 76 d1 3e 9a 44 97 3c 7f 8e d5 bd e1 83 1f be
       0.4091081 0.018465329 -0.104275696 -0.15577652
000390 8a 9c d8 bd 2c 0f 80 bd b4 bf 2c be 7d 7f 8a be
       -0.105767325 -0.06252894 -0.16870004 -0.2705039
0003a0 81 ca 94 3d b0 9e 8d be f6 d6 6d 3c fb 89 f1 3c
       0.07265187 -0.2766013 0.014516583 0.02948474
0003b0 6f 39 9f bd 80 91 2b bf bb 70 d4 bd ea ce 90 3d
       -0.077746265 -0.6701889 -0.10373064 0.07070716
0003c0 9e 7d 99 bd 74 fe 68 3c 7b b0 3d 3d 84 d8 fc bc
       -0.07494663 0.014220823 0.046310883 -0.030864961
0003d0 23 99 7f be cf 3a 14 be a5 10 2e be d5 54 70 be
       -0.24960761 -0.14475559 -0.16998537 -0.23469861
0003e0 54 3b 12 be f1 55 7c bd ef 7b 04 3e 1f b9 2d bf
       -0.14280444 -0.061605398 0.12937902 -0.678606
0003f0 ae 5d f8 3d db 9b 30 3d d0 d7 0f 3d 48 9d f6 bd
       0.12127243 0.043117385 0.035117924 -0.12041718

model.6.bias f4 [32]
000000 68 7e 30 3d 76 ae 0c 3f 2d 42 21 3e 16 ba 3c 3d
       0.0430893 0.54953706 0.157479 0.046075903
000010 82 0c 81 3d b0 ae 3d 3f ea 14 1a 3e 5b 7c eb 3e
       0.06301214 0.74094677 0.1504704 0.45993313
000020 b1 3e d1 3e 76 aa 30 3e 51 49 10 3f 12 f5 d2 3e
       0.40868142 0.17252526 0.5636187 0.412026
000030 8a 55 a3 bd e2 75 72 3f 74 b0 b5 bc bc 5d 1b 3e
       -0.079753 0.94711125 -0.022178866 0.15172476
000040 17 f2 c8 3e 07 ee eb 3e ea 48 04 3e 0a 29 aa 3e
       0.392472 0.46080038 0.1291844 0.33234435
000050 56 71 d9 3e fc 1d 62 3e 31 55 33 be d3 88 b4 3e
       0.4246928 0.2208175 -0.17512967 0.3526064
000060 81 f5 a7 3e 70 02 d1 3e 28 6e 61 3d b9 bb 0d 3f
       0.32804492 0.40822172 0.055036694 0.5536457
000070 f4 04 8d 3e 8f d8 50 3e 71 71 64 3d 89 68 e7 3e
       0.2754284 0.2039511 0.05577225 0.45196941

model.8.weight f4 [10, 32]
000000 79 69 d6 3d 8e 89 84 3e ce 04 ac be 28 cf 63 be
       0.10469336 0.25886196 -0.33597416 -0.22246993
000010 c1 1d 3a bd f8 88 b2 3d d6 66 be 3c 9f e1 aa 3c
       -0.04543853 0.08717531 0.023242395 0.020859538
000020 5b 39 4d be 68 4b c3 bd b3 a5 84 3e 78 ac 50 3c
       -0.2004141 -0.09535867 0.25907668 0.012736432
000030 31 ed a3 3c 73 d6 84 3d a7 58 30 3e c5 49 6b 3e
       0.020010563 0.064862154 0.17221318 0.2297736
000040 83 86 a8 3e ba 86 db be 56 97 fd 3b 6d 47 ec 39
       0.32915124 -0.42876226 0.007738988 0.00045066644
000050 ef 56 0c be ab d1 88 3e 72 80 aa 3d fb 87 4d 3c
       -0.13705038 0.26722464 0.0832528 0.012544627
000060 e8 4e e5 bd f4 ee 8f be ed e3 ff 3d c7 17 f6 3d
       -0.11196691 -0.28111994 0.12494645 0.12016254
000070 25 be 13 3e 84 78 64 3e 9c ae 38 bc f9 f0 76 be
       0.14428003 0.22311598 -0.011272099 -0.24115361
000080 1e 93 76 bd ef 4c a5 3e a6 c5 4d be 16 9e 01 bd
       -0.060198896 0.32285258 -0.20094928 -0.031644903
000090 f7 d1 32 3d 8e af 85 3e bc 0a 02 bd 0f eb 5c bc
       0.04365727 0.261105 -0.03174852 -0.013483777
0000a0 1c ce 89 be eb ac 60 be 3f 2c 35 3e da 7f 1b 3d
       -0.2691506 -0.21940963 0.1769266 0.037963726
0000b0 44 00 8f 3d 6a 5c e9 3d 0d 9d 02 be 66 bd 67 3e
       0.069824725 0.1139458 -0.12755223 0.22630844
0000c0 9e da 96 3e f0 7c ad be 86 48 da 3d 3f 5b 51 3e
       0.29463667 -0.33884382 0.10658364 0.20444964
0000d0 38 c1 40 be e8 a6 b5 3d 8d d9 6d bd f6 f3 9e 3d
       -0.18823707 0.088697255 -0.0580688 0.077613756
0000e0 13 7d 66 be 7f ca a2 be d6 a0 9b 3d 9a d9 f3 3d
       -0.2250865 -0.31795117 0.075990364 0.119067386
0000f0 9b 58 0b 3e 8d 23 44 3e b7 63 eb bd 46 9c 71 be
       0.13608019 0.19154187 -0.114936285 -0.2359477
000100 1c 63 05 3e be c9 00 3f 56 47 3e be c3 1a 2d 3d
       0.13026088 0.50307834 -0.185819 0.04226185
000110 3b d9 84 3c b0 61 77 3e b6 4b 8c 3d 4d 1d 1e 3c
       0.016216865 0.24158359 0.06850378 0.009650541
000120 82 e2 5f be 7d 3e f7 3d ee 4a 9e 3e 14 5a 51 3d
       -0.2186375 0.120724656 0.30916542 0.051111296
000130 d3 c3 06 3e 88 a5 a9 3d 98 61 22 3e 78 1a 76 3e
       0.13160639 0.08283526 0.15857542 0.24033535
000140 69 ae 88 3e 73 c1 b2 be bc 12 c7 bd 57 b7 8e 3e
       0.26695564 -0.34913215 -0.0972037 0.27874252
000150 0c 06 bf be 3b 5f 24 3e d1 3c 9f 3d 6c ef 5a 3d
       -0.373093 0.16051953 0.07775272 0.053450987
000160 4f 58 8e be 34 ac 88 be 77 a0 d8 bd e9 c4 5a 3d
       -0.2780175 -0.2669388 -0.10577481 0.053410444
000170 01 4a 6b 3d 2f 18 42 3e cd 0e d8 3d 4a 4a 3f be
       0.057443622 0.18954538 0.10549698 -0.18680683
000180 9a 66 29 3c 69 eb ad 3e 75 b5 64 be f1 63 25 be
       0.0103394035 0.33968666 -0.22334845 -0.16151406
000190 7c 57 38 3d bd 8c 6f 3d 44 af 3e 3e 76 58 76 3d
       0.045005307 0.058483828 0.18621546 0.060142957
0001a0 ee c1 7c be d7 b7 5f 3d bf de 93 3e a4 b9 a1 3c
       -0.24683353 0.054618683 0.2888088 0.01974184
0001b0 aa 7f 6c 3d f2 15 16 3e f1 b9 04 3e 54 b9 39 3e
       0.057738937 0.14656809 0.12961556 0.18137103
0001c0 bf 1c 6c 3e e9 ba 92 be c6 8d 9a bd c4 f6 18 3e
       0.23057841 -0.28658226 -0.075465724 0.14937884
0001d0 e6 96 d5 bd 3c 91 42 3e 91 44 fa bd f0 fa 90 3a
       -0.10429172 0.19000715 -0.12220109 0.0011061113
0001e0 a4 fe 90 be c7 44 c2 be dd fc 16 be 02 6e b0 3d
       -0.28319275 -0.37943098 -0.14744897 0.08614732
0001f0 86 46 9f 3c 87 5e 43 3e 94 ff c3 3b 5d b3 48 be
       0.019442808 0.19079028 0.005981395 -0.19599672
000200 e4 e9 15 be d8 77 60 3e 94 b8 5d be 55 6d d9 3d
       -0.14640003 0.21920717 -0.21652442 0.106165566
000210 b0 63 0d 3e e3 47 d4 3d a2 76 5d bd c7 f4 81 3d
       0.13807559 0.10365274 -0.054068215 0.06345516
000220 ef 11 83 be cb 4d 6b 3d 60 2c a0 3e e1 df 80 bd
       -0.2559962 0.057447236 0.31283855 -0.062927015
000230 37 c8 cd 3d 21 03 85 bc cf 79 21 3e de f0 6e bb
       0.100479536 -0.016236844 0.15769123 -0.0036459486
000240 a0 d7 cf 3e 2c 56 c1 be 2a 38 0b 3e a0 6b 15 3e
       0.40594196 -0.37761056 0.13595644 0.14591837
000250 4c 3c 79 be a2 c8 5e 3e 82 fb 07 be de c4 06 3e
       -0.24339408 0.21756223 -0.13279536 0.13161036
000260 b7 0c 65 be ba f2 7a be 0a 37 a4 bc 16 11 ab 3d
       -0.22368132 -0.24506655 -0.020045776 0.08352868
000270 1e 7c c2 bd 3b 47 5b 3e bd 69 e0 3d 08 88 88 be
       -0.0949633 0.21413891 0.10957668 -0.26666284
000280 3f e0 a1 3d 99 31 b6 3e 26 42 b8 be 1a 77 12 bc
       0.079041 0.35584715 -0.35987967 -0.008939529
000290 05 06 05 be eb 1d 7e 3d f1 92 38 3e 1c ed e9 bc
       -0.12990578 0.06204025 0.18024804 -0.028555445
0002a0 ab 29 83 be 9d 6f 19 3e cf 4e 4b 3e ff 9f ec bc
       -0.25617728 0.14983983 0.19854282 -0.028884886
0002b0 ba 63 87 3d 2e 9c ae 3b 46 b1 dd 3d d5 2b 98 bd
       0.06610818 0.0053286767 0.10824828 -0.07430235
0002c0 0e 16 b6 3e 97 39 90 be 73 61 a6 3d 73 94 72 be
       0.355637 -0.28168938 0.08124056 -0.23689441
0002d0 b7 e2 52 be 0a 35 63 3e 88 72 92 3c 88 e7 db 3c
       -0.20594297 0.22188202 0.017876878 0.026843801
0002e0 3d 75 8b be 55 03 8f be 54 bc d5 3a b8 09 e2 3d
       -0.27237883 -0.2793223 0.0016306737 0.1103701
0002f0 6a a2 76 3d d7 78 60 3e 1f 91 38 3e 9f a2 86 be
       0.060213484 0.21921097 0.1802411 -0.26295945
000300 63 f1 af bd a6 82 9a 3e fa 4d 06 be 6e a4 50 3d
       -0.08590963 0.30177802 -0.13115683 0.050938062
000310 87 20 0f 3d 15 c0 af 3d 01 ec 19 3e 0d 62 e5 3b
       0.03494313 0.085815586 0.15031435 0.007000214
000320 0a 99 71 be 0f 8a 96 3d 8f e4 7a 3e 86 d6 18 bb
       -0.23593536 0.07350551 0.2450125 -0.0023321225
000330 21 24 a3 bd 5e 22 93 bd dc 20 c5 3d d5 02 0a 3e
       -0.079658754 -0.071842894 0.09625408 0.13477643
000340 82 77 85 3e 48 19 c4 be 24 ff 44 3e 67 07 1a 3d
       0.2606774 -0.38300538 0.19237953 0.037604716
000350 e1 a7 1b be 87 6d ed 3d a0 dc 66 bd 92 59 a7 bd
       -0.1520076 0.11593156 -0.05636275 -0.08171381
000360 bb 8e c8 be fb e8 6a be d3 24 20 3d 69 0e ce 3d
       -0.39171395 -0.22940437 0.03909762 0.10061342
000370 bd 13 3b 3e 01 29 6f 3e 8d 3f a5 bb 23 d3 6c be
       0.18269248 0.23355485 -0.0050429762 -0.23127417
000380 36 1f af bd b1 80 af 3e 63 02 42 be 63 01 b0 3d
       -0.08550875 0.3427787 -0.18946223 0.085940145
000390 bf ed 32 3e d5 bb e0 bd 2e 78 6c bc aa 21 9a bb
       0.17473505 -0.10973326 -0.01443295 -0.00470372
0003a0 58 9a 33 be f9 47 85 bd 3d e5 9f 3e 3d 5c 81 3b
       -0.17539346 -0.06507868 0.31229582 0.0039477632
0003b0 5c 3c 87 bd f5 7f 1e 3c fd 0a be 3d 2c 83 13 be
       -0.066033095 0.009674062 0.092794396 -0.14405507
0003c0 e7 07 9e 3e 28 d4 59 be 79 ec 94 3d 1b 4a 22 be
       0.30865404 -0.21272337 0.07271666 -0.15848581
0003d0 41 a9 4a be 90 97 2f 3e ee 85 84 3d 65 1f e1 bc
       -0.19791128 0.1714766 0.064708576 -0.02748079
0003e0 38 14 84 be 6a 96 cd be 69 dd af 3d b9 c8 4f 3d
       -0.25796676 -0.4015382 0.085871525 0.050728533
0003f0 91 17 81 3c 29 b0 2e 3e 11 d6 1b be 80 a4 d2 be
       0.015758308 0.17059387 -0.15218379 -0.4114113

model.8.bias f4 [10]
000000 a9 90 80 be f5 ef cb be 8e e8 10 bf 22 53 1c bf
       -0.25110367 -0.3983151 -0.5660485 -0.6106435
000010 81 8e cc be 42 31 da bd b2 2c 25 be c8 47 20 3d
       -0.39952472 -0.106539264 -0.16130331 0.039130956
000020 70 27 f6 bd c4 d0 b4 3d
       -0.12019241 0.088288814
