checkpoints/checkpoint_step_3200.pth (torch, 200878 bytes, 10 tensors)

model.0.weight f4 [256, 21]
0	0x3df5074c	0.119642824
1	0xbd13fe28	-0.036131054
2	0x3d7c4870	0.06159252
3	0xbe07b213	-0.13251524
4	0xbea383ce	-0.31936496
5	0xbe1da39b	-0.15394442
6	0xbedda1ca	-0.43287498
7	0x3d503053	0.050827336
8	0x3d5edf1b	0.05441199
9	0x3d292daf	0.041303333
10	0xbe877e92	-0.26463753
11	0x3ce293b2	0.027658317
12	0x3e799a5e	0.24375293
13	0xbf443e70	-0.7665777
14	0xbe4f70e3	-0.20257907
15	0xbe8c38e9	-0.2738717
16	0xbce995b0	-0.02851376
17	0x3dcc00f6	0.09961121
18	0x3e1405ea	0.14455381
19	0xbef8a842	-0.4856587
20	0x3e9f481e	0.3110971
21	0x3cdc95d8	0.02692692
22	0x3c921f09	0.017837064
23	0xbe327918	-0.17429006
24	0xbda2514c	-0.079256624
25	0xbf931bb8	-1.1492834
26	0xbd9a0817	-0.07521074
27	0x3da3d522	0.07999636
28	0xbdb28059	-0.087158866
29	0xbe09d2c7	-0.13459311
30	0xbe9af477	-0.30264637
31	0xbcd698c9	-0.0261959
32	0xbd8909e1	-0.066913374
33	0xbeab4eb6	-0.3345849
34	0xbeafd3d0	-0.34341288
35	0xbe0065b3	-0.12538795
36	0xbcc2b5e4	-0.023768373
37	0xbd4bfeb1	-0.04980344
38	0x3e1e6c3e	0.15470979
39	0xbdae307b	-0.08505341
40	0x3e0aca98	0.13553846
41	0xbd923a5e	-0.07140039
42	0xbd61385e	-0.054985397
43	0xbe860c6a	-0.26181346
44	0x3e7df3eb	0.24800079
45	0xbcdbc23f	-0.026826022
46	0x3e0315ad	0.12801237
47	0x3dafff51	0.085936196
48	0xbef8bb3d	-0.4858035
49	0x3ddbc647	0.10731178
50	0x3e1be5dc	0.15224403
51	0xbe3011fe	-0.17194363
52	0x3d054d31	0.03254432
53	0xbf01457b	-0.50496644
54	0xbdea3215	-0.11435334
55	0xbe72eb14	-0.23722488
56	0xbe5d276e	-0.21597072
57	0x3db7146d	0.08939443
58	0xbea5d330	-0.32387686
59	0xbd42c9d1	-0.04755575
60	0xbdb568e6	-0.088578984
61	0xbe3da10c	-0.18518466
62	0xbdd5bff6	-0.10437004
63	0x3db551cb	0.088534914
64	0xbeee6cf8	-0.46567512
65	0xbd01f93e	-0.031731836
66	0xbe63ad1a	-0.22234002
67	0xc00bddab	-2.1854045
68	0x3d0cd238	0.034380168
69	0xbe50a531	-0.20375516
70	0x3d5d3d53	0.05401356
71	0x3c7ba58f	0.015359296
72	0x3b8f5111	0.0043736775
73	0x3c0bdcfc	0.0085365735
74	0x3e24a652	0.16079071
75	0x3d74d21b	0.059770685
76	0xbe10c344	-0.14136988
77	0xbd787d46	-0.060666345
78	0x3e66bfab	0.22534053
79	0xbbcc5fd7	-0.006237011
80	0x3e3e5e30	0.18590617
81	0xbdcf8961	-0.10133625
82	0x3e2d6260	0.16932058
83	0xbf2ef99c	-0.68349624
84	0x3e38234a	0.17982212
85	0xbe0fddb2	-0.14049414
86	0x3de685e9	0.1125601
87	0xbe26236b	-0.16224448
88	0x3d9b3cb9	0.07579941
89	0xbe674ac4	-0.22587115
90	0x3e8d497b	0.27595124
91	0x3dab6d47	0.083704524
92	0x3dcee86c	0.10102925
93	0xbd92b25b	-0.07162925
94	0xbddc5f5a	-0.10760374
95	0xbd50b833	-0.050956916
96	0x3def6d18	0.1169073
97	0xbe16a85d	-0.14712663
98	0xbe49343b	-0.1964883
99	0x3cdcbe3f	0.026946185
100	0x3e215207	0.15753947
101	0xbed4dd20	-0.41574955
102	0xbe06ade4	-0.13152272
103	0x3dd94883	0.10609534
104	0xbcb05f07	-0.021529688
105	0xbe5a5572	-0.21321657
106	0x3d9036c3	0.07041695
107	0xbe6e65a8	-0.23280966
108	0x3dc5cc83	0.09658148
109	0xbda6a67b	-0.081372224
110	0x3d98244c	0.07428798
111	0xbe88bc1d	-0.2670602
112	0x3b69d7d0	0.0035681613
113	0xbea06bce	-0.31332248
114	0xbdffe2ad	-0.12494407
115	0xba5e0fd7	-0.0008470988
116	0x3e794fc2	0.24346831
117	0xbd88923f	-0.06668519
118	0x3eb9e7fa	0.36309797
119	0xbe0f96a3	-0.14022307
120	0x3eb3d778	0.35125327
121	0x3d820a00	0.063495636
122	0x3e92d0c9	0.28674915
123	0xbe6138b0	-0.21994281
124	0x3e4bfd17	0.19920765
125	0x3dd77fdf	0.10522436
126	0xbf24ecd4	-0.6442387
127	0xbd800d94	-0.0625259
128	0x3e948048	0.2900412
129	0xbebbe4e0	-0.36698055
130	0xbf4a7101	-0.7907868
131	0xbe009bb6	-0.12559399
132	0xbe8ea0a2	-0.27856928
133	0xbea9eee5	-0.33190075
134	0xbec4387a	-0.38324338
135	0xbd65cea5	-0.056105275
136	0xbe8e5f8d	-0.27807274
137	0xbe904815	-0.28179994
138	0xbd9a3cd6	-0.07531135
139	0xbe4fc207	-0.2028886
140	0x3e2389f8	0.159706
141	0x3e286897	0.16446148
142	0x3de0943b	0.10965773
143	0x3dcbba1e	0.099476084
144	0xbe5691c8	-0.20954049
145	0xbdc69b20	-0.096975565
146	0xbdce5d1e	-0.100763544
147	0xbe11d10c	-0.14239901
148	0xbe03ad77	-0.1285914
149	0x3e4d4c3c	0.20048612
150	0xbe09e937	-0.1346787
151	0x3e500fd3	0.20318536
152	0xbd2b2b32	-0.04178924
153	0xbeb9297c	-0.36164463
154	0xbd7073b8	-0.058704108
155	0xc0a216ce	-5.065284
156	0xbcc1ac2f	-0.023641674
157	0xbd1d54fe	-0.038411133
158	0xbc00f5ff	-0.00787115
159	0xbd73dac0	-0.059534788
160	0xbd82dc98	-0.06389731
161	0x3d21c236	0.039491855
162	0x3d656b9d	0.05601083
163	0xbd38aab3	-0.045084666
164	0xbe2384df	-0.15968655
165	0xbd7168af	-0.058937725
166	0xbe50354f	-0.20332836
167	0xbe5839c9	-0.21115793
168	0xbca77ba1	-0.020444693
169	0xbe034b5d	-0.12821718
170	0x3d9a43f9	0.07532496
171	0xbe5f3a5c	-0.21799606
172	0x3d830c82	0.0639887
173	0x3b45786e	0.0030131596
174	0xbeb38a3b	-0.350664
175	0xbdd5c61b	-0.10438176
176	0x3e3ce9e5	0.18448599
177	0xbe97c866	-0.2964508
178	0xbea20c4b	-0.31650004
179	0xbeb724b8	-0.35770202
180	0xbc959748	-0.018260613
181	0xbd9ec0de	-0.0775163
182	0xbe2e6609	-0.17031111
183	0xbe98d641	-0.29850963
184	0x3c28c3a9	0.010300555
185	0xbd8e062b	-0.0693477
186	0xbe83a4af	-0.2571158
187	0xbd85eb14	-0.06538978
188	0x3cec0b3d	0.028813953
189	0x3e325a94	0.17417365
190	0xbe53dcc3	-0.20689683
191	0xbea780ed	-0.3271555
192	0xbd8fa927	-0.07014685
193	0x3e5d4608	0.21608746
194	0xbe71426c	-0.23560494
195	0xbe8e6ac3	-0.27815828
196	0xbda541ff	-0.080692284
197	0x3d05f05d	0.03269993
198	0x3d047587	0.032338645
199	0xbe3e1add	-0.18564935
200	0xbf0514a7	-0.5198464
201	0xbdc88a05	-0.0979195
202	0xbeb008d9	-0.3438175
203	0x3da6def1	0.081479914
204	0xbdf9e7fb	-0.1220245
205	0xbe331c72	-0.1749132
206	0xbf064866	-0.5245422
207	0x3de1b88d	0.110215284
208	0xbe5ac255	-0.21363194
209	0xbdaa391e	-0.083116755
210	0x3bfc04d0	0.0076910034
211	0x3d5b3c5b	0.053524356
212	0xbdb1018f	-0.086428754
213	0x3da42eda	0.08016749
214	0xbde778d0	-0.1130234
215	0x3e14d40c	0.14534014
216	0x3e15df6c	0.1463601
217	0x3c9f8d30	0.019476503
218	0xbc278fc7	-0.01022715
219	0xbcfee2cf	-0.03111401
220	0x3e6372c3	0.22211747
221	0xbe83b085	-0.2572061
222	0x3c5e4281	0.01356566
223	0x3ef17a49	0.4716361
224	0x3ddf385e	0.10899423
225	0xbeb42b51	-0.35189298
226	0x3e9cd088	0.30627847
227	0xbe014b07	-0.12626277
228	0x3d217d88	0.039426357
229	0x3e8c801d	0.27441493
230	0xbdde38cc	-0.10850677
231	0xbe0c3ce7	-0.13695107
232	0x3d6f717a	0.05845783
233	0xbe0c3430	-0.13691783
234	0xbdf1d175	-0.11807529
235	0x3ea53c43	0.3227254
236	0x3cab7556	0.020929974
237	0x3da49950	0.080370545
238	0xbd98e983	-0.07466414
239	0xbedd06c8	-0.43169236
240	0xbe518d11	-0.20463969
241	0xbe2fb4cb	-0.17158811
242	0xbe8191e8	-0.2530663
243	0xbca31cda	-0.019911218
244	0xbdc4ffe8	-0.09619123
245	0xbd652bea	-0.055950083
246	0x3ea87476	0.32901353
247	0xbe74036c	-0.2382943
248	0xbe9913fe	-0.29898065
249	0xbd2dd80d	-0.04244237
250	0xbde2607c	-0.11053559
251	0xbd6d226b	-0.05789415
252	0x3d6ea10f	0.058259066
253	0x3e3f11d3	0.18659143
254	0xbe10729a	-0.14106217
255	0xbe6d9045	-0.23199566

model.0.bias f4 [256]
0	0x3e0df969	0.13864674
1	0x3c002589	0.007821449
2	0xbe69461a	-0.22780648
3	0x3e6c0a00	0.2305069
4	0x3ee3df0c	0.4450611
5	0x3d916153	0.07098641
6	0x3ddc276c	0.107497066
7	0x3de0089d	0.10939143
8	0x3e402361	0.18763496
9	0x3e36ca8a	0.178507
10	0xbe7d70ba	-0.24750033
11	0xbc8f486c	-0.017490588
12	0x3df7472e	0.12074123
13	0xbeb25d64	-0.34836876
14	0x3e670612	0.2256091
15	0x3e90410c	0.28174627
16	0xbdbaecca	-0.09127195
17	0xbde84d89	-0.11342914
18	0x3e7856c1	0.24251844
19	0xbe8de335	-0.27712408
20	0xbdaa4080	-0.08313084
21	0xbed4709b	-0.4149216
22	0xbd3852ac	-0.045000717
23	0xbe2c9394	-0.16853172
24	0xbee363f7	-0.44412205
25	0xbdb11452	-0.08646454
26	0xbe590020	-0.21191454
27	0x3e3639c6	0.17795476
28	0xbe20398c	-0.15646952
29	0xbc3f9c30	-0.011694953
30	0x3e9d341f	0.30703828
31	0x3ea1c989	0.31599072
32	0xbe59381f	-0.21212815
33	0xbe29a7c0	-0.16567898
34	0xbea093c4	-0.31362736
35	0x3dbc03bc	0.091804
36	0xbdc9b177	-0.09848302
37	0xbea8f12e	-0.32996505
38	0x3d00dc96	0.031460367
39	0x3dc4c6b4	0.09608212
40	0xbd6b3f08	-0.05743316
41	0x3de8f180	0.113741875
42	0x3d3c9811	0.04604346
43	0x3d74e789	0.05979112
44	0x3e348deb	0.17632262
45	0xbe43d8ed	-0.1912572
46	0xbde8c18c	-0.11365041
47	0xbd154a42	-0.03644777
48	0x3e821899	0.25409392
49	0xbdbac5f1	-0.091197856
50	0x3c5ab199	0.013348007
51	0x3d7048bb	0.05866311
52	0xbeaa76d6	-0.3329379
53	0xbe9027ea	-0.28155452
54	0x3e71d2c3	0.23615555
55	0xbe6b7230	-0.22992778
56	0xbeaaaaec	-0.33333528
57	0x3d12c6d9	0.035834167
58	0xbeb9a671	-0.36259797
59	0xbd4d0363	-0.050052058
60	0x3d819434	0.06327096
61	0xbdf1c808	-0.11805731
62	0x3eb832af	0.3597617
63	0xbe0047ba	-0.12527362
64	0xbd90d56f	-0.07071959
65	0xbe480e12	-0.19536617
66	0xbd7b1fd2	-0.061309643
67	0x3ea17eeb	0.31542143
68	0xbe8d45c7	-0.27592298
69	0x3e846e6a	0.2586549
70	0xbddea3b7	-0.1087107
71	0x3ea776db	0.32707867
72	0xbd451b8d	-0.048121978
73	0x3e3491f3	0.176338
74	0xbe6513da	-0.22370854
75	0xbeb97e65	-0.36229244
76	0xbe59c8ed	-0.21268053
77	0xbdf61d9a	-0.12017365
78	0xbe3ea3f7	-0.18617235
79	0x3ee1b2e8	0.44081807
80	0x3d0864a8	0.03329912
81	0x3eb9eadc	0.36311996
82	0xbefcbd3b	-0.4936312
83	0xbe2195c1	-0.15779783
84	0x3d8999f0	0.067188144
85	0xbe598f87	-0.21246158
86	0x3eaae939	0.3338106
87	0x3ec722f6	0.3889386
88	0xbd1954c9	-0.037434373
89	0x3d84c265	0.0648239
90	0x3e8a8a65	0.27058712
91	0xbe32f99d	-0.17478032
92	0xbdcc786a	-0.09983905
93	0xbe127441	-0.1430216
94	0xbdc0ec0f	-0.094200246
95	0xbe89573b	-0.26824364
96	0xbe961884	-0.2931558
97	0xbdf979b0	-0.12181413
98	0xbeb8636f	-0.36013362
99	0x3ee2b454	0.44278204
100	0x3ecf88ff	0.40534207
101	0xbe2564b3	-0.16151695
102	0xbddd2602	-0.10798265
103	0x3e973661	0.29533675
104	0x3e350797	0.17678677
105	0x3e2b6b52	0.16740158
106	0xbcb1d103	-0.02170611
107	0x3e0da6df	0.13833188
108	0xbc0d5095	-0.008625169
109	0xbe087e1d	-0.13329358
110	0x3ce56419	0.028001832
111	0xbd990564	-0.07471731
112	0xbe12fd9a	-0.14354554
113	0xbdadb09e	-0.08480953
114	0xbd379074	-0.044815496
115	0xbdb6be20	-0.08922982
116	0x3e09679b	0.13418429
117	0x3ea7a317	0.32741615
118	0xbd200671	-0.039068643
119	0x3e1c68ab	0.15274303
120	0xbebd6dfc	-0.36997974
121	0x3d5ca1fb	0.053865414
122	0xbe0c9104	-0.13727194
123	0x3dc88272	0.097905055
124	0xbdd89a36	-0.105762884
125	0xbee67e51	-0.45018247
126	0x3eb43837	0.3519914
127	0x3e4ae149	0.19812502
128	0xbe9e35bc	-0.3090037
129	0xbe920331	-0.2851806
130	0xbdbc8777	-0.09205525
131	0x3e933274	0.2874943
132	0x3c29a169	0.010353425
133	0xbe7de28d	-0.24793454
134	0x3ed636ed	0.4183878
135	0x3e7e34f5	0.24824889
136	0xbdfa93dd	-0.12235234
137	0xbe65f3c3	-0.22456269
138	0x3de1e202	0.11029436
139	0x3e7aa8be	0.24478433
140	0xbdf64f8b	-0.1202689
141	0x3ce3f5d1	0.027827175
142	0x3e78dc9d	0.24302907
143	0xbdc047c3	-0.093886875
144	0x3e45f1af	0.19330476
145	0x3ea6f13e	0.32605928
146	0x3e03ef7a	0.12884322
147	0x3df9a134	0.1218895
148	0xbf2e2adf	-0.68034166
149	0xbe0ea1c8	-0.13928902
150	0x3e0a5d1d	0.13512082
151	0xbe20b95b	-0.15695707
152	0x3ea7b4a0	0.32754993
153	0xbeb935d0	-0.36173868
154	0xbe64e58c	-0.2235319
155	0x3dce3f74	0.100706965
156	0xbc77d4bc	-0.015126403
157	0x3e5e1a74	0.21689779
158	0x3e14f071	0.14544846
159	0x3ed5a5ad	0.41727963
160	0xbe4a2be7	-0.1974331
161	0x3cbd308d	0.02309444
162	0x3eb9f19e	0.36317152
163	0x3db20576	0.08692448
164	0xbe57783f	-0.21041964
165	0x3e803ac6	0.2504484
166	0xbe1290c6	-0.14313039
167	0xbe00fca4	-0.12596375
168	0xbcfc5f26	-0.030807089
169	0x3ea5aebc	0.32359874
170	0xbe3ab926	-0.18234691
171	0xbd8ed481	-0.06974126
172	0x3e66f322	0.22553685
173	0xbe786ec6	-0.24261007
174	0x3e8c84a7	0.27444956
175	0x3db23303	0.08701136
176	0xbe9a4e66	-0.30137938
177	0x3ebb9574	0.3663746
178	0xbd7ff952	-0.06249363
179	0xbe572c04	-0.21012884
180	0xbeb17c8e	-0.3466534
181	0x3eaec3fe	0.34133905
182	0x3d8a4952	0.06752266
183	0x3d48c36a	0.049014486
184	0xbdf5ce81	-0.12002278
185	0xbbe85d0a	-0.0070911692
186	0xbe92405a	-0.2856472
187	0xbec0213e	-0.37525362
188	0x3d77249a	0.06033764
189	0x3e0cf617	0.13765751
190	0xbe6c232a	-0.23060289
191	0x3e8316a9	0.25603226
192	0x3eb2550c	0.3483051
193	0xbc0aa74d	-0.008462739
194	0xbe280e66	-0.16411743
195	0xbe9953f4	-0.29946864
196	0x3eb8c4dc	0.36087692
197	0xbd93dc53	-0.07219758
198	0x3e97eaa3	0.296712
199	0xbd0575ed	-0.032583166
200	0xbea5955b	-0.32340512
201	0xbd3da200	-0.046297073
202	0x3ca6e03f	0.0203706
203	0x3dbce889	0.0922404
204	0x3cbcf5f4	0.023066498
205	0x3d549570	0.051900327
206	0xbe231e5a	-0.15929547
207	0xbe2eea4c	-0.17081565
208	0xbd14ae66	-0.03629913
209	0xbe605a41	-0.21909429
210	0x3d18a8f8	0.037270516
211	0x3dcea2ae	0.100896224
212	0x3dd06a77	0.101765566
213	0x3e50a543	0.20375542
214	0xbdfaef2f	-0.12252652
215	0xbe38b49f	-0.18037651
216	0x3e8f5094	0.27991164
217	0x3e866f05	0.26256576
218	0xbdb03b79	-0.086050935
219	0x3ea05a3a	0.31318837
220	0xbd4882e3	-0.04895295
221	0xbe290eb1	-0.1650951
222	0x3cbdf73d	0.023189181
223	0xbe3e53c5	-0.18586643
224	0xbe816e11	-0.25279287
225	0xbe85516d	-0.26038685
226	0x3e2752fa	0.16340247
227	0xbe7897db	-0.24276678
228	0x3d745028	0.059646755
229	0x3e1e0eb7	0.15435301
230	0x3e3665a5	0.17812212
231	0xbdaffa31	-0.08592642
232	0x3cf1d1f2	0.029519055
233	0x3deaedaa	0.11471112
234	0x3ee249c1	0.44196895
235	0xbd257cfa	-0.04040239
236	0x3dbcc541	0.09217311
237	0xbe4f4dbf	-0.20244502
238	0x3ed63845	0.41839805
239	0x3e993e12	0.29930168
240	0xbe68a512	-0.2271922
241	0x3da0ec0d	0.07857523
242	0xbd1906f1	-0.037360135
243	0xbd7e9b99	-0.06216011
244	0xbe254e51	-0.16143157
245	0xbe92f284	-0.2870065
246	0x3e823acf	0.25435492
247	0x3e3ba2e0	0.1832385
248	0xbea6cc7f	-0.32577893
249	0xbe36868f	-0.17824768
250	0x3dc898fa	0.09794803
251	0x3d570dc8	0.052503377
252	0xbe0c0f98	-0.13677824
253	0xbec11718	-0.37712932
254	0x3dd2d1e9	0.102939434
255	0x3e3dd693	0.18538885

model.2.weight f4 [128, 256]
0	0x3de80061	0.11328197
1	0x3d65ca99	0.056101415
2	0x3bd5d8f7	0.0065261084
3	0x3d620f16	0.05519017
4	0x3dd30edf	0.10305571
5	0xbda60b0a	-0.08107574
6	0xbda07949	-0.07835633
7	0x3d4aee89	0.04954389
8	0xbd33bd2b	-0.043881577
9	0xbcd4d5da	-0.025980879
10	0x3ebc83c2	0.36819273
11	0xbdb1fe06	-0.08691029
12	0x3ea8aed4	0.32945883
13	0x3ddef65d	0.10886834
14	0x3e250170	0.1611383
15	0x3cc40418	0.023927733
16	0x3d3026bd	0.043005694
17	0xbbf0070a	-0.007325058
18	0xbe517125	-0.20453317
19	0x3e31e3e7	0.17372094
20	0xbd923322	-0.07138659
21	0x3dc4bc82	0.096062675
22	0x3b5d912c	0.0033808453
23	0x3defe950	0.11714423
24	0x3de2ebc5	0.11080126
25	0x3dcd8968	0.10035974
26	0xbd7be0a7	-0.061493542
27	0x3e122957	0.14273582
28	0x3c19a512	0.009377735
29	0x3d2562a4	0.040377274
30	0x3e575b7e	0.21030995
31	0xbddb9a36	-0.10722773
32	0xbdea936f	-0.11453902
33	0xbcbb931c	-0.022897296
34	0x3db69623	0.08915355
35	0xbba66101	-0.0050774817
36	0x3b8bba40	0.004264146
37	0x3db0cb56	0.08632533
38	0xbd3e66e0	-0.046484828
39	0x3e593f18	0.21215475
40	0x3dc5e249	0.09662301
41	0xbe321bc6	-0.17393407
42	0x3d51f03b	0.051254492
43	0x3db607be	0.088881955
44	0xbdbe0827	-0.09278899
45	0xbca90eeb	-0.020636996
46	0xbd1cff5e	-0.038329475
47	0xbd2c572a	-0.042075314
48	0x3e554c44	0.20829874
49	0x3d373eb0	0.044737518
50	0x3db9b36f	0.09067427
51	0x3d45caed	0.04828923
52	0x3dd19f65	0.1023548
53	0xbd5b0903	-0.05347539
54	0x3e6ec1ce	0.23316118
55	0xbdc59cbc	-0.09649035
56	0x3dc64088	0.09680277
57	0x3d1a9e38	0.037748545
58	0x3b36cef2	0.0027894345
59	0xbdf2f7d2	-0.11863674
60	0xbc0224c0	-0.007943332
61	0x3cbbf07a	0.022941817
62	0x3e7a7fd3	0.24462824
63	0x3c2ee717	0.010675213
64	0x3d697735	0.05699845
65	0xbd909b6f	-0.070608966
66	0xbc891755	-0.016734758
67	0x3e56eb86	0.20988283
68	0xbdb8a27a	-0.09015365
69	0x3e022798	0.12710416
70	0xbe09d914	-0.13461715
71	0x3e8ca628	0.27470517
72	0xbcc05fc2	-0.02348316
73	0x3e37b620	0.17940569
74	0x3e69de2e	0.22838661
75	0x3d706d5e	0.05869805
76	0x3e7d535e	0.24738833
77	0x3df9b83d	0.12193344
78	0x3e4d9ffc	0.2008056
79	0x3e3e6db5	0.18596537
80	0x3d2c3d2b	0.04205052
81	0x3e9436d5	0.28948084
82	0x3e83f677	0.25773975
83	0x3d93823e	0.07202576
84	0xbc8b1027	-0.016975475
85	0xbd6d4007	-0.05792239
86	0x3dbfc162	0.09363057
87	0x3e2351ca	0.15949169
88	0x3e477668	0.19478762
89	0xbba0dee0	-0.0049093813
90	0x3e10f4c2	0.14155868
91	0xbd517446	-0.051136278
92	0x3e1fc973	0.1560419
93	0xbcbb6a61	-0.022877874
94	0x3ea4416e	0.3208117
95	0x3a58e842	0.0008274355
96	0x3d3f9710	0.046774924
97	0xbde3a998	-0.11116332
98	0x3e16f31e	0.1474118
99	0x3e8b837a	0.27248746
100	0x3e94ecf6	0.29087037
101	0x3caf2a7b	0.021382561
102	0xbdd38331	-0.10327757
103	0x3e460799	0.19338836
104	0x3e0adc51	0.13560607
105	0x3da900e1	0.08252121
106	0x3ddd11fb	0.10794445
107	0x3dacbb86	0.08434205
108	0x3d97a139	0.07403798
109	0xbd187354	-0.03721936
110	0x3c53ffe4	0.012939427
111	0x3d14a24d	0.036287595
112	0x3c8c647c	0.017137758
113	0xbd1c7e24	-0.038206235
114	0xbe99732f	-0.2997069
115	0xbca2c906	-0.019871246
116	0xbd5a6324	-0.053317204
117	0x3e6058eb	0.2190892
118	0x3e2215cb	0.15828626
119	0x3c858eb8	0.016303405
120	0x3d582e7a	0.0527787
121	0x3db58fca	0.08865316
122	0xbdf7af3d	-0.12093971
123	0x3e08709d	0.13324209
124	0x3dbd43da	0.09241457
125	0xbd9a5f88	-0.075377524
126	0x3e735585	0.23763092
127	0x3ddbc912	0.107317105
128	0x3de89585	0.113566436
129	0x3bed6375	0.007244522
130	0x3dc31259	0.09524984
131	0x3e95f6c4	0.2928983
132	0x3db2c3e2	0.08728768
133	0x3cd5f338	0.026116952
134	0x3e4672ee	0.1937978
135	0x3e535726	0.20638713
136	0x3d9aabf6	0.0755233
137	0xbd839e6d	-0.06426702
138	0x3df237cf	0.11827051
139	0x3f056d2a	0.52119696
140	0xbdca15f0	-0.098674655
141	0xbe124af2	-0.14286402
142	0x3cfa68d4	0.030567564
143	0x3da4ff0a	0.08056457
144	0xbcb5bb54	-0.022184052
145	0x3d200fa7	0.039077427
146	0xba552ef9	-0.00081323046
147	0x3e516c91	0.20451571
148	0xbbfbc381	-0.007683218
149	0xbc5b29b2	-0.01337664
150	0x3e3274b9	0.17427339
151	0xbdb018f6	-0.08598511
152	0x3e87eb37	0.26546642
153	0x3d159aae	0.036524467
154	0x3d47dd0e	0.0487948
155	0x3d7653e8	0.060138613
156	0xbcd0f17c	-0.025505774
157	0x3e1e086a	0.15432897
158	0xbdcdf2d8	-0.100560844
159	0x3dc57f8b	0.096434675
160	0x3bb91ca1	0.005649165
161	0x3d4232f2	0.047411866
162	0x3d88a980	0.066729546
163	0xbdc4a209	-0.09601218
164	0xbbd93a9e	-0.006629302
165	0x3ddbb31b	0.10727521
166	0x3e485158	0.1956228
167	0x3dd6baa5	0.10484818
168	0x3c1e3531	0.0096562365
169	0x3e1e5752	0.15462998
170	0x3e5edbdd	0.21763559
171	0xbd1c131b	-0.038104158
172	0x3d215339	0.039386008
173	0xbb36d1f4	-0.0027896138
174	0x3e71a437	0.23597799
175	0x3c9336f9	0.017970549
176	0x3a296ad7	0.0006462759
177	0x3dd2640c	0.10272989
178	0xbd07dba8	-0.033168465
179	0xbe8bf437	-0.2733476
180	0x3d82479f	0.06361317
181	0x3e924090	0.28564882
182	0xbe271e9c	-0.1632027
183	0xbd305e7a	-0.04305885
184	0x3c44ac96	0.012004038
185	0xbd570ba2	-0.05250133
186	0xbd714f69	-0.058913622
187	0x3d01ef57	0.031722393
188	0x3ddf4847	0.10902458
189	0xbc680102	-0.0141603965
190	0xbd8cc159	-0.06872816
191	0xbc93d727	-0.018046929
192	0xbe4a926e	-0.19782421
193	0x3e325fd5	0.1741937
194	0xbd859d92	-0.06524195
195	0x3d0ba064	0.034088507
196	0x3dabf32c	0.08395991
197	0xbe3b2dc2	-0.18279174
198	0x3e40f913	0.18845014
199	0xbdba8af6	-0.09108536
200	0x3e8593fe	0.26089472
201	0x3db8872b	0.09010156
202	0x3e31b600	0.17354584
203	0xbedcfafd	-0.4316024
204	0xbb36f9ee	-0.0027919966
205	0x3dc5a347	0.09650283
206	0xbd33ac29	-0.043865357
207	0xbd5c0c6c	-0.053722784
208	0xbda4456d	-0.080210544
209	0x3d664bc6	0.056224607
210	0x3e991a22	0.2990275
211	0xbb35a538	-0.0027716886
212	0xbcb1d66c	-0.02170869
213	0x3d374e7d	0.044752587
214	0x3cec71a1	0.028862776
215	0xbdf27c43	-0.11840107
216	0xbdb697f1	-0.08915699
217	0x3da2b9eb	0.07945617
218	0x3d19831a	0.037478544
219	0xbe943c77	-0.2895238
220	0xbdf2342e	-0.11826359
221	0x3ded123a	0.11575742
222	0x3d1862a1	0.037203435
223	0xbe15a412	-0.14613369
224	0x3e2a8713	0.16653089
225	0xbd624d88	-0.05524972
226	0x3d69819a	0.057008363
227	0xbca02e57	-0.019553347
228	0xbcfbf0d1	-0.030754479
229	0x3d8f07bf	0.06983899
230	0x3e84a94c	0.25910413
231	0x3dbf323b	0.093357526
232	0x3c38c740	0.011277974
233	0xbcfbb718	-0.030726954
234	0x3dcfa5a5	0.10139016
235	0x3d787bf1	0.060665075
236	0xbe1686d6	-0.14699873
237	0xbd9190ce	-0.071076974
238	0x3e99f7ac	0.3007177
239	0xbf029f01	-0.5102387
240	0x3ca41d5f	0.020033536
241	0x3dd524b1	0.10407389
242	0x3d48712d	0.048936058
243	0xbdbe1942	-0.09282161
244	0x3e418a87	0.189005
245	0xbe031152	-0.12799576
246	0xbcaebbba	-0.02132975
247	0x3d120540	0.035649538
248	0x3e57d6e2	0.21078065
249	0x3deba425	0.115059175
250	0x3e05dcb7	0.13072477
251	0xbca1eeda	-0.019767214
252	0x3b9ede7d	0.0048483
253	0xbce8276f	-0.028339116
254	0xbcbe4f08	-0.023231044
255	0xbd7f681e	-0.062355153

model.2.bias f4 [128]
0	0x3ebde290	0.37086916
1	0x3cf232ea	0.029565293
2	0x3c134b95	0.008990188
3	0xbcc3ada7	-0.023886515
4	0xbdb0ed55	-0.086390175
5	0x3e3ef11b	0.18646662
6	0xbd221476	-0.039570294
7	0x3d17f129	0.037095223
8	0xbb7dcc1b	-0.0038726393
9	0xbcd29d27	-0.025709702
10	0xbd7e0908	-0.06202033
11	0xbe9c828b	-0.30568346
12	0xbacfc0cd	-0.0015850306
13	0x3ab546c1	0.001383029
14	0xbe22b949	-0.15890993
15	0xbc70e07a	-0.014701957
16	0xbc14fb10	-0.009093061
17	0x3e3d735c	0.18501037
18	0xbdb362b8	-0.087590635
19	0xbd3368ed	-0.043801237
20	0x3cd91454	0.026498951
21	0x3e811a0a	0.2521518
22	0x3ba7fdef	0.005126707
23	0x3e827238	0.25477767
24	0x3dcf6aba	0.10127778
25	0x3e8c68b9	0.27423647
26	0xbd37ef89	-0.044906173
27	0xbd3d6bd6	-0.04624542
28	0x3d1605b1	0.03662652
29	0xbccd8c9a	-0.025091458
30	0x3e18a542	0.14906791
31	0xbd84cd84	-0.064845115
32	0x3eb637f0	0.35589552
33	0xbcacea66	-0.021107864
34	0x3c1d0283	0.009583118
35	0xbd8890ff	-0.06668281
36	0x3b8679a3	0.0041038557
37	0x3d4116bf	0.047140833
38	0xbc6fd169	-0.01463733
39	0xbd597df6	-0.05309864
40	0x3e552ed3	0.20818643
41	0xbc32b545	-0.010907476
42	0x3d8ae64f	0.06782209
43	0xbd6a14e3	-0.057148825
44	0xbda9b3fd	-0.08286283
45	0xbe018ff5	-0.12652571
46	0x3c2df655	0.010617812
47	0x3e7df4a0	0.24800348
48	0xbda314a2	-0.0796292
49	0x3eb49f91	0.3527799
50	0x3c481619	0.0122123
51	0xbcb5400e	-0.02212527
52	0xbcaaafd3	-0.020835793
53	0xbc964498	-0.018343255
54	0xbd6fcbcf	-0.058543976
55	0x3d12a606	0.035802864
56	0xbd2b475d	-0.041816104
57	0x3e204bf7	0.15653978
58	0x3e7c4f4e	0.24639627
59	0xbd033028	-0.032028347
60	0xbd6568ef	-0.056008276
61	0x3e8b2b29	0.27181366
62	0xbe91f5c0	-0.28507805
63	0x3dba9af5	0.09111587
64	0x3dc8a988	0.097979605
65	0x3cc03eb3	0.023467397
66	0x3ea54be2	0.32284456
67	0xbdca6cc2	-0.09884025
68	0x3de559a0	0.11198735
69	0x3e8eae4b	0.2786735
70	0xbd8720a7	-0.06598025
71	0x3dcf895a	0.101336196
72	0xbd9ba227	-0.075992875
73	0x3e0228c7	0.12710868
74	0x3eb6f2ad	0.35732022
75	0xbcaf1720	-0.021373332
76	0xbcd371d6	-0.025811117
77	0xbdb5c6dd	-0.08875821
78	0x3e132214	0.14368469
79	0xbcf0853c	-0.029360406
80	0x3b70ca77	0.0036741772
81	0x3d9f2224	0.07770184
82	0xbc8957e0	-0.016765535
83	0x3e1f7d39	0.15575112
84	0xbd90d544	-0.07071927
85	0x3dad079b	0.08448716
86	0x3e489ad8	0.19590318
87	0xbd70a3ec	-0.058750078
88	0x3e8cafd3	0.27477893
89	0x3da5424b	0.08069285
90	0x3e92ddba	0.2868479
91	0xbcdaed33	-0.026724434
92	0xbcd40b7f	-0.025884388
93	0xbbd99d01	-0.006641031
94	0x3d657e7e	0.056028835
95	0x3cbbe141	0.022934558
96	0x3e8875ed	0.2665247
97	0x3c44b442	0.012005867
98	0xbb34b5c2	-0.0027574156
99	0x3ce39b0c	0.027783893
100	0x3d20c58c	0.039250895
101	0x3e2e1ccc	0.17003173
102	0x3ddf9511	0.10917104
103	0x3e37c332	0.17945555
104	0xbdd1fdab	-0.102534615
105	0xbeb35041	-0.35022166
106	0xbd588a74	-0.052866414
107	0xbd8d3d0a	-0.06896408
108	0x3e0f08b7	0.13968168
109	0x3ed6d203	0.419571
110	0x3dcec274	0.10095683
111	0xbd5d1f65	-0.05398502
112	0x3d700c9c	0.058605775
113	0x37cc549f	2.43581e-05
114	0x3e9a8220	0.30177402
115	0x3d7ea3cd	0.06216793
116	0xbe0f72f7	-0.140087
117	0x3e07f208	0.13275921
118	0x3ebdadfc	0.37046802
119	0x3dc209e4	0.09474543
120	0x3e465eb0	0.19372058
121	0x3ec9b0c3	0.3939267
122	0xbd124293	-0.03570802
123	0xbd91075e	-0.07081483
124	0xbd3d8468	-0.04626885
125	0xbcd045dc	-0.025423937
126	0x3d532412	0.05154807
127	0xbc18c193	-0.009323495

model.4.weight f4 [64, 128]
0	0x3e62d6bc	0.22152227
1	0x3beb4230	0.007179521
2	0x3e2d48c7	0.16922294
3	0xbde99dfb	-0.114070855
4	0xbdfcfdb3	-0.12353077
5	0xbb371313	-0.0027934953
6	0x3da13143	0.07870724
7	0x3d2cc2fb	0.042178135
8	0xbe8263bf	-0.25466725
9	0xbc6ec38b	-0.014572988
10	0xbca5e977	-0.020252926
11	0xbec232d4	-0.37929404
12	0xbde30f72	-0.1108693
13	0xbd464f44	-0.048415437
14	0xbe9b6ae3	-0.30354986
15	0x3dbe1a0b	0.09282311
16	0x3caa6794	0.020801343
17	0xbe952137	-0.29126903
18	0xbd0b9d6b	-0.034085672
19	0xbd468722	-0.048468716
20	0x3c049fd0	0.008094743
21	0xbefa2342	-0.48855025
22	0x3dd1ddac	0.10247359
23	0x3d27999c	0.040917978
24	0x3e575590	0.21028733
25	0xbe9bf4fa	-0.3046034
26	0x3e394ddd	0.18096109
27	0xbd09d5c1	-0.033651117
28	0x3d93c0de	0.07214521
29	0x3d569582	0.052388676
30	0x3cbabc28	0.022794798
31	0x3d4e4789	0.05036119
32	0x3c26f0ab	0.010189216
33	0xbce64641	-0.028109672
34	0x3ea92e19	0.33042982
35	0x3d28ae56	0.041181885
36	0xbc720888	-0.014772542
37	0x3e3290e6	0.17438087
38	0x3bb7b6a2	0.0056064883
39	0x3d0b48c5	0.034004945
40	0x3e1edd98	0.15514219
41	0xbdc57f7d	-0.09643457
42	0xbe0d37c5	-0.13790806
43	0xbc993f21	-0.01870686
44	0x3c0259df	0.007955997
45	0x3da74ae7	0.08168583
46	0xbc279085	-0.010227327
47	0xbe3affdd	-0.18261667
48	0xbe8d6de1	-0.27622893
49	0xbf647904	-0.89247155
50	0xbd2698d7	-0.040673103
51	0xb9eac10c	-0.0004477579
52	0x3ca1b112	0.019737754
53	0x3d7fcf3e	0.0624535
54	0x3dd2957c	0.10282418
55	0xbd054137	-0.032532897
56	0xbcc47c05	-0.023984918
57	0xbcdb6931	-0.026783558
58	0xbd688035	-0.056762893
59	0xbc9d0487	-0.019167198
60	0x3d85323e	0.065037236
61	0xbb9fa30e	-0.0048717326
62	0x3f01b9da	0.5067421
63	0x3e5ae4e0	0.21376371
64	0xbe6a2edb	-0.22869436
65	0x3da919ac	0.0825685
66	0x3e4e2b98	0.20133817
67	0xbce411ea	-0.027840573
68	0x3d45ce0d	0.04829221
69	0x3e82fae3	0.25582036
70	0xbd63b4d0	-0.055592358
71	0x3f04d9c1	0.51894766
72	0x3d118205	0.035524387
73	0x3e18bd80	0.14916039
74	0x3d3d144f	0.046161946
75	0xbc8a259d	-0.016863639
76	0xbd87a157	-0.0662257
77	0x3ca11465	0.019663045
78	0x3ed14af7	0.40877506
79	0x3df615bc	0.12015864
80	0x3c76c554	0.015061695
81	0xbd8abbdd	-0.06774113
82	0x3d66ecbd	0.056378115
83	0x3f593b35	0.8485597
84	0x3db4eeb8	0.088345945
85	0xbe49d090	-0.19708467
86	0xbe79b315	-0.2438472
87	0x3da7b823	0.08189418
88	0x3e8586c7	0.2607939
89	0x3cde16c7	0.02711047
90	0xbe831640	-0.25602913
91	0xbd1d68e4	-0.03843011
92	0xbd0a8880	-0.033821583
93	0x3db1f3e8	0.086890996
94	0x3f15309d	0.58277303
95	0xbdd119a1	-0.102099665
96	0xbe9530de	-0.29138845
97	0x3d958e64	0.073025495
98	0xbe899cab	-0.2687734
99	0xbd2552c4	-0.040362135
100	0x3bd6e93d	0.006558566
101	0x3dc82568	0.0977276
102	0x3d42423e	0.047426455
103	0x3e2faef3	0.17156582
104	0xbd221864	-0.039574042
105	0xbf025e93	-0.5092556
106	0xbd26c048	-0.040710717
107	0xbde9d337	-0.11417239
108	0x3c17ee71	0.009273157
109	0x3bca9377	0.00618213
110	0x3e7d9158	0.24762475
111	0x3cb869f8	0.022511467
112	0x3e6014df	0.21882962
113	0x3e1f1c32	0.155381
114	0x3eae24d0	0.3401246
115	0xbe2b84b2	-0.16749838
116	0xbc255ac7	-0.010092444
117	0x3dce0aae	0.10060631
118	0x3dda3843	0.10655262
119	0x3e2b5287	0.167307
120	0x3d92fa70	0.071766734
121	0x3f05a28b	0.52201146
122	0x3d00ba7d	0.03142785
123	0xbd2f9bea	-0.0428733
124	0xbd54cea0	-0.051954865
125	0xbcf79994	-0.030224599
126	0xbe200dc9	-0.15630259
127	0xbd798041	-0.060913328
128	0x3c6b1a92	0.014349597
129	0x3d644652	0.055731125
130	0x3c406af1	0.011744247
131	0xbc7b1b1d	-0.0153262885
132	0xbc9a39e1	-0.018826427
133	0x3dca109c	0.09866449
134	0xbbe1a8e8	-0.0068865903
135	0x3c0059ed	0.00783394
136	0x3d612e66	0.05497589
137	0xbd0629c8	-0.03275469
138	0xbd874b8f	-0.066062085
139	0x3d77ec43	0.06052805
140	0x3d33f423	0.043934
141	0x3caa2534	0.020769693
142	0xbdc257c4	-0.09489396
143	0x3d4135c6	0.047170423
144	0xbca35709	-0.019938963
145	0xbdb528bb	-0.08845659
146	0xbd7bdb7a	-0.061488606
147	0x3d8d6b1a	0.069051936
148	0xbda86644	-0.082226306
149	0xbdabc9f0	-0.08388126
150	0x3d883cbf	0.066522114
151	0x3d673543	0.05644728
152	0x3c9a956e	0.018870082
153	0xbd6f5aa9	-0.05843607
154	0xbdc57fa3	-0.096434854
155	0xbbda9160	-0.006670162
156	0xbbe14779	-0.0068749753
157	0xbd4106da	-0.047125675
158	0xbd34801c	-0.044067487
159	0x3d3a855e	0.045537345
160	0xbd8d986a	-0.06913836
161	0xbd4d024e	-0.050051026
162	0xbd000f05	-0.031264324
163	0xbdb2e6a6	-0.08735399
164	0x3d7b76fb	0.061392765
165	0xbc1f7ff4	-0.009735096
166	0x3c9d54b0	0.019205421
167	0x3d0eb9fb	0.034845334
168	0x3c9a56a0	0.018840134
169	0x3d12af10	0.035811484
170	0xbca6e8a9	-0.020374613
171	0x3d9cd315	0.07657448
172	0xbc090740	-0.008363545
173	0xbd9cc064	-0.07653883
174	0x3d03b9c1	0.03215957
175	0x3d86468a	0.06556423
176	0xbd01ec2e	-0.03171938
177	0xbc905b10	-0.017621547
178	0x3c5400ea	0.012939671
179	0x3d9a1df9	0.07525248
180	0xbda80580	-0.08204174
181	0xbd23cc7e	-0.03998994
182	0xbd57ecbe	-0.05271601
183	0xbd9317ae	-0.07182251
184	0xbd7add1f	-0.061246034
185	0xbc3c7178	-0.011501662
186	0xbdb56d35	-0.0885872
187	0xbd9f4b12	-0.077779904
188	0xbd59b634	-0.053152278
189	0x3d9dced5	0.07705466
190	0x3d3df540	0.046376467
191	0xbcac6477	-0.021044
192	0xbbb28da2	-0.005449013
193	0xbd8a2c1a	-0.06746693
194	0xbd1a53e7	-0.03767767
195	0x3c903720	0.01760441
196	0xbd2e1c91	-0.04250771
197	0xbdc6c71d	-0.097059466
198	0xbc993e9c	-0.018706612
199	0xbd9f1db9	-0.07769341
200	0xbb27a2e0	-0.0025579259
201	0x3ce92a24	0.028462477
202	0xbc7040dc	-0.014663901
203	0x3ad723aa	0.0016413827
204	0xbd830a42	-0.06398441
205	0x3d5d4a36	0.05402585
206	0xbd3b724c	-0.0457633
207	0x3c806113	0.015671289
208	0x3d182306	0.037142776
209	0x3ced5eb1	0.028975816
210	0x3d25a135	0.040436942
211	0x3c6ea786	0.014566308
212	0xbd3a4fe0	-0.04548633
213	0x3d66c0f2	0.05633635
214	0xbdab8715	-0.08375374
215	0x3d80a883	0.06282141
216	0xbc98214e	-0.018570568
217	0xbd92a6f3	-0.07160749
218	0xbd13f856	-0.036125503
219	0xbcf1fd68	-0.029539779
220	0xbd54603a	-0.05184958
221	0x3d39caee	0.045359544
222	0xbd13ae38	-0.03605482
223	0x3d61b7ef	0.055107053
224	0xbd86d730	-0.065840125
225	0x3d40950e	0.04701715
226	0xbdadef31	-0.08492888
227	0x3c974dea	0.01846977
228	0xbdbae1ac	-0.09125075
229	0xbd888a7c	-0.06667039
230	0xbda8eab8	-0.08247894
231	0x3b71ef3c	0.0036916276
232	0x3d8776ad	0.066144325
233	0xbcbad130	-0.022804826
234	0x3d714722	0.05890573
235	0x3d658645	0.056036253
236	0xbdb8d066	-0.09024124
237	0xbd1e22c0	-0.03860736
238	0xbdcd1a51	-0.10014785
239	0xbcbc8c91	-0.023016246
240	0xbda10067	-0.07861405
241	0x3c0638b7	0.008192233
242	0x3ca16160	0.019699752
243	0xbd3e1a7c	-0.046411976
244	0xbc66ccb0	-0.014086887
245	0xbdca5080	-0.098786354
246	0x3b906698	0.0044067614
247	0xbcf0a55e	-0.029375728
248	0x3d740fdc	0.059585437
249	0xbd5548a8	-0.052071244
250	0xbd4854d7	-0.048909035
251	0xbd2f2c18	-0.04276666
252	0x3d35ecf6	0.044415437
253	0xbcc8d154	-0.024513878
254	0x3b80b801	0.003928185
255	0x3d5b6f2e	0.053572826

model.4.bias f4 [64]
0	0x3e87e6a3	0.2654315
1	0xbbc4a6aa	-0.006001313
2	0x3df3c23d	0.119022824
3	0x3da8552a	0.08219369
4	0x3ee89dec	0.45432985
5	0x3e4fe787	0.20303164
6	0x3dff8281	0.124760635
7	0xbc8ac454	-0.01693932
8	0x3e684062	0.2268081
9	0x3b96fc75	0.004607732
10	0x3e810678	0.25200248
11	0xbe138bfc	-0.14408869
12	0x3ee04d34	0.438089
13	0xbdb17625	-0.086651124
14	0x3e6d6555	0.23183186
15	0xbcd1c65c	-0.02560728
16	0x3baad89c	0.00521381
17	0x3efd3fea	0.49462825
18	0xbddc34d3	-0.10752263
19	0xbaff7916	-0.0019491042
20	0x3e174937	0.14774023
21	0xbe2cab3f	-0.168622
22	0x3e8d6bd9	0.27621344
23	0x3b6d181d	0.0036177703
24	0x3d1b0b5f	0.03785264
25	0x3dd0964b	0.10184916
26	0xbb8d9ed6	-0.0043219132
27	0x3f12eb71	0.57390505
28	0xbe17a81b	-0.14810221
29	0x3cff54f6	0.031168442
30	0xbd424dae	-0.047437362
31	0x3df6df63	0.120543264
32	0x3e8c6f14	0.27428496
33	0xbdfe0077	-0.124024324
34	0xbd843b6a	-0.06456645
35	0x3d977bb7	0.073966436
36	0x3c3b082c	0.011415523
37	0x3cfaa413	0.030595815
38	0xbd46259c	-0.04837571
39	0x3e06b0a5	0.13153322
40	0x3e32b0dd	0.1745028
41	0x3ec86161	0.39136794
42	0xbdb8e47e	-0.090279564
43	0x3e54bc12	0.20774868
44	0xbdbdd150	-0.09268439
45	0x3ed292cc	0.41127622
46	0xbdf9a365	-0.12189368
47	0x3cbfa212	0.02339271
48	0xbce72a1d	-0.028218323
49	0xbdc23ffc	-0.0948486
50	0x3d01f99e	0.031732194
51	0x3ed6236b	0.41823897
52	0x3d8fbd20	0.070184946
53	0x3e485354	0.19563037
54	0x3e30ac78	0.17253292
55	0x3cad8250	0.021180302
56	0x3cfcf89b	0.030880263
57	0xbd8f55a4	-0.069987565
58	0xbdb34ed1	-0.087552674
59	0x3e4dd882	0.20102122
60	0xbd02707e	-0.031845562
61	0xbe020dcf	-0.1270058
62	0xbd20484b	-0.039131444
63	0x3be792cb	0.0070670596

model.6.weight f4 [32, 64]
0	0x3d6cab3b	0.057780486
1	0xbd5da2c8	-0.05411032
2	0xbb5a9d18	-0.0033357795
3	0xbdeacc8b	-0.11464795
4	0xbe32432e	-0.1740844
5	0x3d321fe0	0.04348743
6	0x3d545dd6	0.0518473
7	0x3dc3c2fb	0.09558674
8	0x3cd947a1	0.026523413
9	0xbbf95959	-0.007609528
10	0xbc4db90b	-0.012556325
11	0xbd49fcc5	-0.049313325
12	0xbdbfbd1e	-0.09362243
13	0xbda37ce4	-0.07982805
14	0xbd58a658	-0.052893013
15	0xbdb9cae2	-0.090719
16	0xbd91da4f	-0.07121717
17	0xbe2846d3	-0.16433267
18	0xbb2da080	-0.002649337
19	0x3d909dad	0.07061324
20	0xbe0adb31	-0.13560177
21	0x3e0a2744	0.13491541
22	0x3d922017	0.07135027
23	0x3d668f93	0.056289267
24	0xbd859ead	-0.06524406
25	0xbe22c008	-0.15893567
26	0xbced0d37	-0.028936965
27	0x3cba0820	0.022708952
28	0x3d7bf2de	0.061510913
29	0xbdf80de9	-0.12112028
30	0xbdfa5759	-0.122236915
31	0x3dd4b72f	0.10386502
32	0x3de285cc	0.11060676
33	0x3d2ee008	0.04269412
34	0x3d61c51f	0.05511963
35	0xbde95fd7	-0.11395233
36	0xbc2be2cd	-0.010491085
37	0xbd69674d	-0.05698328
38	0xbe3229f9	-0.17398824
39	0xbe0743eb	-0.13209502
40	0x3c8609d2	0.016362105
41	0xbbf90783	-0.0075997724
42	0x3bebc4e0	0.0071951
43	0xbe20e52b	-0.1571242
44	0x3c8f1828	0.017467573
45	0xbdaef386	-0.08542542
46	0xbdcad19b	-0.0990326
47	0xbc27aa5d	-0.010233489
48	0xbdcdfa00	-0.10057449
49	0xbdc23dd9	-0.09484453
50	0x3d2fdbba	0.042934157
51	0xbda8e3ea	-0.08246596
52	0xbe40d831	-0.1883247
53	0xbd3fbe12	-0.046812125
54	0xbe079072	-0.13238695
55	0x3c78679b	0.01516142
56	0xbd7259d6	-0.059167705
57	0xbdf805cc	-0.12110481
58	0xbd611246	-0.054949068
59	0x3d45d13e	0.048295252
60	0xbd0ca8bd	-0.03434061
61	0xbd9dcf24	-0.077055246
62	0x3dc5cff4	0.096588045
63	0x3dbea047	0.09307914
64	0xbcad6d21	-0.0211702
65	0xbde1a7aa	-0.110183075
66	0xbe9b5058	-0.30334735
67	0x3e175d3a	0.14781657
68	0x3ebc2342	0.3674565
69	0xbe21af7e	-0.15789601
70	0xbdb88373	-0.09009447
71	0x3dd01130	0.10159528
72	0xbe5948dc	-0.212192
73	0xbdf97f25	-0.12182454
74	0x3bdeabd5	0.0067953863
75	0xbe1bb945	-0.15207393
76	0x3ee9a76d	0.45635548
77	0x3d81cca7	0.063378625
78	0xbde430e5	-0.111421384
79	0x3e425a83	0.1897984
80	0xbc5e9a80	-0.01358664
81	0x3e6ff151	0.23431899
82	0x3df3f9e6	0.11912899
83	0x3dc4b233	0.09604301
84	0x3bf86594	0.0075804684
85	0x3c1a77c1	0.009427966
86	0x3cc75478	0.02433227
87	0x3ca94db3	0.020666933
88	0x3eaa4807	0.33258078
89	0x3ec88ef9	0.3917158
90	0xbca80087	-0.020508064
91	0x3ec1b709	0.37834957
92	0xbd9e51e9	-0.07730467
93	0xbd4b419c	-0.049623117
94	0xbe2ef16a	-0.1708428
95	0xbbf4ce5f	-0.0074708904
96	0x3e6207b7	0.22073255
97	0xbdb01a2f	-0.08598744
98	0xbd273a64	-0.04082717
99	0x3d0e7acb	0.034785073
100	0x3e0ca4da	0.13734761
101	0x3d86572f	0.06559598
102	0xbe029f68	-0.12756121
103	0xbdac8a66	-0.08424835
104	0x3d01ab07	0.031657245
105	0x3ecdf055	0.4022242
106	0x3d5e34f8	0.054249734
107	0x3e604990	0.21903062
108	0xbe189af4	-0.1490286
109	0x3e636b7a	0.22208968
110	0x3d0eaff5	0.034835774
111	0x3dfa4b36	0.122213766
112	0xbe08b1ab	-0.13349025
113	0x3b70d738	0.0036749374
114	0x3daebc6b	0.085320316
115	0x3e94017f	0.2890739
116	0xbd577a29	-0.052606735
117	0x3e3113ad	0.17292662
118	0x3ea221e0	0.3166647
119	0x3ddcc2a3	0.107793115
120	0x3e98078b	0.29693255
121	0x3db8568c	0.090008825
122	0x3d864120	0.0655539
123	0x3e2dd0cd	0.16974182
124	0xbcb26da2	-0.021780793
125	0x3c0a55dc	0.008443322
126	0xbe066c21	-0.13127185
127	0x3d85060d	0.06495295
128	0x3c0f748d	0.008755815
129	0xbce288e6	-0.027653169
130	0xbdd9eaba	-0.10640474
131	0x3d15ba5f	0.03655469
132	0xbceb3713	-0.028712785
133	0x3e36008c	0.17773646
134	0x3e3f37cf	0.18673633
135	0xbbd9bea9	-0.006645043
136	0x3e801ee3	0.25023565
137	0x3d30f0e5	0.043198485
138	0xbd9e957c	-0.07743356
139	0xbdf3b6ef	-0.11900126
140	0x3da53d83	0.08068373
141	0x3dd7206f	0.10504233
142	0xbe2df50a	-0.16988006
143	0x3e0ced71	0.13762452
144	0x3df539f8	0.11973947
145	0xbd2359b9	-0.039880488
146	0x3d9538af	0.07286202
147	0x3dfb23c6	0.122626826
148	0x3e0f8913	0.14017133
149	0x3e2e9993	0.17050771
150	0xbe56b39e	-0.20966956
151	0xbdb5f68a	-0.08884914
152	0x3de81e68	0.113339245
153	0xbce72313	-0.028214967
154	0x3de9883d	0.114029385
155	0xbe00c045	-0.12573345
156	0x3d9458a5	0.0724347
157	0x3dedca3f	0.11610841
158	0xbc170592	-0.009217637
159	0x3dbf19a8	0.093310654
160	0x3e40b629	0.18819489
161	0x3d8156dc	0.06315395
162	0x3d02fa0c	0.031976745
163	0xbe031fde	-0.12805125
164	0xbcc69197	-0.024239345
165	0x3cc08547	0.023501052
166	0xbd6ea291	-0.058260504
167	0x3d82d5ec	0.063884586
168	0xbd5883de	-0.052860133
169	0x3d642b4b	0.05570535
170	0x3d026512	0.03183467
171	0xbe44ca90	-0.19217896
172	0xbad95178	-0.0016580066
173	0x3a058bfa	0.00050944055
174	0xbca37171	-0.019951554
175	0x3db3b012	0.08773817
176	0x3e1e09e2	0.15433457
177	0xbdc1bd77	-0.09459966
178	0x3c82564b	0.015910288
179	0xbdfca795	-0.12336651
180	0x3e033092	0.12811497
181	0xbdfa8515	-0.12232415
182	0xbd48a10e	-0.04898172
183	0x3ca8e9a4	0.020619221
184	0xbe41c688	-0.1892339
185	0x3d0b57ec	0.034019396
186	0xbcbddb91	-0.023175986
187	0xbeffab7d	-0.49935523
188	0x3d8374dc	0.064187735
189	0xbd84f7e0	-0.06492591
190	0x3d54406f	0.05181926
191	0xbcbdee69	-0.023184972
192	0x3e4aeced	0.19816943
193	0xbc8d6991	-0.017262252
194	0xbd61e4a0	-0.055149674
195	0xbad4998c	-0.0016220077
196	0x3e9c26ef	0.30498454
197	0xbed89bde	-0.42306417
198	0xbe6344aa	-0.22194162
199	0x3ca53048	0.020164624
200	0x3d892a6a	0.06697543
201	0x3de48953	0.11159005
202	0xbf9584b2	-1.168112
203	0xbca2f4f7	-0.019892199
204	0x3d9fd178	0.07803625
205	0x3d3cb7c3	0.046073686
206	0x3d97a273	0.074040316
207	0xbd98ba0f	-0.07457363
208	0x3dbd4075	0.0924081
209	0xbc961216	-0.01831917
210	0xbd039456	-0.032123886
211	0xbe52e60a	-0.20595565
212	0xbdb707e6	-0.089370534
213	0x3ea01ead	0.31273404
214	0x3d12ab62	0.035807975
215	0xbd323df1	-0.043516103
216	0xbd013038	-0.031540126
217	0xbc1fcfa9	-0.0097541
218	0x3e11c61e	0.14235732
219	0x3d27f4f1	0.04100508
220	0xbe365d13	-0.17808942
221	0x3d61581d	0.055015672
222	0xbe36d4ef	-0.17854665
223	0xbe1d84a0	-0.15382624
224	0x3ed4d2c6	0.41567057
225	0x3c97449a	0.018465329
226	0xbdd58e7f	-0.104275696
227	0xbe1f83e1	-0.15577652
228	0xbdd89c8a	-0.105767325
229	0xbd800f2c	-0.06252894
230	0xbe49d339	-0.19709481
231	0xbdaf2fff	-0.085540764
232	0x3d93e865	0.0722206
233	0xbe4db3db	-0.2008814
234	0x3c6dd6f6	0.014516583
235	0x3cf189fb	0.02948474
236	0xbd9f396f	-0.077746265
237	0xbf256407	-0.64605755
238	0xbdd470bb	-0.10373064
239	0x3d99a95d	0.075030066
240	0x3d243c34	0.040096477
241	0x3c68fe74	0.014220823
242	0x3d3db07b	0.046310883
243	0xbd7e0bbb	-0.062022906
244	0xbe8ed2c2	-0.2789517
245	0xbe143acf	-0.14475559
246	0xbe825dbd	-0.25462142
247	0xbe7dde7e	-0.24791905
248	0xbe07957b	-0.13240616
249	0xbd7c55f1	-0.061605398
250	0x3e047bef	0.12937902
251	0xbf442743	-0.7662241
252	0x3df85dae	0.12127243
253	0x3d309bdb	0.043117385
254	0x3d0fd7d0	0.035117924
255	0xbdf69d48	-0.12041718

model.6.bias f4 [32]
0	0x3d274cef	0.040844854
1	0x3f12be07	0.5732121
2	0xbe146092	-0.14489964
3	0x3e1fe1d6	0.15613493
4	0x3dfe6557	0.12421673
5	0x3effc89d	0.49957743
6	0x3e8dab72	0.27669865
7	0xbc67a07f	-0.014137386
8	0x3df940cd	0.12170563
9	0x3e8e6b9f	0.27816483
10	0x3f2683ba	0.6504475
11	0xbd393ffb	-0.045227032
12	0xbda3558a	-0.079753
13	0xbe33e090	-0.17566133
14	0x3c1cfc48	0.009581633
15	0x3e6c401e	0.23071334
16	0x3ece685a	0.4031399
17	0x3daa4b4c	0.08315143
18	0x3e1455b6	0.14485821
19	0x3e86132a	0.26186496
20	0x3db25fae	0.08709656
21	0x3e955da7	0.29173014
22	0xbe335531	-0.17512967
23	0xbd629fd5	-0.05532821
24	0xbd3a081e	-0.045417897
25	0x3da23b5c	0.07921478
26	0x3dcc342c	0.099708885
27	0x3f08b149	0.53395516
28	0x3ea0f53f	0.31437108
29	0x3ea0d654	0.3141352
30	0x3d647171	0.05577225
31	0x3e474c2c	0.19462651

model.8.weight f4 [10, 32]
0	0x3ded9f03	0.11602595
1	0x3e3a4829	0.1819159
2	0xbe9054de	-0.2818975
3	0xbd6ae9bf	-0.057351824
4	0x3d60c68b	0.054876845
5	0x3e9f9b3c	0.31173122
6	0x3d30e453	0.043186497
7	0x3d067bce	0.032832913
8	0xbe142808	-0.14468396
9	0x3d9f3142	0.07773067
10	0x3e9c5423	0.3053294
11	0xbe2c0853	-0.1680005
12	0x3ca3ed31	0.020010563
13	0x3d800461	0.06250835
14	0x3e3058a7	0.17221318
15	0x3e50d170	0.20392394
16	0x3e866de5	0.26255718
17	0xbeb57edd	-0.35448352
18	0x3bfd9756	0.007738988
19	0xb92e3050	-0.00016611931
20	0xbdb907bf	-0.090346806
21	0x3ea5feda	0.32421
22	0x3daa8072	0.0832528
23	0x3d1bd72c	0.038047
24	0xbd6b1f22	-0.057402737
25	0xbe511f94	-0.20422202
26	0x3d07fea7	0.03320184
27	0x3e69f270	0.22846389
28	0x3de2d4f6	0.11075775
29	0x3e0bcf34	0.1365326
30	0xbc38ae9c	-0.011272099
31	0xbe3a1839	-0.18173303
32	0xbc8caa0f	-0.017170934
33	0x3e985b0e	0.2975697
34	0xbe056a74	-0.1302889
35	0x3d42f640	0.047598124
36	0x3ccc1b0d	0.024915243
37	0x3e9e322e	0.3089766
38	0x3d61ca41	0.055124525
39	0xbc7b8151	-0.015350656
40	0xbe323e89	-0.17406668
41	0xbe059116	-0.13043627
42	0x3dfd5299	0.1236927
43	0xbe341ad7	-0.17588364
44	0x3d8f0044	0.069824725
45	0x3e0ff822	0.14059499
46	0xbe029d0d	-0.12755223
47	0x3e37eb09	0.17960753
48	0x3e38a02d	0.18029852
49	0xbe930533	-0.28714904
50	0x3e0d92ae	0.13825485
51	0x3df3489c	0.118790835
52	0xbe1066dc	-0.14101738
53	0x3db528cf	0.08845674
54	0xbd6dd98d	-0.0580688
55	0x3e072e49	0.1320125
56	0xbe1533de	-0.14570567
57	0xbe879a6a	-0.26484996
58	0x3d922561	0.07136036
59	0x3ece15af	0.40250918
60	0x3ce6e089	0.028183239
61	0x3e81df0a	0.25365478
62	0xbdeb63b7	-0.114936285
63	0xbe441216	-0.19147524
64	0x3e091e8a	0.13390556
65	0x3ec94bcc	0.3931564
66	0xbe067c38	-0.13133323
67	0x3e49fbc7	0.19724952
68	0x3dde1f75	0.10845844
69	0x3ec0a26d	0.3762392
70	0x3df7168d	0.12064848
71	0x3d602d7d	0.05473088
72	0xbe137062	-0.1439834
73	0x3d2590a9	0.04042116
74	0x3e5e9a44	0.21738535
75	0xbd11cec4	-0.035597578
76	0x3e06c3d3	0.13160639
77	0x3de5c954	0.11220041
78	0x3e226198	0.15857542
79	0x3e348660	0.17629385
80	0x3e108fc4	0.14117342
81	0xbe8b5dd1	-0.27220014
82	0xbd8d6516	-0.06904046
83	0x3d93a32e	0.072088584
84	0xbeb96c6a	-0.36215526
85	0x3e0a6a14	0.13517028
86	0x3d9f3cd1	0.07775272
87	0x3d86a842	0.065750614
88	0xbe6ac488	-0.22926533
89	0xbe52298b	-0.2052366
90	0x3b2efb57	0.0026700103
91	0x3d601583	0.054708015
92	0xbde37941	-0.11107112
93	0x3e178c06	0.14799508
94	0x3dd80ecd	0.10549698
95	0xbe03c0e9	-0.12866558
96	0x3d2c1576	0.042012654
97	0x3eaabd50	0.3334756
98	0xbe3a6ad3	-0.18204813
99	0xbe348d31	-0.17631985
100	0x3e12d20b	0.14337938
101	0x3e4d8b14	0.20072585
102	0x3dc7ac42	0.097496524
103	0x3d8f5f0b	0.0700055
104	0xbe5ade38	-0.21373832
105	0x3df7d393	0.121009015
106	0x3ea9da2c	0.33174264
107	0xbe5bdde5	-0.21471365
108	0x3d6c7faa	0.057738937
109	0x3dea055e	0.11426805
110	0x3e04b9f1	0.12961556
111	0x3e3b5208	0.18293011
112	0x3e08d0db	0.13360922
113	0xbe56b1c5	-0.20966251
114	0xbd9a8dc6	-0.075465724
115	0x3daf4836	0.08558695
116	0xbd15843b	-0.036503058
117	0x3e1581f7	0.14600359
118	0xbdfa4491	-0.12220109
119	0x3d130720	0.035895467
120	0xbe6d522b	-0.23175876
121	0xbe9d5da3	-0.30735502
122	0x3d8c6deb	0.06856903
123	0x3e48717a	0.19574538
124	0x3d8fde45	0.070248164
125	0x3e8ce8e8	0.27521443
126	0x3bc3ff94	0.005981395
127	0xbe13e477	-0.14442621
128	0xbe257076	-0.16156182
129	0x3dd896ca	0.10575636
130	0xbe612f11	-0.2199061
131	0x3d6a46b2	0.057196327
132	0x3d95f645	0.07322363
133	0x3e977cdb	0.29587445
134	0xbd2d2255	-0.04226907
135	0x3b2df550	0.0026543923
136	0xbe7644a5	-0.24049623
137	0xbd096378	-0.033542126
138	0x3eab160e	0.33415264
139	0xbd19f245	-0.03758456
140	0x3dcdc837	0.100479536
141	0xbd0af292	-0.03392274
142	0x3e2179cf	0.15769123
143	0x3cd3eb08	0.025868908
144	0x3e9d6d4a	0.30747443
145	0xbe8f67d1	-0.28008893
146	0x3e0b382a	0.13595644
147	0x3e2e411c	0.17017025
148	0xbe61c2c3	-0.22046952
149	0x3e565a44	0.20932871
150	0xbe07fb82	-0.13279536
151	0x3dabbcd7	0.08385628
152	0xbe1d10f5	-0.153385
153	0xbe26bb07	-0.16282283
154	0x3befa615	0.0073134997
155	0x3e4318c3	0.19052415
156	0xbcae128d	-0.02124908
157	0x3e95d60d	0.2926487
158	0x3de069bd	0.10957668
159	0xbe530653	-0.20607881
160	0x3da1e03f	0.079041
161	0x3ea44830	0.32086325
162	0xbe93179e	-0.28728956
163	0xbdabc652	-0.08387436
164	0x3c8cfa21	0.017209115
165	0x3e8a3cc2	0.2699948
166	0x3e26a7ed	0.16274996
167	0xbdb890c9	-0.090119906
168	0xbe401abc	-0.18760198
169	0x3d43b3c7	0.04777887
170	0x3e4f2281	0.20228006
171	0xbe334dd8	-0.17510164
172	0x3d8763ba	0.06610818
173	0xbcc6a5dd	-0.024249012
174	0x3dddb146	0.10824828
175	0x3e075832	0.13217238
176	0x3ea64b1c	0.3247918
177	0xbe4eae59	-0.20183696
178	0x3df6a378	0.12042898
179	0x3d8171f5	0.06320564
180	0xbe1fca73	-0.15604572
181	0x3db7cce0	0.08974624
182	0x3c927288	0.017876878
183	0xbcf53b72	-0.029935572
184	0xbe4d167a	-0.20028105
185	0xbe4736fd	-0.1945457
186	0x3b6f1f33	0.0036487102
187	0x3e2e23c5	0.17005832
188	0x3e0226ab	0.12710063
189	0x3e3d5536	0.18489537
190	0x3e38911f	0.1802411
191	0xbe6833d9	-0.22676028
192	0xbd5ee5a3	-0.054418217
193	0x3e9f46e4	0.31108773
194	0xbdb12d20	-0.08651185
195	0xbd9b6610	-0.07587826
196	0xbb2d01b1	-0.0026398713
197	0x3e7c6d08	0.24650967
198	0x3e25218b	0.16126077
199	0x3ba874c5	0.005140873
200	0xbe2b95ad	-0.16756316
201	0x3d150418	0.036380857
202	0x3e875ac6	0.26436442
203	0x3bdf8b17	0.0068220007
204	0xbda32421	-0.079658754
205	0xbc8f60cd	-0.017502213
206	0x3dc520dc	0.09625408
207	0x3dd33984	0.103137046
208	0x3e6405a9	0.22267784
209	0xbea4fb65	-0.3222305
210	0x3e253f7d	0.161375
211	0x3dadc168	0.08484155
212	0xbdfac25d	-0.12244103
213	0x3e1798bd	0.14804359
214	0xbd66dca0	-0.05636275
215	0x3e098ac0	0.13431835
216	0xbeb13436	-0.34610146
217	0xbe361417	-0.17781101
218	0x3d6fd666	0.058554076
219	0x3e2876b1	0.16451527
220	0x3e0cd07c	0.13751405
221	0x3e772a2b	0.2413718
222	0xbba53f8d	-0.0050429762
223	0xbe34a69a	-0.17641678
224	0xbdb6774f	-0.08909475
225	0x3ec5df03	0.38646707
226	0xbe17175b	-0.14755003
227	0x3d9ac183	0.07556441
228	0x3dfd21cb	0.12359961
229	0x3dc96ffa	0.09835811
230	0xbdcada92	-0.0990497
231	0x3cd66d80	0.02617526
232	0xbe08aa5b	-0.13346235
233	0x3bfba282	0.0076792846
234	0x3e76c385	0.24098022
235	0xbe3f052b	-0.18654315
236	0xbd873c5c	-0.066033095
237	0xbdd8f3b8	-0.10593361
238	0x3dff0534	0.12452164
239	0x3dc3c2d8	0.09558648
240	0x3ea2b047	0.31775114
241	0xbe063de6	-0.1310955
242	0x3dd1f087	0.10250955
243	0x3d7364ef	0.05942243
244	0xbe08e027	-0.13366757
245	0x3e4b4518	0.19850576
246	0x3d8485ee	0.064708576
247	0xbd119bed	-0.035549093
248	0xbe45dd43	-0.19322686
249	0xbea34c5d	-0.31894198
250	0x3d5d86f7	0.05408379
251	0x3e292f44	0.16521937
252	0x3ddcae43	0.10775425
253	0x3e31b11f	0.17352723
254	0xbe1bd611	-0.15218379
255	0xbeb793da	-0.3585499

model.8.bias f4 [10]
0	0xbda1e4a6	-0.07904939
1	0x3cc74615	0.02432541
2	0x3d977908	0.07396132
3	0xbce50cc4	-0.027960189
4	0xbbeee8e2	-0.0072909454
5	0x3df55d84	0.11980727
6	0x3e3e1347	0.18562041
7	0x3e0e1bb6	0.13877758
8	0x3e888cdf	0.26669976
9	0x3d570268	0.05249253
