checkpoints/checkpoint_step_4300.pth (torch, 200878 bytes, 10 tensors)

model.0.weight f4 [256, 21]
0.1383553 0.04388051 0.16953032 -0.243201 -0.30819198 -0.17052218 -0.45228907 0.009484087
0.0097645195 0.17178763 -0.1891799 -0.041568406 0.28703156 -0.85408264 -0.19020052 -0.18988146
-0.022526544 0.06796329 0.125606 -0.41309628 0.3217861 0.02692692 0.017837064 -0.17429006
-0.079256624 -1.1492834 -0.07521074 0.07999636 -0.087158866 -0.13459311 -0.30264637 -0.0261959
-0.066913374 -0.3345849 -0.34341288 -0.12538795 -0.023768373 -0.04980344 0.15470979 -0.08505341
0.13553846 -0.07140039 -0.054985397 -0.26181346 0.24800079 -0.026826022 0.12801237 0.085936196
-0.4858035 0.10731178 0.15224403 -0.17194363 0.03254432 -0.50496644 -0.11435334 -0.23722488
-0.21597072 0.08939443 -0.32387686 -0.04755575 -0.088578984 -0.18518466 -0.10437004 0.11407806
-0.8305832 0.017075207 -0.423447 -1.9073485 0.055905204 -0.15750499 0.09371407 -0.044169333
0.1807648 -0.15756401 0.26378337 -0.017439496 -0.115701124 -0.14150052 0.30147612 -0.14639443
0.18612094 -0.11700218 0.17345427 -0.60843277 0.15669936 -0.11100467 -0.094205916 0.024865115
0.08579414 -0.3472864 0.1839121 0.17485306 0.04153257 0.060133513 -0.14851935 0.013361097
0.066373006 -0.16145203 -0.33847916 0.09220224 0.23907432 -0.52028537 -0.23394762 0.104712166
0.01631559 -0.13768347 0.086033575 -0.17013872 0.12057885 -0.044451527 0.10237544 -0.18518269
0.008763358 -0.24528708 -0.09306953 0.08225668 0.26333266 -0.010334516 0.39507985 -0.07063883
0.38176847 0.14994167 0.32614827 -0.14414081 0.22521193 0.119806625 -0.6442387 -0.0625259
0.2900412 -0.36698055 -0.7907868 -0.12559399 -0.27856928 -0.33190075 -0.38324338 -0.056105275
-0.27807274 -0.28179994 -0.07531135 -0.2028886 0.159706 0.16446148 0.10965773 0.099476084
-0.20954049 -0.096975565 -0.100763544 -0.1728602 -0.11749169 0.18108878 -0.1346787 0.182376
-0.060299795 -0.3430658 -0.07557548 -5.065284 -0.0327408 -0.07771087 -0.0346688 -0.09300056
-0.083169244 0.031475108 -0.010267158 -0.051706895 -0.19518389 -0.04886008 -0.24613985 -0.20985125
-0.020444693 -0.12821718 0.07532496 -0.21799606 0.0639887 0.0030131596 -0.350664 -0.10438176
0.18448599 -0.2964508 -0.31650004 -0.35770202 -0.018260613 -0.0775163 -0.17031111 -0.29850963
0.010300555 -0.0693477 -0.2571158 -0.06538978 0.028813953 0.17417365 -0.20689683 -0.3271555
-0.07014685 0.21608746 -0.23560494 -0.27815828 -0.080692284 0.03269993 0.032338645 -0.18564935
-0.5198464 -0.0979195 -0.3438175 0.081479914 -0.1220245 -0.1749132 -0.5245422 0.110215284
-0.21363194 -0.083116755 -0.19229184 0.16855182 -0.12471798 0.039494246 -0.18546985 0.1670164
-0.105067715 0.12662697 -0.116501145 0.060003817 0.115650475 -0.18692751 -0.08730769 0.59357774
0.22988185 -0.49953723 0.33190906 -0.3003137 -0.108825386 0.23431504 0.03128393 -0.13695107
0.05845783 -0.13691783 -0.11807529 0.3227254 0.020929974 0.080370545 -0.07466414 -0.43169236
-0.20463969 -0.17158811 -0.2530663 -0.019911218 -0.09619123 -0.055950083 0.32901353 -0.2382943
-0.29898065 -0.04244237 -0.11053559 -0.05789415 -0.059890505 0.09888866 -0.23032539 -0.24368396
00000000: 03ad 0d3e 0dbc 333d 5b99 2d3e af09 79be
00000010: 57cb 9dbe 5e9d 2ebe 6f92 e7be 2563 1b3c
00000020: 5dfb 1f3c 19e9 2f3e 60b8 41be a243 2abd
00000030: cdf5 923e 29a5 5abf edc3 42be 4970 42be
00000040: 9689 b8bc 5630 8b3d dc9e 003e 5b81 d3be
00000050: 26c1 a43e d895 dc3c 091f 923c 1879 32be
00000060: 4c51 a2bd b81b 93bf 1708 9abd 22d5 a33d
00000070: 5980 b2bd c7d2 09be 77f4 9abe c998 d6bc
00000080: e109 89bd b64e abbe d0d3 afbe b365 00be
00000090: e4b5 c2bc b1fe 4bbd 3e6c 1e3e 7b30 aebd
000000a0: 98ca 0a3e 5e3a 92bd 5e38 61bd 6a0c 86be
000000b0: ebf3 7d3e 3fc2 dbbc ad15 033e 51ff af3d
000000c0: 3dbb f8be 47c6 db3d dce5 1b3e fe11 30be
000000d0: 314d 053d 7b45 01bf 1532 eabd 14eb 72be
000000e0: 6e27 5dbe 6d14 b73d 30d3 a5be d1c9 42bd
000000f0: e668 b5bd 0ca1 3dbe f6bf d5bd c2a1 e93d
00000100: 1aa1 54bf 4ee1 8b3c 0cce d8be ff23 f4bf
00000110: dbfc 643d fd48 21be 2aed bf3d e7ea 34bd
00000120: 681a 393e 7658 21be 9d0e 873e 46dd 8ebc
00000130: b6f4 ecbd 83e5 10be 145b 9a3e 6ce8 15be
00000140: 7d96 3e3e d79e efbd ff9d 313e 40c2 1bbf
00000150: cc75 203e 6b56 e3bd 08ef c0bd edb1 cb3c
00000160: d7b4 af3d 86cf b1be 7453 3c3e ae0c 333e
00000170: 0e1e 2a3d 8f4e 763d 7515 18be 81e8 5a3c
00000180: 92ee 873d ae53 25be 244d adbe 87d4 bc3d
00000190: e6cf 743e 6c31 05bf f78f 6fbe 5573 d63d
000001a0: 46a8 853c e5fc 0cbe 5f32 b03d d838 2ebe
000001b0: 0bf2 f63d ce12 36bd 37aa d13d 88a0 3dbe
000001c0: 3094 0f3c 892c 7bbe 3d9b bebd 3176 a83d
000001d0: 8ad3 863e 1a52 29bc e847 ca3e 17ab 90bd
000001e0: 2877 c33e 4f8a 193e e8fc a63e a699 13be
000001f0: f59d 663e 2d5d f53d d4ec 24bf 940d 80bd
00000200: 4880 943e e0e4 bbbe 0171 4abf b69b 00be
00000210: a2a0 8ebe e5ee a9be 7a38 c4be a5ce 65bd
00000220: 8d5f 8ebe 1548 90be d63c 9abd 07c2 4fbe
00000230: f889 233e 9768 283e 3b94 e03d 1eba cb3d
00000240: c891 56be 209b c6bd 1e5d cebd 4402 31be
00000250: 7c9f f0bd 566f 393e 37e9 09be c6c0 3a3e
00000260: ebfc 76bd 52a6 afbe 51c7 9abd ce16 a2c0
00000270: 381b 06bd e026 9fbd df00 0ebd 1477 bebd
00000280: a354 aabd 0bec 003d 9537 28bc 9cca 53bd
00000290: 49de 47be 8221 48bd 160c 7cbe 3fe3 56be
000002a0: a17b a7bc 5d4b 03be f943 9a3d 5c3a 5fbe
000002b0: 820c 833d 6e78 453b 3b8a b3be 1bc6 d5bd
000002c0: e5e9 3c3e 66c8 97be 4b0c a2be b824 b7be
000002d0: 4897 95bc dec0 9ebd 0966 2ebe 41d6 98be
000002e0: a9c3 283c 2b06 8ebd afa4 83be 14eb 85bd
000002f0: 3d0b ec3c 945a 323e c3dc 53be ed80 a7be
00000300: 27a9 8fbd 0846 5d3e 6c42 71be c36a 8ebe
00000310: ff41 a5bd 5df0 053d 8775 043d dd1a 3ebe
00000320: a714 05bf 058a c8bd d908 b0be f1de a63d
00000330: fbe7 f9bd 721c 33be 6648 06bf 8db8 e13d
00000340: 55c2 5abe 1e39 aabd 27e8 44be d998 2c3e
00000350: 246c ffbd b8c4 213d cfeb 3dbe 5906 2b3e
00000360: be2d d7bd 80aa 013e 2798 eebd 90c6 753d
00000370: 28da ec3d ed69 3fbe 60ce b2bd b6f4 173f
00000380: 2666 6b3e 58c3 ffbe fcef a93e b8c2 99be
00000390: d8df debd 48f0 6f3e 9423 003d e73c 0cbe
000003a0: 7a71 6f3d 3034 0cbe 75d1 f1bd 433c a53e
000003b0: 5675 ab3c 5099 a43d 83e9 98bd c806 ddbe
000003c0: 118d 51be cbb4 2fbe e891 81be da1c a3bc
000003d0: e8ff c4bd ea2b 65bd 7674 a83e 6c03 74be
000003e0: fe13 99be 0dd8 2dbd 7c60 e2bd 6b22 6dbd
000003f0: bf4f 75bd 2386 ca3d 6bda 6bbe 4a88 79be

model.0.bias f4 [256]
0.15046117 0.007821449 -0.22780648 0.129845 0.38127545 0.16594999 0.107497066 0.09000294
0.18763496 0.178507 -0.2318492 -0.017490588 0.025476811 -0.42464426 0.39325917 0.38288066
-0.09127195 -0.11342914 0.3294662 -0.21875405 -0.08313084 -0.4149216 -0.1163606 -0.16853172
-0.49787453 -0.08646454 -0.21191454 0.14619659 -0.09106216 -0.011694953 0.28531134 0.39171255
-0.15578082 -0.16567898 -0.31362736 0.091804 -0.09848302 -0.32996505 0.031460367 0.09608212
-0.05743316 0.18236904 -0.021263229 -0.05435971 0.24987935 -0.1912572 -0.11365041 -0.03644777
0.21926385 -0.12285025 -0.046771295 0.05866311 -0.37612167 -0.28155452 0.1785434 -0.26949292
-0.33333528 0.035834167 -0.3501953 -0.050052058 0.06327096 -0.11805731 0.28606507 -0.12527362
-0.07071959 -0.13951212 -0.061309643 0.32028067 -0.30767587 0.19876456 -0.050038435 0.28555742
-0.048121978 0.116156146 -0.19333148 -0.37166157 -0.14739785 -0.12017365 -0.18617235 0.41435662
0.03329912 0.31255156 -0.4936312 -0.15779783 0.067188144 -0.21246158 0.31601572 0.33421144
-0.043974765 0.0648239 0.2238723 -0.17478032 -0.18471088 -0.1430216 -0.1352893 -0.2178915
-0.2931558 -0.12181413 -0.36013362 0.40429494 0.40483555 -0.16151695 -0.05313906 0.29485717
0.114468314 0.16740158 -0.02170611 0.10668773 -0.008625169 -0.13329358 0.028001832 -0.07471731
-0.08448106 -0.08480953 -0.070313424 -0.08922982 0.13418429 0.28269944 -0.039068643 0.15274303
-0.33745244 0.06012601 -0.13727194 0.08226381 -0.105762884 -0.45018247 0.36984712 0.19812502
-0.3090037 -0.22985876 -0.10847097 0.21206641 0.010353425 -0.19773124 0.3723884 0.092521995
-0.12235234 -0.22456269 0.076422684 0.36562806 -0.1202689 0.15501888 0.24302907 -0.024235113
0.28043443 0.32605928 0.08299036 0.095046096 -0.78453135 -0.13928902 0.18935473 -0.15695707
0.3328287 -0.42548972 -0.2235319 0.05986933 -0.015126403 0.22539724 0.3466134 0.40936062
-0.1974331 -0.046446256 0.4559934 0.08692448 -0.15378395 0.35563853 -0.14313039 -0.12596375
-0.030807089 0.27470762 -0.15384594 -0.06974126 0.22553685 -0.2214569 0.24268559 0.08144849
-0.30137938 0.47794646 -0.06249363 -0.21012884 -0.3466534 0.2671899 0.10398989 0.049014486
-0.15147716 -0.0070911692 -0.2856472 -0.37525362 0.10924282 0.13765751 -0.23060289 0.21568888
0.41769433 0.066231035 -0.16411743 -0.33121958 0.32912022 -0.002220005 0.204954 -0.12557657
-0.32340512 0.017890492 -0.013419798 0.067679286 0.023066498 0.011937055 -0.19742754 -0.113167256
-0.09763765 -0.25084883 0.045816805 0.100896224 0.101765566 0.20375542 -0.12252652 -0.18037651
0.23225045 0.2477485 -0.086050935 0.5676182 -0.04895295 -0.1650951 -0.01665106 -0.13465089
-0.25279287 -0.20283139 0.16340247 -0.24276678 0.059646755 0.15435301 0.12214671 -0.08592642
0.029519055 0.08457774 0.58640116 -0.07216281 0.16099541 -0.20244502 0.39980492 0.4082324
-0.16940558 0.04682698 -0.037360135 -0.06216011 -0.17541312 -0.23580457 0.28798378 0.35726583
-0.37561104 -0.1818801 0.07489631 0.052503377 -0.11557323 -0.37712932 0.102939434 0.18538885
00000000: 7e12 1a3e 8925 003c 1a46 69be 16f6 043e
00000010: 8936 c33e cbee 293e 6c27 dc3d 7653 b83d
00000020: 6123 403e 8aca 363e e069 6dbe 6c48 8fbc
00000030: bfb4 d03c f96a d9be 4459 c93e ef08 c43e
00000040: caec babd 894d e8bd cbaf a83e 1001 60be
00000050: 8040 aabd 9b70 d4be 774e eebd 9493 2cbe
00000060: 69e9 febe 5214 b1bd 2000 59be 8fb4 153e
00000070: cc7e babd 309c 3fbc 5414 923e 8c8e c83e
00000080: 0285 1fbe c0a7 29be c493 a0be bc03 bc3d
00000090: 77b1 c9bd 2ef1 a8be 96dc 003d b4c6 c43d
000000a0: 083f 6bbd f3be 3a3e 3930 aebc 4aa8 5ebd
000000b0: 5fe0 7f3e edd8 43be 8cc1 e8bd 424a 15bd
000000c0: b486 603e e998 fbbd 4293 3fbd bb48 703d
000000d0: 0593 c0be ea27 90be 15d4 363e fafa 89be
000000e0: ecaa aabe d9c6 123d cc4c b3be 6303 4dbd
000000f0: 3494 813d 08c8 f1bd 1f77 923e ba47 00be
00000100: 6fd5 90bd 44dc 0ebe d21f 7bbd d4fb a33e
00000110: b187 9dbe f088 4b3e 1af5 4cbd 9534 923e
00000120: 8d1b 45bd 46e3 ed3d b0f8 45be 6d4a bebe
00000130: 76ef 16be 9a1d f6bd f7a3 3ebe 8d26 d43e
00000140: a864 083d c206 a03e 3bbd fcbe c195 21be
00000150: f099 893d 878f 59be d0cc a13e c31d ab3e
00000160: e21e 34bd 65c2 843d c83e 653e 9df9 32be
00000170: d924 3dbe 4174 12be 4789 0abe f31e 5fbe
00000180: 8418 96be b079 f9bd 6f63 b8be bfff ce3e
00000190: 9b46 cf3e b364 25be 58a8 59bd 85f7 963e
000001a0: 5d6e ea3d 526b 2b3e 03d1 b1bc 197f da3d
000001b0: 9550 0dbc 1d7e 08be 1964 e53c 6405 99bd
000001c0: 6804 adbd 9eb0 adbd 7c00 90bd 20be b6bd
000001d0: 9b67 093e fbbd 903e 7106 20bd ab68 1c3e
000001e0: 91c6 acbe b146 763d 0491 0cbe ee79 a83d
000001f0: 369a d8bd 517e e6be 9a5c bd3e 49e1 4a3e
00000200: bc35 9ebe 1860 6bbe 0726 debd f027 593e
00000210: 69a1 293c 0f7a 4abe b1a9 be3e 2c7c bd3d
00000220: dd93 fabd c3f3 65be 7f83 9c3d 9a33 bb3e
00000230: 8b4f f6bd 45bd 1e3e 9ddc 783e b788 c6bc
00000240: 1a95 8f3e 3ef1 a63e daf6 a93d 87a7 c23d
00000250: 0cd7 48bf c8a1 0ebe 35e6 413e 5bb9 20be
00000260: 8668 aa3e cad9 d9be 8ce5 64be 8b39 753d
00000270: bcd4 77bc 89ce 663e 5077 b13e b797 d13e
00000280: e72b 4abe 6e3e 3ebd f877 e93e 7605 b23d
00000290: 8a79 1dbe 4116 b63e c690 12be a4fc 00be
000002a0: 265f fcbc 7aa6 8c3e ca89 1dbe 81d4 8ebd
000002b0: 22f3 663e 99c5 62be 9282 783e 77ce a63d
000002c0: 664e 9abe 66b5 f43e 52f9 7fbd 042c 57be
000002d0: 8e7c b1be 1dcd 883e a7f8 d43d 6ac3 483d
000002e0: d41c 1bbe 0a5d e8bb 5a40 92be 3e21 c0be
000002f0: b3ba df3d 17f6 0c3e 2a23 6cbe 8cdd 5c3e
00000300: 08dc d53e 23a4 873d 660e 28be 9d95 a9be
00000310: 7282 a83e 817d 11bb 76df 513e 2597 00be
00000320: 5b95 a5be 158f 923c b6de 5bbc 709b 8a3d
00000330: f4f5 bc3c a393 433c 722a 4abe 3cc4 e7bd
00000340: 40f6 c7bd 426f 80be 67aa 3b3d aea2 ce3d
00000350: 776a d03d 43a5 503e 2fef fabd 9fb4 38be
00000360: 10d3 6d3e c8b1 7d3e 793b b0bd 6d4f 113f
00000370: e382 48bd b10e 29be ce67 88bc ece1 09be
00000380: 116e 81be 08b3 4fbe fa52 273e db97 78be
00000390: 2850 743d b70e 1e3e 0e28 fa3d 31fa afbd
000003a0: f2d1 f13c 1837 ad3d 631e 163f 18ca 93bd
000003b0: fbdb 243e bf4d 4fbe 3bb3 cc3e d603 d13e
000003c0: a878 2dbe a6cd 3f3d f106 19bd 999b 7ebd
000003d0: 7f9f 33be c176 71be 9c72 933e 8ceb b63e
000003e0: 1750 c0be c73e 3abe 3d63 993d c80d 573d
000003f0: a8b1 ecbd 1817 c1be e9d1 d23d 93d6 3d3e

model.2.weight f4 [128, 256]
-0.035668306 0.056101415 0.0065261084 0.048351936 0.06915046 -0.07294011 -0.07835633 0.06796015
-0.043881577 -0.025980879 0.4091231 -0.08691029 0.30311623 0.056381464 0.089673914 -0.008828606
0.043005694 -0.007325058 -0.25971237 0.17729707 -0.07138659 0.096062675 -0.034722216 0.11714423
0.18874386 0.10035974 -0.061493542 0.11135867 0.002353934 0.040377274 0.14710607 -0.061289143
-0.106446534 -0.022897296 0.08915355 -0.0050774817 0.004264146 0.08632533 -0.046484828 0.21215475
0.09662301 -0.18898848 -0.35488927 0.13448146 -0.08595149 -0.020636996 -0.038329475 -0.042075314
0.14442703 0.07622404 0.07951583 0.04828923 0.21465583 -0.05347539 0.28153372 -0.080577455
0.09680277 0.037748545 -0.02133054 -0.11863674 -0.007943332 0.022941817 0.25720206 0.010675213
0.05699845 -0.10150878 -0.016734758 -0.08537038 -0.12181738 0.06892421 -0.14141986 0.1886476
-0.02348316 0.16531084 0.3448088 0.06027803 0.24600816 0.12193344 0.2008056 0.16984917
0.04205052 0.31773686 0.25773975 0.07202576 -0.016975475 -0.05792239 0.060050357 0.1212779
0.1054772 -0.0049093813 0.06770084 -0.051136278 0.09091996 -0.022877874 0.33465388 -0.008952684
0.046774924 -0.11116332 0.1474118 0.3014413 0.3150577 0.021382561 -0.09266079 0.16743279
-0.0011484744 0.08252121 0.10794445 0.053722188 0.07403798 -0.03721936 0.012939427 0.036287595
0.01759804 -0.038206235 -0.23703896 -0.019871246 -0.053317204 0.15873565 0.15828626 0.016303405
0.07576467 -0.016997445 -0.12093971 0.13486531 0.09241457 -0.075377524 0.30688342 0.107317105
0.113566436 0.020493614 0.08783411 0.22474147 0.08728768 0.037123803 0.122731626 0.12959826
0.0755233 -0.06426702 0.17726022 0.629128 -0.098674655 -0.23420025 0.030567564 0.11945995
0.01173514 0.039077427 0.040049456 0.1410313 0.119546704 -0.01337664 0.18691221 -0.08598511
0.289942 0.05715692 0.0487948 0.0633698 -0.025505774 0.23881832 -0.50658923 0.12885247
0.005649165 0.10023456 0.058791198 -0.09601218 -0.015326227 0.096360914 0.1956228 0.10484818
0.0096562365 0.05805185 0.3257031 -0.038104158 0.039386008 0.013748491 0.20430611 -0.039816953
0.0006462759 0.16526574 -0.033168465 -0.2733476 0.06361317 0.21333382 -0.2211061 -0.04305885
-0.0177517 -0.05250133 -0.058913622 0.031722393 0.19011746 -0.0141603965 -0.06872816 -0.09039625
-0.20477161 0.17791817 -0.06524195 0.034088507 0.052995138 -0.18911947 0.13647369 -0.0706519
0.26089472 0.123371795 0.2872759 -0.29117373 -0.0027919966 0.083069935 -0.14066245 -0.061861094
-0.08080948 0.08778233 0.29934466 -0.0027716886 -0.02170869 0.044752587 0.028862776 -0.11840107
-0.14152351 0.04217359 0.037478544 -0.8145396 -0.11826359 0.11575742 0.047133185 -0.14780526
0.16653089 -0.053745225 0.057008363 -0.019553347 -0.030754479 0.06983899 0.33078817 0.093357526
0.011277974 -0.033820145 0.18306372 0.02891162 -0.14822601 -0.071076974 0.28779325 -0.5347726
0.011915802 0.13404618 0.048936058 -0.09282161 0.19235672 -0.1355186 -0.06659844 -0.013329747
0.18337864 0.053438798 0.099146545 -0.019767214 0.033118792 -0.028339116 -0.023231044 -0.062355153
00000000: ee18 12bd 99ca 653d f7d8 d53b ae0c 463d
00000010: c29e 8d3d a061 95bd 4979 a0bd b12e 8b3d
00000020: 2bbd 33bd dad5 d4bc 9578 d13e 06fe b1bd
00000030: 0d32 9b3e 40f0 663d f5a6 b73d dca5 10bc
00000040: bd26 303d 0a07 f0bb 05f9 84be 5d8d 353e
00000050: 2233 92bd 82bc c43d e238 0ebd 50e9 ef3d
00000060: 1246 413e 6889 cd3d a7e0 7bbd 0410 e43d
00000070: 7644 1a3b a462 253d f9a2 163e 530a 7bbd
00000080: a400 dabd 1c93 bbbc 2396 b63d 0161 a6bb
00000090: 40ba 8b3b 56cb b03d e066 3ebd 183f 593e
000000a0: 49e2 c53d 3286 41be 0cb4 b5be 82b5 093e
000000b0: 5607 b0bd eb0e a9bc 5eff 1cbd 2a57 2cbd
000000c0: aee4 133e 591b 9c3d 32d9 a23d edca 453d
000000d0: bdce 5b3e 0309 5bbd 3025 903e cb05 a5bd
000000e0: 8840 c63d 389e 1a3d 62bd aebc d2f7 f2bd
000000f0: c024 02bc 7af0 bb3c fdaf 833e 17e7 2e3c
00000100: 3577 693d d6e3 cfbd 5517 89bc aad6 aebd
00000110: 647b f9bd 2328 8d3d 5ed0 10be d62c 413e
00000120: c25f c0bc 3f47 293e c78a b03e 18e6 763d
00000130: 90e9 7b3e 3db8 f93d fc9f 4d3e f1ec 2d3e
00000140: 2b3d 2c3d 68ae a23e 77f6 833e 3e82 933d
00000150: 2710 8bbc 0740 6dbd 5df7 753d 8c60 f83d
00000160: 6e04 d83d e0de a0bb bda6 8a3d 4674 51bd
00000170: 3e34 ba3d 616a bbbc c157 ab3e 47ae 12bc
00000180: 1097 3f3d 98a9 e3bd 1ef3 163e 8456 9a3e
00000190: 3e4f a13e 7b2a af3c f1c4 bdbd 8073 2b3e
000001a0: 6888 96ba e100 a93d fb11 dd3d cc0b 5c3d
000001b0: 39a1 973d 5473 18bd e4ff 533c 4da2 143d
000001c0: c429 903c 247e 1cbd 57ba 72be 06c9 a2bc
000001d0: 2463 5abd 998b 223e cb15 223e b88e 853c
000001e0: 822a 9b3d 3a3e 8bbc 3daf f7bd 221a 0a3e
000001f0: da43 bd3d 885f 9abd d31f 9d3e 12c9 db3d
00000200: 8595 e83d 39e2 a73c 5fe2 b33d a122 663e
00000210: e2c3 b23d 210f 183d b85a fb3d 68b5 043e
00000220: f6ab 9a3d 6d9e 83bd b483 353e 880e 213f
00000230: f015 cabd 31d2 6fbe d468 fa3c 6ba7 f43d
00000240: bf44 403c a70f 203d e60a 243d 826a 103e
00000250: e7d4 f43d b229 5bbc ea65 3f3e f618 b0bd
00000260: 4773 943e 601d 6a3d 0edd 473d 07c8 813d
00000270: 7cf1 d0bc ca8c 743e d5af 01bf e7f1 033e
00000280: a11c b93b c747 cd3d 0acf 703d 09a2 c4bd
00000290: db1a 7bbc df58 c53d 5851 483e a5ba d63d
000002a0: 3135 1e3c c7c7 6d3d 8fc2 a63e 1b13 1cbd
000002b0: 3953 213d 5a41 613c 9f35 513e 1a17 23bd
000002c0: d76a 293a 6c3b 293e a8db 07bd 37f4 8bbe
000002d0: 9f47 823d 2e74 5a3e a369 62be 7a5e 30bd
000002e0: 036c 91bc a20b 57bd 694f 71bd 57ef 013d
000002f0: 27ae 423e 0201 68bc 59c1 8cbd ab21 b9bd
00000300: a6af 51be 2e30 363e 929d 85bd 64a0 0b3d
00000310: 6e11 593d 89a8 41be c2bf 0b3e f1b1 90bd
00000320: fe93 853e 5aaa fc3d d415 933e b914 95be
00000330: eef9 36bb 9220 aa3d d109 10be 0f62 7dbd
00000340: 717f a5bd 39c7 b33d b443 993e 38a5 35bb
00000350: 6cd6 b1bc 7d4e 373d a171 ec3c 437c f2bd
00000360: 8aeb 10be 37be 2c3d 1a83 193d ab85 50bf
00000370: 2e34 f2bd 3a12 ed3d ba0e 413d 435a 17be
00000380: 1387 2a3e f423 5cbd 9a81 693d 572e a0bc
00000390: d1f0 fbbc bf07 8f3d 115d a93e 3b32 bf3d
000003a0: 40c7 383c fe86 0abd 0e75 3b3e 10d8 ec3c
000003b0: 8fc8 17be ce90 91bd a359 933e dbe6 08bf
000003c0: 7f3a 433c 6743 093e 2d71 483d 4219 bebd
000003d0: 29f9 443e 63c5 0abe c364 88bd 0365 5abc
000003e0: 9cc7 3b3e a4e2 5a3d 580d cb3d daee a1bc
000003f0: 92a7 073d 6f27 e8bc 084f bebc 1e68 7fbd

model.2.bias f4 [128]
0.37679994 0.101730086 0.07561835 0.044668935 -0.086390175 0.15262653 0.02868229 0.037855692
0.06382029 -0.055298325 -0.06202033 -0.2776085 0.06533148 0.001383029 -0.20044117 -0.014701957
-0.009093061 0.10760369 -0.087590635 -0.043801237 0.026498951 0.15844923 0.005126707 0.19604442
0.07300145 0.24570969 0.027697485 -0.04624542 0.1095926 -0.025091458 0.2224761 -0.064845115
0.37691888 -0.021107864 0.021293847 -0.06668281 0.0041038557 0.047140833 -0.01463733 -0.05309864
0.1336852 -0.010907476 0.06782209 -0.057148825 -0.08286283 -0.01662322 0.010617812 0.20177545
-0.0022273173 0.341877 0.0122123 -0.02212527 -0.020835793 -0.018343255 0.0021626442 0.035802864
-0.041816104 0.15653978 0.23862024 -0.032028347 -0.056008276 0.20425177 -0.28507805 0.05601018
0.1577759 0.09140166 0.3324048 -0.09884025 0.06861869 0.23004107 0.009667342 0.101336196
-0.075992875 0.060284678 0.37709624 -0.119031146 -0.025811117 -0.08875821 0.14368469 -0.029360406
0.0036741772 0.15121947 -0.016765535 0.13958456 -0.07071927 0.15640607 0.17499302 -0.090374485
0.2540128 0.08069285 0.17871077 -0.026724434 0.04253854 -0.006641031 0.015853977 0.11923726
0.2340491 0.012005867 -0.06255053 0.027783893 0.1306386 0.17003173 0.090085715 0.17945555
-0.102534615 -0.51987994 -0.052866414 0.011379332 0.095403105 0.46484497 0.17394723 -0.05398502
0.13276327 2.4315725e-05 0.24373601 0.033005394 -0.140087 0.063748084 0.40457934 0.09474543
0.19372058 0.4059777 -0.03570802 -0.07081483 -0.04626885 -0.025423937 0.05154807 -0.009323495
00000000: eceb c03e dd57 d03d cbdd 9a3d c6f6 363d
00000010: 55ed b0bd 214a 1c3e 1ff7 ea3c 920e 1b3d
00000020: 36b4 823d 7f80 62bd 0809 7ebd b422 8ebe
00000030: 83cc 853d c146 b53a 7340 4dbe 7ae0 70bc
00000040: 10fb 14bc 535f dc3d b862 b3bd ed68 33bd
00000050: 5414 d93c 8440 223e effd a73b debf 483e
00000060: c981 953d 529b 7b3e d6e5 e23c d66b 3dbd
00000070: 1672 e03d 9a8c cdbc c6d0 633e 84cd 84bd
00000080: 83fb c03e 66ea acbc 6f70 ae3c ff90 88bd
00000090: a379 863b bf16 413d 69d1 6fbc f67d 59bd
000000a0: c6e4 083e 45b5 32bc 4fe6 8a3d e314 6abd
000000b0: fdb3 a9bd 6b2d 88bc 55f6 2d3c 399e 4e3e
000000c0: 2ff8 11bb 810a af3e 1916 483c 0e40 b5bc
000000d0: d3af aabc 9844 96bc 26bb 0d3b 06a6 123d
000000e0: 5d47 2bbd f74b 203e dd58 743e 2830 03bd
000000f0: ef68 65bd 6027 513e c0f5 91be ee6a 653d
00000100: 0190 213e cb30 bb3d f630 aa3e c26c cabd
00000110: f587 8c3d e38f 6b3e c563 1e3c 5a89 cf3d
00000120: 27a2 9bbd 11ed 763d c212 c13e 9ac6 f3bd
00000130: d671 d3bc ddc6 b5bd 1422 133e 3c85 f0bc
00000140: 77ca 703b 47d9 1a3e e057 89bc 41ef 0e3e
00000150: 44d5 90bd ea28 203e 5f31 333e 4216 b9bd
00000160: f70d 823e 4b42 a53d f5ff 363e 33ed dabc
00000170: e43c 2e3d 019d d9bb 33e0 813c aa32 f43d
00000180: 91aa 6f3e 42b4 443c 7e1a 80bd 0c9b e33c
00000190: 20c6 053e cc1c 2e3e dc7e b83d 32c3 373e
000001a0: abfd d1bd da16 05bf 748a 58bd 6170 3a3c
000001b0: b462 c33d 2900 ee3e 391f 323e 651f 5dbd
000001c0: 18f3 073e 9ff9 cb37 ef95 793e aa30 073d
000001d0: f772 0fbe 5b8e 823d 0625 cf3e e409 c23d
000001e0: b05e 463e 4fdc cf3e 9342 12bd 5e07 91bd
000001f0: 6884 3dbd dc45 d0bc 1224 533d 93c1 18bc

model.4.weight f4 [64, 128]
0.16464926 -0.0131922625 0.25148603 -0.13306199 -0.12353077 -0.052968085 0.067369096 0.012602061
-0.3560899 0.033402696 -0.020252926 -0.35633186 -0.15115125 -0.048415437 -0.30354986 0.09282311
0.020801343 0.035459742 -0.034085672 -0.048468716 0.008094743 -0.5085644 0.10247359 0.17094794
0.22460546 0.15809754 0.20339955 -0.033651117 0.08686332 0.052388676 0.078283235 0.05036119
0.14846522 -0.028109672 0.37411743 0.041181885 -0.014772542 0.17438087 0.0056064883 0.034004945
0.16689137 -0.09643457 -0.13790806 -0.01870686 0.007955997 -0.06115555 -0.010227327 0.048265897
-0.40662065 -1.0373498 -0.040673103 -0.0004477579 0.019737754 0.0624535 0.106546596 -0.032532897
-0.023984918 -0.026783558 -0.11721066 -0.019167198 0.065037236 0.025010271 0.5067421 0.24840155
-0.046787333 0.107103296 0.07405976 -0.027840573 0.02330343 -0.17642719 -0.087690614 0.51894766
0.035524387 0.56238765 -0.22705969 -0.11793114 -0.0662257 0.019663045 0.40877506 0.12015864
0.015061695 -0.08626011 0.056378115 0.348957 0.088345945 -0.009973351 -0.3310188 0.0733211
0.37875453 0.02711047 -0.48374325 -0.03843011 -0.047088604 0.086890996 0.8435776 -0.1144237
-0.23265003 0.073025495 -0.25583777 -0.040362135 0.0031129704 0.0977276 0.047093216 0.17156582
-0.039574042 -0.7635914 -0.040710717 -0.023455018 0.06015847 -0.08804818 0.29228154 0.022511467
0.24051885 0.155381 0.32938454 -0.16749838 -0.010092444 0.07622815 0.23821631 0.167307
0.071766734 0.15041839 0.03142785 -0.0428733 -0.051954865 -0.030224599 -0.15630259 -0.060913328
0.014349597 0.055731125 0.011744247 -0.0153262885 -0.018826427 0.09866449 -0.0068865903 0.00783394
0.05497589 -0.03275469 -0.066062085 0.06052805 0.043934 0.020769693 -0.09489396 0.047170423
-0.019938963 -0.08845659 -0.061488606 0.069051936 -0.082226306 -0.08388126 0.066522114 0.05644728
0.018870082 -0.05843607 -0.096434854 -0.006670162 -0.0068749753 -0.047125675 -0.044067487 0.045537345
-0.06913836 -0.050051026 -0.031264324 -0.08735399 0.061392765 -0.009735096 0.019205421 0.034845334
0.018840134 0.035811484 -0.020374613 0.07657448 -0.008363545 -0.07653883 0.03215957 0.06556423
-0.03171938 -0.017621547 0.012939671 0.07525248 -0.08204174 -0.03998994 -0.05271601 -0.07182251
-0.061246034 -0.011501662 -0.0885872 -0.077779904 -0.053152278 0.07705466 0.046376467 -0.021044
-0.005449013 -0.06746693 -0.03767767 0.01760441 -0.04250771 -0.097059466 -0.018706612 -0.07769341
-0.0025579259 0.028462477 -0.014663901 0.0016413827 -0.06398441 0.05402585 -0.0457633 0.015671289
0.037142776 0.028975816 0.040436942 0.014566308 -0.04548633 0.05633635 -0.08375374 0.06282141
-0.018570568 -0.07160749 -0.036125503 -0.029539779 -0.05184958 0.045359544 -0.03605482 0.055107053
-0.065840125 0.04701715 -0.08492888 0.01846977 -0.09125075 -0.06667039 -0.08247894 0.0036916276
0.066144325 -0.022804826 0.05890573 0.056036253 -0.09024124 -0.03860736 -0.10014785 -0.023016246
-0.07861405 0.008192233 0.019699752 -0.046411976 -0.014086887 -0.098786354 0.0044067614 -0.029375728
0.059585437 -0.052071244 -0.048909035 -0.04276666 0.044415437 -0.024513878 0.003928185 0.053572826
00000000: d199 283e 5c24 58bc c7c2 803e 6741 08be
00000010: b3fd fcbd 10f5 58bd cff8 893d e078 4e3c
00000020: 6a51 b6be 44d1 083d 77e9 a5bc 2171 b6be
00000030: 65c7 1abe 444f 46bd e36a 9bbe 0b1a be3d
00000040: 9467 aa3c 3c3e 113d 6b9d 0bbd 2287 46bd
00000050: d09f 043c 4731 02bf acdd d13d fa0c 2f3e
00000060: f9fe 653e 52e4 213e f947 503e c1d5 09bd
00000070: 65e5 b13d 8295 563d f652 a03d 8947 4e3d
00000080: 4407 183e 4146 e6bc 528c bf3e 56ae 283d
00000090: 8808 72bc e690 323e a2b6 b73b c548 0b3d
000000a0: 92e5 2a3e 7d7f c5bd c537 0dbe 213f 99bc
000000b0: df59 023c 3e7e 7abd 8590 27bc 76b2 453d
000000c0: 9530 d0be e1c7 84bf d798 26bd 0cc1 eab9
000000d0: 12b1 a13c 3ecf 7f3d 1a35 da3d 3741 05bd
000000e0: 057c c4bc 3169 dbbc 240c f0bd 8704 9dbc
000000f0: 3e32 853d 57e2 cc3c dab9 013f fa5c 7e3e
00000100: 13a4 3fbd f958 db3d a5ac 973d ea11 e4bc
00000110: d6e6 be3c 54a9 34be 2397 b3bd c1d9 043f
00000120: 0582 113d a3f8 0f3f 5682 68be e285 f1bd
00000130: 57a1 87bd 6514 a13c f74a d13e bc15 f63d
00000140: 54c5 763c 24a9 b0bd bdec 663d 7eaa b23e
00000150: b8ee b43d 4467 23bc 4c7b a9be 5f29 963d
00000160: 1dec c13e c716 de3c 32ad f7be e468 1dbd
00000170: fbdf 40bd e8f3 b13d b4f4 573f f956 eabd
00000180: cf3b 6ebe 648e 953d 2bfd 82be c452 25bd
00000190: fa02 4c3b 6825 c83d d1e4 403d f3ae 2f3e
000001a0: 6418 22bd ba7a 43bf 48c0 26bd bd24 c0bc
000001b0: ba68 763d 9b52 b4bd eda5 953e f869 b83c
000001c0: 934a 763e 321c 1f3e 17a5 a83e b284 2bbe
000001d0: c75a 25bc 811d 9c3d faee 733e 8752 2b3e
000001e0: 70fa 923d 4707 1a3e 7dba 003d ea9b 2fbd
000001f0: a0ce 54bd 9499 f7bc c90d 20be 4180 79bd
00000200: 921a 6b3c 5246 643d f16a 403c 1d1b 7bbc
00000210: e139 9abc 9c10 ca3d e8a8 e1bb ed59 003c
00000220: 662e 613d c829 06bd 8f4b 87bd 43ec 773d
00000230: 23f4 333d 3425 aa3c c457 c2bd c635 413d
00000240: 0957 a3bc bb28 b5bd 7adb 7bbd 1a6b 8d3d
00000250: 4466 a8bd f0c9 abbd bf3c 883d 4335 673d
00000260: 6e95 9a3c a95a 6fbd a37f c5bd 6091 dabb
00000270: 7947 e1bb da06 41bd 1c80 34bd 5e85 3a3d
00000280: 6a98 8dbd 4e02 4dbd 050f 00bd a6e6 b2bd
00000290: fb76 7b3d f47f 1fbc b054 9d3c fbb9 0e3d
000002a0: a056 9a3c 10af 123d a9e8 a6bc 15d3 9c3d
000002b0: 4007 09bc 64c0 9cbd c1b9 033d 8a46 863d
000002c0: 2eec 01bd 105b 90bc ea00 543c f91d 9a3d
000002d0: 8005 a8bd 7ecc 23bd beec 57bd ae17 93bd
000002e0: 1fdd 7abd 7871 3cbc 356d b5bd 124b 9fbd
000002f0: 34b6 59bd d5ce 9d3d 40f5 3d3d 7764 acbc
00000300: a28d b2bb 1a2c 8abd e753 1abd 2037 903c
00000310: 911c 2ebd 1dc7 c6bd 9c3e 99bc b91d 9fbd
00000320: e0a2 27bb 242a e93c dc40 70bc aa23 d73a
00000330: 420a 83bd 364a 5d3d 4c72 3bbd 1361 803c
00000340: 0623 183d b15e ed3c 35a1 253d 86a7 6e3c
00000350: e04f 3abd f2c0 663d 1587 abbd 83a8 803d
00000360: 4e21 98bc f3a6 92bd 56f8 13bd 68fd f1bc
00000370: 3a60 54bd eeca 393d 38ae 13bd efb7 613d
00000380: 30d7 86bd 0e95 403d 31ef adbd ea4d 973c
00000390: ace1 babd 7c8a 88bd b8ea a8bd 3cef 713b
000003a0: ad76 873d 30d1 babc 2247 713d 4586 653d
000003b0: 66d0 b8bd c022 1ebd 511a cdbd 918c bcbc
000003c0: 6700 a1bd b738 063c 6061 a13c 7c1a 3ebd
000003d0: b0cc 66bc 8050 cabd 9866 903b 5ea5 f0bc
000003e0: dc0f 743d a848 55bd d754 48bd 182c 2fbd
000003f0: f6ec 353d 54d1 c8bc 01b8 803b 2e6f 5b3d

model.4.bias f4 [64]
0.11095438 -0.006001313 0.11639045 0.08219369 0.39179114 0.2892974 0.198919 -0.01693932
0.30742568 0.004607732 0.17625506 -0.17353961 0.4220101 -0.086651124 0.20015039 -0.02560728
0.00521381 0.4521694 -0.10752263 0.03346166 0.22431701 -0.16224523 0.23196723 0.0036177703
-0.04259445 0.14115973 -0.0043219132 0.6175574 -0.14810221 0.10531109 -0.047437362 0.23739079
0.20659699 -0.124024324 -0.08506936 0.073966436 0.011415523 0.030595815 0.010624013 0.19552827
0.2501729 0.2825261 -0.090279564 0.20774868 -0.09268439 0.47674406 -0.12189368 0.10576953
0.04897098 -0.0948486 0.031732194 0.36346632 0.13494217 0.19563037 0.2381114 0.044755485
0.010818028 -0.069987565 -0.087552674 0.1485421 -0.031845562 -0.1270058 -0.039131444 0.0070670596
00000000: 0d3c e33d aaa6 c4bb 1e5e ee3d 2a55 a83d
00000010: d998 c83e ca1e 943e 6cb1 4b3e 54c4 8abc
00000020: e666 9d3e 75fc 963b 357c 343e 5eb4 31be
00000030: b511 d83e 2576 b1bd 39f4 4c3e 5cc6 d1bc
00000040: 9cd8 aa3b bf82 e73e d334 dcbd 180f 093d
00000050: 5cb3 653e 9d23 26be d188 6d3e 1d18 6d3b
00000060: 8577 2ebd 2d8c 103e d69e 8dbb 3e18 1e3f
00000070: 1ba8 17be 57ad d73d ae4d 42bd 9216 733e
00000080: 298e 533e 7700 febd d838 aebd b77b 973d
00000090: 2c08 3b3c 13a4 fa3c 5710 2e3c 9038 483e
000000a0: aa16 803e 43a7 903e 7ee4 b8bd 12bc 543e
000000b0: 50d1 bdbd cc17 f43e 65a3 f9bd b29d d83d
000000c0: cb95 483d fc3f c2bd 9ef9 013d 4218 ba3e
000000d0: 482e 0a3e 5453 483e 7ad3 733e 8751 373d
000000e0: 193e 313c a455 8fbd d14e b3bd 6c1b 183e
000000f0: 7e70 02bd cf0d 02be 4b48 20bd cb92 e73b

model.6.weight f4 [32, 64]
0.06808456 -0.05411032 -0.0033357795 -0.11464795 -0.1740844 0.044160556 0.045754015 0.09558674
0.023870356 -0.007609528 -0.024761744 -0.049313325 -0.07705541 -0.07982805 -0.052893013 -0.090719
-0.07121717 -0.16703872 -0.002649337 0.07061324 -0.14691436 0.15477924 0.059363123 0.056289267
-0.06524406 -0.15715028 -0.028936965 0.018910324 0.061510913 -0.15117645 -0.122236915 0.10386502
0.11060676 0.04269412 0.05511963 -0.11395233 -0.010491085 -0.05698328 -0.1480251 -0.16691385
0.037609383 -0.0075997724 0.0071951 -0.1571242 0.017467573 -0.10500616 -0.0990326 -0.040049303
-0.10808958 -0.09484453 0.042934157 -0.08246596 -0.20813785 -0.046812125 -0.13238695 0.01516142
-0.059167705 -0.12110481 -0.054949068 0.048295252 -0.03434061 -0.077055246 0.096588045 0.09307914
-0.13863434 -0.110183075 -0.27767444 0.14781657 0.39470476 -0.19730403 -0.18293443 0.10159528
-0.2934295 -0.12182454 -0.10719211 -0.13533592 0.5113156 0.063378625 -0.079710186 0.1897984
-0.01358664 0.22200054 0.11912899 -0.0009775907 0.009830526 -0.004874376 0.006448335 0.020666933
0.18281521 0.3382369 -0.020508064 0.36276966 -0.07730467 0.01419547 -0.1708428 -0.03902907
0.21626312 -0.08598744 -0.033548307 0.034785073 0.13734761 0.06559598 -0.17587818 -0.13664162
-0.04324893 0.3061706 0.054249734 0.21903062 -0.1490286 0.20713043 0.034835774 0.1512642
-0.22698824 0.0036749374 0.085320316 0.18881838 0.19352092 0.17292662 0.105797276 0.20852731
0.2778311 0.090008825 0.0655539 0.19072518 -0.021780793 0.008443322 -0.13127185 0.06495295
0.01704668 -0.027653169 -0.22557116 0.03655469 -0.020789113 0.17050907 0.17025521 -0.006645043
0.24385591 0.043198485 -0.08904496 -0.11000542 0.17878507 0.10504233 -0.16988006 0.13762452
0.11973947 0.055824436 0.07286202 0.13135031 0.12411258 0.25729814 -0.16507 -0.08884914
0.04841051 -0.018129772 0.114029385 -0.23971492 0.0724347 0.09927504 -0.009217637 0.12647788
0.18819489 0.06315395 0.023249807 -0.12805125 -0.024239345 0.023501052 -0.13498697 -0.026275706
-0.06766626 -0.014253691 0.03183467 -0.19217896 -0.0016580066 -0.022894884 -0.019951554 0.07103837
0.13779505 -0.09459966 0.015910288 -0.12336651 0.10754101 -0.12232415 -0.04898172 0.056159735
-0.19099048 0.034019396 -0.023175986 -0.3274069 0.064187735 -0.06492591 0.05181926 -0.023184972
0.17333789 -0.017262252 -0.11652167 -0.0016220077 0.3452203 -0.53625107 -0.36486608 0.020164624
-0.024132565 0.11159005 -1.0936121 0.021656187 0.04447905 0.046073686 0.074040316 -0.07457363
0.0924081 -0.09356197 -0.032123886 -0.20595565 -0.30920804 0.41191453 0.011480615 -0.043516103
0.021026889 0.115418665 0.14235732 -0.049515627 -0.17808942 0.020693757 -0.17854665 -0.15382624
0.4091081 0.018465329 -0.104275696 -0.15577652 -0.105767325 -0.06252894 -0.16870004 -0.2705039
0.07265187 -0.2766013 0.014516583 0.02948474 -0.077746265 -0.6701889 -0.10373064 0.07070716
-0.07494663 0.014220823 0.046310883 -0.030864961 -0.24960761 -0.14475559 -0.16998537 -0.23469861
-0.14280444 -0.061605398 0.12937902 -0.678606 0.12127243 0.043117385 0.035117924 -0.12041718
00000000: eb6f 8b3d c8a2 5dbd 189d 5abb 8bcc eabd
00000010: 2e43 32be b3e1 343d 9068 3b3d fbc2 c33d
00000020: c48b c33c 5959 f9bb 24d9 cabc c5fc 49bd
00000030: 3acf 9dbd e47c a3bd 58a6 58bd e2ca b9bd
00000040: 4fda 91bd 330c 2bbe 80a0 2dbb ad9d 903d
00000050: b870 16be 737e 1e3e bf26 733d 938f 663d
00000060: ad9e 85bd 01ec 20be 370d edbc d3e9 9a3c
00000070: def2 7b3d 00ce 1abe 5957 fabd 2fb7 d43d
00000080: cc85 e23d 08e0 2e3d 1fc5 613d d75f e9bd
00000090: cde2 2bbc 4d67 69bd e493 17be 77eb 2abe
000000a0: 4c0c 1a3d 8307 f9bb e0c4 eb3b 2be5 20be
000000b0: 2818 8f3c 780d d7bd 9bd1 cabd bd0a 24bd
000000c0: 125e ddbd d93d c2bd badb 2f3d eae3 a8bd
000000d0: 1722 55be 12be 3fbd 7290 07be 9b67 783c
000000e0: d659 72bd cc05 f8bd 4612 61bd 3ed1 453d
000000f0: bda8 0cbd 24cf 9dbd f4cf c53d 47a0 be3d
00000100: 29f6 0dbe aaa7 e1bd 582b 8ebe 3a5d 173e
00000110: be16 ca3e 110a 4abe 2a53 3bbe 3011 d03d
00000120: 643c 96be 257f f9bd 8987 dbbd 8095 0abe
00000130: 94e5 023f a7cc 813d 183f a3bd 835a 423e
00000140: 809a 5ebc 1c54 633e e6f9 f33d 8022 80ba
00000150: 3710 213c 3bb9 9fbb 8e4c d33b b34d a93c
00000160: e933 3b3e 632d ad3e 8700 a8bc f2bc b93e
00000170: e951 9ebd 1e94 683c 6af1 2ebe f2dc 1fbd
00000180: 1474 5d3e 2f1a b0bd f369 09bd cb7a 0e3d
00000190: daa4 0c3e 2f57 863d 6919 34be c8eb 0bbe
000001a0: ca25 31bd 65c2 9c3e f834 5e3d 9049 603e
000001b0: f49a 18be 001a 543e f5af 0e3d 01e5 1a3e
000001c0: 9b6f 68be 38d7 703b 6bbc ae3d 9b59 413e
000001d0: 592a 463e ad13 313e 3eac d83d 2f88 553e
000001e0: e13f 8e3e 8c56 b83d 2041 863d 764d 433e
000001f0: a26d b2bc dc55 0a3c 216c 06be 0d06 853d
00000200: 7ba5 8b3c e688 e2bc 20fc 66be 5fba 153d
00000210: ee4d aabc ee99 2e3e 6257 2e3e a9be d9bb
00000220: 5db5 793e e5f0 303d 345d b6bd 864a e1bd
00000230: 6f13 373e 6f20 d73d 0af5 2dbe 71ed 0c3e
00000240: f839 f53d 2aa8 643d af38 953d b280 063e
00000250: bd2e fe3d 95bc 833e 1c08 29be 8af6 b5bd
00000260: 194a 463d e384 94bc 3d88 e93d d477 75be
00000270: a558 943d b650 cb3d 9205 17bc 6b83 013e
00000280: 29b6 403e dc56 813d 6176 be3c de1f 03be
00000290: 9791 c6bc 4785 c03c 063a 0abe 2640 d7bc
000002a0: 9c94 8abd 5088 69bc 1265 023d 90ca 44be
000002b0: 7851 d9ba 0d8e bbbc 7171 a3bc 917c 913d
000002c0: 251a 0d3e 77bd c1bd 4b56 823c 95a7 fcbd
000002d0: 763e dc3d 1585 fabd 0ea1 48bd c007 663d
000002e0: 0293 43be ec57 0b3d 91db bdbc e1a1 a7be
000002f0: dc74 833d e0f7 84bd 6f40 543d 69ee bdbc
00000300: 7d7f 313e 9169 8dbc eaa2 eebd 8c99 d4ba
00000310: b7c0 b03e c047 09bf bacf babe 4830 a53c
00000320: a8b1 c5bc 5389 e43d 7bfb 8bbf 5168 b13c
00000330: aa2f 363d c3b7 3c3d 73a2 973d 0fba 98bd
00000340: 7540 bd3d 6b9d bfbd 5694 03bd 0ae6 52be
00000350: 8450 9ebe 76e6 d23e 3019 3c3c f13d 32bd
00000360: 9540 ac3c 9f60 ec3d 1ec6 113e e6d0 4abd
00000370: 135d 36be f485 a93c efd4 36be a084 1dbe
00000380: 9e76 d13e 9a44 973c 7f8e d5bd e183 1fbe
00000390: 8a9c d8bd 2c0f 80bd b4bf 2cbe 7d7f 8abe
000003a0: 81ca 943d b09e 8dbe f6d6 6d3c fb89 f13c
000003b0: 6f39 9fbd 8091 2bbf bb70 d4bd eace 903d
000003c0: 9e7d 99bd 74fe 683c 7bb0 3d3d 84d8 fcbc
000003d0: 2399 7fbe cf3a 14be a510 2ebe d554 70be
000003e0: 543b 12be f155 7cbd ef7b 043e 1fb9 2dbf
000003f0: ae5d f83d db9b 303d d0d7 0f3d 489d f6bd

model.6.bias f4 [32]
0.0430893 0.6049474 -0.068617105 0.046075903 0.06301214 0.47785735 0.1504704 0.046984322
0.18024233 0.22067483 0.66737646 0.038430013 -0.079753 0.042643104 0.009581633 0.15172476
0.38775474 0.1818915 0.1291844 0.23974599 0.16869247 0.1968664 -0.17512967 0.011414238
0.05779455 0.15983523 0.055036694 0.53599614 0.2754284 0.26400316 0.05577225 0.25191048
00000000: 687e 303d d5dd 1a3f 2087 8cbd 16ba 3c3d
00000010: 820c 813d b8a9 f43e ea14 1a3e a272 403d
00000020: 7291 383e 95f8 613e 2fd9 2a3f ca68 1d3d
00000030: 8a55 a3bd 89aa 2e3d 48fc 1c3c bc5d 1b3e
00000040: ca87 c63e c441 3a3e ea48 043e f97f 753e
00000050: b8bd 2c3e 5897 493e 3155 33be c902 3b3c
00000060: fab9 6c3d d9ab 233e 286e 613d 0b37 093f
00000070: f404 8d3e 6c2b 873e 7171 643d 69fa 803e

model.8.weight f4 [10, 32]
0.10469336 0.18453215 -0.29800496 -0.22246993 -0.04543853 0.24609852 0.023242395 0.011291743
-0.15355487 -0.068440884 0.299143 -0.13439979 0.020010563 -0.14809383 0.17221318 0.2297736
0.2927112 -0.3781548 0.007738988 -0.11373269 -0.10237026 0.2876236 0.0832528 0.29689488
-0.07183605 -0.23012333 0.12494645 0.12145053 0.14428003 0.20897073 -0.011272099 -0.20282595
-0.060198896 0.32588276 -0.18429673 -0.031644903 0.04365727 0.34521934 -0.03174852 0.02185608
-0.22245026 -0.25875774 0.15369359 -0.1517996 0.069824725 0.09254603 -0.12755223 0.22630844
0.26293147 -0.29965404 0.10658364 0.1263013 -0.1411297 0.040090118 -0.0580688 0.21782354
-0.1697227 -0.27110147 0.075990364 0.32108456 0.13608019 0.23046863 -0.114936285 -0.19489919
0.13026088 0.438223 -0.16057539 0.04226185 0.016216865 0.25513923 0.06850378 0.022593025
-0.17835765 0.076132946 0.2336472 0.033732496 0.13160639 -0.01054026 0.15857542 0.24033535
0.22055651 -0.2939717 -0.0972037 0.13693114 -0.3662333 0.2031525 0.07775272 0.15853688
-0.2419945 -0.22002493 -0.10577481 0.12159547 0.057443622 0.20437577 0.10549698 -0.13588533
0.0103394035 0.35353968 -0.20485915 -0.16151406 0.045005307 0.21313797 0.18621546 0.03560146
-0.24080098 0.10052628 0.29167593 -0.16153704 0.057738937 -0.030584376 0.12961556 0.18137103
0.21608995 -0.23447892 -0.075465724 0.12757576 -0.049633224 0.17658266 -0.12220109 0.2376553
-0.24942783 -0.3251162 -0.14744897 0.22234997 0.019442808 0.25381482 0.005981395 -0.14510265
-0.14640003 0.15625232 -0.21569483 0.106165566 0.13807559 0.23354708 -0.054068215 0.03157872
-0.23880808 0.06162047 0.31559145 -0.0823315 0.100479536 0.02613352 0.15769123 -0.0036459486
0.31850138 -0.31025612 0.13595644 0.18796432 -0.24155653 0.16262186 -0.13279536 0.24209245
-0.17501855 -0.18731585 -0.020045776 0.17927535 -0.0949633 0.22933033 0.10957668 -0.21304679
0.079041 0.3499845 -0.3094218 -0.008939529 -0.12990578 0.16819541 0.18024804 -0.07313606
-0.22083789 0.18050356 0.2375861 -0.1245508 0.06610818 0.0016182286 0.10824828 -0.07430235
0.32171667 -0.22527339 0.08124056 -0.10578327 -0.16795748 0.17368789 0.017876878 0.021888733
-0.22178991 -0.21975517 0.0016306737 0.20223522 0.060213484 0.18603404 0.1802411 -0.24883495
-0.08590963 0.33334306 -0.0947124 0.050938062 0.03494313 0.17245714 0.15031435 -0.0010845917
-0.17798775 0.063954145 0.26762855 0.005038386 -0.079658754 -0.03478521 0.09625408 0.13477643
0.25060397 -0.33641434 0.19237953 0.06469564 -0.13275504 0.081320114 -0.05636275 0.028558144
-0.35957852 -0.1944762 0.03909762 0.16694625 0.18269248 0.19895066 -0.0050429762 -0.19379649
-0.08550875 0.36959082 -0.14989553 0.085940145 0.17473505 0.14624938 -0.01443295 0.009761228
-0.1349504 -0.024724038 0.30000034 -0.15359408 -0.066033095 0.018966552 0.12452164 -0.14405507
0.297742 -0.15690574 0.07271666 -0.059487894 -0.15832458 0.2136731 0.064708576 0.02886192
-0.2106163 -0.35014513 0.085871525 0.18056409 0.015758308 0.18495412 -0.15218379 -0.38979003
00000000: 7969 d63d fff5 3c3e 1b94 98be 28cf 63be
00000010: c11d 3abd 4001 7c3e d666 be3c 0101 393c
00000020: 7d3d 1dbe bc2a 8cbd 4529 993e 19a0 09be
00000030: 31ed a33c e9a5 17be a758 303e c549 6b3e
00000040: 3ede 953e 829d c1be 5697 fd3b afec e8bd
00000050: 80a7 d1bd 6743 933e 7280 aa3d 9b02 983e
00000060: c71e 93bd 73a5 6bbe ede3 ff3d 0ebb f83d
00000070: 25be 133e 6cfc 553e 9cae 38bc 9bb1 4fbe
00000080: 1e93 76bd 1bda a63e 48b8 3cbe 169e 01bd
00000090: f7d1 323d 97c0 b03e bc0a 02bd 860b b33c
000000a0: 00ca 63be e57b 84be da61 1d3e 5b71 1bbe
000000b0: 4400 8f3d c688 bd3d 0d9d 02be 66bd 673e
000000c0: f49e 863e 416c 99be 8648 da3d 2155 013e
000000d0: 4e84 10be 8935 243d 8dd9 6dbd 220d 5f3e
000000e0: cacb 2dbe d0cd 8abe d6a0 9b3d 3265 a43e
000000f0: 9b58 0b3e f8ff 6b3e b763 ebbd a793 47be
00000100: 1c63 053e c45e e03e e06d 24be c31a 2d3d
00000110: 3bd9 843c 9ca1 823e b64b 8c3d 0215 b93c
00000120: 63a3 36be 97eb 9b3d 3641 6f3e 162b 0a3d
00000130: d3c3 063e 0eb1 2cbc 9861 223e 781a 763e
00000140: 91d9 613e 7583 96be bc12 c7bd ad37 0c3e
00000150: ee82 bbbe 3507 503e d13c 9f3d 7e57 223e
00000160: 68cd 77be 374e 61be 77a0 d8bd 0c07 f93d
00000170: 014a 6b3d e247 513e cd0e d83d 8625 0bbe
00000180: 9a66 293c 2703 b53e 99c6 51be f163 25be
00000190: 7c57 383d d740 5a3e 44af 3e3e d6d2 113d
000001a0: 8894 76be b9e0 cd3d 8c56 953e f769 25be
000001b0: aa7f 6c3d 168c fabc f1b9 043e 54b9 393e
000001c0: af46 5d3e 3e1b 70be c68d 9abd 38a3 023e
000001d0: 354c 4bbd 16d2 343e 9144 fabd e95b 733e
000001e0: 026a 7fbe a175 a6be ddfc 16be b6af 633e
000001f0: 8646 9f3c 04f4 813e 94ff c33b ca95 14be
00000200: e4e9 15be 9c00 203e 1bdf 5cbe 556d d93d
00000210: b063 0d3e f726 6f3e a276 5dbd b058 013d
00000220: 1b8a 74be bf65 7c3d 3495 a13e 6b9d a8bd
00000230: 37c8 cd3d f715 d63c cf79 213e def0 6ebb
00000240: 9d12 a33e e4d9 9ebe 2a38 0b3e b879 403e
00000250: 985a 77be 5886 263e 82fb 07be 15e7 773e
00000260: 1038 33be bacf 3fbe 0a37 a4bc f593 373e
00000270: 1e7c c2bd 92d5 6a3e bd69 e03d f028 5abe
00000280: 3fe0 a13d 2b31 b33e 896c 9ebe 1a77 12bc
00000290: 0506 05be 6b3b 2c3e f192 383e 5cc8 95bd
000002a0: 5423 62be edd5 383e c549 733e 7d14 ffbd
000002b0: ba63 873d be1a d43a 46b1 dd3d d52b 98bd
000002c0: 0cb8 a43e 11ae 66be 7361 a63d e6a4 d8bd
000002d0: 0cfd 2bbe 3ddb 313e 8872 923c 0050 b33c
000002e0: e51c 63be 8007 61be 54bc d53a c016 4f3e
000002f0: 6aa2 763d b57f 3e3e 1f91 383e 97ce 7ebe
00000300: 63f1 afbd f1ab aa3e 93f8 c1bd 6ea4 503d
00000310: 8720 0f3d 9b98 303e 01ec 193e dc28 8eba
00000320: 6c42 36be 64fa 823d 9c06 893e 0c19 a53b
00000330: 2124 a3bd f07a 0ebd dc20 c53d d502 0a3e
00000340: 2a4f 803e 803e acbe 24ff 443e 267f 843d
00000350: f0f0 07be 298b a63d a0dc 66bd c5f2 e93c
00000360: ad1a b8be c524 47be d324 203d f5f3 2a3e
00000370: bd13 3b3e b9b9 4b3e 8d3f a5bb 9672 46be
00000380: 361f afbd 023b bd3e 377e 19be 6301 b03d
00000390: bfed 323e 66c2 153e 2e78 6cbc 8fed 1f3c
000003a0: 7030 0abe 118a cabc a599 993e c447 1dbe
000003b0: 5c3c 87bd be5f 9b3c 3405 ff3d 2c83 13be
000003c0: a471 983e e6ab 20be 79ec 943d 94a9 73bd
000003d0: d71f 22be 1fcd 5a3e ee85 843d d56f ec3c
000003e0: cdab 57be 3946 b3be 69dd af3d cbe5 383e
000003f0: 9117 813c 9d64 3d3e 11d6 1bbe 8f92 c7be

model.8.bias f4 [10]
-0.09721014 -0.15904143 -0.014296979 -0.18655384 -0.124675974 0.05761811 0.09056146 0.123937614
0.11105045 0.14779651
00000000: 1c16 c7bd c2db 22be e03d 6abc f807 3fbe
00000010: 1e56 ffbd f800 6c3d 4978 b93d 01d3 fd3d
00000020: 6b6e e33d f857 173e
