checkpoints/checkpoint_step_4900.pth (torch, 200878 bytes, 10 tensors)

model.0.weight f4 [256, 21]
0	0x3e07066f	0.13186048
1	0x3cb9b2e6	0.022668313
2	0x3e23dd29	0.16002335
3	0xbe953f6b	-0.29149947
4	0xbe9ee976	-0.31037492
5	0xbe1a9350	-0.15095258
6	0xbf06eabb	-0.5270192
7	0xbc307f28	-0.010772504
8	0x3d7298cb	0.059227746
9	0x3e034053	0.12817506
10	0xbe4c9680	-0.19979286
11	0xbdb6ce47	-0.08926063
12	0x3e6620ee	0.22473499
13	0xbf486a56	-0.78287256
14	0xbe6be5d2	-0.23036888
15	0xbe38152c	-0.17976826
16	0xbd22a065	-0.039703745
17	0x3d8d70ed	0.069063045
18	0x3dfb9aea	0.12285407
19	0xbebbcbb3	-0.36678848
20	0x3ec2f496	0.3807723
21	0x3cdc95d8	0.02692692
22	0x3c921f09	0.017837064
23	0xbe327918	-0.17429006
24	0xbda2514c	-0.079256624
25	0xbf931bb8	-1.1492834
26	0xbd9a0817	-0.07521074
27	0x3da3d522	0.07999636
28	0xbdb28059	-0.087158866
29	0xbe09d2c7	-0.13459311
30	0xbe9af477	-0.30264637
31	0xbcd698c9	-0.0261959
32	0xbd8909e1	-0.066913374
33	0xbeab4eb6	-0.3345849
34	0xbeafd3d0	-0.34341288
35	0xbe0065b3	-0.12538795
36	0xbcc2b5e4	-0.023768373
37	0xbd4bfeb1	-0.04980344
38	0x3e1e6c3e	0.15470979
39	0xbdae307b	-0.08505341
40	0x3e0aca98	0.13553846
41	0xbd923a5e	-0.07140039
42	0xbd61385e	-0.054985397
43	0xbe860c6a	-0.26181346
44	0x3e7df3eb	0.24800079
45	0xbcdbc23f	-0.026826022
46	0x3e0315ad	0.12801237
47	0x3dafff51	0.085936196
48	0xbef8bb3d	-0.4858035
49	0x3ddbc647	0.10731178
50	0x3e1be5dc	0.15224403
51	0xbe3011fe	-0.17194363
52	0x3d054d31	0.03254432
53	0xbf01457b	-0.50496644
54	0xbdea3215	-0.11435334
55	0xbe72eb14	-0.23722488
56	0xbe5d276e	-0.21597072
57	0x3db7146d	0.08939443
58	0xbea5d330	-0.32387686
59	0xbd42c9d1	-0.04755575
60	0xbdb568e6	-0.088578984
61	0xbe3da10c	-0.18518466
62	0xbdd5bff6	-0.10437004
63	0x3caaecc3	0.02086485
64	0xbf56d55c	-0.8391931
65	0x3d97cff7	0.07412713
66	0xbf13427f	-0.5752334
67	0xbfdb4825	-1.7131392
68	0x3d8737d4	0.06602445
69	0xbe515c0d	-0.20445271
70	0x3df452ad	0.11929832
71	0xbe074bff	-0.13212584
72	0x3ea8961b	0.3292702
73	0xbe002ad5	-0.12516339
74	0x3e85a69a	0.2610367
75	0xbc83e249	-0.016099112
76	0xbe18dfc0	-0.14929104
77	0xbdc53bb3	-0.09630527
78	0x3e9c8aae	0.30574554
79	0xbe120889	-0.14261068
80	0x3e409726	0.18807659
81	0xbd9b2ed0	-0.07577288
82	0x3e179d3c	0.14806074
83	0xbf326196	-0.69680154
84	0x3df3322f	0.11874806
85	0xbd9f790b	-0.07786759
86	0xbe1e5393	-0.15461569
87	0x3cc4d7df	0.024028717
88	0x3df768a5	0.12080506
89	0xbeb10ad6	-0.3457858
90	0x3dfc6d11	0.1232549
91	0x3df15bb1	0.11785067
92	0x3e25786a	0.16159216
93	0xbc771f16	-0.015083095
94	0xbe40fc61	-0.18846275
95	0xbc9ca156	-0.0191199
96	0x3c42adf0	0.01188229
97	0xbe0a39d3	-0.1349862
98	0xbedd21ab	-0.4318975
99	0x3d9dfaaf	0.0771383
100	0x3e818f5c	0.25304687
101	0xbf1436ac	-0.5789592
102	0xbe50dcea	-0.20396772
103	0x3d6e107b	0.058121186
104	0x3d803808	0.06260687
105	0xbe0923ef	-0.13392614
106	0x3dcb470c	0.099256605
107	0xbe102a55	-0.14078648
108	0x3e03782d	0.12838812
109	0xbcd09c5e	-0.025465187
110	0x3dd51343	0.104040645
111	0xbe2733c5	-0.16328342
112	0x3c9110c1	0.017708184
113	0xbe6a113f	-0.22858141
114	0xbd8bdbb5	-0.06829015
115	0x3dd8a4e3	0.10578325
116	0x3e88c13a	0.2670992
117	0x3bb24e57	0.0054414677
118	0x3ed13279	0.4085882
119	0xbd56bb00	-0.05242443
120	0x3ec78d83	0.38975152
121	0x3e2f2052	0.17102173
122	0x3ea98e9f	0.33116624
123	0xbdfa1be1	-0.12212349
124	0x3e661abe	0.22471139
125	0x3ddbe524	0.107370645
126	0xbf24ecd4	-0.6442387
127	0xbd800d94	-0.0625259
128	0x3e948048	0.2900412
129	0xbebbe4e0	-0.36698055
130	0xbf4a7101	-0.7907868
131	0xbe009bb6	-0.12559399
132	0xbe8ea0a2	-0.27856928
133	0xbea9eee5	-0.33190075
134	0xbec4387a	-0.38324338
135	0xbd65cea5	-0.056105275
136	0xbe8e5f8d	-0.27807274
137	0xbe904815	-0.28179994
138	0xbd9a3cd6	-0.07531135
139	0xbe4fc207	-0.2028886
140	0x3e2389f8	0.159706
141	0x3e286897	0.16446148
142	0x3de0943b	0.10965773
143	0x3dcbba1e	0.099476084
144	0xbe5691c8	-0.20954049
145	0xbdc69b20	-0.096975565
146	0xbdce5d1e	-0.100763544
147	0xbe310244	-0.1728602
148	0xbdf09f7c	-0.11749169
149	0x3e396f56	0.18108878
150	0xbe09e937	-0.1346787
151	0x3e3ac0c6	0.182376
152	0xbd76fceb	-0.060299795
153	0xbeafa652	-0.3430658
154	0xbd9ac751	-0.07557548
155	0xc0a216ce	-5.065284
156	0xbd061b38	-0.0327408
157	0xbd9f26e0	-0.07771087
158	0xbd0e00df	-0.0346688
159	0xbdbe7714	-0.09300056
160	0xbdaa54a3	-0.083169244
161	0x3d00ec0b	0.031475108
162	0xbc283795	-0.010267158
163	0xbd53ca9c	-0.051706895
164	0xbe47de49	-0.19518389
165	0xbd482182	-0.04886008
166	0xbe7c0c16	-0.24613985
167	0xbe56e33f	-0.20985125
168	0xbca77ba1	-0.020444693
169	0xbe034b5d	-0.12821718
170	0x3d9a43f9	0.07532496
171	0xbe5f3a5c	-0.21799606
172	0x3d830c82	0.0639887
173	0x3b45786e	0.0030131596
174	0xbeb38a3b	-0.350664
175	0xbdd5c61b	-0.10438176
176	0x3e3ce9e5	0.18448599
177	0xbe97c866	-0.2964508
178	0xbea20c4b	-0.31650004
179	0xbeb724b8	-0.35770202
180	0xbc959748	-0.018260613
181	0xbd9ec0de	-0.0775163
182	0xbe2e6609	-0.17031111
183	0xbe98d641	-0.29850963
184	0x3c28c3a9	0.010300555
185	0xbd8e062b	-0.0693477
186	0xbe83a4af	-0.2571158
187	0xbd85eb14	-0.06538978
188	0x3cec0b3d	0.028813953
189	0x3e325a94	0.17417365
190	0xbe53dcc3	-0.20689683
191	0xbea780ed	-0.3271555
192	0xbd8fa927	-0.07014685
193	0x3e5d4608	0.21608746
194	0xbe71426c	-0.23560494
195	0xbe8e6ac3	-0.27815828
196	0xbda541ff	-0.080692284
197	0x3d05f05d	0.03269993
198	0x3d047587	0.032338645
199	0xbe3e1add	-0.18564935
200	0xbf0514a7	-0.5198464
201	0xbdc88a05	-0.0979195
202	0xbeb008d9	-0.3438175
203	0x3da6def1	0.081479914
204	0xbdf9e7fb	-0.1220245
205	0xbe331c72	-0.1749132
206	0xbf064866	-0.5245422
207	0x3de1b88d	0.110215284
208	0xbe5ac255	-0.21363194
209	0xbdaa391e	-0.083116755
210	0xbe98706d	-0.29773274
211	0x3e4c9b15	0.19981034
212	0xbe29bb3b	-0.16575329
213	0x3cdab374	0.026696898
214	0xbe9b7fca	-0.30370933
215	0x3dde41bc	0.108523816
216	0xbe462cd7	-0.19353043
217	0x3e263e97	0.16234814
218	0xbe3a69fa	-0.1820449
219	0x3e30841c	0.17237896
220	0x3e0d5cce	0.13804933
221	0xbe522c8a	-0.20524803
222	0xbcf933d9	-0.03042023
223	0x3f1b1fef	0.605956
224	0x3e5560bd	0.20837684
225	0xbefa72f7	-0.48915836
226	0x3e75c044	0.23999125
227	0xbe7c3d65	-0.24632795
228	0xbd88180d	-0.06645212
229	0x3e6768a4	0.22598511
230	0x3cbeea4e	0.023305085
231	0xbe0c3ce7	-0.13695107
232	0x3d6f717a	0.05845783
233	0xbe0c3430	-0.13691783
234	0xbdf1d175	-0.11807529
235	0x3ea53c43	0.3227254
236	0x3cab7556	0.020929974
237	0x3da49950	0.080370545
238	0xbd98e983	-0.07466414
239	0xbedd06c8	-0.43169236
240	0xbe518d11	-0.20463969
241	0xbe2fb4cb	-0.17158811
242	0xbe8191e8	-0.2530663
243	0xbca31cda	-0.019911218
244	0xbdc4ffe8	-0.09619123
245	0xbd652bea	-0.055950083
246	0x3ea87476	0.32901353
247	0xbe74036c	-0.2382943
248	0xbe9913fe	-0.29898065
249	0xbd2dd80d	-0.04244237
250	0xbde2607c	-0.11053559
251	0xbd6d226b	-0.05789415
252	0xbde61a6c	-0.11235508
253	0x3db26578	0.0871076
254	0xbe9f408b	-0.3110393
255	0xbe20bcf1	-0.15697075

model.0.bias f4 [256]
0	0x3e28b63c	0.16475767
1	0x3c002589	0.007821449
2	0xbe69461a	-0.22780648
3	0x3d8a6e7a	0.06759353
4	0x3ec064df	0.3757696
5	0x3e566011	0.20935084
6	0x3ddc276c	0.107497066
7	0x3db85376	0.09000294
8	0x3e402361	0.18763496
9	0x3e36ca8a	0.178507
10	0xbe8843ae	-0.26614136
11	0xbc8f486c	-0.017490588
12	0xbba0090b	-0.0048838905
13	0xbee4ad3e	-0.44663423
14	0x3ef0acdc	0.4700688
15	0x3ede1d85	0.43381897
16	0xbdfbf8d3	-0.12303319
17	0xbde84d89	-0.11342914
18	0x3eca43f4	0.3950497
19	0xbe3ad9a0	-0.1824708
20	0xbdaa4080	-0.08313084
21	0xbed4709b	-0.4149216
22	0xbdee4e77	-0.1163606
23	0xbe2c9394	-0.16853172
24	0xbf0997ad	-0.53747064
25	0xbdf1fab1	-0.11815394
26	0xbe590020	-0.21191454
27	0x3e15b48f	0.14619659
28	0xbd51e7b6	-0.051246367
29	0xbc3f9c30	-0.011694953
30	0x3e98873d	0.2979068
31	0x3ed424de	0.41434377
32	0xbdf8eef2	-0.1215495
33	0xbe29a7c0	-0.16567898
34	0xbea093c4	-0.31362736
35	0x3dbc03bc	0.091804
36	0xbdc9b177	-0.09848302
37	0xbea8f12e	-0.32996505
38	0x3d00dc96	0.031460367
39	0x3dc4c6b4	0.09608212
40	0xbd6b3f08	-0.05743316
41	0x3e635e0e	0.22203848
42	0xbd8c9a27	-0.0686534
43	0xbda464fe	-0.08027075
44	0x3e917b99	0.2841461
45	0xbe43d8ed	-0.1912572
46	0xbde8c18c	-0.11365041
47	0xbd154a42	-0.03644777
48	0x3e398503	0.18117146
49	0xbdfb98e9	-0.12285025
50	0xbd3f9342	-0.046771295
51	0x3d7048bb	0.05866311
52	0xbec4f60b	-0.38468966
53	0xbe9027ea	-0.28155452
54	0x3dda1d2e	0.10650097
55	0xbea345fc	-0.3188933
56	0xbeaaaaec	-0.33333528
57	0x3b857748	0.0040730573
58	0xbec38eb7	-0.3819482
59	0xbd4d0363	-0.050052058
60	0x3d819434	0.06327096
61	0xbdf1c808	-0.11805731
62	0x3e93fc5b	0.2890347
63	0xbe0047ba	-0.12527362
64	0xbd90d56f	-0.07071959
65	0xbe007ab6	-0.1254681
66	0xbd7b1fd2	-0.061309643
67	0x3eaa9012	0.33313042
68	0xbe9d87b1	-0.30767587
69	0x3e4b88f0	0.19876456
70	0xbc3dd74a	-0.011586973
71	0x3e8b6e34	0.27232516
72	0xbd451b8d	-0.048121978
73	0x3dede346	0.116156146
74	0xbe4ab064	-0.1979385
75	0xbebe4a6d	-0.37166157
76	0xbde27c27	-0.110588364
77	0xbdf61d9a	-0.12017365
78	0xbe3ea3f7	-0.18617235
79	0x3ec557a0	0.38543415
80	0x3d0864a8	0.03329912
81	0x3e957f7f	0.29198834
82	0xbefcbd3b	-0.4936312
83	0xbe2195c1	-0.15779783
84	0x3d8999f0	0.067188144
85	0xbe598f87	-0.21246158
86	0x3ea53f5a	0.32274896
87	0x3e9ea6fb	0.3098677
88	0xbdad3ce4	-0.084588796
89	0x3d84c265	0.0648239
90	0x3e653ec8	0.2238723
91	0xbe32f99d	-0.17478032
92	0xbe5da721	-0.21645786
93	0xbe127441	-0.1430216
94	0xbe32664f	-0.1742184
95	0xbe856b85	-0.26058593
96	0xbe961884	-0.2931558
97	0xbdf979b0	-0.12181413
98	0xbeb8636f	-0.36013362
99	0x3ebdf370	0.3709979
100	0x3ed4883c	0.4151019
101	0xbe2564b3	-0.16151695
102	0xbc914b58	-0.017736122
103	0x3e8e1db0	0.27757025
104	0x3e0632f4	0.13105375
105	0x3e2b6b52	0.16740158
106	0xbcb1d103	-0.02170611
107	0x3dda7f19	0.10668773
108	0xbc0d5095	-0.008625169
109	0xbe087e1d	-0.13329358
110	0x3ca8594d	0.020550394
111	0xbd990564	-0.07471731
112	0xbd4b6c4e	-0.049663834
113	0xbdadb09e	-0.08480953
114	0xbd90007c	-0.070313424
115	0xbdb6be20	-0.08922982
116	0x3e09679b	0.13418429
117	0x3e75e02a	0.24011293
118	0xbd200671	-0.039068643
119	0x3e1c68ab	0.15274303
120	0xbea29367	-0.31753084
121	0x3d9299d4	0.07158247
122	0xbe0c9104	-0.13727194
123	0x3da879ee	0.08226381
124	0xbdd89a36	-0.105762884
125	0xbee67e51	-0.45018247
126	0x3ebf54cb	0.3736938
127	0x3e4ae149	0.19812502
128	0xbe9e35bc	-0.3090037
129	0xbe471974	-0.19443303
130	0xbdde2607	-0.10847097
131	0x3e2cb29f	0.16865014
132	0x3c29a169	0.010353425
133	0xbe274a9a	-0.16337052
134	0x3eba6022	0.3640147
135	0x3dbd7c2c	0.092521995
136	0xbdfa93dd	-0.12235234
137	0xbe65f3c3	-0.22456269
138	0x3c271606	0.010198122
139	0x3ecb8e12	0.3975683
140	0xbdf64f8b	-0.1202689
141	0x3e68fe9e	0.22753379
142	0x3e78dc9d	0.24302907
143	0xbbec734a	-0.007215892
144	0x3e8bb2da	0.2728489
145	0x3ea6f13e	0.32605928
146	0x3da9f6da	0.08299036
147	0x3d8201c4	0.06347993
148	0xbf4e2bf5	-0.80535823
149	0xbe0ea1c8	-0.13928902
150	0x3e41e995	0.1893676
151	0xbe3e8edb	-0.18609183
152	0x3eb83c3e	0.3598346
153	0xbef878a7	-0.4852955
154	0xbe64e58c	-0.2235319
155	0x3d75398b	0.05986933
156	0xbc77d4bc	-0.015126403
157	0x3e4fa5b8	0.2027806
158	0x3eebd579	0.46061304
159	0x3eb02955	0.34406534
160	0xbe4a2be7	-0.1974331
161	0xbd3e3e6e	-0.046446256
162	0x3efdb245	0.4955007
163	0x3d61f1dc	0.055162296
164	0xbdeee2d7	-0.1166436
165	0x3ecc1fa6	0.39867896
166	0xbe1290c6	-0.14313039
167	0xbe00fca4	-0.12596375
168	0xbcfc5f26	-0.030807089
169	0x3e87e2f6	0.26540345
170	0xbdb78529	-0.08960945
171	0xbd8ed481	-0.06974126
172	0x3e66f322	0.22553685
173	0xbe89dbc0	-0.26925468
174	0x3e788292	0.24268559
175	0x3d3adc2c	0.04562013
176	0xbeaa9140	-0.33313942
177	0x3f0657dc	0.5247781
178	0xbd7ff952	-0.06249363
179	0xbe572c04	-0.21012884
180	0xbeb17c8e	-0.3466534
181	0x3e88dc4b	0.2673057
182	0x3e011167	0.12604295
183	0x3d48c36a	0.049014486
184	0xbe1b1cd4	-0.15147716
185	0xbbe85d0a	-0.0070911692
186	0xbe92405a	-0.2856472
187	0xbec0213e	-0.37525362
188	0x3e0ee23d	0.1395349
189	0x3e0cf617	0.13765751
190	0xbe6c232a	-0.23060289
191	0x3e3f4795	0.1867965
192	0x3ee5f6fb	0.44914994
193	0x3de3d19b	0.111239634
194	0xbe280e66	-0.16411743
195	0xbea9959d	-0.33121958
196	0x3ea88272	0.32912022
197	0x3d2b4c4c	0.04182081
198	0x3e3657e4	0.17806965
199	0xbe009725	-0.12557657
200	0xbea5955b	-0.32340512
201	0x3d5280e2	0.051392443
202	0xbd10e986	-0.035378955
203	0x3cf3b43b	0.029749027
204	0x3cbcf5f4	0.023066498
205	0xbc09266f	-0.00837098
206	0xbe43fcf6	-0.19139466
207	0xbda3b5c4	-0.079936534
208	0xbdc7f640	-0.09763765
209	0xbe806f42	-0.25084883
210	0x3caff219	0.021477746
211	0x3dcea2ae	0.100896224
212	0x3dd06a77	0.101765566
213	0x3e50a543	0.20375542
214	0xbdfaef2f	-0.12252652
215	0xbe38b49f	-0.18037651
216	0x3e70a701	0.23501207
217	0x3e539dbd	0.20665641
218	0xbdb03b79	-0.086050935
219	0x3f32f759	0.6990867
220	0xbd4882e3	-0.04895295
221	0xbe290eb1	-0.1650951
222	0xbc8867ce	-0.01665106
223	0xbdceae5d	-0.10091851
224	0xbe816e11	-0.25279287
225	0xbe2a767b	-0.16646759
226	0x3e2752fa	0.16340247
227	0xbe7897db	-0.24276678
228	0x3d745028	0.059646755
229	0x3e1e0eb7	0.15435301
230	0x3dfa280e	0.12214671
231	0xbdaffa31	-0.08592642
232	0x3cf1d1f2	0.029519055
233	0x3d13a440	0.036045313
234	0x3f23d904	0.64003015
235	0xbd93ca18	-0.07216281
236	0x3e4a6318	0.19764364
237	0xbe4f4dbf	-0.20244502
238	0x3eb57a27	0.35444757
239	0x3ef74da5	0.48301426
240	0xbe072dd8	-0.13201082
241	0x3d3fcda6	0.04682698
242	0xbd1906f1	-0.037360135
243	0xbd7e9b99	-0.06216011
244	0xbe54239e	-0.20716712
245	0xbe4cebc9	-0.2001182
246	0x3e9950d9	0.29944494
247	0x3ed75c41	0.42062572
248	0xbec05017	-0.37561104
249	0xbe59e9bc	-0.21280569
250	0x3d99633d	0.07489631
251	0x3d570dc8	0.052503377
252	0xbd2fcf53	-0.04292233
253	0xbec11718	-0.37712932
254	0x3dd2d1e9	0.102939434
255	0x3e3dd693	0.18538885

model.2.weight f4 [128, 256]
0	0xbe3a35e8	-0.18184626
1	0x3d65ca99	0.056101415
2	0x3bd5d8f7	0.0065261084
3	0x3dee6707	0.11640745
4	0xbc2d45dc	-0.010575738
5	0xbd976dc9	-0.07393987
6	0xbda07949	-0.07835633
7	0x3d8b2eb1	0.06796015
8	0xbd33bd2b	-0.043881577
9	0xbcd4d5da	-0.025980879
10	0x3e179a3d	0.14804931
11	0xbdb1fe06	-0.08691029
12	0x3e91dbc3	0.28487977
13	0xbd48452d	-0.048894096
14	0xbd90a099	-0.070618816
15	0xbd68353c	-0.056691393
16	0x3c40e4f7	0.0117733395
17	0xbbf0070a	-0.007325058
18	0xbeb0da73	-0.34541664
19	0x3e3da5ea	0.18520322
20	0xbd923322	-0.07138659
21	0x3dc4bc82	0.096062675
22	0xbd0e38e2	-0.034722216
23	0x3defe950	0.11714423
24	0x3e626ea2	0.22112516
25	0x3e06eeeb	0.13177077
26	0xbd7be0a7	-0.061493542
27	0x3de41004	0.11135867
28	0xbaf5648f	-0.0018721985
29	0x3d2562a4	0.040377274
30	0x3d874867	0.066056065
31	0x3cb6e065	0.022323797
32	0xbde852cd	-0.11343918
33	0xbcbb931c	-0.022897296
34	0x3db69623	0.08915355
35	0xbba66101	-0.0050774817
36	0x3b8bba40	0.004264146
37	0x3db0cb56	0.08632533
38	0xbd3e66e0	-0.046484828
39	0x3e593f18	0.21215475
40	0x3dc5e249	0.09662301
41	0xbe523417	-0.20527683
42	0xbefba53f	-0.4914951
43	0xbcd86ed9	-0.026420044
44	0xbda30f0b	-0.079618536
45	0xbca90eeb	-0.020636996
46	0xbd1cff5e	-0.038329475
47	0xbd2c572a	-0.042075314
48	0xbd47a2b4	-0.04873915
49	0x3d9c1b59	0.07622404
50	0x3da2d932	0.07951583
51	0x3d45caed	0.04828923
52	0x3e4fc8b2	0.20291403
53	0xbd5b0903	-0.05347539
54	0x3e892181	0.26783374
55	0xbe33b407	-0.17549144
56	0x3dc64088	0.09680277
57	0x3d8ddebd	0.069272496
58	0x3c28c62a	0.010301152
59	0xbdf2f7d2	-0.11863674
60	0xbc0224c0	-0.007943332
61	0x3cbbf07a	0.022941817
62	0x3eb079df	0.3446798
63	0x3c2ee717	0.010675213
64	0x3d697735	0.05699845
65	0xbe1a31b6	-0.15058026
66	0xbc891755	-0.016734758
67	0xbd193598	-0.037404627
68	0xbdf97b64	-0.12181738
69	0x3d8d2823	0.06892421
70	0xbe185cf2	-0.14879206
71	0x3e16a815	0.14712556
72	0xbcc05fc2	-0.02348316
73	0x3e29473f	0.16531084
74	0x3d89c598	0.06727141
75	0x3d76e618	0.06027803
76	0x3e7ea941	0.24869253
77	0x3df9b83d	0.12193344
78	0x3e4d9ffc	0.2008056
79	0xbbdf3aa7	-0.006812412
80	0x3d2c3d2b	0.04205052
81	0x3ebb0d18	0.36533427
82	0x3e83f677	0.25773975
83	0x3d93823e	0.07202576
84	0xbc8b1027	-0.016975475
85	0xbd6d4007	-0.05792239
86	0xbb9cb721	-0.004782573
87	0xbb790d51	-0.0038002322
88	0x3db60e04	0.08889392
89	0xbba0dee0	-0.0049093813
90	0x3d8aa6bd	0.06770084
91	0xbd517446	-0.051136278
92	0x3dba343e	0.09091996
93	0xbcbb6a61	-0.022877874
94	0x3ec85207	0.39125082
95	0xbcd0f4fb	-0.02550744
96	0x3d3f9710	0.046774924
97	0xbde3a998	-0.11116332
98	0x3e16f31e	0.1474118
99	0x3e3600fc	0.17773813
100	0x3eaf46fd	0.34233847
101	0x3caf2a7b	0.021382561
102	0xbdbf0620	-0.0932734
103	0x3e5d2f41	0.21600057
104	0xbe01f2a5	-0.12690218
105	0x3da900e1	0.08252121
106	0x3ddd11fb	0.10794445
107	0x3d5c0bcc	0.053722188
108	0x3d97a139	0.07403798
109	0xbd187354	-0.03721936
110	0x3d229ab9	0.039698336
111	0x3d14a24d	0.036287595
112	0x3c4bcde8	0.012439229
113	0xbd1c7e24	-0.038206235
114	0xbe72ba57	-0.23703896
115	0xbca2c906	-0.019871246
116	0xbd5a6324	-0.053317204
117	0x3e6c94bd	0.23103614
118	0x3e2215cb	0.15828626
119	0x3c858eb8	0.016303405
120	0x3df01e69	0.1172455
121	0xbd2682b3	-0.04065199
122	0xbdf7af3d	-0.12093971
123	0x3e0a1a22	0.13486531
124	0x3dbd43da	0.09241457
125	0xbd9a5f88	-0.075377524
126	0x3e7ba51b	0.24574701
127	0x3ddbc912	0.107317105
128	0x3de89585	0.113566436
129	0x3c16bc67	0.009200192
130	0x3db3e25f	0.08783411
131	0x3e5e7208	0.21723187
132	0x3db2c3e2	0.08728768
133	0x3d171317	0.03688344
134	0x3e0337db	0.12814276
135	0x3e04b568	0.12959826
136	0x3d9aabf6	0.0755233
137	0xbd839e6d	-0.06426702
138	0x3e10f67b	0.14156525
139	0x3f1835b8	0.5945697
140	0xbdca15f0	-0.098674655
141	0xbdaeb676	-0.085308954
142	0x3cfa68d4	0.030567564
143	0x3e1aecab	0.15129344
144	0x3e08c161	0.13355018
145	0x3d200fa7	0.039077427
146	0x3d240ae6	0.040049456
147	0x3e45adbb	0.19304554
148	0x3ec65914	0.38739836
149	0xbc5b29b2	-0.01337664
150	0x3e622894	0.22085792
151	0xbccc5b3d	-0.02494585
152	0x3e1e7c69	0.15477146
153	0x3c7aa228	0.01529745
154	0x3d47dd0e	0.0487948
155	0x3d81c807	0.0633698
156	0xbcd0f17c	-0.025505774
157	0x3dc3ee9d	0.09566996
158	0xbf1253fb	-0.57159394
159	0xbd0db4d9	-0.034596298
160	0x3bb91ca1	0.005649165
161	0x3dcd47c7	0.10023456
162	0x3d9a3836	0.07530253
163	0xbda312c2	-0.07962562
164	0xbc9f227e	-0.019425627
165	0x3db2d553	0.087320946
166	0x3e485158	0.1956228
167	0x3dd6baa5	0.10484818
168	0x3c1e3531	0.0096562365
169	0xbbf3f6ca	-0.007445191
170	0x3ee6a399	0.4504669
171	0xbd1c131b	-0.038104158
172	0x3d215339	0.039386008
173	0x3de45d7b	0.111506425
174	0x3e51359f	0.20430611
175	0x3db169ed	0.08662782
176	0x3a296ad7	0.0006462759
177	0x3e5cbdcb	0.21556775
178	0xbd07dba8	-0.033168465
179	0xbe8bf437	-0.2733476
180	0x3d82479f	0.06361317
181	0x3e7d9207	0.24762736
182	0xbe83ec0c	-0.25766027
183	0xbd305e7a	-0.04305885
184	0xbc916c03	-0.0177517
185	0xbd570ba2	-0.05250133
186	0xbd714f69	-0.058913622
187	0x3d01ef57	0.031722393
188	0x3e6f18d4	0.23349315
189	0xbc680102	-0.0141603965
190	0xbd8cc159	-0.06872816
191	0xbec732f0	-0.3890605
192	0xbe85a066	-0.26098937
193	0x3e2287ab	0.15872066
194	0xbd859d92	-0.06524195
195	0x3d0ba064	0.034088507
196	0x3d59116e	0.052995138
197	0xbe5e5079	-0.21710385
198	0x3e4c1ed3	0.19933634
199	0xbd90b1f1	-0.0706519
200	0x3e8593fe	0.26089472
201	0x3e15d46d	0.14631815
202	0x3eaf1429	0.34195068
203	0xbdd8e62f	-0.10590779
204	0xbb36f9ee	-0.0027919966
205	0x3d8f60f9	0.07000918
206	0xbf12a2b6	-0.5727953
207	0xbdaf027e	-0.08545397
208	0xbda57f71	-0.08080948
209	0x3db3c739	0.08778233
210	0x3eb7116b	0.35755476
211	0xbb35a538	-0.0027716886
212	0xbcb1d66c	-0.02170869
213	0x3d374e7d	0.044752587
214	0x3cec71a1	0.028862776
215	0xbdf27c43	-0.11840107
216	0xbd55fb03	-0.052241337
217	0x3d7ce703	0.061743747
218	0x3d19831a	0.037478544
219	0xbf8beae6	-1.093106
220	0xbdf2342e	-0.11826359
221	0x3ded123a	0.11575742
222	0x3d410eba	0.047133185
223	0xbe223da7	-0.15843831
224	0x3e2a8713	0.16653089
225	0xbd5bceb4	-0.053663924
226	0x3d69819a	0.057008363
227	0xbca02e57	-0.019553347
228	0xbcfbf0d1	-0.030754479
229	0x3d8f07bf	0.06983899
230	0x3ea95d11	0.33078817
231	0x3dbf323b	0.093357526
232	0x3c38c740	0.011277974
233	0x3d0422e0	0.032259822
234	0x3e95a78c	0.2922939
235	0x3cecd810	0.02891162
236	0xbe169aae	-0.14707443
237	0xbd9190ce	-0.071076974
238	0x3e59f87b	0.21286194
239	0xbf50aaa1	-0.8151036
240	0x3c603645	0.013684814
241	0x3e094367	0.13404618
242	0x3d48712d	0.048936058
243	0xbdbe1942	-0.09282161
244	0x3e654b69	0.22392048
245	0xbe0c1906	-0.1368142
246	0xbe3639d0	-0.17795491
247	0xbd45143e	-0.048115008
248	0x3e3bc79c	0.18337864
249	0xbc91f768	-0.017818168
250	0x3dcb0d58	0.099146545
251	0xbca1eeda	-0.019767214
252	0xbd3fd779	-0.04683635
253	0xbce8276f	-0.028339116
254	0xbcbe4f08	-0.023231044
255	0xbd7f681e	-0.062355153

model.2.bias f4 [128]
0	0x3eb3aa0f	0.35090682
1	0x3e1379cf	0.14401935
2	0x3df69d7d	0.12041757
3	0x3db7ca1b	0.089740954
4	0xbdb0ed55	-0.086390175
5	0x3e048ad3	0.12943582
6	0x3d921011	0.07131971
7	0x3d1b0e92	0.037855692
8	0x3ddde8bd	0.10835407
9	0xbd62807f	-0.055298325
10	0xbd7e0908	-0.06202033
11	0xbe67af5c	-0.22625488
12	0x3de21952	0.11039986
13	0x3ab546c1	0.001383029
14	0xbe4d4073	-0.20044117
15	0xbc70e07a	-0.014701957
16	0xbc14fb10	-0.009093061
17	0x3da8dbc8	0.08245045
18	0xbdb362b8	-0.087590635
19	0xbd3368ed	-0.043801237
20	0x3cd91454	0.026498951
21	0x3e224084	0.15844923
22	0x3ba7fdef	0.005126707
23	0x3e48bfde	0.19604442
24	0x3d9581c9	0.07300145
25	0x3e4cbd72	0.19994143
26	0x3d919be5	0.07109813
27	0xbd3d6bd6	-0.04624542
28	0x3e1e74e2	0.15474275
29	0xbccd8c9a	-0.025091458
30	0x3e8bbe9d	0.27293864
31	0xbd84cd84	-0.064845115
32	0x3ec74115	0.3891684
33	0xbcacea66	-0.021107864
34	0xbca43710	-0.020045787
35	0xbd8890ff	-0.06668281
36	0x3b8679a3	0.0041038557
37	0x3d4116bf	0.047140833
38	0xbc6fd169	-0.01463733
39	0xbd597df6	-0.05309864
40	0x3e08e4c6	0.1336852
41	0xbc32b545	-0.010907476
42	0x3d8ae64f	0.06782209
43	0xbd6a14e3	-0.057148825
44	0xbda9b3fd	-0.08286283
45	0xbb438223	-0.0029832206
46	0x3c2df655	0.010617812
47	0x3e3168ce	0.17325136
48	0x3d31a96e	0.04337447
49	0x3e9cf0e5	0.30652538
50	0x3c481619	0.0122123
51	0xbcb5400e	-0.02212527
52	0xbd3bafab	-0.045821827
53	0xbc964498	-0.018343255
54	0x3d3ed115	0.046586115
55	0x3c5a30c6	0.013317293
56	0xbd2b475d	-0.041816104
57	0x3e204bf7	0.15653978
58	0x3e73ca6f	0.23807691
59	0xbd033028	-0.032028347
60	0xbd6568ef	-0.056008276
61	0x3e512760	0.20425177
62	0xbe91f5c0	-0.28507805
63	0x3d656aee	0.05601018
64	0x3dc85bc5	0.09783129
65	0x3e0caa3e	0.13736817
66	0x3eb3a018	0.3508308
67	0xbdca6cc2	-0.09884025
68	0x3da9fb26	0.08299856
69	0x3e0a8ab9	0.13529481
70	0x3d5fe7ec	0.054664537
71	0x3dcf895a	0.101336196
72	0xbd9ba227	-0.075992875
73	0x39913ee8	0.00027703424
74	0x3eda545e	0.42642492
75	0xbe182552	-0.14857987
76	0xbcd371d6	-0.025811117
77	0xbdb5c6dd	-0.08875821
78	0x3e132214	0.14368469
79	0xbcf0853c	-0.029360406
80	0x3b70ca77	0.0036741772
81	0x3e4c53de	0.19953868
82	0xbc8957e0	-0.016765535
83	0x3d67f9fe	0.056634896
84	0xbd90d544	-0.07071927
85	0x3e621aa7	0.2208048
86	0x3de65408	0.112464964
87	0xbdb91642	-0.090374485
88	0x3e6fa7dd	0.23403879
89	0x3da5424b	0.08069285
90	0x3e1fe5b1	0.15614964
91	0xbcdaed33	-0.026724434
92	0x3db5524c	0.088535875
93	0xbbd99d01	-0.006641031
94	0xbd0ce521	-0.0343982
95	0x3e2b2075	0.167116
96	0x3e6faa91	0.2340491
97	0x3c44b442	0.012005867
98	0xbd801a7e	-0.06255053
99	0x3ce39b0c	0.027783893
100	0x3e350d51	0.17680861
101	0x3e2e1ccc	0.17003173
102	0x3db87edc	0.090085715
103	0x3e37c332	0.17945555
104	0xbdd1fdab	-0.102534615
105	0xbf164927	-0.5870537
106	0xbd588a74	-0.052866414
107	0x3d55dd73	0.052213144
108	0x3daae08d	0.08343611
109	0x3efc95bc	0.49332988
110	0x3e5ee16c	0.21765679
111	0xbd5d1f65	-0.05398502
112	0x3e378a49	0.17923845
113	0x37cbf99f	2.4315725e-05
114	0x3e7995ef	0.24373601
115	0x3d0730aa	0.033005394
116	0xbe0f72f7	-0.140087
117	0x3dcad7c4	0.09904435
118	0x3ee2edcb	0.44322047
119	0x3dc209e4	0.09474543
120	0x3e465eb0	0.19372058
121	0x3eeadc99	0.45871428
122	0xbd124293	-0.03570802
123	0xbd91075e	-0.07081483
124	0xbd3d8468	-0.04626885
125	0xbcd045dc	-0.025423937
126	0x3d532412	0.05154807
127	0xbc18c193	-0.009323495

model.4.weight f4 [64, 128]
0	0xbe29a57c	-0.16567034
1	0xbc20b85e	-0.009809582
2	0x3e8e9f5f	0.27855965
3	0xbe1479f1	-0.14499642
4	0xbdfcfdb3	-0.12353077
5	0xbdb11434	-0.086464316
6	0x3d6a582a	0.057212986
7	0x3c4e78e0	0.012602061
8	0xbec78bc2	-0.38973814
9	0x3d08d144	0.033402696
10	0xbca5e977	-0.020252926
11	0xbe8bcffa	-0.2730711
12	0xbe138cbd	-0.14409156
13	0xbd464f44	-0.048415437
14	0xbe9b6ae3	-0.30354986
15	0x3dbe1a0b	0.09282311
16	0x3caa6794	0.020801343
17	0x3d113e3c	0.035459742
18	0xbd0b9d6b	-0.034085672
19	0xbd468722	-0.048468716
20	0x3c049fd0	0.008094743
21	0xbf023147	-0.5085644
22	0x3dd1ddac	0.10247359
23	0x3e2f0cfa	0.17094794
24	0x3e65fef9	0.22460546
25	0x3e89130e	0.2677235
26	0x3e59bf3c	0.21264356
27	0xbd09d5c1	-0.033651117
28	0x3dad828f	0.08472168
29	0x3d569582	0.052388676
30	0x3dd179cd	0.1022831
31	0x3d4e4789	0.05036119
32	0x3e8b63f9	0.2722471
33	0xbce64641	-0.028109672
34	0x3ea83b05	0.32857528
35	0x3d28ae56	0.041181885
36	0xbc720888	-0.014772542
37	0x3e3290e6	0.17438087
38	0x3bb7b6a2	0.0056064883
39	0x3d0b48c5	0.034004945
40	0x3e2ae592	0.16689137
41	0xbdc57f7d	-0.09643457
42	0xbe0d37c5	-0.13790806
43	0xbc993f21	-0.01870686
44	0x3c0259df	0.007955997
45	0xbe9464e1	-0.28983214
46	0xbc279085	-0.010227327
47	0xbe730599	-0.23732604
48	0xbecc42f3	-0.39894828
49	0xbf4c3bcd	-0.7977875
50	0xbd2698d7	-0.040673103
51	0xb9eac10c	-0.0004477579
52	0x3d5c7047	0.053818014
53	0x3d7fcf3e	0.0624535
54	0x3df307db	0.11866733
55	0x3b3a3175	0.0028410826
56	0xbcc47c05	-0.023984918
57	0xbcdb6931	-0.026783558
58	0xbecb7bfc	-0.3974303
59	0xbc9d0487	-0.019167198
60	0x3d85323e	0.065037236
61	0x3ccce257	0.025010271
62	0x3f01b9da	0.5067421
63	0x3e7e5cfa	0.24840155
64	0x3d86d045	0.06582693
65	0x3df83bdd	0.12120793
66	0x3de0f885	0.10984901
67	0xbce411ea	-0.027840573
68	0x3db1b737	0.086775236
69	0xbe54a2e8	-0.20765269
70	0xbdc35844	-0.0953832
71	0x3f04d9c1	0.51894766
72	0x3d118205	0.035524387
73	0x3f1fec2c	0.62469745
74	0xbe0a4563	-0.13503031
75	0xbdea653f	-0.114450924
76	0xbd87a157	-0.0662257
77	0x3ca11465	0.019663045
78	0x3ed14af7	0.40877506
79	0x3df615bc	0.12015864
80	0x3c76c554	0.015061695
81	0xbdac6732	-0.084181204
82	0x3d66ecbd	0.056378115
83	0x3e894c1c	0.2681588
84	0x3db4eeb8	0.088345945
85	0xbc554471	-0.013016806
86	0xbe811651	-0.2521234
87	0x3d96295f	0.0733211
88	0x3f169dfc	0.58834815
89	0x3cde16c7	0.02711047
90	0xbeebeb58	-0.4607799
91	0xbd1d68e4	-0.03843011
92	0xbd38fd5e	-0.045163505
93	0x3db1f3e8	0.086890996
94	0x3f96380b	1.1735853
95	0xbe0daeea	-0.13836256
96	0xbe6e3bcf	-0.23265003
97	0x3d958e64	0.073025495
98	0xbe82fd2b	-0.25583777
99	0xbd2552c4	-0.040362135
100	0xbbb0f798	-0.005400609
101	0x3dc82568	0.0977276
102	0x3d40e4d1	0.047093216
103	0x3e2faef3	0.17156582
104	0xbd221864	-0.039574042
105	0xbf3dc301	-0.7412568
106	0xbd26c048	-0.040710717
107	0xbb6443be	-0.0034830417
108	0x3d6e8057	0.058227863
109	0x3d5abf0c	0.053404853
110	0x3ea6c624	0.32573044
111	0x3cb869f8	0.022511467
112	0x3e78e7c7	0.24307166
113	0x3e1f1c32	0.155381
114	0x3ea8a517	0.32938454
115	0xbe2b84b2	-0.16749838
116	0xbc255ac7	-0.010092444
117	0x3e09cab5	0.13456233
118	0x3e28dcc9	0.16490473
119	0x3e2b5287	0.167307
120	0x3d92fa70	0.071766734
121	0x3c3a3f69	0.011367657
122	0x3d00ba7d	0.03142785
123	0xbd2f9bea	-0.0428733
124	0xbd54cea0	-0.051954865
125	0xbcf79994	-0.030224599
126	0xbe200dc9	-0.15630259
127	0xbd798041	-0.060913328
128	0x3c6b1a92	0.014349597
129	0x3d644652	0.055731125
130	0x3c406af1	0.011744247
131	0xbc7b1b1d	-0.0153262885
132	0xbc9a39e1	-0.018826427
133	0x3dca109c	0.09866449
134	0xbbe1a8e8	-0.0068865903
135	0x3c0059ed	0.00783394
136	0x3d612e66	0.05497589
137	0xbd0629c8	-0.03275469
138	0xbd874b8f	-0.066062085
139	0x3d77ec43	0.06052805
140	0x3d33f423	0.043934
141	0x3caa2534	0.020769693
142	0xbdc257c4	-0.09489396
143	0x3d4135c6	0.047170423
144	0xbca35709	-0.019938963
145	0xbdb528bb	-0.08845659
146	0xbd7bdb7a	-0.061488606
147	0x3d8d6b1a	0.069051936
148	0xbda86644	-0.082226306
149	0xbdabc9f0	-0.08388126
150	0x3d883cbf	0.066522114
151	0x3d673543	0.05644728
152	0x3c9a956e	0.018870082
153	0xbd6f5aa9	-0.05843607
154	0xbdc57fa3	-0.096434854
155	0xbbda9160	-0.006670162
156	0xbbe14779	-0.0068749753
157	0xbd4106da	-0.047125675
158	0xbd34801c	-0.044067487
159	0x3d3a855e	0.045537345
160	0xbd8d986a	-0.06913836
161	0xbd4d024e	-0.050051026
162	0xbd000f05	-0.031264324
163	0xbdb2e6a6	-0.08735399
164	0x3d7b76fb	0.061392765
165	0xbc1f7ff4	-0.009735096
166	0x3c9d54b0	0.019205421
167	0x3d0eb9fb	0.034845334
168	0x3c9a56a0	0.018840134
169	0x3d12af10	0.035811484
170	0xbca6e8a9	-0.020374613
171	0x3d9cd315	0.07657448
172	0xbc090740	-0.008363545
173	0xbd9cc064	-0.07653883
174	0x3d03b9c1	0.03215957
175	0x3d86468a	0.06556423
176	0xbd01ec2e	-0.03171938
177	0xbc905b10	-0.017621547
178	0x3c5400ea	0.012939671
179	0x3d9a1df9	0.07525248
180	0xbda80580	-0.08204174
181	0xbd23cc7e	-0.03998994
182	0xbd57ecbe	-0.05271601
183	0xbd9317ae	-0.07182251
184	0xbd7add1f	-0.061246034
185	0xbc3c7178	-0.011501662
186	0xbdb56d35	-0.0885872
187	0xbd9f4b12	-0.077779904
188	0xbd59b634	-0.053152278
189	0x3d9dced5	0.07705466
190	0x3d3df540	0.046376467
191	0xbcac6477	-0.021044
192	0xbbb28da2	-0.005449013
193	0xbd8a2c1a	-0.06746693
194	0xbd1a53e7	-0.03767767
195	0x3c903720	0.01760441
196	0xbd2e1c91	-0.04250771
197	0xbdc6c71d	-0.097059466
198	0xbc993e9c	-0.018706612
199	0xbd9f1db9	-0.07769341
200	0xbb27a2e0	-0.0025579259
201	0x3ce92a24	0.028462477
202	0xbc7040dc	-0.014663901
203	0x3ad723aa	0.0016413827
204	0xbd830a42	-0.06398441
205	0x3d5d4a36	0.05402585
206	0xbd3b724c	-0.0457633
207	0x3c806113	0.015671289
208	0x3d182306	0.037142776
209	0x3ced5eb1	0.028975816
210	0x3d25a135	0.040436942
211	0x3c6ea786	0.014566308
212	0xbd3a4fe0	-0.04548633
213	0x3d66c0f2	0.05633635
214	0xbdab8715	-0.08375374
215	0x3d80a883	0.06282141
216	0xbc98214e	-0.018570568
217	0xbd92a6f3	-0.07160749
218	0xbd13f856	-0.036125503
219	0xbcf1fd68	-0.029539779
220	0xbd54603a	-0.05184958
221	0x3d39caee	0.045359544
222	0xbd13ae38	-0.03605482
223	0x3d61b7ef	0.055107053
224	0xbd86d730	-0.065840125
225	0x3d40950e	0.04701715
226	0xbdadef31	-0.08492888
227	0x3c974dea	0.01846977
228	0xbdbae1ac	-0.09125075
229	0xbd888a7c	-0.06667039
230	0xbda8eab8	-0.08247894
231	0x3b71ef3c	0.0036916276
232	0x3d8776ad	0.066144325
233	0xbcbad130	-0.022804826
234	0x3d714722	0.05890573
235	0x3d658645	0.056036253
236	0xbdb8d066	-0.09024124
237	0xbd1e22c0	-0.03860736
238	0xbdcd1a51	-0.10014785
239	0xbcbc8c91	-0.023016246
240	0xbda10067	-0.07861405
241	0x3c0638b7	0.008192233
242	0x3ca16160	0.019699752
243	0xbd3e1a7c	-0.046411976
244	0xbc66ccb0	-0.014086887
245	0xbdca5080	-0.098786354
246	0x3b906698	0.0044067614
247	0xbcf0a55e	-0.029375728
248	0x3d740fdc	0.059585437
249	0xbd5548a8	-0.052071244
250	0xbd4854d7	-0.048909035
251	0xbd2f2c18	-0.04276666
252	0x3d35ecf6	0.044415437
253	0xbcc8d154	-0.024513878
254	0x3b80b801	0.003928185
255	0x3d5b6f2e	0.053572826

model.4.bias f4 [64]
0	0x3dd1b720	0.102400064
1	0xbbc4a6aa	-0.006001313
2	0x3d9fc66e	0.07801519
3	0x3da8552a	0.08219369
4	0x3ec95797	0.39324638
5	0x3eaf916f	0.34290645
6	0x3e802ba0	0.25033283
7	0xbc8ac454	-0.01693932
8	0x3eb9b2f6	0.3626935
9	0x3b96fc75	0.004607732
10	0x3e809316	0.25112218
11	0xbe31b45e	-0.17353961
12	0x3ec57fba	0.3857401
13	0xbdb17625	-0.086651124
14	0x3e4cf439	0.20015039
15	0xbcd1c65c	-0.02560728
16	0x3baad89c	0.00521381
17	0x3ef6d091	0.48206
18	0xbddc34d3	-0.10752263
19	0x3d8d4034	0.068970114
20	0x3e8d98c3	0.2765561
21	0xbe2c8212	-0.16846493
22	0x3e8aa5ab	0.2707952
23	0x3b6d181d	0.0036177703
24	0xbd7e05fd	-0.06201743
25	0x3de5c97a	0.11220069
26	0xbb8d9ed6	-0.0043219132
27	0x3f303036	0.68823564
28	0xbe17a81b	-0.14810221
29	0x3e1dce1f	0.1541066
30	0xbd424dae	-0.047437362
31	0x3e5284aa	0.2055842
32	0x3e538e29	0.20659699
33	0xbdfe0077	-0.124024324
34	0xbdae4980	-0.08510113
35	0x3d977bb7	0.073966436
36	0x3c3b082c	0.011415523
37	0x3cfaa413	0.030595815
38	0xbd3f8790	-0.04676014
39	0x3e4189b5	0.18900187
40	0x3e5ae32c	0.21375722
41	0x3e728716	0.23684344
42	0xbdb8e47e	-0.090279564
43	0x3e54bc12	0.20774868
44	0xbdbdd150	-0.09268439
45	0x3f051f82	0.520012
46	0xbdf9a365	-0.12189368
47	0x3e2058f1	0.15658928
48	0x3dcb2179	0.09918494
49	0xbdc23ffc	-0.0948486
50	0x3d01f99e	0.031732194
51	0x3eade56c	0.33964097
52	0x3e2f1e63	0.17101435
53	0x3e485354	0.19563037
54	0x3e6d212e	0.23157188
55	0xbb63f15d	-0.0034781315
56	0xbc751ff1	-0.014961229
57	0xbd8f55a4	-0.069987565
58	0xbdb34ed1	-0.087552674
59	0x3e0541aa	0.1301333
60	0xbd02707e	-0.031845562
61	0xbe020dcf	-0.1270058
62	0xbd20484b	-0.039131444
63	0x3be792cb	0.0070670596

model.6.weight f4 [32, 64]
0	0x3d8b6feb	0.06808456
1	0xbd5da2c8	-0.05411032
2	0xbb5a9d18	-0.0033357795
3	0xbdeacc8b	-0.11464795
4	0xbe32432e	-0.1740844
5	0x3d34e1b3	0.044160556
6	0x3d3b6890	0.045754015
7	0x3dc3c2fb	0.09558674
8	0x3cc38bc4	0.023870356
9	0xbbf95959	-0.007609528
10	0xbccad924	-0.024761744
11	0xbd49fcc5	-0.049313325
12	0xbd9dcf3a	-0.07705541
13	0xbda37ce4	-0.07982805
14	0xbd58a658	-0.052893013
15	0xbdb9cae2	-0.090719
16	0xbd91da4f	-0.07121717
17	0xbe2b0c33	-0.16703872
18	0xbb2da080	-0.002649337
19	0x3d909dad	0.07061324
20	0xbe1670b8	-0.14691436
21	0x3e1e7e73	0.15477924
22	0x3d7326bf	0.059363123
23	0x3d668f93	0.056289267
24	0xbd859ead	-0.06524406
25	0xbe20ec01	-0.15715028
26	0xbced0d37	-0.028936965
27	0x3c9ae9d3	0.018910324
28	0x3d7bf2de	0.061510913
29	0xbe1ace00	-0.15117645
30	0xbdfa5759	-0.122236915
31	0x3dd4b72f	0.10386502
32	0x3de285cc	0.11060676
33	0x3d2ee008	0.04269412
34	0x3d61c51f	0.05511963
35	0xbde95fd7	-0.11395233
36	0xbc2be2cd	-0.010491085
37	0xbd69674d	-0.05698328
38	0xbe1793e4	-0.1480251
39	0xbe2aeb77	-0.16691385
40	0x3d1a0c4c	0.037609383
41	0xbbf90783	-0.0075997724
42	0x3bebc4e0	0.0071951
43	0xbe20e52b	-0.1571242
44	0x3c8f1828	0.017467573
45	0xbdd70d78	-0.10500616
46	0xbdcad19b	-0.0990326
47	0xbd240abd	-0.040049303
48	0xbddd5e12	-0.10808958
49	0xbdc23dd9	-0.09484453
50	0x3d2fdbba	0.042934157
51	0xbda8e3ea	-0.08246596
52	0xbe552217	-0.20813785
53	0xbd3fbe12	-0.046812125
54	0xbe079072	-0.13238695
55	0x3c78679b	0.01516142
56	0xbd7259d6	-0.059167705
57	0xbdf805cc	-0.12110481
58	0xbd611246	-0.054949068
59	0x3d45d13e	0.048295252
60	0xbd0ca8bd	-0.03434061
61	0xbd9dcf24	-0.077055246
62	0x3dc5cff4	0.096588045
63	0x3dbea047	0.09307914
64	0xbce9ee56	-0.02855603
65	0xbde1a7aa	-0.110183075
66	0xbe904242	-0.2817555
67	0x3e175d3a	0.14781657
68	0x3ecdb646	0.40178126
69	0xbe87b2a5	-0.26503482
70	0xbe914660	-0.28374004
71	0x3dd01130	0.10159528
72	0xbec4ed2b	-0.38462195
73	0xbdf97f25	-0.12182454
74	0xbd3734e7	-0.044728186
75	0xbe0a9580	-0.13533592
76	0x3f002669	0.5005861
77	0x3d81cca7	0.063378625
78	0xbda33f18	-0.079710186
79	0x3e425a83	0.1897984
80	0xbc5e9a80	-0.01358664
81	0x3e534d63	0.2063499
82	0x3df3f9e6	0.11912899
83	0x3d9aa9b0	0.075518966
84	0xbc6feff6	-0.0146446135
85	0x3d519c0c	0.05117421
86	0x3cfce37f	0.030870197
87	0x3ca94db3	0.020666933
88	0x3e8b7df1	0.27244523
89	0x3ec2e1d8	0.3806293
90	0xbca80087	-0.020508064
91	0x3eab4692	0.33452278
92	0xbd9e51e9	-0.07730467
93	0xbe317b5b	-0.17332213
94	0xbe2ef16a	-0.1708428
95	0x3dbdd7d1	0.09269679
96	0x3e5d7414	0.21626312
97	0xbdb01a2f	-0.08598744
98	0xbd0930e0	-0.033493876
99	0x3d0e7acb	0.034785073
100	0x3e0ca4da	0.13734761
101	0x3d86572f	0.06559598
102	0xbe6193fc	-0.22029108
103	0xbe148265	-0.14502867
104	0xbd6b687b	-0.057472687
105	0x3e8d7400	0.27627563
106	0x3d5e34f8	0.054249734
107	0x3e604990	0.21903062
108	0xbe189af4	-0.1490286
109	0x3e1a5b42	0.15073875
110	0x3d0eaff5	0.034835774
111	0x3cd053bf	0.025430558
112	0xbe98f4b4	-0.29874194
113	0x3b70d738	0.0036749374
114	0x3daebc6b	0.085320316
115	0x3e346512	0.1761668
116	0x3de74f27	0.11294394
117	0x3e3113ad	0.17292662
118	0x3dc675b4	0.09690419
119	0x3e7a83bf	0.2446432
120	0x3eae503f	0.34045598
121	0x3db8568c	0.090008825
122	0x3d864120	0.0655539
123	0x3e3da9ab	0.18521754
124	0xbcb26da2	-0.021780793
125	0x3c0a55dc	0.008443322
126	0xbe066c21	-0.13127185
127	0x3d85060d	0.06495295
128	0xbd0c6d9b	-0.034284215
129	0xbce288e6	-0.027653169
130	0xbe47375a	-0.19454709
131	0x3d15ba5f	0.03655469
132	0xbc869e07	-0.016432775
133	0x3e2ac803	0.16677861
134	0x3e29d646	0.16585645
135	0xbbd9bea9	-0.006645043
136	0x3e769647	0.24080764
137	0x3d30f0e5	0.043198485
138	0xbd7de3ad	-0.061984707
139	0xbde14a86	-0.11000542
140	0x3e3f0712	0.18655041
141	0x3dd7206f	0.10504233
142	0xbe2df50a	-0.16988006
143	0x3e0ced71	0.13762452
144	0x3df539f8	0.11973947
145	0x3e1b1bac	0.15147275
146	0x3d9538af	0.07286202
147	0x3dcb8349	0.0993715
148	0x3df0c3b3	0.11756077
149	0x3e6f6793	0.23379354
150	0xbdca62f2	-0.098821536
151	0xbdb5f68a	-0.08884914
152	0x3d44fb7b	0.048091393
153	0xbc0c67cc	-0.008569669
154	0x3de9883d	0.114029385
155	0xbe233d0e	-0.1594126
156	0x3d9458a5	0.0724347
157	0x3dbff273	0.093724154
158	0xbc170592	-0.009217637
159	0x3deaaa73	0.11458292
160	0x3e40b629	0.18819489
161	0x3d8156dc	0.06315395
162	0x3cbe7661	0.023249807
163	0xbe031fde	-0.12805125
164	0xbcc69197	-0.024239345
165	0x3cc08547	0.023501052
166	0xbe07ae5a	-0.13250104
167	0xbdd503ea	-0.10401137
168	0xbd809ed1	-0.06280292
169	0x3c24bdb0	0.010054991
170	0x3d026512	0.03183467
171	0xbe44ca90	-0.19217896
172	0xbad95178	-0.0016580066
173	0xbd21cd61	-0.039502505
174	0xbca37171	-0.019951554
175	0x3d800fcb	0.06253012
176	0x3e08c18a	0.1335508
177	0xbdc1bd77	-0.09459966
178	0x3c82564b	0.015910288
179	0xbdfca795	-0.12336651
180	0x3dbd76f4	0.09251204
181	0xbdfa8515	-0.12232415
182	0xbd48a10e	-0.04898172
183	0x3ccbb135	0.024864772
184	0xbe13ade3	-0.14421801
185	0x3d0b57ec	0.034019396
186	0xbcbddb91	-0.023175986
187	0xbea7a1e1	-0.3274069
188	0x3d8374dc	0.064187735
189	0xbd84f7e0	-0.06492591
190	0x3d54406f	0.05181926
191	0xbcbdee69	-0.023184972
192	0x3e317f7d	0.17333789
193	0xbc8d6991	-0.017262252
194	0xbdeea2ea	-0.11652167
195	0xbad4998c	-0.0016220077
196	0x3eb0c0b7	0.3452203
197	0xbf0947c0	-0.53625107
198	0xbebacfba	-0.36486608
199	0x3ca53048	0.020164624
200	0xbcc5b1a8	-0.024132565
201	0x3de48953	0.11159005
202	0xbf8bfb7b	-1.0936121
203	0x3cb16851	0.021656187
204	0x3d362faa	0.04447905
205	0x3d3cb7c3	0.046073686
206	0x3d97a273	0.074040316
207	0xbd98ba0f	-0.07457363
208	0x3dbd4075	0.0924081
209	0xbdbf9d6b	-0.09356197
210	0xbd039456	-0.032123886
211	0xbe52e60a	-0.20595565
212	0xbe9e5084	-0.30920804
213	0x3ed2e676	0.41191453
214	0x3c3c1930	0.011480615
215	0xbd323df1	-0.043516103
216	0x3cac4095	0.021026889
217	0x3dec609f	0.115418665
218	0x3e11c61e	0.14235732
219	0xbd4ad0e6	-0.049515627
220	0xbe365d13	-0.17808942
221	0x3ca985f4	0.020693757
222	0xbe36d4ef	-0.17854665
223	0xbe1d84a0	-0.15382624
224	0x3ed1769e	0.4091081
225	0x3c97449a	0.018465329
226	0xbdd58e7f	-0.104275696
227	0xbe1f83e1	-0.15577652
228	0xbdd89c8a	-0.105767325
229	0xbd800f2c	-0.06252894
230	0xbe2cbfb4	-0.16870004
231	0xbe8a7f7d	-0.2705039
232	0x3d94ca81	0.07265187
233	0xbe8d9eb0	-0.2766013
234	0x3c6dd6f6	0.014516583
235	0x3cf189fb	0.02948474
236	0xbd9f396f	-0.077746265
237	0xbf2b9180	-0.6701889
238	0xbdd470bb	-0.10373064
239	0x3d90ceea	0.07070716
240	0xbd997d9e	-0.07494663
241	0x3c68fe74	0.014220823
242	0x3d3db07b	0.046310883
243	0xbcfcd884	-0.030864961
244	0xbe7f9923	-0.24960761
245	0xbe143acf	-0.14475559
246	0xbe2e10a5	-0.16998537
247	0xbe7054d5	-0.23469861
248	0xbe123b54	-0.14280444
249	0xbd7c55f1	-0.061605398
250	0x3e047bef	0.12937902
251	0xbf2db91f	-0.678606
252	0x3df85dae	0.12127243
253	0x3d309bdb	0.043117385
254	0x3d0fd7d0	0.035117924
255	0xbdf69d48	-0.12041718

model.6.bias f4 [32]
0	0x3d307e68	0.0430893
1	0x3f156bdc	0.58367705
2	0xbce03c27	-0.027372433
3	0x3d3cba16	0.046075903
4	0x3d810c82	0.06301214
5	0x3efaf90a	0.49018127
6	0x3e1a14ea	0.1504704
7	0x3dd9ef13	0.10641303
8	0x3e6f9704	0.23397452
9	0x3e30aa76	0.17252526
10	0x3f1a18ee	0.6019429
11	0x3d94f4e0	0.07273269
12	0xbda3558a	-0.079753
13	0x3eb969bd	0.36213484
14	0xbcb5b074	-0.022178866
15	0x3e1b5dbc	0.15172476
16	0x3ed623e4	0.41824257
17	0x3e7a5c1c	0.244492
18	0x3e0448ea	0.1291844
19	0x3eb30020	0.34961033
20	0x3e6623c2	0.22474578
21	0x3e80354c	0.25040662
22	0xbe335531	-0.17512967
23	0x3dbe29ba	0.092853025
24	0x3e00283a	0.12515345
25	0x3e603e3d	0.21898742
26	0x3d616e28	0.055036694
27	0x3f118001	0.56835943
28	0x3e8d04f4	0.2754284
29	0x3e50d88f	0.2039511
30	0x3d647171	0.05577225
31	0x3e97cc2d	0.2964796

model.8.weight f4 [10, 32]
0	0x3dd66979	0.10469336
1	0x3e84898e	0.25886196
2	0xbe9d9020	-0.3077402
3	0xbe63cf28	-0.22246993
4	0xbd3a1dc1	-0.04543853
5	0x3e640559	0.22267665
6	0x3cbe66d6	0.023242395
7	0x3bb708d5	0.0055857697
8	0xbe22929b	-0.15876238
9	0xbdc34b68	-0.09535867
10	0x3e84a5b3	0.25907668
11	0xbde47d2a	-0.11156686
12	0x3ca3ed31	0.020010563
13	0xbc0091bb	-0.007847245
14	0x3e3058a7	0.17221318
15	0x3e6b49c5	0.2297736
16	0x3ea88683	0.32915124
17	0xbec81d14	-0.39084685
18	0x3bfd9756	0.007738988
19	0x39ec476d	0.00045066644
20	0xbddaedc0	-0.106898785
21	0x3e88d1ab	0.26722464
22	0x3daa8072	0.0832528
23	0x3d3cf8f0	0.046135843
24	0xbd94470f	-0.07240116
25	0xbe7ba6bd	-0.24575324
26	0x3dffe3ed	0.12494645
27	0x3ddd1651	0.10795272
28	0x3e13be25	0.14428003
29	0x3e647884	0.22311598
30	0xbc38ae9c	-0.011272099
31	0xbe5aa0c9	-0.21350397
32	0xbd76931e	-0.060198896
33	0x3ea536e2	0.32268435
34	0xbe4a8deb	-0.197807
35	0xbd019e16	-0.031644903
36	0x3d32d1f7	0.04365727
37	0x3e9834db	0.29727826
38	0xbd020abc	-0.03174852
39	0xbd0034a8	-0.031300217
40	0xbe7269b7	-0.2367314
41	0xbe60aceb	-0.21940963
42	0x3e352c3f	0.1769266
43	0xbc3a20d2	-0.011360364
44	0x3d8f0044	0.069824725
45	0x3df1eb05	0.118124045
46	0xbe029d0d	-0.12755223
47	0x3e67bd66	0.22630844
48	0x3e96da9e	0.29463667
49	0xbe9e60ac	-0.3093313
50	0x3dda4886	0.10658364
51	0x3e5a56e7	0.21322213
52	0xbe176d87	-0.14787875
53	0x3db5a6e8	0.088697255
54	0xbd6dd98d	-0.0580688
55	0x3e3fa8b2	0.18716696
56	0xbe3cd7fe	-0.1844177
57	0xbe8e04c0	-0.27738
58	0x3d9ba0d6	0.075990364
59	0x3e2e820b	0.17041795
60	0x3e0b589b	0.13608019
61	0x3e44238d	0.19154187
62	0xbdeb63b7	-0.114936285
63	0xbe481feb	-0.19543426
64	0x3e05631c	0.13026088
65	0x3f04b021	0.5183125
66	0xbe2b94d6	-0.16755995
67	0x3d2d1ac3	0.04226185
68	0x3c84d93b	0.016216865
69	0x3eb9c095	0.3627974
70	0x3d8c4bb6	0.06850378
71	0x3d7c4dbb	0.061597567
72	0xbe3e6bcb	-0.18595807
73	0x3df73e7d	0.120724656
74	0x3ea4c557	0.32181808
75	0x3d0b5f68	0.034026533
76	0x3e06c3d3	0.13160639
77	0x3bc4428f	0.0059893797
78	0x3e226198	0.15857542
79	0x3e761a78	0.24033535
80	0x3e88ae69	0.26695564
81	0xbe9b5475	-0.30337873
82	0xbdc712bc	-0.0972037
83	0x3ead337f	0.3382835
84	0xbebf94d0	-0.37418222
85	0x3e245f3b	0.16051953
86	0x3d9f3cd1	0.07775272
87	0x3e86970a	0.2628711
88	0xbe7a4da1	-0.24443676
89	0xbe6cac4d	-0.23112603
90	0xbdd8a077	-0.10577481
91	0x3e7f586c	0.24936074
92	0x3d6b4a01	0.057443622
93	0x3e42182f	0.18954538
94	0x3dd80ecd	0.10549698
95	0xbe134182	-0.14380458
96	0x3c29669a	0.0103394035
97	0x3eadeb69	0.33968666
98	0xbe5987f7	-0.21243273
99	0xbe2563f1	-0.16151406
100	0x3d38577c	0.045005307
101	0x3e4dd9df	0.20102642
102	0x3e3eaf44	0.18621546
103	0x3d8eed0c	0.06978807
104	0xbe7fbe4c	-0.24974936
105	0x3d5fb7d7	0.054618683
106	0x3e987425	0.2977611
107	0xbdf5087f	-0.11964511
108	0x3d6c7faa	0.057738937
109	0x3ca87f36	0.020568471
110	0x3e04b9f1	0.12961556
111	0x3e39b954	0.18137103
112	0x3e732f73	0.23748569
113	0xbe799d2d	-0.24376364
114	0xbd9a8dc6	-0.075465724
115	0x3e1b4e46	0.15166578
116	0xbd804be5	-0.06264476
117	0x3e4d11db	0.20026343
118	0xbdfa4491	-0.12220109
119	0x3eba3fe6	0.36376876
120	0xbe83b36a	-0.2572282
121	0xbeac2c9b	-0.3362778
122	0xbe16fcdd	-0.14744897
123	0x3e8a8a42	0.27058607
124	0x3c9f4686	0.019442808
125	0x3e435e87	0.19079028
126	0x3bc3ff94	0.005981395
127	0xbe1ceeec	-0.15325516
128	0xbe15e9e4	-0.14640003
129	0x3e6077d8	0.21920717
130	0xbe5eaaa9	-0.21744789
131	0x3dd96d55	0.106165566
132	0x3e0d63b0	0.13807559
133	0x3e584e01	0.21123506
134	0xbd5d76a2	-0.054068215
135	0xbc2a0e51	-0.01037939
136	0xbe7a710c	-0.24457186
137	0x3d6b4dcb	0.057447236
138	0x3ea02c60	0.31283855
139	0xbd93b0c8	-0.07211453
140	0x3dcdc837	0.100479536
141	0x3bf9a326	0.0076183258
142	0x3e2179cf	0.15769123
143	0xbb6ef0de	-0.0036459486
144	0x3ecfd7a0	0.40594196
145	0xbea545d0	-0.32279825
146	0x3e0b382a	0.13595644
147	0x3e285f07	0.164425
148	0xbe7d1561	-0.24715187
149	0x3e5ec8a2	0.21756223
150	0xbe07fb82	-0.13279536
151	0x3eb36207	0.35035726
152	0xbe45cf67	-0.19317399
153	0xbe495652	-0.19661835
154	0xbca4370a	-0.020045776
155	0x3e02a629	0.12758698
156	0xbdc27c1e	-0.0949633
157	0x3e5b473b	0.21413891
158	0x3de069bd	0.10957668
159	0xbe623236	-0.22089466
160	0x3da1e03f	0.079041
161	0x3eb63199	0.35584715
162	0xbea106fa	-0.31450635
163	0xbc12771a	-0.008939529
164	0xbe050605	-0.12990578
165	0x3e180294	0.14844733
166	0x3e3892f1	0.18024804
167	0xbd5a1907	-0.053246524
168	0xbe690e17	-0.22759281
169	0x3e196f9d	0.14983983
170	0x3e4e2ad1	0.2013352
171	0xbd826954	-0.06367746
172	0x3d8763ba	0.06610818
173	0xbd34b44f	-0.04411727
174	0x3dddb146	0.10824828
175	0xbd982bd5	-0.07430235
176	0x3eb76864	0.3582183
177	0xbe72432d	-0.23658438
178	0x3da66173	0.08124056
179	0xbe729473	-0.23689441
180	0xbe372642	-0.17885688
181	0x3e66e75a	0.22549191
182	0x3c927288	0.017876878
183	0x3d672a7c	0.056437
184	0xbe6a1776	-0.22860512
185	0xbe6d96e5	-0.23202093
186	0x3ad5bc54	0.0016306737
187	0x3e29b4fc	0.16572946
188	0x3d76a26a	0.060213484
189	0x3e6078d7	0.21921097
190	0x3e38911f	0.1802411
191	0xbe83a3aa	-0.25710803
192	0xbdaff163	-0.08590963
193	0x3e9bd0b5	0.30432668
194	0xbdccd7fb	-0.100021325
195	0x3d50a46e	0.050938062
196	0x3d0f2087	0.03494313
197	0x3e08fbef	0.13377355
198	0x3e19ec01	0.15031435
199	0xbbebf5b9	-0.0072009233
200	0xbe3c9d7d	-0.18419452
201	0x3d968a0f	0.07350551
202	0x3e8157f9	0.2526243
203	0x3d3221ac	0.043489143
204	0xbda32421	-0.079658754
205	0x3aac75ca	0.0013157662
206	0x3dc520dc	0.09625408
207	0x3e0a02d5	0.13477643
208	0x3e857782	0.2606774
209	0xbeb0dd2e	-0.34543747
210	0x3e44ff24	0.19237953
211	0x3d620ace	0.055186085
212	0xbe0c0961	-0.13675453
213	0x3ded6d87	0.11593156
214	0xbd66dca0	-0.05636275
215	0x3ddeb651	0.10874618
216	0xbebb7962	-0.36616045
217	0xbe4fd339	-0.20295419
218	0x3d2024d3	0.03909762
219	0x3e56cbdf	0.20976208
220	0x3e3b13bd	0.18269248
221	0x3e6f2901	0.23355485
222	0xbba53f8d	-0.0050429762
223	0xbe4df6e9	-0.2011372
224	0xbdaf1f36	-0.08550875
225	0x3eaf80b1	0.3427787
226	0xbe20a044	-0.15686136
227	0x3db00163	0.085940145
228	0x3e32edbf	0.17473505
229	0x3e449a5c	0.19199508
230	0xbc6c782e	-0.01443295
231	0x3a325956	0.0006803473
232	0xbe1248ab	-0.14285533
233	0xbd8547f9	-0.06507868
234	0x3ea3843f	0.31936833
235	0xbda5fc93	-0.08104815
236	0xbd873c5c	-0.066033095
237	0x3bada013	0.0052986233
238	0x3dbe0afd	0.092794396
239	0xbe13832c	-0.14405507
240	0x3e9f22b0	0.31081152
241	0xbe2c01ce	-0.16797563
242	0x3d94ec79	0.07271666
243	0xbe224a1b	-0.15848581
244	0xbe293459	-0.16523875
245	0x3e376fb3	0.17913704
246	0x3d8485ee	0.064708576
247	0x3cdded47	0.027090682
248	0xbe641fcc	-0.22277755
249	0xbeb884ac	-0.3603872
250	0x3dafdd69	0.085871525
251	0x3ddd94c0	0.108193874
252	0x3c811791	0.015758308
253	0x3e2eb029	0.17059387
254	0xbe1bd611	-0.15218379
255	0xbec9eda3	-0.39439115

model.8.bias f4 [10]
0	0xbdd55c3f	-0.10417985
1	0xbe536e45	-0.20647533
2	0xbde8aa3b	-0.11360594
3	0xbe826a1e	-0.25471586
4	0xbdfa3b4f	-0.122183435
5	0x3c4299a5	0.011877452
6	0xbb8bb73d	-0.004263787
7	0x3dc122f8	0.09430498
8	0x3ce2c1f4	0.027680375
9	0x3de64dfc	0.11245343
