checkpoints/checkpoint_step_5100.pth (torch, 200878 bytes, 10 tensors)

model.0.weight f4 [256, 21]
0.12478114 0.00686833 0.14319924 -0.3347484 -0.291173 -0.15295488 -0.46627703 -0.070722185
0.061185997 0.1247914 -0.22822562 -0.09888684 0.2034624 -0.78144634 -0.28983426 -0.15048368
-0.07716081 0.07515373 0.10341394 -0.33118877 0.407176 0.02692692 0.017837064 -0.17429006
-0.079256624 -1.1492834 -0.07521074 0.07999636 -0.087158866 -0.13459311 -0.30264637 -0.0261959
-0.066913374 -0.3345849 -0.34341288 -0.12538795 -0.023768373 -0.04980344 0.15470979 -0.08505341
0.13553846 -0.07140039 -0.054985397 -0.26181346 0.24800079 -0.026826022 0.12801237 0.085936196
-0.4858035 0.10731178 0.15224403 -0.17194363 0.03254432 -0.50496644 -0.11435334 -0.23722488
-0.21597072 0.08939443 -0.32387686 -0.04755575 -0.088578984 -0.18518466 -0.10437004 -0.10071589
-0.7375203 0.109065466 -0.70075387 -1.6483647 0.09097521 -0.23765092 0.19038686 -0.17611896
0.3722177 -0.163159 0.28992257 -0.048218574 -0.08815184 -0.10931659 0.31961092 -0.13090728
0.21836971 -0.014295745 0.14316696 -0.72825944 0.1265658 -0.102857396 -0.18064687 0.04696479
0.11694073 -0.34722334 0.07269889 0.12874787 0.18243977 -0.03999811 -0.1986642 -0.032830466
-0.027817171 -0.120471716 -0.41960588 0.06585119 0.25583333 -0.6181911 -0.22010298 0.06694273
0.073288545 -0.12351967 0.1038665 -0.13669226 0.1331661 -0.01952635 0.10698218 -0.16105157
0.019584564 -0.22113411 -0.0638083 0.11197766 0.26593587 0.011869716 0.41220394 -0.04986874
0.39056832 0.17443207 0.33080506 -0.11646424 0.22584149 0.102936946 -0.6442387 -0.0625259
0.2900412 -0.36698055 -0.7907868 -0.12559399 -0.27856928 -0.33190075 -0.38324338 -0.056105275
-0.27807274 -0.28179994 -0.07531135 -0.2028886 0.159706 0.16446148 0.10965773 0.099476084
-0.20954049 -0.096975565 -0.100763544 -0.1728602 -0.11749169 0.18108878 -0.1346787 0.182376
-0.060299795 -0.3430658 -0.07557548 -5.065284 -0.0327408 -0.07771087 -0.0346688 -0.09300056
-0.083169244 0.031475108 -0.010267158 -0.051706895 -0.19518389 -0.04886008 -0.24613985 -0.20985125
-0.020444693 -0.12821718 0.07532496 -0.21799606 0.0639887 0.0030131596 -0.350664 -0.10438176
0.18448599 -0.2964508 -0.31650004 -0.35770202 -0.018260613 -0.0775163 -0.17031111 -0.29850963
0.010300555 -0.0693477 -0.2571158 -0.06538978 0.028813953 0.17417365 -0.20689683 -0.3271555
-0.07014685 0.21608746 -0.23560494 -0.27815828 -0.080692284 0.03269993 0.032338645 -0.18564935
-0.5198464 -0.0979195 -0.3438175 0.081479914 -0.1220245 -0.1749132 -0.5245422 0.110215284
-0.21363194 -0.083116755 -0.25748998 0.18504319 -0.19799836 0.04485134 -0.3392039 0.08334159
-0.2766067 0.19685228 -0.25002193 0.21956578 0.15997326 -0.22046354 0.04010763 0.57504976
0.16631798 -0.45311883 0.23288645 -0.23575976 -0.10342416 0.25757292 0.033037595 -0.13695107
0.05845783 -0.13691783 -0.11807529 0.3227254 0.020929974 0.080370545 -0.07466414 -0.43169236
-0.20463969 -0.17158811 -0.2530663 -0.019911218 -0.09619123 -0.055950083 0.32901353 -0.2382943
-0.29898065 -0.04244237 -0.11053559 -0.05789415 -0.11235508 0.0871076 -0.3110393 -0.15697075
00000000: 418d ff3d ba0f e13b d2a2 123e 2464 abbe
00000010: a114 95be 34a0 1cbe ddbb eebe cbd6 90bd
00000020: 2b9e 7a3d a292 ff3d fab3 69be 2f85 cabd
00000030: 7358 503e de0c 48bf 2865 94be 6518 1abe
00000040: 7d06 9ebd 33ea 993d b0ca d33d 9391 a9be
00000050: 5f79 d03e d895 dc3c 091f 923c 1879 32be
00000060: 4c51 a2bd b81b 93bf 1708 9abd 22d5 a33d
00000070: 5980 b2bd c7d2 09be 77f4 9abe c998 d6bc
00000080: e109 89bd b64e abbe d0d3 afbe b365 00be
00000090: e4b5 c2bc b1fe 4bbd 3e6c 1e3e 7b30 aebd
000000a0: 98ca 0a3e 5e3a 92bd 5e38 61bd 6a0c 86be
000000b0: ebf3 7d3e 3fc2 dbbc ad15 033e 51ff af3d
000000c0: 3dbb f8be 47c6 db3d dce5 1b3e fe11 30be
000000d0: 314d 053d 7b45 01bf 1532 eabd 14eb 72be
000000e0: 6e27 5dbe 6d14 b73d 30d3 a5be d1c9 42bd
000000f0: e668 b5bd 0ca1 3dbe f6bf d5bd 2244 cebd
00000100: 21ce 3cbf b75d df3d 9b64 33bf 9dfd d2bf
00000110: 3651 ba3d c35a 73be c6f4 423e 8758 34be
00000120: 5293 be3e 2713 27be bb70 943e d780 45bd
00000130: f488 b4bd 60e1 dfbd 0ba4 a33e 8f0c 06be
00000140: 4f9c 5f3e b338 6abc 5c9a 123e 366f 3abf
00000150: 779a 013e e6a6 d2bd 7efb 38be 275e 403d
00000160: 9f7e ef3d 42c7 b1be 28e3 943d 7bd6 033e
00000170: 7ed1 3a3e 0fd5 23bd a16e 4bbe 3d79 06bd
00000180: d6e0 e3bc e0b9 f6bd 95d6 d6be fddc 863d
00000190: 96fc 823e c641 1ebf ad62 61be 4519 893d
000001a0: 4e18 963d e1f7 fcbd f6b7 d43d 0ef9 0bbe
000001b0: b25c 083e b9f5 9fbc 7919 db3d b4ea 24be
000001c0: cf6f a03c fb70 62be edad 82bd 8b54 e53d
000001d0: bf28 883e 3379 423c 650c d33e 2a43 4cbd
000001e0: 92f8 c73e 529e 323e 485f a93e ce84 eebd
000001f0: fe42 673e 9bd0 d23d d4ec 24bf 940d 80bd
00000200: 4880 943e e0e4 bbbe 0171 4abf b69b 00be
00000210: a2a0 8ebe e5ee a9be 7a38 c4be a5ce 65bd
00000220: 8d5f 8ebe 1548 90be d63c 9abd 07c2 4fbe
00000230: f889 233e 9768 283e 3b94 e03d 1eba cb3d
00000240: c891 56be 209b c6bd 1e5d cebd 4402 31be
00000250: 7c9f f0bd 566f 393e 37e9 09be c6c0 3a3e
00000260: ebfc 76bd 52a6 afbe 51c7 9abd ce16 a2c0
00000270: 381b 06bd e026 9fbd df00 0ebd 1477 bebd
00000280: a354 aabd 0bec 003d 9537 28bc 9cca 53bd
00000290: 49de 47be 8221 48bd 160c 7cbe 3fe3 56be
000002a0: a17b a7bc 5d4b 03be f943 9a3d 5c3a 5fbe
000002b0: 820c 833d 6e78 453b 3b8a b3be 1bc6 d5bd
000002c0: e5e9 3c3e 66c8 97be 4b0c a2be b824 b7be
000002d0: 4897 95bc dec0 9ebd 0966 2ebe 41d6 98be
000002e0: a9c3 283c 2b06 8ebd afa4 83be 14eb 85bd
000002f0: 3d0b ec3c 945a 323e c3dc 53be ed80 a7be
00000300: 27a9 8fbd 0846 5d3e 6c42 71be c36a 8ebe
00000310: ff41 a5bd 5df0 053d 8775 043d dd1a 3ebe
00000320: a714 05bf 058a c8bd d908 b0be f1de a63d
00000330: fbe7 f9bd 721c 33be 6648 06bf 8db8 e13d
00000340: 55c2 5abe 1e39 aabd bad5 83be f67b 3d3e
00000350: 15c0 4abe 0ab6 373d 22ac adbe ffae aa3d
00000360: 659f 8dbe a593 493e e002 80be dad5 603e
00000370: 08d0 233e 32c1 61be e647 243d 7636 133f
00000380: 434f 2a3e 31ff e7be c979 6e3e 026b 71be
00000390: 0cd0 d3bd 99e0 833e 6e52 073d e73c 0cbe
000003a0: 7a71 6f3d 3034 0cbe 75d1 f1bd 433c a53e
000003b0: 5675 ab3c 5099 a43d 83e9 98bd c806 ddbe
000003c0: 118d 51be cbb4 2fbe e891 81be da1c a3bc
000003d0: e8ff c4bd ea2b 65bd 7674 a83e 6c03 74be
000003e0: fe13 99be 0dd8 2dbd 7c60 e2bd 6b22 6dbd
000003f0: 6c1a e6bd 7865 b23d 8b40 9fbe f1bc 20be

model.0.bias f4 [256]
0.16845685 0.007821449 -0.22780648 0.045128435 0.3740677 0.22136272 0.107497066 0.09000294
0.18763496 0.178507 -0.27939236 -0.017490588 -0.0048838905 -0.45680633 0.49111173 0.44482258
-0.12303319 -0.11342914 0.42467713 -0.17203997 -0.08313084 -0.4149216 -0.1163606 -0.16853172
-0.53988 -0.11815394 -0.21191454 0.14619659 -0.038991045 -0.011694953 0.28909555 0.424102
-0.11142818 -0.16567898 -0.31362736 0.091804 -0.09848302 -0.32996505 0.031460367 0.09608212
-0.05743316 0.2341803 -0.09297898 -0.08181315 0.29647014 -0.1912572 -0.11365041 -0.03413663
0.1563014 -0.12285025 -0.046771295 0.05866311 -0.38060707 -0.28155452 0.10650097 -0.33232644
-0.33333528 0.0040730573 -0.3819482 -0.050052058 0.06327096 -0.11805731 0.2900625 -0.12527362
-0.07071959 -0.12726875 -0.061309643 0.3398957 -0.30767587 0.19876456 0.00030578164 0.26300338
-0.048121978 0.08459425 -0.1896822 -0.37166157 -0.099643454 -0.12017365 -0.18617235 0.39198112
0.03329912 0.27062523 -0.4936312 -0.15779783 0.067188144 -0.21246158 0.34455106 0.29140633
-0.09279938 0.0648239 0.2238723 -0.17478032 -0.21645786 -0.1430216 -0.18481928 -0.26058593
-0.2931558 -0.12181413 -0.36013362 0.36522347 0.4159176 -0.16151695 -0.007162279 0.24122109
0.12815581 0.16740158 -0.02170611 0.10668773 -0.008625169 -0.13329358 0.020550394 -0.07471731
-0.041601874 -0.08480953 -0.070313424 -0.08922982 0.13418429 0.23635538 -0.039068643 0.15274303
-0.31717607 0.07385842 -0.13727194 0.08226381 -0.105762884 -0.45018247 0.36580253 0.19812502
-0.3090037 -0.18351883 -0.10847097 0.16865014 0.010353425 -0.15310189 0.37778583 0.060770255
-0.12235234 -0.22456269 0.032851886 0.4066873 -0.1202689 0.2424278 0.24302907 0.00015365354
0.24255133 0.32605928 0.05125564 0.050424356 -0.8090613 -0.13928902 0.18451992 -0.18609183
0.37162277 -0.4975116 -0.2235319 0.05986933 -0.015126403 0.17559877 0.47973606 0.3812385
-0.1974331 -0.046446256 0.5070476 0.055162296 -0.10529078 0.41228348 -0.14313039 -0.12596375
-0.030807089 0.26688775 -0.06758443 -0.06974126 0.22553685 -0.27290735 0.24268559 0.016148867
-0.33313942 0.5361255 -0.06249363 -0.21012884 -0.3466534 0.26228166 0.12949382 0.049014486
-0.15147716 -0.0070911692 -0.2856472 -0.37525362 0.1486739 0.13765751 -0.23060289 0.18880098
0.4597618 0.12500998 -0.16411743 -0.33121958 0.32912022 0.052181453 0.1800323 -0.12557657
-0.32340512 0.06023451 -0.06084826 0.015388323 0.023066498 -0.0154293785 -0.20055516 -0.0695314
-0.09763765 -0.25084883 0.029780349 0.100896224 0.101765566 0.20375542 -0.12252652 -0.18037651
0.21703544 0.20632304 -0.086050935 0.74144936 -0.04895295 -0.1650951 -0.01665106 -0.09054412
-0.25279287 -0.1549093 0.16340247 -0.24276678 0.059646755 0.15435301 0.12214671 -0.08592642
0.029519055 0.008647294 0.6594055 -0.07216281 0.2076838 -0.20244502 0.31934828 0.50453657
-0.120164834 0.04682698 -0.037360135 -0.06216011 -0.20716712 -0.1889535 0.29791147 0.43599916
-0.37561104 -0.21670121 0.07489631 0.052503377 -0.0014734888 -0.37712932 0.102939434 0.18538885
00000000: f47f 2c3e 8925 003c 1a46 69be 98d8 383d
00000010: cd85 bf3e e9ac 623e 6c27 dc3d 7653 b83d
00000020: 6123 403e 8aca 363e 840c 8fbe 6c48 8fbc
00000030: 0b09 a0bb 85e2 e9be ff72 fb3e c9bf e33e
00000040: d3f8 fbbd 894d e8bd 486f d93e 3f2b 30be
00000050: 8040 aabd 9b70 d4be 774e eebd 9493 2cbe
00000060: 9335 0abf b1fa f1bd 2000 59be 8fb4 153e
00000070: 13b5 1fbd 309c 3fbc 5504 943e e623 d93e
00000080: 7534 e4bd c0a7 29be c493 a0be bc03 bc3d
00000090: 77b1 c9bd 2ef1 a8be 96dc 003d b4c6 c43d
000000a0: 083f 6bbd f6cc 6f3e c36b bebd a78d a7bd
000000b0: efca 973e edd8 43be 8cc1 e8bd dad2 0bbd
000000c0: 790d 203e e998 fbbd 4293 3fbd bb48 703d
000000d0: eede c2be ea27 90be 2e1d da3d b126 aabe
000000e0: ecaa aabe 4877 853b b78e c3be 6303 4dbd
000000f0: 3494 813d 08c8 f1bd 1283 943e ba47 00be
00000100: 6fd5 90bd bd52 02be d21f 7bbd cf06 ae3e
00000110: b187 9dbe f088 4b3e 5151 a039 61a8 863e
00000120: 8d1b 45bd c03f ad3d 0d3c 42be 6d4a bebe
00000130: de11 ccbd 9a1d f6bd f7a3 3ebe c0b1 c83e
00000140: a864 083d 648f 8a3e 3bbd fcbe c195 21be
00000150: f099 893d 878f 59be ff68 b03e 3633 953e
00000160: 9a0d bebd 65c2 843d c83e 653e 9df9 32be
00000170: 21a7 5dbe 4174 12be 4441 3dbe 856b 85be
00000180: 8418 96be b079 f9bd 6f63 b8be 92fe ba3e
00000190: 27f3 d43e b364 25be 8db1 eabb a902 773e
000001a0: 473b 033e 526b 2b3e 03d1 b1bc 197f da3d
000001b0: 9550 0dbc 1d7e 08be 4d59 a83c 6405 99bd
000001c0: ba66 2abd 9eb0 adbd 7c00 90bd 20be b6bd
000001d0: 9b67 093e 2507 723e 7106 20bd ab68 1c3e
000001e0: e764 a2be 1543 973d 0491 0cbe ee79 a83d
000001f0: 369a d8bd 517e e6be 784a bb3e 49e1 4a3e
00000200: bc35 9ebe 5cec 3bbe 0726 debd 9fb2 2c3e
00000210: 69a1 293c bec6 1cbe 256d c13e 3bea 783d
00000220: dd93 fabd c3f3 65be b38f 063d 5139 d03e
00000230: 8b4f f6bd fe3e 783e 9ddc 783e 0f1e 2139
00000240: 605f 783e 3ef1 a63e 6ff1 513d c589 4e3d
00000250: a41e 4fbf c8a1 0ebe caf2 3c3e db8e 3ebe
00000260: 5745 be3e d7b9 febe 8ce5 64be 8b39 753d
00000270: bcd4 77bc 2ad0 333e f79f f53e b131 c33e
00000280: e72b 4abe 6e3e 3ebd dfcd 013f dcf1 613d
00000290: b1a2 d7bd d216 d33e c690 12be a4fc 00be
000002a0: 265f fcbc 83a5 883e b569 8abd 81d4 8ebd
000002b0: 22f3 663e 83ba 8bbe 9282 783e a14a 843c
000002c0: 4091 aabe 853f 093f 52f9 7fbd 042c 57be
000002d0: 8e7c b1be c849 863e 079a 043e 6ac3 483d
000002e0: d41c 1bbe 0a5d e8bb 5a40 92be 3e21 c0be
000002f0: f93d 183e 17f6 0c3e 2a23 6cbe 0b55 413e
00000300: e665 eb3e 9e02 003e 660e 28be 9d95 a9be
00000310: 7282 a83e 38bc 553d 635a 383e 2597 00be
00000320: 5b95 a5be 76b8 763d 063c 79bd 4e1f 7c3c
00000330: f4f5 bc3c 81cb 7cbc 555e 4dbe 7b66 8ebd
00000340: 40f6 c7bd 426f 80be ebf5 f33c aea2 ce3d
00000350: 776a d03d 43a5 503e 2fef fabd 9fb4 38be
00000360: 8a3e 5e3e 5946 533e 793b b0bd a0cf 3d3f
00000370: e382 48bd b10e 29be ce67 88bc 326f b9bd
00000380: 116e 81be 8ba0 1ebe fa52 273e db97 78be
00000390: 2850 743d b70e 1e3e 0e28 fa3d 31fa afbd
000003a0: f2d1 f13c 61ad 0d3c cdce 283f 18ca 93bd
000003b0: 10ab 543e bf4d 4fbe 9e81 a33e 4f29 013f
000003c0: fb18 f6bd a6cd 3f3d f106 19bd 999b 7ebd
000003d0: 9e23 54be 077d 41be da87 983e 483b df3e
000003e0: 1750 c0be ece6 5dbe 3d63 993d c80d 573d
000003f0: 1422 c1ba 1817 c1be e9d1 d23d 93d6 3d3e

model.2.weight f4 [128, 256]
-0.14200628 0.056101415 0.0065261084 0.10155203 0.016526524 -0.08392523 -0.07835633 0.06796015
-0.043881577 -0.025980879 0.10876111 -0.08691029 0.28487977 -0.03539594 -0.015729928 -0.071837306
0.0117733395 -0.007325058 -0.42532212 0.17956108 -0.07138659 0.096062675 -0.034722216 0.11714423
0.19554079 0.13177077 -0.061493542 0.11135867 0.0014847071 0.040377274 0.06849525 0.043932855
-0.12525533 -0.022897296 0.08915355 -0.0050774817 0.004264146 0.08632533 -0.046484828 0.21215475
0.09662301 -0.21205026 -0.45746022 0.0039077317 -0.08962025 -0.020636996 -0.038329475 -0.048132315
-0.025806755 0.07622404 0.07951583 0.04828923 0.2109826 -0.05347539 0.26783374 -0.14234303
0.09680277 0.069272496 0.010301152 -0.11863674 -0.007943332 0.022941817 0.29556903 0.010675213
0.05699845 -0.16178259 -0.016734758 -0.014140735 -0.12181738 0.06892421 -0.1535703 0.037571233
-0.02348316 0.16531084 0.06414654 0.06027803 0.24477242 0.12193344 0.2008056 0.0036828895
0.04205052 0.3679096 0.25773975 0.07202576 -0.016975475 -0.05792239 0.0030519143 0.0053428463
0.12092311 -0.0049093813 0.06770084 -0.051136278 0.09091996 -0.022877874 0.4255853 -0.02550744
0.046774924 -0.11116332 0.1474118 0.19687691 0.37260312 0.021382561 -0.10327971 0.30024365
-0.14594693 0.08252121 0.10794445 0.053722188 0.07403798 -0.03721936 0.039698336 0.036287595
-0.00024371516 -0.038206235 -0.23703896 -0.019871246 -0.053317204 0.2644776 0.15828626 0.016303405
0.11767313 0.027495844 -0.12093971 0.13486531 0.09241457 -0.075377524 0.18475117 0.107317105
0.113566436 -0.00013056757 0.08783411 0.21723187 0.08728768 0.027281405 0.17968914 0.09896505
0.0755233 -0.06426702 0.11339941 0.54475534 -0.098674655 -0.053653035 0.030567564 0.14294003
0.17371853 0.039077427 0.040049456 0.22609024 0.42121902 -0.01337664 0.23439926 -0.02494585
0.1993185 0.022817688 0.0487948 0.0633698 -0.025505774 -0.16964683 -0.52755636 -0.116614334
0.005649165 0.10023456 0.07741891 -0.07962562 -0.03252399 0.08028434 0.1956228 0.10484818
0.0096562365 0.012459293 0.47619545 -0.038104158 0.039386008 0.16919246 0.20430611 0.089204215
0.0006462759 0.22991145 -0.033168465 -0.2733476 0.06361317 0.22040738 -0.29419494 -0.04305885
-0.0177517 -0.05250133 -0.058913622 0.031722393 0.22901186 -0.0141603965 -0.06872816 -0.36319873
-0.23115386 0.14280005 -0.06524195 0.034088507 0.052995138 -0.22010419 0.19864091 -0.0706519
0.26089472 0.1449451 0.33427513 -0.07598392 -0.0027919966 0.0563743 -0.62726647 -0.0885939
-0.08080948 0.08778233 0.44139197 -0.0027716886 -0.02170869 0.044752587 0.028862776 -0.11840107
0.0055144723 0.087738976 0.037478544 -1.120812 -0.11826359 0.11575742 0.047133185 -0.16868193
0.16653089 -0.062972635 0.057008363 -0.019553347 -0.030754479 0.06983899 0.33078817 0.093357526
0.011277974 0.008040058 0.32932532 0.02891162 -0.15503399 -0.071076974 0.19561493 -0.92374134
0.011792775 0.13404618 0.048936058 -0.09282161 0.22392048 -0.14230685 -0.17493695 -0.043078624
0.18337864 0.040268093 0.099146545 -0.019767214 -0.0161176 -0.028339116 -0.023231044 -0.062355153
00000000: 186a 11be 99ca 653d f7d8 d53b 83fa cf3d
00000010: a262 873c fee0 abbd 4979 a0bd b12e 8b3d
00000020: 2bbd 33bd dad5 d4bc 25be de3d 06fe b1bd
00000030: c3db 913e 55fb 10bd 0ddc 80bc 701f 93bd
00000040: f7e4 403c 0a07 f0bb d2c3 d9be dcde 373e
00000050: 2233 92bd 82bc c43d e238 0ebd 50e9 ef3d
00000060: d83b 483e ebee 063e a7e0 7bbd 0410 e43d
00000070: 819a c23a a462 253d 3d47 8c3d f0f2 333d
00000080: ef42 00be 1c93 bbbc 2396 b63d 0161 a6bb
00000090: 40ba 8b3b 56cb b03d e066 3ebd 183f 593e
000000a0: 49e2 c53d b423 59be 3a38 eabe 6e0c 803b
000000b0: d28a b7bd eb0e a9bc 5eff 1cbd 6426 45bd
000000c0: b068 d3bc 591b 9c3d 32d9 a23d edca 453d
000000d0: d30b 583e 0309 5bbd 8121 893e 5fc2 11be
000000e0: 8840 c63d bdde 8d3d 2ac6 283c d2f7 f2bd
000000f0: c024 02bc 7af0 bb3c d354 973e 17e7 2e3c
00000100: 3577 693d 56aa 25be 5517 89bc 8bae 67bc
00000110: 647b f9bd 2328 8d3d 8841 1dbe 4be4 193d
00000120: c25f c0bc 3f47 293e 435f 833d 18e6 763d
00000130: 9fa5 7a3e 3db8 f93d fc9f 4d3e a25c 713b
00000140: 2b3d 2c3d a65e bc3e 77f6 833e 3e82 933d
00000150: 2710 8bbc 0740 6dbd a002 483b 0b13 af3b
00000160: 89a6 f73d e0de a0bb bda6 8a3d 4674 51bd
00000170: 3e34 ba3d 616a bbbc 51e6 d93e fbf4 d0bc
00000180: 1097 3f3d 98a9 e3bd 1ef3 163e 1a9a 493e
00000190: d6c5 be3e 7b2a af3c 5084 d3bd 89b9 993e
000001a0: 1d73 15be e100 a93d fb11 dd3d cc0b 5c3d
000001b0: 39a1 973d 5473 18bd b99a 223d 4da2 143d
000001c0: ca8d 7fb9 247e 1cbd 57ba 72be 06c9 a2bc
000001d0: 2463 5abd 9c69 873e cb15 223e b88e 853c
000001e0: 9cfe f03d f73e e13c 3daf f7bd 221a 0a3e
000001f0: da43 bd3d 885f 9abd 692f 3d3e 12c9 db3d
00000200: 8595 e83d f7e8 08b9 5fe2 b33d 0872 5e3e
00000210: e2c3 b23d 417d df3c 6e00 383e 30ae ca3d
00000220: f6ab 9a3d 6d9e 83bd f33d e83d 1675 0b3f
00000230: f015 cabd 49c3 5bbd d468 fa3c df5e 123e
00000240: 45e3 313e a70f 203d e60a 243d 3384 673e
00000250: 05aa d73e b229 5bbc 5c06 703e 3d5b ccbc
00000260: 261a 4c3e 29ec ba3c 0edd 473d 07c8 813d
00000270: 7cf1 d0bc e6b7 2dbe ef0d 07bf 7fd3 eebd
00000280: a11c b93b c747 cd3d ce8d 9e3d c212 a3bd
00000290: e037 05bd 1e6c a43d 5851 483e a5ba d63d
000002a0: 3135 1e3c 1022 4c3c e4cf f33e 1b13 1cbd
000002b0: 3953 213d ca40 2d3e 9f35 513e b3b0 b63d
000002c0: d76a 293a e86d 6b3e a8db 07bd 37f4 8bbe
000002d0: 9f47 823d 79b2 613e b8a0 96be 7a5e 30bd
000002e0: 036c 91bc a20b 57bd 694f 71bd 57ef 013d
000002f0: 1682 6a3e 0201 68bc 59c1 8cbd 2ff5 b9be
00000300: 99b3 6cbe 2d3a 123e 929d 85bd 64a0 0b3d
00000310: 6e11 593d fe62 61be 8668 4b3e f1b1 90bd
00000320: fe93 853e 7d6c 143e 1c26 ab3e 759d 9bbd
00000330: eef9 36bb bde8 663d 8994 20bf b870 b5bd
00000340: 717f a5bd 39c7 b33d 21fe e13e 38a5 35bb
00000350: 6cd6 b1bc 7d4e 373d a171 ec3c 437c f2bd
00000360: bfb2 b43b 7eb0 b33d 1a83 193d c576 8fbf
00000370: 2e34 f2bd 3a12 ed3d ba0e 413d f5ba 2cbe
00000380: 1387 2a3e ccf7 80bd 9a81 693d 572e a0bc
00000390: d1f0 fbbc bf07 8f3d 115d a93e 3b32 bf3d
000003a0: 40c7 383c 73ba 033c 549d a83e 10d8 ec3c
000003b0: 3bc1 1ebe ce90 91bd 484f 483e 507a 6cbf
000003c0: 7c36 413c 6743 093e 2d71 483d 4219 bebd
000003d0: 694b 653e e3b8 11be ac22 33be 3673 30bd
000003e0: 9cc7 3b3e 28f0 243d 580d cb3d daee a1bc
000003f0: 0f09 84bc 6f27 e8bc 084f bebc 1e68 7fbd

model.2.bias f4 [128]
0.35383576 0.15624163 0.13465163 0.10387101 -0.086390175 0.12356975 0.08448415 0.037855692
0.12405877 -0.055298325 -0.06202033 -0.19026232 0.12442653 0.001383029 -0.20044117 -0.014701957
-0.009093061 0.08245045 -0.087590635 -0.043801237 0.026498951 0.15844923 0.005126707 0.19604442
0.07300145 0.18471134 0.0841739 -0.04624542 0.16879143 -0.025091458 0.2885507 -0.064845115
0.39791194 -0.021107864 -0.020045787 -0.06668281 0.0041038557 0.047140833 -0.01463733 -0.05309864
0.1336852 -0.010907476 0.06782209 -0.057148825 -0.08286283 -0.010963715 0.010617812 0.16795944
0.056759488 0.2978436 0.0122123 -0.02212527 -0.045821827 -0.018343255 0.06030304 0.013317293
-0.041816104 0.15653978 0.23177049 -0.032028347 -0.056008276 0.20425177 -0.28507805 0.05601018
0.07177915 0.15187709 0.3539055 -0.09884025 0.09082906 0.105813384 0.0688891 0.101336196
-0.075992875 -0.021400562 0.42996556 -0.12887509 -0.025811117 -0.08875821 0.14368469 -0.029360406
0.0036741772 0.21468547 -0.016765535 0.056634896 -0.07071927 0.24117687 0.082390435 -0.090374485
0.23092294 0.08069285 0.20255606 -0.058410883 0.10278651 -0.006641031 -0.02622637 0.18130346
0.2340491 0.012005867 -0.06255053 0.027783893 0.19032274 0.17003173 0.090085715 0.17945555
-0.102534615 -0.6022624 -0.052866414 0.06363252 0.08343611 0.4960874 0.23136337 -0.05398502
0.19316697 2.4315725e-05 0.24373601 0.033005394 -0.140087 0.08483912 0.45898843 0.09474543
0.19372058 0.4705158 -0.03570802 -0.07081483 -0.04626885 -0.025423937 0.05154807 -0.009323495
00000000: f629 b53e cefd 1f3e 1ee2 093e 53ba d43d
00000010: 55ed b0bd 2312 fd3d 0706 ad3d 920e 1b3d
00000020: 8612 fe3d 7f80 62bd 0809 7ebd 20d4 42be
00000030: 56d3 fe3d c146 b53a 7340 4dbe 7ae0 70bc
00000040: 10fb 14bc c8db a83d b862 b3bd ed68 33bd
00000050: 5414 d93c 8440 223e effd a73b debf 483e
00000060: c981 953d f824 3d3e 5e63 ac3d d66b 3dbd
00000070: a9d7 2c3e 9a8c cdbc ebbc 933e 84cd 84bd
00000080: 1dbb cb3e 66ea acbc 1037 a4bc ff90 88bd
00000090: a379 863b bf16 413d 69d1 6fbc f67d 59bd
000000a0: c6e4 083e 45b5 32bc 4fe6 8a3d e314 6abd
000000b0: fdb3 a9bd 27a1 33bc 55f6 2d3c 8ffd 2b3e
000000c0: a37c 683d f57e 983e 1916 483c 0e40 b5bc
000000d0: abaf 3bbd 9844 96bc 5200 773d c630 5a3c
000000e0: 5d47 2bbd f74b 203e 3e55 6d3e 2830 03bd
000000f0: ef68 65bd 6027 513e c0f5 91be ee6a 653d
00000100: f200 933d ab85 1b3e 1a33 b53e c26c cabd
00000110: 9604 ba3d b0b4 d83d ba15 8d3d 5a89 cf3d
00000120: 27a2 9bbd 3b50 afbc 7224 dc3e d5f7 03be
00000130: d671 d3bc ddc6 b5bd 1422 133e 3c85 f0bc
00000140: 77ca 703b 82d6 5b3e e057 89bc fef9 673d
00000150: 44d5 90bd 12f7 763e 51bc a83d 4216 b9bd
00000160: 1077 6c3e 4b42 a53d db6a 4f3e 4040 6fbd
00000170: bc81 d23d 019d d9bb afd8 d6bc 9da7 393e
00000180: 91aa 6f3e 42b4 443c 7e1a 80bd 0c9b e33c
00000190: f7e3 423e cc1c 2e3e dc7e b83d 32c3 373e
000001a0: abfd d1bd de2d 1abf 748a 58bd c451 823d
000001b0: 8de0 aa3d 2bff fd3e 85ea 6c3e 651f 5dbd
000001c0: 90cd 453e 9ff9 cb37 ef95 793e aa30 073d
000001d0: f772 0fbe 22c0 ad3d 8800 eb3e e409 c23d
000001e0: b05e 463e 72e7 f03e 9342 12bd 5e07 91bd
000001f0: 6884 3dbd dc45 d0bc 1224 533d 93c1 18bc

model.4.weight f4 [64, 128]
-0.23672825 -0.01654689 0.27618033 -0.15276374 -0.12353077 -0.08854602 0.051875405 0.012602061
-0.41024622 0.033402696 -0.020252926 -0.16117394 -0.15017784 -0.048415437 -0.30354986 0.09282311
0.020801343 0.035459742 -0.034085672 -0.048468716 0.008094743 -0.5085644 0.10247359 0.17094794
0.22460546 0.29580453 0.20887959 -0.033651117 0.07866739 0.052388676 0.10381545 0.05036119
0.26782486 -0.028109672 0.32857528 0.041181885 -0.014772542 0.17438087 0.0056064883 0.034004945
0.16689137 -0.09643457 -0.13790806 -0.01870686 0.007955997 -0.3881108 -0.010227327 -0.33326152
-0.3983386 -0.69400007 -0.040673103 -0.0004477579 0.053818014 0.0624535 0.118560284 0.0028410826
-0.023984918 -0.026783558 -0.410302 -0.019167198 0.065037236 0.025010271 0.5067421 0.24840155
-0.043038722 0.1168009 0.13803332 -0.027840573 0.069996245 -0.20626555 -0.10281302 0.51894766
0.035524387 0.78636485 -0.112356015 -0.10595629 -0.0662257 0.019663045 0.40877506 0.12015864
0.015061695 -0.0864649 0.056378115 0.2681588 0.088345945 0.00827398 -0.2542678 0.0733211
0.5630808 0.02711047 -0.54499024 -0.03843011 -0.051891647 0.086890996 1.1433505 -0.14758451
-0.23265003 0.073025495 -0.25583777 -0.040362135 -0.010986721 0.0977276 0.047093216 0.17156582
-0.039574042 -0.72490036 -0.040710717 0.0051027304 0.058227863 0.099744044 0.329536 0.022511467
0.23915103 0.155381 0.32938454 -0.16749838 -0.010092444 0.044491168 0.16587488 0.167307
0.071766734 0.020623725 0.03142785 -0.0428733 -0.051954865 -0.030224599 -0.15630259 -0.060913328
0.014349597 0.055731125 0.011744247 -0.0153262885 -0.018826427 0.09866449 -0.0068865903 0.00783394
0.05497589 -0.03275469 -0.066062085 0.06052805 0.043934 0.020769693 -0.09489396 0.047170423
-0.019938963 -0.08845659 -0.061488606 0.069051936 -0.082226306 -0.08388126 0.066522114 0.05644728
0.018870082 -0.05843607 -0.096434854 -0.006670162 -0.0068749753 -0.047125675 -0.044067487 0.045537345
-0.06913836 -0.050051026 -0.031264324 -0.08735399 0.061392765 -0.009735096 0.019205421 0.034845334
0.018840134 0.035811484 -0.020374613 0.07657448 -0.008363545 -0.07653883 0.03215957 0.06556423
-0.03171938 -0.017621547 0.012939671 0.07525248 -0.08204174 -0.03998994 -0.05271601 -0.07182251
-0.061246034 -0.011501662 -0.0885872 -0.077779904 -0.053152278 0.07705466 0.046376467 -0.021044
-0.005449013 -0.06746693 -0.03767767 0.01760441 -0.04250771 -0.097059466 -0.018706612 -0.07769341
-0.0025579259 0.028462477 -0.014663901 0.0016413827 -0.06398441 0.05402585 -0.0457633 0.015671289
0.037142776 0.028975816 0.040436942 0.014566308 -0.04548633 0.05633635 -0.08375374 0.06282141
-0.018570568 -0.07160749 -0.036125503 -0.029539779 -0.05184958 0.045359544 -0.03605482 0.055107053
-0.065840125 0.04701715 -0.08492888 0.01846977 -0.09125075 -0.06667039 -0.08247894 0.0036916276
0.066144325 -0.022804826 0.05890573 0.056036253 -0.09024124 -0.03860736 -0.10014785 -0.023016246
-0.07861405 0.008192233 0.019699752 -0.046411976 -0.014086887 -0.098786354 0.0044067614 -0.029375728
0.059585437 -0.052071244 -0.048909035 -0.04276666 0.044415437 -0.024513878 0.003928185 0.053572826
00000000: e468 72be 588d 87bc 8267 8d3e 196e 1cbe
00000010: b3fd fcbd 9e57 b5bd 4e7b 543d e078 4e3c
00000020: cb0b d2be 44d1 083d 77e9 a5bc c80a 25be
00000030: 38c8 19be 444f 46bd e36a 9bbe 0b1a be3d
00000040: 9467 aa3c 3c3e 113d 6b9d 0bbd 2287 46bd
00000050: d09f 043c 4731 02bf acdd d13d fa0c 2f3e
00000060: f9fe 653e b173 973e 88e4 553e c1d5 09bd
00000070: 5e1c a13d 8295 563d 329d d43d 8947 4e3d
00000080: 5720 893e 4146 e6bc 053b a83e 56ae 283d
00000090: 8808 72bc e690 323e a2b6 b73b c548 0b3d
000000a0: 92e5 2a3e 7d7f c5bd c537 0dbe 213f 99bc
000000b0: df59 023c 75b6 c6be 8590 27bc 41a1 aabe
000000c0: 09f3 cbbe fda9 31bf d798 26bd 0cc1 eab9
000000d0: 4770 5c3d 3ecf 7f3d bccf f23d 7531 3a3b
000000e0: 057c c4bc 3169 dbbc 1b13 d2be 8704 9dbc
000000f0: 3e32 853d 57e2 cc3c dab9 013f fa5c 7e3e
00000100: 5f49 30bd 4f35 ef3d 9b58 0d3e ea11 e4bc
00000110: 315a 8f3d 4737 53be a28f d2bd c1d9 043f
00000120: 0582 113d 354f 493f e91a e6bd 9dff d8bd
00000130: 57a1 87bd 6514 a13c f74a d13e bc15 f63d
00000140: 54c5 763c 8214 b1bd bdec 663d 1c4c 893e
00000150: b8ee b43d 968f 073c 642f 82be 5f29 963d
00000160: 1026 103f c716 de3c 7b84 0bbf e468 1dbd
00000170: 568c 54bd e8f3 b13d 4f59 923f 6520 17be
00000180: cf3b 6ebe 648e 953d 2bfd 82be c452 25bd
00000190: a601 34bc 6825 c83d d1e4 403d f3ae 2f3e
000001a0: 6418 22bd 1293 39bf 48c0 26bd ce34 a73b
000001b0: 5780 6e3d 9b46 cc3d f1b8 a83e f869 b83c
000001c0: 02e4 743e 321c 1f3e 17a5 a83e b284 2bbe
000001d0: c75a 25bc 5f3c 363d 1bdb 293e 8752 2b3e
000001e0: 70fa 923d 16f3 a83c 7dba 003d ea9b 2fbd
000001f0: a0ce 54bd 9499 f7bc c90d 20be 4180 79bd
00000200: 921a 6b3c 5246 643d f16a 403c 1d1b 7bbc
00000210: e139 9abc 9c10 ca3d e8a8 e1bb ed59 003c
00000220: 662e 613d c829 06bd 8f4b 87bd 43ec 773d
00000230: 23f4 333d 3425 aa3c c457 c2bd c635 413d
00000240: 0957 a3bc bb28 b5bd 7adb 7bbd 1a6b 8d3d
00000250: 4466 a8bd f0c9 abbd bf3c 883d 4335 673d
00000260: 6e95 9a3c a95a 6fbd a37f c5bd 6091 dabb
00000270: 7947 e1bb da06 41bd 1c80 34bd 5e85 3a3d
00000280: 6a98 8dbd 4e02 4dbd 050f 00bd a6e6 b2bd
00000290: fb76 7b3d f47f 1fbc b054 9d3c fbb9 0e3d
000002a0: a056 9a3c 10af 123d a9e8 a6bc 15d3 9c3d
000002b0: 4007 09bc 64c0 9cbd c1b9 033d 8a46 863d
000002c0: 2eec 01bd 105b 90bc ea00 543c f91d 9a3d
000002d0: 8005 a8bd 7ecc 23bd beec 57bd ae17 93bd
000002e0: 1fdd 7abd 7871 3cbc 356d b5bd 124b 9fbd
000002f0: 34b6 59bd d5ce 9d3d 40f5 3d3d 7764 acbc
00000300: a28d b2bb 1a2c 8abd e753 1abd 2037 903c
00000310: 911c 2ebd 1dc7 c6bd 9c3e 99bc b91d 9fbd
00000320: e0a2 27bb 242a e93c dc40 70bc aa23 d73a
00000330: 420a 83bd 364a 5d3d 4c72 3bbd 1361 803c
00000340: 0623 183d b15e ed3c 35a1 253d 86a7 6e3c
00000350: e04f 3abd f2c0 663d 1587 abbd 83a8 803d
00000360: 4e21 98bc f3a6 92bd 56f8 13bd 68fd f1bc
00000370: 3a60 54bd eeca 393d 38ae 13bd efb7 613d
00000380: 30d7 86bd 0e95 403d 31ef adbd ea4d 973c
00000390: ace1 babd 7c8a 88bd b8ea a8bd 3cef 713b
000003a0: ad76 873d 30d1 babc 2247 713d 4586 653d
000003b0: 66d0 b8bd c022 1ebd 511a cdbd 918c bcbc
000003c0: 6700 a1bd b738 063c 6061 a13c 7c1a 3ebd
000003d0: b0cc 66bc 8050 cabd 9866 903b 5ea5 f0bc
000003e0: dc0f 743d a848 55bd d754 48bd 182c 2fbd
000003f0: f6ec 353d 54d1 c8bc 01b8 803b 2e6f 5b3d

model.4.bias f4 [64]
0.09217096 -0.006001313 0.07801519 0.08219369 0.39324638 0.36004552 0.26692 -0.01693932
0.38069943 0.004607732 0.30432025 -0.17353961 0.3857401 -0.086651124 0.20015039 -0.02560728
0.00521381 0.5149891 -0.10752263 0.06228919 0.2923388 -0.18313903 0.31729394 0.0036177703
-0.06201743 0.059254237 -0.0043219132 0.69165486 -0.14810221 0.16830637 -0.047437362 0.1322648
0.20659699 -0.124024324 -0.08510113 0.073966436 0.011415523 0.030595815 -0.080709875 0.14877924
0.17527108 0.23684344 -0.090279564 0.20774868 -0.09268439 0.5351336 -0.12189368 0.17200138
0.1153142 -0.0948486 0.031732194 0.33964097 0.17984623 0.19563037 0.23157188 -0.0034781315
-0.04206359 -0.069987565 -0.087552674 0.1301333 -0.031845562 -0.1270058 -0.039131444 0.0070670596
00000000: 21c4 bc3d aaa6 c4bb 6ec6 9f3d 2a55 a83d
00000010: 9757 c93e e357 b83e bda9 883e 54c4 8abc
00000020: 09eb c23e 75fc 963b ddcf 9b3e 5eb4 31be
00000030: ba7f c53e 2576 b1bd 39f4 4c3e 5cc6 d1bc
00000040: 9cd8 aa3b 53d6 033f d334 dcbd f322 7f3d
00000050: 6ead 953e cc88 3bbe 5a74 a23e 1d18 6d3b
00000060: fd05 7ebd 92b4 723d d69e 8dbb 4b10 313f
00000070: 1ba8 17be 8158 2c3e ae4d 42bd 6c70 073e
00000080: 298e 533e 7700 febd 8049 aebd b77b 973d
00000090: 2c08 3b3c 13a4 fa3c 384b a5bd 9659 183e
000000a0: 437a 333e 1687 723e 7ee4 b8bd 12bc 543e
000000b0: 50d1 bdbd 84fe 083f 65a3 f9bd 2121 303e
000000c0: da29 ec3d fc3f c2bd 9ef9 013d 6ce5 ad3e
000000d0: 9c29 383e 5453 483e 2e21 6d3e 5df1 63bb
000000e0: df4a 2cbd a455 8fbd d14e b3bd aa41 053e
000000f0: 7e70 02bd cf0d 02be 4b48 20bd cb92 e73b

model.6.weight f4 [32, 64]
0.06808456 -0.05411032 -0.0033357795 -0.11464795 -0.1740844 0.044160556 0.045754015 0.09558674
0.023870356 -0.007609528 -0.024761744 -0.049313325 -0.07705541 -0.07982805 -0.052893013 -0.090719
-0.07121717 -0.16703872 -0.002649337 0.07061324 -0.14691436 0.15477924 0.059363123 0.056289267
-0.06524406 -0.15715028 -0.028936965 0.018910324 0.061510913 -0.15117645 -0.122236915 0.10386502
0.11060676 0.04269412 0.05511963 -0.11395233 -0.010491085 -0.05698328 -0.1480251 -0.16691385
0.037609383 -0.0075997724 0.0071951 -0.1571242 0.017467573 -0.10500616 -0.0990326 -0.040049303
-0.10808958 -0.09484453 0.042934157 -0.08246596 -0.20813785 -0.046812125 -0.13238695 0.01516142
-0.059167705 -0.12110481 -0.054949068 0.048295252 -0.03434061 -0.077055246 0.096588045 0.09307914
-0.07231809 -0.110183075 -0.2817555 0.14781657 0.40178126 -0.30118534 -0.31673717 0.10159528
-0.41792867 -0.12182454 -0.0811984 -0.13533592 0.5005861 0.063378625 -0.079710186 0.1897984
-0.01358664 0.16948739 0.11912899 0.075518966 -0.04883369 0.05117421 0.030869836 0.020666933
0.27244523 0.35086653 -0.020508064 0.3061547 -0.07730467 -0.20766895 -0.1708428 0.061222255
0.21626312 -0.08598744 -0.033493876 0.034785073 0.13734761 0.06559598 -0.22029108 -0.14502867
-0.08167292 0.27627563 0.054249734 0.21903062 -0.1490286 0.12525493 0.034835774 -0.0018650256
-0.33140534 0.0036749374 0.085320316 0.1761668 0.07583088 0.17292662 0.09690419 0.2446432
0.34045598 0.090008825 0.0655539 0.18521754 -0.021780793 0.008443322 -0.13127185 0.06495295
-0.034859486 -0.027653169 -0.19454709 0.03655469 -0.016432775 0.16549021 0.16416666 -0.006645043
0.2393797 0.043198485 -0.07213722 -0.11000542 0.18655041 0.10504233 -0.16988006 0.13762452
0.11973947 0.08134929 0.07286202 0.09265631 0.1151118 0.23257656 -0.07067355 -0.08884914
0.048091393 -0.0040255105 0.114029385 -0.13648039 0.0724347 0.09088846 -0.009217637 0.116161525
0.18819489 0.06315395 0.023249807 -0.12805125 -0.024239345 0.023501052 -0.12695035 -0.11031543
-0.05102943 0.010054991 0.03183467 -0.19217896 -0.0016580066 -0.048259497 -0.019951554 0.059560724
0.13153078 -0.09459966 0.015910288 -0.12336651 0.08260675 -0.12232415 -0.04898172 0.024864772
-0.16588758 0.034019396 -0.023175986 -0.3274069 0.064187735 -0.06492591 0.05181926 -0.023184972
0.17333789 -0.017262252 -0.11652167 -0.0016220077 0.3452203 -0.53625107 -0.36486608 0.020164624
-0.024132565 0.11159005 -1.0936121 0.021656187 0.04447905 0.046073686 0.074040316 -0.07457363
0.0924081 -0.09356197 -0.032123886 -0.20595565 -0.30920804 0.41191453 0.011480615 -0.043516103
0.021026889 0.115418665 0.14235732 -0.049515627 -0.17808942 0.020693757 -0.17854665 -0.15382624
0.4091081 0.018465329 -0.104275696 -0.15577652 -0.105767325 -0.06252894 -0.16870004 -0.2705039
0.07265187 -0.2766013 0.014516583 0.02948474 -0.077746265 -0.6701889 -0.10373064 0.07070716
-0.07494663 0.014220823 0.046310883 -0.030864961 -0.24960761 -0.14475559 -0.16998537 -0.23469861
-0.14280444 -0.061605398 0.12937902 -0.678606 0.12127243 0.043117385 0.035117924 -0.12041718
00000000: eb6f 8b3d c8a2 5dbd 189d 5abb 8bcc eabd
00000010: 2e43 32be b3e1 343d 9068 3b3d fbc2 c33d
00000020: c48b c33c 5959 f9bb 24d9 cabc c5fc 49bd
00000030: 3acf 9dbd e47c a3bd 58a6 58bd e2ca b9bd
00000040: 4fda 91bd 330c 2bbe 80a0 2dbb ad9d 903d
00000050: b870 16be 737e 1e3e bf26 733d 938f 663d
00000060: ad9e 85bd 01ec 20be 370d edbc d3e9 9a3c
00000070: def2 7b3d 00ce 1abe 5957 fabd 2fb7 d43d
00000080: cc85 e23d 08e0 2e3d 1fc5 613d d75f e9bd
00000090: cde2 2bbc 4d67 69bd e493 17be 77eb 2abe
000000a0: 4c0c 1a3d 8307 f9bb e0c4 eb3b 2be5 20be
000000b0: 2818 8f3c 780d d7bd 9bd1 cabd bd0a 24bd
000000c0: 125e ddbd d93d c2bd badb 2f3d eae3 a8bd
000000d0: 1722 55be 12be 3fbd 7290 07be 9b67 783c
000000e0: d659 72bd cc05 f8bd 4612 61bd 3ed1 453d
000000f0: bda8 0cbd 24cf 9dbd f4cf c53d 47a0 be3d
00000100: 821b 94bd aaa7 e1bd 4242 90be 3a5d 173e
00000110: 46b6 cd3e f734 9abe 602b a2be 3011 d03d
00000120: bffa d5be 257f f9bd 594b a6bd 8095 0abe
00000130: 6926 003f a7cc 813d 183f a3bd 835a 423e
00000140: 809a 5ebc 1a8e 2d3e e6f9 f33d b0a9 9a3d
00000150: d605 48bd 0c9c 513d bde2 fc3c b34d a93c
00000160: f17d 8b3e c7a4 b33e 8700 a8bc 4fc0 9c3e
00000170: e951 9ebd 2ba7 54be 6af1 2ebe 30c4 7a3d
00000180: 1474 5d3e 2f1a b0bd e030 09bd cb7a 0e3d
00000190: daa4 0c3e 2f57 863d fc93 61be 6582 14be
000001a0: 2244 a7bd 0074 8d3e f834 5e3d 9049 603e
000001b0: f49a 18be d442 003e f5af 0e3d e073 f4ba
000001c0: f6ad a9be 38d7 703b 6bbc ae3d 1265 343e
000001d0: 384d 9b3d ad13 313e b475 c63d bf83 7a3e
000001e0: 3f50 ae3e 8c56 b83d 2041 863d aba9 3d3e
000001f0: a26d b2bc dc55 0a3c 216c 06be 0d06 853d
00000200: d2c8 0ebd e688 e2bc 5a37 47be 5fba 153d
00000210: 079e 86bc 4476 293e 4e1b 283e a9be d9bb
00000220: f41f 753e e5f0 303d aebc 93bd 864a e1bd
00000230: 1207 3f3e 6f20 d73d 0af5 2dbe 71ed 0c3e
00000240: f839 f53d 759a a63d af38 953d 97c2 bd3d
00000250: bcbf eb3d 8d28 6e3e 4bbd 90bd 8af6 b5bd
00000260: 7bfb 443d 6ee8 83bb 3d88 e93d 84c1 0bbe
00000270: a558 943d bb23 ba3d 9205 17bc 18e6 ed3d
00000280: 29b6 403e dc56 813d 6176 be3c de1f 03be
00000290: 9791 c6bc 4785 c03c 46ff 01be 0eed e1bd
000002a0: 3c04 51bd b0bd 243c 1265 023d 90ca 44be
000002b0: 7851 d9ba c0ab 45bd 7171 a3bc f2f5 733d
000002c0: 01b0 063e 77bd c1bd 4b56 823c 95a7 fcbd
000002d0: ba2d a93d 1585 fabd 0ea1 48bd 35b1 cb3c
000002e0: 6fde 29be ec57 0b3d 91db bdbc e1a1 a7be
000002f0: dc74 833d e0f7 84bd 6f40 543d 69ee bdbc
00000300: 7d7f 313e 9169 8dbc eaa2 eebd 8c99 d4ba
00000310: b7c0 b03e c047 09bf bacf babe 4830 a53c
00000320: a8b1 c5bc 5389 e43d 7bfb 8bbf 5168 b13c
00000330: aa2f 363d c3b7 3c3d 73a2 973d 0fba 98bd
00000340: 7540 bd3d 6b9d bfbd 5694 03bd 0ae6 52be
00000350: 8450 9ebe 76e6 d23e 3019 3c3c f13d 32bd
00000360: 9540 ac3c 9f60 ec3d 1ec6 113e e6d0 4abd
00000370: 135d 36be f485 a93c efd4 36be a084 1dbe
00000380: 9e76 d13e 9a44 973c 7f8e d5bd e183 1fbe
00000390: 8a9c d8bd 2c0f 80bd b4bf 2cbe 7d7f 8abe
000003a0: 81ca 943d b09e 8dbe f6d6 6d3c fb89 f13c
000003b0: 6f39 9fbd 8091 2bbf bb70 d4bd eace 903d
000003c0: 9e7d 99bd 74fe 683c 7bb0 3d3d 84d8 fcbc
000003d0: 2399 7fbe cf3a 14be a510 2ebe d554 70be
000003e0: 543b 12be f155 7cbd ef7b 043e 1fb9 2dbf
000003f0: ae5d f83d db9b 303d d0d7 0f3d 489d f6bd

model.6.bias f4 [32]
0.0430893 0.54953706 -0.016213754 0.046075903 0.06301214 0.5138923 0.1504704 0.144212
0.25151005 0.17252526 0.5636187 0.09142695 -0.079753 0.43807855 -0.022178866 0.15172476
0.392472 0.26486555 0.1291844 0.32409286 0.24817266 0.2208175 -0.17512967 0.08119397
0.14705727 0.2373479 0.055036694 0.571051 0.2754284 0.2039511 0.05577225 0.3077411
00000000: 687e 303d 76ae 0c3f b5d2 84bc 16ba 3c3d
00000010: 820c 813d 728e 033f ea14 1a3e 4fac 133e
00000020: edc5 803e 76aa 303e 5149 103f 0e3e bb3d
00000030: 8a55 a3bd d54b e03e 74b0 b5bc bc5d 1b3e
00000040: 17f2 c83e 759c 873e ea48 043e 80ef a53e
00000050: f920 7e3e fc1d 623e 3155 33be 0649 a63d
00000060: 2e96 163e 540b 733e 286e 613d 6630 123f
00000070: f404 8d3e 8fd8 503e 7171 643d 3e90 9d3e

model.8.weight f4 [10, 32]
0.10469336 0.25886196 -0.31185305 -0.22246993 -0.04543853 0.16473272 0.023242395 0.02271655
-0.1618161 -0.09535867 0.25907668 -0.06631871 0.020010563 -0.0022177193 0.17221318 0.2297736
0.32915124 -0.39583954 0.007738988 0.00045066644 -0.10789125 0.26722464 0.0832528 0.056438096
-0.07323125 -0.2501939 0.12494645 0.052613538 0.14428003 0.22311598 -0.011272099 -0.21492822
-0.060198896 0.32285258 -0.19568087 -0.031644903 0.04365727 0.4312238 -0.03174852 -0.016489638
-0.23650676 -0.21940963 0.1769266 -0.01372779 0.069824725 0.1243835 -0.12755223 0.22630844
0.29463667 -0.3122847 0.10658364 0.20537049 -0.15183024 0.088697255 -0.0580688 -0.08044998
-0.18740512 -0.28137258 0.075990364 0.1250835 0.13608019 0.19154187 -0.114936285 -0.20074944
0.13026088 0.50307834 -0.17089479 0.04226185 0.016216865 0.24749286 0.06850378 0.05746946
-0.18986651 0.120724656 0.30916542 0.052953877 0.13160639 0.0040407735 0.15857542 0.24033535
0.26695564 -0.30800366 -0.0972037 0.27906758 -0.37518468 0.16051953 0.07775272 0.26672757
-0.24806918 -0.23352094 -0.10577481 0.16133992 0.057443622 0.18954538 0.10549698 -0.14645891
0.0103394035 0.33968666 -0.21565156 -0.16151406 0.045005307 0.17402852 0.18621546 0.056404933
-0.25187662 0.054618683 0.2888088 -0.09377009 0.057738937 0.024564851 0.12961556 0.18137103
0.23057841 -0.24690317 -0.075465724 0.14937884 -0.06536908 0.19000715 -0.12220109 0.2911268
-0.2623609 -0.33921078 -0.14744897 0.27049494 0.019442808 0.19079028 0.005981395 -0.15544091
-0.14640003 0.21920717 -0.21568458 0.106165566 0.13807559 0.18431622 -0.054068215 -0.016192721
-0.24417053 0.057447236 0.31283855 -0.06852553 0.100479536 0.01133022 0.15769123 -0.0036459486
0.40594196 -0.32601225 0.13595644 0.14591837 -0.24904744 0.21756223 -0.13279536 0.32553205
-0.19524793 -0.20025492 -0.020045776 0.122709736 -0.0949633 0.21413891 0.10957668 -0.22291046
0.079041 0.35584715 -0.3187487 -0.008939529 -0.12990578 0.1768926 0.18024804 -0.059762754
-0.23202279 0.14983983 0.19854282 -0.0354079 0.06610818 -0.01889904 0.10824828 -0.07430235
0.355637 -0.23960152 0.08124056 -0.23689441 -0.1814295 0.22188202 0.017876878 0.031537402
-0.23334631 -0.23485714 0.0016306737 0.12654713 0.060213484 0.21921097 0.1802411 -0.25804204
-0.08590963 0.30177802 -0.10276606 0.050938062 0.03494313 0.15245086 0.15031435 -0.012659942
-0.18753977 0.07350551 0.2450125 0.044673815 -0.079658754 -0.010472463 0.09625408 0.13477643
0.2606774 -0.34829828 0.19237953 0.037604716 -0.13831536 0.11593156 -0.05636275 0.10490616
-0.3677356 -0.20583431 0.03909762 0.20923561 0.18269248 0.23355485 -0.0050429762 -0.20398621
-0.08550875 0.3427787 -0.15883872 0.085940145 0.17473505 0.17980018 -0.01443295 0.013216076
-0.14458822 -0.06507868 0.31229582 -0.049123663 -0.066033095 0.012753023 0.092794396 -0.14405507
0.30865404 -0.17102504 0.07271666 -0.15848581 -0.16805993 0.1714766 0.064708576 0.012279114
-0.22573334 -0.36352447 0.085871525 0.06364922 0.015758308 0.17059387 -0.15218379 -0.39652845
00000000: 7969 d63d 8e89 843e 34ab 9fbe 28cf 63be
00000010: c11d 3abd b2af 283e d666 be3c 0f18 ba3c
00000020: 1fb3 25be 684b c3bd b3a5 843e 1bd2 87bd
00000030: 31ed a33c 2857 11bb a758 303e c549 6b3e
00000040: 8386 a83e 7bab cabe 5697 fd3b 6d47 ec39
00000050: 16f6 dcbd abd1 883e 7280 aa3d a22b 673d
00000060: 44fa 95bd 6a19 80be ede3 ff3d 4b81 573d
00000070: 25be 133e 8478 643e 9cae 38bc 2516 5cbe
00000080: 1e93 76bd ef4c a53e 9160 48be 169e 01bd
00000090: f7d1 323d 5ec9 dc3e bc0a 02bd 4715 87bc
000000a0: d42e 72be ebac 60be 3f2c 353e 86ea 60bc
000000b0: 4400 8f3d c7bc fe3d 0d9d 02be 66bd 673e
000000c0: 9eda 963e c8e3 9fbe 8648 da3d a44c 523e
000000d0: 6379 1bbe e8a6 b53d 8dd9 6dbd f6c2 a4bd
000000e0: 21e7 3fbe 1110 90be d6a0 9b3d e415 003e
000000f0: 9b58 0b3e 8d23 443e b763 ebbd 4391 4dbe
00000100: 1c63 053e bec9 003f 0bff 2ebe c31a 2d3d
00000110: 3bd9 843c c56e 7d3e b64b 8c3d 1965 6b3d
00000120: 5e6c 42be 7d3e f73d ee4a 9e3e 2ae6 583d
00000130: d3c3 063e 7768 843b 9861 223e 781a 763e
00000140: 69ae 883e a8b2 9dbe bc12 c7bd f2e1 8e3e
00000150: 3518 c0be 3b5f 243e d13c 9f3d 8490 883e
00000160: d905 7ebe 1d20 6fbe 77a0 d8bd 4b36 253e
00000170: 014a 6b3d 2f18 423e cd0e d83d 53f9 15be
00000180: 9a66 293c 69eb ad3e c3d3 5cbe f163 25be
00000190: 7c57 383d 8834 323e 44af 3e3e dc08 673d
000001a0: f9f5 80be d7b7 5f3d bfde 933e 880a c0bd
000001b0: aa7f 6c3d 3a3c c93c f1b9 043e 54b9 393e
000001c0: bf1c 6c3e 2fd4 7cbe c68d 9abd c4f6 183e
000001d0: 39e0 85bd 3c91 423e 9144 fabd 920e 953e
000001e0: 2b54 86be 09ad adbe ddfc 16be 507e 8a3e
000001f0: 8646 9f3c 875e 433e 94ff c33b e72b 1fbe
00000200: e4e9 15be d877 603e 6bdc 5cbe 556d d93d
00000210: b063 0d3e 64bd 3c3e a276 5dbd 99a6 84bc
00000220: d707 7abe cb4d 6b3d 602c a03e 1d57 8cbd
00000230: 37c8 cd3d 63a2 393c cf79 213e def0 6ebb
00000240: a0d7 cf3e 14eb a6be 2a38 0b3e a06b 153e
00000250: 4b06 7fbe a2c8 5e3e 82fb 07be 23ac a63e
00000260: 13ef 47be a00f 4dbe 0a37 a4bc 3e4f fb3d
00000270: 1e7c c2bd 3b47 5b3e bd69 e03d a442 64be
00000280: 3fe0 a13d 9931 b63e 0833 a3be 1a77 12bc
00000290: 0506 05be 5523 353e f192 383e cac9 74bd
000002a0: 6297 6dbe 9d6f 193e cf4e 4b3e e007 11bd
000002b0: ba63 873d 29d2 9abc 46b1 dd3d d52b 98bd
000002c0: 0e16 b63e 1a5a 75be 7361 a63d 7394 72be
000002d0: a8c8 39be 0a35 633e 8872 923c 5d2d 013d
000002e0: 56f2 6ebe 647e 70be 54bc d53a 9295 013e
000002f0: 6aa2 763d d778 603e 1f91 383e 161e 84be
00000300: 63f1 afbd a682 9a3e 0377 d2bd 6ea4 503d
00000310: 8720 0f3d 141c 1c3e 01ec 193e a56b 4fbc
00000320: 6d0a 40be 0f8a 963d 8fe4 7a3e e4fb 363d
00000330: 2124 a3bd b294 2bbc dc20 c53d d502 0a3e
00000340: 8277 853e 2754 b2be 24ff 443e 6707 1a3d
00000350: 8ba2 0dbe 876d ed3d a0dc 66bd 0ad9 d63d
00000360: d747 bcbe 3bc6 52be d324 203d dc41 563e
00000370: bd13 3b3e 0129 6f3e 8d3f a5bb c3e1 50be
00000380: 361f afbd b180 af3e 9ea6 22be 6301 b03d
00000390: bfed 323e 8a1d 383e 2e78 6cbc 3e88 583c
000003a0: ef0e 14be f947 85bd 3de5 9f3e e535 49bd
000003b0: 5c3c 87bd 0ef2 503c fd0a be3d 2c83 13be
000003c0: e707 9e3e 3021 2fbe 79ec 943d 1b4a 22be
000003d0: e717 2cbe 9097 2f3e ee85 843d 562e 493c
000003e0: a426 67be e11f babe 69dd af3d 865a 823d
000003f0: 9117 813c 29b0 2e3e 11d6 1bbe c705 cbbe

model.8.bias f4 [10]
-0.086941175 -0.23711428 -0.16026637 -0.26975375 -0.13531731 -0.0041195275 -0.01859025 0.09402318
-0.012178816 0.10659724
00000000: 370e b2bd 16ce 72be de1c 24be 2a1d 8abe
00000010: 9f90 0abe 1afd 86bb 944a 98bc 3a8f c03d
00000020: a889 47bc a74f da3d
