checkpoints/checkpoint_step_4400.pth (torch, 200878 bytes, 10 tensors)

model.0.weight f4 [256, 21]
0	0x3ddddbbf	0.10832929
1	0x3d439ebd	0.047758806
2	0x3e32374b	0.17403905
3	0xbe78e5a6	-0.24306354
4	0xbe992af4	-0.29915583
5	0xbe3d180c	-0.18466204
6	0xbef0e53d	-0.47049895
7	0x3c04d5f5	0.008107652
8	0x3b796a3d	0.0038057708
9	0x3e3d0e43	0.18462472
10	0xbe3a3922	-0.18185857
11	0xbd5c8dab	-0.053846043
12	0x3e91a34e	0.28444904
13	0xbf5c271c	-0.85997176
14	0xbe4aa209	-0.19788374
15	0xbe478f06	-0.19488153
16	0xbcb00b44	-0.021489747
17	0x3d895e17	0.06707399
18	0x3defd010	0.11709607
19	0xbeccd61a	-0.40007097
20	0x3ea59234	0.32338107
21	0x3cdc95d8	0.02692692
22	0x3c921f09	0.017837064
23	0xbe327918	-0.17429006
24	0xbda2514c	-0.079256624
25	0xbf931bb8	-1.1492834
26	0xbd9a0817	-0.07521074
27	0x3da3d522	0.07999636
28	0xbdb28059	-0.087158866
29	0xbe09d2c7	-0.13459311
30	0xbe9af477	-0.30264637
31	0xbcd698c9	-0.0261959
32	0xbd8909e1	-0.066913374
33	0xbeab4eb6	-0.3345849
34	0xbeafd3d0	-0.34341288
35	0xbe0065b3	-0.12538795
36	0xbcc2b5e4	-0.023768373
37	0xbd4bfeb1	-0.04980344
38	0x3e1e6c3e	0.15470979
39	0xbdae307b	-0.08505341
40	0x3e0aca98	0.13553846
41	0xbd923a5e	-0.07140039
42	0xbd61385e	-0.054985397
43	0xbe860c6a	-0.26181346
44	0x3e7df3eb	0.24800079
45	0xbcdbc23f	-0.026826022
46	0x3e0315ad	0.12801237
47	0x3dafff51	0.085936196
48	0xbef8bb3d	-0.4858035
49	0x3ddbc647	0.10731178
50	0x3e1be5dc	0.15224403
51	0xbe3011fe	-0.17194363
52	0x3d054d31	0.03254432
53	0xbf01457b	-0.50496644
54	0xbdea3215	-0.11435334
55	0xbe72eb14	-0.23722488
56	0xbe5d276e	-0.21597072
57	0x3db7146d	0.08939443
58	0xbea5d330	-0.32387686
59	0xbd42c9d1	-0.04755575
60	0xbdb568e6	-0.088578984
61	0xbe3da10c	-0.18518466
62	0xbdd5bff6	-0.10437004
63	0x3dab06e3	0.08350923
64	0xbf4fc392	-0.8115779
65	0x3d59c574	0.05316682
66	0xbef9bcd4	-0.48776877
67	0xbfee1a8e	-1.8601854
68	0x3d67c7d7	0.056587067
69	0xbe3730db	-0.1788973
70	0x3dd71463	0.10501935
71	0xbd9262b8	-0.07147735
72	0x3e6b70a4	0.22992188
73	0xbe0d7a5c	-0.13816208
74	0x3e85976a	0.26092082
75	0x3c293bf1	0.010329233
76	0xbe13b486	-0.14424333
77	0xbddb74d8	-0.107156456
78	0x3e921536	0.28531808
79	0xbe2564d3	-0.16151743
80	0x3e45b18b	0.19306009
81	0xbdca226c	-0.09869847
82	0x3e25d73b	0.16195385
83	0xbf232365	-0.6372588
84	0x3e295c52	0.16539124
85	0xbe0380d4	-0.12842113
86	0xbde85df0	-0.11346042
87	0x3cecf0a4	0.02892334
88	0x3db5cb71	0.08876694
89	0xbeb6b664	-0.35686028
90	0x3e3ff72a	0.1874663
91	0x3e175344	0.14777857
92	0x3d46b03f	0.048507925
93	0x3d91634f	0.0709902
94	0xbe1fe605	-0.15615089
95	0x3b638cc1	0.0034721347
96	0x3d613ea9	0.054991398
97	0xbe24404b	-0.16040151
98	0xbeb93eb0	-0.3618064
99	0x3d949925	0.072557725
100	0x3e7a8b9e	0.24467322
101	0xbf0b2fe1	-0.5436993
102	0xbe653514	-0.22383529
103	0x3db7c04d	0.08972225
104	0x3cc3e1af	0.023911325
105	0xbe0c7918	-0.13718069
106	0x3db597da	0.08866854
107	0xbe29b7aa	-0.16573969
108	0x3df71bc2	0.12065841
109	0xbd315a06	-0.043298744
110	0x3dd534ea	0.10410483
111	0xbe387199	-0.18012084
112	0x3c3c3422	0.011487039
113	0xbe76d4ef	-0.24104665
114	0xbdb7d6e4	-0.08976534
115	0x3db37686	0.08762841
116	0x3e865e0a	0.2624362
117	0xbbce4551	-0.0062948843
118	0x3ecb19de	0.39668173
119	0xbd86505a	-0.065582946
120	0x3ec45fa1	0.3835421
121	0x3e1dc3e5	0.15406759
122	0x3ea8810d	0.32910958
123	0xbe0ecb51	-0.13944747
124	0x3e663e4f	0.22484706
125	0x3df23b42	0.11827709
126	0xbf24ecd4	-0.6442387
127	0xbd800d94	-0.0625259
128	0x3e948048	0.2900412
129	0xbebbe4e0	-0.36698055
130	0xbf4a7101	-0.7907868
131	0xbe009bb6	-0.12559399
132	0xbe8ea0a2	-0.27856928
133	0xbea9eee5	-0.33190075
134	0xbec4387a	-0.38324338
135	0xbd65cea5	-0.056105275
136	0xbe8e5f8d	-0.27807274
137	0xbe904815	-0.28179994
138	0xbd9a3cd6	-0.07531135
139	0xbe4fc207	-0.2028886
140	0x3e2389f8	0.159706
141	0x3e286897	0.16446148
142	0x3de0943b	0.10965773
143	0x3dcbba1e	0.099476084
144	0xbe5691c8	-0.20954049
145	0xbdc69b20	-0.096975565
146	0xbdce5d1e	-0.100763544
147	0xbe310244	-0.1728602
148	0xbdf09f7c	-0.11749169
149	0x3e396f56	0.18108878
150	0xbe09e937	-0.1346787
151	0x3e3ac0c6	0.182376
152	0xbd76fceb	-0.060299795
153	0xbeafa652	-0.3430658
154	0xbd9ac751	-0.07557548
155	0xc0a216ce	-5.065284
156	0xbd061b38	-0.0327408
157	0xbd9f26e0	-0.07771087
158	0xbd0e00df	-0.0346688
159	0xbdbe7714	-0.09300056
160	0xbdaa54a3	-0.083169244
161	0x3d00ec0b	0.031475108
162	0xbc283795	-0.010267158
163	0xbd53ca9c	-0.051706895
164	0xbe47de49	-0.19518389
165	0xbd482182	-0.04886008
166	0xbe7c0c16	-0.24613985
167	0xbe56e33f	-0.20985125
168	0xbca77ba1	-0.020444693
169	0xbe034b5d	-0.12821718
170	0x3d9a43f9	0.07532496
171	0xbe5f3a5c	-0.21799606
172	0x3d830c82	0.0639887
173	0x3b45786e	0.0030131596
174	0xbeb38a3b	-0.350664
175	0xbdd5c61b	-0.10438176
176	0x3e3ce9e5	0.18448599
177	0xbe97c866	-0.2964508
178	0xbea20c4b	-0.31650004
179	0xbeb724b8	-0.35770202
180	0xbc959748	-0.018260613
181	0xbd9ec0de	-0.0775163
182	0xbe2e6609	-0.17031111
183	0xbe98d641	-0.29850963
184	0x3c28c3a9	0.010300555
185	0xbd8e062b	-0.0693477
186	0xbe83a4af	-0.2571158
187	0xbd85eb14	-0.06538978
188	0x3cec0b3d	0.028813953
189	0x3e325a94	0.17417365
190	0xbe53dcc3	-0.20689683
191	0xbea780ed	-0.3271555
192	0xbd8fa927	-0.07014685
193	0x3e5d4608	0.21608746
194	0xbe71426c	-0.23560494
195	0xbe8e6ac3	-0.27815828
196	0xbda541ff	-0.080692284
197	0x3d05f05d	0.03269993
198	0x3d047587	0.032338645
199	0xbe3e1add	-0.18564935
200	0xbf0514a7	-0.5198464
201	0xbdc88a05	-0.0979195
202	0xbeb008d9	-0.3438175
203	0x3da6def1	0.081479914
204	0xbdf9e7fb	-0.1220245
205	0xbe331c72	-0.1749132
206	0xbf064866	-0.5245422
207	0x3de1b88d	0.110215284
208	0xbe5ac255	-0.21363194
209	0xbdaa391e	-0.083116755
210	0xbe5b6ab3	-0.21427421
211	0x3e344908	0.17605984
212	0xbe05c4fe	-0.13063428
213	0x3d29d19d	0.04145967
214	0xbe3ee33f	-0.18641375
215	0x3e18b19f	0.14911507
216	0xbdcb4a1b	-0.09926244
217	0x3e009572	0.12557009
218	0xbdf413c9	-0.11917836
219	0x3daa41c2	0.083133236
220	0x3e09b2f9	0.13447179
221	0xbe48565d	-0.19564195
222	0xbdc4c8ff	-0.096086495
223	0x3f1ab0c1	0.60425955
224	0x3e714baa	0.2356402
225	0xbefb40fb	-0.49073014
226	0x3eae210f	0.34009597
227	0xbea17218	-0.3153236
228	0xbdb02664	-0.086010724
229	0x3e6da5d9	0.23207797
230	0x3d1bcc61	0.038036708
231	0xbe0c3ce7	-0.13695107
232	0x3d6f717a	0.05845783
233	0xbe0c3430	-0.13691783
234	0xbdf1d175	-0.11807529
235	0x3ea53c43	0.3227254
236	0x3cab7556	0.020929974
237	0x3da49950	0.080370545
238	0xbd98e983	-0.07466414
239	0xbedd06c8	-0.43169236
240	0xbe518d11	-0.20463969
241	0xbe2fb4cb	-0.17158811
242	0xbe8191e8	-0.2530663
243	0xbca31cda	-0.019911218
244	0xbdc4ffe8	-0.09619123
245	0xbd652bea	-0.055950083
246	0x3ea87476	0.32901353
247	0xbe74036c	-0.2382943
248	0xbe9913fe	-0.29898065
249	0xbd2dd80d	-0.04244237
250	0xbde2607c	-0.11053559
251	0xbd6d226b	-0.05789415
252	0xbdbcac0f	-0.09212505
253	0x3e0939ce	0.13400957
254	0xbe88cacc	-0.26717222
255	0xbe3b24a2	-0.18275693

model.0.bias f4 [256]
0	0x3e199412	0.1499789
1	0x3c002589	0.007821449
2	0xbe69461a	-0.22780648
3	0x3df789e3	0.12086847
4	0x3ebde753	0.3709055
5	0x3e3273c0	0.17426968
6	0x3ddc276c	0.107497066
7	0x3db85376	0.09000294
8	0x3e402361	0.18763496
9	0x3e36ca8a	0.178507
10	0xbe6ebcb9	-0.2331418
11	0xbc8f486c	-0.017490588
12	0x3ce7cdd6	0.028296392
13	0xbedcb6f7	-0.4310834
14	0x3ed00cc2	0.40634733
15	0x3ec9abad	0.3938879
16	0xbdfbf8d3	-0.12303319
17	0xbde84d89	-0.11342914
18	0x3ead23fe	0.33816522
19	0xbe598a4e	-0.21244165
20	0xbdaa4080	-0.08313084
21	0xbed4709b	-0.4149216
22	0xbdee4e77	-0.1163606
23	0xbe2c9394	-0.16853172
24	0xbeffb405	-0.49942032
25	0xbdb11452	-0.08646454
26	0xbe590020	-0.21191454
27	0x3e15b48f	0.14619659
28	0xbdaba7dd	-0.08381627
29	0xbc3f9c30	-0.011694953
30	0x3e93e868	0.2888825
31	0x3ecb5633	0.39714202
32	0xbe18ffa1	-0.14941265
33	0xbe29a7c0	-0.16567898
34	0xbea093c4	-0.31362736
35	0x3dbc03bc	0.091804
36	0xbdc9b177	-0.09848302
37	0xbea8f12e	-0.32996505
38	0x3d00dc96	0.031460367
39	0x3dc4c6b4	0.09608212
40	0xbd6b3f08	-0.05743316
41	0x3e422937	0.18961035
42	0xbcbc55e2	-0.02299017
43	0xbda134ec	-0.07871422
44	0x3e829784	0.25506222
45	0xbe43d8ed	-0.1912572
46	0xbde8c18c	-0.11365041
47	0xbd154a42	-0.03644777
48	0x3e57d1c6	0.21076116
49	0xbdfb98e9	-0.12285025
50	0xbd3f9342	-0.046771295
51	0x3d7048bb	0.05866311
52	0xbec34e63	-0.38145742
53	0xbe9027ea	-0.28155452
54	0x3e34fbbf	0.17674159
55	0xbe8ed3fc	-0.27896106
56	0xbeaaaaec	-0.33333528
57	0x3d12c6d9	0.035834167
58	0xbeb34ccc	-0.3501953
59	0xbd4d0363	-0.050052058
60	0x3d819434	0.06327096
61	0xbdf1c808	-0.11805731
62	0x3e95c9a9	0.29255417
63	0xbe0047ba	-0.12527362
64	0xbd90d56f	-0.07071959
65	0xbe0d9b24	-0.13828713
66	0xbd7b1fd2	-0.061309643
67	0x3ea3bc96	0.31979817
68	0xbe9d87b1	-0.30767587
69	0x3e4b88f0	0.19876456
70	0xbd307410	-0.043079436
71	0x3e861569	0.2618821
72	0xbd451b8d	-0.048121978
73	0x3dede346	0.116156146
74	0xbe4d16ca	-0.20028225
75	0xbebe4a6d	-0.37166157
76	0xbe1087c1	-0.14114286
77	0xbdf61d9a	-0.12017365
78	0xbe3ea3f7	-0.18617235
79	0x3ece1b85	0.4025537
80	0x3d0864a8	0.03329912
81	0x3e9bab48	0.30404115
82	0xbefcbd3b	-0.4936312
83	0xbe2195c1	-0.15779783
84	0x3d8999f0	0.067188144
85	0xbe598f87	-0.21246158
86	0x3ea2812c	0.31739175
87	0x3ea9e88e	0.33185238
88	0xbd8cbe6a	-0.06872256
89	0x3d84c265	0.0648239
90	0x3e653ec8	0.2238723
91	0xbe32f99d	-0.17478032
92	0xbe3d24d9	-0.18471088
93	0xbe127441	-0.1430216
94	0xbe11e384	-0.14246947
95	0xbe74ff3b	-0.23925488
96	0xbe961884	-0.2931558
97	0xbdf979b0	-0.12181413
98	0xbeb8636f	-0.36013362
99	0x3ecd8caf	0.40146396
100	0x3ed0109b	0.4063767
101	0xbe2564b3	-0.16151695
102	0xbd403f85	-0.046935577
103	0x3e8fa260	0.2805357
104	0x3de8648e	0.11347304
105	0x3e2b6b52	0.16740158
106	0xbcb1d103	-0.02170611
107	0x3dda7f19	0.10668773
108	0xbc0d5095	-0.008625169
109	0xbe087e1d	-0.13329358
110	0x3ce56419	0.028001832
111	0xbd990564	-0.07471731
112	0xbd9e4e5f	-0.07729792
113	0xbdadb09e	-0.08480953
114	0xbd90007c	-0.070313424
115	0xbdb6be20	-0.08922982
116	0x3e09679b	0.13418429
117	0x3e8d8f20	0.27648258
118	0xbd200671	-0.039068643
119	0x3e1c68ab	0.15274303
120	0xbeab1f58	-0.3342235
121	0x3d81a1cc	0.063296884
122	0xbe0c9104	-0.13727194
123	0x3da879ee	0.08226381
124	0xbdd89a36	-0.105762884
125	0xbee67e51	-0.45018247
126	0x3ebe3f2a	0.37157565
127	0x3e4ae149	0.19812502
128	0xbe9e35bc	-0.3090037
129	0xbe64b34a	-0.22334018
130	0xbdde2607	-0.10847097
131	0x3e5a8b7a	0.21342269
132	0x3c29a169	0.010353425
133	0xbe4411e0	-0.19147444
134	0x3eba2cf4	0.36362422
135	0x3dbd7c2c	0.092521995
136	0xbdfa93dd	-0.12235234
137	0xbe65f3c3	-0.22456269
138	0x3d9ec80c	0.07753
139	0x3ec29c3c	0.38009822
140	0xbdf64f8b	-0.1202689
141	0x3e2ffc83	0.1718617
142	0x3e78dc9d	0.24302907
143	0xbcba1f92	-0.022720132
144	0x3e956c49	0.29184178
145	0x3ea6f13e	0.32605928
146	0x3da9f6da	0.08299036
147	0x3db2a673	0.08723154
148	0xbf4aab90	-0.79168034
149	0xbe0ea1c8	-0.13928902
150	0x3e46d288	0.19416249
151	0xbe1c0400	-0.15235901
152	0x3eaccc65	0.3374969
153	0xbee13546	-0.43985957
154	0xbe64e58c	-0.2235319
155	0x3d75398b	0.05986933
156	0xbc77d4bc	-0.015126403
157	0x3e63f3b2	0.22260931
158	0x3ebd37a2	0.36956507
159	0x3ecc5f07	0.3991625
160	0xbe4a2be7	-0.1974331
161	0xbd3e3e6e	-0.046446256
162	0x3eed677e	0.4636802
163	0x3db20576	0.08692448
164	0xbe16af10	-0.14715219
165	0x3eba2da9	0.3636296
166	0xbe1290c6	-0.14313039
167	0xbe00fca4	-0.12596375
168	0xbcfc5f26	-0.030807089
169	0x3e8a882c	0.27057016
170	0xbe10b85b	-0.14132826
171	0xbd8ed481	-0.06974126
172	0x3e66f322	0.22553685
173	0xbe63072f	-0.22170709
174	0x3e788292	0.24268559
175	0x3d957e74	0.0729951
176	0xbe9a4e66	-0.30137938
177	0x3efa596a	0.48896343
178	0xbd7ff952	-0.06249363
179	0xbe572c04	-0.21012884
180	0xbeb17c8e	-0.3466534
181	0x3e8b2860	0.2717924
182	0x3dd71851	0.10502685
183	0x3d48c36a	0.049014486
184	0xbe1b1cd4	-0.15147716
185	0xbbe85d0a	-0.0070911692
186	0xbe92405a	-0.2856472
187	0xbec0213e	-0.37525362
188	0x3de8555b	0.11344405
189	0x3e0cf617	0.13765751
190	0xbe6c232a	-0.23060289
191	0x3e61d0fb	0.22052376
192	0x3ed99e8c	0.42503774
193	0x3d9841e0	0.0743444
194	0xbe280e66	-0.16411743
195	0xbea9959d	-0.33121958
196	0x3ea88272	0.32912022
197	0x3bc80af2	0.0061048204
198	0x3e5461a6	0.20740375
199	0xbe009725	-0.12557657
200	0xbea5955b	-0.32340512
201	0x3cc52943	0.024067527
202	0xbb75329c	-0.0037414199
203	0x3d77f993	0.060540747
204	0x3cbcf5f4	0.023066498
205	0x3c2bb427	0.010479963
206	0xbe495b1d	-0.19663663
207	0xbddb3e77	-0.107052736
208	0xbdc7f640	-0.09763765
209	0xbe806f42	-0.25084883
210	0x3d24d01c	0.04023753
211	0x3dcea2ae	0.100896224
212	0x3dd06a77	0.101765566
213	0x3e50a543	0.20375542
214	0xbdfaef2f	-0.12252652
215	0xbe38b49f	-0.18037651
216	0x3e61d140	0.22052479
217	0x3e759a78	0.23984706
218	0xbdb03b79	-0.086050935
219	0x3f1730e5	0.5905898
220	0xbd4882e3	-0.04895295
221	0xbe290eb1	-0.1650951
222	0xbc8867ce	-0.01665106
223	0xbe03a47f	-0.12855719
224	0xbe816e11	-0.25279287
225	0xbe4933fa	-0.19648734
226	0x3e2752fa	0.16340247
227	0xbe7897db	-0.24276678
228	0x3d745028	0.059646755
229	0x3e1e0eb7	0.15435301
230	0x3dfa280e	0.12214671
231	0xbdaffa31	-0.08592642
232	0x3cf1d1f2	0.029519055
233	0x3d9d7a3d	0.07689331
234	0x3f18f629	0.5975061
235	0xbd93ca18	-0.07216281
236	0x3e2c26d5	0.16811688
237	0xbe4f4dbf	-0.20244502
238	0x3ecc0b32	0.3985229
239	0x3ed6ada0	0.4192934
240	0xbe26d5ea	-0.16292539
241	0x3d3fcda6	0.04682698
242	0xbd1906f1	-0.037360135
243	0xbd7e9b99	-0.06216011
244	0xbe339f7f	-0.17541312
245	0xbe6b0607	-0.22951518
246	0x3e9b778c	0.30364645
247	0x3ebd6247	0.36989042
248	0xbec05017	-0.37561104
249	0xbe3efdbc	-0.1865148
250	0x3d99633d	0.07489631
251	0x3d570dc8	0.052503377
252	0xbde550e8	-0.11197072
253	0xbec11718	-0.37712932
254	0x3dd2d1e9	0.102939434
255	0x3e3dd693	0.18538885

model.2.weight f4 [128, 256]
0	0xbda817b9	-0.0820765
1	0x3d65ca99	0.056101415
2	0x3bd5d8f7	0.0065261084
3	0x3d9aacc8	0.07552487
4	0x3d2b9f1f	0.041899797
5	0xbd969bb6	-0.07353918
6	0xbda07949	-0.07835633
7	0x3d8b2eb1	0.06796015
8	0xbd33bd2b	-0.043881577
9	0xbcd4d5da	-0.025980879
10	0x3ed44c21	0.41464332
11	0xbdb1fe06	-0.08691029
12	0x3e98e191	0.29859594
13	0x3d3463e6	0.044040583
14	0x3da66bc9	0.08126027
15	0xbc8ec76d	-0.017429078
16	0x3c40e4f7	0.0117733395
17	0xbbf0070a	-0.007325058
18	0xbe82fb16	-0.25582188
19	0x3e34a649	0.17641558
20	0xbd923322	-0.07138659
21	0x3dc4bc82	0.096062675
22	0xbd0e38e2	-0.034722216
23	0x3defe950	0.11714423
24	0x3e351703	0.1768456
25	0x3dcd8968	0.10035974
26	0xbd7be0a7	-0.061493542
27	0x3de41004	0.11135867
28	0xbbbe9eb6	-0.0058172597
29	0x3d2562a4	0.040377274
30	0x3dfbb7ac	0.12290892
31	0xbd88de15	-0.06682984
32	0xbdddd40c	-0.1083146
33	0xbcbb931c	-0.022897296
34	0x3db69623	0.08915355
35	0xbba66101	-0.0050774817
36	0x3b8bba40	0.004264146
37	0x3db0cb56	0.08632533
38	0xbd3e66e0	-0.046484828
39	0x3e593f18	0.21215475
40	0x3dc5e249	0.09662301
41	0xbe47007e	-0.19433782
42	0xbebe92e8	-0.37221456
43	0x3e0a06f5	0.13479216
44	0xbdb02c04	-0.08602145
45	0xbca90eeb	-0.020636996
46	0xbd1cff5e	-0.038329475
47	0xbd2c572a	-0.042075314
48	0x3dff47d9	0.12464876
49	0x3d9c1b59	0.07622404
50	0x3da2d932	0.07951583
51	0x3d45caed	0.04828923
52	0x3e5fbc67	0.21849214
53	0xbd5b0903	-0.05347539
54	0x3e962842	0.2932759
55	0xbddd25f9	-0.10798258
56	0x3dc64088	0.09680277
57	0x3d1a9e38	0.037748545
58	0xbcaebd62	-0.02133054
59	0xbdf2f7d2	-0.11863674
60	0xbc0224c0	-0.007943332
61	0x3cbbf07a	0.022941817
62	0x3e8c957e	0.27457803
63	0x3c2ee717	0.010675213
64	0x3d697735	0.05699845
65	0xbdc13585	-0.09434036
66	0xbc891755	-0.016734758
67	0xbe0b97f6	-0.13632187
68	0xbdf97b64	-0.12181738
69	0x3d8d2823	0.06892421
70	0xbe159675	-0.14608176
71	0x3e3421fd	0.1759109
72	0xbcc05fc2	-0.02348316
73	0x3e29473f	0.16531084
74	0x3e90a6e9	0.28252342
75	0x3d76e618	0.06027803
76	0x3e7d3584	0.24727446
77	0x3df9b83d	0.12193344
78	0x3e4d9ffc	0.2008056
79	0x3e181fef	0.14855932
80	0x3d2c3d2b	0.04205052
81	0x3ea30833	0.31842193
82	0x3e83f677	0.25773975
83	0x3d93823e	0.07202576
84	0xbc8b1027	-0.016975475
85	0xbd6d4007	-0.05792239
86	0x3d73ba31	0.059503738
87	0x3ddc7b01	0.10765649
88	0x3de3e5ff	0.11127853
89	0xbba0dee0	-0.0049093813
90	0x3d8aa6bd	0.06770084
91	0xbd517446	-0.051136278
92	0x3dba343e	0.09091996
93	0xbcbb6a61	-0.022877874
94	0x3eb06655	0.34453073
95	0xbcc23cf0	-0.023710698
96	0x3d3f9710	0.046774924
97	0xbde3a998	-0.11116332
98	0x3e16f31e	0.1474118
99	0x3e949277	0.29017994
100	0x3ea01952	0.31269318
101	0x3caf2a7b	0.021382561
102	0xbdc5984f	-0.09648191
103	0x3e37aebb	0.17937748
104	0x3bbcdc60	0.0057635754
105	0x3da900e1	0.08252121
106	0x3ddd11fb	0.10794445
107	0x3d5c0bcc	0.053722188
108	0x3d97a139	0.07403798
109	0xbd187354	-0.03721936
110	0x3c53ffe4	0.012939427
111	0x3d14a24d	0.036287595
112	0x3c6d8de0	0.014499158
113	0xbd1c7e24	-0.038206235
114	0xbe72ba57	-0.23703896
115	0xbca2c906	-0.019871246
116	0xbd5a6324	-0.053317204
117	0x3e30276d	0.1720254
118	0x3e2215cb	0.15828626
119	0x3c858eb8	0.016303405
120	0x3da19069	0.07888872
121	0xbd4186bb	-0.04724763
122	0xbdf7af3d	-0.12093971
123	0x3e0a1a22	0.13486531
124	0x3dbd43da	0.09241457
125	0xbd9a5f88	-0.075377524
126	0x3ea645aa	0.32475024
127	0x3ddbc912	0.107317105
128	0x3de89585	0.113566436
129	0x3c858eae	0.016303387
130	0x3db3e25f	0.08783411
131	0x3e5926b2	0.21206167
132	0x3db2c3e2	0.08728768
133	0x3d104f70	0.035232008
134	0x3dbf3ab1	0.09337366
135	0x3e04b568	0.12959826
136	0x3d9aabf6	0.0755233
137	0xbd839e6d	-0.06426702
138	0x3df92dd7	0.121669464
139	0x3f20171b	0.62535256
140	0xbdca15f0	-0.098674655
141	0xbe5f7ea4	-0.21825653
142	0x3cfa68d4	0.030567564
143	0x3e0045eb	0.12526672
144	0x3cf897f5	0.030345896
145	0x3d200fa7	0.039077427
146	0x3d240ae6	0.040049456
147	0x3e0a99b8	0.13535202
148	0x3e1eb9d7	0.1550058
149	0xbc5b29b2	-0.01337664
150	0x3e605be8	0.2191006
151	0xbcf55bba	-0.029950965
152	0x3e87051f	0.26371095
153	0x3d546bb7	0.051860537
154	0x3d47dd0e	0.0487948
155	0x3d81c807	0.0633698
156	0xbcd0f17c	-0.025505774
157	0x3e63bb6a	0.22239462
158	0xbf0294d1	-0.51008326
159	0x3db8c2ac	0.09021506
160	0x3bb91ca1	0.005649165
161	0x3dcd47c7	0.10023456
162	0x3d711f52	0.05886776
163	0xbdc4a209	-0.09601218
164	0xbc87417d	-0.01651072
165	0x3dc46346	0.095892474
166	0x3e485158	0.1956228
167	0x3dd6baa5	0.10484818
168	0x3c1e3531	0.0096562365
169	0x3d2cad46	0.042157434
170	0x3eb83975	0.35981336
171	0xbd1c131b	-0.038104158
172	0x3d215339	0.039386008
173	0x3c8e7937	0.017391784
174	0x3e51359f	0.20430611
175	0xbca2a40c	-0.019853614
176	0x3a296ad7	0.0006462759
177	0x3e2797f9	0.16366567
178	0xbd07dba8	-0.033168465
179	0xbe8bf437	-0.2733476
180	0x3d82479f	0.06361317
181	0x3e415db2	0.18883398
182	0xbe71bb5b	-0.23606627
183	0xbd305e7a	-0.04305885
184	0xbc916c03	-0.0177517
185	0xbd570ba2	-0.05250133
186	0xbd714f69	-0.058913622
187	0x3d01ef57	0.031722393
188	0x3e52b001	0.20574953
189	0xbc680102	-0.0141603965
190	0xbd8cc159	-0.06872816
191	0xbe128f84	-0.1431256
192	0xbe65738e	-0.22407362
193	0x3e305c13	0.17222624
194	0xbd859d92	-0.06524195
195	0x3d0ba064	0.034088507
196	0x3d59116e	0.052995138
197	0xbe486dc2	-0.1957312
198	0x3df14f12	0.117826596
199	0xbd90b1f1	-0.0706519
200	0x3e8593fe	0.26089472
201	0x3dfabed0	0.12243426
202	0x3e913d32	0.28367
203	0xbe89f526	-0.26944846
204	0xbb36f9ee	-0.0027919966
205	0x3dc0d06a	0.09414752
206	0xbe4f7f55	-0.20263417
207	0xbd8c4008	-0.068481505
208	0xbda57f71	-0.08080948
209	0x3db3c739	0.08778233
210	0x3e98bd6d	0.2983202
211	0xbb35a538	-0.0027716886
212	0xbcb1d66c	-0.02170869
213	0x3d374e7d	0.044752587
214	0x3cec71a1	0.028862776
215	0xbdf27c43	-0.11840107
216	0xbdfcd968	-0.123461545
217	0x3d4ba562	0.04971827
218	0x3d19831a	0.037478544
219	0xbf5a9328	-0.8538079
220	0xbdf2342e	-0.11826359
221	0x3ded123a	0.11575742
222	0x3d410eba	0.047133185
223	0xbe1bc2fe	-0.15211102
224	0x3e2a8713	0.16653089
225	0xbd5cc375	-0.05389734
226	0x3d69819a	0.057008363
227	0xbca02e57	-0.019553347
228	0xbcfbf0d1	-0.030754479
229	0x3d8f07bf	0.06983899
230	0x3ea95d11	0.33078817
231	0x3dbf323b	0.093357526
232	0x3c38c740	0.011277974
233	0xbcd0bfcd	-0.025482083
234	0x3e4ce5df	0.20009564
235	0x3cecd810	0.02891162
236	0xbe182344	-0.14857203
237	0xbd9190ce	-0.071076974
238	0x3e935f87	0.2878382
239	0xbf0e83e9	-0.5567003
240	0x3bf7c138	0.0075608753
241	0x3e094367	0.13404618
242	0x3d48712d	0.048936058
243	0xbdbe1942	-0.09282161
244	0x3e44f929	0.19235672
245	0xbe0f044e	-0.13966486
246	0xbdcc5347	-0.099768214
247	0x3acac521	0.0015470126
248	0x3e3bc79c	0.18337864
249	0x3cf62859	0.030048536
250	0x3dcb0d58	0.099146545
251	0xbca1eeda	-0.019767214
252	0x3d1ad51d	0.037800897
253	0xbce8276f	-0.028339116
254	0xbcbe4f08	-0.023231044
255	0xbd7f681e	-0.062355153

model.2.bias f4 [128]
0	0x3ebda944	0.37043202
1	0x3ddffad3	0.10936513
2	0x3da9e5a1	0.08295751
3	0x3d57c16c	0.052674696
4	0xbdb0ed55	-0.086390175
5	0x3e18d393	0.14924459
6	0x3d150cc9	0.036389146
7	0x3d1b0e92	0.037855692
8	0x3d922282	0.07135488
9	0xbd62807f	-0.055298325
10	0xbd7e0908	-0.06202033
11	0xbe8c5db7	-0.2741525
12	0x3d9547d6	0.07289092
13	0x3ab546c1	0.001383029
14	0xbe4d4073	-0.20044117
15	0xbc70e07a	-0.014701957
16	0xbc14fb10	-0.009093061
17	0x3ddc5f53	0.10760369
18	0xbdb362b8	-0.087590635
19	0xbd3368ed	-0.043801237
20	0x3cd91454	0.026498951
21	0x3e224084	0.15844923
22	0x3ba7fdef	0.005126707
23	0x3e48bfde	0.19604442
24	0x3d9581c9	0.07300145
25	0x3e69123e	0.22760865
26	0x3d11d87c	0.035606846
27	0xbd3d6bd6	-0.04624542
28	0x3df0df93	0.117613934
29	0xbccd8c9a	-0.025091458
30	0x3e6db8df	0.23215054
31	0xbd84cd84	-0.064845115
32	0x3ec20611	0.37895253
33	0xbcacea66	-0.021107864
34	0x3b300ed6	0.0026864312
35	0xbd8890ff	-0.06668281
36	0x3b8679a3	0.0041038557
37	0x3d4116bf	0.047140833
38	0xbc6fd169	-0.01463733
39	0xbd597df6	-0.05309864
40	0x3e08e4c6	0.1336852
41	0xbc32b545	-0.010907476
42	0x3d8ae64f	0.06782209
43	0xbd6a14e3	-0.057148825
44	0xbda9b3fd	-0.08286283
45	0xbc9b1906	-0.01893283
46	0x3c2df655	0.010617812
47	0x3e48040f	0.19532798
48	0x3ba3ee1e	0.005002751
49	0x3eac9e4e	0.33714527
50	0x3c481619	0.0122123
51	0xbcb5400e	-0.02212527
52	0xbcaaafd3	-0.020835793
53	0xbc964498	-0.018343255
54	0x3c18e2da	0.009331429
55	0x3c5a30c6	0.013317293
56	0xbd2b475d	-0.041816104
57	0x3e204bf7	0.15653978
58	0x3e70f2f4	0.2353018
59	0xbd033028	-0.032028347
60	0xbd6568ef	-0.056008276
61	0x3e512760	0.20425177
62	0xbe91f5c0	-0.28507805
63	0x3d656aee	0.05601018
64	0x3e0abf00	0.13549423
65	0x3dcb899a	0.09938355
66	0x3eace9ad	0.3377203
67	0xbdca6cc2	-0.09884025
68	0x3d964ba6	0.073386475
69	0x3e556aba	0.20841494
70	0x3c90b0f5	0.017662505
71	0x3dcf895a	0.101336196
72	0xbd9ba227	-0.075992875
73	0x3d396f55	0.04527219
74	0x3ec99791	0.39373448
75	0xbe020388	-0.1269666
76	0xbcd371d6	-0.025811117
77	0xbdb5c6dd	-0.08875821
78	0x3e132214	0.14368469
79	0xbcf0853c	-0.029360406
80	0x3b70ca77	0.0036741772
81	0x3e2368f8	0.15958011
82	0xbc8957e0	-0.016765535
83	0x3dfabb0f	0.1224271
84	0xbd90d544	-0.07071927
85	0x3e354f98	0.17706144
86	0x3e25172b	0.16122119
87	0xbdb91642	-0.090374485
88	0x3e808816	0.25103825
89	0x3da5424b	0.08069285
90	0x3e2865c6	0.16445073
91	0xbcdaed33	-0.026724434
92	0x3d4fa81b	0.050697427
93	0xbbd99d01	-0.006641031
94	0xbb95458e	-0.0045554107
95	0x3e0358e6	0.12826881
96	0x3e6faa91	0.2340491
97	0x3c44b442	0.012005867
98	0xbd801a7e	-0.06255053
99	0x3ce39b0c	0.027783893
100	0x3e0e8ac2	0.1392012
101	0x3e2e1ccc	0.17003173
102	0x3db87edc	0.090085715
103	0x3e37c332	0.17945555
104	0xbdd1fdab	-0.102534615
105	0xbf091180	-0.5354233
106	0xbd588a74	-0.052866414
107	0x3c9c8cd1	0.019110115
108	0x3daae08d	0.08343611
109	0x3ef1274a	0.47100288
110	0x3e396c0b	0.18107621
111	0xbd5d1f65	-0.05398502
112	0x3e1039f5	0.14084609
113	0x37cbf99f	2.4315725e-05
114	0x3e7995ef	0.24373601
115	0x3d0730aa	0.033005394
116	0xbe0f72f7	-0.140087
117	0x3dacd946	0.08439879
118	0x3ed2aa1d	0.4114541
119	0x3dc209e4	0.09474543
120	0x3e465eb0	0.19372058
121	0x3edc5a79	0.43037775
122	0xbd124293	-0.03570802
123	0xbd91075e	-0.07081483
124	0xbd3d8468	-0.04626885
125	0xbcd045dc	-0.025423937
126	0x3d532412	0.05154807
127	0xbc18c193	-0.009323495

model.4.weight f4 [64, 128]
0	0x3e0f1570	0.13973022
1	0xbc75b9c6	-0.014997905
2	0x3e86b086	0.26306552
3	0xbe05a93e	-0.13052842
4	0xbdfcfdb3	-0.12353077
5	0xbd2a5034	-0.041580394
6	0x3d9070d4	0.0705277
7	0x3c4e78e0	0.012602061
8	0xbeb74dba	-0.35801488
9	0x3d08d144	0.033402696
10	0xbca5e977	-0.020252926
11	0xbe6d456b	-0.23171012
12	0xbe16dbb9	-0.14732255
13	0xbd464f44	-0.048415437
14	0xbe9b6ae3	-0.30354986
15	0x3dbe1a0b	0.09282311
16	0x3caa6794	0.020801343
17	0x3d113e3c	0.035459742
18	0xbd0b9d6b	-0.034085672
19	0xbd468722	-0.048468716
20	0x3c049fd0	0.008094743
21	0xbf023147	-0.5085644
22	0x3dd1ddac	0.10247359
23	0x3e2f0cfa	0.17094794
24	0x3e65fef9	0.22460546
25	0x3e05879f	0.13040017
26	0x3e55f068	0.20892489
27	0xbd09d5c1	-0.033651117
28	0x3dbb292d	0.09138713
29	0x3d569582	0.052388676
30	0x3dab0461	0.083504446
31	0x3d4e4789	0.05036119
32	0x3e43c215	0.19117005
33	0xbce64641	-0.028109672
34	0x3eb565f2	0.3542934
35	0x3d28ae56	0.041181885
36	0xbc720888	-0.014772542
37	0x3e3290e6	0.17438087
38	0x3bb7b6a2	0.0056064883
39	0x3d0b48c5	0.034004945
40	0x3e2ae592	0.16689137
41	0xbdc57f7d	-0.09643457
42	0xbe0d37c5	-0.13790806
43	0xbc993f21	-0.01870686
44	0x3c0259df	0.007955997
45	0xbd548d79	-0.05189273
46	0xbc279085	-0.010227327
47	0x3bbcddd0	0.005763747
48	0xbecdd314	-0.40200102
49	0xbf839180	-1.0278778
50	0xbd2698d7	-0.040673103
51	0xb9eac10c	-0.0004477579
52	0x3ca1b112	0.019737754
53	0x3d7fcf3e	0.0624535
54	0x3de86fe6	0.11349468
55	0x3b3a3175	0.0028410826
56	0xbcc47c05	-0.023984918
57	0xbcdb6931	-0.026783558
58	0xbe5e9ab8	-0.21738708
59	0xbc9d0487	-0.019167198
60	0x3d85323e	0.065037236
61	0x3ccce257	0.025010271
62	0x3f01b9da	0.5067421
63	0x3e7e5cfa	0.24840155
64	0x3c41ba45	0.011824195
65	0x3dea6435	0.11444894
66	0x3d5fd716	0.05464848
67	0xbce411ea	-0.027840573
68	0xbc9c472d	-0.019076908
69	0xbe2c43b9	-0.16822709
70	0xbdadc4c2	-0.08484794
71	0x3f04d9c1	0.51894766
72	0x3d118205	0.035524387
73	0x3f189768	0.5960603
74	0xbe354507	-0.17702113
75	0xbd3e52af	-0.046465572
76	0xbd87a157	-0.0662257
77	0x3ca11465	0.019663045
78	0x3ed14af7	0.40877506
79	0x3df615bc	0.12015864
80	0x3c76c554	0.015061695
81	0xbdaae868	-0.08345109
82	0x3d66ecbd	0.056378115
83	0x3e9bc880	0.30426407
84	0x3db4eeb8	0.088345945
85	0xbd6c09f3	-0.057626676
86	0xbeb511a4	-0.3536502
87	0x3d96295f	0.0733211
88	0x3ecb97f0	0.39764357
89	0x3cde16c7	0.02711047
90	0xbedd8540	-0.43265724
91	0xbd1d68e4	-0.03843011
92	0xbd30c569	-0.043157015
93	0x3db1f3e8	0.086890996
94	0x3f768b14	0.96305966
95	0xbdeb9f94	-0.115050465
96	0xbe6e3bcf	-0.23265003
97	0x3d958e64	0.073025495
98	0xbe82fd2b	-0.25583777
99	0xbd2552c4	-0.040362135
100	0x3ba53e63	0.0050428375
101	0x3dc82568	0.0977276
102	0x3d40e4d1	0.047093216
103	0x3e2faef3	0.17156582
104	0xbd221864	-0.039574042
105	0xbf3a3689	-0.72739464
106	0xbd26c048	-0.040710717
107	0xbcdf8523	-0.027285164
108	0x3d6e8057	0.058227863
109	0xbd96c807	-0.07362371
110	0x3e9a33a1	0.30117515
111	0x3cb869f8	0.022511467
112	0x3e7b31d1	0.24530722
113	0x3e1f1c32	0.155381
114	0x3ea8a517	0.32938454
115	0xbe2b84b2	-0.16749838
116	0xbc255ac7	-0.010092444
117	0x3e197b8d	0.14988537
118	0x3e396de8	0.18108332
119	0x3e2b5287	0.167307
120	0x3d92fa70	0.071766734
121	0x3e024f54	0.12725574
122	0x3d00ba7d	0.03142785
123	0xbd2f9bea	-0.0428733
124	0xbd54cea0	-0.051954865
125	0xbcf79994	-0.030224599
126	0xbe200dc9	-0.15630259
127	0xbd798041	-0.060913328
128	0x3c6b1a92	0.014349597
129	0x3d644652	0.055731125
130	0x3c406af1	0.011744247
131	0xbc7b1b1d	-0.0153262885
132	0xbc9a39e1	-0.018826427
133	0x3dca109c	0.09866449
134	0xbbe1a8e8	-0.0068865903
135	0x3c0059ed	0.00783394
136	0x3d612e66	0.05497589
137	0xbd0629c8	-0.03275469
138	0xbd874b8f	-0.066062085
139	0x3d77ec43	0.06052805
140	0x3d33f423	0.043934
141	0x3caa2534	0.020769693
142	0xbdc257c4	-0.09489396
143	0x3d4135c6	0.047170423
144	0xbca35709	-0.019938963
145	0xbdb528bb	-0.08845659
146	0xbd7bdb7a	-0.061488606
147	0x3d8d6b1a	0.069051936
148	0xbda86644	-0.082226306
149	0xbdabc9f0	-0.08388126
150	0x3d883cbf	0.066522114
151	0x3d673543	0.05644728
152	0x3c9a956e	0.018870082
153	0xbd6f5aa9	-0.05843607
154	0xbdc57fa3	-0.096434854
155	0xbbda9160	-0.006670162
156	0xbbe14779	-0.0068749753
157	0xbd4106da	-0.047125675
158	0xbd34801c	-0.044067487
159	0x3d3a855e	0.045537345
160	0xbd8d986a	-0.06913836
161	0xbd4d024e	-0.050051026
162	0xbd000f05	-0.031264324
163	0xbdb2e6a6	-0.08735399
164	0x3d7b76fb	0.061392765
165	0xbc1f7ff4	-0.009735096
166	0x3c9d54b0	0.019205421
167	0x3d0eb9fb	0.034845334
168	0x3c9a56a0	0.018840134
169	0x3d12af10	0.035811484
170	0xbca6e8a9	-0.020374613
171	0x3d9cd315	0.07657448
172	0xbc090740	-0.008363545
173	0xbd9cc064	-0.07653883
174	0x3d03b9c1	0.03215957
175	0x3d86468a	0.06556423
176	0xbd01ec2e	-0.03171938
177	0xbc905b10	-0.017621547
178	0x3c5400ea	0.012939671
179	0x3d9a1df9	0.07525248
180	0xbda80580	-0.08204174
181	0xbd23cc7e	-0.03998994
182	0xbd57ecbe	-0.05271601
183	0xbd9317ae	-0.07182251
184	0xbd7add1f	-0.061246034
185	0xbc3c7178	-0.011501662
186	0xbdb56d35	-0.0885872
187	0xbd9f4b12	-0.077779904
188	0xbd59b634	-0.053152278
189	0x3d9dced5	0.07705466
190	0x3d3df540	0.046376467
191	0xbcac6477	-0.021044
192	0xbbb28da2	-0.005449013
193	0xbd8a2c1a	-0.06746693
194	0xbd1a53e7	-0.03767767
195	0x3c903720	0.01760441
196	0xbd2e1c91	-0.04250771
197	0xbdc6c71d	-0.097059466
198	0xbc993e9c	-0.018706612
199	0xbd9f1db9	-0.07769341
200	0xbb27a2e0	-0.0025579259
201	0x3ce92a24	0.028462477
202	0xbc7040dc	-0.014663901
203	0x3ad723aa	0.0016413827
204	0xbd830a42	-0.06398441
205	0x3d5d4a36	0.05402585
206	0xbd3b724c	-0.0457633
207	0x3c806113	0.015671289
208	0x3d182306	0.037142776
209	0x3ced5eb1	0.028975816
210	0x3d25a135	0.040436942
211	0x3c6ea786	0.014566308
212	0xbd3a4fe0	-0.04548633
213	0x3d66c0f2	0.05633635
214	0xbdab8715	-0.08375374
215	0x3d80a883	0.06282141
216	0xbc98214e	-0.018570568
217	0xbd92a6f3	-0.07160749
218	0xbd13f856	-0.036125503
219	0xbcf1fd68	-0.029539779
220	0xbd54603a	-0.05184958
221	0x3d39caee	0.045359544
222	0xbd13ae38	-0.03605482
223	0x3d61b7ef	0.055107053
224	0xbd86d730	-0.065840125
225	0x3d40950e	0.04701715
226	0xbdadef31	-0.08492888
227	0x3c974dea	0.01846977
228	0xbdbae1ac	-0.09125075
229	0xbd888a7c	-0.06667039
230	0xbda8eab8	-0.08247894
231	0x3b71ef3c	0.0036916276
232	0x3d8776ad	0.066144325
233	0xbcbad130	-0.022804826
234	0x3d714722	0.05890573
235	0x3d658645	0.056036253
236	0xbdb8d066	-0.09024124
237	0xbd1e22c0	-0.03860736
238	0xbdcd1a51	-0.10014785
239	0xbcbc8c91	-0.023016246
240	0xbda10067	-0.07861405
241	0x3c0638b7	0.008192233
242	0x3ca16160	0.019699752
243	0xbd3e1a7c	-0.046411976
244	0xbc66ccb0	-0.014086887
245	0xbdca5080	-0.098786354
246	0x3b906698	0.0044067614
247	0xbcf0a55e	-0.029375728
248	0x3d740fdc	0.059585437
249	0xbd5548a8	-0.052071244
250	0xbd4854d7	-0.048909035
251	0xbd2f2c18	-0.04276666
252	0x3d35ecf6	0.044415437
253	0xbcc8d154	-0.024513878
254	0x3b80b801	0.003928185
255	0x3d5b6f2e	0.053572826

model.4.bias f4 [64]
0	0x3dc2ad7b	0.09505745
1	0xbbc4a6aa	-0.006001313
2	0x3db74407	0.08948522
3	0x3da8552a	0.08219369
4	0x3ec7f969	0.39057472
5	0x3e9916d6	0.29900235
6	0x3e54eabb	0.20792668
7	0xbc8ac454	-0.01693932
8	0x3ea212c8	0.31654954
9	0x3b96fc75	0.004607732
10	0x3e35968f	0.17733215
11	0xbe31b45e	-0.17353961
12	0x3ed572eb	0.41689238
13	0xbdb17625	-0.086651124
14	0x3e4cf439	0.20015039
15	0xbcd1c65c	-0.02560728
16	0x3baad89c	0.00521381
17	0x3ee2714d	0.44227067
18	0xbddc34d3	-0.10752263
19	0x3d793715	0.060843546
20	0x3e6f21dc	0.2335276
21	0xbe2ecbd7	-0.17069946
22	0x3e690fe1	0.22759964
23	0x3b6d181d	0.0036177703
24	0xbcd0fd24	-0.025511332
25	0x3e0f1f34	0.13976747
26	0xbb8d9ed6	-0.0043219132
27	0x3f229a32	0.63516533
28	0xbe17a81b	-0.14810221
29	0x3de6f2a1	0.112767465
30	0xbd424dae	-0.047437362
31	0x3e7a06b8	0.24416625
32	0x3e538e29	0.20659699
33	0xbdfe0077	-0.124024324
34	0xbdae4980	-0.08510113
35	0x3d977bb7	0.073966436
36	0x3c3b082c	0.011415523
37	0x3cfaa413	0.030595815
38	0x3c050ba1	0.008120448
39	0x3e4a18d8	0.1973604
40	0x3e81dede	0.25365347
41	0x3e8daa04	0.27668774
42	0xbdb8e47e	-0.090279564
43	0x3e54bc12	0.20774868
44	0xbdbdd150	-0.09268439
45	0x3ef808fc	0.48444355
46	0xbdf9a365	-0.12189368
47	0x3dea42f0	0.114385486
48	0x3d6bc0cc	0.057556912
49	0xbdc23ffc	-0.0948486
50	0x3d01f99e	0.031732194
51	0x3eade56c	0.33964097
52	0x3e112a57	0.14176308
53	0x3e485354	0.19563037
54	0x3e7943cb	0.24342267
55	0x3d5da662	0.054113753
56	0xbc743ba1	-0.014906795
57	0xbd8f55a4	-0.069987565
58	0xbdb34ed1	-0.087552674
59	0x3e0541aa	0.1301333
60	0xbd02707e	-0.031845562
61	0xbe020dcf	-0.1270058
62	0xbd20484b	-0.039131444
63	0x3be792cb	0.0070670596

model.6.weight f4 [32, 64]
0	0x3d8b6feb	0.06808456
1	0xbd5da2c8	-0.05411032
2	0xbb5a9d18	-0.0033357795
3	0xbdeacc8b	-0.11464795
4	0xbe32432e	-0.1740844
5	0x3d34e1b3	0.044160556
6	0x3d3b6890	0.045754015
7	0x3dc3c2fb	0.09558674
8	0x3cc38bc4	0.023870356
9	0xbbf95959	-0.007609528
10	0xbccad924	-0.024761744
11	0xbd49fcc5	-0.049313325
12	0xbd9dcf3a	-0.07705541
13	0xbda37ce4	-0.07982805
14	0xbd58a658	-0.052893013
15	0xbdb9cae2	-0.090719
16	0xbd91da4f	-0.07121717
17	0xbe2b0c33	-0.16703872
18	0xbb2da080	-0.002649337
19	0x3d909dad	0.07061324
20	0xbe1670b8	-0.14691436
21	0x3e1e7e73	0.15477924
22	0x3d7326bf	0.059363123
23	0x3d668f93	0.056289267
24	0xbd859ead	-0.06524406
25	0xbe20ec01	-0.15715028
26	0xbced0d37	-0.028936965
27	0x3c9ae9d3	0.018910324
28	0x3d7bf2de	0.061510913
29	0xbe1ace00	-0.15117645
30	0xbdfa5759	-0.122236915
31	0x3dd4b72f	0.10386502
32	0x3de285cc	0.11060676
33	0x3d2ee008	0.04269412
34	0x3d61c51f	0.05511963
35	0xbde95fd7	-0.11395233
36	0xbc2be2cd	-0.010491085
37	0xbd69674d	-0.05698328
38	0xbe1793e4	-0.1480251
39	0xbe2aeb77	-0.16691385
40	0x3d1a0c4c	0.037609383
41	0xbbf90783	-0.0075997724
42	0x3bebc4e0	0.0071951
43	0xbe20e52b	-0.1571242
44	0x3c8f1828	0.017467573
45	0xbdd70d78	-0.10500616
46	0xbdcad19b	-0.0990326
47	0xbd240abd	-0.040049303
48	0xbddd5e12	-0.10808958
49	0xbdc23dd9	-0.09484453
50	0x3d2fdbba	0.042934157
51	0xbda8e3ea	-0.08246596
52	0xbe552217	-0.20813785
53	0xbd3fbe12	-0.046812125
54	0xbe079072	-0.13238695
55	0x3c78679b	0.01516142
56	0xbd7259d6	-0.059167705
57	0xbdf805cc	-0.12110481
58	0xbd611246	-0.054949068
59	0x3d45d13e	0.048295252
60	0xbd0ca8bd	-0.03434061
61	0xbd9dcf24	-0.077055246
62	0x3dc5cff4	0.096588045
63	0x3dbea047	0.09307914
64	0xbe33447f	-0.17506598
65	0xbde1a7aa	-0.110183075
66	0xbe9044e2	-0.28177553
67	0x3e175d3a	0.14781657
68	0x3ecfc9bb	0.40583596
69	0xbe5c4559	-0.21510829
70	0xbe529332	-0.20563963
71	0x3dd01130	0.10159528
72	0xbea105b5	-0.31449667
73	0xbdf97f25	-0.12182454
74	0xbdff7e98	-0.12475318
75	0xbe0a9580	-0.13533592
76	0x3f020e16	0.50802743
77	0x3d81cca7	0.063378625
78	0xbda33f18	-0.079710186
79	0x3e425a83	0.1897984
80	0xbc5e9a80	-0.01358664
81	0x3e4ee51f	0.2020459
82	0x3df3f9e6	0.11912899
83	0xbd060302	-0.032717712
84	0xbc98452c	-0.018587671
85	0x3cd626dc	0.026141576
86	0x3aa4b52e	0.0012566203
87	0x3ca94db3	0.020666933
88	0x3e3cdfbf	0.18444727
89	0x3ea0b2b6	0.31386346
90	0xbca80087	-0.020508064
91	0x3eaac0ec	0.33350313
92	0xbd9e51e9	-0.07730467
93	0x3d1b8550	0.037968934
94	0xbe2ef16a	-0.1708428
95	0xbd217370	-0.03941673
96	0x3e5d7414	0.21626312
97	0xbdb01a2f	-0.08598744
98	0xbd0930e0	-0.033493876
99	0x3d0e7acb	0.034785073
100	0x3e0ca4da	0.13734761
101	0x3d86572f	0.06559598
102	0xbe508643	-0.20363717
103	0xbe1588a7	-0.1460291
104	0xbd70d2a0	-0.058794618
105	0x3e93db04	0.28878033
106	0x3d5e34f8	0.054249734
107	0x3e604990	0.21903062
108	0xbe189af4	-0.1490286
109	0x3e654dcd	0.2239296
110	0x3d0eaff5	0.034835774
111	0x3e150888	0.14554036
112	0xbe803b0b	-0.25045046
113	0x3b70d738	0.0036749374
114	0x3daebc6b	0.085320316
115	0x3e346512	0.1761668
116	0x3e4cbfaa	0.19994989
117	0x3e3113ad	0.17292662
118	0x3dc5d735	0.09660188
119	0x3e50b25c	0.20380539
120	0x3e9e73e7	0.309478
121	0x3db8568c	0.090008825
122	0x3d864120	0.0655539
123	0x3e3da9ab	0.18521754
124	0xbcb26da2	-0.021780793
125	0x3c0a55dc	0.008443322
126	0xbe066c21	-0.13127185
127	0x3d85060d	0.06495295
128	0x3c00f74e	0.007871462
129	0xbce288e6	-0.027653169
130	0xbe242b34	-0.16032106
131	0x3d15ba5f	0.03655469
132	0xbcaa4dee	-0.020789113
133	0x3e2de46c	0.16981667
134	0x3e2d9f4a	0.16955295
135	0xbbd9bea9	-0.006645043
136	0x3e790fec	0.2432248
137	0x3d30f0e5	0.043198485
138	0xbda5a61d	-0.08088324
139	0xbde14a86	-0.11000542
140	0x3e37136f	0.17878507
141	0x3dd7206f	0.10504233
142	0xbe2df50a	-0.16988006
143	0x3e0ced71	0.13762452
144	0x3df539f8	0.11973947
145	0x3d9db1b4	0.0769991
146	0x3d9538af	0.07286202
147	0x3dfb6fe3	0.122772
148	0x3dfbbccd	0.1229187
149	0x3e83ff82	0.25780874
150	0xbe205d95	-0.15660699
151	0xbdb5f68a	-0.08884914
152	0x3d9e77b3	0.077376746
153	0xbc8fd5c9	-0.017557995
154	0x3de9883d	0.114029385
155	0xbe850fc1	-0.25988582
156	0x3d9458a5	0.0724347
157	0x3dc9d457	0.09854954
158	0xbc170592	-0.009217637
159	0x3e031639	0.12801446
160	0x3e40b629	0.18819489
161	0x3d8156dc	0.06315395
162	0x3cbe7661	0.023249807
163	0xbe031fde	-0.12805125
164	0xbcc69197	-0.024239345
165	0x3cc08547	0.023501052
166	0xbe10b2f3	-0.14130764
167	0xbd19e5ca	-0.03757266
168	0xbdded52e	-0.108805045
169	0x3c24bdb0	0.010054991
170	0x3d026512	0.03183467
171	0xbe44ca90	-0.19217896
172	0xbad95178	-0.0016580066
173	0xbcc358b4	-0.023846008
174	0xbca37171	-0.019951554
175	0x3d8edf0c	0.069761366
176	0x3e0c91ae	0.13727447
177	0xbdc1bd77	-0.09459966
178	0x3c82564b	0.015910288
179	0xbdfca795	-0.12336651
180	0x3dd9c32e	0.10632931
181	0xbdfa8515	-0.12232415
182	0xbd48a10e	-0.04898172
183	0x3d6b5e3f	0.057462927
184	0xbe3ef5c3	-0.18648438
185	0x3d0b57ec	0.034019396
186	0xbcbddb91	-0.023175986
187	0xbea7a1e1	-0.3274069
188	0x3d8374dc	0.064187735
189	0xbd84f7e0	-0.06492591
190	0x3d54406f	0.05181926
191	0xbcbdee69	-0.023184972
192	0x3e317f7d	0.17333789
193	0xbc8d6991	-0.017262252
194	0xbdeea2ea	-0.11652167
195	0xbad4998c	-0.0016220077
196	0x3eb0c0b7	0.3452203
197	0xbf0947c0	-0.53625107
198	0xbebacfba	-0.36486608
199	0x3ca53048	0.020164624
200	0xbcc5b1a8	-0.024132565
201	0x3de48953	0.11159005
202	0xbf8bfb7b	-1.0936121
203	0x3cb16851	0.021656187
204	0x3d362faa	0.04447905
205	0x3d3cb7c3	0.046073686
206	0x3d97a273	0.074040316
207	0xbd98ba0f	-0.07457363
208	0x3dbd4075	0.0924081
209	0xbdbf9d6b	-0.09356197
210	0xbd039456	-0.032123886
211	0xbe52e60a	-0.20595565
212	0xbe9e5084	-0.30920804
213	0x3ed2e676	0.41191453
214	0x3c3c1930	0.011480615
215	0xbd323df1	-0.043516103
216	0x3cac4095	0.021026889
217	0x3dec609f	0.115418665
218	0x3e11c61e	0.14235732
219	0xbd4ad0e6	-0.049515627
220	0xbe365d13	-0.17808942
221	0x3ca985f4	0.020693757
222	0xbe36d4ef	-0.17854665
223	0xbe1d84a0	-0.15382624
224	0x3ed1769e	0.4091081
225	0x3c97449a	0.018465329
226	0xbdd58e7f	-0.104275696
227	0xbe1f83e1	-0.15577652
228	0xbdd89c8a	-0.105767325
229	0xbd800f2c	-0.06252894
230	0xbe2cbfb4	-0.16870004
231	0xbe8a7f7d	-0.2705039
232	0x3d94ca81	0.07265187
233	0xbe8d9eb0	-0.2766013
234	0x3c6dd6f6	0.014516583
235	0x3cf189fb	0.02948474
236	0xbd9f396f	-0.077746265
237	0xbf2b9180	-0.6701889
238	0xbdd470bb	-0.10373064
239	0x3d90ceea	0.07070716
240	0xbd997d9e	-0.07494663
241	0x3c68fe74	0.014220823
242	0x3d3db07b	0.046310883
243	0xbcfcd884	-0.030864961
244	0xbe7f9923	-0.24960761
245	0xbe143acf	-0.14475559
246	0xbe2e10a5	-0.16998537
247	0xbe7054d5	-0.23469861
248	0xbe123b54	-0.14280444
249	0xbd7c55f1	-0.061605398
250	0x3e047bef	0.12937902
251	0xbf2db91f	-0.678606
252	0x3df85dae	0.12127243
253	0x3d309bdb	0.043117385
254	0x3d0fd7d0	0.035117924
255	0xbdf69d48	-0.12041718

model.6.bias f4 [32]
0	0x3d307e68	0.0430893
1	0x3f14409c	0.57911086
2	0xbd7cf44a	-0.06175641
3	0x3d3cba16	0.046075903
4	0x3d810c82	0.06301214
5	0x3ef54e77	0.47911426
6	0x3e1a14ea	0.1504704
7	0x3d2cc518	0.04218015
8	0x3e4400fc	0.19141
9	0x3e30aa76	0.17252526
10	0x3f25ec24	0.64813447
11	0x3d32efd3	0.043685745
12	0xbda3558a	-0.079753
13	0x3def5a49	0.116871424
14	0x3c1cfc48	0.009581633
15	0x3e1b5dbc	0.15172476
16	0x3ecfbeba	0.405752
17	0x3e445015	0.19171174
18	0x3e0448ea	0.1291844
19	0x3e88f4f0	0.26749372
20	0x3e352cb4	0.17692834
21	0x3e44b671	0.19210221
22	0xbe335531	-0.17512967
23	0x3cfa3094	0.030540742
24	0x3d88cc49	0.06679589
25	0x3e2fbd1d	0.17161985
26	0x3d616e28	0.055036694
27	0x3f0b3064	0.54370713
28	0x3e8d04f4	0.2754284
29	0x3e888cf2	0.26670033
30	0x3d647171	0.05577225
31	0x3e857681	0.26066974

model.8.weight f4 [10, 32]
0	0x3dd66979	0.10469336
1	0x3e64a59c	0.223288
2	0xbe9960d2	-0.2995668
3	0xbe63cf28	-0.22246993
4	0xbd3a1dc1	-0.04543853
5	0x3e7785e7	0.24172173
6	0x3cbe66d6	0.023242395
7	0x3c697a9d	0.014250425
8	0xbe1dba37	-0.15403067
9	0xbdc34b68	-0.09535867
10	0x3e9aa0e0	0.30200863
11	0xbe0d8ddd	-0.13823648
12	0x3ca3ed31	0.020010563
13	0xbdca4e26	-0.09878187
14	0x3e3058a7	0.17221318
15	0x3e6b49c5	0.2297736
16	0x3eac66b4	0.33672106
17	0xbec2abf3	-0.38021812
18	0x3bfd9756	0.007738988
19	0xbdb46f0e	-0.088102445
20	0xbdd3e927	-0.10347205
21	0x3ea4163b	0.3204821
22	0x3daa8072	0.0832528
23	0x3e689a1b	0.22715037
24	0xbd922078	-0.07135099
25	0xbe6e7e59	-0.23290385
26	0x3dffe3ed	0.12494645
27	0x3dbdc9e9	0.09267027
28	0x3e13be25	0.14428003
29	0x3e733a4d	0.23752709
30	0xbc38ae9c	-0.011272099
31	0xbe520ed4	-0.20513469
32	0xbd76931e	-0.060198896
33	0x3ea9239b	0.33034977
34	0xbe3e9662	-0.18612054
35	0xbd019e16	-0.031644903
36	0x3d32d1f7	0.04365727
37	0x3eaee760	0.341609
38	0xbd020abc	-0.03174852
39	0x3bda674a	0.006665145
40	0xbe67a5b2	-0.22621801
41	0xbe60aceb	-0.21940963
42	0x3e267fd8	0.16259706
43	0xbe133ec0	-0.14379406
44	0x3d8f0044	0.069824725
45	0x3e1e8cb9	0.15483369
46	0xbe029d0d	-0.12755223
47	0x3e67bd66	0.22630844
48	0x3e8a672a	0.27031833
49	0xbe99c252	-0.30031067
50	0x3dda4886	0.10658364
51	0x3e12e668	0.14345706
52	0xbe136c8e	-0.14396879
53	0x3d764d21	0.06013215
54	0xbd6dd98d	-0.0580688
55	0x3e557dd6	0.20848784
56	0xbe30860a	-0.17238632
57	0xbe8ada13	-0.27119502
58	0x3d9ba0d6	0.075990364
59	0x3ea4baf0	0.32173872
60	0x3e0b589b	0.13608019
61	0x3e687205	0.22699745
62	0xbdeb63b7	-0.114936285
63	0xbe469883	-0.19394116
64	0x3e05631c	0.13026088
65	0x3ed41ea6	0.41429633
66	0xbe26061a	-0.16213265
67	0x3d2d1ac3	0.04226185
68	0x3c84d93b	0.016216865
69	0x3e82fad6	0.25581998
70	0x3d8c4bb6	0.06850378
71	0x3cddcb50	0.027074486
72	0xbe391dde	-0.180778
73	0x3df73e7d	0.120724656
74	0x3e7a4ee5	0.24444158
75	0x3cc68f9d	0.024238402
76	0x3e06c3d3	0.13160639
77	0xbc515ca2	-0.012778433
78	0x3e226198	0.15857542
79	0x3e761a78	0.24033535
80	0x3e3d8c08	0.18510449
81	0xbe97a61e	-0.29618925
82	0xbdc712bc	-0.0972037
83	0x3e213b07	0.15745173
84	0xbebd4500	-0.36966705
85	0x3e10d68e	0.14144346
86	0x3d9f3cd1	0.07775272
87	0x3e5cd65c	0.21566147
88	0xbe77e436	-0.2420815
89	0xbe64dfde	-0.22351024
90	0xbdd8a077	-0.10577481
91	0x3e2bdab3	0.16782646
92	0x3d6b4a01	0.057443622
93	0x3e25c6cb	0.16189115
94	0x3dd80ecd	0.10549698
95	0xbe0dba89	-0.13840689
96	0x3c29669a	0.0103394035
97	0x3ebc6263	0.36793813
98	0xbe53d53a	-0.20686808
99	0xbe2563f1	-0.16151406
100	0x3d38577c	0.045005307
101	0x3e5f5490	0.21809602
102	0x3e3eaf44	0.18621546
103	0x3d361a1b	0.04445849
104	0xbe784163	-0.24243693
105	0x3d5fb7d7	0.054618683
106	0x3e9ad0b7	0.30237362
107	0xbe22e39c	-0.15907139
108	0x3d6c7faa	0.057738937
109	0xbd26c52a	-0.040715374
110	0x3e04b9f1	0.12961556
111	0x3e39b954	0.18137103
112	0x3e6bc7be	0.23025414
113	0xbe728917	-0.23685108
114	0xbd9a8dc6	-0.075465724
115	0x3e4a937f	0.19782828
116	0xbd519279	-0.051165078
117	0x3e2cd571	0.16878296
118	0xbdfa4491	-0.12220109
119	0x3ea677e3	0.3251334
120	0xbe8008f7	-0.2500684
121	0xbea7ce66	-0.32774657
122	0xbe16fcdd	-0.14744897
123	0x3e74b13b	0.23895733
124	0x3c9f4686	0.019442808
125	0x3e8249b0	0.25446844
126	0x3bc3ff94	0.005981395
127	0xbe163272	-0.14667681
128	0xbe15e9e4	-0.14640003
129	0x3e44e4e2	0.19227937
130	0xbe5e9f63	-0.21740489
131	0x3dd96d55	0.106165566
132	0x3e0d63b0	0.13807559
133	0x3e648197	0.2231506
134	0xbd5d76a2	-0.054068215
135	0x3cbb973d	0.022899264
136	0xbe76c001	-0.24096681
137	0x3d6b4dcb	0.057447236
138	0x3ea2ef41	0.3182316
139	0xbd87cb79	-0.06630606
140	0x3dcdc837	0.100479536
141	0x3cff1de1	0.031142177
142	0x3e2179cf	0.15769123
143	0xbb6ef0de	-0.0036459486
144	0x3eb63fd0	0.3559556
145	0xbea0bee6	-0.31395644
146	0x3e0b382a	0.13595644
147	0x3e5101ef	0.20410894
148	0xbe777d44	-0.24168879
149	0x3e3530df	0.17694424
150	0xbe07fb82	-0.13279536
151	0x3e97582c	0.29559457
152	0xbe38fb44	-0.180646
153	0xbe41f180	-0.18939781
154	0xbca4370a	-0.020045776
155	0x3e3ed5c0	0.18636227
156	0xbdc27c1e	-0.0949633
157	0x3e8923e2	0.2678519
158	0x3de069bd	0.10957668
159	0xbe5c0537	-0.21486364
160	0x3da1e03f	0.079041
161	0x3eb33f2c	0.35009134
162	0xbe9f0797	-0.31060478
163	0xbc12771a	-0.008939529
164	0xbe050605	-0.12990578
165	0x3e1c1de0	0.15245771
166	0x3e3892f1	0.18024804
167	0xbda1cca4	-0.0790036
168	0xbe632385	-0.22181518
169	0x3e196f9d	0.14983983
170	0x3e6183bc	0.22022909
171	0xbde8a1e3	-0.113590024
172	0x3d8763ba	0.06610818
173	0xbc2b604c	-0.010459971
174	0x3dddb146	0.10824828
175	0xbd982bd5	-0.07430235
176	0x3ea7c30c	0.32765996
177	0xbe67816d	-0.22607966
178	0x3da66173	0.08124056
179	0xbd6e92a8	-0.05824533
180	0xbe2d2198	-0.16907346
181	0x3e2e4a97	0.17020641
182	0x3c927288	0.017876878
183	0x3ddebcba	0.108758405
184	0xbe639a86	-0.22226915
185	0xbe6228b8	-0.22085845
186	0x3ad5bc54	0.0016306737
187	0x3e2a7e92	0.16649845
188	0x3d76a26a	0.060213484
189	0x3e353328	0.17695296
190	0x3e38911f	0.1802411
191	0xbe7f6582	-0.24941066
192	0xbdaff163	-0.08590963
193	0x3eb738db	0.35785565
194	0xbdc1b3f8	-0.094581544
195	0x3d50a46e	0.050938062
196	0x3d0f2087	0.03494313
197	0x3e4100a0	0.18847895
198	0x3e19ec01	0.15031435
199	0x3b04e68d	0.002027902
200	0xbe3627b7	-0.17788588
201	0x3d968a0f	0.07350551
202	0x3e8d72c3	0.2762662
203	0x3c4cf596	0.012509724
204	0xbda32421	-0.079658754
205	0xbd52154c	-0.05128984
206	0x3dc520dc	0.09625408
207	0x3e0a02d5	0.13477643
208	0x3e8f6635	0.28007665
209	0xbeacc535	-0.33744207
210	0x3e44ff24	0.19237953
211	0x3d32a86d	0.043617655
212	0xbe077e4f	-0.13231777
213	0x3e04e171	0.12976624
214	0xbd66dca0	-0.05636275
215	0x3dd93d62	0.10607411
216	0xbeb89328	-0.3604977
217	0xbe47d9be	-0.19516656
218	0x3d2024d3	0.03909762
219	0x3e37c9aa	0.17948022
220	0x3e3b13bd	0.18269248
221	0x3e6f017b	0.23340409
222	0xbba53f8d	-0.0050429762
223	0xbe474868	-0.19461215
224	0xbdaf1f36	-0.08550875
225	0x3ea906b2	0.3301292
226	0xbe1a3272	-0.15058306
227	0x3db00163	0.085940145
228	0x3e32edbf	0.17473505
229	0x3e16c2ac	0.14722699
230	0xbc6c782e	-0.01443295
231	0x3c40a122	0.011757167
232	0xbe0ad845	-0.13559063
233	0xbd8547f9	-0.06507868
234	0x3e90b09b	0.2825974
235	0xbe132e08	-0.14373028
236	0xbd873c5c	-0.066033095
237	0x3ca93080	0.02065301
238	0x3dff0534	0.12452164
239	0xbe13832c	-0.14405507
240	0x3e8bb164	0.27283776
241	0xbe2216d8	-0.15829027
242	0x3d94ec79	0.07271666
243	0xbdddb157	-0.108248405
244	0xbe22c02b	-0.15893619
245	0x3e567853	0.20944338
246	0x3d8485ee	0.064708576
247	0x3dd164d2	0.10224308
248	0xbe58a08e	-0.21154997
249	0xbeb3ef17	-0.3514335
250	0x3dafdd69	0.085871525
251	0x3e21b288	0.1579076
252	0x3c811791	0.015758308
253	0x3e282bff	0.16423033
254	0xbe1bd611	-0.15218379
255	0xbec82c4d	-0.390963

model.8.bias f4 [10]
0	0xbdbfa820	-0.09358239
1	0xbe44e1d9	-0.19226779
2	0xbce0ddc3	-0.027449494
3	0xbe51753b	-0.20454876
4	0xbe03006c	-0.1279313
5	0x3d810aaf	0.06300866
6	0x3db249c9	0.0870548
7	0x3de742b3	0.11292019
8	0x3dd4f4c4	0.10398248
9	0x3e08d1e4	0.13361317
