checkpoints/checkpoint_step_2600.pth (torch, 200878 bytes, 10 tensors)

model.0.weight f4 [256, 21]
0	0x3d4bf5a6	0.049794815
1	0x3c46bfb2	0.012130665
2	0x3de16089	0.11004741
3	0xbe8a84b7	-0.27054378
4	0xbeacdc87	-0.33762
5	0xbe2c7145	-0.16840084
6	0xbf0126f6	-0.50450075
7	0x3cd63cd4	0.026152052
8	0x3dbff921	0.093736894
9	0xbd7bbb83	-0.061458122
10	0xbe8c1565	-0.27360073
11	0x3d9e6ff1	0.07736195
12	0x3e3a484c	0.18191642
13	0xbf1cd80d	-0.6126717
14	0xbe3489b0	-0.17630649
15	0xbe943e86	-0.28953952
16	0xba933b81	-0.0011232944
17	0x3dc9e27c	0.098576516
18	0x3e0fa947	0.14029418
19	0xbf0126dd	-0.50449926
20	0x3e8f48c5	0.27985206
21	0x3d703bc9	0.058650766
22	0x3d4b23cd	0.04959469
23	0xbe122d06	-0.14274988
24	0xbd429410	-0.047504485
25	0xbf931bb8	-1.1492834
26	0xbd3201a7	-0.043458607
27	0x3de4dafb	0.1117458
28	0xbdb28059	-0.087158866
29	0xbdd29fbd	-0.10284374
30	0xbe9af477	-0.30264637
31	0x3bb63f19	0.005561721
32	0xbd8909e1	-0.066913374
33	0xbe9b0e4c	-0.30284345
34	0xbe9f918d	-0.31165734
35	0xbdbfcc52	-0.09365143
36	0x3c02e555	0.007989247
37	0xbc93fc46	-0.01806463
38	0x3e3ef155	0.18646748
39	0xbd5a58ea	-0.05330745
40	0x3e2b4faf	0.16729616
41	0xbd22ad92	-0.03971631
42	0xbd61385e	-0.054985397
43	0xbe860c6a	-0.26181346
44	0x3e7df3eb	0.24800079
45	0xbcdbc23f	-0.026826022
46	0x3e0315ad	0.12801237
47	0x3dafff51	0.085936196
48	0xbef8bb3d	-0.4858035
49	0x3ddbc647	0.10731178
50	0x3e1be5dc	0.15224403
51	0xbe3011fe	-0.17194363
52	0x3d054d31	0.03254432
53	0xbf01457b	-0.50496644
54	0xbdea3215	-0.11435334
55	0xbe72eb14	-0.23722488
56	0xbe5d276e	-0.21597072
57	0x3db7146d	0.08939443
58	0xbea5d330	-0.32387686
59	0xbd42c9d1	-0.04755575
60	0xbdb568e6	-0.088578984
61	0xbe3da10c	-0.18518466
62	0xbdd5bff6	-0.10437004
63	0x3d1cddaf	0.03829735
64	0xbea9b1d5	-0.33143488
65	0xbd684fe4	-0.056716815
66	0xbe21f21e	-0.15815017
67	0xc00b7719	-2.1791441
68	0xbd09bd09	-0.033627544
69	0xbe4aed5c	-0.19817108
70	0x3d838884	0.06422523
71	0xbcdb0840	-0.026737332
72	0x3d2ed4c5	0.04268338
73	0xbd9d59bf	-0.07683133
74	0x3e3a0e4f	0.18169521
75	0x3d108328	0.03528133
76	0xbdd65da8	-0.10467082
77	0xbcb8ca35	-0.022557357
78	0x3e1119f3	0.14170055
79	0xbc8c321f	-0.017113743
80	0x3e3e16bf	0.18563364
81	0xbd5f6f91	-0.054549757
82	0x3da27f6d	0.07934461
83	0xbf3d85c6	-0.7403225
84	0x3e038883	0.12845044
85	0xbd05ad8a	-0.032636203
86	0x3dc137b4	0.09434453
87	0xbe353191	-0.1769469
88	0x3d04fe3d	0.032469023
89	0xbe115762	-0.1419349
90	0x3e8d27a7	0.27569315
91	0x3d01e52d	0.0317127
92	0x3da9eb0d	0.082967855
93	0xbde5666e	-0.112011775
94	0xbdbaeb91	-0.09126962
95	0xbdca9709	-0.09892089
96	0x3e0d586f	0.13803266
97	0xbe0cfa62	-0.13767388
98	0xbe3bfb14	-0.18357497
99	0x3d859a60	0.06523585
100	0x3e10d94a	0.14145389
101	0xbeca55e5	-0.39518657
102	0xbdc88cfb	-0.09792515
103	0x3d2d37d3	0.042289566
104	0xbbc83e63	-0.0061109527
105	0xbe919eee	-0.28441566
106	0x3d4bcb13	0.049754214
107	0xbe8b9bd4	-0.27267325
108	0x3d831b17	0.06401651
109	0xbe078d37	-0.13237463
110	0x3d632ab3	0.055460643
111	0xbea447a2	-0.32085901
112	0xbc9b1269	-0.018929677
113	0xbeaff153	-0.34363803
114	0xbe3938a8	-0.18088019
115	0xbc55d196	-0.013050457
116	0x3e4370bf	0.19085978
117	0xbdf3f5aa	-0.11912091
118	0x3ea9e581	0.3318291
119	0xbe345e6f	-0.17614149
120	0x3ea574e2	0.32315737
121	0x3d1014f5	0.035176236
122	0x3e7322d7	0.23743759
123	0xbe907c7b	-0.2821997
124	0x3e3fc06c	0.18725747
125	0x3d842266	0.064518735
126	0xbf24ecd4	-0.6442387
127	0xbd800d94	-0.0625259
128	0x3e948048	0.2900412
129	0xbebbe4e0	-0.36698055
130	0xbf4a7101	-0.7907868
131	0xbe009bb6	-0.12559399
132	0xbe8ea0a2	-0.27856928
133	0xbea9eee5	-0.33190075
134	0xbec4387a	-0.38324338
135	0xbd65cea5	-0.056105275
136	0xbe8e5f8d	-0.27807274
137	0xbe904815	-0.28179994
138	0xbd9a3cd6	-0.07531135
139	0xbe4fc207	-0.2028886
140	0x3e2389f8	0.159706
141	0x3e286897	0.16446148
142	0x3de0943b	0.10965773
143	0x3dcbba1e	0.099476084
144	0xbe5691c8	-0.20954049
145	0xbdc69b20	-0.096975565
146	0xbdce5d1e	-0.100763544
147	0xbe11d10c	-0.14239901
148	0xbe03ad77	-0.1285914
149	0x3e4d4c3c	0.20048612
150	0xbe09e937	-0.1346787
151	0x3e500fd3	0.20318536
152	0xbd2b2b32	-0.04178924
153	0xbeb9297c	-0.36164463
154	0xbd7073b8	-0.058704108
155	0xc0a216ce	-5.065284
156	0xbcc1ac2f	-0.023641674
157	0xbd1d54fe	-0.038411133
158	0xbc00f5ff	-0.00787115
159	0xbd73dac0	-0.059534788
160	0xbd82dc98	-0.06389731
161	0x3d21c236	0.039491855
162	0x3d656b9d	0.05601083
163	0xbd38aab3	-0.045084666
164	0xbe2384df	-0.15968655
165	0xbd7168af	-0.058937725
166	0xbe50354f	-0.20332836
167	0xbe5839c9	-0.21115793
168	0xbca77ba1	-0.020444693
169	0xbe034b5d	-0.12821718
170	0x3d9a43f9	0.07532496
171	0xbe5f3a5c	-0.21799606
172	0x3d830c82	0.0639887
173	0x3b45786e	0.0030131596
174	0xbeb38a3b	-0.350664
175	0xbdd5c61b	-0.10438176
176	0x3e3ce9e5	0.18448599
177	0xbe97c866	-0.2964508
178	0xbea20c4b	-0.31650004
179	0xbeb724b8	-0.35770202
180	0xbc959748	-0.018260613
181	0xbd9ec0de	-0.0775163
182	0xbe2e6609	-0.17031111
183	0xbe98d641	-0.29850963
184	0x3c28c3a9	0.010300555
185	0xbd8e062b	-0.0693477
186	0xbe83a4af	-0.2571158
187	0xbd85eb14	-0.06538978
188	0x3cec0b3d	0.028813953
189	0x3e325a94	0.17417365
190	0xbe53dcc3	-0.20689683
191	0xbea780ed	-0.3271555
192	0xbd8fa927	-0.07014685
193	0x3e5d4608	0.21608746
194	0xbe71426c	-0.23560494
195	0xbe8e6ac3	-0.27815828
196	0xbda541ff	-0.080692284
197	0x3d05f05d	0.03269993
198	0x3d047587	0.032338645
199	0xbe3e1add	-0.18564935
200	0xbf0514a7	-0.5198464
201	0xbdc88a05	-0.0979195
202	0xbeb008d9	-0.3438175
203	0x3da6def1	0.081479914
204	0xbdf9e7fb	-0.1220245
205	0xbe331c72	-0.1749132
206	0xbf064866	-0.5245422
207	0x3de1b88d	0.110215284
208	0xbe5ac255	-0.21363194
209	0xbdaa391e	-0.083116755
210	0x3d9934a3	0.07480743
211	0xbd0be7c6	-0.034156583
212	0xbb36e2fc	-0.002790629
213	0x3d26fdbe	0.04076933
214	0xbd0d6415	-0.034519274
215	0x3cefe289	0.029282825
216	0x3e5c5086	0.21515092
217	0xbcd2d153	-0.02573458
218	0x3d12c67f	0.035833832
219	0xbdd4affc	-0.10385129
220	0x3dac992d	0.084276535
221	0xbdacea57	-0.08443134
222	0x3d741ad6	0.059595905
223	0x3ef792f8	0.48354316
224	0x3ddde8b5	0.10835401
225	0xbe89fdb5	-0.26951376
226	0x3e77a94b	0.24185674
227	0xb89b19d0	-7.395784e-05
228	0x3d48d076	0.04902693
229	0x3ea2c008	0.31787133
230	0xbe094d69	-0.13408436
231	0xbe0c3ce7	-0.13695107
232	0x3d6f717a	0.05845783
233	0xbe0c3430	-0.13691783
234	0xbdf1d175	-0.11807529
235	0x3ea53c43	0.3227254
236	0x3cab7556	0.020929974
237	0x3da49950	0.080370545
238	0xbd98e983	-0.07466414
239	0xbedd06c8	-0.43169236
240	0xbe518d11	-0.20463969
241	0xbe2fb4cb	-0.17158811
242	0xbe8191e8	-0.2530663
243	0xbca31cda	-0.019911218
244	0xbdc4ffe8	-0.09619123
245	0xbd652bea	-0.055950083
246	0x3ea87476	0.32901353
247	0xbe74036c	-0.2382943
248	0xbe9913fe	-0.29898065
249	0xbd2dd80d	-0.04244237
250	0xbde2607c	-0.11053559
251	0xbd6d226b	-0.05789415
252	0x3e18b86f	0.14914106
253	0x3e1e3ea2	0.1545358
254	0xbe23f0fe	-0.160099
255	0xbdd9d00a	-0.106353834

model.0.bias f4 [256]
0	0x3df749eb	0.120746456
1	0x3d221dad	0.039579082
2	0xbe69461a	-0.22780648
3	0x3e65011f	0.22363709
4	0x3ede31e2	0.43397433
5	0xba9fd6ba	-0.0012194731
6	0x3ddc276c	0.107497066
7	0x3de0089d	0.10939143
8	0x3e402361	0.18763496
9	0x3e36ca8a	0.178507
10	0xbe897559	-0.26847342
11	0xbc8f486c	-0.017490588
12	0x3e283695	0.16427071
13	0xbebdec76	-0.37094468
14	0x3e1fdcca	0.15611568
15	0x3e4df6a6	0.2011362
16	0xbdb2ea40	-0.08736086
17	0xbde84d89	-0.11342914
18	0x3e4cfd98	0.20018613
19	0xbea1aa88	-0.31575418
20	0xbd526e39	-0.051374648
21	0xbec42d35	-0.3831574
22	0xbc1a71b8	-0.009426527
23	0xbe2c9394	-0.16853172
24	0xbec6d9b0	-0.38837957
25	0xbdb11452	-0.08646454
26	0xbe590020	-0.21191454
27	0x3e47a171	0.19495179
28	0xbe4249e3	-0.18973498
29	0xbc3f9c30	-0.011694953
30	0x3eb3dc21	0.35128883
31	0x3e8e9876	0.27850693
32	0xbe790af6	-0.24320588
33	0xbe29a7c0	-0.16567898
34	0xbe9b3c2d	-0.30319348
35	0x3dbc03bc	0.091804
36	0xbdc9b177	-0.09848302
37	0xbe95b94d	-0.29242936
38	0x3d00dc96	0.031460367
39	0x3dc4c6b4	0.09608212
40	0xbd6b3f08	-0.05743316
41	0x3d6076ec	0.054800913
42	0x3cfb4175	0.03067086
43	0x3ddb75fd	0.10715864
44	0x3e01518f	0.12628768
45	0xbe43d8ed	-0.1912572
46	0xbde8c18c	-0.11365041
47	0xbd154a42	-0.03644777
48	0x3e888c48	0.26669526
49	0xbdbac5f1	-0.091197856
50	0x3d06e741	0.032935385
51	0x3d7048bb	0.05866311
52	0xbea3cd20	-0.31992435
53	0xbe9027ea	-0.28155452
54	0x3e81e011	0.25366262
55	0xbe6c905e	-0.23101947
56	0xbeaaaaec	-0.33333528
57	0x3d12c6d9	0.035834167
58	0xbea78e7a	-0.32725888
59	0xbd4d0363	-0.050052058
60	0x3d819434	0.06327096
61	0xbdf1c808	-0.11805731
62	0x3ec671a6	0.38758582
63	0xbe0047ba	-0.12527362
64	0xbd90d56f	-0.07071959
65	0xbe5fffd9	-0.21874942
66	0xbd7b1fd2	-0.061309643
67	0x3e935eaa	0.2878316
68	0xbe8d45c7	-0.27592298
69	0x3e9d516f	0.3072619
70	0xbe151f99	-0.14562835
71	0x3ead0dc1	0.33799556
72	0x3b97d912	0.004634031
73	0x3e4da36c	0.20081872
74	0xbe8e5970	-0.2780261
75	0xbea42672	-0.3206058
76	0xbe78704b	-0.24261586
77	0xbdf61d9a	-0.12017365
78	0xbe3ea3f7	-0.18617235
79	0x3eeb962c	0.4601301
80	0x3d0864a8	0.03329912
81	0x3ec99ba4	0.39376557
82	0xbefcbd3b	-0.4936312
83	0xbe2195c1	-0.15779783
84	0x3d8999f0	0.067188144
85	0xbe07dfc1	-0.13268949
86	0x3eb333fd	0.350006
87	0x3ed8dd42	0.42356306
88	0xbcb7eca9	-0.022451716
89	0x3d84c265	0.0648239
90	0x3e99693a	0.29963094
91	0xbe32f99d	-0.17478032
92	0xbdd4e6c3	-0.10395577
93	0xbe087b02	-0.13328174
94	0xbdc855cb	-0.09781989
95	0xbe89573b	-0.26824364
96	0xbe961884	-0.2931558
97	0xbdf979b0	-0.12181413
98	0xbeb8636f	-0.36013362
99	0x3eec7e97	0.4619033
100	0x3ed302e5	0.41213146
101	0xbe2564b3	-0.16151695
102	0xbe08fd83	-0.13377957
103	0x3e870c4e	0.26376575
104	0x3e81735f	0.25283334
105	0x3e2b6b52	0.16740158
106	0xbcaf034c	-0.021363877
107	0x3e0da6df	0.13833188
108	0xbc0d5095	-0.008625169
109	0xbe087e1d	-0.13329358
110	0x3ce56419	0.028001832
111	0xbd990564	-0.07471731
112	0xbe34096e	-0.17581722
113	0xbdadb09e	-0.08480953
114	0xbd5ff25a	-0.054674484
115	0xbdb6be20	-0.08922982
116	0x3e240753	0.16018419
117	0x3ea0cccd	0.3140625
118	0xbd200671	-0.039068643
119	0x3e1c68ab	0.15274303
120	0xbec4c3f1	-0.3843074
121	0x3da58404	0.080818206
122	0xbe0c9104	-0.13727194
123	0x3de4e6e5	0.11176852
124	0xbdd89a36	-0.105762884
125	0xbee67e51	-0.45018247
126	0x3eba74fe	0.36417383
127	0x3e94d6da	0.2907017
128	0xbe9e35bc	-0.3090037
129	0xbea269de	-0.31721395
130	0xbdbc8777	-0.09205525
131	0x3eaa5bbb	0.3327311
132	0x3c29a169	0.010353425
133	0xbe8d0552	-0.27543122
134	0x3ecfff03	0.40624246
135	0x3e858dc1	0.26084712
136	0xbdf03167	-0.11728173
137	0xbe65f3c3	-0.22456269
138	0x3e280eff	0.1641197
139	0x3e2eeed2	0.1708329
140	0xbdf64f8b	-0.1202689
141	0xbce99218	-0.028512046
142	0x3e78dc9d	0.24302907
143	0xbe1360c3	-0.1439238
144	0x3e0d2202	0.13782504
145	0x3eaf5758	0.34246325
146	0x3e0c8c87	0.13725482
147	0x3ddf3af7	0.108999185
148	0xbf226259	-0.63431317
149	0xbe0ea1c8	-0.13928902
150	0x3dc489bb	0.095965825
151	0xbe20b95b	-0.15695707
152	0x3ebf18b6	0.3732354
153	0xbebe8353	-0.37209567
154	0xbe64e58c	-0.2235319
155	0x3e15a9ea	0.14615598
156	0xbc77d4bc	-0.015126403
157	0x3e619944	0.22031122
158	0x3d6567e2	0.056007273
159	0x3ed7d4a2	0.42154413
160	0xbe4a2be7	-0.1974331
161	0xbc82dded	-0.015974963
162	0x3e8d0ae3	0.27547368
163	0x3db20576	0.08692448
164	0xbe775b08	-0.2415582
165	0x3e098274	0.1342867
166	0xbda7bdfe	-0.08190535
167	0xbe00fca4	-0.12596375
168	0xbcfc5f26	-0.030807089
169	0x3eb1d865	0.34735408
170	0xbe565c16	-0.20933565
171	0xbd8ed481	-0.06974126
172	0x3e822975	0.25422254
173	0xbe8615aa	-0.26188403
174	0x3ea729ab	0.32648978
175	0x3db17df3	0.08666601
176	0xbe9a4e66	-0.30137938
177	0x3e87457c	0.264202
178	0xbd7ff952	-0.06249363
179	0xbe572c04	-0.21012884
180	0xbeb17c8e	-0.3466534
181	0x3ebac280	0.36476517
182	0x3d1f7ea7	0.038939144
183	0x3d48c36a	0.049014486
184	0xbd8aa2d3	-0.067693375
185	0xbbe85d0a	-0.0070911692
186	0xbe81fda6	-0.2538883
187	0xbec0213e	-0.37525362
188	0x3c7e4358	0.015518986
189	0x3e0cf617	0.13765751
190	0xbe6c232a	-0.23060289
191	0x3eaea89f	0.34113023
192	0x3e9a6542	0.3015538
193	0xbd72b1e3	-0.059251677
194	0xbe280e66	-0.16411743
195	0xbe94f403	-0.29092416
196	0x3eb8c4dc	0.36087692
197	0xbe04550b	-0.12923066
198	0x3ea9163e	0.33024782
199	0x3c06d4ed	0.008229476
200	0xbea5955b	-0.32340512
201	0xbdc64e5a	-0.09682913
202	0x3d6a6daa	0.05723349
203	0x3d605b3a	0.0547745
204	0x3cbcf5f4	0.023066498
205	0x3d3ba8e2	0.045815356
206	0xbdceba34	-0.10094109
207	0xbe5155e4	-0.20442921
208	0x3cc2ff4c	0.023803376
209	0xbe605a41	-0.21909429
210	0x3d222c5f	0.039593097
211	0x3dcea2ae	0.100896224
212	0x3dd06a77	0.101765566
213	0x3e50a543	0.20375542
214	0xbdfaef2f	-0.12252652
215	0xbe183b41	-0.14866354
216	0x3e88e6ad	0.26738492
217	0x3e794cc5	0.24345692
218	0xbdb03b79	-0.086050935
219	0x3e8aab82	0.27083975
220	0xbd4882e3	-0.04895295
221	0xbe088c4e	-0.13334772
222	0x3cbdf73d	0.023189181
223	0xbe595960	-0.212255
224	0xbe816e11	-0.25279287
225	0xbe93e241	-0.28883556
226	0x3e2752fa	0.16340247
227	0xbe581205	-0.21100624
228	0x3d745028	0.059646755
229	0x3e382181	0.1798153
230	0x3e3518ee	0.17685291
231	0xbdaffa31	-0.08592642
232	0x3cf1d1f2	0.029519055
233	0x3e25dd27	0.16197644
234	0x3eb17923	0.34662732
235	0xbcf636b1	-0.030055376
236	0x3d46d104	0.048539177
237	0xbe2fc5a5	-0.17165239
238	0x3ed5a951	0.4173074
239	0x3e79ffc2	0.2441397
240	0xbe866e1a	-0.26255876
241	0x3da0ec0d	0.07857523
242	0xbd1906f1	-0.037360135
243	0xbd7e9b99	-0.06216011
244	0xbe0379ae	-0.12839386
245	0xbea02b8c	-0.31283224
246	0x3e863173	0.26209602
247	0x3dd0affe	0.10189818
248	0xbe970def	-0.29502818
249	0xbe5da775	-0.21645911
250	0x3dfe5fb8	0.12420601
251	0x3d903d82	0.07042982
252	0xbe43fbe3	-0.19139056
253	0xbec11718	-0.37712932
254	0x3df16b44	0.117880374
255	0x3e3dd693	0.18538885

model.2.weight f4 [128, 256]
0	0x3dceebdc	0.1010358
1	0x3cd15ccd	0.025556946
2	0x3bd5d8f7	0.0065261084
3	0x3ba44871	0.0050135185
4	0x3d860e18	0.06545657
5	0xbd908c9c	-0.07058069
6	0xbda07949	-0.07835633
7	0x3d4aee89	0.04954389
8	0xbd33bd2b	-0.043881577
9	0xbcd4d5da	-0.025980879
10	0x3eb602b6	0.35548943
11	0xbdb1fe06	-0.08691029
12	0x3e9c3535	0.30509344
13	0x3dbc5f42	0.091978565
14	0x3e33d9b8	0.17563522
15	0x3ce9df96	0.028548997
16	0x3c36c3ec	0.01115511
17	0xbbf0070a	-0.007325058
18	0xbe235834	-0.15951616
19	0x3e241e23	0.16027121
20	0xbdd2fdde	-0.103023276
21	0x3d83ec66	0.06441574
22	0x39e845e5	0.00044302564
23	0x3defe950	0.11714423
24	0x3e34c6fb	0.1765403
25	0x3dcd8968	0.10035974
26	0xbd7be0a7	-0.061493542
27	0x3e038e97	0.12847362
28	0xba09255a	-0.0005231701
29	0x3d2562a4	0.040377274
30	0x3e29da9e	0.16587302
31	0xbdc58951	-0.09645332
32	0xbdf69008	-0.120391905
33	0xbcbb931c	-0.022897296
34	0x3db7a298	0.08966559
35	0xbba66101	-0.0050774817
36	0x3b8bba40	0.004264146
37	0x3da89471	0.08231438
38	0xbd3e66e0	-0.046484828
39	0x3e593f18	0.21215475
40	0x3dc5e249	0.09662301
41	0xbe2de922	-0.16983464
42	0x399e7559	0.0003022354
43	0x3dd64847	0.104630046
44	0xbdb0137b	-0.085974656
45	0xbca90eeb	-0.020636996
46	0xbd1cff5e	-0.038329475
47	0xbd2c572a	-0.042075314
48	0x3e3bed8d	0.18352337
49	0x3d373eb0	0.044737518
50	0x3de83d0c	0.11339769
51	0x3d45caed	0.04828923
52	0x3d6eef21	0.05833352
53	0xbd5b0903	-0.05347539
54	0x3e5b2ad4	0.21403056
55	0xbdf3b18b	-0.11899098
56	0x3dc64088	0.09680277
57	0x3d1a9e38	0.037748545
58	0xbd85559c	-0.06510469
59	0xbdf2f7d2	-0.11863674
60	0xbc0224c0	-0.007943332
61	0x3cbbf07a	0.022941817
62	0x3e50eb7f	0.20402335
63	0x3c2ee717	0.010675213
64	0x3d697735	0.05699845
65	0xbd5712c9	-0.05250815
66	0xbc891755	-0.016734758
67	0x3e443e81	0.19164468
68	0xbdb8a27a	-0.09015365
69	0x3e09f8d4	0.13473827
70	0xbe0cd1b3	-0.13751869
71	0x3e892f36	0.26793832
72	0xbd6267bf	-0.05527472
73	0x3e65acfb	0.22429268
74	0x3e7127be	0.23550317
75	0xbcc1c5a6	-0.023653816
76	0x3e78202f	0.24231027
77	0x3df9b83d	0.12193344
78	0x3e4d9ffc	0.2008056
79	0x3e1c56b4	0.1526745
80	0x3d2c3d2b	0.04205052
81	0x3e818857	0.25299332
82	0x3e83f677	0.25773975
83	0x3d93823e	0.07202576
84	0xbc8b1027	-0.016975475
85	0xbe1c4220	-0.152596
86	0x3d9ad2b4	0.0755972
87	0x3e07a24e	0.13245508
88	0x3e415bb3	0.18882637
89	0xbba0dee0	-0.0049093813
90	0x3df0e6f8	0.11762804
91	0xbd517446	-0.051136278
92	0x3dfdb44d	0.12387905
93	0x3b78d8e4	0.0037971074
94	0x3e8ef859	0.2792385
95	0x3a58e842	0.0008274355
96	0x3d3f9710	0.046774924
97	0xbde3a998	-0.11116332
98	0x3e16f31e	0.1474118
99	0x3e76a877	0.24087702
100	0x3e90ac81	0.2825661
101	0x3caf2a7b	0.021382561
102	0xbdec42cb	-0.11536177
103	0x3e4fac94	0.20280677
104	0x3e46a782	0.19399837
105	0x3da900e1	0.08252121
106	0x3ddc62a8	0.10761005
107	0x3dacbb86	0.08434205
108	0x3d97a139	0.07403798
109	0xbd187354	-0.03721936
110	0x3c53ffe4	0.012939427
111	0x3d14a24d	0.036287595
112	0x3c074b6d	0.008257729
113	0xbd1c7e24	-0.038206235
114	0xbe53bd80	-0.20677757
115	0xbca2c906	-0.019871246
116	0xbd8b8623	-0.06812694
117	0x3e54a49e	0.20765921
118	0x3e2215cb	0.15828626
119	0x3c858eb8	0.016303405
120	0x3d3c92e9	0.046038542
121	0x3d8dee9d	0.069302775
122	0xbdf7af3d	-0.12093971
123	0x3e3050a3	0.1721826
124	0x3dbd43da	0.09241457
125	0xbd9a5f88	-0.075377524
126	0x3e5951e7	0.2122265
127	0x3db5e420	0.08881402
128	0x3de89585	0.113566436
129	0x3af939aa	0.0019014378
130	0x3dc31259	0.09524984
131	0x3e89fb79	0.2694967
132	0x3db2c3e2	0.08728768
133	0x3c877b70	0.016538352
134	0x3e16538d	0.1468031
135	0x3e74144c	0.23835868
136	0x3d96fea1	0.07372785
137	0xbd839e6d	-0.06426702
138	0x3e16241e	0.14662215
139	0x3f00623e	0.50149906
140	0xbdca15f0	-0.098674655
141	0xbdaa3e2d	-0.0831264
142	0x3cfa68d4	0.030567564
143	0x3d22bf09	0.039732967
144	0xbd5749c0	-0.052560568
145	0x3d3c0e2d	0.045911957
146	0x3d9bb123	0.076021455
147	0x3e2f4617	0.17116581
148	0xbd18547e	-0.037189953
149	0xbc5b29b2	-0.01337664
150	0x3e350580	0.1767788
151	0xbdb018f6	-0.08598511
152	0x3e6dd2cc	0.23224944
153	0x3cd4b433	0.025964832
154	0x3d47dd0e	0.0487948
155	0x3e25c1fd	0.16187282
156	0xbcd0f17c	-0.025505774
157	0x3e03a52b	0.12855975
158	0x3ce884d7	0.028383655
159	0x3dc72116	0.097231075
160	0x3bb91ca1	0.005649165
161	0x3d6165e0	0.055028796
162	0x3d776f9c	0.060409173
163	0xbdc4a209	-0.09601218
164	0xbc893dc8	-0.016753092
165	0x3de97b0f	0.11400425
166	0x3e390ed6	0.18072066
167	0x3dd6baa5	0.10484818
168	0x3c1e3531	0.0096562365
169	0x3e0eb296	0.13935313
170	0x3e83f631	0.25773767
171	0xbd1c131b	-0.038104158
172	0x3d50633b	0.050875884
173	0xbbd7b444	-0.0065827686
174	0x3e66e5e7	0.22548638
175	0x3d5a8bce	0.053355984
176	0x3a296ad7	0.0006462759
177	0x3da0778c	0.07835302
178	0xbd07dba8	-0.033168465
179	0xbe8bf437	-0.2733476
180	0x3d82479f	0.06361317
181	0x3e820674	0.25395548
182	0xbe2b6a24	-0.16739708
183	0xbd305e7a	-0.04305885
184	0xbd2b39f9	-0.041803334
185	0xbd570ba2	-0.05250133
186	0xbda4339c	-0.08017656
187	0x3d01ef57	0.031722393
188	0x3db8fa82	0.090321556
189	0xbc680102	-0.0141603965
190	0xbd8cc159	-0.06872816
191	0x3d2fde77	0.04293677
192	0xbe6ca60e	-0.2311022
193	0x3e3f5215	0.18683656
194	0xbd859d92	-0.06524195
195	0x3c1bc429	0.009507217
196	0x3dabf32c	0.08395991
197	0xbe3c38ca	-0.18381038
198	0x3e19d0cc	0.15021056
199	0xbdf4d4ef	-0.11954676
200	0x3e8593fe	0.26089472
201	0x3dd2cdef	0.10293185
202	0x3e1c5ef2	0.15270594
203	0xbf003785	-0.50084716
204	0xbb36f9ee	-0.0027919966
205	0x3da4bfdc	0.08044407
206	0x3dc79cf3	0.097467326
207	0xbd917729	-0.07102806
208	0x3c374764	0.011186454
209	0x3d664bc6	0.056224607
210	0x3e998c9c	0.2999009
211	0xbb35a538	-0.0027716886
212	0xbcb1d66c	-0.02170869
213	0x3d374e7d	0.044752587
214	0x3cec71a1	0.028862776
215	0xbe101259	-0.14069499
216	0xbdb3c317	-0.08777445
217	0x3db2f3b9	0.08737893
218	0x3d19831a	0.037478544
219	0xbe7cd453	-0.2469037
220	0xbdf2342e	-0.11826359
221	0x3dac6319	0.08417339
222	0x3d1862a1	0.037203435
223	0xbe1ff23a	-0.15619746
224	0x3e2a8713	0.16653089
225	0xbd4f0abf	-0.050547358
226	0x3d69819a	0.057008363
227	0xbd50937a	-0.050921895
228	0xbcfbf0d1	-0.030754479
229	0x3dd36b2a	0.10323174
230	0x3e319c3d	0.17344756
231	0x3dbf323b	0.093357526
232	0x3c38c740	0.011277974
233	0xbd82a804	-0.06379703
234	0x3d3d6b2b	0.04624478
235	0x3d841823	0.06449916
236	0xbe11356f	-0.1418054
237	0xbd3bebd5	-0.045879204
238	0x3e873c92	0.264134
239	0xbef75246	-0.48304957
240	0x3c1608ac	0.009157341
241	0x3dd524b1	0.10407389
242	0x3d48712d	0.048936058
243	0xbdbe1942	-0.09282161
244	0x3e3c7de9	0.18407406
245	0xbe10ce62	-0.14141229
246	0x3baaeb3b	0.00521603
247	0x3de0dd4d	0.1097971
248	0x3e639702	0.22225574
249	0x3d9c269e	0.07624553
250	0x3e06652c	0.13124532
251	0xbc841e5b	-0.016127756
252	0x3c93f10a	0.018059272
253	0xbce8276f	-0.028339116
254	0x3c89cb46	0.016820561
255	0xbd7f681e	-0.062355153

model.2.bias f4 [128]
0	0x3eb3c568	0.35111547
1	0xbb241c3c	-0.0025041243
2	0xbc8c9d5b	-0.017164877
3	0xbd4f7be0	-0.050655246
4	0xbdb0ed55	-0.086390175
5	0x3e343f1e	0.17602202
6	0xbd91c59e	-0.071177706
7	0x3d17f129	0.037095223
8	0xbd2e27ef	-0.042518552
9	0xbcd29d27	-0.025709702
10	0xbd7e0908	-0.06202033
11	0xbe88d4ea	-0.2672494
12	0xbcfac3b1	-0.030610891
13	0x3ab546c1	0.001383029
14	0xbd912e0a	-0.070888594
15	0xbc70e07a	-0.014701957
16	0xbc14fb10	-0.009093061
17	0x3e661c1e	0.22471663
18	0xbdb362b8	-0.087590635
19	0xbd3368ed	-0.043801237
20	0x3cd91454	0.026498951
21	0x3e9bc67b	0.30424866
22	0x3ba7fdef	0.005126707
23	0x3e9e74df	0.3094854
24	0x3df60c7c	0.120141
25	0x3e8ac344	0.271021
26	0xbdb527c5	-0.08845476
27	0xbd3d6bd6	-0.04624542
28	0x3a8e2f30	0.0010847803
29	0xbccd8c9a	-0.025091458
30	0x3dfad84b	0.12248286
31	0xbd84cd84	-0.064845115
32	0x3eab3abd	0.3344325
33	0xbcacea66	-0.021107864
34	0x3bebc43c	0.007195024
35	0xbd8890ff	-0.06668281
36	0x3b8679a3	0.0041038557
37	0x3d4116bf	0.047140833
38	0xbc6fd169	-0.01463733
39	0xbd597df6	-0.05309864
40	0x3e6d40e5	0.23169287
41	0xbc32b545	-0.010907476
42	0x3d8ae64f	0.06782209
43	0xbd6a14e3	-0.057148825
44	0xbda9b3fd	-0.08286283
45	0xbe241ec2	-0.16027358
46	0x3c2df655	0.010617812
47	0x3e8037bb	0.2504252
48	0xbdfbf2da	-0.1230218
49	0x3eb40cad	0.3516592
50	0x3c481619	0.0122123
51	0xbcb5400e	-0.02212527
52	0xbcaaafd3	-0.020835793
53	0xbc964498	-0.018343255
54	0xbdc22c73	-0.09481134
55	0x3d12a606	0.035802864
56	0xbd2b475d	-0.041816104
57	0x3e204bf7	0.15653978
58	0x3e8328d8	0.256171
59	0xbd033028	-0.032028347
60	0xbd6568ef	-0.056008276
61	0x3eaba53e	0.33524507
62	0xbe91f5c0	-0.28507805
63	0x3e12888e	0.14309904
64	0x3d2a15be	0.04152464
65	0xbba541ee	-0.00504326
66	0x3ea0f92c	0.31440103
67	0xbdca6cc2	-0.09884025
68	0x3e479512	0.1949046
69	0x3e90342e	0.2816481
70	0xbdcaf4ed	-0.09909997
71	0x3e1d3e04	0.15355688
72	0xbd9ba227	-0.075992875
73	0x3e04e8c7	0.12979423
74	0x3eb47c2f	0.35250995
75	0x3cc28ecd	0.023749733
76	0xbcd371d6	-0.025811117
77	0xbdb5c6dd	-0.08875821
78	0x3e44b151	0.19208266
79	0xbcf0853c	-0.029360406
80	0x3b70ca77	0.0036741772
81	0x3d45711d	0.048203576
82	0xbc8957e0	-0.016765535
83	0x3e2aff05	0.16698845
84	0xbd90d544	-0.07071927
85	0x3d801b9c	0.06255266
86	0x3e45b74f	0.19308208
87	0xbd70a3ec	-0.058750078
88	0x3e83d072	0.2574497
89	0x3de27156	0.11056773
90	0x3eb0c345	0.3452398
91	0xbcdaed33	-0.026724434
92	0xbd642ad2	-0.0557049
93	0xbbd99d01	-0.006641031
94	0x3c202089	0.009773382
95	0xbcf572e0	-0.029962003
96	0x3e907b42	0.28219038
97	0x3c44b442	0.012005867
98	0x3d83a4aa	0.064278916
99	0x3ce39b0c	0.027783893
100	0xbbe79ab2	-0.0070680017
101	0x3e5026a1	0.20327236
102	0x3e216cf2	0.15764216
103	0x3e59b4fb	0.21260445
104	0xbdd1fdab	-0.102534615
105	0xbe872687	-0.26396582
106	0xbd588a74	-0.052866414
107	0xbdb8ac84	-0.0901728
108	0x3e3c8938	0.1841172
109	0x3ecc56e6	0.39910048
110	0x3d8d336e	0.06894575
111	0xbd5d1f65	-0.05398502
112	0x3cf68217	0.030091329
113	0x3d023038	0.031784266
114	0x3ea80c65	0.32821956
115	0x3dcc5fbc	0.099791974
116	0xbe0f72f7	-0.140087
117	0x3e15c025	0.14624079
118	0x3ebc6c38	0.36801314
119	0x3dc209e4	0.09474543
120	0x3e6c9170	0.23102355
121	0x3ebc96b6	0.36833733
122	0xbd124293	-0.03570802
123	0xbd91075e	-0.07081483
124	0xbd3d8468	-0.04626885
125	0xbcd045dc	-0.025423937
126	0x3d9e768c	0.07737455
127	0xbc18c193	-0.009323495

model.4.weight f4 [64, 128]
0	0x3d942712	0.072340146
1	0x3d0c6829	0.034279022
2	0x3ddd65fb	0.10810467
3	0xbdc053b2	-0.093909636
4	0xbdfcfdb3	-0.12353077
5	0xbd4e3c82	-0.050350673
6	0x3d7e9c63	0.06216086
7	0x3d2cc2fb	0.042178135
8	0xbe189dae	-0.149039
9	0xbc6ec38b	-0.014572988
10	0xbca5e977	-0.020252926
11	0xbebf3b1d	-0.37349787
12	0xbd902203	-0.07037737
13	0xbd464f44	-0.048415437
14	0xbe89ee84	-0.26939785
15	0x3dbe1a0b	0.09282311
16	0x3caa6794	0.020801343
17	0x3d4c7331	0.049914543
18	0xbd0b9d6b	-0.034085672
19	0xbd468722	-0.048468716
20	0x3c049fd0	0.008094743
21	0xbed2e126	-0.411874
22	0x3dd1ddac	0.10247359
23	0x3dfe33a5	0.12412194
24	0x3e7a67fb	0.24453728
25	0xbef5af46	-0.47985286
26	0x3e1efd4c	0.15526313
27	0xbd09d5c1	-0.033651117
28	0x3d82c847	0.06385856
29	0x3d569582	0.052388676
30	0xbd74f211	-0.059801165
31	0x3d4e4789	0.05036119
32	0xbcb303ca	-0.021852393
33	0xbce64641	-0.028109672
34	0x3e738a12	0.23783138
35	0x3d28ae56	0.041181885
36	0xbc720888	-0.014772542
37	0x3e3290e6	0.17438087
38	0x3bb7b6a2	0.0056064883
39	0x3d0b48c5	0.034004945
40	0x3e25b594	0.16182548
41	0xbdc57f7d	-0.09643457
42	0xbe0d37c5	-0.13790806
43	0xbc993f21	-0.01870686
44	0x3c0259df	0.007955997
45	0xbd9d4119	-0.07678432
46	0xbc279085	-0.010227327
47	0xbe12e30f	-0.14344428
48	0xbe77ac61	-0.24186851
49	0xbf022c26	-0.50848615
50	0xbd2698d7	-0.040673103
51	0xb9eac10c	-0.0004477579
52	0x3ca1b112	0.019737754
53	0x3d7fcf3e	0.0624535
54	0x3d9f9263	0.07791593
55	0xbd054137	-0.032532897
56	0xbcc47c05	-0.023984918
57	0xbcdb6931	-0.026783558
58	0xbd9e5620	-0.07731271
59	0xbc9d0487	-0.019167198
60	0x3d85323e	0.065037236
61	0x3d4c5be3	0.049892318
62	0x3f01b9da	0.5067421
63	0x3e69743f	0.2279825
64	0xbe0ed4f6	-0.13948426
65	0x3da43d05	0.08019451
66	0x3e0b7d35	0.13621981
67	0xbce411ea	-0.027840573
68	0xbe0e08fd	-0.13870616
69	0x3e8550c0	0.2603817
70	0xbd5996d1	-0.053122345
71	0x3f04d9c1	0.51894766
72	0x3d118205	0.035524387
73	0xbe2a86e0	-0.16653013
74	0x3d1fd29e	0.03901922
75	0xbd18de47	-0.037321355
76	0xbd87a157	-0.0662257
77	0x3ca11465	0.019663045
78	0x3ed14af7	0.40877506
79	0x3df615bc	0.12015864
80	0x3c76c554	0.015061695
81	0xbda0aa65	-0.07845
82	0x3d66ecbd	0.056378115
83	0x3f0c28cc	0.5474975
84	0x3db4eeb8	0.088345945
85	0xbdb20f8e	-0.08694373
86	0xbd7371a2	-0.05943454
87	0x3da7b823	0.08189418
88	0x3e87655b	0.26444516
89	0x3cde16c7	0.02711047
90	0xbeaa37b2	-0.33245617
91	0xbd1d68e4	-0.03843011
92	0x3cfe824b	0.031067988
93	0x3db1f3e8	0.086890996
94	0x3e878355	0.26467386
95	0xbdd5d30e	-0.10440646
96	0xbea67a5b	-0.32515225
97	0x3d958e64	0.073025495
98	0xbd96c1a0	-0.0736115
99	0xbd2552c4	-0.040362135
100	0x3a99ab0e	0.0011723952
101	0x3dc82568	0.0977276
102	0x3d6ef234	0.05833645
103	0x3e2faef3	0.17156582
104	0xbd221864	-0.039574042
105	0xbec1221d	-0.3772134
106	0xbd26c048	-0.040710717
107	0xbdc43ac5	-0.09581522
108	0xbcdb767e	-0.0267899
109	0x3d15d12d	0.03657644
110	0x3e116732	0.14199522
111	0x3cb869f8	0.022511467
112	0x3e2a6444	0.16639811
113	0x3e1f1c32	0.155381
114	0x3e5c2979	0.21500196
115	0xbe25512f	-0.1614425
116	0xbc255ac7	-0.010092444
117	0xbdb9b6e9	-0.090680905
118	0xbdccd791	-0.100020535
119	0x3e2b5287	0.167307
120	0x3d92fa70	0.071766734
121	0x3e9286fc	0.2861861
122	0x3d00ba7d	0.03142785
123	0xbd2f9bea	-0.0428733
124	0xbd54cea0	-0.051954865
125	0xbcf79994	-0.030224599
126	0xbe200dc9	-0.15630259
127	0xbd798041	-0.060913328
128	0x3c6b1a92	0.014349597
129	0x3d644652	0.055731125
130	0x3c406af1	0.011744247
131	0xbc7b1b1d	-0.0153262885
132	0xbc9a39e1	-0.018826427
133	0x3dca109c	0.09866449
134	0xbbe1a8e8	-0.0068865903
135	0x3c0059ed	0.00783394
136	0x3d612e66	0.05497589
137	0xbd0629c8	-0.03275469
138	0xbd874b8f	-0.066062085
139	0x3d77ec43	0.06052805
140	0x3d33f423	0.043934
141	0x3caa2534	0.020769693
142	0xbdc257c4	-0.09489396
143	0x3d4135c6	0.047170423
144	0xbca35709	-0.019938963
145	0xbdb528bb	-0.08845659
146	0xbd7bdb7a	-0.061488606
147	0x3d8d6b1a	0.069051936
148	0xbda86644	-0.082226306
149	0xbdabc9f0	-0.08388126
150	0x3d883cbf	0.066522114
151	0x3d673543	0.05644728
152	0x3c9a956e	0.018870082
153	0xbd6f5aa9	-0.05843607
154	0xbdc57fa3	-0.096434854
155	0xbbda9160	-0.006670162
156	0xbbe14779	-0.0068749753
157	0xbd4106da	-0.047125675
158	0xbd34801c	-0.044067487
159	0x3d3a855e	0.045537345
160	0xbd8d986a	-0.06913836
161	0xbd4d024e	-0.050051026
162	0xbd000f05	-0.031264324
163	0xbdb2e6a6	-0.08735399
164	0x3d7b76fb	0.061392765
165	0xbc1f7ff4	-0.009735096
166	0x3c9d54b0	0.019205421
167	0x3d0eb9fb	0.034845334
168	0x3c9a56a0	0.018840134
169	0x3d12af10	0.035811484
170	0xbca6e8a9	-0.020374613
171	0x3d9cd315	0.07657448
172	0xbc090740	-0.008363545
173	0xbd9cc064	-0.07653883
174	0x3d03b9c1	0.03215957
175	0x3d86468a	0.06556423
176	0xbd01ec2e	-0.03171938
177	0xbc905b10	-0.017621547
178	0x3c5400ea	0.012939671
179	0x3d9a1df9	0.07525248
180	0xbda80580	-0.08204174
181	0xbd23cc7e	-0.03998994
182	0xbd57ecbe	-0.05271601
183	0xbd9317ae	-0.07182251
184	0xbd7add1f	-0.061246034
185	0xbc3c7178	-0.011501662
186	0xbdb56d35	-0.0885872
187	0xbd9f4b12	-0.077779904
188	0xbd59b634	-0.053152278
189	0x3d9dced5	0.07705466
190	0x3d3df540	0.046376467
191	0xbcac6477	-0.021044
192	0xbbb28da2	-0.005449013
193	0xbd8a2c1a	-0.06746693
194	0xbd1a53e7	-0.03767767
195	0x3c903720	0.01760441
196	0xbd2e1c91	-0.04250771
197	0xbdc6c71d	-0.097059466
198	0xbc993e9c	-0.018706612
199	0xbd9f1db9	-0.07769341
200	0xbb27a2e0	-0.0025579259
201	0x3ce92a24	0.028462477
202	0xbc7040dc	-0.014663901
203	0x3ad723aa	0.0016413827
204	0xbd830a42	-0.06398441
205	0x3d5d4a36	0.05402585
206	0xbd3b724c	-0.0457633
207	0x3c806113	0.015671289
208	0x3d182306	0.037142776
209	0x3ced5eb1	0.028975816
210	0x3d25a135	0.040436942
211	0x3c6ea786	0.014566308
212	0xbd3a4fe0	-0.04548633
213	0x3d66c0f2	0.05633635
214	0xbdab8715	-0.08375374
215	0x3d80a883	0.06282141
216	0xbc98214e	-0.018570568
217	0xbd92a6f3	-0.07160749
218	0xbd13f856	-0.036125503
219	0xbcf1fd68	-0.029539779
220	0xbd54603a	-0.05184958
221	0x3d39caee	0.045359544
222	0xbd13ae38	-0.03605482
223	0x3d61b7ef	0.055107053
224	0xbd86d730	-0.065840125
225	0x3d40950e	0.04701715
226	0xbdadef31	-0.08492888
227	0x3c974dea	0.01846977
228	0xbdbae1ac	-0.09125075
229	0xbd888a7c	-0.06667039
230	0xbda8eab8	-0.08247894
231	0x3b71ef3c	0.0036916276
232	0x3d8776ad	0.066144325
233	0xbcbad130	-0.022804826
234	0x3d714722	0.05890573
235	0x3d658645	0.056036253
236	0xbdb8d066	-0.09024124
237	0xbd1e22c0	-0.03860736
238	0xbdcd1a51	-0.10014785
239	0xbcbc8c91	-0.023016246
240	0xbda10067	-0.07861405
241	0x3c0638b7	0.008192233
242	0x3ca16160	0.019699752
243	0xbd3e1a7c	-0.046411976
244	0xbc66ccb0	-0.014086887
245	0xbdca5080	-0.098786354
246	0x3b906698	0.0044067614
247	0xbcf0a55e	-0.029375728
248	0x3d740fdc	0.059585437
249	0xbd5548a8	-0.052071244
250	0xbd4854d7	-0.048909035
251	0xbd2f2c18	-0.04276666
252	0x3d35ecf6	0.044415437
253	0xbcc8d154	-0.024513878
254	0x3b80b801	0.003928185
255	0x3d5b6f2e	0.053572826

model.4.bias f4 [64]
0	0x3e94100c	0.28918493
1	0xbbc4a6aa	-0.006001313
2	0x3e138b18	0.14408529
3	0x3da8552a	0.08219369
4	0x3eef358e	0.46720546
5	0x3e26ce36	0.162896
6	0x3dc1d7f2	0.094650164
7	0xbc8ac454	-0.01693932
8	0x3e49df9a	0.19714203
9	0x3b96fc75	0.004607732
10	0x3e7daf08	0.247738
11	0xbd965f94	-0.07342449
12	0x3eea9c9c	0.45822608
13	0xbdb17625	-0.086651124
14	0x3e6d6555	0.23183186
15	0xbcd1c65c	-0.02560728
16	0x3baad89c	0.00521381
17	0x3efdb240	0.49550056
18	0xbddc34d3	-0.10752263
19	0x3b13c4e8	0.0022547785
20	0x3dedb336	0.116064474
21	0xbe4a52e6	-0.19758186
22	0x3e8832ec	0.2660135
23	0x3b6d181d	0.0036177703
24	0x3cb1bc66	0.02169628
25	0x3da60b43	0.08107617
26	0x3b1a9d41	0.0023592266
27	0x3f122750	0.57091236
28	0xbdee4831	-0.11634863
29	0x3b88b5e6	0.0041720746
30	0xbd424dae	-0.047437362
31	0x3d053fca	0.032531537
32	0x3e9202aa	0.28517658
33	0xbdfe0077	-0.124024324
34	0xbd843b6a	-0.06456645
35	0x3de46cbf	0.11153554
36	0x3c3b082c	0.011415523
37	0x3cfaa413	0.030595815
38	0xbdbf3219	-0.09335727
39	0x3db6e124	0.08929661
40	0x3dfc8da6	0.12331705
41	0x3ecb9d6b	0.39768538
42	0xbdb8e47e	-0.090279564
43	0x3e6cf8b2	0.23141745
44	0xbdbdd150	-0.09268439
45	0x3ec09653	0.37614688
46	0xbdf9a365	-0.12189368
47	0x39d5eb97	0.00040802054
48	0xbd58a9cd	-0.05289631
49	0xbdc23ffc	-0.0948486
50	0x3d01f99e	0.031732194
51	0x3ee3fccf	0.44528815
52	0x3d3a04e9	0.04541484
53	0x3e485354	0.19563037
54	0x3e7f5390	0.2493422
55	0x3d5cdc2d	0.053920913
56	0x3d90146f	0.070351474
57	0xbd8f55a4	-0.069987565
58	0xbdb34ed1	-0.087552674
59	0x3e424802	0.18972781
60	0xbd02707e	-0.031845562
61	0xbe020dcf	-0.1270058
62	0xbd20484b	-0.039131444
63	0x3be792cb	0.0070670596

model.6.weight f4 [32, 64]
0	0x3d08ad21	0.033368234
1	0xbd5da2c8	-0.05411032
2	0x3c760424	0.015015636
3	0xbdeacc8b	-0.11464795
4	0xbe207a2d	-0.15671606
5	0x3d7ab823	0.061210763
6	0x3d7b8a27	0.06141105
7	0x3dc3c2fb	0.09558674
8	0x3d18d3bc	0.0373113
9	0xbbf95959	-0.007609528
10	0xb967e5f2	-0.00022115538
11	0xbd49ea4c	-0.04929571
12	0xbd9e2056	-0.07721011
13	0xbda37ce4	-0.07982805
14	0xbd58a658	-0.052893013
15	0xbdb9cae2	-0.090719
16	0xbd91da4f	-0.07121717
17	0xbe194d53	-0.14970903
18	0xbb2da080	-0.002649337
19	0x3d909dad	0.07061324
20	0xbdf51da8	-0.11968547
21	0x3d84d0a2	0.06485106
22	0x3d9cdc7c	0.076592416
23	0x3d668f93	0.056289267
24	0xbdf968fc	-0.12178227
25	0xbe109410	-0.14118981
26	0xbced0d37	-0.028936965
27	0x3d2f9c6a	0.042873777
28	0x3d7bf2de	0.061510913
29	0xbdb52c1d	-0.088463046
30	0xbdfa5759	-0.122236915
31	0x3d84bf99	0.06481857
32	0x3da1efbd	0.079070546
33	0x3d2ee008	0.04269412
34	0x3d61c51f	0.05511963
35	0xbde95fd7	-0.11395233
36	0xbc2be2cd	-0.010491085
37	0xbd69674d	-0.05698328
38	0xbe032ddb	-0.12810461
39	0xbde53be9	-0.111930676
40	0x3d4cc3c3	0.04999138
41	0xbd3d7c74	-0.046261266
42	0x3bebc4e0	0.0071951
43	0xbe20e52b	-0.1571242
44	0x3c8f1828	0.017467573
45	0xbd0300f9	-0.03198335
46	0xbdcad19b	-0.0990326
47	0x3bc2cb35	0.0059446343
48	0xbdbec990	-0.09315789
49	0xbdc23dd9	-0.09484453
50	0x3d2fdbba	0.042934157
51	0xbda8e3ea	-0.08246596
52	0xbe0d1f58	-0.13781488
53	0xbd3fbe12	-0.046812125
54	0xbe079072	-0.13238695
55	0x3ccf598b	0.025311252
56	0xbda49c2d	-0.08037601
57	0xbdf805cc	-0.12110481
58	0xbd611246	-0.054949068
59	0x3d45d13e	0.048295252
60	0xbd0ca8bd	-0.03434061
61	0xbd9dcf24	-0.077055246
62	0x3dc5cff4	0.096588045
63	0x3dbea047	0.09307914
64	0x3ca00c63	0.019537156
65	0xbde1a7aa	-0.110183075
66	0xbe5650f6	-0.20929322
67	0x3e175d3a	0.14781657
68	0x3eb68458	0.35647845
69	0xbdbae5aa	-0.09125836
70	0xbd33de03	-0.0439129
71	0x3dd01130	0.10159528
72	0xbe1fee69	-0.1561829
73	0xbdf97f25	-0.12182454
74	0x3e00dc70	0.1258409
75	0xbdb7168b	-0.089398466
76	0x3edc2140	0.42994118
77	0x3d81cca7	0.063378625
78	0xbde430e5	-0.111421384
79	0x3e425a83	0.1897984
80	0xbc5e9a80	-0.01358664
81	0x3e83c3e8	0.25735402
82	0x3df3f9e6	0.11912899
83	0x3dc29865	0.09501723
84	0x3d5e7953	0.054314923
85	0xbd6c5bbf	-0.057704683
86	0xbd374631	-0.044744674
87	0x3ca94db3	0.020666933
88	0x3ec68da1	0.3877993
89	0x3ea9d65a	0.3317135
90	0xbd15c7c9	-0.036567483
91	0x3eca7d37	0.39548656
92	0xbd3b3165	-0.045701403
93	0x3c727665	0.014798735
94	0xbe2ef16a	-0.1708428
95	0xbc154121	-0.009109766
96	0x3e4c3330	0.19941401
97	0xbdb01a2f	-0.08598744
98	0xbd273a64	-0.04082717
99	0x3dfd0fbd	0.123565175
100	0x3e0ca4da	0.13734761
101	0x3d86572f	0.06559598
102	0xbc326fd3	-0.010890919
103	0xbc8c81e5	-0.017151782
104	0x3daac4a9	0.08338291
105	0x3ec8d02b	0.3922132
106	0x3d5e34f8	0.054249734
107	0x3e7fd2f8	0.24982822
108	0xbe189af4	-0.1490286
109	0x3e5542e2	0.20826295
110	0x3d0eaff5	0.034835774
111	0x3e3b78ad	0.18307753
112	0xbdbbac79	-0.09163756
113	0x3b70d738	0.0036749374
114	0x3daebc6b	0.085320316
115	0x3e8ceac3	0.2752286
116	0xbd0de358	-0.03464064
117	0x3e3113ad	0.17292662
118	0x3e965ce6	0.2936775
119	0x3da5177e	0.080611214
120	0x3ec380b7	0.3818414
121	0x3db8568c	0.090008825
122	0x3d864120	0.0655539
123	0x3e3c4d1b	0.18388788
124	0xbcb26da2	-0.021780793
125	0x3c0a55dc	0.008443322
126	0xbe066c21	-0.13127185
127	0x3d85060d	0.06495295
128	0xbd4698d5	-0.048485596
129	0xbce288e6	-0.027653169
130	0xbd822b49	-0.06355912
131	0x3d15ba5f	0.03655469
132	0x3dd1cda8	0.10244304
133	0x3e3da3cf	0.1851952
134	0x3e488df3	0.195854
135	0xbbd9bea9	-0.006645043
136	0x3e83102d	0.2559828
137	0x3d30f0e5	0.043198485
138	0xbd93f919	-0.07225246
139	0xbe371a43	-0.17881112
140	0x3e3f3e26	0.18676051
141	0x3dd7206f	0.10504233
142	0xbe2df50a	-0.16988006
143	0x3e0ced71	0.13762452
144	0x3df539f8	0.11973947
145	0xbd7d52ca	-0.061846532
146	0x3d9538af	0.07286202
147	0x3dfa6c4e	0.12227689
148	0x3e1962e7	0.14979135
149	0x3e46d06b	0.19415443
150	0xbe0f196d	-0.13974543
151	0xbdb5f68a	-0.08884914
152	0x3dd41719	0.10355968
153	0xbb07f3fb	-0.002074479
154	0x3e0a9bdc	0.13536018
155	0xbe14fec9	-0.14550318
156	0x3d9458a5	0.0724347
157	0x3e02f61a	0.12789193
158	0xbc170592	-0.009217637
159	0x3d8b0584	0.067881614
160	0x3e4e413e	0.20142075
161	0x3d8156dc	0.06315395
162	0x3d02fa0c	0.031976745
163	0xbe0a16e0	-0.13485289
164	0xbcc69197	-0.024239345
165	0x3cc08547	0.023501052
166	0xbdc38da5	-0.09548501
167	0x3dd7b3fc	0.10532376
168	0x3c4b5312	0.012409942
169	0x3e114953	0.14188127
170	0x3d026512	0.03183467
171	0xbe4be293	-0.1991065
172	0xbad95178	-0.0016580066
173	0x3b5ca834	0.0033669593
174	0xbca37171	-0.019951554
175	0x3dcde361	0.10053135
176	0x3e28bbef	0.16477941
177	0xbdc1bd77	-0.09459966
178	0x3c82564b	0.015910288
179	0xbbf5a62a	-0.007496615
180	0x3e0cb469	0.13740696
181	0xbdfa8515	-0.12232415
182	0xbbbf6474	-0.0058408324
183	0xbc32b529	-0.01090745
184	0xbdbf2c56	-0.09334628
185	0x3d0b57ec	0.034019396
186	0xbcbddb91	-0.023175986
187	0xbea8b2e4	-0.32948983
188	0x3d8374dc	0.064187735
189	0xbd84f7e0	-0.06492591
190	0x3d54406f	0.05181926
191	0xbcbdee69	-0.023184972
192	0x3d825f53	0.06365838
193	0xbc8d6991	-0.017262252
194	0xbd99da8a	-0.07512386
195	0xbad4998c	-0.0016220077
196	0x3ea586d3	0.32329425
197	0xbe84bf6f	-0.25927302
198	0xbe97a74d	-0.29619828
199	0x3ca53048	0.020164624
200	0xbcec090e	-0.028812911
201	0x3de48953	0.11159005
202	0xbf83d16f	-1.0298289
203	0xbe3e7cac	-0.18602246
204	0x3da74371	0.0816716
205	0x3d3cb7c3	0.046073686
206	0x3d97a273	0.074040316
207	0xbd98ba0f	-0.07457363
208	0x3dbd4075	0.0924081
209	0xbd0adc9f	-0.033901807
210	0xbd039456	-0.032123886
211	0xbe52e60a	-0.20595565
212	0xbde01c8e	-0.109429464
213	0x3d9a337f	0.07529353
214	0x3d9f17d2	0.07768215
215	0xbd323df1	-0.043516103
216	0xbc8dd733	-0.017314529
217	0xbd27e880	-0.040993214
218	0x3e11c61e	0.14235732
219	0x3d0ec073	0.034851503
220	0xbe365d13	-0.17808942
221	0x3dbd16b1	0.09232844
222	0xbe36d4ef	-0.17854665
223	0xbe1d84a0	-0.15382624
224	0x3edb223b	0.42799553
225	0x3c97449a	0.018465329
226	0xbdd58e7f	-0.104275696
227	0xbe3ed727	-0.18636762
228	0xbdd89c8a	-0.105767325
229	0xbd800f2c	-0.06252894
230	0xbdba6caa	-0.09102757
231	0xbcd45e5e	-0.025923904
232	0x3dc5a411	0.09650434
233	0xbe51eeac	-0.20501202
234	0x3c6dd6f6	0.014516583
235	0x3d558fc9	0.052139077
236	0xbd9f396f	-0.077746265
237	0xbf145661	-0.57944304
238	0xbdd470bb	-0.10373064
239	0x3ddd6f58	0.10812253
240	0xbd391f3f	-0.045195814
241	0x3c68fe74	0.014220823
242	0x3d3db07b	0.046310883
243	0xbc4164d5	-0.011803825
244	0xbe90db87	-0.28292486
245	0xbe143acf	-0.14475559
246	0xbe029f15	-0.12755997
247	0xbdb3779f	-0.0876305
248	0xbcdf4f51	-0.0272595
249	0xbd7c55f1	-0.061605398
250	0x3e047bef	0.12937902
251	0xbf31d306	-0.6946262
252	0x3df85dae	0.12127243
253	0x3d309bdb	0.043117385
254	0x3d0fd7d0	0.035117924
255	0xbdf69d48	-0.12041718

model.6.bias f4 [32]
0	0x3d730cce	0.059338383
1	0x3f17ec24	0.59344697
2	0xbe2cf0f6	-0.16888794
3	0x3de46347	0.11151748
4	0x3e41a827	0.18911801
5	0x3ef6c0ae	0.48193878
6	0x3ea8778d	0.3290371
7	0xbbe77177	-0.0070630866
8	0x3dc5155c	0.096232146
9	0x3e9ae9e5	0.30256572
10	0x3f2b19ae	0.6683606
11	0xbd57dac3	-0.05269886
12	0xbda3558a	-0.079753
13	0xbe1effff	-0.15527342
14	0x3c1cfc48	0.009581633
15	0x3e8c548f	0.27408263
16	0x3ed193fc	0.40933216
17	0x3d6e3724	0.058158055
18	0x3e62b114	0.22137862
19	0x3e8d160d	0.27555886
20	0x3d7c7e35	0.061643798
21	0x3eaa1859	0.332217
22	0xbe12d011	-0.14337184
23	0xbdd2ed18	-0.10299128
24	0xbd9acdf5	-0.075588144
25	0x3d557a36	0.052118503
26	0x3df2705d	0.11837838
27	0x3f0a8583	0.5410997
28	0x3ec90920	0.39264774
29	0x3e9f089c	0.31061256
30	0x3d647171	0.05577225
31	0x3e2809ac	0.1640994

model.8.weight f4 [10, 32]
0	0x3d241a6a	0.040064253
1	0x3e04ca4b	0.12967794
2	0xbe8f34dd	-0.2797002
3	0x3e312574	0.17299443
4	0x3e115f08	0.14196408
5	0x3ea48ed9	0.32140234
6	0x3d93f7a7	0.0722497
7	0xbddc6c53	-0.10762849
8	0xbe0c97da	-0.13729802
9	0x3d88e05c	0.06683418
10	0x3e98bcbb	0.2983149
11	0xbe3db22e	-0.18525001
12	0x3ca3ed31	0.020010563
13	0xbc025aa0	-0.007956177
14	0x3e3058a7	0.17221318
15	0x3e53bbf2	0.20677164
16	0x3e6bd6ec	0.23031205
17	0xbeae6079	-0.34057978
18	0xbadf2491	-0.0017024447
19	0x3c89a6fd	0.016803259
20	0xbdb50c94	-0.0884029
21	0x3eb19455	0.3468348
22	0x3daa8072	0.0832528
23	0xbd9a3d3d	-0.075312115
24	0xbd4aeed0	-0.049544156
25	0xbe40ceb0	-0.18828845
26	0xbce5973d	-0.028026218
27	0x3e96389d	0.29340068
28	0x3dcdb2cf	0.10043871
29	0x3de75cdb	0.11297008
30	0xbc38ae9c	-0.011272099
31	0xbe2d4fb8	-0.16924942
32	0x3c9301c3	0.017945176
33	0x3e8c8a57	0.27449295
34	0xbdfbef84	-0.12301543
35	0x3e6bd21c	0.23029369
36	0x3d2c4f1c	0.042067632
37	0x3e9150bd	0.2838191
38	0x3dcb94b2	0.09940471
39	0xbd2811b4	-0.041032508
40	0xbe26b5d2	-0.16280296
41	0x3bb8e85a	0.005642933
42	0x3dd6bd9b	0.10485383
43	0xbe399ba3	-0.18125777
44	0x3d8f0044	0.069824725
45	0x3be588df	0.0070048417
46	0xbe029d0d	-0.12755223
47	0x3e3d223f	0.18470095
48	0x3e4385cc	0.19094008
49	0xbe8e0090	-0.27734804
50	0x3dae862f	0.08521687
51	0x3dc77074	0.097382456
52	0xbe08263b	-0.13295834
53	0x3d9a017a	0.07519813
54	0xbd6dd98d	-0.0580688
55	0xbd49d5d8	-0.049276203
56	0xbe0f7bd4	-0.1401208
57	0xbe8207dc	-0.2539662
58	0x3dd6a694	0.10480991
59	0x3eceeec6	0.40416545
60	0x3cc028bf	0.02345693
61	0x3e85d8aa	0.26141864
62	0xbdeb63b7	-0.114936285
63	0xbe3ca00e	-0.18420431
64	0x3e1d2aad	0.15348311
65	0x3eca5f6f	0.39525935
66	0xbdf5f295	-0.120091595
67	0x3e10c34b	0.14136998
68	0x3e1adfc7	0.15124427
69	0x3eb7d147	0.35901853
70	0x3d3f07f0	0.04663843
71	0x3b9bbd06	0.004752758
72	0xbe054e1a	-0.13018075
73	0x3dba2206	0.09088521
74	0x3e374012	0.17895535
75	0xbd267de8	-0.040647417
76	0x3e06c3d3	0.13160639
77	0x3d661fd7	0.05618271
78	0x3e226198	0.15857542
79	0x3e416fbb	0.18890278
80	0x3ddb4890	0.107071996
81	0xbe86908a	-0.2628215
82	0x3c11946a	0.008885482
83	0x3dd8d780	0.10587978
84	0xbebae5b7	-0.36503384
85	0x3e157b18	0.14597738
86	0x3ddfe796	0.109328434
87	0x3d86fea0	0.065915346
88	0xbe613554	-0.21993
89	0xbe49dffe	-0.19714352
90	0x3da5598b	0.080737196
91	0x3d9b66e4	0.07587984
92	0xbce33b30	-0.027738184
93	0x3df56e13	0.119838856
94	0x3dd80ecd	0.10549698
95	0xbdf0a981	-0.1175108
96	0x3d575b24	0.052577153
97	0x3ead3735	0.33831182
98	0xbe323fc1	-0.17407133
99	0xbe79105d	-0.24322648
100	0x3e200de7	0.15630303
101	0x3e17c238	0.14820182
102	0x3d0a06a9	0.033697758
103	0xbc9a078f	-0.018802432
104	0xbe52f884	-0.20602614
105	0x3e1275b0	0.14302707
106	0x3ea98c54	0.33114874
107	0xbe68c79d	-0.22732396
108	0x3d6c7faa	0.057738937
109	0x3c240771	0.01001154
110	0x3e04b9f1	0.12961556
111	0x3e3f4599	0.18678893
112	0x3df01595	0.117228664
113	0xbe49e788	-0.19717228
114	0x3baa1179	0.005190071
115	0x3e1e8a6b	0.1548249
116	0xbd0100c0	-0.031494856
117	0x3db5d1f2	0.088779345
118	0xbdfa4491	-0.12220109
119	0xbce570d8	-0.02800791
120	0xbe61b509	-0.22041716
121	0xbe97aa7f	-0.29622266
122	0x3c0489ab	0.008089463
123	0x3e3c213e	0.18372056
124	0x3d6c889a	0.05774746
125	0x3e902097	0.28149864
126	0x3bc3ff94	0.005981395
127	0xbe0ac55b	-0.13551848
128	0xbe02b71b	-0.12765162
129	0x3d28b035	0.04118367
130	0xbe5d49c2	-0.21610168
131	0x3e073c7a	0.13206664
132	0x3d3e510e	0.04646402
133	0x3eab5d4b	0.33469614
134	0x3cb9fcdb	0.022703579
135	0xbd11a222	-0.035555013
136	0xbe6f7ffa	-0.23388663
137	0xbaf9693d	-0.0019028556
138	0x3ec01669	0.37517098
139	0xbc6acdb4	-0.01433127
140	0x3dcdc837	0.100479536
141	0x3d05f403	0.03270341
142	0x3e2179cf	0.15769123
143	0x3d9fb54c	0.077982515
144	0x3e8ebac0	0.27876854
145	0xbe8af7ff	-0.2714233
146	0x3db520bf	0.088441364
147	0x3e876e68	0.2645142
148	0xbe55fffb	-0.2089843
149	0x3e51d29d	0.20490499
150	0xbe07fb82	-0.13279536
151	0x3b9f22e0	0.0048564523
152	0xbe1403ae	-0.14454529
153	0xbe1de2b1	-0.15418507
154	0x3c3e5ae7	0.0116183525
155	0x3e25b4fb	0.1618232
156	0x3cd64e51	0.026160391
157	0x3e98769e	0.29777998
158	0x3de069bd	0.10957668
159	0xbe57003d	-0.20996185
160	0x3dbbf078	0.09176725
161	0x3e9bd6b1	0.30437234
162	0xbe8e2be2	-0.27767855
163	0xbd2e5d20	-0.04256928
164	0x3a3fd622	0.000731798
165	0x3e95ecca	0.29282218
166	0x3e5fc62c	0.2185294
167	0xbe40b6c8	-0.18819726
168	0xbe31d6d7	-0.17367111
169	0x3e2064a4	0.15663391
170	0x3e550b13	0.20805006
171	0xbe3892ea	-0.18024793
172	0x3d8763ba	0.06610818
173	0xbcb77d21	-0.022398533
174	0x3dddb146	0.10824828
175	0x3e3462cf	0.17615817
176	0x3e8a1678	0.26970267
177	0xbe3eaeda	-0.18621388
178	0x3e061283	0.13092999
179	0x3df84251	0.12122024
180	0xbe196b4a	-0.14982334
181	0x3d745669	0.05965272
182	0x3c927288	0.017876878
183	0xbc782320	-0.015145093
184	0xbe433c3b	-0.19065945
185	0xbe39ce2d	-0.18145056
186	0x3dab89b2	0.08375873
187	0x3e327cb1	0.17430378
188	0x3e7a77b1	0.24459721
189	0x3e117cb9	0.14207734
190	0x3e38911f	0.1802411
191	0xbe61df75	-0.22057898
192	0xbd8c0801	-0.06837464
193	0x3e88eca4	0.26743042
194	0xbd9e651e	-0.0773413
195	0x3d44bb39	0.048030112
196	0x3dab0f32	0.08352508
197	0x3e819c0e	0.25314373
198	0x3df46d01	0.11934853
199	0xbdbc156a	-0.09183772
200	0xbe24cc20	-0.16093493
201	0x3df8c6e1	0.12147308
202	0x3e786d8a	0.24260536
203	0xbba46491	-0.0050168713
204	0xbda32421	-0.079658754
205	0x3d0ffbd8	0.035152286
206	0x3dc520dc	0.09625408
207	0x3c0dfbcd	0.008665991
208	0x3e524635	0.20534594
209	0xbe9fd085	-0.31213775
210	0x3e52cab1	0.20585133
211	0x3bfca213	0.0077097504
212	0xbdf84579	-0.12122626
213	0x3e447cd3	0.19188242
214	0xbd66dca0	-0.05636275
215	0x3e0ca557	0.13734947
216	0xbeab3e1e	-0.3344583
217	0xbe2da6d7	-0.16958176
218	0xbcac6a7f	-0.021046875
219	0x3e4594b5	0.19295008
220	0x3e222129	0.15832962
221	0x3e8b1498	0.2716415
222	0xbba53f8d	-0.0050429762
223	0xbe29946f	-0.16560529
224	0xbdaf7a7a	-0.085682824
225	0x3ec3e058	0.38257098
226	0xbe0e9f11	-0.13927867
227	0x3c39743d	0.011319217
228	0x3e00d04e	0.12579462
229	0x3dae4896	0.085099384
230	0xbe28e504	-0.16493613
231	0x3cbfc6a3	0.023410147
232	0xbe032bc0	-0.12809658
233	0x3d8ac7c1	0.06776381
234	0x3e5bf9a0	0.21481943
235	0xbe38c889	-0.18045248
236	0xbd873c5c	-0.066033095
237	0x3ad5674f	0.0016281399
238	0x3dff0534	0.12452164
239	0x3e236a82	0.15958598
240	0x3ea17fa8	0.31542706
241	0xbdf30524	-0.11866215
242	0x3e180332	0.14844969
243	0x3de9d5ee	0.11417757
244	0xbdecb2a4	-0.115575105
245	0x3e72ce82	0.23711589
246	0x3d8485ee	0.064708576
247	0xbda82e13	-0.08211913
248	0xbe3d4f63	-0.18487315
249	0xbe9d78ec	-0.3075632
250	0x3dcd7326	0.100317284
251	0x3e1eba63	0.15500788
252	0x3e59b4c0	0.21260357
253	0x3e205f12	0.15661266
254	0xbe1bd611	-0.15218379
255	0xbeb54710	-0.3540578

model.8.bias f4 [10]
0	0xbd8d6581	-0.06904126
1	0x3d2070af	0.039169963
2	0x3df957ad	0.12174926
3	0xba3b4db3	-0.0007145062
4	0x3d08e998	0.033425897
5	0x3e2a4ddd	0.16631265
6	0x3e662a01	0.2247696
7	0x3e228658	0.1587156
8	0x3e753fd8	0.23950136
9	0x3da3ba2d	0.079944946
