checkpoints/checkpoint_step_2900.pth (torch, 200878 bytes, 10 tensors)

model.0.weight f4 [256, 21]
00000000: 215e a53d aaf9 31bc b868 c33d a124 82be
00000010: f90a b5be c063 03be ef20 e8be 9f0e 033d
00000020: bdf5 653d 1b71 a63c d46c a3be 77ff 943d
00000030: 9ebb 4f3e 6a4c 2abf e733 45be a7d3 8bbe
00000040: 334f a6bc 3781 cd3d f1b2 093e 7045 ecbe
00000050: 84ab 9b3e c93b 703d cd23 4b3d 062d 12be
00000060: 1094 42bd b81b 93bf a701 32bd fbda e43d
00000070: 5980 b2bd bd9f d2bd 77f4 9abe 193f b63b
00000080: e109 89bd 4c0e 9bbe 8d91 9fbe 52cc bfbd
00000090: 55e5 023c 46fc 93bc 55f1 3e3e ea58 5abd
000000a0: af4f 2b3e 92ad 22bd 5e38 61bd 6a0c 86be
000000b0: ebf3 7d3e 3fc2 dbbc ad15 033e 51ff af3d
000000c0: 3dbb f8be 47c6 db3d dce5 1b3e fe11 30be
000000d0: 314d 053d 7b45 01bf 1532 eabd 14eb 72be
000000e0: 6e27 5dbe 6d14 b73d 30d3 a5be d1c9 42bd
000000f0: e668 b5bd 0ca1 3dbe f6bf d5bd 3be8 6c3d
00000100: 95b2 bcbe aac2 36bd e4dc 43be 5baa 0bc0
00000110: 4133 9cba 9167 52be 431d b93d 8aa7 373d
00000120: 6f9a 89bc b5cd 01bd 9a6c 393e f6ba 3a3d
00000130: ac6d e8bd 1962 0ebd a3e8 353e 9970 62bb
00000140: e5b5 483e 4c87 93bd 5cd3 013e f3f0 39bf
00000150: 7137 1b3e cd32 a6bd 92a4 e33d dfb1 47be
00000160: 0015 6e3d 5575 4ebe 94cb 8e3e 6d0e b83c
00000170: 60db b83d c385 afbd e188 fdbd 65ad 8bbd
00000180: 3bf1 ef3d 17cb 08be 9f28 4fbe 58a9 1d3d
00000190: c695 123e 1ef8 ccbe 5dbb dfbd aeca 363d
000001a0: 392d 12bc 14f7 79be fbca 773d e03a 7cbe
000001b0: 5dd9 9b3d cfc5 cdbd 856a 8b3d 3e5c 97be
000001c0: 2697 60bb 293a aabe 8509 14be 54f2 6dbc
000001d0: a0e4 623e 0b6f bfbd 1719 b33e b305 25be
000001e0: 2614 ad3e a82c 343d 4653 883e dbe8 7ebe
000001f0: 9027 473e 999f bb3d d4ec 24bf 940d 80bd
00000200: 4880 943e e0e4 bbbe 0171 4abf b69b 00be
00000210: a2a0 8ebe e5ee a9be 7a38 c4be a5ce 65bd
00000220: 8d5f 8ebe 1548 90be d63c 9abd 07c2 4fbe
00000230: f889 233e 9768 283e 3b94 e03d 1eba cb3d
00000240: c891 56be 209b c6bd 1e5d cebd 0cd1 11be
00000250: 77ad 03be 3c4c 4d3e 37e9 09be d30f 503e
00000260: 322b 2bbd 7c29 b9be b873 70bd ce16 a2c0
00000270: 2fac c1bc fe54 1dbd fff5 00bc c0da 73bd
00000280: 98dc 82bd 36c2 213d 9d6b 653d b3aa 38bd
00000290: df84 23be af68 71bd 4f35 50be c939 58be
000002a0: a17b a7bc 5d4b 03be f943 9a3d 5c3a 5fbe
000002b0: 820c 833d 6e78 453b 3b8a b3be 1bc6 d5bd
000002c0: e5e9 3c3e 66c8 97be 4b0c a2be b824 b7be
000002d0: 4897 95bc dec0 9ebd 0966 2ebe 41d6 98be
000002e0: a9c3 283c 2b06 8ebd afa4 83be 14eb 85bd
000002f0: 3d0b ec3c 945a 323e c3dc 53be ed80 a7be
00000300: 27a9 8fbd 0846 5d3e 6c42 71be c36a 8ebe
00000310: ff41 a5bd 5df0 053d 8775 043d dd1a 3ebe
00000320: a714 05bf 058a c8bd d908 b0be f1de a63d
00000330: fbe7 f9bd 721c 33be 6648 06bf 8db8 e13d
00000340: 55c2 5abe 1e39 aabd 8d0e 733d f1e4 11bd
00000350: 01b0 84bd 37d7 da3d 3527 9fbd f366 a93d
00000360: 82d0 373e 63c7 66bc a0d0 76bc 1f31 80bd
00000370: 56d7 1d3e 8ab4 23be fd0e 2a3d af1b e93e
00000380: dd94 ee3d 5a12 a2be e4e7 753e 1c08 08bd
00000390: 4456 433d 5399 933e 5681 01be e73c 0cbe
000003a0: 7a71 6f3d 3034 0cbe 75d1 f1bd 433c a53e
000003b0: 5675 ab3c 5099 a43d 83e9 98bd c806 ddbe
000003c0: 118d 51be cbb4 2fbe e891 81be da1c a3bc
000003d0: e8ff c4bd ea2b 65bd 7674 a83e 6c03 74be
000003e0: fe13 99be 0dd8 2dbd 7c60 e2bd 6b22 6dbd
000003f0: a226 f03d 4847 0f3e 23a7 18be 0846 3dbe
0.08074594 -0.010862747 0.09541458 -0.2541857 -0.35359934 -0.1283102 -0.45337626 0.031996366
0.056142557 0.020317605 -0.31918967 0.072752886 0.20286414 -0.6652285 -0.1925808 -0.27309915
-0.020301437 0.100344114 0.13447167 -0.46146727 0.30404294 0.058650766 0.04959469 -0.14274988
-0.047504485 -1.1492834 -0.043458607 0.1117458 -0.087158866 -0.10284374 -0.30264637 0.005561721
-0.066913374 -0.30284345 -0.31165734 -0.09365143 0.007989247 -0.01806463 0.18646748 -0.05330745
0.16729616 -0.03971631 -0.054985397 -0.26181346 0.24800079 -0.026826022 0.12801237 0.085936196
-0.4858035 0.10731178 0.15224403 -0.17194363 0.03254432 -0.50496644 -0.11435334 -0.23722488
-0.21597072 0.08939443 -0.32387686 -0.04755575 -0.088578984 -0.18518466 -0.10437004 0.05783866
-0.36854997 -0.04461924 -0.19127232 -2.1822727 -0.001191713 -0.2054732 0.09038784 0.044837512
-0.016797272 -0.03169032 0.18107834 0.045588456 -0.11349043 -0.034761522 0.17764525 -0.0034551977
0.19600637 -0.0720354 0.12678283 -0.72633284 0.15157868 -0.08115158 0.11115374 -0.19501446
0.058125496 -0.20161946 0.27889693 0.022467816 0.090262175 -0.08570435 -0.12379623 -0.06820182
0.11715933 -0.13358723 -0.2023034 0.038491577 0.14314947 -0.40033048 -0.109244086 0.044626884
-0.008921915 -0.24410659 0.06049631 -0.24631834 0.07609818 -0.100474946 0.06807426 -0.29562563
-0.003426978 -0.33247498 -0.14456756 -0.014523108 0.22157526 -0.09347352 0.3498008 -0.16115455
0.33804435 0.0439879 0.26626033 -0.24893515 0.19448686 0.091613 -0.6442387 -0.0625259
0.2900412 -0.36698055 -0.7907868 -0.12559399 -0.27856928 -0.33190075 -0.38324338 -0.056105275
-0.27807274 -0.28179994 -0.07531135 -0.2028886 0.159706 0.16446148 0.10965773 0.099476084
-0.20954049 -0.096975565 -0.100763544 -0.14239901 -0.1285914 0.20048612 -0.1346787 0.20318536
-0.04178924 -0.36164463 -0.058704108 -5.065284 -0.023641674 -0.038411133 -0.00787115 -0.059534788
-0.06389731 0.039491855 0.05601083 -0.045084666 -0.15968655 -0.058937725 -0.20332836 -0.21115793
-0.020444693 -0.12821718 0.07532496 -0.21799606 0.0639887 0.0030131596 -0.350664 -0.10438176
0.18448599 -0.2964508 -0.31650004 -0.35770202 -0.018260613 -0.0775163 -0.17031111 -0.29850963
0.010300555 -0.0693477 -0.2571158 -0.06538978 0.028813953 0.17417365 -0.20689683 -0.3271555
-0.07014685 0.21608746 -0.23560494 -0.27815828 -0.080692284 0.03269993 0.032338645 -0.18564935
-0.5198464 -0.0979195 -0.3438175 0.081479914 -0.1220245 -0.1749132 -0.5245422 0.110215284
-0.21363194 -0.083116755 0.05934005 -0.035618726 -0.064788826 0.1068558 -0.0777115 0.08271589
0.17950633 -0.014085623 -0.0150643885 -0.06259369 0.15414175 -0.15986839 0.0415182 0.45528933
0.11649487 -0.31654626 0.2401424 -0.03321086 0.04768969 0.28827915 -0.12646994 -0.13695107
0.05845783 -0.13691783 -0.11807529 0.3227254 0.020929974 0.080370545 -0.07466414 -0.43169236
-0.20463969 -0.17158811 -0.2530663 -0.019911218 -0.09619123 -0.055950083 0.32901353 -0.2382943
-0.29898065 -0.04244237 -0.11053559 -0.05789415 0.117261186 0.13992035 -0.14907508 -0.18483746

model.0.bias f4 [256]
00000000: 6f13 023e ad1d 223d 1a46 69be 9506 6e3e
00000010: 880a de3e 910b 173d 6c27 dc3d 9d08 e03d
00000020: 6123 403e 8aca 363e 0ccd 87be 6c48 8fbc
00000030: a552 113e 542b bbbe 2c4d 453e 7974 763e
00000040: caec babd 894d e8bd 4142 663e 8322 98be
00000050: 396e 52bd 352d c4be 8393 14bd 9493 2cbe
00000060: 6482 d6be 5214 b1bd 2000 59be c639 363e
00000070: 47dd 32be 309c 3fbc 3847 a93e fe99 953e
00000080: f78b 68be c0a7 29be c493 a0be bc03 bc3d
00000090: 77b1 c9bd 2ef1 a8be 96dc 003d b4c6 c43d
000000a0: 083f 6bbd 746e ac3d e31d 283d a64a b23d
000000b0: c08b 1f3e edd8 43be 8cc1 e8bd 424a 15bd
000000c0: ce83 833e f1c5 babd a88a 543d bb48 703d
000000d0: 4db8 a6be ea27 90be 6759 803e 9300 6cbe
000000e0: ecaa aabe d9c6 123d 5d15 adbe 6303 4dbd
000000f0: 3494 813d 08c8 f1bd 0b59 c13e ba47 00be
00000100: 6fd5 90bd 1adc 4fbe d21f 7bbd a63f 9b3e
00000110: c745 8dbe 5eff 933e 8fb7 01be 8ad9 a93e
00000120: 6d90 19bd 82b0 383e 5649 81be 6df6 a8be
00000130: bc83 6bbe 9a1d f6bd f7a3 3ebe b576 e53e
00000140: a864 083d 544a c13e 3bbd fcbe c195 21be
00000150: f099 893d 2cd0 30be 4ff8 ae3e 482e cf3e
00000160: 3122 86bc 65c2 843d 535d 833e 9df9 32be
00000170: 171b d5bd a43a f8bd 0222 c1bd 3b57 89be
00000180: 8418 96be b079 f9bd 6f63 b8be 8e00 e83e
00000190: aa7f d13e b364 25be 801f f8bd de75 8e3e
000001a0: e0cc 5c3e 526b 2b3e 03d1 b1bc dfa6 0d3e
000001b0: 9550 0dbc 1d7e 08be 1964 e53c 6405 99bd
000001c0: 1855 20be 9eb0 adbd c73d debc 20be b6bd
000001d0: 9b67 093e 2eaf a63e 7106 20bd ab68 1c3e
000001e0: cb3f c1be 0b80 8c3d 0491 0cbe 7190 d83d
000001f0: 369a d8bd 517e e6be 1f2a b83e d772 623e
00000200: bc35 9ebe e67b 9bbe 7787 bcbd 664b a33e
00000210: 69a1 293c cdc8 85be c38a d33e 2722 7f3e
00000220: dd93 fabd c3f3 65be 6c73 103e 5372 4b3e
00000230: 8b4f f6bd e7a5 74bb 9ddc 783e 6bbe eabd
00000240: ed77 233e 7c87 af3e cfe8 1a3e e534 eb3d
00000250: a0fa 27bf c8a1 0ebe 75f7 ea3d 5bb9 20be
00000260: c028 b03e 82c9 b9be 8ce5 64be 7676 ef3d
00000270: bcd4 77bc b45d 613e 1715 d23d 90bb d73e
00000280: e72b 4abe a00b e03b edfe a43e 7605 b23d
00000290: 3044 67be c1ea 483e 025e e4bd a4fc 00be
000002a0: 265f fcbc 2ce4 aa3e 2e86 47be 81d4 8ebd
000002b0: 22f3 663e 5f6a 81be 7bb9 8e3e 2c85 d63d
000002c0: 664e 9abe 0836 a33e 52f9 7fbd 042c 57be
000002d0: 8e7c b1be 1b14 b53e a2b3 493d 6ac3 483d
000002e0: bce1 b7bd 0a5d e8bb a6fd 81be 3e21 c0be
000002f0: 1713 1d3d 17f6 0c3e 2a23 6cbe 8f6c 993e
00000300: 98c3 a43e 5d76 00bd 660e 28be f453 99be
00000310: dcc4 b83e edd0 cabd 819b a03e 6920 41bd
00000320: 5b95 a5be 688c 90bd 5fa2 163d 238a a03d
00000330: f4f5 bc3c d9b8 523d 610f 07be 2f2e 40be
00000340: a9e8 1fbc 415a 60be 42b2 213d aea2 ce3d
00000350: 776a d03d 43a5 503e 2fef fabd 9fb4 38be
00000360: d43f 923e e15a 803e 793b b0bd 2a22 923e
00000370: e382 48bd b10e 29be 3df7 bd3c fbc1 4cbe
00000380: 116e 81be 9e38 8dbe fa52 273e 0512 58be
00000390: 2850 743d 7872 3f3e 683a 363e 31fa afbd
000003a0: f2d1 f13c e286 073e 252f c83e fa7c 25bd
000003b0: f42a 923d bf4d 4fbe 8fc8 d43e 1f6c 8b3e
000003c0: 1bc9 7abe 0dec a03d f106 19bd 999b 7ebd
000003d0: 514e 25be 9d78 99be fb12 843e 6391 0e3e
000003e0: e06d 91be b844 4dbe 8646 d53d bf21 933d
000003f0: d4f4 22be 1817 c1be e9d1 d23d 93d6 3d3e
0.12702726 0.039579082 -0.22780648 0.23244698 0.4336741 0.036876265 0.107497066 0.10939143
0.18763496 0.178507 -0.26523626 -0.017490588 0.14191683 -0.36556494 0.1926772 0.24067868
-0.09127195 -0.11342914 0.22486211 -0.2971383 -0.051374648 -0.3831574 -0.03627349 -0.16853172
-0.41896355 -0.08646454 -0.21191454 0.17795476 -0.17467223 -0.011694953 0.33062148 0.2921905
-0.22709642 -0.16567898 -0.31362736 0.091804 -0.09848302 -0.32996505 0.031460367 0.09608212
-0.05743316 0.08419505 0.041044127 0.08705644 0.15580654 -0.1912572 -0.11365041 -0.03644777
0.25686496 -0.091197856 0.051890045 0.05866311 -0.32562485 -0.28155452 0.2506821 -0.23047094
-0.33333528 0.035834167 -0.3380536 -0.050052058 0.06327096 -0.11805731 0.37763247 -0.12527362
-0.07071959 -0.20298806 -0.061309643 0.30321997 -0.27592298 0.28905767 -0.12667678 0.33173782
-0.03749125 0.18036082 -0.25251263 -0.33000508 -0.22999471 -0.12017365 -0.18617235 0.4481713
0.03329912 0.3775202 -0.4936312 -0.15779783 0.067188144 -0.17266911 0.3417382 0.40464997
-0.016373726 0.0648239 0.25657138 -0.17478032 -0.104055576 -0.1212056 -0.094303146 -0.26824364
-0.2931558 -0.12181413 -0.36013362 0.45312923 0.40917712 -0.16151695 -0.12115383 0.278243
0.21562529 0.16740158 -0.02170611 0.13833188 -0.008625169 -0.13329358 0.028001832 -0.07471731
-0.1565746 -0.08480953 -0.027129067 -0.08922982 0.13418429 0.32555526 -0.039068643 0.15274303
-0.37743983 0.0686036 -0.13727194 0.10574425 -0.105762884 -0.45018247 0.35969636 0.2211412
-0.3090037 -0.30367965 -0.09205525 0.31893462 0.010353425 -0.2612976 0.41316804 0.24915372
-0.12235234 -0.22456269 0.1410653 0.1986783 -0.1202689 -0.003733033 0.24302907 -0.114621006
0.15963717 0.34283054 0.15127872 0.11484698 -0.656168 -0.13928902 0.1147298 -0.15695707
0.3440609 -0.3628655 -0.2235319 0.116925165 -0.015126403 0.22008401 0.10257929 0.42135286
-0.1974331 0.0068373233 0.32225743 0.08692448 -0.22584605 0.19620802 -0.11150743 -0.12596375
-0.030807089 0.33377206 -0.19484779 -0.06974126 0.22553685 -0.25276467 0.27875885 0.10474619
-0.30137938 0.3187716 -0.06249363 -0.21012884 -0.3466534 0.35366902 0.049243577 0.049014486
-0.08978602 -0.0070911692 -0.2538883 -0.37525362 0.038348284 0.13765751 -0.23060289 0.29965636
0.32180476 -0.03136288 -0.16411743 -0.29946864 0.36087692 -0.09903131 0.3136864 -0.04715005
-0.32340512 -0.0705803 0.036775943 0.078388475 0.023066498 0.051445816 -0.1318946 -0.18767618
-0.00976006 -0.21909429 0.03947664 0.100896224 0.101765566 0.20375542 -0.12252652 -0.18037651
0.28564322 0.25069335 -0.086050935 0.2854169 -0.04895295 -0.1650951 0.023189181 -0.19995873
-0.25279287 -0.27582258 0.16340247 -0.21100624 0.059646755 0.1869601 0.17795718 -0.08592642
0.029519055 0.13235047 0.39098468 -0.04040239 0.07137099 -0.20244502 0.41559264 0.27230927
-0.24490778 0.07857523 -0.037360135 -0.06216011 -0.16143157 -0.29974833 0.2579573 0.13922648
-0.2840414 -0.20045745 0.10413842 0.07184171 -0.15913707 -0.37712932 0.102939434 0.18538885

model.2.weight f4 [128, 256]
00000000: 2b12 e63d cd5c d13c f7d8 d53b 89d1 073d
00000010: e0eb a63d d312 9bbd 4979 a0bd 89ee 4a3d
00000020: 2bbd 33bd dad5 d4bc 812a b33e 06fe b1bd
00000030: a812 a23e 00ce cd3d dd1a 1a3e c1f3 083d
00000040: bd26 303d 0a07 f0bb b34f 3bbe a65f 2c3e
00000050: defd d2bd 66ec 833d 8761 7dbc 50e9 ef3d
00000060: cfda ec3d 6889 cd3d a7e0 7bbd 5729 123e
00000070: caf6 8f3b a462 253d 9e28 3d3e 2167 cdbd
00000080: 4d2b f0bd 1c93 bbbc 2396 b63d 0161 a6bb
00000090: 40ba 8b3b 56cb b03d e066 3ebd 183f 593e
000000a0: 49e2 c53d b35e 2fbe f9c6 2d3d d0b8 c53d
000000b0: 7e39 b7bd eb0e a9bc 5eff 1cbd 2a57 2cbd
000000c0: d08b 4b3e b03e 373d ca38 f23d edca 453d
000000d0: a1e4 a63d 0309 5bbd 40ba 613e 9730 ddbd
000000e0: 8840 c63d 389e 1a3d 3b4e 38bd d2f7 f2bd
000000f0: c024 02bc 7af0 bb3c 63f7 603e 17e7 2e3c
00000100: 3577 693d 83b4 7fbd 5517 89bc 4d0e 533e
00000110: 7aa2 b8bd 9985 113e 9e8a 0abe 206e 903e
00000120: f714 04bd b25c 613e 0685 703e f6b8 713d
00000130: f398 7d3e 3db8 f93d fc9f 4d3e a45f 2a3e
00000140: 2b3d 2c3d 9a76 8b3e 77f6 833e 3e82 933d
00000150: 2710 8bbc ba2c bbbd 3d6d a93d 0a9e 183e
00000160: 8b9c 483e e0de a0bb fc18 0f3e 4674 51bd
00000170: 8841 293e 17a6 3cbc 1d4a 9c3e 42e8 583a
00000180: 1097 3f3d 98a9 e3bd 1ef3 163e d356 833e
00000190: d028 903e 7b2a af3c 1116 e0bd 371a 3d3e
000001a0: 6fa2 323e e100 a93d fb11 dd3d 86bb ac3d
000001b0: 39a1 973d 5473 18bd e4ff 533c 4da2 143d
000001c0: f4ce 5f3c 247e 1cbd 5179 5abe 06c9 a2bc
000001d0: 2463 5abd bdc0 5e3e cb15 223e b88e 853c
000001e0: 1534 4f3d 48b6 a03d 3daf f7bd 68d5 303e
000001f0: da43 bd3d 885f 9abd 5699 673e 7eb9 d13d
00000200: 8595 e83d a17c 9a3b 5912 c33d aed3 973e
00000210: e2c3 b23d 79af b13c e571 363e 5cb2 653e
00000220: f6ab 9a3d 6d9e 83bd aff2 0e3e 6ada 003f
00000230: f015 cabd 6ebb f2bd d468 fa3c db30 843d
00000240: 255a 28bd 0d6e 033d 5a6a 2a3d 54a8 483e
00000250: 43e6 92bc b229 5bbc ebe9 353e f618 b0bd
00000260: 433e 7e3e 03bf f73c 0edd 473d d69d cf3d
00000270: 7cf1 d0bc ea97 143e 8d59 1dbc 2cfa c73d
00000280: a11c b93b d80e 1f3d bc52 833d 09a2 c4bd
00000290: 631c 2bbc 0f93 e33d e84c 4b3e a5ba d63d
000002a0: 3135 1e3c 0dcc 163e b00e 753e 1b13 1cbd
000002b0: 3953 213d db00 d5bb d6d6 713e 5944 233c
000002c0: d76a 293a 1c43 bd3d a8db 07bd 37f4 8bbe
000002d0: 9f47 823d 7a80 8a3e 15e6 2bbe 7a5e 30bd
000002e0: bc86 b4bc a20b 57bd 9c33 a4bd 57ef 013d
000002f0: 2386 d13d 0201 68bc 59c1 8cbd e69c 383d
00000300: ac71 5fbe ce83 373e 929d 85bd 64a0 0b3d
00000310: 2cf3 ab3d 518f 3abe 631e 2e3e 9674 b5bd
00000320: fe93 853e 3ceb ba3d aff7 1c3e 94b8 efbe
00000330: eef9 36bb de94 af3d 8c7f bc3d e28e 7dbd
00000340: d9ac 78bc c64b 663d 7937 9a3e 38a5 35bb
00000350: 6cd6 b1bc 7d4e 373d a171 ec3c 437c f2bd
00000360: e2cf 8ebd 8774 b73d 1a83 193d 38fd 6ebe
00000370: 2e34 f2bd 3a12 ed3d a162 183d f197 1bbe
00000380: 1387 2a3e bd2c 5abd 9a81 693d 7a93 50bd
00000390: d1f0 fbbc e4e1 d33d 96b8 493e 3b32 bf3d
000003a0: 40c7 383c 4a73 cabc 9d65 8e3d f17b 783d
000003b0: 4c57 17be ce90 91bd 550c 913e ca25 ffbe
000003c0: f100 6e3c b124 d53d 2d71 483d 4219 bebd
000003d0: 878a 413e c407 09be f334 85bb 01a0 b83d
000003e0: dff9 4f3e a67e b53d 58c4 023e 17e5 6bbc
000003f0: a17b 8a3c 6f27 e8bc 084f bebc 1e68 7fbd
0.11233934 0.025556946 0.0065261084 0.033158813 0.08150458 -0.0757195 -0.07835633 0.04954389
-0.043881577 -0.025980879 0.34993365 -0.08691029 0.3165486 0.10049057 0.1504931 0.033435587
0.043005694 -0.007325058 -0.18292122 0.16833362 -0.103023276 0.06441574 -0.015465147 0.11714423
0.11565172 0.10035974 -0.061493542 0.14273582 0.004393433 0.040377274 0.18472525 -0.10029436
-0.11727009 -0.022897296 0.08915355 -0.0050774817 0.004264146 0.08632533 -0.046484828 0.21215475
0.09662301 -0.17125969 0.042426083 0.09654391 -0.08946513 -0.020636996 -0.038329475 -0.042075314
0.19877553 0.044737518 0.11827238 0.04828923 0.08149076 -0.05347539 0.22043705 -0.108002834
0.09680277 0.037748545 -0.04499648 -0.11863674 -0.007943332 0.022941817 0.2196937 0.010675213
0.05699845 -0.06242801 -0.016734758 0.20610924 -0.09015365 0.1421112 -0.13529441 0.2820902
-0.032246556 0.22008017 0.23488244 0.059014283 0.24765377 0.12193344 0.2008056 0.16638047
0.04205052 0.27238923 0.25773975 0.07202576 -0.016975475 -0.0913939 0.08272789 0.14904037
0.19590966 -0.0049093813 0.13974375 -0.051136278 0.16528904 -0.011514208 0.30525294 0.0008274355
0.046774924 -0.11116332 0.1474118 0.2565218 0.28156137 0.021382561 -0.10941709 0.18467031
0.17444776 0.08252121 0.10794445 0.08434205 0.07403798 -0.03721936 0.012939427 0.036287595
0.013660181 -0.038206235 -0.21335341 -0.019871246 -0.053317204 0.21753211 0.15828626 0.016303405
0.05058678 0.078472674 -0.12093971 0.17268908 0.09241457 -0.075377524 0.22617087 0.10240458
0.113566436 0.004714564 0.09524984 0.29653686 0.08728768 0.021690117 0.17816885 0.2243132
0.0755233 -0.06426702 0.13959764 0.50333273 -0.098674655 -0.118521556 0.030567564 0.06454631
-0.041101594 0.032087374 0.04160533 0.19595462 -0.017932063 -0.01337664 0.17765014 -0.08598511
0.24828438 0.030242449 0.0487948 0.10137527 -0.025505774 0.14511076 -0.00960387 0.097645134
0.005649165 0.038832515 0.06412265 -0.09601218 -0.01044378 0.111120336 0.19853556 0.10484818
0.0096562365 0.14726277 0.23931384 -0.038104158 0.039386008 -0.006500346 0.2361711 0.009965026
0.0006462759 0.09241316 -0.033168465 -0.2733476 0.06361317 0.27051145 -0.16786988 -0.04305885
-0.022036903 -0.05250133 -0.08017656 0.031722393 0.10230663 -0.0141603965 -0.06872816 0.045071505
-0.21820706 0.17921373 -0.06524195 0.034088507 0.08395991 -0.18218733 0.17003779 -0.08860128
0.26089472 0.09126899 0.15328859 -0.4682051 -0.0027919966 0.08573316 0.09204015 -0.06190384
-0.015177929 0.056224607 0.30120447 -0.0027716886 -0.02170869 0.044752587 0.028862776 -0.11840107
-0.06973244 0.08957773 0.037478544 -0.23338783 -0.11826359 0.11575742 0.037203435 -0.1519468
0.16653089 -0.053265322 0.057008363 -0.050921895 -0.030754479 0.103458196 0.1969932 0.093357526
0.011277974 -0.024713177 0.06952975 0.060665075 -0.14779395 -0.071076974 0.2832972 -0.49833518
0.014526592 0.10407389 0.048936058 -0.09282161 0.189005 -0.13381869 -0.00406515 0.09014893
0.20310162 0.08862047 0.12770212 -0.014397881 0.016904654 -0.028339116 -0.023231044 -0.062355153

model.2.bias f4 [128]
00000000: 94fe b83e 6c2a 6e3c 5ea8 d2bb 66e4 20bd
00000010: 55ed b0bd 4a93 3c3e e078 5ebd 29f1 173d
00000020: 406c d4bc 279d d2bc 0809 7ebd eb0a 8fbe
00000030: 99a3 89bc c146 b53a b8bd d0bd 7ae0 70bc
00000040: 10fb 14bc 8db9 563e b862 b3bd ed68 33bd
00000050: 5414 d93c aea9 8e3e effd a73b 7a41 943e
00000060: 281e 0e3e f63c 8a3e 1bfb 87bd d66b 3dbd
00000070: f94f 873c 9a8c cdbc d151 093e 84cd 84bd
00000080: 57af b03e 66ea acbc daf5 92bc ff90 88bd
00000090: a379 863b bf16 413d 69d1 6fbc f67d 59bd
000000a0: 0341 463e 45b5 32bc 4fe6 8a3d e314 6abd
000000b0: fdb3 a9bd 89c8 12be 55f6 2d3c 317a 813e
000000c0: 01b2 cfbd ffed b43e 1916 483c 0e40 b5bc
000000d0: d3af aabc 9844 96bc cbcb a1bd 06a6 123d
000000e0: 5d47 2bbd f74b 203e a86b 803e 2830 03bd
000000f0: ef68 65bd 9fac a13e c0f5 91be 6b7f fa3d
00000100: ba88 9d3d 7eed f93b 5290 a33e c26c cabd
00000110: 92ac 123e c6b7 913e 1591 aebd 5a89 cf3d
00000120: 27a2 9bbd e54a 063e 0610 b43e 7be0 0a3b
00000130: d671 d3bc ddc6 b5bd 1422 133e 3c85 f0bc
00000140: 77ca 703b 9b83 7d3d e057 89bc 0393 273e
00000150: 44d5 90bd a4c8 8c3d 2027 403e eca3 70bd
00000160: a949 883e 4b42 a53d 6af6 a33e 33ed dabc
00000170: 38ea 29bd 019d d9bb cede ed3c 1555 8bbb
00000180: 5360 923e 42b4 443c cabc 893c 0c9b e33c
00000190: 199e 6c3c cc1c 2e3e a4fa 243e 32c3 373e
000001a0: abfd d1bd f0df 9ebe 748a 58bd 7240 aabd
000001b0: 820d 423e 6fa7 d13e 1c35 ab3d 651f 5dbd
000001c0: f376 2e3d 3830 023d a360 9e3e 2a03 a03d
000001d0: f772 0fbe acdc e53d 4e08 bc3e e409 c23d
000001e0: b05e 463e 5b0b c33e 9342 12bd 5e07 91bd
000001f0: 6884 3dbd dc45 d0bc 1224 533d 93c1 18bc
0.36131728 0.014536481 -0.0064287623 -0.039280318 -0.086390175 0.18415561 -0.054314494 0.037095223
-0.025930524 -0.025709702 -0.06202033 -0.27938017 -0.016801642 0.001383029 -0.10192436 -0.014701957
-0.009093061 0.2096922 -0.087590635 -0.043801237 0.026498951 0.2786383 0.005126707 0.28956205
0.13878691 0.26999635 -0.066396914 -0.04624542 0.016517626 -0.025091458 0.13410117 -0.064845115
0.34508774 -0.021107864 -0.017939497 -0.06668281 0.0041038557 0.047140833 -0.01463733 -0.05309864
0.19360738 -0.010907476 0.06782209 -0.057148825 -0.08286283 -0.1433431 0.010617812 0.25288537
-0.101413734 0.35337827 0.0122123 -0.02212527 -0.020835793 -0.018343255 -0.079001985 0.035802864
-0.041816104 0.15653978 0.25082135 -0.032028347 -0.056008276 0.31577012 -0.28507805 0.12231334
0.07692094 0.007627188 0.31946045 -0.09884025 0.14323643 0.2846052 -0.08523766 0.101336196
-0.075992875 0.13114507 0.35168475 0.002119093 -0.025811117 -0.08875821 0.14368469 -0.029360406
0.0036741772 0.061893087 -0.016765535 0.16364674 -0.07071927 0.06874207 0.18764925 -0.058750078
0.26618698 0.08069285 0.32023937 -0.026724434 -0.041483134 -0.006641031 0.029036906 -0.004252086
0.28589115 0.012005867 0.016813654 0.027783893 0.01444199 0.17003173 0.16111237 0.17945555
-0.102534615 -0.31030226 -0.052866414 -0.08313073 0.18950465 0.40948054 0.08359739 -0.05398502
0.042593908 0.031784266 0.30933103 0.078131035 -0.140087 0.112237304 0.36725086 0.09474543
0.19372058 0.380946 -0.03570802 -0.07081483 -0.04626885 -0.025423937 0.05154807 -0.009323495

model.4.weight f4 [64, 128]
00000000: 708d 323e 1da4 b43c 570e 083e a268 c6bd
00000010: b3fd fcbd 5c07 8fbc 6393 a63d fbc2 2c3d
00000020: 7a4f 4ebe 8bc3 6ebc 77e9 a5bc ca30 1abf
00000030: 8559 c0bd 444f 46bd 59a4 93be 0b1a be3d
00000040: 9467 aa3c 143f 6fbe 6b9d 0bbd 2287 46bd
00000050: d09f 043c a50e e2be acdd d13d 8f3b 213d
00000060: 818f 683e 9526 abbe 0a23 363e c1d5 09bd
00000070: 5861 993d 8295 563d e3ad 3abd 8947 4e3d
00000080: 6adf 0a3c 4146 e6bc 128a 733e 56ae 283d
00000090: 8808 72bc e690 323e a2b6 b73b c548 0b3d
000000a0: 1370 cc3d 7d7f c5bd c537 0dbe 213f 99bc
000000b0: df59 023c a798 4abc 8590 27bc 49c9 34be
000000c0: 2178 91be 3ec2 4bbf d798 26bd 0cc1 eab9
000000d0: 12b1 a13c 3ecf 7f3d bee2 a83d 3741 05bd
000000e0: 057c c4bc 3169 dbbc 63e3 733c 8704 9dbc
000000f0: 3e32 853d 0baf 7bbd dab9 013f ebe1 423e
00000100: f30d 32be 509e af3d 895a 703e ea11 e4bc
00000110: c737 acbd 564f 773e 4133 45bd c1d9 043f
00000120: 0582 113d fe74 713b f1aa b63d a5b1 98bd
00000130: 57a1 87bd 6514 a13c f74a d13e bc15 f63d
00000140: 54c5 763c cf46 bcbd bdec 663d 9990 3d3f
00000150: b8ee b43d e942 1abe fb4c 1bbe 23b8 a73d
00000160: b7d0 863e c716 de3c ad00 bfbe e468 1dbd
00000170: d8a0 adba e8f3 b13d 642f 013f 0efb c0bd
00000180: 8aae a2be 648e 953d c938 61be c452 25bd
00000190: 3195 513c 6825 c83d 9bbe 2dbd f3ae 2f3e
000001a0: 6418 22bd 42f1 a5be 48c0 26bd f5f5 edbd
000001b0: 5dbc f0bd e229 e83c 6552 3b3e f869 b83c
000001c0: be3f 473e 321c 1f3e dc08 913e 53a5 07be
000001d0: c75a 25bc 3012 ff3b 1727 5f3d 8752 2b3e
000001e0: 70fa 923d 0ec8 c43e 7dba 003d ea9b 2fbd
000001f0: a0ce 54bd 9499 f7bc c90d 20be 4180 79bd
00000200: 921a 6b3c 5246 643d f16a 403c 1d1b 7bbc
00000210: e139 9abc 9c10 ca3d e8a8 e1bb ed59 003c
00000220: 662e 613d c829 06bd 8f4b 87bd 43ec 773d
00000230: 23f4 333d 3425 aa3c c457 c2bd c635 413d
00000240: 0957 a3bc bb28 b5bd 7adb 7bbd 1a6b 8d3d
00000250: 4466 a8bd f0c9 abbd bf3c 883d 4335 673d
00000260: 6e95 9a3c a95a 6fbd a37f c5bd 6091 dabb
00000270: 7947 e1bb da06 41bd 1c80 34bd 5e85 3a3d
00000280: 6a98 8dbd 4e02 4dbd 050f 00bd a6e6 b2bd
00000290: fb76 7b3d f47f 1fbc b054 9d3c fbb9 0e3d
000002a0: a056 9a3c 10af 123d a9e8 a6bc 15d3 9c3d
000002b0: 4007 09bc 64c0 9cbd c1b9 033d 8a46 863d
000002c0: 2eec 01bd 105b 90bc ea00 543c f91d 9a3d
000002d0: 8005 a8bd 7ecc 23bd beec 57bd ae17 93bd
000002e0: 1fdd 7abd 7871 3cbc 356d b5bd 124b 9fbd
000002f0: 34b6 59bd d5ce 9d3d 40f5 3d3d 7764 acbc
00000300: a28d b2bb 1a2c 8abd e753 1abd 2037 903c
00000310: 911c 2ebd 1dc7 c6bd 9c3e 99bc b91d 9fbd
00000320: e0a2 27bb 242a e93c dc40 70bc aa23 d73a
00000330: 420a 83bd 364a 5d3d 4c72 3bbd 1361 803c
00000340: 0623 183d b15e ed3c 35a1 253d 86a7 6e3c
00000350: e04f 3abd f2c0 663d 1587 abbd 83a8 803d
00000360: 4e21 98bc f3a6 92bd 56f8 13bd 68fd f1bc
00000370: 3a60 54bd eeca 393d 38ae 13bd efb7 613d
00000380: 30d7 86bd 0e95 403d 31ef adbd ea4d 973c
00000390: ace1 babd 7c8a 88bd b8ea a8bd 3cef 713b
000003a0: ad76 873d 30d1 babc 2247 713d 4586 653d
000003b0: 66d0 b8bd c022 1ebd 511a cdbd 918c bcbc
000003c0: 6700 a1bd b738 063c 6061 a13c 7c1a 3ebd
000003d0: b0cc 66bc 8050 cabd 9866 903b 5ea5 f0bc
000003e0: dc0f 743d a848 55bd d754 48bd 182c 2fbd
000003f0: f6ec 353d 54d1 c8bc 01b8 803b 2e6f 5b3d
0.17436767 0.022050912 0.1328672 -0.09687926 -0.12353077 -0.017459564 0.081335805 0.042178135
-0.20147505 -0.014572988 -0.020252926 -0.60230696 -0.093920745 -0.048415437 -0.28836325 0.09282311
0.020801343 -0.23363906 -0.034085672 -0.048468716 0.008094743 -0.44151798 0.10247359 0.03936344
0.22710992 -0.33427873 0.17786804 -0.033651117 0.0748927 0.052388676 -0.045575988 0.05036119
0.008476118 -0.028109672 0.23783138 0.041181885 -0.014772542 0.17438087 0.0056064883 0.034004945
0.09982314 -0.09643457 -0.13790806 -0.01870686 0.007955997 -0.012365497 -0.010227327 -0.17654909
-0.28411964 -0.79593265 -0.040673103 -0.0004477579 0.019737754 0.0624535 0.08246373 -0.032532897
-0.023984918 -0.026783558 0.014885756 -0.019167198 0.065037236 -0.06144623 0.5067421 0.19031493
-0.17388134 0.085751176 0.23472036 -0.027840573 -0.08409076 0.24151358 -0.048144583 0.51894766
0.035524387 0.0036843414 0.08919323 -0.07455758 -0.0662257 0.019663045 0.40877506 0.12015864
0.015061695 -0.09193193 0.056378115 0.74048764 0.088345945 -0.15064587 -0.15166084 0.08189418
0.26331112 0.02711047 -0.37305203 -0.03843011 -0.0013246788 0.086890996 0.5046294 -0.09422885
-0.31773788 0.073025495 -0.21994318 -0.040362135 0.012791918 0.0977276 -0.042418104 0.17156582
-0.039574042 -0.32410628 -0.040710717 -0.11619178 -0.117546774 0.028340284 0.1829315 0.022511467
0.1945791 0.155381 0.28327072 -0.1324666 -0.010092444 0.0077841505 0.05448064 0.167307
0.071766734 0.3843388 0.03142785 -0.0428733 -0.051954865 -0.030224599 -0.15630259 -0.060913328
0.014349597 0.055731125 0.011744247 -0.0153262885 -0.018826427 0.09866449 -0.0068865903 0.00783394
0.05497589 -0.03275469 -0.066062085 0.06052805 0.043934 0.020769693 -0.09489396 0.047170423
-0.019938963 -0.08845659 -0.061488606 0.069051936 -0.082226306 -0.08388126 0.066522114 0.05644728
0.018870082 -0.05843607 -0.096434854 -0.006670162 -0.0068749753 -0.047125675 -0.044067487 0.045537345
-0.06913836 -0.050051026 -0.031264324 -0.08735399 0.061392765 -0.009735096 0.019205421 0.034845334
0.018840134 0.035811484 -0.020374613 0.07657448 -0.008363545 -0.07653883 0.03215957 0.06556423
-0.03171938 -0.017621547 0.012939671 0.07525248 -0.08204174 -0.03998994 -0.05271601 -0.07182251
-0.061246034 -0.011501662 -0.0885872 -0.077779904 -0.053152278 0.07705466 0.046376467 -0.021044
-0.005449013 -0.06746693 -0.03767767 0.01760441 -0.04250771 -0.097059466 -0.018706612 -0.07769341
-0.0025579259 0.028462477 -0.014663901 0.0016413827 -0.06398441 0.05402585 -0.0457633 0.015671289
0.037142776 0.028975816 0.040436942 0.014566308 -0.04548633 0.05633635 -0.08375374 0.06282141
-0.018570568 -0.07160749 -0.036125503 -0.029539779 -0.05184958 0.045359544 -0.03605482 0.055107053
-0.065840125 0.04701715 -0.08492888 0.01846977 -0.09125075 -0.06667039 -0.08247894 0.0036916276
0.066144325 -0.022804826 0.05890573 0.056036253 -0.09024124 -0.03860736 -0.10014785 -0.023016246
-0.07861405 0.008192233 0.019699752 -0.046411976 -0.014086887 -0.098786354 0.0044067614 -0.029375728
0.059585437 -0.052071244 -0.048909035 -0.04276666 0.044415437 -0.024513878 0.003928185 0.053572826

model.4.bias f4 [64]
00000000: 690d 973e aaa6 c4bb 2f85 133e 2a55 a83d
00000010: 0678 e83e d456 393e 3be1 df3d 54c4 8abc
00000020: ed2c 593e 75fc 963b d26f 783e f7b9 d7bd
00000030: 175c eb3e 2576 b1bd 5565 6d3e 5cc6 d1bc
00000040: 9cd8 aa3b 22f0 fe3e d334 dcbd 1679 ffba
00000050: a0cc 053e 7fc1 51be 5caa 8a3e 1d18 6d3b
00000060: 84ee 4c3d 79b0 c53d d69e 8dbb 81ed 123f
00000070: 1ba8 17be b4c5 813c ae4d 42bd cb6c 9a3d
00000080: d52e 913e 7700 febd 6a3b 84bd 7891 a43d
00000090: 2c08 3b3c 13a4 fa3c 3d39 8ebd c36f e83d
000000a0: d2f0 263e 874b c63e 7ee4 b8bd 12bc 543e
000000b0: 50d1 bdbd 8510 c63e 65a3 f9bd 9fa5 263c
000000c0: 3726 24bd fc3f c2bd 9ef9 013d 256f e23e
000000d0: 24e9 603d 5453 483e d478 653e 3221 773d
000000e0: 2bdc 8c3d a455 8fbd d14e b3bd 57a3 543e
000000f0: 7e70 02bd cf0d 02be 4b48 20bd cb92 e73b
0.2950242 -0.006001313 0.14406274 0.08219369 0.4540407 0.18099529 0.10931631 -0.01693932
0.21208544 0.004607732 0.24261406 -0.10533517 0.45968696 -0.086651124 0.23183186 -0.02560728
0.00521381 0.49792582 -0.10752263 -0.0019491042 0.1306634 -0.20483969 0.270831 0.0036177703
0.050032154 0.096528 -0.0043219132 0.5739365 -0.14810221 0.015841343 -0.047437362 0.07540282
0.28356043 -0.124024324 -0.06456645 0.080355585 0.011415523 0.030595815 -0.06944511 0.11349442
0.16302803 0.38729498 -0.090279564 0.20774868 -0.09268439 0.38684478 -0.12189368 0.010171323
-0.040075507 -0.0948486 0.031732194 0.44225422 0.05490984 0.19563037 0.22409374 0.060334392
0.06877931 -0.069987565 -0.087552674 0.20765434 -0.031845562 -0.1270058 -0.039131444 0.0070670596

model.6.weight f4 [32, 64]
00000000: 21ad 083d c8a2 5dbd 2404 763c 8bcc eabd
00000010: 2d7a 20be 23b8 7a3d 278a 7b3d fbc2 c33d
00000020: bcd3 183d 5959 f9bb f2e5 67b9 4cea 49bd
00000030: 5620 9ebd e47c a3bd 58a6 58bd e2ca b9bd
00000040: 4fda 91bd 534d 19be 80a0 2dbb ad9d 903d
00000050: a81d f5bd a2d0 843d 7cdc 9c3d 938f 663d
00000060: fc68 f9bd 1094 10be 370d edbc 6a9c 2f3d
00000070: def2 7b3d 1d2c b5bd 5957 fabd 99bf 843d
00000080: bdef a13d 08e0 2e3d 1fc5 613d d75f e9bd
00000090: cde2 2bbc 4d67 69bd db2d 03be e93b e5bd
000000a0: c3c3 4c3d 747c 3dbd e0c4 eb3b 2be5 20be
000000b0: 2818 8f3c f900 03bd 9bd1 cabd 35cb c23b
000000c0: 90c9 bebd d93d c2bd badb 2f3d eae3 a8bd
000000d0: 581f 0dbe 12be 3fbd 7290 07be 8b59 cf3c
000000e0: 2d9c a4bd cc05 f8bd 4612 61bd 3ed1 453d
000000f0: bda8 0cbd 24cf 9dbd f4cf c53d 47a0 be3d
00000100: f1a1 83bc aaa7 e1bd 687f 65be 3a5d 173e
00000110: 6816 b93e 10f0 cebd 2750 7fbd 3011 d03d
00000120: f704 30be 257f f9bd d947 ea3c 0392 e7bd
00000130: 920a e53e a7cc 813d e530 e4bd 835a 423e
00000140: 809a 5ebc 136a 703e e6f9 f33d 33b2 c43d
00000150: 7b40 313d 5d36 4ebd 53d5 3dbd b34d a93c
00000160: 9a72 a93e 2559 ca3e 8700 a8bc 5472 c13e
00000170: e951 9ebd e8cf 2a3c 6af1 2ebe 55d0 f6bb
00000180: 3f2a 493e 2f1a b0bd 643a 27bd 1a53 7c3d
00000190: daa4 0c3e 2f57 863d bc8e a0bd f9aa 75bc
000001a0: e15a a73d d639 cc3e f834 5e3d 9049 603e
000001b0: f49a 18be c2b7 823e f5af 0e3d e339 3a3e
000001c0: d157 dfbd 38d7 703b 6bbc ae3d afba 943e
000001d0: 2c3a cfbc ad13 313e f7bb a03e 22b3 be3d
000001e0: 8452 9b3e 8c56 b83d 2041 863d 263e 313e
000001f0: a26d b2bc dc55 0a3c 216c 06be 0d06 853d
00000200: 5ca4 27bb e688 e2bc 5a56 3ebc 5fba 153d
00000210: 356e 973d 5f78 3a3e 16ac 453e a9be d9bb
00000220: baeb 813e e5f0 303d 68bd ddbd 5885 21be
00000230: 8a63 d23d 6f20 d73d 0af5 2dbe 71ed 0c3e
00000240: f839 f53d 3715 39bd af38 953d c623 fb3d
00000250: 7940 153e 97a2 393e bc45 13be 8af6 b5bd
00000260: b1b6 ab3d ed1e 85bc 3d88 e93d f423 febd
00000270: a558 943d bf38 fa3d 9205 17bc e2b1 673d
00000280: 872b 713e dc56 813d 0cfa 023d de1f 03be
00000290: 9791 c6bc 4785 c03c 59f0 84bd bdfd ad3d
000002a0: 5b5e 95bc de2e bf3d 1265 023d 90ca 44be
000002b0: 7851 d9ba 5d16 11bb 7171 a3bc 2b25 bf3d
000002c0: 9d5c 253e 77bd c1bd 4b56 823c f920 69bd
000002d0: 2cd6 053e 1585 fabd 7154 3dbd b236 393d
000002e0: b817 f3bd ec57 0b3d 91db bdbc 6432 c7be
000002f0: dc74 833d e0f7 84bd 6f40 543d 69ee bdbc
00000300: 7630 ce3d 9169 8dbc 00ca ffbd 8c99 d4ba
00000310: 9dec a93e 9088 a9be 0ca8 7cbe 4830 a53c
00000320: 1730 d33d 5389 e43d 2e46 84bf 7d77 26be
00000330: c3c2 ad3d c3b7 3c3d 73a2 973d 0fba 98bd
00000340: 7540 bd3d 046f c9bc 5694 03bd 0ae6 52be
00000350: 1716 58bd fbe7 753e 156a 9a3d f13d 32bd
00000360: ea91 d33c 8bec f23b 1ec6 113e 5d40 2e3d
00000370: 135d 36be b116 bd3d efd4 36be a084 1dbe
00000380: 9b79 ed3e 9a44 973c 7f8e d5bd f7bb 10be
00000390: 8a9c d8bd 2c0f 80bd 9272 21be cc99 463c
000003a0: 1bdd 3a3d 1a4e 44be f6d6 6d3c fb89 f13c
000003b0: 6f39 9fbd 711a 24bf bb70 d4bd d74a 8c3d
000003c0: 3cb5 093d 74fe 683c 7bb0 3d3d 999e 64bc
000003d0: 30f0 95be cf3a 14be 6c06 e7bd 85b4 40be
000003e0: 76fc f0bc f155 7cbd ef7b 043e 3a70 31bf
000003f0: ae5d f83d db9b 303d d0d7 0f3d 489d f6bd
0.033368234 -0.05411032 0.015015636 -0.11464795 -0.15671606 0.061210763 0.06141105 0.09558674
0.0373113 -0.007609528 -0.00022115538 -0.04929571 -0.07721011 -0.07982805 -0.052893013 -0.090719
-0.07121717 -0.14970903 -0.002649337 0.07061324 -0.11968547 0.06485106 0.076592416 0.056289267
-0.12178227 -0.14118981 -0.028936965 0.042873777 0.061510913 -0.088463046 -0.122236915 0.06481857
0.079070546 0.04269412 0.05511963 -0.11395233 -0.010491085 -0.05698328 -0.12810461 -0.111930676
0.04999138 -0.046261266 0.0071951 -0.1571242 0.017467573 -0.03198335 -0.0990326 0.0059446343
-0.09315789 -0.09484453 0.042934157 -0.08246596 -0.13781488 -0.046812125 -0.13238695 0.025311252
-0.08037601 -0.12110481 -0.054949068 0.048295252 -0.03434061 -0.077055246 0.096588045 0.09307914
-0.01606843 -0.110183075 -0.22411883 0.14781657 0.36149907 -0.10104382 -0.0623323 0.10159528
-0.17189394 -0.12182454 0.028598713 -0.113071464 0.44734627 0.063378625 -0.111421384 0.1897984
-0.01358664 0.23477964 0.11912899 0.09604301 0.043274384 -0.050344814 -0.04634602 0.020666933
0.33095247 0.39521137 -0.020508064 0.37782538 -0.07730467 0.010425545 -0.1708428 -0.0075321593
0.19645022 -0.08598744 -0.04082717 0.06160269 0.13734761 0.06559598 -0.078397244 -0.014994376
0.08171631 0.39887875 0.054249734 0.21903062 -0.1490286 0.2553082 0.034835774 0.18186145
-0.109054215 0.0036749374 0.085320316 0.29048678 -0.025296293 0.17292662 0.31393406 0.093115106
0.30336392 0.090008825 0.0655539 0.17308864 -0.021780793 0.008443322 -0.13127185 0.06495295
-0.0025580144 -0.027653169 -0.0116172675 0.03655469 0.07394067 0.1820998 0.19303927 -0.006645043
0.25375158 0.043198485 -0.10827142 -0.15773523 0.10272892 0.10504233 -0.16988006 0.13762452
0.11973947 -0.045186248 0.07286202 0.122626826 0.14575376 0.1812843 -0.1438207 -0.08884914
0.08384455 -0.016250098 0.114029385 -0.12409201 0.0724347 0.12217855 -0.009217637 0.056566127
0.2355176 0.06315395 0.031976745 -0.12805125 -0.024239345 0.023501052 -0.06491155 0.08495662
-0.018233469 0.09335111 0.03183467 -0.19217896 -0.0016580066 -0.0022138574 -0.019951554 0.09333261
0.1614861 -0.09459966 0.015910288 -0.05691621 0.13069981 -0.12232415 -0.046223108 0.045218177
-0.11869758 0.034019396 -0.023175986 -0.38905632 0.064187735 -0.06492591 0.05181926 -0.023184972
0.10067837 -0.017262252 -0.124897 -0.0016220077 0.33188334 -0.33112 -0.2467348 0.020164624
0.10311907 0.11159005 -1.0333917 -0.16256519 0.084844135 0.046073686 0.074040316 -0.07457363
0.0924081 -0.02458907 -0.032123886 -0.20595565 -0.05275544 0.24014275 0.07539765 -0.043516103
0.025826413 0.007413452 0.14235732 0.04254185 -0.17808942 0.09232844 -0.17854665 -0.15382624
0.4638184 0.018465329 -0.104275696 -0.14134203 -0.105767325 -0.06252894 -0.15766361 0.012121629
0.04562102 -0.19170418 0.014516583 0.02948474 -0.077746265 -0.64102846 -0.10373064 0.06850212
0.033620104 0.014220823 0.046310883 -0.013953828 -0.2928481 -0.14475559 -0.11280522 -0.18818863
-0.029417258 -0.061605398 0.12937902 -0.6931187 0.12127243 0.043117385 0.035117924 -0.12041718

model.6.bias f4 [32]
00000000: ce0c 733d 33a1 133f fbcf 20be 96fa 143e
00000010: 4d36 283e d2b3 fe3e 35f3 9f3e d914 c7bc
00000020: 5347 e23d 9984 903e fe3c 2a3f e311 6abd
00000030: 8a55 a3bd 4555 22be 48fc 1c3c b209 883e
00000040: 1e2f d13e 7db1 903d 1859 2c3e a57a 8e3e
00000050: 13a3 8e3d 0647 a03e 3155 33be cd67 d7bd
00000060: 2895 86bd df85 813d 4190 be3d a846 0b3f
00000070: e6b6 b63e 9ec9 9e3e 7171 643d c927 363e
0.059338383 0.57667845 -0.15704338 0.14548716 0.16426964 0.49746567 0.3124024 -0.024301933
0.1104876 0.28226164 0.66499317 -0.057145964 -0.079753 -0.1585284 0.009581633 0.26569897
0.4085626 0.07065103 0.16830862 0.27827945 0.06964698 0.31304187 -0.17512967 -0.10517845
-0.06571418 0.06324362 0.09304858 0.5440469 0.35686415 0.31013197 0.05577225 0.17788614

model.8.weight f4 [10, 32]
00000000: 6a1a 243d d35d 223e 8a2a 8fbe 4e10 d73d
00000010: 9843 db3d a6a2 9d3e 7a2f e43d 1a34 8ebc
00000020: cceb 10be 94e6 cc3d edc6 983e f4e1 33be
00000030: 31ed a33c f1c1 cb3d a758 303e dd00 4e3e
00000040: aa36 723e f1b4 b1be e21d 30bb 9472 0e3c
00000050: 2634 bbbd 0503 b33e 7280 aa3d c709 d3bd
00000060: 34fb 5dbd 575c 49be 734b b93c 7ed9 903e
00000070: a8af a53d 29e2 f33d 9cae 38bc 8c9f 34be
00000080: c301 933c f878 903e 533b 02be 7427 0e3e
00000090: 19db 803d 2a82 9c3e 3ff5 a63d 1ef8 3039
000000a0: bafd 2cbe c494 51bd 507a e83d ea5d 33be
000000b0: 4400 8f3d dead 803d 0d9d 02be c731 1e3e
000000c0: 08e8 393e e6e6 8fbe bd72 033e 8453 1c3e
000000d0: 714d 0bbe f13d db3d 8dd9 6dbd d8d5 49bd
000000e0: d926 13be 1f80 84be 86b9 0e3e f035 cd3e
000000f0: 302a ad3c ceb1 883e b763 ebbd a701 42be
00000100: ad2a 1d3e 004b c83e aae7 00be b22c 2b3e
00000110: 8fe4 d93d 3a96 b93e ec00 0e3e 13e0 0e3d
00000120: a793 0bbe a889 493d 3b11 4b3e b4e9 2bbd
00000130: d3c3 063e dda2 4d3d 9861 223e 2fb8 493e
00000140: 6c3f 023e 031a 89be 433c 673b 1611 563d
00000150: 6c40 babe 464c 053e d13c 9f3d a0fe 863d
00000160: 07d1 65be 0ae6 4dbe ca76 983c 553a a23d
00000170: a9b6 3abd 5e17 003e cd0e d83d fe92 f8bd
00000180: 245b 573d 08f5 a73e e87f 34be f5d0 1fbe
00000190: 8290 1e3e 7919 263e 8437 d73d f2e7 593d
000001a0: 3776 55be ed76 ed3d 7071 ae3e 210b 64be
000001b0: aa7f 6c3d 9e28 5c3d f1b9 043e 8915 663e
000001c0: 5146 003e 066f 4fbe c6cc 49bd ad61 d13d
000001d0: e994 09bd 9b58 e43d 9144 fabd d870 e5bc
000001e0: 6b38 66be 7249 9abe 84d5 c03c cf87 433e
000001f0: 9ed6 543d a30a 8b3e 94ff c33b d18d 0dbe
00000200: 1bb7 02be 05c3 9e3d 2d9f 5dbe 731c 543d
00000210: 613d 7e3d 2af8 a23e 10c1 f0bc f746 adbc
00000220: ec48 71be 57eb 1d3d c7ca b73e d22b b1bc
00000230: 37c8 cd3d 6a34 3b3d cf79 213e 4625 ba3d
00000240: 626f 943e ed0c 8dbe 32a0 903d 0236 823e
00000250: e432 5cbe fd31 433e 82fb 07be e022 9f3b
00000260: d1f6 18be 5dfc 21be a154 513d 217f 1c3e
00000270: d801 25bd 9e1c 953e bd69 e03d 871d 56be
00000280: 78f0 bb3d 1aa2 9c3e 54c3 91be 1c63 e0bd
00000290: 9c8c 46bc 96a1 983e 3939 353e fe75 0fbe
000002a0: 5c76 39be e9b4 ff3d cbf8 5b3e cd3d 39be
000002b0: ba63 873d 408d b83c 46b1 dd3d df2f 263e
000002c0: 4732 973e e531 48be cb82 243e e901 8a3d
000002d0: 1d97 1cbe 0df6 743d 8872 923c c748 54bd
000002e0: 26d1 48be 26de 41be dbc8 603d 8a16 2d3e
000002f0: 24da 463e 6bff 253e 1f91 383e 296c 64be
00000300: 0108 8cbd bf0d 943e 2e27 a7bd d1a4 96bc
00000310: d4fb 283d 17dd 823e 5f5a 0b3e e422 123b
00000320: 1700 26be c423 e83d f6f7 7f3e a186 233b
00000330: 2124 a3bd fad7 9abc dc20 c53d 2060 773d
00000340: 96e8 573e 2da6 a2be ce93 493e 3024 0f3d
00000350: d6a8 f7bd 40a7 273e a0dc 66bd 57a5 0c3e
00000360: 44f3 aebe 84d1 31be 3d11 57bc b35f 3d3e
00000370: 888a 373e 44b0 803e 8d3f a5bb 96e4 30be
00000380: 7a7a afbd f15d c43e 9daf 13be 418d 8ebc
00000390: bc58 e53d dd46 e13d 1e00 02be 900e c63c
000003a0: 6845 06be 0441 2d3b de62 6c3e dd66 3cbe
000003b0: 5c3c 87bd 2d36 36bd 3405 ff3d 78d3 3c3e
000003c0: 553e a43e 9027 ffbd dbca 073e e764 bc3d
000003d0: 11c9 febd fe02 4e3e ee85 843d 132e a8bd
000003e0: 3e3f 42be 3c33 a0be 2c03 953d d1b6 2d3e
000003f0: 5b95 103e 2c3f 333e 11d6 1bbe b052 b6be
0.040064253 0.15856104 -0.27962142 0.10501157 0.10706252 0.30788153 0.11141868 -0.017358828
-0.1415245 0.10004917 0.29839268 -0.17566663 0.020010563 0.09949101 0.17221318 0.20117517
0.23653665 -0.3470836 -0.002687328 0.00869431 -0.09140806 0.3496324 0.0832528 -0.10304599
-0.054194644 -0.19664131 0.022618985 0.28290933 0.080901444 0.11908371 -0.011272099 -0.17638987
0.017945176 0.28217292 -0.12717943 0.13882238 0.062917896 0.30568057 0.08152246 0.00016877099
-0.16893664 -0.051167265 0.11351454 -0.17516294 0.069824725 0.062831625 -0.12755223 0.15448676
0.18154919 -0.2810585 0.12836738 0.15266234 -0.1360376 0.10705174 -0.0580688 -0.049276203
-0.14370288 -0.25879 0.13937959 0.40080214 0.02113828 0.26698154 -0.114936285 -0.18945943
0.15348311 0.3911972 -0.12588373 0.16716269 0.10639297 0.36247426 0.13867539 0.034881663
-0.13630544 0.049203545 0.19830792 -0.041970924 0.13160639 0.050204147 0.15857542 0.19699167
0.12719506 -0.26777658 0.0035283722 0.05226239 -0.36377275 0.13017377 0.07775272 0.065915346
-0.22443019 -0.20107284 0.01861133 0.07921282 -0.045584355 0.12508914 0.10549698 -0.121374115
0.052577153 0.32804132 -0.17626917 -0.15607055 0.15484813 0.16220655 0.10508636 0.053199716
-0.20845877 0.11594949 0.3407092 -0.2226987 0.057738937 0.053749673 0.12961556 0.22469153
0.12526824 -0.20257196 -0.049267553 0.10223708 -0.033589277 0.11149713 -0.12220109 -0.02800791
-0.22482459 -0.3013416 0.023539312 0.19094776 0.051962487 0.27156553 0.005981395 -0.1382363
-0.12765162 0.07752041 -0.21642752 0.051784944 0.062070254 0.3182996 -0.029388934 -0.021152003
-0.23562974 0.038554516 0.35896894 -0.02162734 0.100479536 0.045704283 0.15769123 0.090891406
0.28991228 -0.27548924 0.07061805 0.2543183 -0.21503788 0.19062038 -0.13279536 0.0048564523
-0.14937903 -0.15818925 0.0511061 0.15282871 -0.04028496 0.29123396 0.10957668 -0.20909701
0.09176725 0.30592424 -0.28469336 -0.109564036 -0.012118485 0.2981078 0.1769761 -0.14009854
-0.18111557 0.12485678 0.21481626 -0.18089981 0.06610818 0.02252829 0.10824828 0.16229199
0.29530546 -0.19550283 0.16065519 0.067386456 -0.1529202 0.059804965 0.017876878 -0.05182722
-0.19611034 -0.18932399 0.05487905 0.16903129 0.19419152 0.16210715 0.1802411 -0.22306885
-0.06837464 0.28916737 -0.0816177 -0.018389137 0.041255787 0.25559303 0.13608693 0.0022298628
-0.16210972 0.11334947 0.24996933 0.0024952071 -0.079658754 -0.018901814 0.09625408 0.060394406
0.21084818 -0.31767407 0.1968529 0.03494662 -0.1209275 0.16372395 -0.05636275 0.13734947
-0.34169972 -0.1736508 -0.0131266685 0.18493538 0.17923939 0.2513448 -0.0050429762 -0.17274699
-0.085682824 0.38352922 -0.1442246 -0.01740134 0.11198565 0.10999844 -0.12695357 0.024176866
-0.13112414 0.0026436457 0.2308459 -0.18398614 -0.066033095 -0.04448526 0.12452164 0.18440044
0.32078806 -0.12458718 0.13260977 0.09198933 -0.12440694 0.20118329 0.064708576 -0.08211913
-0.18969437 -0.3128909 0.072759956 0.1696427 0.14119475 0.17504567 -0.15218379 -0.3560996

model.8.bias f4 [10]
00000000: 2022 b1bd 07d8 373d 2d63 e63d 3e12 e5bc
00000010: 4bc8 ecbc f00d 333e 48e6 4a3e 8bc0 263e
00000020: f479 873e 4322 663d
-0.08649087 0.044883754 0.11249385 -0.0279628 -0.0289041 0.17485785 0.19814408 0.16284387
0.2646023 0.05618502
