checkpoints/checkpoint_step_7800.pth (torch, 200878 bytes, 10 tensors)

model.0.weight f4 [256, 21]
0.1863996 -0.08275042 -0.065959126 -0.3345608 -0.3290771 -0.16688585 -0.51682734 -0.10359605
0.021687267 -0.169137 -0.21708965 -0.1960316 0.035638917 -0.5402896 -0.046070997 -0.35735008
-0.07116284 -0.047028556 0.04495996 -0.31471848 0.62439525 0.02692692 0.017837064 -0.17429006
-0.079256624 -1.1492834 -0.07521074 0.07999636 -0.087158866 -0.13459311 -0.30264637 -0.0261959
-0.066913374 -0.3345849 -0.34341288 -0.12538795 -0.023768373 -0.04980344 0.15470979 -0.08505341
0.13553846 -0.07140039 -0.054985397 -0.26181346 0.24800079 -0.026826022 0.12801237 0.085936196
-0.4858035 0.10731178 0.15224403 -0.17194363 0.03254432 -0.50496644 -0.11435334 -0.23722488
-0.21597072 0.08939443 -0.32387686 -0.04755575 -0.088578984 -0.18518466 -0.10437004 -0.2284127
-0.7185653 0.118328236 -1.3679297 -2.008082 0.056652326 -0.12928413 0.03764696 -0.29027444
0.25276116 -0.023599729 0.122953184 -0.034836315 -0.26777485 0.0069725006 0.013411851 -0.0049894364
-0.012366607 0.11302837 0.06611987 -0.7428563 -0.05721499 -0.012729171 -0.28537744 -0.040786974
0.19844592 -0.14759952 -0.021690639 0.16022804 0.17140345 -0.16835886 -0.32999974 0.119437754
-0.060429294 -0.027991615 -0.23609081 0.11216933 0.3319116 -0.9146854 -0.27877825 -0.037662234
0.17304862 -0.071330585 0.13207728 -0.085492626 0.16538677 0.022981526 0.11303816 -0.08568266
0.04739333 -0.18805079 -0.034190893 0.17389719 0.26017082 0.068703525 0.41713217 -0.0014338319
0.3762714 0.23998165 0.33009994 -0.054868482 0.23108435 0.05258511 -0.6442387 -0.0625259
0.2900412 -0.36698055 -0.7907868 -0.12559399 -0.27856928 -0.33190075 -0.38324338 -0.056105275
-0.27807274 -0.28179994 -0.07531135 -0.2028886 0.159706 0.16446148 0.10965773 0.099476084
-0.20954049 -0.096975565 -0.100763544 -0.1728602 -0.11749169 0.18108878 -0.1346787 0.182376
-0.060299795 -0.3430658 -0.07557548 -5.065284 -0.0327408 -0.07771087 -0.0346688 -0.09300056
-0.083169244 0.031475108 -0.010267158 -0.051706895 -0.19518389 -0.04886008 -0.24613985 -0.20985125
-0.020444693 -0.12821718 0.07532496 -0.21799606 0.0639887 0.0030131596 -0.350664 -0.10438176
0.18448599 -0.2964508 -0.31650004 -0.35770202 -0.018260613 -0.0775163 -0.17031111 -0.29850963
0.010300555 -0.0693477 -0.2571158 -0.06538978 0.028813953 0.14241154 -0.20689683 -0.3271555
-0.101910286 0.18432535 -0.23560494 -0.27815828 -0.11245339 0.0009378514 0.032338645 -0.21741329
-0.5198464 -0.12968345 -0.3438175 0.049715977 -0.1220245 -0.20667714 -0.5245422 0.07845137
-0.21363194 -0.11487699 -0.5370263 0.20961158 -0.20075817 0.117533915 -0.48908904 -0.10502057
-0.09340112 0.18651092 -0.4315896 0.14336473 -0.033877842 -0.073194705 0.13539526 0.4781533
0.2632735 -0.7707321 -0.05963433 -0.088671625 0.04127041 0.32604823 -0.09297738 -0.13695107
0.05845783 -0.13691783 -0.11807529 0.3227254 0.020929974 0.080370545 -0.07466414 -0.43169236
-0.20463969 -0.17158811 -0.2530663 -0.019911218 -0.09619123 -0.055950083 0.32901353 -0.2382943
-0.29898065 -0.04244237 -0.11053559 -0.05789415 -0.14410506 0.09014768 -0.3423179 -0.17577362
00000000: 89df 3e3e 0d79 a9bd 9415 87bd 8e4b abbe
00000010: cb7c a8be 20e4 2abe cc4e 04bf 2a2a d4bd
00000020: 7fa9 b13c 4032 2dbe c04c 5ebe 82bc 48be
00000030: 1dfa 113d 6b50 0abf f1b4 3cbd 97f6 b6be
00000040: d3bd 91bd 04a1 40bd ef27 383d c822 a1be
00000050: 5ed8 1f3f d895 dc3c 091f 923c 1879 32be
00000060: 4c51 a2bd b81b 93bf 1708 9abd 22d5 a33d
00000070: 5980 b2bd c7d2 09be 77f4 9abe c998 d6bc
00000080: e109 89bd b64e abbe d0d3 afbe b365 00be
00000090: e4b5 c2bc b1fe 4bbd 3e6c 1e3e 7b30 aebd
000000a0: 98ca 0a3e 5e3a 92bd 5e38 61bd 6a0c 86be
000000b0: ebf3 7d3e 3fc2 dbbc ad15 033e 51ff af3d
000000c0: 3dbb f8be 47c6 db3d dce5 1b3e fe11 30be
000000d0: 314d 053d 7b45 01bf 1532 eabd 14eb 72be
000000e0: 6e27 5dbe 6d14 b73d 30d3 a5be d1c9 42bd
000000f0: e668 b5bd 0ca1 3dbe f6bf d5bd 05e5 69be
00000100: e5f3 37bf 1356 f23d 5218 afbf 6a84 00c0
00000110: 450c 683d 0f63 04be b333 1a3d da9e 94be
00000120: e969 813e 3854 c1bc e1ce fb3d 86b0 0ebd
00000130: c919 89be 9379 e43b 61bd 5b3c 6d7e a3bb
00000140: 4f9d 4abc 6b7b e73d db69 873d d52b 3ebf
00000150: 445a 6abd 038e 50bc fe1c 92be 3e10 27bd
00000160: 6835 4b3e 5424 17be 91b0 b1bc d212 243e
00000170: 6384 2f3e 4466 2cbe baf5 a8be c89b f43d
00000180: b584 77bd ac4e e5bc cac1 71be 09b9 e53d
00000190: 51f0 a93e d328 6abf 06bc 8ebe b743 1abd
000001a0: a833 313e c515 92bd 443f 073e c216 afbd
000001b0: 265b 293e c143 bc3c 8d80 e73d 647a afbd
000001c0: 821f 423d 6390 40be c00b 0cbd 1b12 323e
000001d0: 1c35 853e 6fb4 8c3d 5992 d53e 6aef bbba
000001e0: a5a6 c03e c0bd 753e dc02 a93e c6bd 60bd
000001f0: 60a1 6c3e 7c63 573d d4ec 24bf 940d 80bd
00000200: 4880 943e e0e4 bbbe 0171 4abf b69b 00be
00000210: a2a0 8ebe e5ee a9be 7a38 c4be a5ce 65bd
00000220: 8d5f 8ebe 1548 90be d63c 9abd 07c2 4fbe
00000230: f889 233e 9768 283e 3b94 e03d 1eba cb3d
00000240: c891 56be 209b c6bd 1e5d cebd 4402 31be
00000250: 7c9f f0bd 566f 393e 37e9 09be c6c0 3a3e
00000260: ebfc 76bd 52a6 afbe 51c7 9abd ce16 a2c0
00000270: 381b 06bd e026 9fbd df00 0ebd 1477 bebd
00000280: a354 aabd 0bec 003d 9537 28bc 9cca 53bd
00000290: 49de 47be 8221 48bd 160c 7cbe 3fe3 56be
000002a0: a17b a7bc 5d4b 03be f943 9a3d 5c3a 5fbe
000002b0: 820c 833d 6e78 453b 3b8a b3be 1bc6 d5bd
000002c0: e5e9 3c3e 66c8 97be 4b0c a2be b824 b7be
000002d0: 4897 95bc dec0 9ebd 0966 2ebe 41d6 98be
000002e0: a9c3 283c 2b06 8ebd afa4 83be 14eb 85bd
000002f0: 3d0b ec3c 55d4 113e c3dc 53be ed80 a7be
00000300: 57b6 d0bd c9bf 3c3e 6c42 71be c36a 8ebe
00000310: f74d e6bd 24da 753a 8775 043d 97a1 5ebe
00000320: a714 05bf bdcb 04be d908 b0be fba2 4b3d
00000330: fbe7 f9bd 2ca3 53be 6648 06bf 1dab a03d
00000340: 55c2 5abe a144 ebbd 8e7a 09bf 6ba4 563e
00000350: 8d93 4dbe 9fb5 f03d e169 fabe 0615 d7bd
00000360: 1649 bfbd b8fc 3e3e 50f9 dcbe 34ce 123e
00000370: 7ec3 0abd 1be7 95bd 0ea5 0a3e 82d0 f43e
00000380: c9cb 863e b34e 45bf 2143 74bd 7899 b5bd
00000390: 290b 293d cbef a63e ed6a bebd e73c 0cbe
000003a0: 7a71 6f3d 3034 0cbe 75d1 f1bd 433c a53e
000003b0: 5675 ab3c 5099 a43d 83e9 98bd c806 ddbe
000003c0: 118d 51be cbb4 2fbe e891 81be da1c a3bc
000003d0: e8ff c4bd ea2b 65bd 7674 a83e 6c03 74be
000003e0: fe13 99be 0dd8 2dbd 7c60 e2bd 6b22 6dbd
000003f0: 4790 13be 599f b83d 4b44 afbe 00fe 33be

model.0.bias f4 [256]
0.13951248 0.007821449 -0.22780648 -0.18096146 0.39619625 0.33263025 0.107497066 0.09000294
0.18763496 0.14674306 -0.43607566 -0.017490588 -0.023689881 -0.52969396 0.6726872 0.54957706
-0.12303319 -0.1181391 0.6587649 -0.09467083 -0.08313084 -0.4149216 -0.14127861 -0.16853172
-0.57834584 -0.11815394 -0.21191454 0.14619659 0.06474774 -0.011694953 0.20760237 0.6197511
-0.024651863 -0.16567898 -0.31362736 0.091804 -0.09848302 -0.3597708 0.031460367 0.09608212
-0.05743316 0.34558803 -0.23641826 -0.21474631 0.4076216 -0.1912572 -0.14540505 -0.06588707
0.101441436 -0.12285025 -0.046771295 0.05866311 -0.3405012 -0.28155452 0.07474362 -0.4995313
-0.36465183 0.0040730573 -0.3819482 -0.050052058 0.06327096 -0.11805731 0.32747504 -0.12527362
-0.07071959 0.002961173 -0.061309643 0.287824 -0.30767587 0.16701579 0.10673318 0.24581356
-0.079877764 0.08459425 -0.20707126 -0.37166157 -0.0015305798 -0.13123614 -0.18617235 0.32151082
0.03329912 0.19573015 -0.4936312 -0.15779783 0.067188144 -0.21246158 0.3463586 0.21380727
-0.1206795 0.0648239 0.22533382 -0.17478032 -0.21645786 -0.1430216 -0.17106774 -0.28171733
-0.2931558 -0.12181413 -0.36013362 0.23791921 0.3905078 -0.16151695 0.0838476 0.20734881
0.00726191 0.16740158 -0.02170611 0.10668773 -0.008625169 -0.13329358 -0.0031966034 -0.07471731
0.02632783 -0.08480953 -0.09834383 -0.08922982 0.13418429 0.06718961 -0.039068643 0.15274303
-0.49835598 -0.037058033 -0.13727194 0.08226381 -0.105762884 -0.45018247 0.3372648 0.19812502
-0.3090037 -0.090417 -0.10847097 0.16865014 0.010353425 -0.06367381 0.30758506 0.060770255
-0.12235234 -0.22456269 -0.006947231 0.5782222 -0.1202689 0.6192699 0.24302907 -0.018328745
0.42592543 0.32605928 0.05125564 0.097538136 -0.6553183 -0.13928902 0.30232024 -0.18609183
0.30621228 -0.5842481 -0.2235319 0.05986933 -0.015126403 0.2874185 0.51744837 0.2823519
-0.1974331 -0.046446256 0.6154869 0.055162296 -0.008460613 0.52004147 -0.14313039 -0.12596375
-0.030807089 0.2643206 0.06928124 -0.06974126 0.19760361 -0.3803494 0.24268559 0.065725535
-0.33313942 0.6390768 -0.06249363 -0.21012884 -0.3466534 0.24860878 0.2398901 0.049014486
-0.15147716 -0.0070911692 -0.2856472 -0.37525362 0.16796258 0.13765751 -0.23060289 0.100280695
0.6009253 0.19731666 -0.16411743 -0.33121958 0.32912022 0.11471233 0.103476636 -0.14660317
-0.32340512 0.12575245 -0.08790358 0.06546673 0.023066498 -0.004353067 -0.27270955 0.019196354
-0.09763765 -0.25084883 -0.038675666 0.100896224 0.101765566 0.20375542 -0.12252652 -0.18037651
0.11779327 0.1581148 -0.086050935 0.9760293 -0.04895295 -0.1650951 -0.01665106 0.003214771
-0.25279287 -0.051376153 0.16340247 -0.24276678 0.059646755 0.15435301 0.12214671 -0.08592642
0.029519055 -0.064438716 0.7856563 -0.07216281 0.3039782 -0.20244502 0.2765558 0.7533906
-0.01809047 0.04682698 -0.037360135 -0.06216011 -0.20716712 -0.09687469 0.18253636 0.5476524
-0.37561104 -0.15858147 0.07489631 0.052503377 0.14774004 -0.37712932 0.07117633 0.18538885
00000000: 5cdc 0e3e 8925 003c 1a46 69be f64d 39be
00000010: 3cda ca3e 834e aa3e 6c27 dc3d 7653 b83d
00000020: 6123 403e d043 163e 4f45 dfbe 6c48 8fbc
00000030: 4811 c2bc 069a 07bf 3a35 2c3f 15b1 0c3f
00000040: d3f8 fbbd eaf2 f1bd d1a4 283f c8e2 c1bd
00000050: 8040 aabd 9b70 d4be 57ab 10be 9493 2cbe
00000060: 790e 14bf b1fa f1bd 2000 59be 8fb4 153e
00000070: 779a 843d 309c 3fbc b795 543e 02a8 1e3f
00000080: b4f2 c9bc c0a7 29be c493 a0be bc03 bc3d
00000090: 77b1 c9bd e133 b8be 96dc 003d b4c6 c43d
000000a0: 083f 6bbd eaf0 b03e a117 72be 75e6 5bbe
000000b0: c7b3 d03e edd8 43be 10e5 14be cdef 86bd
000000c0: 87c0 cf3d e998 fbbd 4293 3fbd bb48 703d
000000d0: 2c56 aebe ea27 90be 2f13 993d 91c2 ffbe
000000e0: a5b3 babe 4877 853b b78e c3be 6303 4dbd
000000f0: 3494 813d 08c8 f1bd cfaa a73e ba47 00be
00000100: 6fd5 90bd 3d10 423b d21f 7bbd ab5d 933e
00000110: b187 9dbe 3006 2b3e ed96 da3d 8db6 7b3e
00000120: f496 a3bd c03f ad3d 7d0a 54be 6d4a bebe
00000130: bc9d c8ba c462 06be f7a3 3ebe 119d a43e
00000140: a864 083d 7c6d 483e 3bbd fcbe c195 21be
00000150: f099 893d 878f 59be ea55 b13e 4bf0 5a3e
00000160: d026 f7bd 65c2 843d e9bd 663e 9df9 32be
00000170: 21a7 5dbe 4174 12be 622c 2fbe 413d 90be
00000180: 8418 96be b079 f9bd 6f63 b8be 18a1 733e
00000190: a3f0 c73e b364 25be 4ab8 ab3d 3f53 543e
000001a0: 51f5 ed3b 526b 2b3e 03d1 b1bc 197f da3d
000001b0: 9550 0dbc 1d7e 08be 1b7e 51bb 6405 99bd
000001c0: 76ad d73c 9eb0 adbd 7d68 c9bd 20be b6bd
000001d0: 9b67 093e b59a 893d 7106 20bd ab68 1c3e
000001e0: 8428 ffbe 2aca 17bd 0491 0cbe ee79 a83d
000001f0: 369a d8bd 517e e6be f9ad ac3e 49e1 4a3e
00000200: bc35 9ebe 8c2c b9bd 0726 debd 9fb2 2c3e
00000210: 69a1 293c 6a67 82bd ca7b 9d3e 3bea 783d
00000220: dd93 fabd c3f3 65be 99a5 e3bb 5f06 143f
00000230: 8b4f f6bd 7988 1e3f 9ddc 783e 2a26 96bc
00000240: e612 da3e 3ef1 a63e 6ff1 513d 13c2 c73d
00000250: f1c2 27bf c8a1 0ebe b8c9 9a3e db8e 3ebe
00000260: dbc7 9c3e 4991 15bf 8ce5 64be 8b39 753d
00000270: bcd4 77bc 8528 933e 7f77 043f 6e90 903e
00000280: e72b 4abe 6e3e 3ebd 8d90 1d3f dcf1 613d
00000290: 629e 0abc 7021 053f c690 12be a4fc 00be
000002a0: 265f fcbc 0855 873e 53e3 8d3d 81d4 8ebd
000002b0: 9a58 4a3e 28bd c2be 9282 783e 1c9b 863d
000002c0: 4091 aabe 8a9a 233f 52f9 7fbd 042c 57be
000002d0: 8e7c b1be 4d93 7e3e c0a5 753e 6ac3 483d
000002e0: d41c 1bbe 0a5d e8bb 5a40 92be 3e21 c0be
000002f0: 62fe 2b3e 17f6 0c3e 2a23 6cbe f75f cd3d
00000300: 3ed6 193f 610d 4a3e 660e 28be 9d95 a9be
00000310: 7282 a83e 4cee ea3d 8feb d33d 241f 16be
00000320: 5b95 a5be 40c5 003e cb06 b4bd 6c13 863d
00000330: f4f5 bc3c 2ca4 8ebb 96a0 8bbe ac41 9d3c
00000340: 40f6 c7bd 426f 80be 606a 1ebd aea2 ce3d
00000350: 776a d03d 43a5 503e 2fef fabd 9fb4 38be
00000360: 993d f13d d9e8 213e 793b b0bd 0edd 793f
00000370: e382 48bd b10e 29be ce67 88bc e8ae 523b
00000380: 116e 81be cd6f 52bd fa52 273e db97 78be
00000390: 2850 743d b70e 1e3e 0e28 fa3d 31fa afbd
000003a0: f2d1 f13c 72f8 83bd c520 493f 18ca 93bd
000003b0: 08a3 9b3e bf4d 4fbe b998 8d3e 35de 403f
000003c0: 7732 94bc a6cd 3f3d f106 19bd 999b 7ebd
000003d0: 9e23 54be 3d66 c6bd d0ea 3a3e f332 0c3f
000003e0: 1750 c0be 2e63 22be 3d63 993d c80d 573d
000003f0: 2a49 173e 1817 c1be e5c4 913d 93d6 3d3e

model.2.weight f4 [128, 256]
-0.18715182 0.056101415 0.0065261084 -0.30816725 -0.20228782 -0.21536653 -0.07835633 0.06796015
-0.043881577 -0.025980879 -0.3145196 -0.08691029 0.2532943 0.2633564 -0.1444311 -0.24303225
0.0117733395 -0.007325058 -0.46410057 0.036785197 -0.07138659 0.096062675 -0.0072762305 0.11714423
0.22038494 0.13177077 -0.061493542 0.11135867 -0.06643735 0.040377274 0.13706288 0.15039995
-0.2501822 -0.022897296 0.08915355 -0.0050774817 0.004264146 -0.010461285 -0.046484828 0.21215475
0.09662301 -0.32712615 -0.5118 -0.112431265 -0.18558782 -0.020636996 -0.06627411 -0.018679988
-0.04606505 0.07622404 0.07951583 0.04828923 0.18848126 -0.05347539 0.26783374 0.23665975
0.09680277 0.069272496 0.010301152 -0.11863674 -0.007943332 0.022941817 0.1919246 0.010675213
0.05699845 -0.56255215 -0.016734758 0.0056994506 -0.12181738 0.06892421 -0.26765382 -0.117431924
-0.02348316 0.16531084 -0.030508464 0.06027803 0.15771282 0.08113296 0.2008056 0.032058407
0.04205052 0.33309543 0.25773975 0.07202576 -0.016975475 -0.05792239 -0.13595906 -0.3906782
0.024975909 -0.0049093813 0.0367963 -0.051136278 0.09091996 -0.022877874 0.56757367 -0.05113841
0.046774924 -0.11116332 0.1474118 0.21783973 0.42322728 0.021382561 -0.25780937 0.14316879
-0.33176053 0.08252121 0.10794445 0.053722188 0.07403798 -0.03721936 -0.012080064 0.036287595
-0.14686161 -0.038206235 -0.23703896 -0.019871246 -0.053317204 0.106012955 0.15828626 0.016303405
0.25507113 -0.06642945 -0.12093971 0.13486531 0.09241457 -0.075377524 0.0842434 0.107317105
0.113566436 -0.11694786 0.08783411 0.21723187 0.08728768 -0.076476 0.060448274 0.09896505
0.0755233 -0.06426702 0.083313525 0.540204 -0.098674655 -0.123540126 0.030567564 -0.08294602
0.17066202 0.039077427 0.040049456 0.34676227 0.37336674 -0.01337664 0.36602297 -0.02494585
0.34575668 -0.12660614 0.0487948 0.0633698 -0.025505774 -0.7793052 -0.45900404 0.1396399
0.005649165 0.10023456 0.006038662 -0.07962562 -0.1707211 -0.011208101 0.1956228 0.10484818
0.0096562365 0.026936134 0.37622115 -0.038104158 0.039386008 0.2868159 0.20430611 0.10147403
0.0006462759 0.19030371 -0.033168465 -0.2733476 0.06361317 0.5584325 -0.27780536 -0.04305885
-0.0177517 -0.05250133 -0.058913622 0.031722393 0.13864315 -0.0141603965 -0.06872816 -0.49526143
-0.43242306 0.06909967 -0.06524195 0.034088507 0.052995138 -0.45063624 0.62155324 -0.17043126
0.26089472 0.12812415 0.3410833 -0.19057241 -0.0027919966 0.19273715 -0.9864357 -0.17992263
-0.08080948 0.08778233 0.2648849 -0.0027716886 -0.02170869 0.044752587 0.028862776 -0.11840107
-0.15216765 -0.1309312 0.037478544 -1.8264725 -0.11826359 0.11575742 0.047133185 -0.29064357
0.16653089 -0.18202479 0.057008363 -0.019553347 -0.030754479 0.06983899 0.33078817 0.093357526
0.011277974 -0.021705437 0.34999323 0.02891162 -0.2572271 -0.071076974 0.2741105 -0.9852339
-0.09276271 0.13404618 0.048936058 -0.09282161 0.22392048 -0.28429326 -0.08276811 0.015489576
0.18337864 0.0770423 0.099146545 -0.019767214 -0.14585121 -0.028339116 -0.023231044 -0.062355153
00000000: baa4 3fbe 99ca 653d f7d8 d53b 19c8 9dbe
00000010: 8a24 4fbe 0b89 5cbe 4979 a0bd b12e 8b3d
00000020: 2bbd 33bd dad5 d4bc b708 a1be 06fe b1bd
00000030: caaf 813e a6d6 863e bfe5 13be 72dd 78be
00000040: f7e4 403c 0a07 f0bb 979e edbe 13ac 163d
00000050: 2233 92bd 82bc c43d 726d eebb 50e9 ef3d
00000060: 97ac 613e ebee 063e a7e0 7bbd 0410 e43d
00000070: 4e10 88bd a462 253d 365a 0c3e 7202 1a3e
00000080: e217 80be 1c93 bbbc 2396 b63d 0161 a6bb
00000090: 40ba 8b3b cf65 2bbc e066 3ebd 183f 593e
000000a0: 49e2 c53d 147d a7be 5305 03bf 5d42 e6bd
000000b0: bc0a 3ebe eb0e a9bc b8ba 87bd c606 99bc
000000c0: b5ae 3cbd 591b 9c3d 32d9 a23d edca 453d
000000d0: 3b01 413e 0309 5bbd 8121 893e ef56 723e
000000e0: 8840 c63d bdde 8d3d 2ac6 283c d2f7 f2bd
000000f0: c024 02bc 7af0 bb3c e287 443e 17e7 2e3c
00000100: 3577 693d 6b03 10bf 5517 89bc 75c2 ba3b
00000110: 647b f9bd 2328 8d3d ec09 89be 2680 f0bd
00000120: c25f c0bc 3f47 293e e3ec f9bc 18e6 763d
00000130: 787f 213e 0a29 a63d fc9f 4d3e ad4f 033d
00000140: 2b3d 2c3d 7c8b aa3e 77f6 833e 3e82 933d
00000150: 2710 8bbc 0740 6dbd da38 0bbe f906 c8be
00000160: 479a cc3c e0de a0bb b8b7 163d 4674 51bd
00000170: 3e34 ba3d 616a bbbc 824c 113f 8276 51bd
00000180: 1097 3f3d 98a9 e3bd 1ef3 163e 6111 5f3e
00000190: 3fb1 d83e 7b2a af3c 97ff 83be d79a 123e
000001a0: 84dc a9be e100 a93d fb11 dd3d cc0b 5c3d
000001b0: 39a1 973d 5473 18bd 76eb 45bc 4da2 143d
000001c0: e462 16be 247e 1cbd 57ba 72be 06c9 a2bc
000001d0: 2463 5abd 521d d93d cb15 223e b88e 853c
000001e0: af98 823e 2a0c 88bd 3daf f7bd 221a 0a3e
000001f0: da43 bd3d 885f 9abd ce87 ac3d 12c9 db3d
00000200: 8595 e83d 5c82 efbd 5fe2 b33d 0872 5e3e
00000210: e2c3 b23d 739f 9cbd 9c98 773d 30ae ca3d
00000220: f6ab 9a3d 6d9e 83bd 48a0 aa3d cf4a 0a3f
00000230: f015 cabd 9b02 fdbd d468 fa3c 9adf a9bd
00000240: 06c2 2e3e a70f 203d e60a 243d d38a b13e
00000250: ed29 bf3e b229 5bbc 5d67 bb3e 3d5b ccbc
00000260: 0507 b13e 0aa5 01be 0edd 473d 07c8 813d
00000270: 7cf1 d0bc 8c80 47bf 9402 ebbe c3fd 0e3e
00000280: a11c b93b c747 cd3d f8df c53b c212 a3bd
00000290: 83d1 2ebe 2fa2 37bc 5851 483e a5ba d63d
000002a0: 3135 1e3c 2ba9 dc3c 0fa0 c03e 1b13 1cbd
000002b0: 3953 213d 89d9 923e 9f35 513e 9ed1 cf3d
000002c0: d76a 293a fade 423e a8db 07bd 37f4 8bbe
000002d0: 9f47 823d 6ff5 0e3f 813c 8ebe 7a5e 30bd
000002e0: 036c 91bc a20b 57bd 694f 71bd 57ef 013d
000002f0: 78f8 0d3e 0201 68bc 59c1 8cbd e892 fdbe
00000300: 8e66 ddbe 2184 8d3d 929d 85bd 64a0 0b3d
00000310: 6e11 593d cbb9 e6be 1d1e 1f3f 8885 2ebe
00000320: fe93 853e fa32 033e 78a2 ae3e 6a25 43be
00000330: eef9 36bb e35c 453e 0d87 7cbf a33d 38be
00000340: 717f a5bd 39c7 b33d fe9e 873e 38a5 35bb
00000350: 6cd6 b1bc 7d4e 373d a171 ec3c 437c f2bd
00000360: d6d1 1bbe d412 06be 1a83 193d dac9 e9bf
00000370: 2e34 f2bd 3a12 ed3d ba0e 413d 3ccf 94be
00000380: 1387 2a3e b564 3abe 9a81 693d 572e a0bc
00000390: d1f0 fbbc bf07 8f3d 115d a93e 3b32 bf3d
000003a0: 40c7 383c 9acf b1bc 5032 b33e 10d8 ec3c
000003b0: 45b3 83be ce90 91bd 3658 8c3e 4a38 7cbf
000003c0: 60fa bdbd 6743 093e 2d71 483d 4219 bebd
000003d0: 694b 653e e38e 91be 5482 a9bd fec7 7d3c
000003e0: 9cc7 3b3e 5ac8 9d3d 580d cb3d daee a1bc
000003f0: 055a 15be 6f27 e8bc 084f bebc 1e68 7fbd

model.2.bias f4 [128]
0.30299294 0.27702788 0.26169932 0.24013461 -0.086390175 -0.08453757 0.20893829 0.037855692
0.24884711 -0.055298325 -0.06202033 -0.1581939 0.25116825 0.001383029 -0.20044117 -0.014701957
-0.009093061 0.08245045 -0.087590635 -0.043801237 0.026498951 0.15844923 0.005126707 0.19604442
0.07300145 0.23221834 0.21377797 -0.04624542 0.3051813 -0.025091458 0.41875324 -0.064845115
0.501045 -0.021107864 -0.020045787 -0.06668281 0.0041038557 0.047140833 -0.01463733 -0.05309864
0.1336852 -0.010907476 0.06782209 -0.057148825 -0.08286283 0.046004787 0.010617812 0.15342098
0.17510733 0.18000236 0.0122123 -0.02212527 -0.045821827 -0.018343255 0.1801695 0.013317293
-0.041816104 0.15653978 0.5453305 -0.032028347 -0.056008276 0.20425177 -0.28507805 0.05601018
0.18736586 0.28879336 0.41893223 -0.09884025 0.19755656 -0.03787482 0.20230949 0.101336196
-0.075992875 -0.11666697 0.6447138 -0.2190425 -0.025811117 -0.08875821 0.14368469 -0.029360406
0.0036741772 0.33915594 -0.016765535 0.056634896 -0.07071927 0.34445798 0.049424987 -0.090374485
0.20207743 0.08069285 0.14308667 -0.058410883 0.23789455 -0.006641031 -0.05056516 0.31344712
0.2340491 0.012005867 -0.06255053 0.027783893 0.32481477 0.17003173 0.090085715 0.17945555
-0.102534615 -0.7884016 -0.052866414 0.16802284 0.08343611 0.51919454 0.35763487 -0.05398502
0.32660967 2.4315725e-05 0.24373601 0.033005394 -0.140087 0.08907339 0.598506 0.09474543
0.19372058 0.5072359 -0.03570802 -0.07081483 -0.04626885 -0.025423937 0.05154807 -0.009323495
00000000: e421 9b3e 99d6 8d3e 74fd 853e d9e5 753e
00000010: 55ed b0bd 0922 adbd ebf3 553e 920e 1b3d
00000020: c7d1 7e3e 7f80 62bd 0809 7ebd 95fd 21be
00000030: 2099 803e c146 b53a 7340 4dbe 7ae0 70bc
00000040: 10fb 14bc c8db a83d b862 b3bd ed68 33bd
00000050: 5414 d93c 8440 223e effd a73b debf 483e
00000060: c981 953d a5ca 6d3e 9de8 5a3e d66b 3dbd
00000070: b940 9c3e 9a8c cdbc d366 d63e 84cd 84bd
00000080: 7c44 003f 66ea acbc 1037 a4bc ff90 88bd
00000090: a379 863b bf16 413d 69d1 6fbc f67d 59bd
000000a0: c6e4 083e 45b5 32bc 4fe6 8a3d e314 6abd
000000b0: fdb3 a9bd 846f 3c3d 55f6 2d3c 641a 1d3e
000000c0: 564f 333e 8a52 383e 1916 483c 0e40 b5bc
000000d0: abaf 3bbd 9844 96bc 5a7e 383e c630 5a3c
000000e0: 5d47 2bbd f74b 203e c89a 0b3f 2830 03bd
000000f0: ef68 65bd 6027 513e c0f5 91be ee6a 653d
00000100: d6dc 3f3e b9dc 933e 497e d63e c26c cabd
00000110: 444c 4a3e a122 1bbd 382a 4f3e 5a89 cf3d
00000120: 27a2 9bbd 18ef eebd f70b 253f ad4c 60be
00000130: d671 d3bc ddc6 b5bd 1422 133e 3c85 f0bc
00000140: 77ca 703b d9a5 ad3e e057 89bc fef9 673d
00000150: 44d5 90bd cc5c b03e db71 4a3d 4216 b9bd
00000160: 63ed 4e3e 4b42 a53d 5085 123e 4040 6fbd
00000170: a19a 733e 019d d9bb 6a1d 4fbd 247c a03e
00000180: 91aa 6f3e 42b4 443c 7e1a 80bd 0c9b e33c
00000190: 1f4e a63e cc1c 2e3e dc7e b83d 32c3 373e
000001a0: abfd d1bd b0d4 49bf 748a 58bd 2e0e 2c3e
000001b0: 8de0 aa3d efe9 043f eb1b b73e 651f 5dbd
000001c0: 6239 a73e 9ff9 cb37 ef95 793e aa30 073d
000001d0: f772 0fbe 1c6c b63d b037 193f e409 c23d
000001e0: b05e 463e 36da 013f 9342 12bd 5e07 91bd
000001f0: 6884 3dbd dc45 d0bc 1224 533d 93c1 18bc

model.4.weight f4 [64, 128]
-0.02318227 -0.09939499 0.29973495 -0.19232596 -0.12353077 -0.67123455 0.03138018 0.012602061
-0.54842293 0.033402696 -0.020252926 -0.33811337 -0.22346482 -0.048415437 -0.30354986 0.09282311
0.020801343 0.035459742 -0.034085672 -0.048468716 0.008094743 -0.5085644 0.10247359 0.17094794
0.22460546 0.43563133 0.19704065 -0.033651117 0.051008753 0.052388676 0.12165708 0.05036119
-0.048800543 -0.028109672 0.32857528 0.041181885 -0.014772542 0.17438087 0.0056064883 0.034004945
0.16689137 -0.09643457 -0.13790806 -0.01870686 0.007955997 -0.63974774 -0.010227327 -0.4151613
-0.40433106 -1.3664453 -0.040673103 -0.0004477579 0.053818014 0.0624535 0.12078431 0.0028410826
-0.023984918 -0.026783558 -1.1372902 -0.019167198 0.065037236 0.025010271 0.5067421 0.24840155
0.06633603 0.07331294 0.14578415 -0.027840573 -0.23820761 -0.027597366 -0.14743978 0.51894766
0.035524387 1.2060603 0.07686475 -0.06272458 -0.0662257 0.019663045 0.40877506 0.12015864
0.015061695 -0.1617249 0.056378115 0.2681588 0.088345945 -0.36564365 -0.25665706 0.0733211
0.071195304 0.02711047 -0.6436561 -0.03843011 -0.1177784 0.086890996 1.3685513 -0.16470361
-0.23265003 0.073025495 -0.25583777 -0.040362135 -0.021470157 0.0977276 0.047093216 0.17156582
-0.039574042 -0.40159303 -0.040710717 0.035582647 0.058227863 -0.3610368 0.38471836 0.022511467
0.24267636 0.155381 0.32938454 -0.16749838 -0.010092444 -0.022899006 0.27357376 0.167307
0.071766734 0.027980618 0.03142785 -0.0428733 -0.051954865 -0.030224599 -0.15630259 -0.060913328
0.014349597 0.055731125 0.011744247 -0.0153262885 -0.018826427 0.09866449 -0.0068865903 0.00783394
0.05497589 -0.03275469 -0.066062085 0.06052805 0.043934 0.020769693 -0.09489396 0.047170423
-0.019938963 -0.08845659 -0.061488606 0.069051936 -0.082226306 -0.08388126 0.066522114 0.05644728
0.018870082 -0.05843607 -0.096434854 -0.006670162 -0.0068749753 -0.047125675 -0.044067487 0.045537345
-0.06913836 -0.050051026 -0.031264324 -0.08735399 0.061392765 -0.009735096 0.019205421 0.034845334
0.018840134 0.035811484 -0.020374613 0.07657448 -0.008363545 -0.07653883 0.03215957 0.06556423
-0.03171938 -0.017621547 0.012939671 0.07525248 -0.08204174 -0.03998994 -0.05271601 -0.07182251
-0.061246034 -0.011501662 -0.0885872 -0.077779904 -0.053152278 0.07705466 0.046376467 -0.021044
-0.005449013 -0.06746693 -0.03767767 0.01760441 -0.04250771 -0.097059466 -0.018706612 -0.07769341
-0.0025579259 0.028462477 -0.014663901 0.0016413827 -0.06398441 0.05402585 -0.0457633 0.015671289
0.037142776 0.028975816 0.040436942 0.014566308 -0.04548633 0.05633635 -0.08375374 0.06282141
-0.018570568 -0.07160749 -0.036125503 -0.029539779 -0.05184958 0.045359544 -0.03605482 0.055107053
-0.065840125 0.04701715 -0.08492888 0.01846977 -0.09125075 -0.06667039 -0.08247894 0.0036916276
0.066144325 -0.022804826 0.05890573 0.056036253 -0.09024124 -0.03860736 -0.10014785 -0.023016246
-0.07861405 0.008192233 0.019699752 -0.046411976 -0.014086887 -0.098786354 0.0044067614 -0.029375728
0.059585437 -0.052071244 -0.048909035 -0.04276666 0.044415437 -0.024513878 0.003928185 0.053572826
00000000: bee8 bdbc 9a8f cbbd dc76 993e 19f1 44be
00000010: b3fd fcbd 07d6 2bbf 8188 003d e078 4e3c
00000020: 7265 0cbf 44d1 083d 77e9 a5bc 321d adbe
00000030: f6d3 64be 444f 46bd e36a 9bbe 0b1a be3d
00000040: 9467 aa3c 3c3e 113d 6b9d 0bbd 2287 46bd
00000050: d09f 043c 4731 02bf acdd d13d fa0c 2f3e
00000060: f9fe 653e 120b df3e 06c5 493e c1d5 09bd
00000070: 8eee 503d 8295 563d 5927 f93d 8947 4e3d
00000080: 14e3 47bd 4146 e6bc 053b a83e 56ae 283d
00000090: 8808 72bc e690 323e a2b6 b73b c548 0b3d
000000a0: 92e5 2a3e 7d7f c5bd c537 0dbe 213f 99bc
000000b0: df59 023c 82c6 23bf 8590 27bc 0690 d4be
000000c0: 7b04 cfbe aee7 aebf d798 26bd 0cc1 eab9
000000d0: 4770 5c3d 3ecf 7f3d c45d f73d 7531 3a3b
000000e0: 057c c4bc 3169 dbbc ba92 91bf 8704 9dbc
000000f0: 3e32 853d 57e2 cc3c dab9 013f fa5c 7e3e
00000100: 2fdb 873d 1825 963d 7148 153e ea11 e4bc
00000110: b2ec 73be df13 e2bc 74fa 16be c1d9 043f
00000120: 0582 113d 2f60 9a3f 446b 9d3d bf75 80bd
00000130: 57a1 87bd 6514 a13c f74a d13e bc15 f63d
00000140: 54c5 763c 369b 25be bdec 663d 1c4c 893e
00000150: b8ee b43d a535 bbbe 8e68 83be 5f29 963d
00000160: d8ce 913d c716 de3c a5c6 24bf e468 1dbd
00000170: cd35 f1bd e8f3 b13d b02c af3f 10a8 28be
00000180: cf3b 6ebe 648e 953d 2bfd 82be c452 25bd
00000190: 2fe2 afbc 6825 c83d d1e4 403d f3ae 2f3e
000001a0: 6418 22bd 9a9d cdbe 48c0 26bd 1cbf 113d
000001b0: 5780 6e3d d1d9 b8be cef9 c43e f869 b83c
000001c0: 2780 783e 321c 1f3e 17a5 a83e b284 2bbe
000001d0: c75a 25bc b296 bbbc dc11 8c3e 8752 2b3e
000001e0: 70fa 923d 9c37 e53c 7dba 003d ea9b 2fbd
000001f0: a0ce 54bd 9499 f7bc c90d 20be 4180 79bd
00000200: 921a 6b3c 5246 643d f16a 403c 1d1b 7bbc
00000210: e139 9abc 9c10 ca3d e8a8 e1bb ed59 003c
00000220: 662e 613d c829 06bd 8f4b 87bd 43ec 773d
00000230: 23f4 333d 3425 aa3c c457 c2bd c635 413d
00000240: 0957 a3bc bb28 b5bd 7adb 7bbd 1a6b 8d3d
00000250: 4466 a8bd f0c9 abbd bf3c 883d 4335 673d
00000260: 6e95 9a3c a95a 6fbd a37f c5bd 6091 dabb
00000270: 7947 e1bb da06 41bd 1c80 34bd 5e85 3a3d
00000280: 6a98 8dbd 4e02 4dbd 050f 00bd a6e6 b2bd
00000290: fb76 7b3d f47f 1fbc b054 9d3c fbb9 0e3d
000002a0: a056 9a3c 10af 123d a9e8 a6bc 15d3 9c3d
000002b0: 4007 09bc 64c0 9cbd c1b9 033d 8a46 863d
000002c0: 2eec 01bd 105b 90bc ea00 543c f91d 9a3d
000002d0: 8005 a8bd 7ecc 23bd beec 57bd ae17 93bd
000002e0: 1fdd 7abd 7871 3cbc 356d b5bd 124b 9fbd
000002f0: 34b6 59bd d5ce 9d3d 40f5 3d3d 7764 acbc
00000300: a28d b2bb 1a2c 8abd e753 1abd 2037 903c
00000310: 911c 2ebd 1dc7 c6bd 9c3e 99bc b91d 9fbd
00000320: e0a2 27bb 242a e93c dc40 70bc aa23 d73a
00000330: 420a 83bd 364a 5d3d 4c72 3bbd 1361 803c
00000340: 0623 183d b15e ed3c 35a1 253d 86a7 6e3c
00000350: e04f 3abd f2c0 663d 1587 abbd 83a8 803d
00000360: 4e21 98bc f3a6 92bd 56f8 13bd 68fd f1bc
00000370: 3a60 54bd eeca 393d 38ae 13bd efb7 613d
00000380: 30d7 86bd 0e95 403d 31ef adbd ea4d 973c
00000390: ace1 babd 7c8a 88bd b8ea a8bd 3cef 713b
000003a0: ad76 873d 30d1 babc 2247 713d 4586 653d
000003b0: 66d0 b8bd c022 1ebd 511a cdbd 918c bcbc
000003c0: 6700 a1bd b738 063c 6061 a13c 7c1a 3ebd
000003d0: b0cc 66bc 8050 cabd 9866 903b 5ea5 f0bc
000003e0: dc0f 743d a848 55bd d754 48bd 182c 2fbd
000003f0: f6ec 353d 54d1 c8bc 01b8 803b 2e6f 5b3d

model.4.bias f4 [64]
-0.091674104 -0.006001313 0.07801519 0.08219369 0.39324638 0.5250337 0.42765996 -0.01693932
0.5493661 0.004607732 0.5671092 -0.17353961 0.3857401 -0.086651124 0.20015039 -0.02560728
0.00521381 0.56178683 -0.10752263 0.0048645665 0.44808957 -0.39132577 0.31041902 0.0036177703
-0.06201743 -0.077475354 -0.0043219132 0.63912237 -0.14810221 0.308303 -0.047437362 -0.1405273
0.20659699 -0.124024324 -0.08510113 0.073966436 0.011415523 0.030595815 -0.15017347 -0.058820467
0.037101265 0.23684344 -0.090279564 0.20774868 -0.09268439 0.6273548 -0.12189368 0.3172962
0.275262 -0.0948486 0.031732194 0.33964097 0.33755568 0.19563037 0.23157188 -0.0034781315
-0.04206359 -0.069987565 -0.087552674 0.1301333 -0.031845562 -0.1270058 -0.039131444 0.0070670596
00000000: a2bf bbbd aaa6 c4bb 6ec6 9f3d 2a55 a83d
00000010: 9757 c93e 9c68 063f 3ff6 da3e 54c4 8abc
00000020: 42a3 0c3f 75fc 963b 122e 113f 5eb4 31be
00000030: ba7f c53e 2576 b1bd 39f4 4c3e 5cc6 d1bc
00000040: 9cd8 aa3b 43d1 0f3f d334 dcbd f166 9f3b
00000050: ff6b e53e da5b c8be 3eef 9e3e 1d18 6d3b
00000060: fd05 7ebd 66ab 9ebd d69e 8dbb 869d 233f
00000070: 1ba8 17be e4d9 9d3e ae4d 42bd 63e6 0fbe
00000080: 298e 533e 7700 febd 8049 aebd b77b 973d
00000090: 2c08 3b3c 13a4 fa3c 13c7 19be bbed 70bd
000000a0: 7ff7 173d 1687 723e 7ee4 b8bd 12bc 543e
000000b0: 50d1 bdbd 539a 203f 65a3 f9bd a674 a23e
000000c0: 24ef 8c3e fc3f c2bd 9ef9 013d 6ce5 ad3e
000000d0: 19d4 ac3e 5453 483e 2e21 6d3e 5df1 63bb
000000e0: df4a 2cbd a455 8fbd d14e b3bd aa41 053e
000000f0: 7e70 02bd cf0d 02be 4b48 20bd cb92 e73b

model.6.weight f4 [32, 64]
0.06808456 -0.05411032 -0.0033357795 -0.11464795 -0.1740844 0.044160556 0.045754015 0.09558674
0.023870356 -0.007609528 -0.024761744 -0.049313325 -0.07705541 -0.07982805 -0.052893013 -0.090719
-0.07121717 -0.16703872 -0.002649337 0.07061324 -0.14691436 0.15477924 0.059363123 0.056289267
-0.06524406 -0.15715028 -0.028936965 0.018910324 0.061510913 -0.15117645 -0.122236915 0.10386502
0.11060676 0.04269412 0.05511963 -0.11395233 -0.010491085 -0.05698328 -0.1480251 -0.16691385
0.037609383 -0.0075997724 0.0071951 -0.1571242 0.017467573 -0.10500616 -0.0990326 -0.040049303
-0.10808958 -0.09484453 0.042934157 -0.08246596 -0.20813785 -0.046812125 -0.13238695 0.01516142
-0.059167705 -0.12110481 -0.054949068 0.048295252 -0.03434061 -0.077055246 0.096588045 0.09307914
-0.07231809 -0.110183075 -0.2817555 0.14781657 0.40178126 -0.30118534 -0.31673717 0.10159528
-0.41792867 -0.12182454 -0.0811984 -0.13533592 0.5005861 0.063378625 -0.079710186 0.1897984
-0.01358664 0.16948739 0.11912899 0.075518966 -0.04883369 0.05117421 0.030869836 0.020666933
0.27244523 0.35086653 -0.020508064 0.3061547 -0.07730467 -0.20766895 -0.1708428 0.061222255
0.21626312 -0.08598744 -0.033493876 0.034785073 0.13734761 0.06559598 -0.22029108 -0.14502867
-0.08167292 0.27627563 0.054249734 0.21903062 -0.1490286 0.12525493 0.034835774 -0.0018650256
-0.33140534 0.0036749374 0.085320316 0.1761668 0.07583088 0.17292662 0.09690419 0.2446432
0.34045598 0.090008825 0.0655539 0.18521754 -0.021780793 0.008443322 -0.13127185 0.06495295
-0.10067606 -0.027653169 -0.19454709 0.03655469 -0.016432775 0.14910567 0.14772987 -0.006645043
0.22376975 0.043198485 -0.12945582 -0.11000542 0.18655041 0.10504233 -0.16988006 0.13762452
0.11973947 0.0065398794 0.07286202 0.0945384 0.089577325 0.1932496 0.009744808 -0.08884914
0.048091393 -0.010843688 0.114029385 -0.09123455 0.0724347 0.06261248 -0.009217637 0.103085704
0.18819489 0.06315395 0.023249807 -0.12805125 -0.024239345 0.023501052 -0.060575064 -0.11245671
0.024352899 0.010054991 0.03183467 -0.19217896 -0.0016580066 -0.16114715 -0.019951554 0.021709701
0.11247521 -0.09459966 0.015910288 -0.12336651 0.023770303 -0.12232415 -0.04898172 0.024864772
-0.16588758 0.034019396 -0.023175986 -0.3274069 0.064187735 -0.06492591 0.05181926 -0.023184972
0.17333789 -0.017262252 -0.11652167 -0.0016220077 0.3452203 -0.53625107 -0.36486608 0.020164624
-0.024132565 0.11159005 -1.0936121 0.021656187 0.04447905 0.046073686 0.074040316 -0.07457363
0.0924081 -0.09356197 -0.032123886 -0.20595565 -0.30920804 0.41191453 0.011480615 -0.043516103
0.021026889 0.115418665 0.14235732 -0.049515627 -0.17808942 0.020693757 -0.17854665 -0.15382624
0.4091081 0.018465329 -0.104275696 -0.15577652 -0.105767325 -0.06252894 -0.16870004 -0.2705039
0.07265187 -0.2766013 0.014516583 0.02948474 -0.077746265 -0.6701889 -0.10373064 0.07070716
-0.07494663 0.014220823 0.046310883 -0.030864961 -0.24960761 -0.14475559 -0.16998537 -0.23469861
-0.14280444 -0.061605398 0.12937902 -0.678606 0.12127243 0.043117385 0.035117924 -0.12041718
00000000: eb6f 8b3d c8a2 5dbd 189d 5abb 8bcc eabd
00000010: 2e43 32be b3e1 343d 9068 3b3d fbc2 c33d
00000020: c48b c33c 5959 f9bb 24d9 cabc c5fc 49bd
00000030: 3acf 9dbd e47c a3bd 58a6 58bd e2ca b9bd
00000040: 4fda 91bd 330c 2bbe 80a0 2dbb ad9d 903d
00000050: b870 16be 737e 1e3e bf26 733d 938f 663d
00000060: ad9e 85bd 01ec 20be 370d edbc d3e9 9a3c
00000070: def2 7b3d 00ce 1abe 5957 fabd 2fb7 d43d
00000080: cc85 e23d 08e0 2e3d 1fc5 613d d75f e9bd
00000090: cde2 2bbc 4d67 69bd e493 17be 77eb 2abe
000000a0: 4c0c 1a3d 8307 f9bb e0c4 eb3b 2be5 20be
000000b0: 2818 8f3c 780d d7bd 9bd1 cabd bd0a 24bd
000000c0: 125e ddbd d93d c2bd badb 2f3d eae3 a8bd
000000d0: 1722 55be 12be 3fbd 7290 07be 9b67 783c
000000e0: d659 72bd cc05 f8bd 4612 61bd 3ed1 453d
000000f0: bda8 0cbd 24cf 9dbd f4cf c53d 47a0 be3d
00000100: 821b 94bd aaa7 e1bd 4242 90be 3a5d 173e
00000110: 46b6 cd3e f734 9abe 602b a2be 3011 d03d
00000120: bffa d5be 257f f9bd 594b a6bd 8095 0abe
00000130: 6926 003f a7cc 813d 183f a3bd 835a 423e
00000140: 809a 5ebc 1a8e 2d3e e6f9 f33d b0a9 9a3d
00000150: d605 48bd 0c9c 513d bde2 fc3c b34d a93c
00000160: f17d 8b3e c7a4 b33e 8700 a8bc 4fc0 9c3e
00000170: e951 9ebd 2ba7 54be 6af1 2ebe 30c4 7a3d
00000180: 1474 5d3e 2f1a b0bd e030 09bd cb7a 0e3d
00000190: daa4 0c3e 2f57 863d fc93 61be 6582 14be
000001a0: 2244 a7bd 0074 8d3e f834 5e3d 9049 603e
000001b0: f49a 18be d442 003e f5af 0e3d e073 f4ba
000001c0: f6ad a9be 38d7 703b 6bbc ae3d 1265 343e
000001d0: 384d 9b3d ad13 313e b475 c63d bf83 7a3e
000001e0: 3f50 ae3e 8c56 b83d 2041 863d aba9 3d3e
000001f0: a26d b2bc dc55 0a3c 216c 06be 0d06 853d
00000200: 402f cebd e688 e2bc 5a37 47be 5fba 153d
00000210: 079e 86bc 28af 183e 8046 173e a9be d9bb
00000220: e623 653e e5f0 303d 1190 04be 864a e1bd
00000230: 1207 3f3e 6f20 d73d 0af5 2dbe 71ed 0c3e
00000240: f839 f53d 7c4c d63b af38 953d 599d c13d
00000250: 5174 b73d 39e3 453e b0a8 1f3c 8af6 b5bd
00000260: 7bfb 443d b9a9 31bc 3d88 e93d 2ed9 babd
00000270: a558 943d f93a 803d 9205 17bc 991e d33d
00000280: 29b6 403e dc56 813d 6176 be3c de1f 03be
00000290: 9791 c6bc 4785 c03c 8f1d 78bd b44f e6bd
000002a0: bb7f c73c b0bd 243c 1265 023d 90ca 44be
000002b0: 7851 d9ba c203 25be 7171 a3bc 8bd8 b13c
000002c0: 6759 e63d 77bd c1bd 4b56 823c 95a7 fcbd
000002d0: f0b9 c23c 1585 fabd 0ea1 48bd 35b1 cb3c
000002e0: 6fde 29be ec57 0b3d 91db bdbc e1a1 a7be
000002f0: dc74 833d e0f7 84bd 6f40 543d 69ee bdbc
00000300: 7d7f 313e 9169 8dbc eaa2 eebd 8c99 d4ba
00000310: b7c0 b03e c047 09bf bacf babe 4830 a53c
00000320: a8b1 c5bc 5389 e43d 7bfb 8bbf 5168 b13c
00000330: aa2f 363d c3b7 3c3d 73a2 973d 0fba 98bd
00000340: 7540 bd3d 6b9d bfbd 5694 03bd 0ae6 52be
00000350: 8450 9ebe 76e6 d23e 3019 3c3c f13d 32bd
00000360: 9540 ac3c 9f60 ec3d 1ec6 113e e6d0 4abd
00000370: 135d 36be f485 a93c efd4 36be a084 1dbe
00000380: 9e76 d13e 9a44 973c 7f8e d5bd e183 1fbe
00000390: 8a9c d8bd 2c0f 80bd b4bf 2cbe 7d7f 8abe
000003a0: 81ca 943d b09e 8dbe f6d6 6d3c fb89 f13c
000003b0: 6f39 9fbd 8091 2bbf bb70 d4bd eace 903d
000003c0: 9e7d 99bd 74fe 683c 7bb0 3d3d 84d8 fcbc
000003d0: 2399 7fbe cf3a 14be a510 2ebe d554 70be
000003e0: 543b 12be f155 7cbd ef7b 043e 1fb9 2dbf
000003f0: ae5d f83d db9b 303d d0d7 0f3d 489d f6bd

model.6.bias f4 [32]
0.0430893 0.54953706 0.16563037 0.046075903 0.06301214 0.7421014 0.1504704 0.46668735
0.4138727 0.17252526 0.5636187 0.4340371 -0.079753 0.98579276 -0.022178866 0.15172476
0.392472 0.46825266 0.1291844 0.33234435 0.43232036 0.2208175 -0.17512967 0.3831884
0.33464533 0.4139382 0.055036694 0.5536457 0.2754284 0.2039511 0.05577225 0.45841554
00000000: 687e 303d 76ae 0c3f 029b 293e 16ba 3c3d
00000010: 820c 813d 5bfa 3d3f ea14 1a3e a5f1 ee3e
00000020: 1fe7 d33e 76aa 303e 5149 103f 1c3a de3e
00000030: 8a55 a3bd ea5c 7c3f 74b0 b5bc bc5d 1b3e
00000040: 17f2 c83e d0be ef3e ea48 043e 0a29 aa3e
00000050: 1859 dd3e fc1d 623e 3155 33be 4531 c43e
00000060: a256 ab3e b5ef d33e 286e 613d b9bb 0d3f
00000070: f404 8d3e 8fd8 503e 7171 643d 71b5 ea3e

model.8.weight f4 [10, 32]
0.10469336 0.25886196 -0.33766422 -0.22246993 -0.04543853 0.06724195 0.023242395 0.031187894
-0.20298411 -0.09535867 0.25907668 0.01723075 0.020010563 0.061280172 0.17221318 0.2297736
0.32915124 -0.42922235 0.007738988 0.00045066644 -0.13729887 0.26722464 0.0832528 0.013120125
-0.1137623 -0.28184217 0.12494645 0.12016254 0.14428003 0.22311598 -0.011272099 -0.2414838
-0.060198896 0.32285258 -0.19991516 -0.031644903 0.04365727 0.2915618 -0.03174852 -0.016560659
-0.26932886 -0.21940963 0.1769266 0.069454156 0.069824725 0.18218705 -0.12755223 0.22630844
0.29463667 -0.3411621 0.10658364 0.20444964 -0.192481 0.088697255 -0.0580688 0.08038912
-0.22541916 -0.320106 0.075990364 0.119067386 0.13608019 0.19154187 -0.114936285 -0.23804168
0.13026088 0.50307834 -0.18714516 0.04226185 0.016216865 0.24158359 0.06850378 0.019806365
-0.22021453 0.120724656 0.30916542 0.05133867 0.13160639 0.08820038 0.15857542 0.24033535
0.26695564 -0.35057133 -0.0972037 0.27874252 -0.37028748 0.16051953 0.07775272 0.09341286
-0.27937418 -0.26795232 -0.10577481 0.053410444 0.057443622 0.18954538 0.10549698 -0.18856424
0.0103394035 0.33968666 -0.22376885 -0.16151406 0.045005307 0.046130966 0.18621546 0.059197225
-0.24689627 0.054618683 0.2888088 0.025700064 0.057738937 0.12530008 0.12961556 0.18137103
0.23057841 -0.28796846 -0.075465724 0.14937884 -0.10710637 0.19000715 -0.12220109 0.038990803
-0.28423867 -0.38074595 -0.14744897 0.08614732 0.019442808 0.19079028 0.005981395 -0.19785623
-0.14640003 0.21920717 -0.2155463 0.106165566 0.13807559 0.10870424 -0.054068215 0.050820637
-0.25553086 0.057447236 0.31283855 -0.059615158 0.100479536 0.0012663739 0.15769123 -0.0036459486
0.40594196 -0.3787806 0.13595644 0.14591837 -0.24481535 0.21756223 -0.13279536 0.12397506
-0.22385132 -0.24650775 -0.020045776 0.08352868 -0.0949633 0.21413891 0.10957668 -0.26749897
0.079041 0.35584715 -0.3604526 -0.008939529 -0.12990578 0.045523904 0.18024804 -0.030434072
-0.25603682 0.14983983 0.19854282 -0.031982303 0.06610818 0.018510439 0.10824828 -0.07430235
0.355637 -0.28294817 0.08124056 -0.23689441 -0.20569836 0.22188202 0.017876878 0.031380158
-0.27280417 -0.28045866 0.0016306737 0.1103701 0.060213484 0.21921097 0.1802411 -0.263639
-0.08590963 0.30177802 -0.13230422 0.050938062 0.03494313 0.085815586 0.15031435 -0.0013908024
-0.23782419 0.07350551 0.2450125 0.00012361823 -0.079658754 -0.042591464 0.09625408 0.13477643
0.2606774 -0.38440335 0.19237953 0.037604716 -0.15068908 0.11593156 -0.05636275 -0.034505803
-0.39290732 -0.23014879 0.03909762 0.10061342 0.18269248 0.23355485 -0.0050429762 -0.23247458
-0.08550875 0.3427787 -0.1911652 0.085940145 0.17473505 -0.10553137 -0.01443295 -0.003302267
-0.17738235 -0.06507868 0.31229582 0.0049353857 -0.066033095 -0.0016029506 0.092794396 -0.14405507
0.30865404 -0.21396852 0.07271666 -0.15848581 -0.19933212 0.1714766 0.064708576 -0.020731576
-0.25936213 -0.40289456 0.085871525 0.050728533 0.015758308 0.17059387 -0.15218379 -0.41206488
00000000: 7969 d63d 8e89 843e 53e2 acbe 28cf 63be
00000010: c11d 3abd 26b6 893d d666 be3c c17d ff3c
00000020: 11db 4fbe 684b c3bd b3a5 843e 8027 8d3c
00000030: 31ed a33c eb00 7b3d a758 303e c549 6b3e
00000040: 8386 a83e 08c3 dbbe 5697 fd3b 6d47 ec39
00000050: 1398 0cbe abd1 883e 7280 aa3d cbf5 563c
00000060: 35fc e8bd 9e4d 90be ede3 ff3d c717 f63d
00000070: 25be 133e 8478 643e 9cae 38bc 8747 77be
00000080: 1e93 76bd ef4c a53e 8fb6 4cbe 169e 01bd
00000090: f7d1 323d 9747 953e bc0a 02bd 38aa 87bc
000000a0: 79e5 89be ebac 60be 3f2c 353e fb3d 8e3d
000000b0: 4400 8f3d 3e8f 3a3e 0d9d 02be 66bd 673e
000000c0: 9eda 963e ccac aebe 8648 da3d 3f5b 513e
000000d0: bd19 45be e8a6 b53d 8dd9 6dbd 0da3 a43d
000000e0: 48d4 66be efe4 a3be d6a0 9b3d 9ad9 f33d
000000f0: 9b58 0b3e 8d23 443e b763 ebbd 33c1 73be
00000100: 1c63 053e bec9 003f fba2 3fbe c31a 2d3d
00000110: 3bd9 843c b061 773e b64b 8c3d f540 a23c
00000120: eb7f 61be 7d3e f73d ee4a 9e3e 7f48 523d
00000130: d3c3 063e 67a2 b43d 9861 223e 781a 763e
00000140: 69ae 883e 167e b3be bc12 c7bd 57b7 8e3e
00000150: 5296 bdbe 3b5f 243e d13c 9f3d 3e4f bf3d
00000160: 220a 8fbe 0c31 89be 77a0 d8bd e9c4 5a3d
00000170: 014a 6b3d 2f18 423e cd0e d83d fc16 41be
00000180: 9a66 293c 69eb ad3e a923 65be f163 25be
00000190: 7c57 383d d3f3 3c3d 44af 3e3e ca78 723d
000001a0: 60d2 7cbe d7b7 5f3d bfde 933e f188 d23c
000001b0: aa7f 6c3d aa4e 003e f1b9 043e 54b9 393e
000001c0: bf1c 6c3e 9a70 93be c68d 9abd c4f6 183e
000001d0: 965a dbbd 3c91 423e 9144 fabd d2b4 1f3d
000001e0: bb87 91be 22f1 c2be ddfc 16be 026e b03d
000001f0: 8646 9f3c 875e 433e 94ff c33b d39a 4abe
00000200: e4e9 15be d877 603e 2bb8 5cbe 556d d93d
00000210: b063 0d3e 54a0 de3d a276 5dbd 4d29 503d
00000220: f1d4 82be cb4d 6b3d 602c a03e 062f 74bd
00000230: 37c8 cd3d 75fc a53a cf79 213e def0 6ebb
00000240: a0d7 cf3e 88ef c1be 2a38 0b3e a06b 153e
00000250: e0b0 7abe a2c8 5e3e 82fb 07be a3e6 fd3d
00000260: 4839 65be 876c 7cbe 0a37 a4bc 1611 ab3d
00000270: 1e7c c2bd 3b47 5b3e bd69 e03d a0f5 88be
00000280: 3fe0 a13d 9931 b63e 3e8d b8be 1a77 12bc
00000290: 0506 05be 4677 3a3d f192 383e e050 f9bc
000002a0: 4217 83be 9d6f 193e cf4e 4b3e e0ff 02bd
000002b0: ba63 873d 34a3 973c 46b1 dd3d d52b 98bd
000002c0: 0e16 b63e 95de 90be 7361 a63d 7394 72be
000002d0: 97a2 52be 0a35 633e 8872 923c 7b88 003d
000002e0: fdac 8bbe 4798 8fbe 54bc d53a b809 e23d
000002f0: 6aa2 763d d778 603e 1f91 383e b1fb 86be
00000300: 63f1 afbd a682 9a3e c27a 07be 6ea4 503d
00000310: 8720 0f3d 15c0 af3d 01ec 193e 964b b6ba
00000320: 2f88 73be 0f8a 963d 8fe4 7a3e 849f 0139
00000330: 2124 a3bd 6374 2ebd dc20 c53d d502 0a3e
00000340: 8277 853e 84d0 c4be 24ff 443e 6707 1a3d
00000350: 3d4e 1abe 876d ed3d a0dc 66bd f555 0dbd
00000360: 262b c9be 20ac 6bbe d324 203d 690e ce3d
00000370: bd13 3b3e 0129 6f3e 8d3f a5bb d10d 6ebe
00000380: 361f afbd b180 af3e cfc0 43be 6301 b03d
00000390: bfed 323e d520 d8bd 2e78 6cbc d96a 58bb
000003a0: b8a3 35be f947 85bd 3de5 9f3e 04b9 a13b
000003b0: 5c3c 87bd 191a d2ba fd0a be3d 2c83 13be
000003c0: e707 9e3e 901a 5bbe 79ec 943d 1b4a 22be
000003d0: b81d 4cbe 9097 2f3e ee85 843d 44d5 a9bc
000003e0: 1dcb 84be 3248 cebe 69dd af3d b9c8 4f3d
000003f0: 9117 813c 29b0 2e3e 11d6 1bbe 2bfa d2be

model.8.bias f4 [10]
-0.26416132 -0.40296355 -0.584232 -0.60719156 -0.40696537 -0.118495606 -0.16745548 0.03435643
-0.12322962 0.08940919
00000000: 2740 87be 3d51 cebe 3a90 15bf e870 1bbf
00000010: c45d d0be d3ad f2bd 7379 2bbe 54b9 0c3d
00000020: d05f fcbd 2a1c b73d
